global_model/hospital2_weights.npz (npz, 40906 bytes, 6 tensors)

arr_0 f8 [43, 64]
00000000: 0eba d79d 62c8 a63f f1a9 e16b 4fff c53f
00000010: c670 6fe7 ee96 b83f 42c2 ab69 a3f8 adbf
00000020: df8e c3f0 01f7 c9bf 4a28 00bd 3cba c0bf
00000030: 4f8a bcf9 fa5f c2bf 2aed ae5f 7c42 cc3f
00000040: 835a f154 0266 bb3f b637 78ed 3bdd cfbf
00000050: c176 80b4 23bc c23f 821d af53 9444 9c3f
00000060: 5b4d 8496 3a31 c5bf 0d29 76a2 c7eb b7bf
00000070: 4486 c57e 75a1 c1bf 11e2 e2c6 ed7e bcbf
00000080: d395 0342 e59a bbbf 18f1 518e 493e 63bf
00000090: 0466 2989 c00c e8be cf50 6b26 56fb 6b28
000000a0: f020 b90b 4495 4030 5431 5271 5fc2 ca3f
000000b0: 55c4 1c5f e643 b0bf b542 3ed8 2967 7d3f
000000c0: 7927 518d 1c60 9dbf a7b8 fd0c 3984 e429
000000d0: cf4c fcfd d995 c3bf 5e2d 15c1 8aac fcbe
000000e0: de20 d77f 88cb c93f fd33 e98c 5c50 963f
000000f0: e21d 3940 ebd7 a7bf 4293 4154 a1a9 babf
00000100: 8a33 a764 6e5e c13f fffa 75ad de99 a7bf
00000110: 2686 b348 dfd0 ab3f 2a22 b78c 0efe ce3f
00000120: 5f2b b13b cc56 c0bf eb7a a72f b579 b53f
00000130: 62d6 783b 4bda bb3f c4c3 bbb6 4b41 c5bf
00000140: 85c0 35fd 35a7 ca3f 35f4 6015 d804 67bf
00000150: da67 a341 7152 a43f 8c54 604c 67fd 9ebe
00000160: 39b8 b993 b979 b8bf f285 0313 754f a53f
00000170: 84dc 0d00 e7b6 bcbf d8a3 3d16 8ebe ca3f
00000180: d97c 6282 b1fa c9bf 9c46 109f 2bbb c53f
00000190: 2e0d 3f4d 9a31 bdbf 4914 4a82 f667 c53f
000001a0: 2b8c c4eb 7d14 a6bf 7448 e766 be32 94bf
000001b0: 1c6c 4316 f8ec b3bf d21f cf5e b978 ba3f
000001c0: 0331 3765 fe8e 0929 2271 a7f4 96a1 bcbf
000001d0: a772 a09a b77f b33f ec0f 8ab8 65d6 2cbd
000001e0: cfe8 7946 96b3 c0bf c397 ce09 7ae8 71bf
000001f0: 40e1 1b7c ea83 a6bf ddbb c7eb 9b64 b03f
00000200: b33a e8f6 3d32 a13f 0b64 e5eb 2f41 c23f
00000210: dc31 f336 c293 ab3f 097e 12ed 06e1 abbf
00000220: 6388 98b3 bcdc cbbf 9568 02ec 0497 983f
00000230: 09ea 05a6 c466 acbf ce12 2fc3 ebbb ca3f
00000240: 2b0b 9be3 61e5 b2bf e6c0 0ccf a28b b6bf
00000250: a7ab 37d2 8451 cebf 090b f19e e713 c5bf
00000260: ec3b 2eb9 ae70 b8bf bf66 afaf ef41 b0bf
00000270: cd67 d648 aabf 953f 048c bb8f d3a4 babf
00000280: 32d0 da70 15a6 b3bf ad2e 15b3 7bb8 752c
00000290: 37b5 d525 40aa 70be baca d86a 67b4 bd2d
000002a0: 9d80 6500 7638 6a2b 7d2d 5f28 c477 b13f
000002b0: 4f86 39d8 370e c63f da9e ec4d f980 a73f
000002c0: f6cf 0ada 35aa bc3f 7670 a227 fa5d ab2e
000002d0: 42e2 c820 1b37 c2bf 5b2e ac4e d83e ad37
000002e0: 178f 346b ff7b ca3f e770 b24f 66e1 b7bf
000002f0: 18ad 27e4 7de0 b13f dc3c 30da f4ae 96bf
00000300: 76c0 cbfa 14bd cebf 3005 5440 5c1e c63f
00000310: 99b8 6154 aa07 c73f c641 3f57 b6fa ca3f
00000320: c7ef f3d4 f595 b73f 44c7 621d 625d c3bf
00000330: 055d b85f 6a5d b33f 3d9d 2f42 7e02 b8bf
00000340: 2a75 518c 36ca c23f 549a 415e 5dec c9bf
00000350: 84de 671c 8fed cbbf 5028 67c9 548f 7bbd
00000360: 921c 0399 c36a c63f 2611 f556 f88b c2bf
00000370: 8b88 c560 8178 cdbf df6e 88bd 3b02 d53f
00000380: 528d 8cc0 ba98 c33f f698 af31 94c9 9c3f
00000390: f3e9 c696 44a4 c5bf 47bf 3891 b7b3 c9bf
000003a0: 80a3 3e05 3c83 b23f 847d f866 47ca ccbf
000003b0: 6418 2195 121d 6bbf a29c cf16 0df7 963f
000003c0: bf04 0cbf c6a3 30af 7476 f21f df7b b03f
000003d0: 27f8 2a25 74c9 b93f a42d 1369 d414 18b0
000003e0: d0e4 e8b4 662c b4bf eb0d e315 eed3 85ae
000003f0: 06d9 a0e7 c72b a33f 39c0 00d4 f7f0 cabf
00000400: 44bd cb32 5034 bf3f 738c 91b5 b124 a73f
00000410: 1964 806b 946f ba3f 9c99 7c64 5a00 cabf
00000420: 1cbd d487 4c2b b63f 712f 21e0 1394 b53f
00000430: f594 8f3c fa5b c63f d913 79c6 1469 c03f
00000440: ec9d af79 ba18 babf 382f 82bc 5440 b7bf
00000450: d906 0393 8701 bf3f 6a83 f577 5b14 c0bf
00000460: dda5 691d fb52 c03f 548f 2579 28b3 c1bf
00000470: e417 2e52 75f3 b93f 653d 3481 3e7d a73f
00000480: e95f 1c12 5b05 c93f 6fb5 058d 00a4 963f
00000490: 1fdf 9ccf b2cf 5fbf 3f27 8109 6d1f 232f
000004a0: 7e4a 4d67 ff2d 19a8 ba6a 560a 1e3e d13f
000004b0: 7042 967f 9a88 c93f 1a74 f699 c0a5 cd3f
000004c0: 1711 2a92 69a0 d23f 29ff 467b a771 efad
000004d0: 85a4 e573 a404 b0bf db27 a9f3 cc4e 71bf
000004e0: f622 6016 1388 c93f 6da5 4861 6be0 a53f
000004f0: de25 16e7 1707 b83f 2b43 c181 aca2 ce3f
00000500: 8dba a94d 8349 cfbf d9c9 92c5 5fa9 90bf
00000510: b0ed 35a1 a44d c53f 1847 f899 aab1 c3bf
00000520: fdcb 3490 fe72 abbf 6780 74a2 5c5f bc3f
00000530: 51dc 0a93 2f60 bf3f 282b e9a5 06b9 d2bf
00000540: b1b0 74f1 2a02 c53f 275b 051f d979 c1bf
00000550: 95d7 4a10 ec88 8c3f 6393 b187 34bb 28bf
00000560: ccfa 97e2 fb15 c03f 79bd a655 6238 9ebf
00000570: 1e88 f3d7 48c7 c2bf be0a af29 3603 c83f
00000580: 7c9e 5d00 f229 c0bf 2694 c769 b39f adbf
00000590: a058 1ce5 ef64 82bf 79d3 b6f3 81cf c5bf
000005a0: f007 f22f 31ed 8bbf 6495 8801 e0a9 b63f
000005b0: 3e3b b7ec f558 b0bf 54d6 0582 adc8 c0bf
000005c0: e355 9a14 13e5 383f b6f5 22ce b92b c8bf
000005d0: 4f65 cbbf 1aba cbbf de98 d4b1 4ce6 6eb7
000005e0: 41fb 5a10 2e61 bdbf 9dc2 c1b9 a865 a2bf
000005f0: aba4 d398 8d43 a0bf 8d48 625b 2ac5 a2bf
00000600: a29f 50a1 9b4a ccbf 7da3 b68c 0466 c5bf
00000610: 3c45 f72f 66a1 c3bf 6006 045d cb4a c73f
00000620: a727 9c79 3530 8e3f 525d 40ee 6645 6e3f
00000630: 0d95 afb6 f4cb b43f 453a d0d8 11d1 d23f
00000640: 433e 0d8e dd2c b1bf 5fd1 a6b6 214e c8bf
00000650: d09f 0597 3090 c1bf c22c 834e d81c a5bf
00000660: 7540 1289 d92a 88bf 5f3e 3a10 0d13 cabf
00000670: 4213 26c4 9175 d03f f040 c061 ed59 af3f
00000680: 510a 665f 3f69 c3bf 7fcb cbdf 2b5a 29bf
00000690: 055c df07 5728 7bbd b6e9 56c9 73db d1ae
000006a0: 52f3 8525 dc1e 4f2b 62e7 91af c1a0 c4bf
000006b0: 8c76 7646 b40b d03f 4065 5262 b4ca c33f
000006c0: 1b8b c0ff 22a6 b63f b07d 0146 1182 17a9
000006d0: d188 1967 26f9 b4bf 4a11 464d 193f b4bd
000006e0: 4e99 cee4 7265 b8bf 4c78 3c0d 3c70 c43f
000006f0: b117 ea71 08b4 ae3f 3dca 3062 2ff5 b53f
00000700: 5647 01b9 5b0b c9bf ba80 0a19 c2aa c23f
00000710: 5f59 8891 c515 c23f 6d5d d63b 662a 8a3f
00000720: 2118 1aa7 d258 cdbf 8b8d 64cb 4c1f c73f
00000730: 8f7f 48ae d422 c43f a451 e77c 9ab3 cbbf
00000740: c693 e837 fff8 d03f e2d7 3fb3 1d9d d33f
00000750: 9e96 f98d a4a8 d23f e0c2 3dd7 f508 0cb5
00000760: 4ddb ec92 e1a6 bdbf adcb 5788 b2b6 c73f
00000770: 9938 f8dc 58cd ccbf 9ec6 ebea 9442 c4bf
00000780: b72c 258b 5942 b63f acba 1daa 993c c53f
00000790: 7739 4ab8 ef7f bcbf 922f 17a9 4f66 b8bf
000007a0: 98cd 7081 242d 913f 7e13 5c7b 385f c8bf
000007b0: 2909 e095 0a1a cf3f 4ee0 0d35 e6df 80bf
000007c0: c6fc df9a b828 ed3b 2c70 f967 29a2 d0bf
000007d0: 11f6 0e26 9543 b03f cdfc ee3d 70af e234
000007e0: 3056 4cfb 7dab 8a3f fe5c ae9b b91d 30bf
000007f0: c083 cbc5 a0ae b6bf bb8c b775 60a0 c93f
0.0444975679091507 0.17185395019198738 0.09605305815006479 -0.058537584924014854 -0.2028505731205916 -0.13068351009889262 -0.14355408853687598 0.2207789866641659
0.1070252854709484 -0.24893902869410817 0.14636656106534043 0.027605359656971647 -0.1655648455567683 -0.09344146458002829 -0.13773983659761957 -0.11131178002950316
-0.10783226834936181 -0.002349036849919394 -1.1467844420898043e-05 5.681291080733397e-114 2.864283675273174e-76 0.20905678780799042 -0.06353607008056035 0.007178462463244874
-0.028686948895745943 6.988673120356924e-107 -0.1530106058276943 -2.734564993049409e-05 0.20152384035305365 0.021790929890176603 -0.04656920584653414 -0.10415085131678573
0.13569431223586675 -0.04609580867235329 0.0543279434439337 0.24212819929950175 -0.1276488582101036 0.0838883630126294 0.10879965021089213 -0.16605516836673762
0.20822787154930125 -0.002809927023035753 0.039691485655296524 -4.617848613508802e-07 -0.09560737473086157 0.0416218362531814 -0.11216586829492498 0.20894027791953707
-0.2029630552906159 0.1697744871785759 -0.11403812776466246 0.1672351967028212 -0.04312509062790356 -0.019724822073677165 -0.07783461135424868 0.1034046036212424
5.313836010736802e-111 -0.1118406626987434 0.076167559862777 -5.122567194798766e-14 -0.13048056069584965 -0.0043720976945333416 -0.04397518887521068 0.06403517252304831
0.033586441412002975 0.14261435526239583 0.053861684043656516 -0.054451195182306185 -0.21767386216476145 0.02401359262930976 -0.05547155882500838 0.20885989218199658
-0.07381259733942318 -0.0880681758396836 -0.23686275734448012 -0.16466994534319948 -0.09546939869890964 -0.06350610770405306 0.021238957114839075 -0.1040775514516526
-0.07675298695795688 1.6270239202723142e-94 -6.20821167440325e-08 2.3331706160472052e-88 1.4984879341703884e-99 0.06823373780860283 0.17230890329215007 0.04590586734985687
0.11197220395371218 7.043685730282361e-84 -0.1423067007142596 1.678608693072203e-40 0.20690911039957235 -0.0932830757687416 0.06983172245206892 -0.02215178090778812
-0.2401453232373602 0.17280152455354303 0.17992142791940038 0.21077613124954392 0.092131962290238 -0.15128733095985514 0.07564415776174734 -0.09378804317349405
0.1467960534236366 -0.2025257787929201 -0.21818722617148378 -1.5665982285118543e-12 0.17513318034454933 -0.14489654775582855 -0.23024003243614674 0.3282613135249743
0.15309843446548627 0.02811271241434895 -0.16907555925520476 -0.20079702940847197 0.07231497886699678 -0.22492306259026063 -0.0033097613277588856 0.022426800267478904
-2.1927444093494578e-81 0.06439013032874091 0.10073018939417065 -5.199268422577517e-77 -0.07880250851384862 -1.404501542550009e-84 0.03744339659208333 -0.21047876216607778
0.12189198722966404 0.04520182935154873 0.10326507210301407 -0.20313577562883445 0.08659818950831205 0.08429073545374678 0.17468193013261382 0.12820682231008965
-0.10193982573365873 -0.0908253631807242 0.1211170896449646 -0.12562125546812847 0.127532376634277 -0.1382799712692938 0.10137112861966063 0.045877412101726724
0.19547594436949048 0.022109993560140703 -0.001941609020333197 1.2599743440243477e-81 -1.5976139814417084e-115 0.26941634187248165 0.19948130826789479 0.23162086026869205
0.29104079507693953 -1.975825247646735e-87 -0.06257083730237596 -0.004225540726631362 0.19946516602092118 0.042727809548817365 0.09385823623428943 0.239339412075901
-0.24443093578471 -0.016271110948489074 0.1664319789086739 -0.15385944860514011 -0.053611712554264536 0.11083010641277867 0.12256142940428673 -0.29254308893421177
0.1641286543830396 -0.13653100981420005 0.013933033225253225 -0.00018868461833956426 0.1256708961882026 -0.02951196334623549 -0.14670668167588102 0.187598009446523
-0.1262800695214884 -0.05785904566054283 -0.008981584720043678 -0.17039513015847854 -0.013636001849821583 0.08852958714904485 -0.06385743169014987 -0.13112419937867748
0.00037986484367399774 -0.1888344055677586 -0.21661695828405889 -1.108469066568267e-41 -0.11476409816075962 -0.03593184726276386 -0.03176538935242353 -0.036660503058684936
-0.22102685333925104 -0.16717583533070615 -0.153363011761522 0.18197004358084978 0.014740388654462878 0.0036952028622284994 0.08123712024788095 0.2940106026952985
-0.06709084241924139 -0.18988439005409938 -0.1372128236209833 -0.041235694488557254 -0.011800479407867418 -0.20370639126166432 0.2571758666529612 0.061232965643400195
-0.15164940031179922 -0.00019342217992565286 -1.5437295805830829e-12 -3.676845927368019e-83 4.446299056724613e-100 -0.16115590164900612 0.25071436768653466 0.15462355423805185
0.08847254508922868 -9.77504334285158e-111 -0.0819267274578437 -1.8414066130933934e-11 -0.0952979858981042 0.1596751274709639 0.05996729269558843 0.08577247760039426
-0.19565912755438813 0.14583612654405959 0.14128942113957074 0.01277618284329548 -0.22927315863870582 0.18064269954002685 0.15731295118257235 -0.2164185628777321
0.2651975675565236 0.30646460060904535 0.2915431391214528 -3.6587383760814785e-53 -0.1158276542381433 0.1852629819619244 -0.2250166968301002 -0.15828191252471852
0.08694991728877964 0.1659118729252972 -0.11132715462938401 -0.09531114462077842 0.016773767853192817 -0.1904059030859137 0.24298221891519603 -0.008239553922735034
4.939738066366218e-20 -0.25989756730791913 0.06353122882043062 6.096365675342975e-54 0.013022407752525472 -0.0002459123749587038 -0.08860211209277136 0.2002068114080425

arr_1 f8 [64]
00000000: f23b 02e7 e19c 403f 96cd 8758 a8ec c43f
00000010: 027f 9716 2853 94bf eb94 e519 d48e 95bf
00000020: d1de b045 548c a93f 2cab 4dab 7e71 ad3f
00000030: 4ded 7e10 ec2e c3bf 8cf4 7859 a0f2 c5bf
00000040: e519 6c53 9109 c43f 3c16 6be0 560e a6bf
00000050: 1c17 4a55 dc88 b1bf 85f4 7d76 c220 8d3f
00000060: 2f53 9bfb 5e9c c0bf 3120 a538 18b5 c6bf
00000070: 2ea7 bd13 d377 b73f 6b08 901b c303 ba3f
00000080: 889b 3bde 8442 bdbf 17ed 117a 644c c33f
00000090: e81d 5dcb c823 8dbf ca7e 9d16 4905 c7bf
000000a0: c5b5 55da 76b5 ccbf 7089 60bd ae3b 8d3f
000000b0: 661d a9bb 7c78 a4bf 8031 c593 5502 b63f
000000c0: 9207 3dbc 7241 c3bf 4e93 1c3b f797 bbbf
000000d0: 7534 a9d2 8a5a b7bf f114 b494 0f58 b33f
000000e0: 1714 f1ad c7ec bd3f cd69 448a 6d8a 7e3f
000000f0: b669 eff0 593e c7bf 0e5a 4b48 29c1 cebf
00000100: 869d 8796 7e6f b53f 8972 df61 1b39 b7bf
00000110: 5549 6041 ea9b b63f ab05 ec7e 8fa8 b23f
00000120: 8879 2aab 53fb bbbf b21f 42f7 6883 b0bf
00000130: 4e7f 01e1 a640 be3f 2094 cc60 d25c b43f
00000140: 5aa9 e5fa c4ce b3bf 5337 eec7 662b a63f
00000150: 1d2b 3800 4c2e acbf c8e0 2551 1432 c33f
00000160: aeee a971 e74c bfbf 4532 a5ad 4141 c5bf
00000170: 299f 21e8 c188 ad3f ba13 1bfc 5b16 a9bf
00000180: 3d87 2b99 5963 b2bf 08cb 4c09 1cb8 b43f
00000190: db6b 089c 47b0 ad3f 09e7 cdb5 7f70 bb3f
000001a0: 3321 9431 629d cbbf ce53 d657 e7a1 963f
000001b0: 5288 fafa b07e cabf 954f 688c 8904 933f
000001c0: 0d50 a3d8 144e c4bf 5d79 9e7f 881e c23f
000001d0: 6ab3 6789 ec8e 97bf d164 9632 4893 89bf
000001e0: af13 660d adbe a0bf 3043 b2ed d97e 8cbf
000001f0: 06d7 9fa2 7c5f c03f a2fb c4fb e0ea 58bf
0.000506983093161993 0.16347221682336216 -0.0198484672345094 -0.021052660065284206 0.04989875174254411 0.05750652161699174 -0.14986944966754337 -0.17146686905644903
0.15654198239663156 -0.043078150648892394 -0.06849457819234 0.01422264026745724 -0.1297720650242353 -0.1774015690409683 0.09167212707475578 0.10161990569034322
-0.11429624963385099 0.15076881370973957 -0.014228409486931562 -0.17984880069979275 -0.22428785000685827 0.01427399173195873 -0.03998174467829578 0.08597311837838184
-0.15043482009246795 -0.10778756325869418 -0.09122531550493014 0.07556245212989034 0.11689422604202125 0.007456233874359741 -0.18159031166471856 -0.24026981382367335
0.08373252081911717 -0.0907151330897681 0.0883165750131288 0.07288452957802487 -0.10930369309287447 -0.06450515781955238 0.11817400925928931 0.07954134810695779
-0.07737380147378783 0.043299877076704484 -0.0550407171504814 0.14996580087950506 -0.12226721310610841 -0.16605397204183894 0.05768400152811488 -0.0489987130399991
-0.07182846059324972 0.08093428828287241 0.0579855325670093 0.10718534649450019 -0.21574046536285038 0.022101988540800303 -0.20699131254974873 0.01857199592093613
-0.15863285615944314 0.14155679923437506 -0.023006149183788883 -0.012487949413115736 -0.03270474232252895 -0.01391382462159782 0.127914027601655 -0.001520843229698456

arr_2 f8 [64, 32]
00000000: 9624 4137 846f c23f 8249 ab79 48e0 c73f
00000010: 6e4e eaed c023 bebf 3dc3 5c55 c734 c73f
00000020: 84a8 ffa4 3559 bfbf 72b2 a53f 1ff5 a0bf
00000030: cc06 3f12 86f6 8f3f 7489 7fdb 1007 51bf
00000040: 2ca5 8c85 9a7c c42a b2e2 c748 2afc b33f
00000050: df47 4ad4 df31 963f 976e 59bc 1159 b8bf
00000060: 013f 88bb c019 7e3f 9ee6 fd10 c635 bf3f
00000070: 2c8d 36a2 7651 bcbf ea4d 3f53 347f 1da8
00000080: 7670 c224 861c a1bf 1e60 8a87 8b93 b33f
00000090: b82e 342d af37 cbbf a6d1 0860 d7c6 cc3f
000000a0: 5b20 5685 d22e b53f 371e 601e 1ac9 b23f
000000b0: ba19 63d5 602e b7bf 584f a515 cbf6 c6bf
000000c0: 7cbd 0bb9 3d06 cabf 8e9f 2164 8ff8 622f
000000d0: 1009 3aa5 4d2c bfbf c900 20cc a13a 882a
000000e0: 1598 04c7 37ef c13f 71d2 37b8 052c c4bf
000000f0: 6192 9a5b 2f92 c5bf 0cba 4425 ad9d c93f
00000100: 98e3 111a 17b3 c63f 8732 d365 cc65 c8bf
00000110: ab92 f579 ca05 cc3f 88a0 f811 e3d3 c53f
00000120: 988c b821 4891 8c3f 0f5d ad8a 6d03 abbf
00000130: 3601 965b 87cd b9bf bf99 07a0 f013 6bbf
00000140: d199 4688 533f b9ac 79a1 1e2b 4983 c6bf
00000150: 82dc b15e 3238 b4bf 9e22 02f0 13aa aebf
00000160: a0b0 01a8 bec6 cfbf ae49 128c d95c cabf
00000170: 7e90 6f3b ecc2 b53f 357c c8dc ec9a b43f
00000180: 37b0 fab5 0bd8 c63f 2ba5 2973 5b3a 933f
00000190: 6c50 9ce3 1182 cd3f 791a 1387 5471 cb3f
000001a0: 0d20 51f7 0da0 c33f a65a 9a6b 01c5 c33f
000001b0: 8bbd d6ff 55d4 9cbf 0156 aa4f bb08 ce3f
000001c0: e933 417c 6c6a cebf 4630 4624 855c d82b
000001d0: 7633 5e23 4b73 a63f d8d5 9c75 17bf c43f
000001e0: 3974 a946 dd92 a93f cc07 58f8 9739 c2bf
000001f0: 646b 59da 8018 ab3f 7adc 324e 8a21 c2bf
00000200: 603d 1825 7f10 d03f 4dfe 414e 64b1 b1bf
00000210: 5616 0ed6 bd3f c63f b859 3d48 8d5e b930
00000220: 6468 48a5 0e7c bbbf eae0 0715 209e aa3f
00000230: 5967 f28e a21f ca3f cef5 7e4c 9976 be28
00000240: e520 942b b1b8 f6ae 99ce f2ee 8757 ccbf
00000250: 0747 c02f f0e6 a4a8 dc0b 548f 16b0 68a8
00000260: 362c 0a28 1910 cc2c 9601 7f3a 67fb bebf
00000270: 914d 1f7c 63a1 c53f 0ce6 6703 f8a2 00b0
00000280: c2a0 ced7 a5fa c83f 6b4a 1659 f99f efaa
00000290: cb67 bec3 847d 9a3f 04a1 1cd7 4052 c83f
000002a0: 132e 20d8 e7b6 bebf 165c 8812 9b3b 51bf
000002b0: 0ca2 d493 3020 d2ab d4f5 7def 1503 583f
000002c0: 1f02 656d ac32 d0bf c7f5 a7c1 f317 762b
000002d0: a75d 246b 38a5 aebf 9cb5 8e80 f8d7 1028
000002e0: 4c02 12e8 c3d0 cc3f ba02 fe1a be38 c1bf
000002f0: e5c9 efce ea0f d13f 157b 621b 7cd4 cc3f
00000300: e5a5 bd6d 3541 89bf 73c5 8958 5a54 71bf
00000310: 5ff0 7597 879c c2bf 3a7a 7889 065a c33f
00000320: 218d 927a 2c46 c63f 37ca 78e3 e37d acbf
00000330: 64f6 ec55 9c56 cdbf 2b8b 3c09 03de 6dbf
00000340: c7a7 97ad ef22 a62c e51d 20d6 2bc4 c1bf
00000350: 8bfc 24ee fd16 b1bf cd80 38c7 a357 bcbf
00000360: caf4 8b7d c151 c23f 406e be16 a30e b13f
00000370: a239 d361 a805 cc3f 2aa2 bb07 8ecc b03f
00000380: b2c8 24d3 7c05 c43f e86f b2c9 ae1c ca3f
00000390: d1e3 7941 992f babf 2dc1 3a9a 7a7c cf3f
000003a0: 958a f84f 5178 c63f a535 a321 391f c73f
000003b0: 0c70 c826 8de6 babf d695 1750 4ad9 c63f
000003c0: 31b7 f52b b6ca b8bf 21ca 3eb0 e2ce 68be
000003d0: 1cdd 0f5d 228d c7bf 0301 b920 762e a33f
000003e0: 6fd6 5aca fe7b c13f 87d8 e856 a7d7 a53f
000003f0: bb0f de4e f596 ba3f ead8 bc6e 99b6 ab3f
00000400: 173a 2a6c aedc ac3f 47f8 96b5 9de7 b63f
00000410: 2f7a c1b2 2c22 c63f 1ca7 ada5 ab8e b93f
00000420: 750f b617 e30f cebf a7be 9d17 b08c af3f
00000430: fb54 4014 9952 c93f 931c fdee c15f 57bf
00000440: 6347 c0ff ad7f 1428 285f bb19 9c67 a7bf
00000450: fa3c ad61 3197 9ebf 069b 00c4 198b b03f
00000460: 6d49 5ad2 5fe7 bf3f f60e 27ee e89d cc3f
00000470: 184f 1f0b b4a8 a33f dcff e247 a4df ac3f
00000480: c0b8 0033 ad1b c63f 9ca5 03c9 f9c4 90bf
00000490: 3561 4df7 71f5 8ebf dc77 d53f 0f12 af3f
000004a0: 5160 dd09 70f9 a93f 200b 1916 34cb cebf
000004b0: 40c2 02b6 0c7a cdbf b4e5 3ad8 d360 c03f
000004c0: d09f 07f8 707a cabf 0ca6 70aa 6681 aa3f
000004d0: 508b 93d5 385c b23f 621e 2feb c870 cdbf
000004e0: 43c8 532d b7e6 a53f db59 015e 23e4 b73f
000004f0: e174 5204 94cd c9bf e327 a729 2f48 a6bf
00000500: 41bf 90c3 4f5f c7bf 43a3 68e3 cd21 cb3f
00000510: 4f57 0559 a7d5 cf3f 1216 d051 b9d6 c33f
00000520: 6870 7bed 797e 823f 8d48 fff1 83a1 c6bf
00000530: 16e7 6a05 fa4e b63f 174c e886 b74f 782c
00000540: 56a7 b3e3 073a 262e 7dde fd20 7565 b33f
00000550: 1c88 6ac0 624a a83f 7208 4175 3acd 55bf
00000560: 672f c86a 9351 c03f 8bf8 d48a 3ce1 a33f
00000570: d74e c65f 85a7 c63f 3a7d bcfe 34f1 bcbf
00000580: cabb ab64 03c4 c23f c84a 5919 2f48 c6bf
00000590: 1e10 8638 23ac cabf e960 628d cecf c83f
000005a0: 0314 67aa f651 a33f 6738 f899 f946 c13f
000005b0: 03a5 8598 bd56 c03f bd2d db19 75c2 a13f
000005c0: e78d 6755 65f8 c53f c6b9 feda ca85 b63f
000005d0: 5a1a 317e 4048 be3f cf74 b36e 0b8c 4bac
000005e0: dc80 9fc8 7af5 c2bf f9c5 f7f0 b340 c2bf
000005f0: 6dfb 5c59 df31 d8bf 6965 9d43 3c42 a3bf
00000600: 0819 c0af 379a c13f ce01 2955 019c 963f
00000610: 24c8 d967 e602 babf 2d12 1141 e0e8 c0bf
00000620: fe5e e4fb 549e b53f 2892 cb11 4705 bdbf
00000630: 11b9 b598 3e76 c4bf 995f 958b 668c 71bf
00000640: 06ab 4578 9476 5728 84f6 757f cd06 cfbf
00000650: 5b4a cd77 a348 973f 4d7a e8b4 5d2c cf3f
00000660: 7879 dfc2 e4d5 aa3f 491f e9b6 72f6 cd3f
00000670: 4656 1f23 1886 b13f cc10 9a50 af50 ad3f
00000680: 8c32 3781 a6ff b73f 6f5d b82c 64fa c33f
00000690: 9a6e 1142 eac4 d0bf 1af4 2952 1049 8ebf
000006a0: 3f2a 192d a274 c8bf d133 da2c 7c74 c33f
000006b0: 440b 3828 4d89 c03f 490f 2e45 8494 c9bf
000006c0: 6b6d 8fcd 06e8 be3f 8cc1 1e96 ad08 95bf
000006d0: f805 c431 8c51 cfbf bac0 0ba0 2125 1ca8
000006e0: 13f4 2c88 a4ff ab3f e2a8 5f24 c414 bb3f
000006f0: 34ce ebf5 c8e4 bdbf 6b15 a919 fd02 cc3f
00000700: 9f43 ce0a b0c3 c9bf d042 5b77 3cdd a53f
00000710: 0f2b cc18 0f83 cd3f b1b8 d870 6616 ce3f
00000720: 096b 306a 4548 93bf bb88 32d2 75af c33f
00000730: 8fa2 f4b7 bba9 ccbf e231 7406 5dd4 78bf
00000740: 0dfd 5dbc 971d 8931 002a 3ef0 d4bb ab3f
00000750: b904 9b52 dfa3 c63f d275 ebc2 c931 c23f
00000760: e9ba d774 bb51 b93f b2ab b51e 5b08 c0bf
00000770: 9af5 29b7 6752 cb3f 06ab e44c 027b cc3f
00000780: bdea 9168 c045 a6bf ef87 ad24 0b41 c03f
00000790: 82ec 79b6 6b8a c13f b763 ed5e c843 833f
000007a0: 3e11 7794 a0e6 843f 6292 f0f0 5bf7 b23f
000007b0: 78ab 82db dcfc c6bf 9117 7e98 fe4e c63f
000007c0: d0b1 ab80 3b39 d0bf c805 284e 5a50 6f3f
000007d0: e596 e8c8 1d6c c8bf 5477 79f6 638d c6bf
000007e0: 64cf 7372 77d2 c5bf dee2 31d7 691e b4bf
000007f0: 9fff 57aa c4f2 c6bf d0ed 471a a158 93bf
0.14402821252796078 0.1865320772254329 -0.11773305710294732 0.1812981764610643 -0.12245497968948099 -0.03312013294166584 0.0156069254225061 -0.0010392822859946723
1.143363149150633e-102 0.07806648518443174 0.021674630481875453 -0.09510908935902261 0.007348778592600303 0.1219142714961898 -0.11061803303032453 -1.8715349176595418e-115
-0.033420745837447294 0.07647010859579992 -0.21263684947222372 0.22481815518552856 0.08274570231708493 0.0733810733946648 -0.09055142602583191 -0.17940653378411286
-0.203315463404106 1.9999538330255814e-80 -0.1217697647462368 8.451378575217864e-104 0.14011285035775303 -0.1575934552671643 -0.16852371189920048 0.20012440032719814
0.1773404004377681 -0.19060664150164916 0.21892672495882456 0.17052877786159493 0.01394897797496801 -0.05276052778088502 -0.10079236970887426 -0.0033054065427109143
-3.025920190272527e-93 -0.17588152509166458 -0.07898249446758324 -0.05989134125508609 -0.2482527084679349 -0.20595855082917808 0.08500553561276722 0.08048897161687381
0.1784681929178775 0.018777302650424915 0.23053191770361836 0.21439606280746995 0.153321977386668 0.15444963220644076 -0.028153747310793825 0.234641469859227
-0.23762279574512427 1.7820659555869704e-97 0.043848369662646755 0.16208165400318708 0.049948611140941464 -0.1423826181999729 0.05292132058521906 -0.14164856737417947
0.25100687620666484 -0.06911303434935086 0.17382023765474014 5.608804475605396e-74 -0.10736171279168755 0.051987650458558424 0.2040904233916148 1.9792390226564158e-112
-1.8713598385462808e-82 -0.22142123382001414 -6.790184999657908e-113 -5.01250502085373e-114 6.726724597474486e-93 -0.12102360895278816 0.16898768959672997 -1.79595568577611e-77
0.19514916455705672 -7.0599336395203674e-102 0.025869440505267776 0.1900101709700338 -0.11997841860300466 -0.0010518087748374642 -1.3259195959851152e-97 0.0014655794347783095
-0.2530928676897321 2.525266414157514e-99 -0.05985428150068666 1.068704186555509e-115 0.2251210101276392 -0.1345441467092508 0.26659651001605617 0.22523452126639457
-0.012331406985782454 -0.004230835832104918 -0.14540190597097344 0.15118486130173087 0.17401653275474252 -0.0556479659247952 -0.22920564838016155 -0.0036459025667609133
1.3265380705170405e-93 -0.13879917102188624 -0.06675707878183539 -0.11071227659022327 0.14311998968324807 0.06662959389944323 0.21892266060463067 0.06562125862877424
0.15641746816397056 0.20400032852637584 -0.1022887978414382 0.24598629503953742 0.17554680256678937 0.18064035551507832 -0.1050804347691498 0.17850617323635615
-0.09684313367116883 -4.620877372355189e-08 -0.18399457496682536 0.037463847631899604 0.13659653549773362 0.04266093192966119 0.10386593986009889 0.05412749745157604
0.05637116499302779 0.08947168048232 0.1729179261046325 0.09983322901612407 -0.23485983522197854 0.06162023819240164 0.19783318985779616 -0.0014266389734574377
1.3006158025486783e-115 -0.04571235479460106 -0.029873630129540786 0.0646225074311638 0.12462424169124171 0.22356902721923405 0.03839647899408599 0.05639375093005558
0.17271962156650567 -0.016376402753768823 -0.015116587028089693 0.06068465856763769 0.050731183246796825 -0.24057627753253374 -0.2302871597980971 0.1279549413500668
-0.2068616114695474 0.05176850157324617 0.07171969618097518 -0.23000442012402106 0.0427758448439737 0.09332486195612637 -0.20158624850311127 -0.04351947196444408
-0.18259617852299395 0.21196912387793007 0.24870769354554986 0.15499035353438778 0.00903029685962782 -0.1768040591837842 0.08714258796944949 1.821089266229568e-94
2.2346314485587635e-86 0.07576686912022441 0.04744251822309328 -0.0013306685332428428 0.12748949731792011 0.03882779307103686 0.17698733498092764 -0.1130555269160042
0.1466068498188789 -0.17407788026556248 -0.20837822208352547 0.19384176162271352 0.03773470716581786 0.13497848527953524 0.12764711329808884 0.03468671742083582
0.17164293928281824 0.0879790100723091 0.11828997689108559 -2.579327400561389e-95 -0.14811644359634257 -0.1425995756722356 -0.3780439732253658 -0.0376147110498078
0.1375188453823244 0.022079487631573795 -0.10160675082605103 -0.13210681130489502 0.08444720411022996 -0.11336178001835917 -0.15985853630576988 -0.004284287040114431
2.3819297781549516e-114 -0.24239510272666476 0.02273803156578889 0.24354144414333448 0.05241312865085751 0.2340834992521599 0.06845236642342298 0.05725620135220452
0.09374466566732503 0.15607883628465966 -0.2620187421032171 -0.014787795550768524 -0.19105937196794007 0.1519923419004088 0.12919010604681536 -0.19984486940313165
0.12072794455109707 -0.020540916717153787 -0.24467613630262952 -1.7857621379247238e-115 0.05468477403926655 0.10578561676053114 -0.11677223209317661 0.21884120705559992
-0.2012844136011411 0.0427035232256735 0.23056210242096895 0.23505859861456238 -0.018830380064268435 0.15379212153954377 -0.22392984850127504 -0.006061900500992286
4.548775645453896e-70 0.05416741783763612 0.1768759873721473 0.14214441316191412 0.09890338518719556 -0.1252550029706448 0.21345230525541298 0.22250393633415672
-0.0435009124421035 0.12698497095976743 0.13703676614736443 0.009406628987265948 0.010205511599345681 0.07408690101926532 -0.17959175794871007 0.17428572126317168
-0.2534931904363278 0.003822494866881885 -0.19079944906223215 -0.1761898950089128 -0.17048543060775068 -0.07858907226353604 -0.17928369824948917 -0.018892781476081144

arr_3 f8 [32]
00000000: a719 b371 b4a9 a63f 3488 0b46 29a4 973f
00000010: 8b04 42d8 7865 ac3f 1d39 f1ef 00bf b63f
00000020: 22b2 c504 dc65 a93f e490 c2d1 10e9 c33f
00000030: b066 e9cf efed c9bf f67a 1749 bc43 c73f
00000040: 08b7 81f2 d077 cdbf 86be 85b8 d028 b73f
00000050: e477 ea43 2c06 653f f4d8 35b5 b7e0 c93f
00000060: cd39 6fcc 0c4a 783f 40e2 ac49 8023 cf3f
00000070: 8442 497d a8b2 b7bf 4ff2 0128 4406 a2bf
00000080: 6aeb 6b15 b7e2 cd3f f272 1954 3d5f c53f
00000090: f118 1677 6f7e 6e3f 7b21 f2d2 ca3c ce3f
000000a0: 1838 1932 9e30 cd3f e3c4 b6c2 dc5e b13f
000000b0: 49ac db6c 7bc3 cfbf 20d7 f819 8883 c33f
000000c0: 5889 5bd0 8835 583f ebcf 608d 32e1 a3bf
000000d0: 88d9 91d2 b09b a0bf c9b8 206a dfaa aa3f
000000e0: 8f85 b496 d526 c03f 8432 4cbd e9d8 cd3f
000000f0: 0727 06bf dbec c7bf b5b4 7c84 d96b bb3f
0.044263495330187745 0.023087162876329795 0.05546167030207368 0.08885198457685246 0.049605250914144486 0.15555010072888031 -0.20257375385226828 0.18175462311679497
-0.23021900025508324 0.09046654229109138 0.0025664200359889356 0.20217033718262878 0.0059299945778108045 0.24327090833118525 -0.09256985720390715 -0.03520405758260791
0.2334812979314294 0.1669689808503772 0.003722398477012161 0.23623023319329292 0.2280462021466867 0.06785373452909797 -0.24815314116799161 0.15245152729192402
0.0014776073525629343 -0.038827495344236095 -0.03243782587462635 0.05208490534310923 0.1261851297249845 0.23318216078805076 -0.18691584422440874 0.10711440548466807

arr_4 f8 [32, 1]
00000000: 43da ddaf e9f0 d73f 8cc1 6411 4268 cd3f
00000010: 40fe 1885 7e4d d33f 8efe 653a 6694 d1bf
00000020: e793 985e e5ca ba3f 1215 ad6b 91a4 b4bf
00000030: 9d8d 772a 6e69 c6bf 951a a595 b165 223d
00000040: f3a8 3c64 73b0 d82e f8ee 0996 d518 d53f
00000050: 76c8 c49b 780c c43f ee7b 640a aaab c83f
00000060: 3cbb e84a 7ad3 99bf 385f 887d 367c b7bf
00000070: fd33 49bc 7732 d7bf c5a0 204b 46f7 c83f
00000080: 43fd 1a4d 39f6 c4bf ec46 64fa 167e b73f
00000090: e001 e335 df1f bf3f 34b3 462d a4f3 d73f
000000a0: eef2 6e51 0c77 d0bf c04d 84fe a119 873f
000000b0: 3c33 c811 9b01 cc3f b1ca 58a8 4a39 c33f
000000c0: 4b2f 26ef eb2e ce3f 8eb7 c1bc 975f 45bf
000000d0: 12f3 7fe4 faff c33f 3106 b4d1 7e3d d33f
000000e0: 8968 0ed7 f80e d7bf c0a5 4aa0 00e6 a83f
000000f0: 4ebb 4f44 7950 c03f 9c91 f04e 4a98 d5bf
0.3740791528174762 0.2297442040376264 0.3016048717290438 -0.274682576207831 0.10465844687912772 -0.08063610915003874 -0.17509247850021561 3.2680064832386376e-14
5.0835756590601514e-83 0.3296407666418726 0.1566305885876919 0.19273877627799102 -0.025220785924996422 -0.09173908772242789 -0.36245530497836836 0.1950462214310901
-0.16376415505326677 0.09176772702292241 0.12158007684320848 0.37424568578244366 -0.25726612045745767 0.011279359416710544 0.21879900329840918 0.1501859018331593
0.23580693413929973 -0.0006522646813331577 0.15624939114777497 0.30062838057355906 -0.36028882028188797 0.04862977940258473 0.12745586238403422 -0.3374200602431985

arr_5 f8 [1]
00000000: b60a 3328 d009 cd3f
0.22686197245464762
