global_model/hospital1_weights.npz (npz, 40906 bytes, 6 tensors)

arr_0 f8 [43, 64]
0.022432227368386147 0.1657017824973612 -0.029728385753016635 -0.055989324624493034 -0.1906583524078951 -0.011712186273283806 -0.11433435073260023 0.2135729569649784
0.0874250852165357 -0.24929223308221415 0.11205051379469089 -0.001405172494499956 -0.1740598932488164 -0.08006495674600785 -0.18070902817170606 -0.1135988979047087
-0.10662226269481337 -0.029877947639471658 -9.53611353141411e-118 1.087741070570902e-118 3.507586097270525e-80 0.16804770400369407 -0.06343309046080614 0.03679710898558143
-0.2017893281687864 1.1674828301111928e-111 -0.161883984543033 -2.917009932441378e-09 0.1425543369807873 -0.0050946747857176875 -0.07081085558233284 -0.06714192044557492
0.15472306737172647 -0.10680014108242485 -0.00976846346085946 0.2334435058876785 -0.13231584191746687 0.017713400041178887 0.11598447728313854 -0.18650527288786495
0.19999626989886976 -0.10237587862960446 0.07577338891173264 -6.06343508501793e-05 -0.03852355566064096 0.1799995042127523 -0.12608568190545244 0.21771179367900712
-0.21109737037075005 0.14594731568452787 -0.1615103213812416 0.19178186152464546 -0.04830892736762191 -0.03723586398215522 -0.06992801568548115 0.33681828933590297
1.1057461665299834e-97 -0.10749370103374996 0.05993247944162549 -0.008358802306360354 -0.12101728414989218 -0.014806216777839255 -0.04891847663790063 0.28628903322001165
0.20147007016572993 0.1015765055478676 0.12635774935207605 -0.07556626046693399 -0.1503958939718422 0.17535676701179387 -0.06223186074320897 0.04444437162659642
-0.16249055228713807 0.04982655356861184 -0.11969197848029436 -0.18736429840906077 -0.02197677351994721 -0.023399400135104297 0.1022296984487641 -0.08303623009874467
-0.02675381382534801 -0.018504953673891128 -1.774367626516273e-99 -1.3196951916050684e-93 -4.810360394588388e-103 0.18226848134217252 0.16786397017284502 0.05839851578089423
-0.22071031257692025 1.833176860298142e-86 -0.2640278831974297 3.4642533244115035e-35 0.0742517720407724 -0.21220976208328532 0.06462324087925103 -0.002690112639250983
-0.20834877874254623 0.002449897243053781 0.038132394176315566 0.16870327900150392 0.057671638274217375 -0.023679492961034592 0.04697546902952305 -0.2677980485919957
0.23083408549054485 -0.22800097114096188 -0.20551255077965438 -3.7343659809139664e-37 0.47110789251337193 0.14946879435111965 -0.3732207557059982 0.24743876839625126
0.12024880534137078 -0.053140542132914206 -0.029026419453509728 -0.19479426813981698 0.05525909435221382 -0.2403101779434765 0.03962293301666822 0.18426076998991617
-1.665824889563658e-85 0.0930207006173307 0.1187387685580447 1.482372144400795e-10 -0.030598225407322144 -4.56460548270346e-07 0.030631789424438973 -0.16433222474835432
0.1985145929471693 0.060786210883687984 0.42306647927312263 -0.20549205202779894 0.13095382409817588 0.12239865206425801 0.17266764894685638 0.08426684690799671
-0.09548023190769984 -0.10620125423829373 0.12707437662936047 -0.12139807849814677 0.0812078184882112 -0.14517337640979264 0.13728937780345804 0.04181536063689333
0.20840805875174906 0.09529253811319748 -1.03307225652764e-99 1.7277108639135973e-85 8.06717860623639e-121 0.26926972275133276 0.2024733513682425 0.23612322059182303
0.2570570767208846 5.729094874422237e-91 -0.015149737587664162 -0.00021995079177368777 0.18769119987421767 0.06518469677754779 0.11435941651001535 0.24534235006857488
-0.22116947423750366 -0.01834061655224451 0.16200941230700502 -0.1648081735877275 -0.02753794793860302 0.11571800341415918 0.13339777798330854 -0.2735269504027
0.15898952980296113 -0.11406167856605573 0.030170937747996673 -0.002681189538910159 0.06602393711503271 0.10182501410911564 -0.18409267228309614 0.2573364627254129
-0.13708443503228562 -0.0712065001808112 -0.007678917762129017 -0.17910294714725372 -0.029201088440737686 0.09437933286014404 0.003881928090315036 -0.08257019497398878
-1.035888961063456e-70 -0.18988120309236478 -0.2367977079894378 -0.050428251331787126 -0.1023442917907152 -0.048155860785455244 -0.031934276278126214 -0.08916433425036147
-0.4858387042479112 -0.1259072543122137 -0.4365537381092944 0.06399500694232746 0.09249777329901517 -0.24508066540047282 0.19755537846675184 -0.07163398728809932
-0.09594501834632926 -0.17243308118231038 0.006704500291022492 0.006324521486889083 0.2967475216876041 -0.17720980837425857 -0.09679021113238062 0.0653692501242037
-0.20392584590563356 0.025935695274932356 -2.4241971382669295e-100 -5.402114509493366e-88 -1.4705984975844564e-104 -0.34079192958148424 0.2538017661916857 0.13796444655663276
0.20944847056310753 1.745170028266737e-114 0.12396704373371585 5.72436262555683e-23 0.08157503787743497 -0.012620740832490696 0.07527040731029419 0.3595740163679454
-0.054581394026379675 0.007351639642754447 0.2251692928215689 0.09791883081161157 -0.28467705030544466 0.24637638120889757 0.14867682937646717 -0.34905012386915985
0.15934071456482096 0.13391530853674982 0.16040107298931214 1.7424400892911128e-12 -0.11738927528408367 -0.0369511205127598 -0.019681262089941247 -0.23234253075259967
-0.0933449941461638 0.2622624529252266 -0.22408058428982203 -0.1479398717734742 -0.017564816056427426 -0.14189942898391508 0.19354320865546537 -0.31065143635368514
-3.644160742807376e-105 -0.2775939232301109 0.11545453674720683 0.0010048355733607872 -0.05161953852692805 1.6437163944442878e-09 -0.09910083103962757 -0.016746402442506993
00000000: 86d2 b14b 79f8 963f 7787 5b4c b735 c53f
00000010: 05cf 4932 1e71 9ebf 12e9 5ffc a1aa acbf
00000020: 298c 262e 7e67 c8bf 653b 1108 8ffc 87bf
00000030: a0b6 3419 0445 bdbf 9ebf bcd0 5b56 cb3f
00000040: 81e3 da89 7d61 b63f d411 1ed2 cee8 cfbf
00000050: a889 3fac 57af bc3f 17f5 2e7a b805 57bf
00000060: ef42 8636 9847 c6bf 3d9e c712 237f b4bf
00000070: 1f72 0b33 7921 c7bf 12c4 5c3f d114 bdbf
00000080: 0abc 4cbb 984b bbbf f0b9 ee1f 5398 9ebf
00000090: dc45 2cf4 ec3c a3a7 d08f 0f5d 1c8e 7127
000000a0: ae4e 2e8b cca2 702f 808f 6e50 9682 c53f
000000b0: 586c 03a9 263d b0bf 0260 5c17 12d7 a23f
000000c0: 0958 9592 3bd4 c9bf 5824 774d 2576 e628
000000d0: 34e3 ad49 9db8 c4bf 066e 089b 920e 29be
000000e0: 0e23 9e73 383f c23f 0a24 6a59 27de 74bf
000000f0: c38a ed04 a920 b2bf eb1e 8180 3630 b1bf
00000100: fc30 2629 f7cd c33f 4f3e 2809 4157 bbbf
00000110: 7cc2 c5f8 7c01 84bf 1926 a00f 7ae1 cd3f
00000120: ea9c e3ba b9ef c0bf 71e5 8227 7623 923f
00000130: 0855 c6a0 28b1 bd3f 2adf ca9f 67df c7bf
00000140: 38d1 444f 7a99 c93f dc08 9d3a 4e35 babf
00000150: 6d71 4883 e265 b33f 165c 6b6e 34ca 0fbf
00000160: 264d 6007 5cb9 a3bf 0aeb f147 390a c73f
00000170: 348e 235c 9323 c0bf d604 e7e4 fadd cb3f
00000180: ccc9 0117 3d05 cbbf 9fea e6d1 66ae c23f
00000190: c641 26c6 5eac c4bf eb6f 9bdb 4e8c c83f
000001a0: 4c2c 4c9e f2bb a8bf 9754 1544 9410 a3bf
000001b0: 327d 716c cde6 b1bf 921c 594c 6e8e d53f
000001c0: c8ba 8354 573b ce2b fd48 770a b584 bbbf
000001d0: cf06 574e 78af ae3f 11fe 5074 6b1e 81bf
000001e0: bead ac1d fdfa bebf d4d9 b4c6 b852 8ebf
000001f0: b3eb a8b2 d70b a9bf c089 b83c 8f52 d23f
00000200: 8808 3e71 c5c9 c93f dabb 5ef9 ea00 ba3f
00000210: 421b 88a0 7d2c c03f 9cf1 6279 4f58 b3bf
00000220: 49e7 0733 2c40 c3bf 4e56 b92d 1772 c63f
00000230: 1097 52bd dadc afbf ef47 41a5 69c1 a63f
00000240: e9b9 fd8b 7dcc c4bf 8b62 19b4 dd82 a93f
00000250: 3299 2a2d 22a4 bebf 646d 0da7 8dfb c7bf
00000260: 02ba 284e 1481 96bf 361f 4e29 03f6 97bf
00000270: 4373 84bb b92b ba3f d440 a8c4 dc41 b5bf
00000280: 3b4c b10d 5a65 9bbf 1899 5f6b f6f2 92bf
00000290: 3ecd 0bd9 420c 6fab d097 d521 b405 a6ac
000002a0: 3a56 5d9f 053d b1aa 5365 3ad7 9254 c73f
000002b0: e7d7 080b 917c c53f 29e8 d306 69e6 ad3f
000002c0: 1e33 344b 3c40 ccbf c9f0 e21b cf3b 222e
000002d0: 152a e434 d5e5 d0bf 2e4e 7421 1f06 c738
000002e0: 5acd 9504 2a02 b33f 4b13 0582 b029 cbbf
000002f0: 4c4e 2312 268b b03f c746 dc39 9309 66bf
00000300: e92d 6e3b 2cab cabf 0702 3391 ce11 643f
00000310: f597 cfd3 1686 a33f cf0b 05ad 1198 c53f
00000320: 6dc9 9610 2387 ad3f 6bfd 69df 6f3f 98bf
00000330: 4962 642e 2b0d a83f c7a7 286d 9a23 d1bf
00000340: 58f2 fda7 f88b cd3f 99da 40c5 222f cdbf
00000350: 5d11 423a 3c4e cabf f276 ff9a bac4 5fb8
00000360: e6df ceb7 a126 de3f 9e5b c11f cb21 c33f
00000370: d285 fc4e d9e2 d7bf 1d20 03d5 12ac cf3f
00000380: 8c02 532e a0c8 be3f 52eb 1ab5 3c35 abbf
00000390: 8859 1709 1ab9 9dbf 22ec 8dc1 04ef c8bf
000003a0: a842 1986 eb4a ac3f d3e2 94e1 7bc2 cebf
000003b0: 24d5 f402 7549 a43f 996f 855e db95 c73f
000003c0: 138f 9517 1ab6 54ae 10a0 0063 34d0 b73f
000003d0: 9b5f b9f7 a965 be3f 5539 9f20 a25f e43d
000003e0: 9da5 c225 2455 9fbf df60 c6b8 eea1 9ebe
000003f0: b706 2f97 f05d 9f3f a98e 7c9d d608 c5bf
00000400: eb50 3e1a ed68 c93f 331e 96c7 5e1f af3f
00000410: 5bc3 206d 8513 db3f cf0e 8645 904d cabf
00000420: b3d6 e44b 18c3 c03f b6c2 b09f 8455 bf3f
00000430: 10e8 a638 f919 c63f ca5c 9b17 8392 b53f
00000440: d943 7579 6471 b8bf 2f66 bf61 0130 bbbf
00000450: 2f2f e421 f943 c03f 4060 f2c8 f113 bfbf
00000460: 6d1c 961c 09ca b43f d708 f78b 0a95 c2bf
00000470: 6784 e0c5 b292 c13f 77d2 cfac d268 a53f
00000480: cce2 4782 1dad ca3f 8fbf bf7e 1765 b83f
00000490: 8232 31e5 a213 62ab 9f7a b2ac 137b 552e
000004a0: b86d 7b06 49aa 0027 0c47 4113 b73b d13f
000004b0: 4314 3893 a5ea c93f 3d50 2223 4939 ce3f
000004c0: 142e 6e86 9f73 d03f 0528 e93c 2fac 322d
000004d0: 8f22 db5b d306 8fbf 6dfa 2fea 52d4 2cbf
000004e0: 4077 9ae6 4306 c83f 70f7 dbbc f1af b03f
000004f0: c870 e6a1 a846 bd3f dd24 efcc 6067 cf3f
00000500: b09e 5c05 484f ccbf 6218 1ff1 e1c7 92bf
00000510: a75a c073 b9bc c43f ad1d d629 6f18 c5bf
00000520: 2b56 2e67 e832 9cbf 11e4 38f0 b19f bd3f
00000530: 8410 e6aa 2d13 c13f 2f78 a32e 7781 d1bf
00000540: 517f 74d7 c459 c43f de06 2b6b 2533 bdbf
00000550: 1050 ab5b 21e5 9e3f eeb2 49ac dcf6 65bf
00000560: a687 a9da f1e6 b03f 8b6d 8341 3411 ba3f
00000570: 75cf 7143 5990 c7bf 8c55 de5a 3378 d03f
00000580: 048d a096 fb8b c1bf 2809 8ad5 963a b2bf
00000590: ed24 83ca ed73 7fbf 8cad 4e6a d8ec c6bf
000005a0: c939 71df e3e6 9dbf 4b78 0d74 3e29 b83f
000005b0: b7bb 2f46 fecc 6f3f d1a1 09ff 5123 b5bf
000005c0: 114d 76d6 d2e0 66b1 5c13 b4fa 064e c8bf
000005d0: dd8b ca25 634f cebf c76b 8754 bbd1 a9bf
000005e0: 2564 2c4a 3c33 babf 3757 5e8e e2a7 a8bf
000005f0: 76d2 7880 b059 a0bf a42d 934b 79d3 b6bf
00000600: 060d 7838 fb17 dfbf 7fd0 cc99 ba1d c0bf
00000610: dd0f 0817 7ff0 dbbf e4b1 ec0d fa61 b03f
00000620: d5a7 451f efad b73f 1573 63a1 cd5e cfbf
00000630: e7f0 d4a0 7e49 c93f 2f39 afe0 9a56 b2bf
00000640: 7ef8 024c da8f b8bf bc98 3686 4912 c6bf
00000650: 4782 c697 2d76 7b3f 5f42 2fcf bde7 793f
00000660: d04e 3451 e9fd d23f 1fba bf9d cfae c6bf
00000670: 50f2 6247 3ec7 b8bf 498f 7207 0abc b03f
00000680: 84a6 7cfb 3d1a cabf 06f9 040c e38e 9a3f
00000690: f6b4 698e aaf7 40ab 4e90 f87b b831 d1ad
000006a0: f9c9 d438 34dd 60aa f3c3 12f4 88cf d5bf
000006b0: 0676 5dc3 493e d03f 6059 fca8 d1a8 c13f
000006c0: 9b04 a21d 35cf ca3f 2c55 ef45 d830 5128
000006d0: 8b3c 9ede 4dbc bf3f 767b bad4 024d 513b
000006e0: e481 da07 1ae2 b43f 5ac4 0329 e7d8 89bf
000006f0: a61a c1e1 eb44 b33f 1eab 32bc 4203 d73f
00000700: b774 a0ac 17f2 abbf 18d7 66bd c01c 7e3f
00000710: feb4 5dee 58d2 cc3f 0899 ff5f 3511 b93f
00000720: d2f3 3e17 2638 d2bf 1347 e6e1 4289 cf3f
00000730: a325 eca3 d707 c33f d7b2 ab54 d656 d6bf
00000740: 2214 fdca 4665 c43f fcae 4c07 2324 c13f
00000750: 6fbf 5db9 0588 c43f 573a 41a6 40a7 7e3d
00000760: 3d0c 3f3a 390d bebf 6a43 4edc 41eb a2bf
00000770: 1eca 1424 5327 94bf 6fb1 8669 66bd cdbf
00000780: c763 1a21 75e5 b7bf eb15 9274 e8c8 d03f
00000790: ecbf 982e acae ccbf 0b50 8597 b1ef c2bf
000007a0: 7727 17da 82fc 91bf 714b 67af c229 c2bf
000007b0: 60e1 c41b 06c6 c83f 570c e68f b6e1 d3bf
000007c0: 7a60 44bc 3bb7 40aa c6dd 754d 19c4 d1bf
000007d0: 9f0b 81b3 6d8e bd3f 0a71 3afb 9576 503f
000007e0: c493 9d4b e06d aabf 2f4c a822 243d 1c3e
000007f0: d355 520c ac5e b9bf b7cf 430b f825 91bf

arr_1 f8 [64]
0.005417195668474485 0.20140389521660196 0.1225553995142089 -0.06494914551938356 0.11485745266315985 0.08823057401964274 -0.17951444143019066 -0.2240701013704531
0.1210408403040542 -0.019197439066021987 -0.05131605251883505 0.04649478218053876 -0.14954170548209672 -0.2116621004573718 0.08908768725204792 0.08067747852353523
-0.15026711402738063 0.1570291820768234 -0.0011469100430361392 -0.17984880069979275 -0.22428785000685827 -0.045890879782360346 -0.004524628149750973 0.05262195962604672
-0.22574755805553162 -0.10778756325869418 -0.10982442093354969 0.07868953053930289 0.07280525136526125 0.0529507826403024 -0.1445457044065087 -0.19605050005041155
0.15105566723108046 -0.07048819615056723 0.043137121106978794 0.03483429021436647 -0.12930290268751873 -0.04867372322669542 0.15850975076940318 0.05477182507052502
-0.10842098012341704 0.1132232846582287 -0.015072632705504324 0.16099754763866048 -0.18286817727067584 -0.07893433019093048 0.03868324187611461 -0.07400168353668261
-0.11484272377462988 0.09833115478442818 0.08644830367509508 0.13413327522225518 -0.25424245715744354 0.046516500751668376 -0.13204160508730617 0.1596011063098449
-0.15763554217808146 0.10923337359966137 -0.006642537524012174 -0.015275530124370818 0.008211151436566358 1.041996048574247e-05 0.16080315374221196 0.04636714945243129
00000000: c1ce b663 5730 763f 3804 9f53 9ac7 c93f
00000010: 179b dc68 ca5f bf3f 7fad e8d7 81a0 b0bf
00000020: 31e0 e34a 4c67 bd3f c0f2 eb65 4796 b63f
00000030: ab1a 8d47 54fa c6bf 4fe1 b23e 54ae ccbf
00000040: e315 9652 88fc be3f 1b73 d253 7ea8 93bf
00000050: cb0b a8fe 1846 aabf 58d4 cc01 2ace a73f
00000060: 7a82 37bf 2e24 c3bf a12f a263 be17 cbbf
00000070: 654c 395f 73ce b63f 8746 c87b 47a7 b43f
00000080: 3ab9 34ea f33b c3bf 9dcf c440 8819 c43f
00000090: 2534 1548 7dca 52bf ca7e 9d16 4905 c7bf
000000a0: c5b5 55da 76b5 ccbf c926 b367 027f a7bf
000000b0: 8a38 e09e 6a88 72bf 2965 4af7 43f1 aa3f
000000c0: 1d0c 80c5 4be5 ccbf 4e93 1c3b f797 bbbf
000000d0: 2e34 3608 741d bcbf bc32 3440 ff24 b43f
000000e0: 5e42 976d 5da3 b23f 41b4 796f 5d1c ab3f
000000f0: b403 9a40 7980 c2bf 075d 0acb 2e18 c9bf
00000100: 7d04 51c7 ca55 c33f 1081 38b1 830b b2bf
00000110: 35cf cb98 1116 a63f 120a 80d2 ccd5 a13f
00000120: c70e 295d ff8c c0bf 05ce dd22 c3eb a8bf
00000130: d36a d329 0c4a c43f 4f1c d77a 0d0b ac3f
00000140: 4f91 d433 7ac1 bbbf e6b6 c080 33fc bc3f
00000150: d030 4784 66de 8ebf 5810 ec50 919b c43f
00000160: cca7 6d74 3968 c7bf 63a3 b34e 0a35 b4bf
00000170: 11b8 8535 4ace a33f 1395 a33a c6f1 b2bf
00000180: 3fac cb2e 5566 bdbf d51e fa05 3b2c b93f
00000190: 1b47 14dd 7921 b63f 2546 3177 472b c13f
000001a0: d8bc af27 8245 d0bf 23d2 e7c2 02d1 a73f
000001b0: 92d9 c743 bde6 c0bf 43cb 001e cf6d c43f
000001c0: 8ec9 2bc5 662d c4bf 1207 3ee7 b7f6 bb3f
000001d0: c46f d996 3435 7bbf 9a81 81f2 c648 8fbf
000001e0: 7b79 0f17 02d1 803f 339c e176 2cda e53e
000001f0: 934e 359f 3295 c43f 358d 035d 6fbd a73f

arr_2 f8 [64, 32]
0.14766198053389554 0.18703332913261328 -0.11720873799385136 0.19194861156515003 -0.12152634238365018 -0.04334266915999838 0.012800202278283922 -0.015555925493399769
1.2252588480818742e-106 0.07857166115907788 0.05323876685042113 -0.0843539054110322 -0.030100190931075133 0.12124647554479803 -0.11118177549087883 -0.28733764013396
-0.0316327842722582 0.11110487710988545 -0.19733818098677453 0.22534559111965036 0.08217490700213355 0.0897594532038301 -0.039076006595162395 -0.171220046225927
-0.2077551191130343 1.279511945321572e-84 -0.12050407664261518 5.478786959129081e-108 0.13755139619176385 -0.15981561073987735 -0.16811139359415475 0.20141411294941966
0.17660243907252088 -0.19050269511896564 0.21906139339475003 0.18001669032968914 0.013020092853437994 -0.05752972250409258 -0.09931948910948081 -0.015817286643823234
3.5449154875104144e-97 -0.17576514410582034 -0.061399417501885434 -0.10461648262191744 -0.2490803156429742 -0.20617620697801237 0.0848311366555326 0.12892062805858812
0.1790805732941911 0.031494647078905 0.22918618845100236 0.21454145100079894 0.15315064060872172 0.16390397686076233 -0.03636479524105423 0.2340605595729956
-0.23611396593377487 -1.2130655077628576e-100 0.041489881407820284 0.16329332984724593 0.05017778282547029 -0.14899641721190968 0.05837635817370222 -0.14527299148306738
0.2404429578084652 -0.07986250133791616 0.1631097970698969 7.684469950065471e-78 -0.1268316056031314 0.0315837598852095 0.22714897623718067 -0.013979851544127725
-1.7891411664772814e-86 -0.23215039122239442 1.0443919138082119e-116 -0.09051046101641225 -9.849413217389902e-97 -0.11048959317796245 0.17965522369762496 -2.3684770441301886e-81
0.2056487204315061 -8.323709354116805e-106 0.04212222069582313 0.17929965718258814 -0.1093298346260258 0.0035179087403975373 3.324998179989664e-101 -6.041388782614363e-110
-0.21387846758975174 -2.900399380659577e-103 0.09220102266362956 2.019338211459332e-119 0.23575968727990576 -0.05914593295031033 0.27894347217845544 0.2279797776437297
-0.014207156418003939 -0.00622940257276319 -0.1474043866790389 0.15080213356294833 0.17022536425082221 -0.05820574507759985 -0.16465888428198255 -0.014276971795669407
-9.959037036803883e-98 -0.1407872922772404 -0.06760292404953551 -0.0982261431219591 0.14616166391563118 0.06861312031397615 0.22090145880635026 0.09311998226806836
0.15693161021821625 0.2033671756369925 -0.10439293201629679 0.24360040717573786 0.1775379910221142 0.17069046270239094 -0.10603677915633032 0.1711257247854002
-0.07655023833215523 -4.9674315157535e-06 -0.18909070240666753 0.0380620780744525 0.13973300710370842 0.03931266425833546 0.1105404224568484 0.04856404350938277
0.06365738956807722 0.0908581671779389 0.17428260443189877 0.10099080195811504 -0.23396708970745797 0.05326284378276932 0.1901408419168818 -0.014241796633479612
2.56497353688039e-120 -0.04432548542591871 -0.04197441857684084 0.06051520623043446 0.1370769894911315 0.22236897413886014 0.03699017671244347 0.05967897814440827
0.17005588362020493 -0.02333398776235305 -0.007037524018846588 0.06136285892355553 0.04932468176742688 -0.2540873838182132 -0.23798203172949778 0.13162659738797333
-0.20532239351306406 0.014561923330442095 0.07312520820104579 -0.23077696372619413 0.036240000501180474 0.09484512871961921 -0.21383096280112623 -0.048163014155252565
-0.1968480599031172 0.21141736122214114 0.24820007578304773 0.1313187565061153 0.017455537493752598 -0.19012151998733834 0.15616020096263886 -0.015325479463479414
3.460112133786835e-91 0.07523969325210687 0.030467333206060824 0.022732664187580062 -0.12689838061770964 0.03726458178171663 0.17750223103184895 -0.17898682914064035
0.14742301760046259 -0.24566215473835346 -0.3502741304834073 0.1935195400850682 0.0382680924043631 0.09466229144487329 0.09448534030955341 -0.006436485467630595
0.19086131704010587 -1.6310497363409455e-74 0.12644402672987107 1.0189588629159746e-98 -0.18188230818297108 -0.11196035030700066 -0.2006444855667636 -0.03716869662067181
0.13944402993268612 0.020450459528795963 -0.10321291539350017 -0.12827950062987603 0.09151569830599089 -0.12223504635308151 -0.1565683379167542 -0.0161646048016143
-6.081663683445432e-118 -0.24401606107578475 0.03280501325815015 0.24815006439138615 0.05550486024003419 0.23530845956164664 0.07003945830485035 0.04300072676339841
0.0957458643986338 0.13330937069184273 -0.24392340628772097 -0.01635293978431522 -0.18947229066731006 0.1533434350733324 0.12959785200089624 -0.1932312995406794
0.12009509922006464 -1.8883921915859397e-05 -0.24283158455231194 -2.974198657416097e-119 0.05163469022208514 0.10567513396599679 -0.13792236059673474 0.22284611066368593
-0.2060356643390314 0.03714894601090415 0.2250116263130779 0.2343880191308504 -0.01866274142852183 0.1485252546278476 -0.20543721575041674 -0.019828963421798285
9.072798345646763e-74 0.04861841884144118 0.16632511730397073 0.14247385496220405 0.10044798193803493 -0.11989187367861225 0.21900960407521658 0.20421533519370885
-0.03613172277350999 0.11643713408545676 0.14867036537461664 0.003311057665761795 0.015766045445022817 0.06960341225854604 -0.1789095671456408 0.17755845737939094
-0.19241581639900596 0.005925128169216615 -0.19583903177791748 -0.17716550654169336 -0.16753614475193246 -0.08232084498445497 -0.16767530712031176 -0.017938064180428884
00000000: cbb9 a078 96e6 c23f 647b f147 b5f0 c73f
00000010: b130 7d50 6401 bebf aeab 97a8 c591 c83f
00000020: 24e9 23b2 591c bfbf 6d88 20a5 0231 a6bf
00000030: 39dd 5611 fe36 8a3f 337b 06fa c8db 8fbf
00000040: 09e5 86ba 1dfc f129 0015 12bb 451d b43f
00000050: aafc 0095 1c42 ab3f 2bbf 07b1 3798 b5bf
00000060: b0fa 9b9e 95d2 9ebf 265d 384f 020a bf3f
00000070: 8100 a5a9 6876 bcbf 5040 d269 bd63 d2bf
00000080: 2a8e dc1b 2c32 a0bf 4ef1 9c85 5e71 bc3f
00000090: ca8f cba4 6042 c9bf 4c0e 14d4 1fd8 cc3f
000000a0: dd41 202a 6a09 b53f 4b6d 04bc 79fa b63f
000000b0: 8ddd c434 c501 a4bf 1fe0 7ad9 89ea c5bf
000000c0: 7262 1541 b897 cabf 94c6 b0ee a5e2 832e
000000d0: 37f7 36ec 5ad9 bebf 6eb6 6cfb fcbb a929
000000e0: 79d5 14be 489b c13f 1f4f c282 d674 c4bf
000000f0: 5133 c994 ac84 c5bf ab09 090a f0c7 c93f
00000100: 6eeb 1aa2 e89a c63f 07fc aa6e 6462 c8bf
00000110: 8f2b 3928 340a cc3f 509f d972 c90a c73f
00000120: 4ea0 f847 47aa 8a3f ecf3 6729 8974 adbf
00000130: 5da5 9485 006d b9bf a9ff 6223 6832 90bf
00000140: 8c68 382a e53a e82b 7009 dbe4 787f c6bf
00000150: 18fe 5394 be6f afbf f6d2 7b53 25c8 babf
00000160: 81c8 e120 dde1 cfbf b689 1761 fb63 cabf
00000170: 8436 9e4d 7eb7 b53f 1e4d a59c 7880 c03f
00000180: afe0 d2ba 1cec c63f 3bea 67fe 1020 a03f
00000190: f4c4 0b18 f955 cd3f 1da8 d721 1876 cb3f
000001a0: ff50 63b0 709a c33f 7d91 2636 cefa c43f
000001b0: 0777 920c 689e a2bf 0622 5348 b2f5 cd3f
000001c0: f43e e880 fb38 cebf 3549 11a0 21fb 30ab
000001d0: 30e4 8567 293e a53f 82a7 acbb cbe6 c43f
000001e0: 363f 7100 e7b0 a93f bbba 9289 5012 c3bf
000001f0: 7e67 6e8a 81e3 ad3f dcb7 b42d 4e98 c2bf
00000200: 7ea1 2bb8 d5c6 ce3f af50 6c6f de71 b4bf
00000210: 8744 0926 c8e0 c43f 4621 3597 3f79 ec2f
00000220: 4212 159f 043c c0bf 9758 951f bf2b a03f
00000230: e418 21b8 3713 cd3f 3dce 7ae9 77a1 8cbf
00000240: c98e 1460 aecb 21ae 93e2 06a1 1ab7 cdbf
00000250: acd8 5cc5 3356 da27 60e9 028e b12b b7bf
00000260: 7dac c792 a0d4 00ac d668 3fc5 0b49 bcbf
00000270: 571e 2b3f f1fe c63f b83f 40ab 2af9 31af
00000280: 31d9 5b80 b252 ca3f a828 4b31 6f8b 1eaa
00000290: db9b a530 0b91 a53f cd40 e489 4af3 c63f
000002a0: 7c24 3240 0afd bbbf 85b3 b0df 96d1 6c3f
000002b0: 6cb7 8898 2c9e 122b 64e8 f430 4629 42a9
000002c0: 15ec ce9f 5e60 cbbf 7999 5e4a a6c9 a4aa
000002d0: cc7f ff78 7c9a b73f 4fde e556 7a12 4a27
000002e0: 828b 4a99 5f2d ce3f 3e0d 6d2f 6048 aebf
000002f0: 111b 9cb8 35da d13f ad88 90fc 702e cd3f
00000300: 72d2 7941 a418 8dbf 1d9d 2d85 0084 79bf
00000310: 8165 099e 25de c2bf 0ff2 e8fb 7b4d c33f
00000320: 8f17 34da f1c9 c53f 995f 18b7 24cd adbf
00000330: d254 7ed5 8a13 c5bf e925 96b7 3e3d 8dbf
00000340: 3dc7 3511 883a cbab 48f6 0268 5105 c2bf
00000350: 411f e8db 6c4e b1bf 002f 5238 5925 b9bf
00000360: 8229 39e7 6cb5 c23f e035 d323 a190 b13f
00000370: b021 9bbe 7f46 cc3f 3e09 720e b6d6 b73f
00000380: 1545 ccc2 5516 c43f 2d6b 3884 ef07 ca3f
00000390: 3c8c f1c4 7eb9 babf 9158 0e53 4c2e cf3f
000003a0: 2067 9e9c 90b9 c63f 4bdf 8561 2fd9 c53f
000003b0: 0d4d a6f2 3925 bbbf 5392 ba9f 72e7 c53f
000003c0: 8f3a 23e2 cb98 b3bf fc57 8d2d bdd5 d4be
000003d0: 2a3b 68c7 1f34 c8bf 605b 1869 df7c a33f
000003e0: 2151 d76b c5e2 c13f a0c9 9d1e ca20 a43f
000003f0: 7b93 568b 604c bc3f 9ac5 44e5 62dd a83f
00000400: b1f7 57c6 d94b b03f 3e8f 9a18 7b42 b73f
00000410: 97fa 2573 e44e c63f e75e 9b7f 88da b93f
00000420: 5921 5133 a2f2 cdbf 9b24 4778 4445 ab3f
00000430: 6a5d d5fc 8856 c83f 9574 3796 cd2a 8dbf
00000440: d6e1 7e40 5d7e 1a27 fb39 917c d4b1 a6bf
00000450: 34bf 1cc6 ab7d a5bf 2b40 575f d9fb ae3f
00000460: 8a03 7321 bd8b c13f 1026 c927 9676 cc3f
00000470: 27a4 815e 60f0 a23f 2222 c736 3e8e ae3f
00000480: 9b11 5225 64c4 c53f 3a5c 4c69 dde4 97bf
00000490: 6998 17f8 60d3 7cbf 200e 88e0 f36a af3f
000004a0: 0046 27ae 1541 a93f c5d3 f4ba f742 d0bf
000004b0: 7e2b a8f9 3176 cebf 5855 88ed 23d9 c03f
000004c0: ed34 a312 0148 cabf 60d4 c443 a4d2 8d3f
000004d0: 3c97 bc69 55b8 b23f 33e5 ef7b 198a cdbf
000004e0: df4f eba1 0c8e a23f fd21 0936 c547 b83f
000004f0: 1430 0d20 d05e cbbf 6ce1 5895 d2a8 a8bf
00000500: de4f c835 5132 c9bf 43bb 205e b90f cb3f
00000510: 352c 2d24 05c5 cf3f 8ec7 4592 0dcf c03f
00000520: fbd7 ad4a dddf 913f 4a43 4ee7 e655 c8bf
00000530: 1121 09b6 0efd c33f 0ab4 ba08 f762 8fbf
00000540: ff6e 9fee 068e 262d affd e095 e842 b33f
00000550: 118f dd1e d432 9f3f 0c49 f244 3b47 973f
00000560: e48e 55c5 343e c0bf 0c6a 1ae0 5714 a33f
00000570: 95d9 9fa2 64b8 c63f f471 c958 0ae9 c6bf
00000580: 6bc4 a2e7 c1de c23f cea9 3b84 db71 cfbf
00000590: 96e8 c32f e46a d6bf b7b2 e68f 3fc5 c83f
000005a0: acce b61a e097 a33f 0a8f ebb5 c93b b83f
000005b0: f4b9 94f6 3030 b83f c3bc 5ae9 245d 7abf
000005c0: 771e 61c5 246e c83f 5480 929a 8182 9db0
000005d0: 0328 ca5f 512f c03f 6d1e b2f6 8449 962b
000005e0: 12f5 ae62 eb47 c7bf e66b 04fb 6ea9 bcbf
000005f0: 2be5 d0ef b7ae c9bf 126a d780 c607 a3bf
00000600: 6c77 174e 4dd9 c13f 3a18 751b f7f0 943f
00000610: 5ed0 2360 296c babf 78ec f971 766b c0bf
00000620: 357a 4ba3 926d b73f 93f3 82c6 cb4a bfbf
00000630: 4184 7869 6e0a c4bf 5f1d e743 748d 90bf
00000640: e7c6 ff07 c089 98a7 4376 0215 eb3b cfbf
00000650: 265d 2d96 d1cb a03f 9ad8 879d 61c3 cf3f
00000660: aeff ff0e 226b ac3f 6a0b 256d 961e ce3f
00000670: b750 d91e 1bee b13f b359 4ef6 3004 a63f
00000680: 14c3 510c cd82 b83f 5297 af0d 4810 c13f
00000690: 120a 5ed6 e138 cfbf 8cb3 4436 d3be 90bf
000006a0: df07 f5c5 a040 c8bf 1d1f 59f7 c1a0 c33f
000006b0: a8e3 fc93 a996 c03f 449f 0ba0 cdbb c8bf
000006c0: 9e5f 8f6b 8dbe be3f d48e 973b 1dcd f3be
000006d0: d944 0bf9 1a15 cfbf d11f 3189 4733 53a7
000006e0: b496 afb3 dc6f aa3f 6666 628c 860d bb3f
000006f0: 4e36 139e 70a7 c1bf a2b0 abaa 3886 cc3f
00000700: b3a8 126c 605f cabf 5339 65c8 2f05 a33f
00000710: 3702 1e54 2ecd cc3f 74e0 5e36 6d00 ce3f
00000720: b558 5b60 531c 93bf d4da a023 e002 c33f
00000730: 48c1 8345 c44b cabf 7d0c a435 0b4e 94bf
00000740: 08a0 c597 ca84 c430 267f d06d 83e4 a83f
00000750: 2576 a935 244a c53f e281 cc51 953c c23f
00000760: c780 5f7d f5b6 b93f 4b7c 81dc 3bb1 bebf
00000770: caa8 81b7 8108 cc3f 01d4 ff64 ba23 ca3f
00000780: 351b 526f db7f a2bf 79df eff2 d2ce bd3f
00000790: 788c 956a a107 c33f 17be 778c ca1f 6b3f
000007a0: c463 4b66 f924 903f 6f28 577b 87d1 b13f
000007b0: 6580 ea39 82e6 c6bf 094e c94b 3cba c63f
000007c0: 085c 55db 14a1 c8bf 60de 617b f244 783f
000007d0: 5f1b 62de 4011 c9bf 5bb5 49fc 5bad c6bf
000007e0: a4c1 4d0b d371 c5bf fcc0 fc98 fa12 b5bf
000007f0: ecd8 366c 6276 c5bf e4b1 081c 5b5e 92bf

arr_3 f8 [32]
0.08091596994165304 0.058623015926612884 0.09094508160873847 0.055400246871176444 0.05439090833723722 0.10739715801534333 -0.1736665371494792 0.18338674597652274
-0.23021900025508324 0.12597550359263418 -0.026352853472451497 0.24174009524365736 -0.03449577112338438 0.20730947612577547 -0.1281876770658225 -0.0770226650446181
0.1966289790390988 0.2086696370364312 0.022246017498826362 0.27118568891234496 0.1924067352142586 0.08461031380162783 -0.2496433836692885 0.19925970324778391
-0.08938328564937471 -0.03987157893205711 0.0063668110570602445 0.05222367896417116 0.09402851757601238 0.2732004967237215 -0.1845379620319218 0.07303056660006475
00000000: ee9e 9fb4 e8b6 b43f 8e37 6500 d603 ae3f
00000010: 5fd8 3d47 2d48 b73f f709 01d1 6b5d ac3f
00000020: 8b2e 0409 20d9 ab3f 68f7 5b51 617e bb3f
00000030: f7b8 bb80 b43a c6bf 5d98 3e86 3779 c73f
00000040: 08b7 81f2 d077 cdbf ef84 031e f71f c03f
00000050: 7626 480f 3efc 9abf 1c0a 9ae5 56f1 ce3f
00000060: 7a85 a601 6ea9 a1bf 7938 0eee 1d89 ca3f
00000070: bdbb 5f2c 7468 c0bf 8ada 6ae3 c1b7 b3bf
00000080: 339b 356d 232b c93f 42ad 5ec9 afb5 ca3f
00000090: fcab 7ef6 a8c7 963f 6064 4138 1b5b d13f
000000a0: 663f a3ad c8a0 c83f 7daa ae82 05a9 b53f
000000b0: 2cdd 427c 50f4 cfbf 1a11 6e8a 5781 c93f
000000c0: a94f acb0 d2e1 b6bf b72b 1b2f 0c6a a4bf
000000d0: df72 51d4 1514 7a3f b5b1 74e2 0fbd aa3f
000000e0: 985d e1bf 4012 b83f 4a7a abef 1d7c d13f
000000f0: 8e17 e69f f09e c7bf 3dd7 2797 21b2 b23f

arr_4 f8 [32, 1]
0.3808389039992054 0.22879625543529927 0.3013115120197805 -0.27824816802345065 0.13713774284335795 -0.07202788592622085 -0.1563582572375295 0.037381659236862826
-8.889965861905655e-86 0.32909173680276005 0.1489509288608254 0.19105293892332512 -0.03121360596523434 -0.09159151479364452 -0.3639902422902546 0.15985625938718495
-0.1653760789547631 0.08592099630515725 0.08443768415813108 0.37122194247436496 -0.25857586491706763 0.009363316663527611 0.2350317188471968 0.14887488972705742
0.2127376030857669 -0.0004780997036020436 0.1582509550958273 0.2981973475647505 -0.3638871177746016 0.049678217057425055 0.10384676357999585 -0.33542082681256236
00000000: 0626 6e23 aa5f d83f 155c 4519 3249 cd3f
00000010: 1121 8214 b048 d33f de49 7567 d1ce d1bf
00000020: 0e9d 47c4 ba8d c13f cd00 7466 6b70 b2bf
00000030: 30ba a520 8c03 c4bf 49fb c857 b023 a33f
00000040: b90c 526c 1e1b 46ae 8ee8 bcc9 d60f d53f
00000050: b441 15f4 d210 c33f a97c 3d36 6c74 c83f
00000060: b75f 3ea3 75f6 9fbf cc3a a1a0 8a72 b7bf
00000070: ddc8 acba 9d4b d7bf 3c7e 107f 2b76 c43f
00000080: c761 5319 0b2b c5bf 7f9e 2b1d ebfe b53f
00000090: ac57 0244 b59d b53f 170a 9fad 19c2 d73f
000000a0: 56a3 d6c8 818c d0bf 74c7 d016 132d 833f
000000b0: 1656 fcf4 8415 ce3f 7c62 4917 550e c33f
000000c0: 82ff f05b fc3a cb3f bbc1 5897 2e55 3fbf
000000d0: 8742 593a 9141 c43f e3d9 e253 aa15 d33f
000000e0: 6ec4 9131 ed49 d7bf 43a3 2b5b 6c6f a93f
000000f0: 551c 5f95 b395 ba3f bea9 63ea 8877 d5bf

arr_5 f8 [1]
0.2625682484885894
00000000: dc7e 0e0e ebcd d03f
