global_model/hospital2_weights.npz (npz, 130990 bytes, 8 tensors)

arr_0 f8 [44, 128]
000000 64 b7 70 f7 17 62 a7 3f 44 36 9e 7b 1d 31 b2 3f
       0.04567026992331938 0.07106193798082311
000010 aa a5 ed 32 75 2f bb 3f 18 1b 43 c2 12 40 b3 bf
       0.1061928986870472 -0.07519643061378323
000020 80 b6 c5 eb a4 4c ce bf 52 41 5a 15 be 48 70 3f
       -0.2367139960510265 0.003975622666658589
000030 54 74 ce 94 67 1f c5 bf a0 24 c3 95 30 19 5d 3f
       -0.16502089277210763 0.0017760252440431126
000040 de 63 0a bb 40 30 9b 3f 19 49 7b 1e d5 d2 b8 bf
       0.026551257530261434 -0.09696704858950901
000050 1b 74 03 7b 8a 68 ca 3f 47 ee 34 12 42 c3 aa 3f
       0.2063153362895783 0.05227095100641726
000060 20 a5 cc 99 67 9a a5 bf 4b cf 4c 23 69 ee b8 bf
       -0.04219363930162445 -0.097387858503507
000070 a2 d3 02 90 e7 39 b2 bf e6 e3 27 3a f2 84 9d bf
       -0.07119605317968916 -0.028827462005185732
000080 54 07 fd bd 5f 2c 8a bf 95 e7 2b 0e ea 96 cc bf
       -0.012779949174390438 -0.22335553829162494
000090 89 5d bc 4a 2b 79 94 bf 91 64 35 2f 0d 8a 9e bf
       -0.019993473469268195 -0.02982349968565196
0000a0 2f 6f 93 21 6e 80 c7 bf a5 6e e8 47 b5 3e e8 3c
       -0.18360687865685452 2.691730574751742e-15
0000b0 fe 87 5d 60 8c 37 ad bf 12 7d 17 d8 6a 09 a0 3f
       -0.057064425242757 0.03132184875334522
0000c0 2e 73 0a 0d 1b 3b bb bf ed b8 50 20 e9 fa b6 bf
       -0.10637063091639895 -0.08976609267185483
0000d0 c1 d5 5f 8a 70 e2 96 bf 95 80 ec 76 b0 8a 78 3f
       -0.022348173566532518 0.0059916394373261865
0000e0 f8 9b 1a 4a ae ce bc 3f 69 bf 50 1d eb e6 96 3f
       0.11252869900873452 0.02236525885035637
0000f0 97 b4 61 a4 66 ca 73 bf 8d ad f5 0b 8f 8a bf 3f
       -0.004831696458592514 0.12320798913940774
000100 7b ef 16 54 e8 d1 c6 3f 0f b2 16 a1 6a 22 a9 bf
       0.1782808695405683 -0.04909070221342315
000110 c6 d9 9c 89 b8 cc b3 bf a9 6c 2f a6 48 f4 c3 3f
       -0.07734254226384171 0.15589244951738593
000120 6f ee 2a 5b 03 bc cb bf 27 e9 18 8c d3 78 8d bf
       -0.21667520476863752 -0.01439061423581174
000130 2a a9 9e a1 96 6b c5 3f 2a 5c 7a 74 fc 1b be bf
       0.16734583751287718 -0.11761453479481135
000140 f3 23 b2 0f 6b 14 d3 3f 2a 0c ee 7f 58 2e 99 bf
       0.2981212285308736 -0.024590857322902483
000150 96 f8 9b 34 84 ba 56 3f f9 c3 f5 24 21 ee b2 bf
       0.0013872424191841196 -0.0739460673555782
000160 57 68 e1 b4 49 10 c2 bf 9e 7e d7 4b cd f9 ad bf
       -0.14112206775718292 -0.05854646254351546
000170 ec 12 98 ee 00 45 c4 bf 66 24 36 fd 12 0d c7 3f
       -0.15835582399463222 0.18008649219362666
000180 cf c0 c0 6c 3b 12 cb bf d9 fa 2d 2a c6 d0 c3 3f
       -0.21149390039636848 0.15480877933074202
000190 47 2e 7b 34 76 27 8d bf e7 6b 84 d0 05 cc bd 3f
       -0.01423542354259334 0.1163943895411844
0001a0 fe 86 9d 64 8d 5f ba bf cf c1 9f c5 ac d4 7f bf
       -0.10302051264218545 -0.007771181955817898
0001b0 62 b4 e9 85 db 6c 76 bf b5 70 25 50 60 5d ac 3f
       -0.005474908363436533 0.055399904044607075
0001c0 7a ce 92 f6 dc e6 a7 3f a8 4a 61 1b 88 46 c3 bf
       0.04668322095804185 -0.1505899556819561
0001d0 77 46 cf 75 f0 e2 bd 3f 68 f8 f0 77 16 45 bc bf
       0.11674406887257215 -0.1104291956735054
0001e0 44 be 32 75 2b 8f c2 bf 60 36 54 96 4e 73 b8 bf
       -0.1449941942459977 -0.09550944490566726
0001f0 fb e2 fd 03 d2 89 84 bf 78 7f 3b 62 48 ee b6 3f
       -0.010028496500795727 0.08957340620281495
000200 bc 05 20 0c 3e de 9f bf 03 50 3c 97 1e 55 2d 3d
       -0.03112122487073575 5.2104983488760306e-14
000210 b6 89 4a 5a d0 02 6e 3f 6e 59 dc 65 05 b8 85 3f
       0.003663451136462127 0.01060489861587818
000220 9b 36 01 5f c1 04 82 bf 11 54 14 c0 77 84 ba 3f
       -0.008798132621588286 0.10358379783095041
000230 90 c4 a6 95 13 56 b1 bf 59 0d 48 4f ad 97 2a 3d
       -0.06771967319106609 4.7237748372542924e-14
000240 e5 8b 4c a7 16 f3 a5 bf 53 8c d8 74 52 a3 8e bf
       -0.042870242998354326 -0.014959949675420392
000250 ed 5d 93 19 81 f9 ce bf cb d1 3f 24 03 0d ba bf
       -0.24198926686106806 -0.1017610515116935
000260 de 06 76 38 aa a7 cb bf 1e f5 b1 7f da c4 c3 be
       -0.21605422741782027 -2.3566435607957206e-06
000270 3c 53 bb 77 fe f6 b6 3f 6e 39 27 91 a5 69 c6 bf
       0.08970632956636576 -0.1750990828281362
000280 7c 43 19 20 92 e6 ba bf 7a 18 9f 23 67 4e 94 3f
       -0.10508073123606992 0.019830333279764002
000290 ab 8d 14 16 2c a3 bc 3f 96 f3 8b 56 fe ce cd bf
       0.11186481036252498 -0.23287944055473692
0002a0 0d bf fa 08 04 db c1 bf 03 49 62 cd 4d 60 8e 3f
       -0.13949633062792835 0.01483212264091494
0002b0 79 4f 0a 72 b2 47 d0 3f 7f 08 75 0b ce 26 ac bf
       0.25437604080911275 -0.05498355760438844
0002c0 05 6b c3 c6 f3 e8 b3 3f 22 18 ea f2 f2 ea c3 bf
       0.07777331926937954 -0.1556075750451678
0002d0 42 14 37 75 5c 73 c6 bf b5 48 37 4b d2 8b c3 bf
       -0.17539554332157264 -0.15270451233533824
0002e0 06 da f5 83 60 8a b5 3f 1c f8 5d 50 2f e8 c0 bf
       0.08414271566093853 -0.1320857183854408
0002f0 ed 3a b5 09 37 1c 96 3f d5 05 80 1f cb 66 ab bf
       0.02159200665237908 -0.0535186267807252
000300 db 31 e0 dc cf dc 06 bd 91 78 49 71 b7 db c4 3f
       -1.0153010314509634e-14 0.16295521766273116
000310 6f 32 6d ac d9 47 be 3f f0 b6 66 a5 8e 4e ba 3f
       0.11828384837753857 0.10276118791690769
000320 41 ca ea 04 b6 14 a8 bf 50 b7 fe f7 77 87 cc bf
       -0.047033012485731 -0.22288417443399533
000330 2b a9 ef 5e 8a 24 b5 3f 03 01 fd 0c e2 e6 d2 be
       0.08258881395127975 -4.506560983774885e-06
000340 6e 3d 42 09 8f 21 c1 3f f3 d7 80 bb f1 e5 a8 bf
       0.13383663131797213 -0.04862933553560813
000350 6e ac 75 0c b9 ec bc bf cc b1 2e 49 9a 60 a2 3f
       -0.11298710397902464 0.03589326995220041
000360 9a 05 9c d9 20 d1 cd 3f ab 70 98 b6 5f 2b c3 bf
       0.23294458985769212 -0.14976116576952356
000370 5f 14 c9 e2 76 31 c7 bf 38 38 c7 0b a9 e1 c9 3f
       -0.18119703362950454 0.2021991069327116
000380 51 71 eb 87 20 b0 c2 3f 61 76 5d 7e 37 3e c1 3f
       0.14599997173980708 0.13471120519800464
000390 4c 36 60 11 97 67 87 bf 89 ff 55 18 ed 34 c1 bf
       -0.01142805120255299 -0.13442767799642422
0003a0 b0 02 a2 d6 1b c1 a7 bf ae 7a 9f e6 f6 8e 81 bf
       -0.046395177793788434 -0.008573464310697911
0003b0 4e ab a5 dc 57 0f b8 bf bd 80 8b 25 d8 8e a3 3f
       -0.09398411881344979 0.03819919069587872
0003c0 18 32 0b 65 de 74 c0 bf 3c 14 78 47 1d 36 ba 3f
       -0.1285665505769351 0.10238821978426044
0003d0 8e db b7 54 ac 5e c2 3f f4 c2 e0 55 43 38 cd bf
       0.14351419579153596 -0.22827951138744818
0003e0 e5 d0 5d f1 57 79 96 3f 02 c4 9e 0f 22 8f c2 bf
       0.021947263819542057 -0.14499307406143208
0003f0 aa 89 53 6d 2d e0 91 3f 4e 45 24 fe ea dd bd bf
       0.017456731603383048 -0.11666744904166146
000400 f8 46 49 ae e1 5d bc 3f 5f e9 9f 83 c4 51 8a 3f
       0.1108075190070642 0.012851271883836444
000410 c9 9e 60 18 fa db bf bf e2 aa 78 a7 85 2c c3 bf
       -0.1244503316416924 -0.14979620625793816
000420 50 e4 90 6d 3e 0d a3 3f e3 7b 38 c6 63 e5 ab bf
       0.03721041762805355 -0.05448447985349227
000430 a0 61 45 05 12 f6 ce 3f 5c 8f e8 08 14 f3 2e bf
       0.2418844724404723 -0.00023612613263523485
000440 67 c2 fb 0d 53 5d bf bf ab b7 24 e3 d7 c9 a4 3f
       -0.12251776782410105 0.040602442243069824
000450 2b 06 b7 c9 f6 5a bf 3f eb d2 ff 06 e7 db c6 bf
       0.12248175072365856 -0.17858589021456991
000460 97 81 d8 56 4c 25 bc 3f 70 20 63 55 d5 99 d0 bf
       0.10994412536866204 -0.25938924158663834
000470 bd 2e 6e a2 a9 bd c0 3f 38 ce dd 3d 68 91 ad 3f
       0.13078804427310856 0.057749993850759684
000480 68 8f 8f 3c b7 94 ca 3f b3 22 d8 02 69 43 8f 3f
       0.20766344506329948 0.015265293502140542
000490 d4 d9 a1 46 0f c4 c6 bf f3 a7 17 20 2a 43 c2 bf
       -0.17785826634253843 -0.14267469946872743
0004a0 39 39 71 f1 6e 4b 97 bf ae 43 e6 21 35 26 ce 3c
       -0.022748692976443528 8.368097391793836e-16
0004b0 09 4c 0c 9c 4b 11 c5 3f 5f 5d 92 22 ac 7f d0 3f
       0.16459031219037026 0.2577925050367948
0004c0 bb a8 ff 09 fc 6a ca 3f 32 e0 21 13 be ee ce bf
       0.20638990867820958 -0.24166084226794876
0004d0 84 d5 c0 c4 7c e0 8f bf 5e 48 25 14 b0 82 ca bf
       -0.015564894442017481 -0.2071132753722535
0004e0 13 10 da a4 77 0e 75 3f 0d 9a fe ee be 39 43 bf
       0.005140750273884736 -0.0005867178242525154
0004f0 f1 ee 98 1a 2f 16 ca 3f fd 1b db 25 75 69 db 3f
       0.20380200194073653 0.42831162163605524
000500 26 31 8a 57 51 bb cb bf 90 bb ac 5e bd 18 b3 3f
       -0.21665398382573037 0.0745962482585425
000510 4a 18 34 67 38 ae bd 3f 60 4c c2 25 2d 46 c8 bf
       0.11593964118591873 -0.18964161246967404
000520 40 c7 0b f7 c0 71 81 bf 1d b8 2c 45 aa e5 8c bf
       -0.008517749346967585 -0.014109926448863825
000530 6e f0 d7 da d2 03 e3 3f 71 12 0e cb 85 be a2 bf
       0.5942167543685295 -0.036609822308524616
000540 3a 0e 8b f3 f1 24 d3 3f e4 4c 6a ed 43 de 7c 3f
       0.29912995131983033 0.007047906247538569
000550 30 e7 cb 5e 4f 25 2a bf 10 81 d2 43 04 fe a5 bf
       -0.00019947618365972466 -0.04295361831577982
000560 bd 4d 5b e7 60 31 78 bf 31 20 1b 33 95 67 78 bf
       -0.005906466036054989 -0.0059581592665339115
000570 d1 07 b0 66 dd 2d be bf 21 4c d2 5b 0c a5 86 bf
       -0.11788734204313235 -0.011056992103737841
000580 8c a8 5f 81 36 f2 a4 bf a8 28 14 d5 f2 aa 9a bf
       -0.04091043786304835 -0.02604274201898052
000590 82 9f 10 da e2 ea c2 3f a1 99 76 5a 77 a4 c0 bf
       0.1477931561250863 -0.13001911084320475
0005a0 d9 31 55 61 e1 c7 a9 bf ee bf 4f fc 82 fb c0 3f
       -0.05035309136528427 0.1326755268087249
0005b0 d1 8d 47 a8 0a a8 99 3f 12 07 69 dc 21 f8 cd bf
       0.02505509044739346 -0.2341348959180825
0005c0 2d 79 59 47 a5 40 c2 3f 05 9b 50 c3 65 a7 c0 bf
       0.14259782775747834 -0.1301085666356913
0005d0 03 d9 a8 72 4f e9 bb bf 7d 9b cd 6c 1e ea a1 bf
       -0.10902878331475922 -0.0349893100563383
0005e0 35 83 d3 7d 3d 3e a6 3f 03 7a c2 9c d6 c8 b5 bf
       0.04344360505070314 -0.08509579970493779
0005f0 09 b6 3e 53 c0 c1 79 3f 4b c8 8e 6b d9 24 87 3f
       0.006288291235177387 0.01130075320711312
000600 3a 3a ba c7 d1 1c d2 bf fd f8 d0 87 81 48 bf bc
       -0.2830089998687161 -4.3414197902035454e-16
000610 b5 e3 2a f2 8d 26 71 bf b2 76 89 8b 60 77 78 3f
       -0.004187159038956991 0.005973221902051117
000620 81 4d e4 d9 ce a3 5e 3f 2a dd 55 c7 5e d9 b6 bf
       0.0018701095610297038 -0.08925430647456226
000630 18 18 7b 8b b6 1e 4c 3f 92 d1 4e d1 4f b0 5f 3c
       0.0008581534702549768 6.871395362441463e-18
000640 d6 e4 2a b5 7d 03 bb 3f 53 6d 1b c3 74 7e b7 bf
       0.10552201912914269 -0.09177331698758921
000650 0f ac 3c a5 e4 76 84 3f d4 83 75 e9 03 1f 8c bf
       0.009992395680077619 -0.013731031953911378
000660 86 e7 3d 7e bf 54 ae 3f 94 93 b5 f9 c2 3c dd 3a
       0.05924032608068246 3.7788389306207687e-25
000670 c3 b8 f0 66 2e 51 ba bf a1 5a b7 2b 1d c8 b5 bf
       -0.10280122769538295 -0.08508474652567567
000680 84 8a fd cb 1d 91 d0 bf d4 06 bb 82 49 17 a4 bf
       -0.25885720177590366 -0.03924016686279477
000690 e8 97 3d 8f 86 40 b3 bf fc 7a ea b3 ca 48 bf 3f
       -0.0752033328732008 0.12220446484068853
0006a0 40 27 8e 99 5d 2d b5 bf 92 df 98 7a 50 2d 9f bf
       -0.08272347449215278 -0.030446298105942633
0006b0 f1 e9 15 f6 81 c1 df 3f 3b 2f 17 b5 f0 49 ab 3f
       0.4961857703380295 0.053298494439870635
0006c0 5c 1c dd fb 1e bf c6 3f 9a bf 86 2c 80 fd c9 bf
       0.1777075509837428 -0.20304872678889013
0006d0 58 cc 43 a3 71 45 a8 3f f1 b4 e9 b4 7f 05 c0 bf
       0.04740481489161458 -0.12516781171453986
0006e0 99 0f d1 84 ee cd a4 bf 62 06 10 db d4 db c5 3f
       -0.040633634293526906 0.17077122398773087
0006f0 04 4c c5 ac dc 80 2f 3f 53 02 c7 d3 04 b3 b9 3f
       0.00024035161767219104 0.10038786096903012
000700 a7 e6 5f 21 00 6f 76 bb 72 d8 71 2d ba 06 b7 3f
       -2.9690616744617997e-22 0.08994639977922406
000710 28 de 4b 6c ee 36 d2 3f 99 b2 04 0c 7e 0c aa 3f
       0.28460274291816967 0.050876559226115954
000720 7e 1f e5 3d 4c ba ba 3f 9c 11 87 f0 6e c3 b6 bf
       0.10440517912968336 -0.08891957638031162
000730 26 91 f0 db e4 b4 a3 3f 9c 91 f9 25 91 64 00 bd
       0.038489486549482074 -7.27988326860415e-15
000740 dd 61 4b 3e 2c f6 b9 3f 32 60 e7 cf 93 05 b8 bf
       0.1014125492178048 -0.09383510423447275
000750 39 1d aa d5 1b e4 c7 3f 5e 01 38 38 a1 b9 c0 3f
       0.1866488259586079 0.13066497082764789
000760 50 34 fb 4e 86 58 b4 bf b7 de c1 05 27 32 b7 3f
       -0.07947577884915913 0.09060901537474818
000770 e5 76 d0 7e f4 83 a3 3f 70 90 8c 58 c0 84 90 bf
       0.038116112213385546 -0.01613140621624648
000780 2e 42 19 77 57 4d c7 bf 40 bb 2e 53 e3 19 c5 3f
       -0.18204778018345408 0.16485253869674388
000790 af 7f 16 50 02 2b c5 bf 0d e0 07 e0 b4 9a 5d bf
       -0.1653750315717821 -0.0018069044455142375
0007a0 4e 2e 69 a7 99 46 a8 3f a9 97 01 36 9e 7e fd bb
       0.04741363686170229 -9.993159731142406e-20
0007b0 85 f2 a1 b4 30 e4 a8 bf 25 f9 c5 ee 33 9a c2 3f
       -0.04861595349300266 0.14533089789251466
0007c0 46 52 de 8a 0b 43 ba 3f 1f 66 55 1a 30 ee d0 bf
       0.10258552685110897 -0.26453783580436324
0007d0 a8 76 be d9 8f 2e c6 3f 51 98 fa 73 ca 57 e4 bf
       0.1732959569171062 -0.6357166543209677
0007e0 4c cc 64 77 b0 11 a7 bf 8b fd 1a cf a9 3e 9c 3f
       -0.04505683381503242 0.027582791581833226
0007f0 fc 47 6a a9 0b 96 c4 bf b5 92 97 49 25 b4 92 3f
       -0.16082902691101697 0.018265326134399646

arr_1 f8 [128]
000000 b9 c6 60 fd 3d 93 bf 3f 04 e6 75 f2 03 46 c4 3e
       0.12334048686968914 2.4167892608811386e-06
000010 51 06 d6 f7 9d f9 9e bf 66 3e 8e 50 24 31 c5 3f
       -0.03024908852740388 0.16556219037419168
000020 db 1d 28 6a f9 f1 b4 3f aa ad 4b c1 34 12 a9 bf
       0.08181723443714566 -0.04896702632489831
000030 f2 57 b3 23 d5 d3 b4 bf ea 5d b1 7a 09 92 c3 3f
       -0.08135730859370918 0.15289419642316143
000040 5d 23 9d 5a c3 15 a2 3f 0a b8 66 87 a3 ce c6 3f
       0.03532228928685897 0.17818111525906516
000050 b6 96 45 6a d9 d9 cc bf 83 33 4b d5 2d 75 65 bf
       -0.2253982323556351 -0.0026193518809578
000060 e4 55 d0 a9 15 aa 98 bf 6b c1 01 7c e2 16 b2 bf
       -0.024086321344006026 -0.0706616928816907
000070 aa ec 07 50 08 5b 9e bf 2b 9c 3b 31 b4 48 94 bf
       -0.029644136318876114 -0.01980859327786903
000080 b1 29 bb 0a 87 7a bc 3f 1d 7d 95 a0 af 2d be 3f
       0.11124462139119974 0.11788461370951038
000090 c4 6f da 47 10 72 a0 3f b2 c6 64 2e 0d b3 be bf
       0.03212023617854201 -0.11991960890443457
0000a0 0a a2 87 32 e5 5c 7a bf 94 ed 70 87 e9 1b c5 bf
       -0.006436248113893326 -0.16491431344352903
0000b0 76 a1 42 7a 32 ea a4 bf d8 a2 ed 28 4d 5f c3 bf
       -0.040849282669401285 -0.15134586809587947
0000c0 f1 be 3e b6 9c 04 bb 3f a2 b5 24 44 9a 99 5d bf
       0.10553912591307914 -0.0018066412454332621
0000d0 8d fe 52 56 28 3f bd 3f 79 d8 29 11 a8 f9 bc bf
       0.11424495799564678 -0.11318445605306406
0000e0 e3 bf d0 15 83 fe c2 bf ec 9c c7 68 28 95 af 3f
       -0.14839209141928142 0.0616848590760187
0000f0 4c 29 75 63 e6 c2 ba bf 01 a6 21 1f 37 5f c2 bf
       -0.10453643730321466 -0.14353074092950638
000100 aa 87 0c b0 bc 22 a8 3f 58 8e 45 61 fb bb 81 3f
       0.047140022745465984 0.008659328371044925
000110 c9 4d 72 58 01 2d bb 3f 40 58 e4 82 e5 fc 88 bf
       0.10615547570551266 -0.012201111847883195
000120 c5 5f 97 d5 4b d7 b4 3f 75 55 f7 b4 3e 87 b4 3f
       0.0814101597273967 0.08018867414587823
000130 07 89 c4 69 94 42 d0 3f 83 81 c4 3c 24 05 c3 3f
       0.2540637047660685 0.14859440772216823
000140 bd 60 7c 73 da d1 ae bf d7 9a 70 cd 55 71 a5 bf
       -0.06019480380763429 -0.04188030369578193
000150 bd 57 6f a8 c5 40 c3 3f 13 73 4e 8d b0 75 c6 3f
       0.150414187663669 0.17546660327652627
000160 36 3b cd 39 98 33 b8 bf 2d 78 36 17 8e 19 ba 3f
       -0.09453727160619682 0.10195243899076507
000170 95 74 58 ec 69 bf 9d bf 68 fc 2f 45 80 64 72 3f
       -0.029050498056780134 0.004490376525608665
000180 6e 04 ac 85 b6 93 c5 bf e1 38 63 de 80 a7 93 bf
       -0.1685703423209221 -0.019193662236653423
000190 89 83 ad a1 d5 9b c4 3f 58 1a be 17 27 17 a2 3f
       0.16100569147513635 0.035332891128793065
0001a0 9e 08 25 be 08 53 c1 bf 85 8c 11 60 fb aa c2 bf
       -0.13534650120169983 -0.1458429545483321
0001b0 fe 17 55 e2 01 23 80 3f a7 6d 3b 26 64 47 a7 3f
       0.007879271239868754 0.045466546694764624
0001c0 39 cd e1 45 5b 53 a1 3f de 9b ea c5 8a 91 a8 bf
       0.03383908489277094 -0.04798539796802691
0001d0 b3 5b de cc d9 89 c2 bf 62 d0 9c 5a 45 e2 c1 bf
       -0.14483187201832734 -0.13971774029198786
0001e0 db 99 b0 86 e1 6d aa 3f d1 a3 13 3e b8 39 c4 3f
       0.05161957520640544 0.15801146536912694
0001f0 30 f3 74 13 75 ff ca 3f e9 ce e3 1c 2d fe c1 bf
       0.21092093896904762 -0.1405693427146766
000200 55 de d9 04 75 d8 be 3f 14 a9 96 a1 a6 ea a7 bf
       0.12049037331041153 -0.04671211931720812
000210 03 9d e3 79 db 45 c5 bf 31 eb c0 50 c3 2f b5 bf
       -0.16619437648407862 -0.08276005479357874
000220 8d e0 65 b1 20 72 9b bf 60 3f 42 7b 07 86 b8 bf
       -0.026802550151359617 -0.0957951236653094
000230 a7 12 47 ad 4f 8d 87 3f 39 3c 91 98 81 ba b5 3f
       0.011499998546136437 0.08487710928714955
000240 7c d6 10 f1 f0 0a cc bf 5a 0c 59 b0 0c 90 b4 3f
       -0.21908389826574026 0.0803230219399195
000250 0f ed 69 b8 a4 47 c4 bf ac 51 b0 98 20 8d ab bf
       -0.15843638424471648 -0.053811091078532186
000260 d9 de d4 96 aa bc b9 bf 3f a8 17 38 ab bc c2 3f
       -0.10053507025156296 0.1463827155960775
000270 23 e1 e2 84 ca 39 c3 bf 4a bb 6a 4e f2 71 b3 3f
       -0.15020114410959548 0.07595743574596017
000280 7c fd b9 a2 f4 ee cb bf 89 36 90 e2 60 ec c9 bf
       -0.2182298464358431 -0.20252619803106978
000290 8d af f0 a0 0b 46 b8 bf 41 08 c7 99 2a e5 ab 3f
       -0.09481880835727292 0.05448277594725016
0002a0 3e 28 cd 79 6d c3 c0 bf 51 1d 2e 53 0c 84 81 bf
       -0.13096397826513057 -0.008552643097358955
0002b0 00 9d c9 f4 d0 8b d4 3f 9c 19 3c b4 2a 99 c4 bf
       0.3210337057593762 -0.16092428017163918
0002c0 31 ef 3e c3 3d ab c5 3f ef af f5 a3 b4 5b c2 3f
       0.16928836854446552 0.14342363363118646
0002d0 f8 5d 4e cf 90 32 aa bf ca 80 72 a1 59 d8 be bf
       -0.05116703539459516 -0.12048874084075858
0002e0 a9 a6 1c 1e 66 4a c0 3f 5f 54 b7 6d 5e 4f 9e bf
       0.1272704741507387 -0.029599643179455955
0002f0 a2 17 00 ef 28 a4 c9 3f bc fa 1b 25 a7 69 c9 3f
       0.20032226247729762 0.1985367709348419
000300 f5 fd a2 e7 55 6c c1 bf 9d b2 f3 8b 2e 0c af 3f
       -0.13611863909134994 0.060639814933755455
000310 e5 70 80 61 0b 6c bc 3f 5c 4a 52 e1 bf 49 ac 3f
       0.11102362757123137 0.05525016427522608
000320 db ab 04 71 62 be a0 bf 70 96 63 3f 99 d7 c1 bf
       -0.03270251874558713 -0.13939204783598624
000330 da b9 8e 33 3b e9 9a 3f 4d ff fc aa 3b bf b2 3f
       0.0262803316324439 0.07323048519628834
000340 00 66 29 94 f5 64 b8 3f fe df a5 cb 6c 09 be bf
       0.09529051654080689 -0.11733131381868131
000350 30 37 29 d6 40 96 a8 bf ad 66 46 3e d5 7b b2 bf
       -0.04802134145994186 -0.07220204134355397
000360 55 87 e8 14 80 4e c4 3f 16 65 9b 93 be 93 99 bf
       0.15864563961900538 -0.024977662810532562
000370 14 4e e7 ee 56 47 a9 3f e7 e6 ba a1 ec fd a6 3f
       0.04937240282347602 0.04490603899234973
000380 76 ce 94 32 2a 01 c5 bf 55 4e ea 3f 4a e5 bd 3f
       -0.16409804792202792 0.11677993832045648
000390 d4 49 e1 16 49 cb a4 3f 1c 49 11 6a 8b b4 bc 3f
       0.04061344532296443 0.11212989177264315
0003a0 a4 af d6 ac e3 02 b5 3f 29 69 a2 76 58 aa 69 3f
       0.08207533807461559 0.003132984905346654
0003b0 43 42 3a 2d 64 26 bb 3f 1b 06 28 0d 20 dd b5 3f
       0.1060545549792176 0.08540535279464516
0003c0 28 92 19 14 b9 4f 71 bf e7 df e8 99 ea fa c8 3f
       -0.0042264203671931524 0.1951573611747783
0003d0 7a c3 2c af e3 fa ba bf 92 0b 85 e4 3b 5c c4 bf
       -0.10539076830606389 -0.1590647569483648
0003e0 d7 01 81 05 6c 7b c1 bf be 1f e1 d8 80 cd cb bf
       -0.13657903927561563 -0.21720896329702372
0003f0 e2 df 3b 73 09 28 b0 bf 7b ad 82 4c 0b 3f b9 bf
       -0.06311091483428258 -0.09861822717600958

arr_2 f8 [128, 64]
000000 42 63 9c 14 4f 6e bc 3f 42 d5 eb 1b 59 b1 92 3f
       0.11105818036265894 0.018254654244590947
000010 0d 84 31 61 10 26 b4 bf 5b 5d 2f c9 33 95 da be
       -0.07870581028829822 -6.337838516188558e-06
000020 bc 0e 85 88 da cd 95 3f 4a 45 d4 7a 6f 4f a9 bf
       0.021293081839089054 -0.04943416952495257
000030 ba 9b e0 2f b3 63 98 bf 56 ff 46 d6 e8 46 a8 3f
       -0.023817825123980653 0.0474159967011462
000040 13 6a fb 0d fa 70 ac bf 1b 20 a0 98 43 e1 be bf
       -0.05554944439582612 -0.1206247565861535
000050 42 7e ce 52 26 a9 60 3f ee 1a e2 f3 8a c6 b7 3f
       0.002033781862749413 0.09287327245884189
000060 ad b1 d5 e4 61 86 c0 bf a7 09 d6 64 07 7c a3 3f
       -0.12910102532931714 0.038055640276996976
000070 c7 4e c5 88 f6 67 a2 bf d5 10 0e d3 10 ec 75 bf
       -0.035949424930235056 -0.005352082939570309
000080 4d 08 33 6d 71 b2 96 3f 83 32 cc 8c 59 2e a8 bf
       0.022165081300734624 -0.04722862094613325
000090 41 cd 69 9d a7 c7 c0 3f 3b f0 7f b5 4e 2c 7e bf
       0.1310929792995044 -0.0073664736337342674
0000a0 a2 d2 75 8e e0 9a bc 3f cd b2 98 d7 2d 46 9d 3f
       0.11173823812516528 0.028588024410214175
0000b0 64 87 e1 e0 97 ea a6 3f 2b 64 2e d8 d3 f2 af bf
       0.04475855465058379 -0.06239950193339213
0000c0 c4 2f b5 7c 9d 63 b2 3f d8 4d 48 b9 62 cb c0 bf
       0.07183250708220529 -0.13120683714860948
0000d0 13 b5 ca 87 60 7a c0 3f b3 a8 62 32 58 c1 c6 bf
       0.12873465185604313 -0.17777540645812948
0000e0 08 6f b6 e9 40 a9 c4 bf d7 f8 03 d0 90 46 b4 bf
       -0.1614152089285812 -0.07920174673560908
0000f0 f2 de 9f 4b 1c 2f c5 bf 3c 81 af 86 2b 48 c2 3f
       -0.1655001992473824 0.1428274543423046
000100 4b c5 ac c8 27 15 ba 3f f6 ed a6 c9 7d 9b c0 bf
       0.10188530587472149 -0.12974521967213065
000110 37 52 d9 6e f2 7f c0 bf 3e 01 42 2c 6a 5c a4 bf
       -0.12890463268799277 -0.03976756849533779
000120 28 88 85 89 71 0b b3 bf 66 b7 c8 c5 a4 cb c3 3f
       -0.07439336402379182 0.15465221078323593
000130 a1 55 86 36 11 fd bb 3f 40 5a a8 49 dc 6b c5 bf
       0.10933024960680494 -0.16735414120258163
000140 ed 03 4e 42 72 66 b8 39 6f d5 ba 14 ea be b6 ba
       1.2030218021842435e-30 -7.349551212630451e-26
000150 8b a0 d7 fd 89 84 be 3f ae d4 dc fb 79 df bd bf
       0.1192098850948488 -0.1166912307642913
000160 29 50 ad d2 fd eb b9 3f 96 a9 24 a7 8e e2 bb bf
       0.10125719445687821 -0.1089257391037449
000170 05 40 b4 f9 52 7b c0 3f e5 5a cd ec e7 d1 bb bf
       0.12876355354865168 -0.10867166072180685
000180 60 13 bb cd 77 1d bb 3f 2f c0 77 37 63 67 c1 bf
       0.10591839573596706 -0.13596763809573661
000190 43 39 1e 2f 7c 1f c1 bf 32 fb e8 f6 cd ec 8b bf
       -0.13377334881483635 -0.013635262582395311
0001a0 b5 d3 d0 bd 41 01 9a bf 78 26 d0 fe d0 f2 c0 3f
       -0.025395419321472896 0.13241016809506667
0001b0 be aa 93 02 73 7c 87 bf 85 79 11 73 5a 14 c6 bf
       -0.011467836872232847 -0.17249613398139388
0001c0 f5 86 c8 50 84 63 be bf d5 e6 44 ce 18 42 aa bf
       -0.11870600673912775 -0.05128552930768896
0001d0 f7 c0 ac 2c 8f ef c0 bf 4d df 11 07 3d dc c5 3f
       -0.13231076890361468 0.17078364224630108
0001e0 dd d8 97 72 02 8b c2 3f 17 63 bf 19 88 c5 97 bf
       0.14486723513954916 -0.023214460917958393
0001f0 50 9d 86 d1 36 eb 34 b7 b8 af 5a 28 a2 1e c0 3f
       -9.380316678700421e-43 0.12593485804006632
000200 2a 48 a9 e6 7b ca b9 3f 9c 23 b2 11 e9 5e 4d 39
       0.1007459104669414 1.1313199014932539e-32
000210 67 99 46 22 23 c0 bd 3f 5e 5d d4 17 a7 8a 48 bf
       0.11621303164301865 -0.0007489505657386865
000220 3a 0e eb c3 dc 52 b8 3f ee 19 08 00 39 73 7b 3f
       0.0950143793407329 0.006701681763394236
000230 cf 13 20 98 4c 64 a5 3f 4d e1 e5 4b 39 dd c0 3f
       0.041780847139342485 0.13175121503787537
000240 08 e6 25 eb 47 95 b3 bf e4 8d 4b 07 49 e2 c3 bf
       -0.07649659624976135 -0.15534317833144862
000250 03 ea 42 f3 64 02 97 bf 17 cf b0 f2 d7 42 b2 bf
       -0.022470071170326743 -0.07133245158257427
000260 e0 9d 88 b9 09 77 c2 bf ed d2 70 cb 2e f7 9a bf
       -0.14425775107632344 -0.02633355251983265
000270 0b 8d 65 d3 27 d9 c0 bf 6a 94 22 b2 73 92 7a bf
       -0.1316270620546692 -0.006487323700786177
000280 c0 ef 4f 6d 0b 85 a3 bf 68 7c 2a b6 86 82 b1 bf
       -0.038124425023823516 -0.0683979220143428
000290 be b1 22 02 a7 49 c2 bf 3d a0 4c 82 25 5f 68 bf
       -0.14287269214891113 -0.002975056895952148
0002a0 e3 85 df 74 7a 17 93 bf f0 f0 58 d0 46 e2 c4 bf
       -0.018644250281686935 -0.16315541432584935
0002b0 a5 c8 9c 31 da 2c c3 3f 04 2c 99 71 a6 97 e2 3c
       0.14980628416521316 2.06416922221257e-15
0002c0 53 35 03 3a fa 2a b0 3f b7 6a ea 6d 3a 05 be 3f
       0.06315578380891411 0.11726727660645052
0002d0 36 07 da 74 4e ce c4 bf 71 ef 4f 70 0c e2 c0 3f
       -0.16254597383163522 0.13189845546719028
0002e0 5b 2e 49 1d 25 21 be bf fe e0 1b bb f0 e7 bf 3f
       -0.11769325222956566 0.12463287895286965
0002f0 65 04 9c 9b 04 7b 8b 3f 72 85 fd 61 f6 5d b6 bf
       0.013418231962989144 -0.08737125294057593
000300 61 97 03 dd 61 25 c0 3f 03 0d 32 6c b5 6b a8 bf
       0.1261408166093885 -0.04769675203081116
000310 70 c3 d4 bd aa 64 b2 bf f0 46 cb 6b c6 aa b6 bf
       -0.07184855589436068 -0.08854332095804884
000320 a9 51 4c 0d 38 c5 c6 bf ba 65 8c 65 b4 e0 04 38
       -0.17789364480326 7.669275087518691e-39
000330 dd 54 3f 94 84 20 b0 3f d0 f5 9e 07 ba c4 97 3f
       0.06299618357964527 0.023211390223641548
000340 f1 ac 29 ad 4b e0 b4 bc 44 80 bc ab f5 55 46 37
       -2.8971484559279475e-16 2.003142019763095e-42
000350 5d 43 0d 48 2f ab a0 bf 2b db f4 58 61 98 c2 bf
       -0.03255603556193052 -0.1452752765996704
000360 d6 be f2 22 94 71 c3 3f b1 8a 1b 59 1e 71 c3 bf
       0.1519036455770137 -0.15188960410076427
000370 53 c3 ee c9 44 4e a0 3f f5 fc e7 d8 38 c9 cb bf
       0.031847142839416386 -0.21707830992816182
000380 49 70 7c 5f a7 0a c3 bf 42 97 ae b3 50 8f b5 3f
       -0.1487626281967798 0.0842180670429942
000390 7c 3a 32 7f cc e6 c4 bf 62 1a 05 ee ee 96 6c bf
       -0.16329342089416687 -0.0034899393650989355
0003a0 d2 9b f8 2b b5 be 91 bf 62 0c 41 3e e9 ce 9f bf
       -0.017329054650101323 -0.03106274073094218
0003b0 8b 86 97 e0 9b 5b 90 bf bc 18 5a 4c 61 5a b7 bf
       -0.01597446020412589 -0.09122284044323953
0003c0 e2 69 57 1b d5 e9 4c 3f 12 04 bc c6 f4 d4 b1 3f
       0.0008823671875533535 0.0696557030860421
0003d0 73 7a 91 d9 a3 1e 9e bf bc bf 24 70 f3 33 c1 3f
       -0.029413757471383705 0.134397916562646
0003e0 68 50 5b d2 73 d4 b1 bf d8 d4 4e 16 2e 25 97 bf
       -0.06964801679288402 -0.022602768050735772
0003f0 44 0c f9 7b 84 7b db 3a 98 ee 7f ef c9 d9 b9 3f
       3.552028618817852e-25 0.10097944352303967
000400 77 51 18 b6 3e ba fc bb b5 e5 21 28 48 2e e2 b9
       -9.733262169410408e-20 -7.171056646688499e-30
000410 4b e8 d7 29 eb 7f c5 bf 96 84 99 bb d0 12 11 bf
       -0.16796626608976548 -6.513022426581287e-05
000420 62 ee 67 eb 72 18 b2 3f 56 37 94 64 98 e1 b4 3f
       0.07068556067673051 0.08156731086293453
000430 5d 80 56 09 d9 38 bd 3f 58 63 83 94 46 3f c5 bf
       0.11414867856956463 -0.16599352122900757
000440 90 67 0a 6a 5c bb 98 bf f1 19 53 18 f5 13 c1 bf
       -0.024152225467879485 -0.13342155158734628
000450 fc 11 41 aa 56 15 98 bf 9c 52 db 1e 6f 12 b4 bf
       -0.023518900052538413 -0.0784062815030872
000460 4f 03 d2 70 24 d5 97 bf 28 3c c6 90 45 52 c1 bf
       -0.023274011026390536 -0.13532323426304171
000470 e6 23 6b 1d 03 1b b2 bf 13 c8 4f e6 bd 1c 5e 3f
       -0.07072467296815396 0.0018379072655503356
000480 4a db 9f 82 5a 22 a6 3f 11 1d 0b 03 45 db c6 3f
       0.043230846829763594 0.17856657646755328
000490 28 1a 14 82 63 df c8 3f 02 b3 9f b0 69 12 30 bc
       0.19431728221407352 -8.71260810917725e-19
0004a0 c0 ad ca 58 00 5c 92 bf 2a c8 f3 05 c9 cb c3 bf
       -0.017929082316795464 -0.15465653219831782
0004b0 7a 37 aa 5d 22 82 a8 bf b4 21 9f 0d fb 6c 7d b7
       -0.04786784547205421 -2.1111908507814083e-41
0004c0 2e 3d a0 c4 c7 6a c1 3f 7a df ab 5a fe 36 c1 bf
       0.13607117749095593 -0.13449077060044684
0004d0 bf ae d3 41 ff 85 ac 3f af 1b ca 3f 16 a6 bc bf
       0.055709816728123134 -0.11190928513870689
0004e0 59 bc 94 76 62 f2 ba 3f fd 6d 2f 9a 28 fa b3 3f
       0.1052609958176033 0.07803586735047215
0004f0 e4 f4 e8 c1 ad fa 72 ba be 38 7d 06 70 44 b1 bf
       -3.832821709078844e-27 -0.06745052488733713
000500 84 91 44 90 7d e6 99 3f 94 ff ef 3b 09 04 c0 bf
       0.025293313913736806 -0.12512317110667637
000510 99 1e b2 99 78 6d 99 3f ce 61 57 b9 5b 55 be 3f
       0.024831661587568197 0.11848996424612965
000520 e8 18 bf f8 d8 d8 b6 3f 0d 7d 49 ae d0 ba 6f 39
       0.08924633095657308 4.888741546321698e-32
000530 91 02 77 8e 74 81 be bf 75 e7 3c a2 0b cb c0 bf
       -0.11916283109804683 -0.13119645520947257
000540 41 b2 c8 b2 e7 14 c9 bc b6 31 ac 75 2d 2d de 39
       -6.961559228143693e-16 5.951260328340933e-30
000550 00 97 33 6c 35 2b c2 3f 00 b0 af 19 20 a8 b5 3f
       0.1419436243369816 0.08459663989168575
000560 7d b9 0b ff fe 4b b3 bf 56 29 31 43 4c 5d 8a bf
       -0.07537835814193801 -0.012873264122522581
000570 db bf 2f b6 68 6e ae ba 09 85 4d 23 00 46 b2 bf
       -4.916439295523926e-26 -0.07138062345395126
000580 79 34 db a8 fc 1f ab 3f 44 40 a4 e5 4d 09 af bf
       0.052978416073167396 -0.060617861063406525
000590 96 d2 6d 30 90 e7 be bf 1b 56 60 d9 b1 e0 f1 ba
       -0.12072087461803913 -9.24256138809293e-25
0005a0 95 63 fd 35 e8 a8 8d bf 9d 0e 25 1d 5d 7f 8f bf
       -0.014482320926320994 -0.015379645778586687
0005b0 e4 05 13 b3 89 63 bb b8 1d fe e8 69 45 a7 9f 3f
       -2.0605057946879068e-35 0.030911526288262537
0005c0 6b 38 4b 6e 28 96 a6 bf 37 cc 37 95 5e 2e c4 bf
       -0.04411436411247468 -0.15766508375199503
0005d0 7c cd 12 f2 a6 42 b7 bf 24 86 4c e3 e0 81 bd bf
       -0.09086078081127441 -0.11526303815164646
0005e0 67 05 74 89 d0 3d bf bf 42 41 88 f2 a1 c7 17 be
       -0.12203696590224454 -1.384167400601286e-09
0005f0 7f 8f 77 72 9e d3 88 3b de 4d 2b bf 9a 94 c2 3f
       6.571555953857352e-22 0.14516004881316652
000600 c0 41 85 7e 39 c3 bb 3f c3 9f d4 39 c5 d2 8f 3f
       0.10844764078979718 0.015538731410359113
000610 a2 1a 6b e5 04 80 b4 3f 1e 22 fc fe b9 0e 50 bf
       0.08007841683420705 -0.000980073582413372
000620 1d 55 22 79 5b 69 95 bf f8 44 b2 24 14 28 ba 3f
       -0.020909718769492536 0.10217405219943376
000630 55 87 67 38 1a ee b5 3f 08 47 e8 77 a1 be bb bf
       0.08566440465031396 -0.10837754418778556
000640 c0 f9 e1 92 32 40 bc 3f 83 04 6d 31 80 b4 ba 3f
       0.11035457693103634 0.10431672293363374
000650 56 f8 64 91 3f b6 a7 3f c0 45 2e 4f a7 7f b7 bf
       0.04631231927713546 -0.0917915886223204
000660 3c 08 c5 83 2c b8 b1 bf 25 16 cb 59 f2 7e 57 bf
       -0.06921652047188415 -0.0014340750414460004
000670 8d 61 f8 3c 84 23 c5 3f 52 b8 e9 83 65 80 40 bf
       0.16514637925207545 -0.0005035873108008104
000680 04 22 40 bb 86 11 8c 3f 46 05 3c d4 bb 5f b2 bf
       0.01370530375426516 -0.07177328044419537
000690 1c fa 9b 9c 79 62 c3 3f bd b9 a7 b0 20 c8 86 bf
       0.15144271990716696 -0.011123900786483948
0006a0 fd be f6 2c 4c e6 c3 bf 17 3c e0 7e b9 57 7f bf
       -0.15546562381268095 -0.007652020065520146
0006b0 9c a3 70 07 fa 21 bc bf 81 cd 01 82 a0 71 67 3f
       -0.10989344293251552 0.002861798755526557
0006c0 b0 ad e9 b2 99 57 93 bf 06 e2 14 cc b2 9b ab bf
       -0.018888856453868008 -0.05392225972395086
0006d0 5c 63 54 1e 59 4a 95 bf aa 99 87 fe a2 06 9b 3f
       -0.020791428066419967 0.026392504487284953
0006e0 7c 7c 4d 03 30 b6 b6 3f df b9 4a 3f 8d 95 bf bf
       0.0887174614012895 -0.12337572856151933
0006f0 7f 12 3c 08 a3 a9 c0 3f 1c ac 9f 63 69 a4 c5 3f
       0.13017690565188286 0.1690799461788125
000700 69 ad c4 eb 2e 54 9e bf 80 20 84 2e 4a 57 b9 bf
       -0.02961800874724699 -0.09898818622252925
000710 98 3c ee 28 33 b2 9e 3f d7 ee 44 9d 55 4e c5 bf
       0.029976653454977326 -0.16645307711757226
000720 7c 9a 3a 99 18 88 80 bf be 65 58 b1 3e e4 bd bf
       -0.008072082687545327 -0.116763990685647
000730 d6 06 a6 f2 47 03 bc 3f da 9d c5 35 58 5d b7 bf
       0.10942506479298272 -0.0912680751113081
000740 4c ee 1d 8f 38 4a 11 b9 d5 c8 15 72 6a 31 00 bd
       -8.324796325059998e-34 -7.191150111670476e-15
000750 a7 3a 08 ff 60 5e ab 3f 4b f9 fb 8a 9d ea a7 bf
       0.05345442879853595 -0.0467118484648262
000760 cc ce d7 24 53 08 c6 bf 4f 24 62 f8 37 ba af bf
       -0.17212905215239116 -0.061967610426173374
000770 0a 5f 37 a3 93 ea c1 3f 5e d1 44 76 32 a7 96 bf
       0.1399712130503235 -0.02212218138557042
000780 48 70 23 91 8a 0c c1 bf 67 04 20 a2 7e dd bd bf
       -0.1331952294048071 -0.11666099031573794
000790 32 e4 01 96 e9 22 ae 3f 6d be ce 1b 46 ab 8e bf
       0.05886011081833721 -0.014975116466160199
0007a0 8b b5 26 09 7c e5 97 bf 81 5d 19 c9 c8 ef bf bf
       -0.023336351450486553 -0.12475256833692151
0007b0 59 44 b5 55 c4 83 92 bf 3f f9 69 8f e8 25 bd 3f
       -0.018080775958257387 0.11385968686406488
0007c0 05 cf fb 91 37 db b6 3f ca db 60 56 bc eb bc 3f
       0.08928248704961213 0.11297204121443297
0007d0 7b 9a 4a af 9c dd 97 bf 46 25 c5 4d 24 56 a3 bf
       -0.023306320380152883 -0.03776658486692468
0007e0 13 8e d2 ec 98 61 bb 3f 8c 71 a2 cf 32 50 9a bf
       0.1069579675845989 -0.025696557925230887
0007f0 c4 cd b1 ef d5 55 5b 3c e5 9c f5 54 3a a0 b9 bf
       5.927397387799631e-18 -0.10010113310055464

arr_3 f8 [64]
000000 69 76 b8 1d 5b ea b3 bf d8 8e ac c6 3a a1 92 bf
       -0.07779473758315593 -0.018193167091466872
000010 e1 5b dc 48 ab 95 c1 bf b7 05 66 6f 89 4f b3 3f
       -0.13738003785758138 0.07543238610926194
000020 e5 74 0c 1c f3 08 c2 3f eb 25 7a 42 3a d0 c6 3f
       0.14089812154353534 0.17822960134462504
000030 fc 37 c9 fc 79 fe b5 bf 95 9a e6 f4 d9 6e b4 3f
       -0.08591425344022235 0.07981645802520128
000040 b3 7d 11 db 73 e8 b7 3f 97 40 a7 31 77 1a 82 3f
       0.09339069460246811 0.008839541628646237
000050 37 c2 44 bb 6e c2 92 3f a8 3f ee a4 8a e1 bd 3f
       0.01831982629772907 0.11672274138095295
000060 0c 57 46 0d 1d d8 b7 3f 89 88 f9 48 2b c1 c6 3f
       0.09314138006297074 0.17777005255908687
000070 d5 34 2f 13 69 aa bf 3f 20 78 3d 80 0e 00 c0 3f
       0.1236940070950426 0.12500172864651038
000080 e0 b8 61 a2 ea e8 c5 3f a1 d7 73 66 3d 45 bd 3f
       0.17117054871363901 0.11433776618272741
000090 02 a6 00 4f a6 3f bc 3f a0 c1 25 a3 53 0f 73 bf
       0.11034621647618084 -0.004653288562949248
0000a0 5c 76 17 d3 76 02 c4 3f b3 a7 8a 71 03 4a 94 bf
       0.15632520014962636 -0.01981358891013203
0000b0 1b 9f 49 8f ff 8f c2 3f c4 f5 95 e6 9f 47 be 3f
       0.14501947876419127 0.11828040484939267
0000c0 a3 5e b9 d5 22 e1 c4 3f 56 8a 37 28 05 b9 b8 3f
       0.1631206077170094 0.0965731833635258
0000d0 2d 48 9b d4 14 59 b0 bf 84 6f 12 ce 2b 2b 9a 3f
       -0.06385927382078256 0.02555530972732313
0000e0 5f c5 fd f6 09 13 c1 3f 3a 17 4a ee 88 6f 8a 3f
       0.13339352188226436 0.012908048412338159
0000f0 fd 75 05 fe 39 ef bd bf 8f fe 0c a1 aa 4e c9 3f
       -0.11693155719463984 0.1977132116680775
000100 a5 e6 ed a4 34 af b1 3f 6c 62 1b 5b 84 ce 96 3f
       0.06907967592806104 0.022272174893119986
000110 51 ae 5d 4c 2e 23 c8 bf 97 eb 0d 56 f1 b9 b0 bf
       -0.18857363442235678 -0.06533726073204914
000120 81 67 6d a2 d2 34 8f bf b5 02 0a 5a 82 87 a2 3f
       -0.015237470228089968 0.0361901030455604
000130 d9 47 9a f0 21 dc c7 bf 09 6e 8a 91 ec 93 c3 3f
       -0.186405413133399 0.15295178514939803
000140 7d e4 8f d8 86 75 b5 bf f5 44 66 c9 d7 99 c2 bf
       -0.08382456576500093 -0.14531991323432406
000150 4c 12 06 23 27 f9 ba bf d1 66 ce 2a 25 4d c7 3f
       -0.10536427121230324 0.18204178419255482
000160 81 9b bc 5f c9 ba 56 bf 97 8c 0a 69 d4 37 c6 bf
       -0.001387306837338648 -0.17357878807988378
000170 88 22 8e b7 47 9a c1 bf 92 11 eb 6c 55 47 c6 3f
       -0.13752075636536554 0.1740519315554932
000180 21 27 36 d4 19 59 c5 3f 94 b2 43 6d c0 d2 96 bf
       0.16678164350406013 -0.022288328808758154
000190 ff 20 e9 e3 20 d9 b2 3f 10 e7 f1 e6 15 90 b3 3f
       0.07362561763978091 0.07641732109359745
0001a0 05 3f d8 df 5f 5b b8 3f 8f 3b 2c 33 f0 8c c0 bf
       0.09514426436384944 -0.12930109499617656
0001b0 7a f9 75 5b 01 85 8e bf 03 78 b1 28 0b a9 93 bf
       -0.01490212498060538 -0.019199537619321926
0001c0 ad 23 15 f1 49 58 c1 bf 85 87 5a b2 98 2b bc bf
       -0.13550686141595972 -0.11004022936188392
0001d0 d2 d0 61 2c 3f f5 c1 3f 37 bb 30 a5 15 7b a3 bf
       0.14029683749288907 -0.038048435606802426
0001e0 ce ff 3c cb c2 32 b6 bf 69 69 a3 87 68 d6 72 bf
       -0.08671205007431057 -0.004599006957699416
0001f0 a8 1f 70 72 30 e9 97 bf 32 a1 4c 0a 83 15 7a 3f
       -0.023350483879795242 0.006368171573548674

arr_4 f8 [64, 32]
000000 e0 e2 4d 6e ec d0 6c 39 a6 e1 dc 64 62 eb a6 bf
       4.439824368130656e-32 -0.044764590084415176
000010 4a 4f 3a 56 70 ad b4 bd cb 6b 7b df df 76 5c 38
       -1.8806072488542432e-11 3.3459686774949893e-37
000020 92 57 cf 54 a1 1a 3a 3d 62 15 70 eb 89 73 ef bc
       9.274012391850594e-14 -3.491798321296709e-15
000030 0c 40 3a 6f aa a7 c9 3f 70 89 b8 dd 4e 8d 47 3b
       0.200429252920458 3.896349018113767e-23
000040 fa d5 6a e0 04 df 20 b9 8a b3 89 99 d2 2a c5 3f
       -1.62463439794851e-33 0.16536934372870987
000050 c3 e9 5d e3 ac b1 c1 3a 8d c4 d2 7c bf 22 ca bf
       1.143450813598573e-25 -0.20418542475593818
000060 e1 2a 7b 21 5b 52 b9 3f 1f dd 4f 21 3a 1a aa bf
       0.09891290252123099 -0.05098134667053444
000070 39 07 fb a9 27 79 9a 3b 65 84 b8 ff 48 97 9c 37
       1.4014827931312116e-21 8.205202434750423e-41
000080 25 66 72 7c c0 e6 c9 bf c9 0a 74 e2 52 e9 79 bf
       -0.20235448910243395 -0.006326030509856203
000090 ee 1a 30 8d 51 39 ae bf cd 96 d5 67 fb 20 46 3c
       -0.05903105591283074 2.3992132223053254e-18
0000a0 8b 2c 3e 08 2e 83 95 bc ad 88 b0 25 cd 83 22 bd
       -7.463620397277925e-17 -3.288897873729043e-14
0000b0 88 97 ce 0f 08 61 00 b8 e4 9f ec 4b ab 26 c4 bf
       -6.01670511562557e-39 -0.15743008811227732
0000c0 a4 3a 9b 19 3a 49 c5 bf b2 a4 89 e1 61 83 c5 bf
       -0.16629720926581115 -0.16807197105962285
0000d0 6e 33 c8 99 1e b5 ef bd b3 06 71 e5 77 96 c7 bf
       -2.3070241280798967e-10 -0.18427942946623474
0000e0 23 6d de c4 6b 49 a4 3f ab 2c 3c b7 0a fa 93 bf
       0.03962265756782759 -0.01950852149370223
0000f0 29 83 a2 10 0b 67 36 3d ab 56 f7 f9 89 16 75 3d
       7.958971291156963e-14 1.1987164528617373e-12
000100 ee b2 88 ed 3c c7 58 3a 53 29 08 7e c7 36 35 3f
       1.2509831175757057e-27 0.00032369966905378584
000110 33 d6 e9 cd 66 39 78 3b 74 38 ff 1e ec 49 e0 3b
       3.206049473255905e-22 2.759423137677878e-20
000120 e3 01 de d0 22 a2 43 ba 5d 0e 83 74 5d ef 78 bf
       -4.956152742971805e-28 -0.006087651309090694
000130 be c9 bb 5e da 2c 94 b7 22 ea dd 8a 1e 05 68 bb
       -5.790000470880587e-41 -1.5895100858008478e-22
000140 31 ff f7 1f 2a 99 44 3a cd 91 65 2f 02 60 a4 3f
       5.199741700665425e-28 0.03979498699735338
000150 5d 20 c5 24 ef 98 a3 bb 40 dd 8b 79 08 87 b3 bf
       -2.074955333659476e-21 -0.07627919166030939
000160 1a d4 56 82 1a 64 45 39 34 59 ab 19 e5 43 93 b9
       8.239524850037927e-33 -2.374621028661958e-31
000170 72 99 88 0e 35 32 e9 3d 63 54 6b 87 c1 f6 bd 3f
       1.833259163110769e-10 0.11704644733556928
000180 53 50 35 37 ad 03 94 bf 4b 5f 51 7b 66 57 7e bf
       -0.019545275206226908 -0.007407570189648836
000190 84 8c de 0c ea fe 75 3f ed ad d4 f6 34 e7 de bd
       0.00537005830657045 -1.1242501175472042e-10
0001a0 0c f2 4d 1b 87 b6 83 3a f7 0c c4 67 84 bb f1 b8
       7.962016914557742e-27 -2.1344707335460698e-34
0001b0 b3 bd e2 a7 f5 84 d0 3d 8a 66 d5 61 01 b7 4c bf
       6.00971303723354e-11 -0.0008763081311073545
0001c0 41 f4 69 7e 86 53 ef bb 4c 95 66 4c c7 61 ae bf
       -5.3068767239857107e-20 -0.059339740825900295
0001d0 56 91 63 3e 8d 46 ee 3b 6a f2 69 42 2a 0e 9e bf
       5.128884904253446e-20 -0.029350910476284055
0001e0 6b ac 8f 2d 46 0c b7 3f d8 42 ee 71 ce 0b d2 3a
       0.09003103840193354 2.3324061946345794e-25
0001f0 5d fe 8d 69 6d 15 87 bc 82 30 f1 85 92 b2 e1 ba
       -4.004383760267817e-17 -4.574709004999851e-25
000200 33 83 9b cb c3 df b0 bd 0a a1 b6 a6 fc de c9 bf
       -1.534688758494499e-11 -0.2021175207166908
000210 73 ba 14 a9 d5 e1 cd bf 52 18 77 92 73 0d 83 bd
       -0.23345442539126146 -2.1660235621253935e-12
000220 c9 fe 78 18 8c 40 a5 3f ac 82 e2 f8 ff 64 a3 3f
       0.04150808142412427 0.0378799430193387
000230 cc 00 4b 49 4a c3 af bf 4f fe 49 d3 32 0c 70 bf
       -0.0620368208378764 -0.003917883430971949
000240 e6 f8 fe 5f 36 d6 9e 3d 2b 55 84 76 87 df a3 3f
       7.011469096236393e-12 0.038814767091177
000250 6b f3 b7 1d b1 ea c2 bf 16 8d a2 30 04 b6 c2 bf
       -0.14778722716428247 -0.14617969870332875
000260 6e 13 f9 12 23 3f c8 bf e5 4d 6a 9b 6b a3 d0 bf
       -0.18942678858197887 -0.25997438599844563
000270 60 2b e2 b8 04 17 76 bf df 2a 2c dd 94 da c8 3f
       -0.0053930458508471835 0.19417057799758816
000280 e7 1b 0d 31 28 87 a2 3f 7e 8f 9e 27 c7 2f c0 3f
       0.03618741606492631 0.1264580672697057
000290 d9 e8 e9 46 d4 09 95 bf 34 8d f4 a0 11 4b a1 3f
       -0.02054530794928486 0.033775854966985014
0002a0 db 1e 06 a6 4a 30 85 bd 3c b0 cb 6e 60 bb 79 bf
       -2.408869368785725e-12 -0.006282211962325642
0002b0 39 01 f2 dd 8c 38 97 bf 2d 36 e8 37 44 11 a3 bf
       -0.022676659628360716 -0.037241107773393935
0002c0 ac 5e 7c 76 e9 aa 9a bf d8 a3 c4 32 0e 0a c3 3f
       -0.026042602402496826 0.14874436835205418
0002d0 80 0f 42 51 0d cc 70 bf a0 09 8a 12 3f bf bc bf
       -0.004100849171780996 -0.1122931881200544
0002e0 f3 ac a2 39 93 b1 c0 bf 3e e9 25 49 d3 33 c2 3f
       -0.1304191619322875 0.14220658370670408
0002f0 9f 58 cd 22 65 a4 bd bf 4c b1 cd 12 9d 0d 94 bf
       -0.11578971957837546 -0.01958318164126753
000300 fd d3 4c f9 3d 95 68 bd fa 5d ab b6 da d3 3a 3d
       -6.98690226260433e-13 9.53106253616926e-14
000310 d5 14 19 e0 cf 05 2e 38 0c 84 17 63 d6 dc 21 3c
       4.4114397475658185e-38 4.841679977729077e-19
000320 f7 33 75 31 da 32 21 3c 78 3a 3d 0a 82 34 e9 3d
       4.661701218168714e-19 1.833913065848204e-10
000330 ab 9d 8d 23 79 b6 0b 3d 7e 0f 07 d3 65 5e 50 38
       1.2306949207557438e-14 1.9241362829385037e-37
000340 85 43 a1 39 16 3e 18 3a 1b bc 98 82 20 71 ad 3d
       7.649592600360577e-29 1.3388627082993098e-11
000350 f6 fd 23 f3 0a 87 f5 ba 3b 98 91 35 cb 6e bb bd
       -1.11294622470414e-24 -2.4949975547428727e-11
000360 9d 32 9f 83 cc 39 5e b7 bd 88 c6 1b 21 89 d0 bd
       -5.421482846274549e-42 -6.01563859002974e-11
000370 13 1d df 2c 53 36 a8 bc 6a 9e 49 4f 3c 39 7a bd
       -1.6800593315188957e-16 -1.4906377432027626e-12
000380 b4 f4 3d b7 f6 d0 09 39 4b a9 47 7b 4d 12 7a bc
       6.2150396268631e-34 -2.261341701983831e-17
000390 d9 a7 8f 39 44 2b 25 bd 3d 4e 7e 58 6e ae 6c bd
       -3.760371530349083e-14 -8.151735994889985e-13
0003a0 f6 1f f4 f0 00 bb 1c 39 44 af ab e9 5e e4 ba 3b
       1.3833224435506233e-33 5.694618016534375e-21
0003b0 2f 8e 6f 0d ab 85 f2 b7 45 0d 35 75 84 e0 80 3d
       -3.401980073079102e-39 1.9186951642782084e-12
0003c0 ab f8 5d e1 f1 f2 b6 bb 7f 2a 3c ca 21 a6 f4 38
       -4.859640475667425e-21 2.485527317771243e-34
0003d0 d4 5a 25 10 c7 46 5c b8 42 18 75 eb 05 cf 1e 3a
       -3.3238836578287795e-37 9.721506564270391e-29
0003e0 f0 8f 8f 65 f1 57 0a 38 f5 14 5a 3c c9 94 68 bd
       9.677083553443264e-39 -6.986395991888818e-13
0003f0 a6 0f 79 d7 96 07 7f bd 7f ea ee 3c 27 94 82 3c
       -1.7638311312307873e-12 3.2228948198888084e-17
000400 33 4d cf 3d 34 c7 9e 3c 8a d3 f1 61 87 be c6 bf
       1.067831271017059e-16 -0.17768947870686375
000410 dc 25 7d 5a 56 92 b7 bf 32 a9 a7 03 2f 91 af bf
       -0.09207668027115495 -0.061654538341672796
000420 81 62 86 39 73 37 7d bf 84 0d 07 c2 4c f1 cb bf
       -0.007132959457884725 -0.21830138658524956
000430 55 ed 4f 02 1d 48 cd bf a8 ab ad f4 c8 9e b0 3d
       -0.22876322377110606 1.5116032811221564e-11
000440 26 31 47 ab f0 08 41 3d 40 eb af 70 78 57 9d bf
       1.2104040307537597e-13 -0.028653985860709996
000450 b3 82 b8 8d d7 38 b4 bf dc 34 c6 57 e7 8d cc 3f
       -0.07899234018305883 0.22308055673457872
000460 b2 86 ea 2d fa 2f c5 bf 6c 4f 01 30 d1 2f b7 bf
       -0.1655266498756212 -0.09057338163375811
000470 bd 9a 5e 6d ca 1d 85 3f 3a cf 59 8a b5 be b0 3f
       0.010310727560704941 0.06540999057488942
000480 6f d6 c2 96 87 04 ae bf c5 8d 5c 6a db 2e 78 bf
       -0.05862830844254751 -0.0059040614048941386
000490 dc 53 cc ce 3a 75 a3 bf e0 10 86 b1 d2 a2 94 3f
       -0.038003766769328456 0.020152370534121
0004a0 dd f9 e2 de 40 d3 b0 3d 78 b0 78 88 27 6f 94 bf
       1.5302438075721616e-11 -0.019955270485454396
0004b0 75 5e 32 53 b6 26 97 bf 74 a0 13 0f ce 2c c8 bf
       -0.022608612850119465 -0.18886733757176766
0004c0 1d 62 0e 9b 37 b9 c2 bf 5f 97 2d b0 de b7 a0 bf
       -0.14627738066771281 -0.03265281582461798
0004d0 e8 65 a9 4c 0f 7c b0 3f 8e 2e ad ac 76 c5 a8 bf
       0.0643930017626172 -0.04838152749888734
0004e0 3b 93 c7 f4 c4 dd c8 3f 53 29 60 38 21 0f a8 bf
       0.19426786377075608 -0.04699043095759472
0004f0 13 da 67 7f cd d7 b4 3f ee ae 68 28 db 00 a4 bf
       0.08141788826456091 -0.03906903141282024
000500 3b 6c fa 19 e3 e7 c8 bf bd f9 92 cb b4 ad c4 3f
       -0.19457663315265158 0.16155109348433241
000510 65 ad 30 62 6d c8 ba 3f ae d4 35 28 f2 9c a2 3f
       0.10462077758045536 0.0363536523899851
000520 d2 b5 c0 be dc d5 c9 bf 88 6b 41 84 72 2d 98 3f
       -0.20183905901050864 0.02361086780761526
000530 d4 05 6e a6 41 fc cb 3f 8c 72 29 3f 0a 7e af 3f
       0.21863575579122474 0.06150848408717477
000540 9a 36 64 fd 55 44 ef 38 79 f5 66 39 f5 82 a1 bf
       1.8818103259653288e-34 -0.034202254540541106
000550 86 dc db 46 6c 2f c2 bf 80 2e 06 c4 76 63 c1 3f
       -0.1420722337713622 0.13584789821139864
000560 05 d3 20 8f 3a 61 c0 3f b5 55 6d 40 b3 a7 83 bf
       0.12796718586619008 -0.009597206500681613
000570 7a 3d 88 1d db 09 94 bf cc f5 d7 37 a2 c0 b4 bf
       -0.019568847348691666 -0.08106435645455362
000580 86 8d 72 a7 e9 58 bd bf 51 f0 d8 97 43 5a ad 3f
       -0.11463795030663534 0.05732928494077839
000590 ad 20 61 08 e1 92 c1 3f f3 d3 fd 31 bb 2e 86 bf
       0.13729489239836337 -0.010831320250625586
0005a0 79 4c f8 8c 56 96 91 3f 32 5a b5 ea ec 2b 9e bf
       0.01717505679523554 -0.02946443731829102
0005b0 28 5c 4b 54 b1 4e 97 bf 49 e9 e6 61 b3 fb c7 3f
       -0.022761126298828455 0.1873687961613746
0005c0 cd c5 b8 64 14 20 c3 bf 6e c2 d9 dd 3e 0e bd 3f
       -0.14941649358801926 0.11349862018847443
0005d0 b8 d9 f9 02 f3 96 9e 3f a1 f8 a4 95 c4 81 ca 3f
       0.029872700745238595 0.20708520228248964
0005e0 19 fa c1 ee 25 a3 c0 bf ef 52 64 7e c6 d6 ae 3f
       -0.12997888715831676 0.06023235600347287
0005f0 17 20 1a c0 02 d5 b5 3f d8 d5 63 6f e0 d0 7a bf
       0.0852815360068465 -0.006546856593776927
000600 3a 63 64 e4 02 a8 d1 bf de d4 65 ee 0e 60 c0 3f
       -0.2758795957939132 0.12793146744267053
000610 42 28 0d 58 35 b2 c3 bf 6f 60 8b 93 1c 74 94 bf
       -0.15387598800072239 -0.019974180703542673
000620 8c 84 29 35 70 09 65 bf be b9 07 21 16 7c c7 bf
       -0.0025679770999863013 -0.1834743176727453
000630 a7 63 39 e1 06 99 94 bf 7d b9 d8 2c 86 d6 c1 3f
       -0.020115001198380302 0.13935925664686613
000640 59 4e f0 73 8d 47 83 bd d4 30 26 79 3a ec c2 3f
       -2.1918256322513313e-12 0.14783411899077825
000650 48 08 80 03 14 cc c3 3f 8f 1d 67 93 34 1b a0 bf
       0.15466547175316436 -0.0314575605330517
000660 94 18 19 f5 97 d4 cb bf f7 d0 24 8e 25 5c ce 3f
       -0.21742534129788693 0.23718709412208458
000670 c2 48 d0 09 53 e4 b6 3f 6a 3a 06 63 80 b7 c6 bf
       0.08942145337667554 -0.17747502169773394
000680 6e bc 18 f2 9e ca b6 3f f7 43 71 c6 6a 7e b8 bf
       0.08902924929201259 -0.095678971717703
000690 e4 60 9d 4b 1e 89 b1 3f 3e 30 b7 41 bf 5d 76 3f
       0.06849850984633893 0.005460497948160335
0006a0 3d a3 a2 77 34 cf bc bf 96 32 eb 3c 15 b1 98 bf
       -0.1125366966322305 -0.024113017886338094
0006b0 41 67 03 88 4b 38 97 bf dd 97 5e d2 89 91 c1 bf
       -0.02267568605098025 -0.13725397846172785
0006c0 1f 72 66 76 d6 88 c1 bf 87 8e 8f 29 a0 f1 c6 3f
       -0.13698845654734357 0.1792488291676941
0006d0 2b b8 36 c7 58 31 70 3f 6d 12 61 99 17 d2 bc bf
       0.0039533107659917395 -0.11258075232132976
0006e0 99 65 cf 3e 86 63 c1 bf 3f 00 54 8c 5d 6d c0 bf
       -0.13584974352742732 -0.1283375678249303
0006f0 cb 34 38 84 8c 79 b1 bf 2a 98 a8 16 78 f0 91 bf
       -0.06826093891159528 -0.017518879301995728
000700 68 af 77 7a 15 9a b6 bf 92 e1 01 3e f3 3b ce 3f
       -0.08828863372735685 0.23620453384115742
000710 22 5e dc d0 07 e9 91 3f d5 b2 81 34 c2 ec c5 3f
       0.017490503428318267 0.1712877994899801
000720 a4 9c e7 0f f8 e5 b3 3f 47 33 39 45 41 78 cf bf
       0.07772779835032623 -0.24585739021349637
000730 9d d3 5a d5 58 6e ab bf c3 d9 55 72 eb 47 b8 39
       -0.05357625584057433 1.1971425907884377e-30
000740 25 7f d3 ba a2 54 85 3d de d3 08 e0 23 83 b4 3f
       2.4250093769677456e-12 0.08012603969184748
000750 5f db a2 6c 98 c8 a6 3f cf 18 08 e5 29 bd b1 3f
       0.04449917150616644 0.06929265824882978
000760 1b b6 fa 34 b2 5c bb 3f 73 8b b0 07 7f a5 af 3f
       0.10688318055573413 0.061809510887789985
000770 b0 19 8d 44 a6 b7 c1 bf db 1f 20 44 64 a5 c2 bf
       -0.138417037460568 -0.14567235304298162
000780 8b 10 98 54 61 ff c3 3f 7b 37 5d 14 c4 60 b7 3f
       0.1562310851151135 0.09132028100176896
000790 71 b7 9c 6d 43 03 c5 3f e0 37 73 0b 98 49 98 bf
       0.164162090798921 -0.02371823854337396
0007a0 7b 10 8f 3b cb cb 7d b7 9c ec 13 67 32 39 99 be
       -2.13776316935825e-41 -3.758583267535346e-07
0007b0 72 b2 40 88 d8 fa 96 3f 06 93 b5 9f 8d 9e 98 bf
       0.022441275898176412 -0.024042332528000386
0007c0 d3 c1 f0 2e 14 e7 bf bf ba 27 1c b3 35 7e a4 3f
       -0.12461973329550995 0.04002540408517015
0007d0 f3 85 5c 4a b6 2a b7 bf 08 8a 1f 68 16 42 c9 bf
       -0.09049548449959115 -0.19732933124676344
0007e0 32 76 2c f8 b2 76 cb bf 0f 2a 58 2d 23 3c c5 3f
       -0.21455990903716465 0.16589774812776212
0007f0 e1 95 3f 34 a1 4e c2 bf b6 44 45 99 aa 83 69 3f
       -0.1430245881194159 0.00311454124509022
