global_model/hospital2_weights.npz (npz, 40906 bytes, 6 tensors)

arr_0 f8 [43, 64]
000000 93 34 0a 55 33 2b a2 3f 51 57 ab 6d 04 d1 c5 3f
       0.03548584378322874 0.17044120173403113
000010 b7 dc 57 4e 7b dd c0 3f fd bc e8 4e 10 31 b0 bf
       0.1317590839896405 -0.0632486527108433
000020 6f 95 d9 b4 70 8c ca bf 92 92 42 93 42 e2 c7 bf
       -0.2074108965927439 -0.18659240904266433
000030 48 31 e7 7a 56 d3 c1 bf 2c 97 49 88 81 a9 c6 3f
       -0.13926201821449014 0.1770479121652725
000040 18 26 7c 86 ec 16 c0 3f 67 7d 83 7e f9 b6 ce bf
       0.12569958273552184 -0.239958941244349
000050 b0 28 f5 4c 1d 4d c2 3f 63 7e 54 4c 86 65 9e 3f
       0.14297834642122131 0.029684160622421973
000060 bf e2 53 c3 00 f9 ca bf 7c b2 ad 6b 31 60 b6 bf
       -0.21072396790966327 -0.08740528944844955
000070 58 5d 51 f5 74 65 be bf 62 50 20 c6 e8 50 b8 bf
       -0.11873560895161483 -0.09498457753244474
000080 ce 3f 5a fb 7b 11 bb bf 8c d3 62 00 a5 ee d0 bf
       -0.10573553930794263 -0.26456570661257994
000090 93 f3 9e 36 1f 74 ab 2c cf 50 6b 26 56 fb 6b 28
       1.6451696122230321e-93 5.681291080733397e-114
0000a0 f0 20 b9 0b 44 95 40 30 f8 e2 4b e1 c0 17 c9 3f
       2.864283675273174e-76 0.1960373973922953
0000b0 ef b1 69 19 df 5f b0 bf cf 9f df cc 72 ee 88 3f
       -0.0639628827136176 0.012173554303401972
0000c0 72 1d 3d d3 0d 84 a0 bf a7 b8 fd 0c 39 84 e4 29
       -0.03225749209974084 6.988673120356924e-107
0000d0 36 c3 db 59 14 41 c0 bf 07 ae a9 fd f4 1a 78 bf
       -0.12698606860751632 -0.00588508319433912
0000e0 6a e6 c1 c5 e4 32 cb 3f 64 59 14 e6 0e 4d be 3f
       0.21249065071224332 0.11836331479239487
0000f0 16 24 3a da 48 6f a9 bf 49 73 e7 70 82 25 b9 bf
       -0.04967715896516027 -0.09822860008666824
000100 28 d9 f3 3b d5 57 c2 3f 79 5c 98 66 5a bb a9 bf
       0.14330544879312268 -0.05025751593000733
000110 15 fb 56 c3 3a f1 b2 3f 4c 1a 52 92 c7 15 cf 3f
       0.07399337071454355 0.24285215992513753
000120 4b 0c d9 74 d0 e5 bd bf 85 36 d0 9a 2c d4 b5 3f
       -0.11678793766718447 0.08526877193090783
000130 1f 5c 2e 07 d6 3d b9 3f 7a a2 6c 07 5e 94 c5 bf
       0.09859979319877298 -0.1685903106929521
000140 21 ed cc ef 22 56 ca 3f d2 97 46 5e 52 b3 96 3f
       0.20575367650040113 0.022168433193335897
000150 25 5f 01 bb 19 b6 a2 3f 64 fa 87 b3 83 1d 45 bf
       0.03654556663303613 -0.0006443875382158956
000160 dc f3 7d 1e 04 f7 bb bf d9 84 1c b9 35 7d ae 3f
       -0.10923791641648911 0.059549025389296247
000170 2c 26 20 43 c9 b4 c0 bf cf 2c b8 24 c8 e8 c9 3f
       -0.13051715638748485 0.20241643708172893
000180 24 4a 97 4f 88 10 ca bf 3d 0c 53 18 ff 7e c4 3f
       -0.2036295307758148 0.16012562453951942
000190 d9 47 97 c5 25 55 bd bf c1 60 16 a4 dd ac c3 3f
       -0.11458049844739494 0.15371294509964709
0001a0 c3 ae 3c 49 40 35 a6 bf d2 f0 38 c5 41 42 94 bf
       -0.043375023784702836 -0.019784000074864867
0001b0 e5 54 3c 5d 6e 82 b2 bf 4f ae ad eb cf 44 ba 3f
       -0.07230272079717144 0.10261249069088162
0001c0 03 31 37 65 fe 8e 09 29 78 b0 e0 a3 e4 17 bd bf
       5.313836010736802e-111 -0.11364583016319496
0001d0 1a c6 e4 9c 20 17 a9 3f 20 21 3d ea 4c 1c 0b be
       0.049004573013359656 -7.890208109074861e-10
0001e0 fe 09 47 5b 53 95 c0 bf a0 73 dc 36 d7 a3 63 bf
       -0.1295570560160541 -0.0023974612621615182
0001f0 18 d8 a9 f8 5b 6c a5 bf da 98 ae bf 2a 0c b6 3f
       -0.041842340568948255 0.08612315349327862
000200 55 44 65 55 6f db ab bf 5c 4a 6e dc f0 6b c5 3f
       -0.054408530401482004 0.16735659373496758
000210 9e a0 f9 e6 cb d6 96 3f 9a af 4d 78 0d 60 af bf
       0.022303758595086813 -0.061279698310357136
000220 44 9a 0f 69 d3 8f ce bf 94 df e5 d4 bd c7 61 bf
       -0.23876421575478635 -0.0021704394959520344
000230 0c ab 4f ac f1 fc ac bf 37 57 aa ac 31 59 ce 3f
       -0.05661730984123467 0.2370969861119023
000240 81 d7 69 cb a6 23 b6 bf 20 07 e9 cf db 8e b7 bf
       -0.08648149934910344 -0.09202359987196163
000250 03 55 7b 13 7a de cd bf 15 79 70 a2 f7 d2 c5 bf
       -0.2333519549489794 -0.17050071174248474
000260 c0 5a 46 8c 55 85 bb bf 82 3d 21 53 94 5d ae bf
       -0.10750326800039556 -0.05930770411270726
000270 a1 97 0c 1f d8 0b aa 3f 94 c0 39 cf c5 25 bb bf
       0.050871614256080784 -0.10604511555880186
000280 7e 5d 66 35 12 0c b3 bf e1 83 ca c5 a9 73 46 bf
       -0.07440294078548068 -0.000685174843585764
000290 92 68 30 0e 9c ba 3a 2c ba ca d8 6a 67 b4 bd 2d
       1.2513626378498046e-95 2.3331706160472052e-88
0002a0 9d 80 65 00 76 38 6a 2b 1c de b9 27 fb 6f b5 3f
       1.4984879341703884e-99 0.08373994560121684
0002b0 5b 48 3f 0e 96 1d c6 3f a3 5c fa 4b 4f 9f a7 3f
       0.1727778977934261 0.04613731195893791
0002c0 b6 bf b1 f7 96 5b c1 3f 76 70 a2 27 fa 5d ab 2e
       0.1356075963444689 7.043685730282361e-84
0002d0 1e d2 f3 e5 25 46 c4 bf 39 a2 b0 eb 88 e7 33 3f
       -0.15839074829240557 0.000303717544456936
0002e0 ec aa bf 73 23 d3 ce 3f b2 5a 0c 3a b0 96 aa bf
       0.24081843520919877 -0.051930911146134476
0002f0 8f fd 1e bf 0a c8 b0 3f 42 54 15 11 e5 e5 9c bf
       0.06555239835778635 -0.028220729034121435
000300 ba d5 64 a3 05 1f cc bf 62 ae 04 06 93 7f c6 3f
       -0.21969671705453014 0.1757682589899217
000310 38 36 6d 5d 34 0b ca 3f 02 6c 9d 77 7b da ca 3f
       0.20346693574758645 0.2097925504739067
000320 61 73 a5 88 9d 8c ab 3f 0d 20 09 89 e0 11 c7 bf
       0.053807185106711904 -0.18023306552117938
000330 99 5e d9 03 be 21 b3 3f e9 37 14 a2 cf c5 ae bf
       0.07473361581775818 -0.0601029286718669
000340 5b 49 1d 00 74 1b c2 3f 3f 68 a3 d9 0a e8 c3 bf
       0.1414628029402348 -0.15551887156363084
000350 24 c3 39 e2 fd 35 d1 bf 81 31 2c 56 25 32 60 bf
       -0.26892039387080247 -0.001977036402769084
000360 54 33 1c d6 18 9b c5 3f ee a6 9d 43 8d 4b b7 bf
       0.16879568533513611 -0.09099657917763768
000370 dc 66 0d f5 54 4a cb bf 65 d7 cc 6e 12 f9 b2 3f
       -0.21320592847296538 0.07411303715784141
000380 6b bf a7 c5 0a 9e c3 3f d0 e2 4d 53 e1 cb 90 3f
       0.15326056147705044 0.01640274115513557
000390 34 ff 6d 8d 08 27 c7 bf 10 f7 60 10 c8 d1 c9 bf
       -0.1808787050795161 -0.20171452331299422
0003a0 6f be 8b 8c 56 7a b2 3f 33 bc 91 4b b0 e3 cd bf
       0.07217923098846211 -0.23351100625902318
0003b0 14 09 3d d2 cc 33 8d 3f fe d1 a3 ad 17 6c 94 3f
       0.014258957067458534 0.019943590138568716
0003c0 bf 04 0c bf c6 a3 30 af 35 93 01 2a 2d 42 b1 3f
       -2.1927444093494578e-81 0.0674160220674594
0003d0 d7 74 67 3a 18 3f b1 3f a4 2d 13 69 d4 14 18 b0
       0.0673689978206825 -5.199268422577517e-77
0003e0 19 40 58 d7 5c 19 b3 bf eb 0d e3 15 ee d3 85 ae
       -0.07460575349273348 -1.404501542550009e-84
0003f0 4a de c1 e1 b8 09 a3 3f b8 fe f3 cb 0a 46 c8 bf
       0.0371835494597091 -0.18963751753471114
000400 8b 05 3b 21 f5 77 bd 3f ce 88 59 87 7f 0a ac 3f
       0.11511165677349859 0.05476759459703971
000410 b4 6b 0d f0 86 6a c4 3f 93 b5 59 fd 0a 13 ca bf
       0.1595009491091709 -0.20370614405275642
000420 34 89 86 e8 33 ce b9 3f 71 37 b2 41 fc 60 b3 3f
       0.1008026545228276 0.07569862941656226
000430 3c 01 1b 8d 95 64 c6 3f 8b 5e d1 e7 48 2d bf 3f
       0.17494458570400606 0.12178474101653529
000440 7a f6 f6 41 e8 af b8 bf 3a 15 cd 1e ae c1 b4 bf
       -0.09643413172212859 -0.08108032466869455
000450 77 40 94 27 3e 62 bc 3f 34 95 83 59 5d 23 bd bf
       0.11087406603133042 -0.11382087169075278
000460 8a 6c 07 19 51 4b bd 3f 87 5d 59 73 24 78 c2 bf
       0.11443049298343247 -0.14429145462302648
000470 38 04 18 28 68 f9 bc 3f 0a 7f 1d 37 e1 2e a4 3f
       0.11318064669468775 0.03942016408723077
000480 6e 46 24 9d 54 33 c8 3f 62 29 60 ff 15 e9 87 bf
       0.18906648323950342 -0.011675044876046928
000490 53 dc c6 2d 7e 37 c3 2c 3f 27 81 09 6d 1f 23 2f
       4.606294704291156e-93 1.2599743440243477e-81
0004a0 7e 4a 4d 67 ff 2d 19 a8 1d a5 bd f5 fa 98 d2 3f
       -1.5976139814417084e-115 0.29058717725873057
0004b0 20 fa 50 8d 20 32 ca 3f 6f fa bf 7d b4 44 cd 3f
       0.20465475940905353 0.22865921154148647
0004c0 d6 6f 10 91 7c 3e d3 3f 29 ff 46 7b a7 71 ef ad
       0.30068887869287886 -1.975825247646735e-87
0004d0 c6 f8 a5 68 08 22 b1 bf 5d 91 97 f4 53 48 88 bf
       -0.06692555003062059 -0.011856704618317943
0004e0 89 88 6f 89 7b 2d ca 3f bf d3 01 9c 32 02 ad 3f
       0.20451301775671407 0.056657392066802974
0004f0 3a 2f f2 f1 de c1 b9 3f 7f b3 ed f6 10 10 cd 3f
       0.10061448485265326 0.22705280358368538
000500 40 49 79 a7 98 0a cd bf 3f 48 e3 1c 5c 2a 97 bf
       -0.2268858735793149 -0.02262252737347858
000510 a4 18 39 0b 36 d4 c4 3f 8e 85 b3 58 c9 d9 c4 bf
       0.16272616909026738 -0.16289631682506606
000520 86 98 52 b6 ac ae a7 bf d1 1f 19 c5 d5 85 bf 3f
       -0.046254536873036975 0.12313591062513686
000530 12 6b 43 64 da b7 be 3f cd 4b c9 6d b8 b8 d3 bf
       0.11999287555537944 -0.30814944001502625
000540 73 78 f8 53 71 5b c5 3f ca c1 5e e3 08 e7 c1 bf
       0.1668531093609463 -0.13986312009866558
000550 d0 43 c5 93 19 77 8d 3f d9 7b e0 6f bd 20 84 bf
       0.01438732130250911 -0.00982807157202885
000560 29 db 0e 68 ae 36 bd 3f 81 e4 f7 05 d1 ce 58 3f
       0.1141156200454644 0.0015141526454256762
000570 07 b5 68 32 34 16 c3 bf 4a d3 0c b9 b0 a1 cb 3f
       -0.14911510907533218 0.21587189708375326
000580 3c 93 b5 36 c0 31 c3 bf 75 39 bf c1 7c c2 b4 bf
       -0.1499557749877115 -0.08109264116430899
000590 61 d4 91 96 58 1c 90 3f d7 a9 d0 61 7b 4e c4 bf
       0.01573313158992951 -0.1586450793850662
0005a0 8d d1 d9 c3 41 d3 93 bf 92 65 ce 50 24 b9 b8 3f
       -0.01936056859854456 0.09657504055794267
0005b0 33 78 d6 3b 08 11 96 bf d0 42 ad d5 4f 54 c0 bf
       -0.021549347545821895 -0.1275729935973886
0005c0 63 c5 e3 e1 a2 6b 01 3f ca 57 3a 1f 9d af c8 bf
       3.322687938290649e-05 -0.19285930657195954
0005d0 69 ed e9 28 66 85 cc bf 0d 20 31 d0 40 ca 45 bf
       -0.2228210162901221 -0.000664979598135497
0005e0 20 c1 21 03 f2 1c bb bf 57 8e 91 18 1b b4 9d bf
       -0.10591042114697702 -0.029007361769244202
0005f0 cb b1 e6 c4 87 24 9b bf 01 39 d9 06 e3 57 a8 bf
       -0.026506539719479066 -0.04754552324867412
000600 c4 7e 2e 91 31 2a cc bf 15 b4 f0 6b b5 c3 bc bf
       -0.22003764714189888 -0.11236127743968922
000610 91 19 ec 4f f4 04 cd bf de dd 60 eb ee cb bc 3f
       -0.22671369459585525 0.11248677488844502
000620 40 38 b5 e4 21 8e b3 3f b2 42 a7 90 77 19 67 bf
       0.07638751825035772 -0.002819760823719563
000630 c5 08 67 52 06 46 c2 3f ae b3 d1 2b 05 49 c6 3f
       0.14276198409613108 0.1741033996544536
000640 cf 59 25 b5 9f 07 c0 bf d8 48 9a d5 70 66 ca bf
       -0.1252326616765473 -0.20625124387567584
000650 86 67 0d cb 31 23 c3 bf bc 1d 71 0b 02 72 a7 bf
       -0.14951155104318675 -0.045791686913215085
000660 51 59 45 d0 ce 1c c7 3f f8 bb aa b9 cd 44 c7 bf
       0.18056664628484012 -0.18178721967475986
000670 ba 29 fa ae 02 e5 be 3f fa 6a 9e 40 91 21 9e 3f
       0.12068192264465596 0.029424924439449086
000680 a4 d6 60 26 0c 39 c6 bf e8 03 a0 2d ae dd d3 3f
       -0.17361595033587662 0.31040529685566165
000690 44 2b 6d 24 74 23 8b 2c b6 e9 56 c9 73 db d1 ae
       4.0657162028537657e-94 -3.676845927368019e-83
0006a0 52 f3 85 25 dc 1e 4f 2b 65 c0 00 7a 3e 93 c6 bf
       4.446299056724613e-100 -0.17636853177237125
0006b0 9e 62 b4 61 ae 05 cf 3f 21 59 b2 ec ae 6f c5 3f
       0.24236087580427051 0.16747080380873405
0006c0 03 37 c1 cd 4c 71 c2 3f b0 7d 01 46 11 82 17 a9
       0.1440826420461506 -9.77504334285158e-111
0006d0 8f 1c 11 b2 cd 0d 93 3f 7d 3e 22 25 2e 0f 70 3f
       0.018607343667352224 0.003920727018467238
0006e0 1f a6 29 11 cf 75 97 bf e9 18 85 2e ee 1f d1 3f
       -0.022910342619445353 0.2675738767906198
0006f0 a5 ca a2 50 f8 bf af 3f da 8e 09 af f5 99 ca 3f
       0.062011489718675684 0.20782347723717615
000700 9d e0 a9 36 7a af c0 bf 2b 50 d8 27 7e aa b8 3f
       -0.1303551451599149 0.09635151360299747
000710 13 bf 1b ac e2 a7 ca 3f 51 42 93 38 5a 6d b2 3f
       0.20824845699052527 0.07198108559828965
000720 26 c7 75 bb 10 07 c7 bf 1b 26 1e 76 48 82 c4 3f
       -0.17990311768840533 0.16022592322797
000730 bd e7 f6 13 35 28 c5 3f ea bf 33 fd f7 50 cc bf
       0.16528953051402864 -0.22122096885095682
000740 ee fa 6a 5e 2c c5 c4 3f 04 9c 7a 8b 66 96 bc 3f
       0.16226725206612208 0.11166993050811419
000750 c2 89 e9 f7 34 c0 d1 3f 66 8b 5c 36 50 69 45 3f
       0.27735637865239593 0.0006534234678138128
000760 b0 5a 24 04 f2 38 c5 bf 62 74 1f 46 bc b9 a8 3f
       -0.16580033495184443 0.04829204898826657
000770 73 33 a0 41 37 02 bd bf 71 a0 d5 91 01 58 d5 bf
       -0.11331506111328142 -0.3334964679875219
000780 78 32 f3 18 4b 84 af bf 90 4b 2b f9 fb 30 d1 3f
       -0.06155619315686506 0.26861476262018247
000790 fa a8 3f d5 7e dc cb bf 62 54 6d 70 bd 85 ab bf
       -0.21766648685963458 -0.053754730199820924
0007a0 b7 4d b9 f7 aa ee 81 bf e7 4c f7 5a b2 0d c6 bf
       -0.008756004033023552 -0.1722929901285177
0007b0 1c 22 c6 33 a5 8d cf 3f c7 a7 fb ba eb b6 65 bf
       0.2465101721575288 -0.0026507000073836304
0007c0 5d e1 b8 4a af e0 08 3f 34 0c ed f3 7e 49 d1 bf
       4.7450398906470215e-05 -0.2701108343209768
0007d0 bf 4b 84 33 63 b4 b3 3f 8a c4 a3 15 ca ab f1 bd
       0.076971244885768 -2.5714765528709266e-10
0007e0 b9 df e5 1b ef 51 95 bf 1c 47 ae fb c3 9c dd 3e
       -0.020820365979915077 7.060138098051603e-06
0007f0 1d bf c7 03 ea 19 ba bf 5d 59 b9 1a 83 01 c1 3f
       -0.10195791809360029 0.13285864643939763

arr_1 f8 [64]
000000 d2 e9 03 71 36 cb 9c bf be 76 27 6d ee 72 c8 3f
       -0.02811894478598182 0.1910074265460277
000010 da 4f 42 61 3c 68 6b bf af 37 5e 9c d8 47 a9 bf
       -0.0033456019683146656 -0.04937626751698986
000020 07 81 ce 35 3f 61 b4 3f 5c c3 4d 00 05 65 ad 3f
       0.07960887015952177 0.05741134289463076
000030 1a ad 5b aa b0 7b c6 bf 87 88 26 bf 26 64 cb bf
       -0.17564972227351278 -0.2139938767769005
000040 40 01 74 67 2c 09 c2 3f c7 e8 50 4c 0b a9 92 bf
       0.14090495158598948 -0.01822297719284263
000050 ec 20 1a 36 ae b0 a9 bf 7f cd 70 31 33 64 a7 3f
       -0.05017609033990475 0.04568634012721428
000060 e4 3e f5 29 5e 58 c4 bf 52 74 bc 13 74 6d ca bf
       -0.15894677208642982 -0.20646525348357386
000070 df bd 75 4f a1 f5 ba 3f 8f 60 bc 6b aa 13 b4 3f
       0.10531051816882762 0.07842507486600624
000080 27 6a 93 77 80 28 c2 bf 62 05 97 d2 9f 38 c0 3f
       -0.1418610175959014 0.12672803671561456
000090 6f c2 ca d3 8e 70 7e bf ca 7e 9d 16 49 05 c7 bf
       -0.007431562346639538 -0.17984880069979275
0000a0 c5 b5 55 da 76 b5 cc bf 25 16 f7 ee e6 a1 74 bf
       -0.22428785000685827 -0.005037214359111118
0000b0 e3 d7 50 12 95 43 85 bf ca 29 c5 8c 2f 9d ad 3f
       -0.010382809277967147 0.05783985703836299
0000c0 10 c0 3d c2 a2 ac c5 bf 4e 93 1c 3b f7 97 bb bf
       -0.16933092579302 -0.10778756325869418
0000d0 62 37 3c 4c a0 02 b7 bf d2 7a 9c 5b 0c d0 b2 3f
       -0.08988382207118442 0.0734870647106434
0000e0 6b 8d ac ae 05 74 b8 3f 3d 1b 88 bb 43 e4 a6 3f
       0.09552035822394138 0.04471027054028418
0000f0 ed 62 26 90 71 6a c3 bf 1f 9d c2 28 55 11 cf bf
       -0.15168590105601912 -0.24271645059818867
000100 75 31 c7 3f 79 8b bf 3f 91 c3 37 f0 6d fe b1 bf
       0.12322194869120102 -0.070288535258227
000110 e0 8f bd 33 97 a8 b2 3f ab 49 b1 eb cc eb a5 3f
       0.07288498891062956 0.04281463982683261
000120 20 a5 f1 5a 79 39 c1 bf 3d ea 6e d8 b4 0f a6 bf
       -0.13456646862622623 -0.04308858053214635
000130 e4 f8 cb df 0d 4a c2 3f 7c 38 79 e5 eb 70 ae 3f
       0.14288495471550455 0.05945527244749457
000140 ad 89 00 0d 1f e4 b9 bf a4 1f c2 a0 40 e7 b4 3f
       -0.10113710467752553 0.08165363240016049
000150 8a 13 20 d4 9e ab aa bf d3 c8 42 57 65 e2 c2 3f
       -0.05209060992641586 0.14753405342850687
000160 b3 e7 f5 2d b8 d8 c0 bf b9 41 cc 59 39 f0 c8 bf
       -0.131613752786334 -0.1948310554948998
000170 e0 b1 c9 11 f8 4b b3 3f 5b ce 89 71 7c ea b3 bf
       0.07537794527315311 -0.07779672405177378
000180 c0 8a 44 9e 0a 73 ba bf 4f f6 11 d3 1c 8c b8 3f
       -0.10331789363821553 0.095887948542406
000190 a9 d7 fb 20 9c 61 b9 3f 0a a6 3e 76 db bb c0 3f
       0.0991456585432774 0.13073294900577564
0001a0 14 ac 96 21 f9 9b cf bf 67 cb 30 55 e3 1e a6 3f
       -0.24694742336336672 0.04320440688061105
0001b0 09 de de 4f f0 86 c7 bf 9f 45 06 8e 2e 92 94 3f
       -0.1838055028908772 0.020088889521110095
0001c0 87 73 c5 72 5f 43 c4 bf c5 bb d8 43 8a f7 bc 3f
       -0.15830605606143086 0.11315216213618758
0001d0 3d 8b b2 f7 70 db 8b bf 02 dd c6 3d f1 a2 92 bf
       -0.013602144774557007 -0.018199700732762565
0001e0 3c 89 13 24 5e 84 58 3f 51 d0 b6 cf 0d 32 8b bf
       0.0014964026780082814 -0.013279064084464805
0001f0 33 d4 89 54 02 4a c4 3f 01 4e c5 45 0f 7a 92 3f
       0.15850857856608655 0.018043745645014656

arr_2 f8 [64, 32]
000000 9f 8f 5c 37 21 60 c2 3f e6 52 79 9a 4a fe c7 3f
       0.1435586471862935 0.18744785826370175
000010 e0 37 e2 d6 b8 e7 bd bf e5 6f c5 a2 df 32 c7 3f
       -0.11681704755957822 0.18124003837408434
000020 48 8c 4e 40 3c 82 bf bf 3c 90 e0 2a 9e 9c a0 bf
       -0.12308098382941168 -0.03244489930537539
000030 00 9b 82 e9 25 39 90 3f 11 d8 c2 5b 1b 51 3c bf
       0.015843002679186036 -0.00043208043986042813
000040 2c a5 8c 85 9a 7c c4 2a e8 0d d8 71 7f 37 b4 3f
       1.143363149150633e-102 0.07897182969468697
000050 2c bb 34 42 27 20 97 3f c9 76 b9 a4 02 17 bc bf
       0.022583592811481853 -0.10972610971063114
000060 6e a2 d7 2b fc 28 7d bf c8 c5 9a e1 93 03 bf 3f
       -0.007119164508801219 0.12114834077762915
000070 13 76 4c b1 1f 8c bc bf ea 4d 3f 53 34 7f 1d a8
       -0.11151311949330305 -1.8715349176595418e-115
000080 e9 fc 0a 23 c2 c5 a0 bf 7a 00 95 cf ba 27 b5 3f
       -0.03275877645273246 0.08263747756882536
000090 ce 0f b4 58 47 d9 c8 bf 10 18 34 ff 53 e4 cc 3f
       -0.19413081961840678 0.2257180210219194
0000a0 2a d2 24 d3 67 f4 b4 3f 57 d7 19 b3 e6 42 a3 bf
       0.08185433297041614 -0.03761979042330548
0000b0 e4 95 a2 95 3a fc a0 bf 21 64 78 9b 0e 6b c6 bf
       -0.03317435337639177 -0.17514212218591843
0000c0 0a d7 13 6e 2d 51 ca bf 8e 9f 21 64 8f f8 62 2f
       -0.20560233950498513 1.9999538330255814e-80
0000d0 af db 58 15 70 be bf bf c9 00 20 cc a1 3a 88 2a
       -0.12399960061234937 8.451378575217864e-104
0000e0 25 27 3a db 15 cf c1 3f 3a 1d e5 97 9f dd c3 bf
       0.139132244152557 -0.1552009097742742
0000f0 d3 78 d3 3e 39 e5 cb bf 98 39 0a 64 7d 8e c9 3f
       -0.21793284957579448 0.1996609438396717
000100 d3 77 47 7e e7 8f c6 3f 63 d2 f7 e1 97 d7 c8 bf
       0.17626660982108308 -0.19407938512417208
000110 7d 5f 2b bd 6c 94 cb 3f 77 f5 f1 da 46 e1 c6 3f
       0.21546706425464981 0.17874990168267477
000120 ce c6 83 7c bc 0b 89 3f de ec ce 5a 7a 52 a7 bf
       0.012229416417969399 -0.04555113180637148
000130 2a 5d d3 19 b9 82 b8 bf d6 38 ac 23 98 64 5e bf
       -0.0957446754504089 -0.001855038236218178
000140 d1 99 46 88 53 3f b9 ac 27 42 5f 32 45 f5 c6 bf
       -3.025920190272527e-93 -0.1793600555379424
000150 86 a7 77 ec 96 16 b1 bf 99 76 b8 03 b4 b8 bc bf
       -0.06675093911294824 -0.11219334688981987
000160 af 52 1c 46 76 73 cf bf 97 b8 03 c0 66 eb c9 bf
       -0.2457111208283513 -0.2024963796206449
000170 ae 36 0f 32 55 a7 b6 3f 71 ee 6a c0 3f 9e b9 3f
       0.08849079582361227 0.10007093856523298
000180 d3 d3 a6 4f 8d 7f c7 3f 35 44 6f 9b 06 e1 93 3f
       0.1835800780224007 0.019413092839219288
000190 82 a5 66 39 1b 4f cd 3f 4d 5a 73 1c bb ff ca 3f
       0.22897663405209917 0.21092928780736245
0001a0 f5 4d a3 e1 68 12 c4 3f e1 32 77 fd 7d 99 c1 3f
       0.15681181924320212 0.1374967086434458
0001b0 4b d4 47 45 a1 ca a5 bf c6 ca 81 05 33 9a ce 3f
       -0.042561568934538295 0.23908078926941395
0001c0 a2 88 3c 3c 3a 07 ce bf 46 30 46 24 85 5c d8 2b
       -0.23459556523545638 1.7820659555869704e-97
0001d0 b0 07 12 ac 7d 1b a4 3f 43 4a bc d2 f9 be c4 3f
       0.039272238974276674 0.16207812108821615
0001e0 7d d9 27 9b 55 d2 aa 3f 31 b1 53 3d 22 64 c2 bf
       0.05238597411146182 -0.1436808394859184
0001f0 e9 b4 f9 37 22 53 b0 3f 63 b2 40 b3 27 c0 c1 bf
       0.06376851908290217 -0.13867660763334574
000200 d0 b6 c3 5b 49 a8 d0 3f 1c 05 e1 2a 23 96 ae bf
       0.2602713962686325 -0.059739207252741816
000210 50 28 02 c8 25 72 c7 3f b8 59 3d 48 8d 5e b9 30
       0.18317100778614526 5.608804475605396e-74
000220 a3 0f f8 63 f1 8d b8 bf 71 50 3f 13 67 9b 8c 3f
       -0.09591587725304733 0.013968282008058193
000230 b8 fd 07 d2 ff c0 c8 3f ce f5 7e 4c 99 76 be 28
       0.1933898711722415 1.9792390226564158e-112
000240 e5 20 94 2b b1 b8 f6 ae 80 b2 d7 8a f9 23 cb bf
       -1.8713598385462808e-82 -0.21203536300108183
000250 07 47 c0 2f f0 e6 a4 a8 dc 0b 54 8f 16 b0 68 a8
       -6.790184999657908e-113 -5.01250502085373e-114
000260 36 2c 0a 28 19 10 cc 2c 8d 76 1c c1 85 aa c0 bf
       6.726724597474486e-93 -0.13020393304116276
000270 f1 c1 59 20 ea 6d c4 3f 0c e6 67 03 f8 a2 00 b0
       0.15960432605380917 -1.79595568577611e-77
000280 8b 23 f0 fc ac cb c7 3f 6b 4a 16 59 f9 9f ef aa
       0.18590319014063214 -7.0599336395203674e-102
000290 b4 f6 97 d4 46 ed b8 3f d1 a3 64 2e be 84 c9 3f
       0.0973705548312534 0.1993634916809968
0002a0 3b ad fe af 65 8e c0 bf 3d d5 dc 20 45 0b 30 a8
       -0.1293456181859741 -4.071879864502623e-115
0002b0 0c a2 d4 93 30 20 d2 ab 09 3c 86 09 fa a2 80 3f
       -1.3259195959851152e-97 0.008123353400860027
0002c0 cc b6 33 e2 21 af c9 bf c7 f5 a7 c1 f3 17 76 2b
       -0.20065711541194842 2.525266414157514e-99
0002d0 62 44 cf 1c fd 60 bc bf 9c b5 8e 80 f8 d7 10 28
       -0.11085493043289454 1.068704186555509e-115
0002e0 7f 64 b9 66 e5 a0 cb 3f 99 a1 70 ca 07 c3 95 3f
       0.21584765926198554 0.021251794558482116
0002f0 5a d1 d0 fb 4a 9e cb 3f 0e e9 76 d4 15 d7 cc 3f
       0.2157682160919972 0.22531388162844518
000300 3c 1b 5b ed ed d7 89 bf c3 f5 1a 36 e8 58 73 bf
       -0.012618883901621573 -0.0047234602695289144
000310 a1 57 f5 be 7b ac c2 bf de 9e 42 24 6f 8a c3 3f
       -0.14588877510203438 0.1526621748973786
000320 74 5c 4a f3 62 f7 c5 3f b0 85 f4 40 c7 bc ac bf
       0.17161213759820593 -0.05612776439580658
000330 78 00 c8 54 ef 80 ca bf 0c ab 23 2d 0e 30 63 bf
       -0.20705978049955198 -0.0023422505265576817
000340 c7 a7 97 ad ef 22 a6 2c 79 99 51 bd 34 d4 c1 bf
       1.3265380705170405e-93 -0.13928851360396857
000350 7d 07 4d 9b 67 2d b2 bf 69 8c 17 bc 71 64 bb bf
       -0.07100532094503183 -0.10700140802468784
000360 63 68 6c c1 f3 2a c2 3f cd 0c 38 78 f9 2d b1 3f
       0.14193579620843186 0.06710776505501599
000370 13 cd 63 fd dd 15 cc 3f 8c 71 83 7f 56 ba b1 3f
       0.2194173323874585 0.06924954045411463
000380 1b 04 32 03 3b eb c3 3f 5d ec e1 be 26 64 ca 3f
       0.155616165695421 0.2061813766520996
000390 04 99 b4 97 6e 70 ba bf f5 aa 4f 12 59 6c cf 3f
       -0.10327807620760515 0.24549401659108808
0003a0 75 92 3c a4 c4 88 c6 3f b3 a0 67 79 6a 2b c5 3f
       0.17604883212438308 0.1653874485775809
0003b0 62 ca 35 6c 4b 1a bc bf 0f 53 b1 c9 3c 93 c7 3f
       -0.1097762240586149 0.1841808304622181
0003c0 12 ab f8 2d f3 9b b3 bf 86 a2 7a ba f7 c3 22 2f
       -0.07659835693690933 1.2364350169035841e-81
0003d0 ad 91 4c e3 d1 7f c7 bf ff 30 b7 41 88 2e a3 3f
       -0.18358825300778162 0.037464387914583945
0003e0 8f 0f 3a 08 49 aa c1 3f a3 ae 16 0a 8d 28 a6 3f
       0.13800919439028944 0.04327812908317454
0003f0 ae 3a 01 6f 0d 52 bd 3f 51 56 48 eb f5 b2 a9 3f
       0.11453327140882649 0.05019348618604325
000400 b6 f3 ff 7b d4 a1 ad 3f 7a f9 86 79 61 07 b7 3f
       0.05787529004735552 0.0899563714692472
000410 ce 29 d2 dd ca 31 c6 3f 3e 1c 46 c4 d0 e0 b9 3f
       0.17339454489804357 0.1010866622146844
000420 50 8a b4 77 f5 0f ce bf 25 16 2c 5e ae 4e af 3f
       -0.234862025689909 0.06114716434062143
000430 16 a5 c1 35 34 74 c6 3f f3 b5 8c 55 ac 0e 4e bf
       0.17542126297784283 -0.0009172765231590371
000440 63 47 c0 ff ad 7f 14 28 af 95 6f 0b a7 29 a7 bf
       1.3006158025486783e-115 -0.04523965849493138
000450 a1 0f b1 26 40 4b a2 bf e8 6c a7 ce e6 f8 b0 3f
       -0.035730366442776836 0.06629793687118346
000460 96 e3 39 4a af 35 c0 3f 04 95 78 5c c8 92 cc 3f
       0.12663832783053114 0.22322945132433614
000470 e0 88 ee dd 0c 6c a3 3f ee 5e 54 a6 90 d7 ab 3f
       0.037933733073502784 0.05437900572195341
000480 33 59 d7 93 1b b4 c5 3f 69 d2 73 c4 55 ea 8d bf
       0.16955895155724363 -0.01460711484694706
000490 c3 45 96 9e 33 ea 85 bf e5 2e 95 b3 c2 67 af 3f
       -0.010700610425177786 0.06133850519344523
0004a0 bd 4f 40 0d 95 bd a9 3f e5 cb cd 32 3c 93 ce bf
       0.050274522655086674 -0.238868260199154
0004b0 f1 9a ed f8 73 eb cd bf 56 fb 62 1e 3e 2f c0 3f
       -0.233747955843874 0.12644173129771258
0004c0 0b 6e 79 8d e4 63 ca bf 94 3b 78 df d0 f1 39 3b
       -0.2061734858315137 2.1460864659359364e-23
0004d0 12 f9 a9 85 cf 7b b2 3f b1 e9 ed f4 f0 70 cd bf
       0.07220170033722109 -0.23000919303360726
0004e0 88 b7 0e fa 49 c9 a3 3f 24 e9 cc 31 f5 05 b8 3f
       0.03864508798083849 0.09384090867834921
0004f0 6e d3 68 fc f1 e0 ca bf d2 12 c1 9a 0e a8 a7 bf
       -0.20998978447610334 -0.04620404852952266
000500 7b ac 8b aa 4e e8 c6 bf a4 b4 df 52 e2 2d cb 3f
       -0.17896445586606888 0.2123377709062072
000510 3f c9 13 17 fb e0 cf 3f 35 ad 6c 7d ec a9 c5 3f
       0.2490533697778776 0.16924816250080146
000520 2a ca 76 25 00 67 75 3f 64 e6 a7 bd 85 c4 c6 bf
       0.00522518212476312 -0.1778723884634018
000530 87 0a 76 d7 36 4d b7 3f 17 4c e8 86 b7 4f 78 2c
       0.09102194557457653 1.821089266229568e-94
000540 56 a7 b3 e3 07 3a 26 2e c9 3c fb 9b db 7c b3 3f
       2.2346314485587635e-86 0.0761239295782047
000550 0d 40 03 10 81 fa a9 3f fc cd 46 9f 10 0e 88 bf
       0.05073931999652368 -0.011745576725707522
000560 40 ac 83 1f db 56 c3 3f 72 45 89 08 39 65 a3 3f
       0.15108813322817305 0.03788164357377867
000570 6a 85 be e6 d9 9c c6 3f e6 b7 f7 58 62 5a c1 bf
       0.17666171805198455 -0.13557080597041632
000580 5f 4f 67 a4 ba b9 c2 3f a9 09 1a 28 2f ea c6 bf
       0.14629300143735244 -0.17902173479167274
000590 5e 9f 5f f3 b0 7e d6 bf 72 d3 54 ba 24 e1 c8 3f
       -0.35148261801668024 0.1943708333798458
0005a0 29 12 1c 40 4a 27 a3 3f f5 ba ab 9d b6 61 bb 3f
       0.03740913422192122 0.10695973729501047
0005b0 b3 60 80 b7 88 4b c0 3f 06 6e 5d ec 0b 01 a1 3f
       0.12730511627228722 0.03321110973658041
0005c0 4a 9b c3 7b f7 54 c8 3f 98 cf d9 07 4e 86 6b 32
       0.1900929788891637 8.167561603385467e-66
0005d0 e4 86 81 8b 53 6c be 3f cf 74 b3 6e 0b 8c 4b ac
       0.11884042888552987 -2.579327400561389e-95
0005e0 a7 1b 2e 3d 3c f2 c1 bf 6a d1 17 02 8b 7d c2 bf
       -0.14020493495283157 -0.14445626833151987
0005f0 3c a4 d5 46 7b db cd bf e8 ca cc 7e 61 79 a3 bf
       -0.23326054533689156 -0.0380354373250123
000600 f0 67 1b af 0a 7f c1 3f 6a 2e f2 c1 14 e7 96 3f
       0.13668950605534702 0.02236587938072746
000610 56 a1 16 0e 3e f0 b9 bf bf 6c 34 65 d4 bc c0 bf
       -0.10132205814318715 -0.13076262418403492
000620 3e 90 dd 59 1d c2 b5 3f ff c2 cc c1 12 ff bc bf
       0.08499320453626155 -0.11326710921708737
000630 67 72 da fe ee 6f c4 bf 7f ac e5 98 77 51 67 bf
       -0.15966594165810763 -0.0028464637645604913
000640 06 ab 45 78 94 76 57 28 c9 52 bc b8 83 fd ce bf
       2.3819297781549516e-114 -0.24211164970679125
000650 f2 e0 fa 80 ef 12 a2 3f 0a 63 06 74 18 d0 ce 3f
       0.035300716871860774 0.2407255713012762
000660 93 8d 5f 9b 2c f6 ab 3f 3e 9a 8d 0d 76 ef cd 3f
       0.054612535444699926 0.2338702741792122
000670 97 5c 93 f7 3c 74 b1 3f da 0e 2a 76 11 94 af 3f
       0.06817990345313017 0.06167654578623934
000680 99 84 26 7a 30 08 b8 3f ab 68 1c f5 29 3b c3 3f
       0.09387495977581962 0.1502430388289374
000690 8e 80 e9 e1 92 22 cf bf f3 f8 bf 2e 70 90 8d bf
       -0.24324260741105203 -0.014435650278752798
0006a0 0d 24 d7 ef 6a 7d c8 bf c0 c3 40 ca 48 20 bf 3f
       -0.19132744513470393 0.12158636987511695
0006b0 8b 2e f5 49 c1 06 c1 3f bc c7 32 7a 91 63 ca bf
       0.13301864730089039 -0.20616358248440558
0006c0 e1 e4 a1 00 cb 3a bf 3f 9c c7 d9 f5 a7 91 c1 35
       0.12199085965575619 9.391544132191587e-50
0006d0 9b 87 7e b9 0f 90 cf bf ba c0 0b a0 21 25 1c a8
       -0.2465839057668376 -1.7857621379247238e-115
0006e0 39 34 c1 e7 fd 3d ab 3f 71 a5 76 68 6f 61 bb 3f
       0.053207335033768684 0.10695549297692765
0006f0 07 06 77 d1 6d bf c3 bf 98 b4 0a e0 3d 31 cc 3f
       -0.15427944877414765 0.22025273742238904
000700 33 fc e3 18 ed eb c9 bf b2 78 82 84 c9 78 a5 3f
       -0.202512395051572 0.04193715803670396
000710 19 39 7e 88 cc 69 cd 3f 6a d6 30 85 10 36 ce 3f
       0.2297912279577268 0.23602491858916902
000720 13 f7 e8 9f 2c bf 94 bf 99 93 28 e4 20 cf c3 3f
       -0.020260522136815128 0.15475855961372245
000730 81 40 82 80 95 d2 cc bf 82 b5 80 33 17 b4 6c bf
       -0.2251765134319648 -0.0035038426540469634
000740 0d fd 5d bc 97 1d 89 31 1b 17 35 20 98 56 ab 3f
       4.548775645453896e-70 0.05339503663212338
000750 81 79 5a 7e c1 f3 c5 3f 65 ee f5 71 01 53 c2 3f
       0.17150133771515289 0.14315813126073632
000760 d2 6d c5 4d 44 93 ba 3f 0e 1a 6c b9 e7 c5 bf bf
       0.1038096132155524 -0.12411354329024268
000770 32 b9 90 fa b1 6c cb 3f f7 d7 9a 34 af dd cb 3f
       0.21425461516032268 0.21770277088734222
000780 7b f1 28 4d 51 bf a6 bf dd 31 af 92 4d 3c c0 3f
       -0.044428387326180784 0.1268403021080208
000790 1f d3 ab f0 d2 ee c2 3f 8d 4c 9d 2b 68 5e 82 3f
       0.1479133296158119 0.008969129401213994
0007a0 f5 72 64 ea b3 90 86 3f 97 cc 9c 25 19 4c b5 3f
       0.011018186178767911 0.08319241684221122
0007b0 65 a3 f1 d6 b4 cc c4 bf f5 21 aa 99 7d ae c5 3f
       -0.16249714370067206 0.16938753131059028
0007c0 19 f2 85 12 1e 6c c9 bf 48 2d c9 3a 95 23 61 3d
       -0.1986119833417355 4.871195589396351e-13
0007d0 f5 bc d6 e9 44 90 c8 bf a9 04 27 eb c2 8d c6 bf
       -0.19190274637137575 -0.17620121461917407
0007e0 ca b7 51 5c 46 26 c6 bf cd 48 eb 2d 42 5c b4 bf
       -0.17304305560850103 -0.07953275319167404
0007f0 84 7f 1f dd 76 da c9 bf 62 5c a9 fc 34 35 93 bf
       -0.2019795016958562 -0.01875765602229896

arr_3 f8 [32]
000000 43 4f 68 d1 9f 1e b2 3f 43 ee 2c 3f 74 19 ab 3f
       0.07077978956686785 0.05292857428727562
000010 63 00 88 1a e4 d2 b5 3f 41 0d cf 1e e4 47 ad 3f
       0.08524919173942318 0.057189110527839045
000020 b0 67 d6 a8 56 80 a6 3f 72 9f 11 10 3a f3 bf 3f
       0.04394789515499953 0.12480509655290264
000030 25 40 32 df dc f3 cc bf 7a 48 de 39 29 44 c7 3f
       -0.22619210146194849 0.18176760984039558
000040 08 b7 81 f2 d0 77 cd bf 45 92 69 90 b9 ca be 3f
       -0.23021900025508324 0.12028083587353773
000050 0c d1 42 77 ff b5 7d bf 1e 63 11 63 48 77 cd 3f
       -0.007253644860771635 0.2302027209978172
000060 33 9a 20 eb 5b bc 92 bf 98 a1 1f 3a d4 6e cb 3f
       -0.01829665777781937 0.2143197330290263
000070 a4 28 bc ec b2 56 bf bf 3e 44 1d 3d cc eb a0 bf
       -0.12241667060530631 -0.03304899450325437
000080 87 39 10 34 1a 4e ca 3f a8 fc c6 c7 15 ca c5 3f
       0.20550849477917785 0.17022964720488187
000090 f0 9c 52 5f dc 07 92 3f 8d ae a4 65 9c 0c d1 3f
       0.017608111684833838 0.2663947098360289
0000a0 c1 8a fe 53 3b 5e c9 3f 4d 0e c7 84 02 04 77 bf
       0.19818822480472956 -0.005619058455014048
0000b0 cb 7e 49 49 80 0b c9 bf 06 c7 1f 45 2e 11 c7 3f
       -0.19566348627539862 0.18021181464387598
0000c0 bc d0 a9 c6 b4 ac b5 bf 2c 6f 63 bd 72 dd a3 bf
       -0.08466653680972319 -0.03879889070387174
0000d0 cc 7d 92 ef 65 b8 71 bf a9 3c 21 6a df aa aa 3f
       -0.004326246439773706 0.052084905343343486
0000e0 25 01 da d2 f6 70 b8 3f 92 d0 ad 09 90 b2 d0 3f
       0.09547369621032382 0.2608985991021281
0000f0 b2 77 f0 22 0e 52 ca bf cb b3 37 fc 83 57 b4 3f
       -0.20562912660619542 0.07946038158088624

arr_4 f8 [32, 1]
000000 46 b8 a1 ce 53 0a d8 3f 44 0e 3c 6a f3 67 cd 3f
       0.37563033274534907 0.22973482787357302
000010 9a c6 84 3c ca 53 d3 3f 1d d3 ca 8a 6f d8 d1 bf
       0.3019891348841185 -0.2788351874726674
000020 41 4e d1 13 bb 07 bc 3f 70 27 f9 aa a6 5f b4 bf
       0.10949296220615513 -0.07958451913978393
000030 66 0d 2b ae 37 7e c5 bf e1 c7 99 fe b8 f0 de 3c
       -0.16791435245805103 1.7175329376824061e-15
000040 f3 a8 3c 64 73 b0 d8 2e 8a 9a d8 b0 bb 3a d5 3f
       5.0835756590601514e-83 0.3317097880375647
000050 4f 8d 60 77 d8 fe c2 3f 78 a8 f8 fd d9 c8 c8 3f
       0.1484022696396132 0.19362950230544462
000060 52 47 04 aa 42 5d 9b bf 6e 41 09 61 ea 4f b7 bf
       -0.026722947718617114 -0.09106316441580528
000070 f5 e4 43 7d b6 3c d7 bf 27 1e 5f 4b 2d 39 c5 3f
       -0.36308061821871657 0.16580740146876957
000080 40 02 1b c4 04 db c4 bf 03 d5 3d d6 13 12 b5 3f
       -0.16293391776527422 0.08230709057336942
000090 f6 ef e8 67 e1 b2 b2 3f 48 27 46 32 4f 0c d8 3f
       0.07304199969161104 0.3757513037640945
0000a0 47 d0 04 11 c7 7a d0 bf dd 98 0d 7e 18 77 ac 3f
       -0.2574937502097367 0.05559612787946986
0000b0 7a 8c 6d 83 b0 89 c8 3f e8 04 dc 3e b3 cb c2 3f
       0.19170195023898257 0.14684143609341693
0000c0 cb 46 ee 99 13 4f cb 3f 7a 95 4e 18 cc dc 01 b3
       0.21335072532797592 -5.427663254502359e-63
0000d0 0a 12 78 ba 16 3e c4 3f 18 3d 14 8e db 38 d3 3f
       0.15814479927952646 0.3003453147402566
0000e0 12 5c b7 8b e7 2b d7 bf 45 c8 27 41 3b 96 aa 3f
       -0.36205471653141885 0.05192742510179519
0000f0 29 df 94 62 41 04 c2 3f e3 f4 4f d0 3f 88 d5 bf
       0.14075486482192304 -0.3364409956264593

arr_5 f8 [1]
000000 5f 33 f9 83 8a 6f d0 3f
       0.25680792701751004
