global_model/hospital3_weights.npz (npz, 40906 bytes, 6 tensors)

arr_0 f8 [43, 64]
00000000: de8a ced1 0ea7 80bf 0b82 2377 12eb c33f
00000010: 7d33 4681 dee1 bf3f 6dbb 97be 449d b1bf
00000020: 6cf7 137a 3077 ccbf 188e f155 2236 bcbf
00000030: 9b3c f0ec 4ce0 c0bf 0023 6361 88e3 cc3f
00000040: e8eb ce27 c820 bd3f aa5a 8897 cd88 ccbf
00000050: e289 b54e 21f3 c23f 02cf d248 00c9 933f
00000060: 77fe c618 a283 c1bf 21fb b12c 50ce b1bf
00000070: 36a8 c174 00d0 c3bf 8b39 05de d815 aebf
00000080: fa30 bab7 1bba bbbf 935b e204 6fc0 d1bf
00000090: 5aa3 9921 d2f7 b93b 47f0 7b7e f29f f237
000000a0: 04ac 187e 1307 75be b47d d4c0 4469 cd3f
000000b0: 8d57 601b 786c b0bf 101e 25b0 9aa4 9f3f
000000c0: 5351 d0ef e8ec c1bf 3d1e 07df 691d ce39
000000d0: 348e 0bbd 2a9b 8f3f 5251 27cc 8cc7 943f
000000e0: cb4a aaee a3dd cd3f b927 443a e52d a83f
000000f0: fdba 6bf4 0da0 b0bf c8ef c06f 3410 b5bf
00000100: 84a3 a469 17ca c23f 066a 1534 00ab b6bf
00000110: 62da 679e b049 a13f 4eea 9f6e 6ddf cd3f
00000120: e799 3b24 b5b6 c2bf 92bd ab17 63c9 b03f
00000130: 2908 4d49 cedc b73f 1c23 b5bc 97c8 c9bf
00000140: 198c 401e 482e ce3f 108d b3bd f5d6 b6bf
00000150: f9d2 efbf 2f26 b43f 26c3 01a0 5dd4 6dbf
00000160: 4f4a c67a ea53 b9bf 5039 61c3 e927 83bf
00000170: c362 bb00 e732 c3bf 67ba 188e c700 cd3f
00000180: b0f7 a2d2 27f4 cbbf 09bd 18de ba68 c53f
00000190: 83d6 a4af 8fd0 b3bf 4c9f 1a1b 45c7 c63f
000001a0: 82ef 077a 932e a2bf 8a5a 3a29 46b6 9abf
000001b0: a18b c7b4 9a2a acbf cd40 6ff1 4400 c63f
000001c0: eaf9 0f96 75c7 4a3f e4cd 643f 7904 bcbf
000001d0: 0db1 3cee 1e50 b23f f84c eb3e bfc9 8abf
000001e0: b3d5 c8e2 b747 c2bf b4a2 5e73 07da 86bd
000001f0: 059a 212e 4c2c a4bf f6df afb4 dd97 c13f
00000200: c025 9446 35ac 8c3f 8f39 9c57 adf8 c73f
00000210: 6b6c eb18 ce51 be3f 630f 7cbc 74f7 bcbf
00000220: 7c0c b9b3 1cdc cdbf 49e2 f4b4 308b ae3f
00000230: cfd9 87c1 8448 b7bf 4d01 d0a3 557e b63f
00000240: eebe b267 c4c4 c0bf b4c9 b3f6 f342 823f
00000250: 5c0c 78b1 a0f6 cbbf f23b 9408 0c8b c3bf
00000260: b216 c1ed 343b c8bf 0399 eea1 d8b9 b5bf
00000270: 2058 25da 55d3 9a3f da72 07bd 99d9 b9bf
00000280: 961e 4f38 8412 b6bf 76d4 e0aa 2fb2 94bf
00000290: 14cd 4bfd c411 553c 07b2 2d44 7a60 96bd
000002a0: ae5b b29c b3cf 6ebb cf1c 1782 6a92 87bf
000002b0: db58 e50d 2744 c93f a545 d6a6 6646 9e3f
000002c0: 13c5 d2b6 afd9 a9bf 3ee6 0e09 c189 16be
000002d0: ce05 f81d 08e6 c6bf bfa0 119f 5a2e b1bf
000002e0: 94ad b8cd 74ba c13f ae69 ff45 1c7e a2bf
000002f0: b31a 0740 b28b bc3f 935b f7ef 00d5 92bf
00000300: dda3 c855 5e0c cbbf 9d2b 0a66 e9a0 c93f
00000310: b874 e1a2 3fd2 c93f 4bfa be6d d916 c93f
00000320: 9c7d 90ab 594b ab3f 34b7 f8ab 27e6 c4bf
00000330: 1132 5cc5 0c65 bd3f fe4e f230 92b0 b6bf
00000340: 6b03 0220 c86a c13f 5259 75c6 b551 b2bf
00000350: c27f 1c4e 26be cfbf 079d 8c51 8227 a2bd
00000360: 03d0 d07a 127c cc3f f8b6 0da1 4907 833f
00000370: 52f6 3655 f49c c7bf d226 9066 940c cc3f
00000380: cfd6 b0c9 1a6f c63f 4bd1 4c27 0121 b73f
00000390: 4feb adaa 3754 b3bf 52c9 f94b 8937 cbbf
000003a0: 0046 209d 4948 a03f bc48 d5d8 ec30 c6bf
000003b0: 133b ed8b bc12 a0bf 610d c86f 349f ac3f
000003c0: cf00 30bd bf64 b6bf af9e cef9 9879 ac3f
000003d0: 8e13 8922 0b26 bc3f 65c3 a028 e50a a3bf
000003e0: 5672 4c1e bf59 a5bf 4b83 04f7 a677 f3bd
000003f0: dcc6 c4a0 c440 b03f 6995 3c0a b5e7 ccbf
00000400: a4d1 3457 adc7 b63f 1b40 0d36 e553 b13f
00000410: b932 ba9a f98b ce3f 5c65 65de 6a86 cabf
00000420: 4aa8 1a87 005d b33f 3114 e00e 6472 b63f
00000430: 1062 6fb5 75a1 c73f 1f64 8a87 6654 c63f
00000440: fa85 c525 5f98 b5bf 33c8 f2b6 ae51 bcbf
00000450: a870 50a0 a5ce b23f 0e79 5817 7608 c3bf
00000460: 8aaa 4c7c 50cb bd3f ee5a 6c88 b72c c4bf
00000470: 575b be9f 7205 c13f df36 519a 216c 9d3f
00000480: 707a 29ff f452 cd3f e3e4 469f 9874 843f
00000490: 846c 9e5c 478c b6bb 9cb1 a5d0 3466 28be
000004a0: ccf1 6b57 696b ef37 7b15 0caf c77d d03f
000004b0: 5b4a 7d3c 4e0e ca3f b5dc b337 0dce cd3f
000004c0: f523 b896 d9f1 ce3f d8df efe1 a242 b8bd
000004d0: 001a f8c5 e932 13bf 75eb d99d f7af a4bf
000004e0: 05c8 77b0 71de c43f 1d36 bf92 c6a8 903f
000004f0: e7ce 35f3 c542 bc3f 1eca 240c f4ce c93f
00000500: d900 3566 6ed2 cdbf 0bda 1ba4 3bec 58bf
00000510: 669f ace4 e6d7 c93f d5ba d6e9 655b c3bf
00000520: ee79 205b 55cb 96bf a0ec 0707 9493 b33f
00000530: cdee c6e6 ebe4 c13f 0fe9 664d 4831 cfbf
00000540: 6ee1 b112 aa01 c33f 60db ea51 767f c2bf
00000550: 44b5 7d67 dfef 8a3f 59f3 7c37 f006 8bbf
00000560: 1110 bbed a0ef be3f 428f 9b00 4158 b53f
00000570: b390 9c66 9a78 b2bf d863 8787 90de bb3f
00000580: 50b0 0e6e 3e08 c0bf 34ce 0cab ca28 acbf
00000590: 2200 dc78 ed4f 813f 8358 c974 d4eb c5bf
000005a0: 1f5e 1166 7e1a 94bf e02c bb9a 22e5 b53f
000005b0: 2238 0770 6cf1 b8bf d06d 731c 7f2a c3bf
000005c0: 33de fb7f ccfd af3f 8ef7 bb9e aa67 c7bf
000005d0: c64f d07d 8fa0 cfbf ecd8 709b 0de9 a4bf
000005e0: eebe bee7 2cd0 bcbf d003 b48b ff94 b7bf
000005f0: afa3 c684 a047 9ebf 0c15 6f38 5cfd 95bf
00000600: 18d0 162d 45d5 c4bf 70fd b50a 7300 ccbf
00000610: 478c 4491 b2e1 c6bf d63a 8c80 3ee9 b13f
00000620: ee86 a8ca 2c42 c13f c27e fb7b f81f d4bf
00000630: 85a6 d10b 3cc1 c33f 73fb 40d4 fc39 803f
00000640: 842a 7eb2 3a2a bcbf 5738 2278 e571 c9bf
00000650: 1011 7def db82 babf 685f b270 66d8 84bf
00000660: 8ed3 66fe 2ebe cb3f 67c4 9b1e d4e1 c5bf
00000670: edb8 8ac5 0a60 d13f 32ae c20b 365f b13f
00000680: 8f18 8645 57bb cfbf 4998 c26f 54d0 b4bf
00000690: 0ad7 2223 e404 4e3b 01ea b4a6 9547 113e
000006a0: a6a1 292b 9342 583b 1d88 aa36 be79 c8bf
000006b0: 26c4 cb79 8b01 cd3f 1b82 e64b 68a2 c03f
000006c0: 8652 be90 c137 a13f 6201 81c3 c0e6 c0b8
000006d0: 12e8 ff1d d39d 48bf bbe6 4fee 58ba a3bf
000006e0: 2322 32ee 6c89 a8bf e244 6e63 7fc6 d13f
000006f0: 915e c8bd d2e1 a23f ec2b dd3b c449 c73f
00000700: 5f35 32aa bf2e bebf 3443 8384 2e5e b93f
00000710: 4a3a 0013 a12a c03f 1bc1 d8db 943b b83f
00000720: f132 3b72 8aea ccbf b181 7401 4bcb b73f
00000730: 122b 1cd8 d1ac c23f 845c 70ce fea4 cdbf
00000740: 2167 22d9 798a c83f c7de 7e40 4cc4 a53f
00000750: 3802 d7c0 8543 d73f a81b 5166 bbbf 73bf
00000760: 072c f984 f4be b6bf 171b 1c83 f75c b53f
00000770: f346 3bae cf2c c1bf a496 3fe0 27df c9bf
00000780: b2f0 cf08 d010 c2bf 3246 35e9 e79c b73f
00000790: 3abb 4cb6 844b cbbf c178 7bde 5210 bbbf
000007a0: 48fd 46ed 691e 83bf 92cc 4dc3 800b babf
000007b0: c906 825b 56be ce3f 9855 b10a 9af0 8abf
000007c0: 1f89 6edf 3e15 893f f7b3 9800 d5f1 cdbf
000007d0: d52e 3351 cb85 a93f 583c ab77 412d 98bf
000007e0: 1ae7 6d1a 8151 8dbf da8e a3b8 668a 673f
000007f0: d680 797b 1958 bfbf efea 2d9a dabb b13f
-0.008131137635989768 0.15561133210486874 0.12454023986920322 -0.06880597737447909 -0.22238737068976933 -0.11020102117759512 -0.13184510773905775 0.22569374804722742
0.1137814614475442 -0.22292489909223906 0.14804474204272738 0.019321445889274542 -0.1368296261771211 -0.0695543393248781 -0.1547852106189695 -0.05876043043336939
-0.10830853686838174 -0.27737021901105513 5.4989485023297106e-21 3.420834380231486e-39 -7.833406769827683e-08 0.22977504172830054 -0.06415510815017296 0.0309013528833742
-0.1400424166646511 2.969558085536616e-30 0.01543267621440867 0.02029247280172914 0.2333264270169678 0.04722515426881508 -0.06494223801903938 -0.08227851608620462
0.14679234178882095 -0.08854676505635703 0.033765334450369236 0.2333809652480618 -0.14620079297237895 0.06557292297269715 0.0932129792172708 -0.20143410410153073
0.23578740574984705 -0.08921752816563733 0.07870768009145114 -0.003641302930241247 -0.09893670556474742 -0.009353472018258785 -0.149990916592989 0.22658628881750362
-0.21838853631009902 0.16725860447466115 -0.07740114248448475 0.17795623610913436 -0.03551159729610644 -0.026085945383409505 -0.05501254517346089 0.17188321865842796
0.0008172344352031489 -0.10944326207827931 0.07153504673323514 -0.013080114467277401 -0.14281366895163003 -2.597934802462492e-12 -0.039400463706261525 0.13744708368881192
0.014000335899725935 0.1872765233787956 0.11843574627293811 -0.11315087892222446 -0.2332797887375796 0.059655687417436605 -0.09095029568548017 0.08786521195725534
-0.1310048586215013 0.008916765180832488 -0.21846398034549253 -0.15268087786577628 -0.18930684670538295 -0.08486703828257096 0.026196805419509528 -0.10097657074897928
-0.08622003912671014 -0.020210976414280123 4.568700467918019e-18 -5.087910184561398e-12 -2.0389230778719427e-22 -0.01150973519805945 0.19739235094556914 0.029565433438227057
-0.05048894030313469 -1.3118901834939547e-09 -0.17889501059839436 -0.06711355575100962 0.13850269360532919 -0.03611839632476986 0.11150659621408003 -0.018390669485451715
-0.2113149565568894 0.20022313578041642 0.2017287774387222 0.19600980623904926 0.05330925196926303 -0.16327377221153372 0.11482314890253799 -0.08863176054938646
0.13607122004398362 -0.0715592965619625 -0.24799040617017282 -8.255634499297893e-12 0.22253638264521677 0.00929124377008915 -0.18447736893533545 0.21913390167201513
0.1752656445329905 0.09034735879396753 -0.07550380627610064 -0.21263233384849883 0.03180151026766609 -0.1733680781131336 -0.03139294822778118 0.05590213646430687
-0.08747480744205237 0.05561521577265915 0.10995549767637966 -0.03719249840685882 -0.041700336884080855 -2.8328782984146335e-10 0.06348828244224641 -0.22582114219509755
0.08898433093128816 0.067686391540747 0.23864669852300383 -0.2072270952146863 0.07563784883919414 0.0876829658810301 0.18461486205230004 0.1744506990260399
-0.08435625717313391 -0.11062137571823953 0.07346568263932574 -0.1486957181923078 0.11638358149199682 -0.15761465226451982 0.13297875213603547 0.02873280052545268
0.2290941472919772 0.00998801456522575 -4.774717078043242e-21 -2.840445771973575e-09 2.8854323633018744e-39 0.25767700285390277 0.2035615725859142 0.23285069675305228
0.24175567492810016 -2.2064612395045795e-11 -7.323791350453274e-05 -0.04040502359290247 0.16303845516773677 0.01626882811233631 0.11039387881993044 0.20162821381525559
-0.23298435202196435 -0.0015211660797241923 0.20190130391824396 -0.15122674863729083 -0.022260030447904748 0.07647061511663589 0.1397986294594972 -0.24369148044008468
0.1484882918628147 -0.14451483726380854 0.013152833314701191 -0.013196827596056048 0.1208439426800967 0.08337789788089103 -0.07215275769391631 0.10886481579599605
-0.12525158285041238 -0.054998715763215605 0.008453231097064477 -0.17125945761171488 -0.019632315616347037 0.08552757527938892 -0.09743383154929622 -0.14973439110950304
0.0624832063894555 -0.18285115004249203 -0.2470874180149833 -0.04084055445166421 -0.11255150468673111 -0.09211728249284978 -0.029570110420227 -0.02147430509991914
-0.1627584905778583 -0.21876371405594908 -0.1787627419772397 0.06996527326939925 0.13483199973511922 -0.3144513331189779 0.15433455063912419 0.007923102595780418
-0.11001936776862392 -0.19878834119703256 -0.1035592517556021 -0.010178375543816023 0.21674144193607642 -0.17095424170068726 0.27148694316100724 0.06785905634995329
-0.24790469069211382 -0.08130386093634558 4.9662445141174774e-23 1.0058066834499877e-09 8.026979892750871e-23 -0.1912153021740445 0.2266096443850369 0.12995628076625185
0.033628510397794506 -2.5430368445500265e-35 -0.0007512360425601125 -0.03853109273036411 -0.04792347343124372 0.27774033269913734 0.036879144350845945 0.18193867610020165
-0.11790082841090087 0.09909334883856219 0.1263009398248463 0.09465914122916212 -0.2259076173562771 0.09294575486683844 0.1458990388130919 -0.23159775810265526
0.1917259512163634 0.04251325881290096 0.3634962447359018 -0.004821521787625217 -0.08885124441546575 0.08344981146738593 -0.1341800308933255 -0.20212267350796254
-0.1411380808857579 0.09223794406468569 -0.2132421388755235 -0.10571783000657133 -0.009335353425625428 -0.10173802154695213 0.24018363445434535 -0.013154223872485812
0.01224755401000671 -0.23394262818456443 0.049848893797017325 -0.02361013691807687 -0.014315613383348903 0.002873612048562052 -0.12243804230229513 0.06927267326492957

arr_1 f8 [64]
00000000: cf88 2294 a1cf 99bf 3477 72c6 2ce8 c33f
00000010: 300f 2e1b c13e b03f 43bf 279c 00e0 9fbf
00000020: 737c 4575 df29 ab3f f734 29d8 cd49 a93f
00000030: 60b7 7da1 44ff c1bf f8ce 275e 4992 c4bf
00000040: 22a5 cb77 ae92 c43f 87da f4e7 3d45 a1bf
00000050: 7456 c9a5 c552 b2bf 7f00 6913 9f78 783f
00000060: f60b 39a2 7f95 c2bf d25d b388 2e9c c6bf
00000070: f30d 7028 f666 b93f cb5e c673 4578 bd3f
00000080: bf52 5d6e ba2e bebf 2a50 6c60 c923 c13f
00000090: b720 6929 5787 74bf ca7e 9d16 4905 c7bf
000000a0: c5b5 55da 76b5 ccbf c689 109c 6c41 843f
000000b0: c7e4 6acb 75a7 a3bf 0e89 0348 0609 b63f
000000c0: 077c de5c 7e50 c7bf 4e93 1c3b f797 bbbf
000000d0: a887 2fed 52e4 b1bf 6406 f925 4f17 b83f
000000e0: 6763 82e1 0e66 bb3f dcaf 53da c327 903f
000000f0: 6b6d efed 406b c7bf ca06 4286 e88e cbbf
00000100: a223 8ae2 f487 b93f 40e0 e4dc 3123 b9bf
00000110: 71b5 5120 ca57 af3f c449 03c2 e85e b13f
00000120: 9e2e 4507 d2cf bdbf 37a5 7953 a265 b3bf
00000130: 7ea5 add6 5065 bf3f 22eb 56eb e761 b33f
00000140: 9af1 c612 eec9 afbf 113a 0c67 f907 ac3f
00000150: 996e 0aad 1a26 b1bf e928 2d97 f07d c23f
00000160: ff52 e502 d812 bbbf 0e36 ed44 1045 bfbf
00000170: 72cb fa39 cbc4 a63f d57a 932d 765f c1bf
00000180: 5037 147a e99e b6bf 100b f08b 8128 af3f
00000190: caf7 1c70 7909 b43f 25ce 84dc 686c be3f
000001a0: 17a0 65e2 29d6 cbbf 2a8a 4f0a 613f 843f
000001b0: 2233 dbbf a133 c8bf f451 64e2 861a 903f
000001c0: 8142 a8aa b0d7 c4bf 5bfc a33b db15 c33f
000001d0: ee84 d5ec 6f7d a1bf 4877 bea9 88b3 86bf
000001e0: 5e4d 498a b1cf a0bf ab7e c2a2 b6bd 7a3f
000001f0: c2d0 01de 51fd c03f 9ee1 8b47 3293 983f
-0.025206112543522615 0.1555229157428869 0.06345755494663474 -0.03112793877693255 0.05305383974586499 0.04939120544131897 -0.14060266385370834 -0.1607143125289594
0.1607263646067532 -0.03373139816760778 -0.07157550141831753 0.005974408521581264 -0.14518733426129388 -0.17664128947102015 0.09922731864212846 0.11511644436393025
-0.117900516457051 0.13390462120207874 -0.0050118832355751574 -0.17984880069979275 -0.22428785000685827 0.009890411865915005 -0.03838699443935805 0.0860752034964529
-0.18214396986601875 -0.10778756325869418 -0.06989019671121233 0.09410566975659546 0.10702603345488414 0.015776691628090464 -0.18296062105114727 -0.21529871516763982
0.09973078280212502 -0.09819327967568459 0.0612166561557882 0.06785444962159831 -0.11645233800407559 -0.07576956308334536 0.1226397060505828 0.07571267600625878
-0.06208747843945446 0.05474833853633155 -0.06698767399432838 0.14446837789211678 -0.10575628348062692 -0.12214757616785496 0.044470167949291275 -0.13572575784106414
-0.0883623049778326 0.06085591157172676 0.07826956736695859 0.11884169944533392 -0.21747325472392795 0.009886510970266011 -0.18907567852002055 0.01572619206224775
-0.16283233960031754 0.14910450374734094 -0.03416013494530455 -0.011084621124435437 -0.03283457577767977 0.0065285810671011175 0.1327307065981867 0.02399900972065582

arr_2 f8 [64, 32]
00000000: 695b e96c 10c7 c23f 90d3 7e89 65aa c73f
00000010: 43ca 015c f18e bebf f0e6 4df2 7cf0 c83f
00000020: ca5d a410 7fcb bebf 0c98 80d9 c0ea a7bf
00000030: 52fa 5fd3 613e 7f3f d3f2 511c 2812 65bf
00000040: f85d 20cb 411f a13a a56b dc3e b38a b33f
00000050: 70d0 7e0f d5be 983f 583e f94b 0d47 b2bf
00000060: 0dc7 b36c a3e6 983f c937 4e6a 2efa bf3f
00000070: d6c7 b884 94bf bbbf 2282 9c0c d781 c637
00000080: bd03 ed60 bab6 9dbf 7ec8 2c15 029c ba3f
00000090: 9ad2 c220 876b cbbf 4199 30db 3290 cc3f
000000a0: c93f 55ee 7ec9 b53f 4bb0 b07b 837d ac3f
000000b0: 8858 ae1d 2c7e 7ebf 0580 89fd cddb c7bf
000000c0: 9648 a6e2 4834 cabf 547b 9c3e 1f31 3bbe
000000d0: 6e70 e3e4 3bec bfbf ed13 34c5 1fa2 86ba
000000e0: 47fb 81a9 70db c13f 2e50 8b4a 327e c4bf
000000f0: 64b1 9d52 6c80 c3bf 3768 b68e 7951 ca3f
00000100: a1cd 28b3 6d00 c73f 584a a40d ebbb c7bf
00000110: a191 4734 b1b0 cc3f 195e 9708 45c0 c53f
00000120: 981e 1774 9ee9 873f b8dd 00e6 7214 b6bf
00000130: fb5d aa32 fd5b bcbf 2824 5748 85b0 733f
00000140: 2efb a376 bd41 f5bc 2b10 18db e1dc c5bf
00000150: b7b7 f875 361f a9bf 408c 17cc 7085 a9bf
00000160: a592 ed5e 1386 cebf 00de f22a eed8 cabf
00000170: 46f6 d64f 7d95 b43f 7694 4e22 febc b83f
00000180: 750e d8ba 43a3 c63f 073a ba81 79f9 a33f
00000190: ed7e 7ac1 a6bd cd3f 7e8e f002 3519 cc3f
000001a0: 0acc bb50 990d c33f 4a50 ba46 c7f5 c33f
000001b0: fcaf f261 3f70 a8bf 83f7 2cb8 3536 ce3f
000001c0: bcae 4cbe 9be8 cdbf 09bc c31e e640 bf3f
000001d0: 15d4 23fa 6c3f a83f 5c05 d088 4c1a c53f
000001e0: 0a10 8adb baa1 a73f 80f7 c7d1 3ddb c1bf
000001f0: 431c 6c7b 1610 ad3f bbcf 1f7b 7ce8 c3bf
00000200: 33c2 4722 daa3 cf3f 15dd 714e 5ac4 b2bf
00000210: cf0d 2b77 e8bc c53f 0069 c01d 1405 913e
00000220: c29e b819 0506 bbbf eb32 cdb6 71a3 be3f
00000230: 71cd d872 e9c6 c93f 3cf6 66df 094a 8f3f
00000240: ef30 514c cf70 1cbe b002 02ac dde1 ccbf
00000250: cd47 ab4f 832c 83b8 8a1d 33eb 5632 3538
00000260: cd76 2d92 fcf4 013d e1f4 1f50 a2d7 bdbf
00000270: a672 73dc da2c c63f 0153 8502 b1d8 643e
00000280: 76fb e4d0 e98a c93f 82b2 4734 49b3 c4bf
00000290: 690c aa15 83fe 8dbf 3216 b77f 61ce c73f
000002a0: 1dc8 0609 daa1 bdbf d8a3 9d12 27d0 c3b7
000002b0: f498 b175 0c61 f6bb 2fc1 bc09 9e88 97bf
000002c0: e016 ed11 07ea c8bf efff 689c 912c 58bb
000002d0: 05bb a65d a4d5 a3bf 0f16 1691 1a5e e0b7
000002e0: f31b 56d3 e561 cd3f a91a 691a 0d1c 923f
000002f0: 32e1 164d 2b09 d23f a59c f9ea 36c2 cb3f
00000300: 4aa9 757d 4fd5 93bf e0e4 c446 5c77 84bf
00000310: 8bbb 93e2 0f5b c3bf a169 f0fe ff26 c43f
00000320: 6939 48e7 2157 c53f 79e1 8248 b959 afbf
00000330: a898 077a f0ee c7bf 7135 de27 a430 863f
00000340: 6cfe 02a7 3c49 e1bc 4543 a2c2 c985 c2bf
00000350: f149 0e63 d8e1 acbf 325b 8676 fe08 c0bf
00000360: 1588 7078 ff05 c43f d1b7 9d41 7be7 b23f
00000370: 2ce9 2f74 5fda cc3f 0620 0895 2045 b13f
00000380: eac8 b283 7ef4 c43f 92f4 8699 2e42 ca3f
00000390: 7a07 e555 b5d5 bbbf 53db 6a42 c2b9 ce3f
000003a0: 3ff4 928f c750 c73f 4b20 320a c320 c53f
000003b0: c9cc 9474 e12d bcbf a4d1 6985 46d8 c53f
000003c0: 187f 760e bc5a b3bf 9ada f90d c741 cebf
000003d0: c961 9912 144c c8bf 9da2 f6dd 1b4e a33f
000003e0: 8f52 6282 705a c23f 3cb4 eb3b 8410 a33f
000003f0: a365 ef7f bb48 bb3f 7008 cae2 dd33 aa3f
00000400: 493f c4f1 6a3f b03f 772b 5557 de5f b73f
00000410: ef80 1bc2 ec57 c63f 4779 4e7a 9c9c b93f
00000420: 0d27 be15 090e cebf f565 01cc 8428 ad3f
00000430: 5335 06b8 4fd7 c63f b253 500e 3ab2 793f
00000440: 44bd b2e0 1b73 f5b7 a7db 99e3 a48b a6bf
00000450: 5af8 132f ea9a a1bf 9d8e c746 b285 af3f
00000460: 05eb 6601 3827 bf3f 0027 2f18 0e98 cc3f
00000470: 3c3d 369d e515 a33f 75a1 6627 610e ac3f
00000480: 5fd7 e5d1 51b6 c53f cb64 18a6 3d9b 93bf
00000490: 6de8 57b1 c068 86bf 30e7 40ac b5f9 af3f
000004a0: 61d4 16a5 c572 a93f da80 5b26 a051 cfbf
000004b0: 9de7 d11d 82f9 cdbf a8e8 7b8e 90f5 c03f
000004c0: 69b2 6dcd 866d cabf 186b 8c71 c07d cc3f
000004d0: 1859 3e57 ade0 b23f ec39 d592 3dce cdbf
000004e0: 3fe3 13c9 9e46 a23f 0663 0f18 53c4 b83f
000004f0: 7626 92c8 069d cbbf 7208 b71f 861a a8bf
00000500: 2aaf e0e0 e099 c4bf d453 91d1 5f5a cb3f
00000510: f20e ebbf 6a03 d03f 1093 08cb bea7 c63f
00000520: 0991 7e10 5ba7 963f 7db9 4da5 1954 c7bf
00000530: 05ac bfc1 0228 b93f cbc4 67b9 73ce 753f
00000540: 5694 b2c0 4d38 cbbd 87cb 2a25 67ce b33f
00000550: 0458 8fda 7f24 a13f 643c 0312 704f a2bf
00000560: 1999 fb73 b975 c8bf 93d0 1f5f 5c59 a23f
00000570: 73a1 00cc 857f c63f e696 2ce4 aa03 c6bf
00000580: 5ffe 34c8 9aba c23f 4ae1 405d 32f9 c6bf
00000590: 58e2 8e72 c027 cdbf 963f 6872 510b c93f
000005a0: aa28 d60b 04b5 a23f 4521 261d a10d be3f
000005b0: 7d92 ab5c a0dd c03f 19a0 7277 8531 933f
000005c0: b2a4 d312 5514 c83f f284 60f1 f7a0 8dbf
000005d0: 49eb 0ee3 8a8c c03f 1cb3 bca3 f31a 893c
000005e0: 7d0b 9750 4f56 c5bf cd22 1cf3 64e2 bfbf
000005f0: aee0 d02a c403 cabf a296 ee5f fdcb a3bf
00000600: f80d 686f 8e3c c23f e865 63ac 64b5 923f
00000610: 41a5 b388 8a02 bbbf ffd2 cd9a 60c2 bfbf
00000620: 77d3 17bb 6bf2 b73f 583e 05c5 256a bdbf
00000630: d458 7e5e 9709 c5bf 1dbb 20a3 cbb8 52bf
00000640: 8c4e 2097 349b 5a38 3d71 7c34 4187 cfbf
00000650: 54ee b0b9 f663 9b3f 0f53 11a6 d92d cf3f
00000660: 9466 92ea a754 af3f dc8e 4d98 8d93 ce3f
00000670: 17db 5fb0 44aa b23f 6c21 7542 22ec b53f
00000680: 9fa0 e7c5 5050 b93f 558c ee58 9494 bf3f
00000690: a684 4217 5f75 d0bf f5ed da06 6212 93bf
000006a0: e8c6 edda a3de c7bf e2c9 4af1 68d1 c03f
000006b0: de93 6959 9fdc c03f 0bd4 0738 aec0 c9bf
000006c0: caf0 3841 d475 bf3f 7db0 6def d86c b9bf
000006d0: 8cdb 1b3c 87aa cfbf 4c4f 6d2c 4732 ffb7
000006e0: 0fea 7cd6 925e ab3f 65ae 305a e6e2 ba3f
000006f0: 4631 f702 afc3 c1bf c481 4eb1 5a24 cd3f
00000700: d411 517e 39d0 c9bf a11f f980 9dc5 a33f
00000710: 0c78 1ee8 71f6 cc3f be17 6a3e b011 ce3f
00000720: d0a0 cacc 2b5e 93bf cebc b279 1316 c43f
00000730: 28e8 085c e73f cdbf 7c12 5bd8 894c 5dbf
00000740: 00a2 4421 4ce6 b9be 57da 1176 b290 a93f
00000750: 1783 8d19 d63e c63f 610c 11fe eafa c13f
00000760: c583 782b 349a b33f 9365 4004 1dbb bebf
00000770: 7a0c c747 12f0 cb3f 7968 fe97 e0ee cb3f
00000780: 8842 62bd dcc6 a3bf 375e 4531 4862 bf3f
00000790: 28cd e49a f63a c23f ae19 7aca 982f 763f
000007a0: b9af 7d48 9aef 8e3f a6c3 eafe cb91 b43f
000007b0: 958c e860 3f4e c4bf be64 7fe0 efca c63f
000007c0: c35e 928e e69b c9bf a107 d295 c55b c03f
000007d0: 66f8 fc08 c7cb c8bf 5f97 303b fd00 c7bf
000007e0: dcf8 f97a 69e0 c5bf a73d bbca 609b b4bf
000007f0: c833 a5e2 23cb c5bf f882 2972 cfcd 90bf
0.14669995611140088 0.1848875924457869 -0.11936863418831316 0.19483911353363892 -0.12029260784435461 -0.046712900686813524 0.0076278516116859586 -0.002572134343209556
2.766224071474736e-26 0.07633514675801097 0.024165467329752166 -0.07139666657280352 0.024317315587672406 0.12491121383047167 -0.1083920311000662 5.167396860409611e-40
-0.029017364660152135 0.10394299523321313 -0.2142189893690059 0.22315059378269989 0.08510583227803105 0.055645092820072316 -0.007444546058556274 -0.18639540557614978
-0.20472060267326658 -6.331103622071133e-09 -0.12469839418503323 -9.141515969451432e-27 0.1395092799829973 -0.16010121002057204 -0.15235666307433882 0.20561141460786
0.17970057724015212 -0.18542230764485867 0.22414221813882043 0.1699301044416053 0.011676061551852343 -0.08624952426259014 -0.11077864157629584 0.004807015070988498
-4.719957143497652e-15 -0.17080329130124147 -0.049066259289574025 -0.04984619609219765 -0.23846666464955493 -0.20974518868546 0.08040602874003708 0.09663379991123286
0.17685743926277878 0.03901271542155276 0.23235020110313745 0.2195192589143637 0.14885250513143006 0.15593806222443823 -0.04773138113645811 0.23602935307456727
-0.23366114418000972 0.12208402873123715 0.04735889962640997 0.1648650806455788 0.04615577630923447 -0.13950321906298413 0.05676336533184003 -0.15553241741110732
0.24718786882250895 -0.07330860533862833 0.16982751673468363 2.5361535249821736e-07 -0.10556060674627601 0.11968146050385157 0.20138280971296355 0.015277936105913097
-1.6554644749379209e-09 -0.22564288042851421 -1.803102882915432e-36 6.229132284064832e-38 7.974500583299766e-15 -0.11657156425640693 0.17324386371810369 3.882954075171672e-08
0.1995517988197794 -0.16172137310731577 -0.014645599459305285 0.18598574386685268 -0.11575091095326724 -4.548863800424463e-40 -7.582332782258168e-20 -0.02298209127838041
-0.19464195609378176 -7.998537695188548e-23 -0.038739334518473036 -1.5031260127099015e-39 0.22955010241659543 0.01768513177583012 0.28180964020022536 0.21686445687666836
-0.019368402512023132 -0.009993287000371998 -0.1512164932568932 0.15744018505286042 0.1667215709025627 -0.06123141298434382 -0.18697935064773685 0.010834963289904494
-1.9191405944437006e-15 -0.1447078895912687 -0.05641056260278166 -0.12527447497697036 0.15643304234350866 0.07384462692218043 0.22541421101761594 0.06746104849310094
0.16371137075981973 0.20514471527522865 -0.1087296805099224 0.24004390948331408 0.18215269575549262 0.1650623130592542 -0.11007508369657439 0.17066270365070324
-0.07560325005624369 -0.23638237173482396 -0.18982172878419437 0.0377052982760848 0.1433849941864946 0.03723538619474495 0.10657855866829506 0.051176961836078116
0.06346767809395461 0.0913065875258051 0.17455825307752756 0.10004594789504494 -0.23480332910212845 0.05694975843716669 0.1784457825237192 0.006273485928450494
-3.9396774222481125e-39 -0.04403414991695991 -0.03438503098185271 0.06156689752586184 0.12169218095997898 0.22339035206669422 0.03727643531885369 0.05479720693557769
0.16962645291249154 -0.0191468842150229 -0.010941987430659073 0.06245200851158328 0.04970376625298268 -0.24467851517602562 -0.23417688804675843 0.13249403912761193
-0.20646748572052623 0.22258763832436368 0.07374080066651734 -0.23285646123481685 0.03569503979264831 0.09674567544369603 -0.2157295684194655 -0.047077361461121195
-0.16094599705081097 0.21369550450131547 0.2502085565758839 0.17699417985672783 0.02212278640912849 -0.18225403377023133 0.0982667658824284 0.005323841140566897
-4.951277589939923e-11 0.07736820847894253 0.033481593541793614 -0.03576231212502348 -0.1910926643678941 0.03583801900086416 0.17576668225343503 -0.17198692456547987
0.14631972099049315 -0.17947988084211836 -0.22777562707576027 0.19565790258684207 0.03653729099740251 0.117395467392389 0.1317635014048796 0.01874359647322885
0.18812049311899198 -0.014467179349653556 0.12928901755170788 4.3550718838912445e-17 -0.16669646678027653 -0.12454825339603844 -0.20323993769284726 -0.03866569324536086
0.14247303428429325 0.01827008535551569 -0.10550752484745819 -0.12405971316713858 0.09354279821111598 -0.11490093288488745 -0.164355202807832 -0.0011426914829930142
3.1275521509507258e-37 -0.24631514609144203 0.026748519023597275 0.2435867367627442 0.06119274843622438 0.2388779634157946 0.07291058832184337 0.08563436625002446
0.09888176757488275 0.1233608929747317 -0.2571637847086755 -0.018624812763603022 -0.1864819354046212 0.1313906839546482 0.1317328631004377 -0.2011926435076535
0.12289167969078388 -0.09931712956830725 -0.24739160952568928 -5.729873473235e-39 0.05345591419468942 0.10502471639545659 -0.13878429074100945 0.22767194421341064
-0.2016670100002914 0.03861705970172059 0.22627090295731056 0.23491480872706733 -0.018913921713335224 0.15692370836538888 -0.22851268762480115 -0.0017882677215520773
-1.5437364072145134e-06 0.04993207637101154 0.173792612530655 0.14046990781398264 0.0765717130784785 -0.12004262307927709 0.21826389794123086 0.2182274572522294
-0.03862657367529204 0.12259341433434022 0.14242441714450504 0.005416485633423935 0.015105443322418798 0.08034968350945224 -0.15863792640547972 0.17806814634130846
-0.20007020913612025 0.1278006536049903 -0.1937187951934362 -0.17971768751265935 -0.1709110117407765 -0.0804958815526705 -0.1702618462244614 -0.01641010412493224

arr_3 f8 [32]
00000000: af23 9fe2 9f27 a73f bf9f 0b4d 9ea6 993f
00000010: f588 2937 b855 ad3f 7d29 21b8 610d b53f
00000020: 6c9a 27d9 e765 a83f 3535 f69b 649e c23f
00000030: 79a9 7451 ed41 c8bf e788 f608 f41d cb3f
00000040: 08b7 81f2 d077 cdbf 3d87 893a 2aa0 b73f
00000050: 8c8c 914e c445 3ebf 3b41 0ba7 5fda ce3f
00000060: d6e8 955a cbff a0bf d97b 83b5 55fb ce3f
00000070: 5608 9d18 b504 b8bf ac8e 9ae5 766d 97bf
00000080: 92b4 82c6 69ec cd3f 6970 d02c edb7 ca3f
00000090: e60e 4d6b 4217 82bf 4aa4 e573 d97d ce3f
000000a0: 1a7b b294 600b cd3f 5553 c274 5ba1 b23f
000000b0: a3c5 140a 34c9 c9bf 5b3b 0a71 95c1 c33f
000000c0: 304b fab6 04d3 b4bf cd03 dced feca 5fbf
000000d0: 776b 4c0b c70a 9cbf fe1a f2cc 3728 aa3f
000000e0: 508b 0152 e08d c03f a1cd 9ab8 dd13 ce3f
000000f0: c5f1 ec23 7ee1 cabf 81be 0deb 9d2c ba3f
0.04522418633820934 0.02504966111419526 0.05729461358420621 0.08223543877935487 0.0476524784642621 0.14545877089805406 -0.18951193311051975 0.21185160100600983
-0.23021900025508324 0.09228767327433914 -0.0004619220986283388 0.24103923469966468 -0.03320155602246337 0.24204512942284742 -0.09382182932771008 -0.022878511203670612
0.23377725785158937 0.2087379902667437 -0.008833426379744446 0.23821561965022148 0.2269097066936972 0.07277461624682975 -0.2014527367805786 0.15434520740060517
-0.08134488551358454 -0.0019404878179900443 -0.027384862961393943 0.05108808876780378 0.1293297195835188 0.23498126520062804 -0.21000649217775283 0.10224329937568123

arr_4 f8 [32, 1]
00000000: bf8c c7c4 31ab d93f cada c551 25de cd3f
00000010: 81cf 7a88 44dd d33f 53d9 820e f6f4 d2bf
00000020: 69e8 8cb8 a7ac c13f 27c6 5c1f d440 b6bf
00000030: 09c5 aa03 29a5 c9bf b96b 5fc5 3c44 a53f
00000040: dfca ab53 f746 22be bc3c 16b7 576d d53f
00000050: add0 35c1 abd8 c13f f6bb bc6b 53f6 cb3f
00000060: 3b06 3818 57a4 9cbf 7855 3449 6979 b9bf
00000070: 907f dd15 bd8c d7bf 3e40 2b68 e7bb ca3f
00000080: 5bc8 4573 282a c6bf 749c 9d4d 31fd b93f
00000090: 253b dbef 275d c03f c920 0d56 6597 d83f
000000a0: 6bf4 e57c 6fcc d0bf 67b2 089d cc6e a63f
000000b0: 0baa 1f8d 4a80 d43f b81f 6da6 23c3 c43f
000000c0: 3430 cc52 f425 cb3f 1586 cdde 1f11 b2bf
000000d0: 1e97 86d1 b58e c53f bb57 9b42 9214 d43f
000000e0: 3f2d a180 d0d9 d8bf 9919 4739 831e ae3f
000000f0: ded0 15fc cf2e c33f 25a9 d227 03e7 d6bf
0.4010738774943085 0.23334185116592315 0.3103801091012813 -0.29620124261000064 0.13808151732684174 -0.08692670598681983 -0.20035278967910866 0.041536234944679014
-2.127747448170849e-09 0.3347987449605616 0.1394247716340308 0.218454768758846 -0.027970658162308686 -0.09950883900849827 -0.36796500335003035 0.20885937296270812
-0.17316156033081395 0.10151966233171256 0.12784289561974407 0.3842404690117403 -0.26247775265785006 0.043814081353365 0.32033027440653034 0.1622051775577782
0.2120957760129173 -0.0705737990333762 0.16841767054318607 0.3137555742699722 -0.38829433976635025 0.058826542608176165 0.14986610230301428 -0.35784987343744695

arr_5 f8 [1]
00000000: 6aba db31 e93b cd3f
0.22839083609092664
