weights/global_round_22.npz (npz, 129966 bytes, 8 tensors)

arr_0 f8 [43, 128]
0	0x4045c0231287d5c4	43.5010703242547
1	0xc025ec71663f4d7c	-10.961802668788316
2	0x403c8032e8ee16ce	28.500776823165147
3	0x4035906963e01cef	21.564108125891774
4	0x40223eab0e7f9639	9.122398808550416
5	0x4032bbe9d9cb38e0	18.734037029375827
6	0xc026fb30935f5f28	-11.490604977981619
7	0xc0234a9699266acb	-9.645680223407359
8	0x4033fe4c1c743dbd	19.99334886396331
9	0x4024bcfb99ca04a8	10.369107061300681
10	0xc01b70f4a320fe94	-6.860308216942617
11	0x4022756ac226027c	9.229330126895768
12	0x4037344f27a403c9	23.204332807104752
13	0xc02679522e217c32	-11.236955110156575
14	0x400c66f476421b0d	3.550270961658845
15	0x40223a127cbcdd7e	9.113422296576342
16	0xc040ef1df97d6792	-33.86810225127478
17	0xc01ca90afbcd0223	-7.165080961597172
18	0x401292ba285b8baa	4.643288260066507
19	0x3fe92913a3e71f53	0.7862642480113017
20	0xc0317a7e50412582	-17.478489890961562
21	0xc00d949006e2d9bc	-3.697540334508828
22	0xc033940849258b53	-19.578251430193017
23	0xc0396ad554d8bd24	-25.417317679323915
24	0xc03d0e2961d91176	-29.055318942542236
25	0xc031e84225e3c00a	-17.907259338477196
26	0xc03d28813f95d30b	-29.15822217376539
27	0xc01e9ea9e45d9168	-7.654944961749017
28	0xc0369c4b5e72aaa9	-22.610525038714204
29	0x402359fa4e3c23a6	9.675737805215089
30	0xc03ba9327806df4e	-27.660926343610576
31	0x4020067a98a40525	8.012654085180268
32	0x401831c079e7ff6d	6.048585800919551
33	0x4024e416bd1661a0	10.44548598192415
34	0xc0338f72c3580c52	-19.560344895359158
35	0xc0238e8d1e285f2d	-9.778420393398472
36	0x401c1dcb28ce0e4c	7.0290953040853985
37	0x4031496ea1b4e2ab	17.286844355260353
38	0xc031b605cac46e72	-17.711025879818813
39	0xc02a1c6334f0a511	-13.055444387794099
40	0xc01c2f9aacc96200	-7.046488475600654
41	0xc03167b66cf55455	-17.405127344031218
42	0x4035653da9b3ec35	21.395472151209294
43	0xc0169ae1e1506394	-5.651252289325289
44	0x40410047ef6bfbe0	34.00219528935099
45	0xc02a93fc2fde118f	-13.289033408983213
46	0xc02deb60c8480cf5	-14.959722765727273
47	0xc00807468332ad92	-3.0035524606552793
48	0xc02dfe79b26f8da8	-14.997022224538185
49	0x403d889f6c7beea7	29.533682613617795
50	0xbfe6a31cfa87fcaf	-0.707411279028653
51	0x400bd56c8ec8e278	3.479210963731301
52	0xbfe4d4e4975ba678	-0.6509879070483313
53	0x40206b5259746e92	8.209612651312714
54	0x404a36c65dcac434	52.42792866135315
55	0xc02d715c34eb5557	-14.721406606414048
56	0xc014a01d1e17c139	-5.156361074638249
57	0xbffc7cba9000e890	-1.7804513573778742
58	0x4014bc272b313826	5.183743166808233
59	0x4002a6d4162902c0	2.331459210516499
60	0xc03ee26283b98717	-30.884315712733123
61	0x404015e8f657e7a8	32.17117194454414
62	0x402b647f6fbe677c	13.696284763329224
63	0xc0140046d80a917a	-5.000270248074566
64	0x40432111c54fdd7e	38.2583548202483
65	0xbfdc51ff82942e80	-0.44250476600493727
66	0x4044b3dd4f7e7cb0	41.40519136119963
67	0xc041c096102e759f	-35.50457956570175
68	0x40203a86ff50e2c4	8.114311197875743
69	0xc02962aeaa534c85	-12.692738840740512
70	0x4035ef88776ff9d8	21.93567606433666
71	0x40346d6f3f059d7e	20.42747873198595
72	0xc03d4d00b895b31f	-29.300792252109314
73	0x3fb8604f68866548	0.09521957685355631
74	0x40337636a1f117d0	19.461771127091026
75	0xc03b1b980fb47698	-27.107789022024548
76	0xc040d0a9c789a7da	-33.63018125745266
77	0x4047df6ca0dae330	47.74550257385124
78	0x4006fba4ae867d08	2.872872699240933
79	0xbfe57bfd046f0a60	-0.6713852964970322
80	0x3ff275884d7921d6	1.1536944414420893
81	0xc02aa29807177b26	-13.31756612931856
82	0xc001a3a34eaef64d	-2.2049013278145027
83	0xc032ebfb7b673cb0	-18.921806061462746
84	0x403188ec7f2d97f3	17.534858654624212
85	0x402099b508bdcba4	8.300209305923836
86	0xc01e9e1030739de2	-7.654358632141767
87	0x403a643c0317e8a2	26.391540711724367
88	0xbff797aeb349be4e	-1.4745318416061255
89	0xc02a9b476df4fff5	-13.303279338986593
90	0x400a5f504a6b1151	3.2965398610996677
91	0x4017c221da4bc8cf	5.939582262874139
92	0xbfe7474a9d5606d0	-0.7274525711984214
93	0x404c1c8e4181b2e0	56.22309130509325
94	0x4031eba5835adb9c	17.92049427955827
95	0x4049a57142a520aa	51.29251893103476
96	0x402d838989a47015	14.75690870411203
97	0x404042de3a62784e	32.52240686233618
98	0x400c39bbb904c539	3.5281900839405833
99	0xc006d26c8ff79152	-2.8527461287905362
100	0xc03d57650a05c453	-29.34138548508447
101	0x40408e37f8e60f5d	33.111083137830725
102	0xc04e2fa3aa32b060	-60.37218215441749
103	0xc03df112b4ac4ede	-29.941691677157785
104	0x402b9e7a2684a390	13.809525684062265
105	0xc014681e24aa8777	-5.101677487285875
106	0xc025daf8c5fe2f5c	-10.927679240492289
107	0xc028066af11d0f1a	-12.01253465156292
108	0x4027164c9a9a7c47	11.543553191526497
109	0x3feb17dd2777b530	0.8466630717136123
110	0x40428f454c0485dc	37.119302274902765
111	0xc0349fb87ee5cf53	-20.62390893087952
112	0xc00c67665eefc812	-3.550488225643684
113	0x4042cefe9655ca12	37.617144386185956
114	0x402706b48f8293f8	11.513096317949007
115	0xc02f175293313824	-15.545551872022834
116	0x403296187aa92e2b	18.58631102209453
117	0xc01d24ca4162e59c	-7.285927793179692
118	0xbfe8f125ce6423f0	-0.7794369727208714
119	0x403e18e0511640f4	30.097172801907575
120	0xc040f2f305cee7c3	-33.89804146387862
121	0x4028a1d41e95f580	12.31607146816782
122	0xc015c64163c863de	-5.443608817201463
123	0x4036b05ec43bfedc	22.688946022651052
124	0x401f999f365aa00c	7.900021409303019
125	0x3fe33e3641e22988	0.6013442312990245
126	0xc04320827e85272f	-38.25398236753096
127	0xc02cced95e3c0cd9	-14.404002137022347
128	0xc0243df9fadcad57	-10.121047820509075
129	0xc033d85f73977f23	-19.845206474768144
130	0x40408645c344fd4e	33.04900399082781
131	0x4026fd7c467610ac	11.495088769829032
132	0xc00118d16cbb08b0	-2.1371181959703662
133	0x40223aa641a10530	9.114549685388369
134	0xc03fd41f7d4f3f0e	-31.828605491492503
135	0x40352e1408858f97	21.179993183715478
136	0x400a593fc5d83f7c	3.2935786682718895
137	0xc03dcd3696729352	-29.80161419198277
138	0xc03de36213dad1af	-29.888215294764162
139	0x400bdab2696e1bc6	3.481785606072182
140	0x40382aeeb37d1d89	24.167704790158982
141	0x4023c66607544e74	9.887497166673008
142	0xc017404a621a4cb8	-5.812783749442296
143	0x3ff5ebdec3adca24	1.370085491533822
144	0xc01730873e95ec3c	-5.797390916729508
145	0x404add407542bf62	53.728529603568646
146	0xc02e6995502c46f5	-15.206217294125489
147	0x4032c2e1d61c7d0c	18.761258489566032
148	0x4031727bf0ccbed9	17.44720368384046
149	0x4040b9a5bf88031b	33.45037073270051
150	0x3ffc441ed6a41540	1.766630972329338
151	0x402af1685cbfa9d4	13.471499346157465
152	0xc01affe0ebfcdf9a	-6.749881446179552
153	0x40232899e0df0d8a	9.57929899905027
154	0xc038b885a5b3af5d	-24.720789295547878
155	0x4037d00bc14429cd	23.81267936624663
156	0x40446b36153ab7be	40.83758797995641
157	0x4038b070959f57c5	24.68921790256697
158	0xc026d0afcea905d7	-11.407591302998226
159	0x402920d2c2352823	12.56410796069037
160	0x40307f9b0967165f	16.498459422748393
161	0xbffd530a9091174a	-1.8327737471713186
162	0x3ffc3b670b22e838	1.7645025668157484
163	0xc02168849fec386a	-8.704136846147055
164	0x40361b384f5910e5	22.10632797169173
165	0xc04d553c0e397863	-58.66589525037923
166	0xc03b3500d7ead623	-27.207044119675754
167	0x3fc260bc790d45e0	0.14357715521559467
168	0x403d198d6c36d333	29.099814189324388
169	0xc030314230472096	-16.192416207661687
170	0x4034cdcfd6d727a8	20.803952624824575
171	0x401a58eaeeedbe5a	6.586833699475017
172	0x4022ddd397d888d2	9.433254952604702
173	0x4026c46a1c245400	11.38362205451449
174	0x40377dff932835a1	23.49218101245572
175	0x401ffaf8f7a9ea9d	7.9950903603991295
176	0x402e14a31500a176	15.040306717230788
177	0xc00c7b533a3eb6a4	-3.5602173376453994
178	0xbff29c7ab96f1d40	-1.163202976562232
179	0x403431f7d55726a3	20.19518788697918
180	0xc010d73978cf9f97	-4.210180175468756
181	0x4048ecfbb58cb448	49.851431554511294
182	0x403e805ebf2c1176	30.501445720919456
183	0xc011d491dc89ccbe	-4.457587667379981
184	0xc0171cfa366becf4	-5.778298235261207
185	0xc0404a4524fdde7f	-32.58023512264207
186	0x400d255d10a657f4	3.643243913723376
187	0xc035dfcbf7863c93	-21.874206037781345
188	0xc03e5e2ee3a5be55	-30.3679029731414
189	0xc037074b5aa08e91	-23.028493560980284
190	0x40412a68659f04d0	34.33131094231214
191	0xc028856ca38825c2	-12.260594473237578
192	0x40488b8b21f52525	49.09018349142051
193	0xc040a56b1b61647b	-33.29233114486211
194	0xc044f19aee31274c	-41.88754060173105
195	0x40037bf0be8dd872	2.4355177771604355
196	0xc0122d862b52db47	-4.544457127506411
197	0x402bea5a4ebf4b43	13.95772024235851
198	0x4021b2dcd6fdd690	8.849341124044514
199	0x3ff8840f7e05432a	1.5322413370779011
200	0xc038087fc903bd15	-24.033199847615
201	0xc044bc0c57491cff	-41.46912661619171
202	0x403836db1782e9ea	24.214280576192245
203	0x4031f1d90df17962	17.944718238309527
204	0x403d1b0f2fe4dc48	29.105700486539973
205	0xc0465ea322c6291f	-44.73935351062595
206	0x402326ec6ac18ee3	9.576022468688683
207	0xc0153176cf7f2ad8	-5.298304788719825
208	0xc03258c7acbc4191	-18.346796794854132
209	0xc02fc5b59a5b077e	-15.886151145565005
210	0x400f736816d81258	3.9313508782090985
211	0xc0403249ec66c2ec	-32.39288096444747
212	0x4025118b356f6b16	10.534265203333728
213	0x4036f642eefcda95	22.961958824855703
214	0xc03170d32272a13c	-17.440721657739445
215	0x4049ddea8ea25dcd	51.73372061660812
216	0xbfeb9bb3f6339508	-0.8627567108748346
217	0xc02a344c5e4a2dce	-13.102145144038243
218	0xc04606879c343937	-44.051013494014505
219	0xc014006cd0a270b9	-5.000415096201487
220	0xc03a3b0a2ba9a3ad	-26.23062394038759
221	0xc0212a81af5badcd	-8.583020667973779
222	0x403291dc6abef207	18.56976954614404
223	0x403377f6da39bef0	19.46861041936694
224	0x40112181280b25c7	4.282719255142587
225	0x401543f4b859ab7f	5.316363220665948
226	0xc02ab8c50ce2b598	-13.360878374742967
227	0xbfe463640facb410	-0.63713267384958
228	0x3fffa40b0adb8b50	1.9775495933651719
229	0x40364f74a9c98a72	22.31037388964109
230	0x403378471c1458fa	19.469835047691028
231	0x4010b18f5a21174c	4.173398407239642
232	0x40484672f7fec469	48.550383567236004
233	0xc02c963f7e793ef0	-14.293453171062964
234	0xc04218ac22635ca0	-36.192753122822296
235	0xc0114324dc7381ce	-4.31557030158042
236	0xc039a5a3dcf76fbe	-25.647031603249836
237	0xbfe3d18f2ba46f59	-0.6193309643162862
238	0xc019acf1d992771e	-6.418891334118397
239	0x4034acb65f28d408	20.674657771556696
240	0xc0243ba7ecee3522	-10.11651554496581
241	0xc042a6afc78b86ff	-37.30223936379297
242	0xc038ed42d1eaad0e	-24.926800842088646
243	0x404120b944244bd4	34.25565387508655
244	0xc02aa53f5cc9258a	-13.322749042085679
245	0x4048d08d4da7396b	49.6293122355008
246	0x4037223cfd6b9528	23.133743132367414
247	0x4042b7be88f8f43e	37.4355021682354
248	0xc02affca6f35777b	-13.499591326977443
249	0x4025d8d3c7bfacd4	10.923490755222169
250	0x403ffeb7a56e6d82	31.994989718875793
251	0xc0257dd28fb2794a	-10.745747080360747
252	0x403cfd8a42fa54d3	28.99039095508199
253	0x4035a26bd421715c	21.63445783440089
254	0x404ad39159c72d59	53.65287325120398
255	0x403d2b4dbac79e03	29.16915480969875

arr_1 f8 [128]
0	0x402bc7b36e3d25e1	13.890040821995116
1	0xc03b0610667e2138	-27.02368774966564
2	0xc0464911091f22b7	-44.57083238621038
3	0x40424353d4ed930e	36.525995841982976
4	0xc02818258a76c9c9	-12.047161414146915
5	0x40288b9b379853cf	12.272668588013316
6	0x40130719af9a849e	4.756933921628983
7	0x401abae2bbcef5d6	6.682505545145849
8	0xc02c2abd069296b9	-14.083473401445518
9	0xc006ead2b5932b3c	-2.864659708551157
10	0xc01275cdd978d583	-4.615043066024898
11	0x404292910281e458	37.145050347732365
12	0x402b3e887a28cd52	13.622134988289563
13	0xc0294be0152d8ded	-12.648193990527
14	0xc0315a3d38fd2442	-17.35249668293205
15	0xc02d2cc56a79e048	-14.587443663957075
16	0xc007d3a0d8f09cf5	-2.978334135859422
17	0x4016a58492e2bb05	5.6616385413060515
18	0x401363607ae03378	4.847047729429384
19	0x40452b279119fdb2	42.33714498299686
20	0xc03011a75a3b3c98	-16.068959845983585
21	0x402b43f7b7c7be70	13.632749312527466
22	0x402af80869e2982e	13.484439190779167
23	0x401ea5e4f9ad62d4	7.662006283958096
24	0x403558b282db0b8b	21.346473864057355
25	0x403595dc4a2a4736	21.585392604181116
26	0x403dfc7e3940ab0e	29.98630101994336
27	0x40103456617087b7	4.051110765927596
28	0xc01ec8f9dae2ac14	-7.696265621266338
29	0xbff0c1f05268eaac	-1.0473483294614807
30	0x40318c787345643a	17.54871292537812
31	0xc03818a5909ea6ca	-24.096276320203096
32	0x4000bcbbf076d048	2.09215534079161
33	0xc022c47b8f46fd8f	-9.383755185523823
34	0xc0301995b85b27bd	-16.09994079804868
35	0x401fae03d959aed4	7.919936557864009
36	0xc04105bb83c5fd01	-34.04478499572179
37	0xc038a34263f60aff	-24.637731788224297
38	0x4003bbe524670a26	2.466745647806664
39	0xc02d92cc81e15ef2	-14.786716517220587
40	0xbff9a8a4bd53ccba	-1.6036727328872034
41	0xc026a6b1c5f19d93	-11.32557505201729
42	0xc033591ed42c0cef	-19.34812666011288
43	0x402f3b4f174fe411	15.615837791921907
44	0xc01e5aef41e598b5	-7.588803319586238
45	0x403b72314a8a6fd4	27.446064623640112
46	0xc035e42cabb50c79	-21.891306621266697
47	0xc048711049d9d6ab	-48.883309584967115
48	0xc04154b82f529ab6	-34.66187087567725
49	0x4032a108e1a36dc3	18.629041769408797
50	0x400be01cbd5a8440	3.4844298165558314
51	0x4035e0a9adcefb18	21.87758909514659
52	0x40008732ba1a2832	2.066014722750901
53	0x3fdc560bcdc42e20	0.44275183767669724
54	0xbfe13d3291497818	-0.538720401538515
55	0x40230cc013fe7e2f	9.524902939620999
56	0xc04556540908688b	-42.67443955336156
57	0xc03b91f8dda822d5	-27.570203641461223
58	0xc00636377c030dbc	-2.7764730156356716
59	0xc024665d405e35ec	-10.1999302020076
60	0x403427d443cfde05	20.15558265519032
61	0x4017c7321111f68d	5.944526926728611
62	0xc04059e4b20e0f0c	-32.70229173361267
63	0xc00504320cbc7278	-2.6270485873231415
64	0x4015c6bfe4cee4ce	5.444091391685289
65	0x40213e318bad56c3	8.621471753034148
66	0xc02ddb332f2dc3ac	-14.928124880157917
67	0x402a2251e2c08384	13.067030988693439
68	0xc024c90ffbc24afa	-10.392700068919556
69	0x401241dfc06d75a9	4.5643301073845715
70	0xc0344eefe1848ee4	-20.308347792494615
71	0x403b0e3798fe56c2	27.055535852522333
72	0xc045abac99fa5393	-43.341204879026144
73	0x3ff0c7c963333ef6	1.0487760424620638
74	0x402bfc28973cf5a2	13.99249718302855
75	0x40368500afba84f0	22.51954172424024
76	0xc04076a8bc1eda7a	-32.92702437883868
77	0xc0366014d181d886	-22.375317663384088
78	0xc0497665b5fd5354	-50.92497897023591
79	0x403cdb936f13e02e	28.85771841273543
80	0x3fff83c562f5576c	1.9696706643639699
81	0xc03204ecb509beb6	-18.01923686492838
82	0x4009ee40c0a41ad6	3.2413344431000537
83	0x403daf2e7c7c4bb7	29.68430307421269
84	0x4024248da403d77c	10.071393132657015
85	0x402fb988ea4d3f23	15.86237270539238
86	0xc02d4276f7362247	-14.629813886030332
87	0x4034862bd505bc64	20.524106325054518
88	0xc042467f34d568a6	-36.55075703068114
89	0xbffedd4732161370	-1.9290229755872268
90	0xbffc4e6766714f6c	-1.7691415788330813
91	0x4041fbda2aa9d716	35.96759541790941
92	0x403cbf01cd240b65	28.746121236133508
93	0x403137a66f385ac5	17.217383338221016
94	0x4026bdb78fc35408	11.370541088670521
95	0xc00f82d63fad4482	-3.9388852095367506
96	0xc02fdf34898d0920	-15.935947702852502
97	0x402f410fd2f9f0fa	15.627073853502669
98	0x4020651346aa599e	8.197412689490019
99	0xc030e35a3355feb7	-16.888095100874775
100	0x4032fe01cb7462c2	18.992214885630126
101	0x402dc61aaf077a65	14.886922330534796
102	0xc01efa1be63c9cc6	-7.744247052621352
103	0x40362c064e842127	22.171971232660464
104	0xc0402c3d73ba4f59	-32.345625368091255
105	0xc00f1d55e19baf40	-3.8893239617954407
106	0xc042519fe530b705	-36.637692116533835
107	0xc03dfdf24e9111c3	-29.991978559892015
108	0x40361e347e6d1b7e	22.117988492620036
109	0xc008d506dd6b8117	-3.1040170000488945
110	0xc013feb2baad5622	-4.998728672818773
111	0xc0400ed3daf9d730	-32.11584031295058
112	0x403fa7b98e058e45	31.655175091129667
113	0x4042f23e5d9dae92	37.89252824973404
114	0x4034d2014a67c7cc	20.820332193696046
115	0x4030c7e1e4c58b82	16.78079061339259
116	0x4007bbfcf0f27926	2.966791040801712
117	0xbfff63ca18f28e54	-1.9618626570235351
118	0x4036d8a562e671d1	22.846273595105064
119	0x40134b23f053c886	4.823379283059813
120	0x404e2a884cdac745	60.332284552407636
121	0x40464ed5ec3751c0	44.61590340329303
122	0x40203326a90f640f	8.099904330376402
123	0x402ee13db6814c6a	15.439923957141406
124	0xc036c317c48c12f6	-22.76208141727235
125	0x4024d6ee86c51c1e	10.419788562356242
126	0xc03d3304bfb393c2	-29.199291211454472
127	0xc0176ad484416fc2	-5.854326311582499

arr_2 f8 [128, 64]
0	0x4031fdb0e597e476	17.990980481703865
1	0x4016067930763d1e	5.506321675507278
2	0xc01050bfe6f33ad2	-4.078857048602645
3	0xc02057433be379da	-8.170434829252304
4	0x4024667cad7a9b48	10.200169964996931
5	0xc010676c4f19f596	-4.100999103507453
6	0xc01122619187f2d0	-4.283575319216382
7	0xc021753ecb7225a3	-8.728994710620844
8	0xc041a5bd5bd78533	-35.29484127067044
9	0x4043ab8f310d72ba	39.340307361189346
10	0x4010536c29ccc7ee	4.081467297672118
11	0x404307886c7a7d24	38.05885082226658
12	0xc024d6f347b343bb	-10.419824829705126
13	0x40367d0487c1062f	22.488350376725233
14	0x402fa054fd66a018	15.813148421075354
15	0xc0317ff0f37329aa	-17.499770370117098
16	0xc043c5f83cbc2ff7	-39.54663809956394
17	0xc0445101b9212c05	-40.632865086743585
18	0xc004e8b7df08c64e	-2.613631956534653
19	0xc039845b3b7ac7e3	-25.517017095065864
20	0xc03b79b4634e7a8f	-27.47540875116334
21	0xc0186e514b7c00c0	-6.107731990283526
22	0x4023dbd2c84011a2	9.929342515774639
23	0xc03110e178086b7c	-17.065940382056837
24	0x40153e3b4a04405a	5.310773045072063
25	0x404050ccfa277c7e	32.63125540664713
26	0xc00a5b1eda2801be	-3.294492439599906
27	0x400f2a322eea9daa	3.8956035294865687
28	0xc035f899462e985e	-21.971088777900484
29	0xc0168389327eea6a	-5.628453053470915
30	0x40156a87c5afc378	5.3540335548904
31	0xc015030df59af21f	-5.252982938367977
32	0x4035940831868391	21.57825002225906
33	0x403d0b32de81dcbb	29.04374495192017
34	0xc031176252460d29	-17.09134401521911
35	0xc04803090ea1f19d	-48.02371390254414
36	0xc02770f9041d4f72	-11.720649841859743
37	0x4009b0622f13feea	3.211124770925257
38	0x4030d4d57c64f60b	16.831382536553104
39	0x402e0a5e05c64c34	15.020248585182436
40	0x40477cc44bd769e8	46.974740486319035
41	0xc04315ab9bc8799e	-38.16929957665273
42	0x4023b356e0fb4e88	9.85027220790586
43	0x4030b27b0d899fa0	16.697190137958046
44	0x3ffa455e82cb02b4	1.6419358357526734
45	0xc03072217434fa2c	-16.44582296651258
46	0x403e4ab6ffe4a738	30.291854852031264
47	0x4040707ac248cf9b	32.87874630503867
48	0x4032887fadfa4d82	18.533198236092638
49	0xc02406b69e99d6ea	-10.0131120264809
50	0x40048675b5245c56	2.5656541969033624
51	0xc030b94f4a8f052b	-16.723866138379133
52	0xc031b5ae6f663e06	-17.70969291921758
53	0xbfc7b6bcaa0babe0	-0.18526418974883452
54	0xc014dc4ff932025c	-5.215148824384041
55	0x40101627b3a382d2	4.021635825018807
56	0xc035b0e5a18523aa	-21.691003890042033
57	0x40065074cdaca96f	2.78928528483555
58	0xc0222e719f02e8fa	-9.090710610490067
59	0x4017c08de0f69f4c	5.938041224529865
60	0x40300b966d05aaea	16.045264066585254
61	0x4024a4c732f88a1c	10.321832268561643
62	0xc01c2bf309c8eec8	-7.042919304741822
63	0x40343ed9a277d60e	20.245508341080544
64	0x4021ca0b34313d32	8.894616728792787
65	0xc04a429904a3e628	-52.520294742611725
66	0x40240bd7b47cb26c	10.023130073758885
67	0x402081336036f04c	8.252345091539745
68	0x4030766fbe8c9c8e	16.46264258320712
69	0xc011289677ef47ea	-4.289636491756008
70	0xc03609b3505e7145	-22.037892363602868
71	0xbfd7615d47a29800	-0.36531764979952186
72	0xc02ce83527e71f58	-14.453530547106922
73	0xc02d8d246bff5bde	-14.775668501779304
74	0x4025aecdbed91790	10.841413463593
75	0x400f62a008317e28	3.9231567993263248
76	0xc0221dd002c0d4b8	-9.05822762111562
77	0xc043873628d015e6	-39.05634031448771
78	0x400d3e907e8e2348	3.655549038613035
79	0xc030ad7ea4124ead	-16.677713636846125
80	0x4025a9654593d404	10.830850767417367
81	0xc028192c49c65478	-12.049166017017555
82	0xbfbe93b003547060	-0.11944103318495669
83	0xc043f6310e126981	-39.92337203883199
84	0xc01c82347200de9f	-7.127153188040807
85	0x4002c0eb31d3fd56	2.3441985981768694
86	0x403c0d072024cb35	28.05088997743879
87	0xc0417afa5b13ad3d	-34.96076525173928
88	0xc01b55ef0af7b05c	-6.833919688575488
89	0xc0076e7740e210e8	-2.9289383954038506
90	0xbff06487f98a3a38	-1.0245437381414728
91	0xc0411aeb9448aab9	-34.210314307672384
92	0x404a27d692446607	52.31123569812558
93	0x40214f1164341302	8.65442956100151
94	0x4027af584419ae9e	11.842470291266462
95	0x4034fd1fb556cf6c	20.988765081113726
96	0x4036e19da0f5c6b4	22.881311473850204
97	0xc027ec3c4b068643	-11.961397499605601
98	0x4026f7a44702e5e0	11.48367521200538
99	0xc03a268cf125441d	-26.150588103864823
100	0xc01e65c7fbc9880a	-7.599395689177991
101	0x400a6061266050fd	3.2970602987426205
102	0x4031552431bba359	17.332583530721738
103	0x4032048402fae0dd	18.017639337777712
104	0xc02c99e40ebe65ce	-14.300568066350845
105	0x40379548a6003771	23.583139777233956
106	0xc017411fc4eb2da0	-5.813597752432003
107	0xc02575a0a995d009	-10.72974138215797
108	0xc035ac0aefc7b81a	-21.672041879901464
109	0x401ea8cc8fe6dfe9	7.6648428425469115
110	0x4025abc9378a4236	10.835519538523936
111	0xc03bc4fcbcf882a4	-27.769481478377784
112	0xc029a8600ffb1345	-12.828857898138844
113	0xc031ec20b543a277	-17.92237408543812
114	0x40494832f4ca052e	50.5640550600459
115	0xc01ff09d2c196ef8	-7.9849745646022185
116	0xc018707d08f557b0	-6.109851970648307
117	0xc004c7da2738ea12	-2.5975840629810216
118	0xc045c66b46e2fd98	-43.55014883121038
119	0xc0103650297e23c3	-4.0530401690711555
120	0x402c78f92937ed70	14.236275947644316
121	0xbff6fc1eebb2ec4c	-1.4365529257763852
122	0xc008adb81158b6a4	-3.0848237376402086
123	0x4038b4ece3ca2371	24.706739651537138
124	0x4035d1b11c48d973	21.81910874155569
125	0xc0308841596a9143	-16.53224715091461
126	0xc0302317bbcc08ba	-16.1370808957224
127	0x403accfb37f9efb5	26.800708292502993
128	0xc016ed2e1bfc43b2	-5.731621205589294
129	0xc00a2787cb3303b1	-3.269301974768006
130	0x401a0d51b1c3b12c	6.513006951874825
131	0x4042e9fd0d13958c	37.82803500610598
132	0x404237c88de10f87	36.43580792893686
133	0xc01d664f1cf2c1b9	-7.349911167446799
134	0xc016e3350c05f19b	-5.7218820456149855
135	0x403ab8fe472ce582	26.72262997480494
136	0xbff378cba13f1d30	-1.2169910715763983
137	0x4034b0b9d4f7fdb5	20.69033556990117
138	0x40176d71d7078b40	5.856879577479788
139	0xc0319126a136f125	-17.56699569312436
140	0xc033a2316fb51c6a	-19.63356683894782
141	0x400258202b38b6e2	2.2930301071818215
142	0xc02820335fa686e8	-12.062891949728012
143	0x40386088e70d8935	24.37708896713703
144	0xc02d3accb2427a5a	-14.61484295903681
145	0x400227502a5ea038	2.269195872318985
146	0x3ffdc6339c0a7508	1.8608890624375949
147	0xbfe8ffa0ac847b2a	-0.7812045449717051
148	0x40144fb12df9db82	5.077824324011887
149	0x401c4015535dc221	7.0625813508964095
150	0xc030dc92ae13dfc7	-16.861613159038622
151	0xc0361d673c5a549b	-22.11485650258383
152	0xbffff09e457b430a	-1.996244689380719
153	0xc02d4353bfd0a554	-14.63149833127924
154	0x3ff10b47bb7042f8	1.065253956014372
155	0x40086b74b3c181e8	3.052468685477141
156	0xc03db38fa48f307e	-29.701410565336566
157	0x40437f070595cfe2	38.99240178885499
158	0x4019fbd310d08f40	6.495922339181391
159	0xc03c0421c3a014e2	-28.01614020021669
160	0xc0424f72fe2f5c60	-36.620696805119906
161	0x3ff90f5bffcbe8bc	1.5662498466540873
162	0xc02b92e25429b1d0	-13.786883001413031
163	0xc01f68d28887aaf4	-7.852365620880608
164	0x4037efdb4cbeec14	23.936939999210225
165	0x40442a0ec8ae68f9	40.32857616916767
166	0xc04fbfa8e42b29d9	-63.49734165294257
167	0x4018fdd8f5c4eef6	6.2478979493569025
168	0xc035aed498ef6e61	-21.68293147893417
169	0xc0240acd9a49bd84	-10.021099874021054
170	0x4041c04e0fbad752	35.50238224623776
171	0xc041942ed0bf52ac	-35.15767869321766
172	0xc0011436a57fadf2	-2.134869854887932
173	0xc03150b7d98f6754	-17.315305325995112
174	0x4009d444ae514650	3.228646623473459
175	0x3fe965a8a0d881a8	0.7936595098035939
176	0x402358d7f35ca022	9.673522572571589
177	0xc031e4ec8f16f5ad	-17.894234603028668
178	0xc03ca19504de230d	-28.631180099709173
179	0xc031c4e7ca3b6cd0	-17.769161834247654
180	0x402f8f3ce5712c8b	15.779761476578889
181	0xc02d9691b946e088	-14.79408053388785
182	0x4036f254dbb8dc0e	22.946607334739433
183	0x404081da21ce8cd7	33.01446936212022
184	0xc02ec80fbf8d321b	-15.39074514959889
185	0x4002af81e6d3ac26	2.3356969865176493
186	0xc05476693ed8544f	-81.85017367483054
187	0x4021ed2e31b03fb8	8.963243057980307
188	0xc036bd04f0d0e749	-22.738356638910123
189	0xc028b0c6b3fcba3c	-12.345265984154246
190	0x403fbf96d67f7691	31.748395353430684
191	0x4024862b74e1fea3	10.262050297343484
192	0x4007f8424ee0ee94	2.9962202227014334
193	0x40380c1e6895c5f5	24.04733899742674
194	0xc0257b71c3635b79	-10.74110231960161
195	0x40490af707082f9d	50.0856636800738
196	0x403031aef5dbbedb	16.194075933598338
197	0xc01d8cef65fa46ce	-7.387631982231779
198	0xc01899b4d4cd3136	-6.150103878997745
199	0x40357145476c18d5	21.442463363543386
200	0x40317638818780d8	17.461799712735996
201	0x4022dbed9703be9e	9.429547042090515
202	0xc035120052ae1be5	-21.070317428118774
203	0x403a36f65ad7c00f	26.21469657676067
204	0xc03431b311f1449a	-20.194138642695727
205	0x402c1e38a00b1a53	14.059025765757871
206	0x40101deac11a5772	4.029215829117549
207	0xc0297defda7889ea	-12.745970561231804
208	0xc0206a1e8d1d20d6	-8.20726433735437
209	0x403d5834299f256b	29.34454593787579
210	0x40184718cb443f90	6.069430519142671
211	0x403a9de1a1304603	26.616724085126418
212	0xc00d0b8f2cfe95ee	-3.6306441798394564
213	0xc0445951359f2597	-40.69779081602899
214	0xc0384041cb621123	-24.25100394386494
215	0x401bd261ef682c12	6.955451718075908
216	0xc03ea2af7ce7da4e	-30.635490233044315
217	0x402c33703c96fed2	14.10046567290502
218	0x40147dcd2f1568a8	5.122853027040186
219	0xc0315161eb3730ca	-17.317900372480644
220	0xc03f124d1b7c0d8b	-31.07148906496654
221	0x403bf32ef4c2f200	27.949935243219443
222	0x403e03a9f2041bd8	30.014311910632244
223	0xc02d8e81a3b40517	-14.778332820630153
224	0x4020971839f8ae2c	8.29510670815133
225	0xbfe2b1943e2ebb0a	-0.5841771330359233
226	0xc0401c245d9e1197	-32.21985979288291
227	0x404213bb862d6108	36.15416028228543
228	0xc01ca77a7210cd1e	-7.163553030276743
229	0xc02e418d2e8cc84a	-15.128030256924962
230	0x403d448c5d9d55e6	29.26776681033325
231	0xc043e1dc9ed8e4c7	-39.76454530325423
232	0xc020f91c225c0920	-8.486542772040195
233	0x40175f5b09d2c58a	5.843120721330147
234	0x40263f5177de190e	11.12366842828899
235	0x40377cc0d6524eba	23.487317462057696
236	0xc03838b7c7bca776	-24.221554263647214
237	0xc037df4d94a8bf3a	-23.872277537534707
238	0x4027d1c77af303ea	11.909725038685753
239	0xc03300e1e1f82cf5	-19.003446696367025
240	0x402eb8ed79a92d8c	15.361186792279817
241	0xc01321bd24581dcc	-4.782948081854055
242	0xc04bcb0f7151f444	-55.586408772484475
243	0xc040de8d9ef5fc06	-33.73869692812882
244	0x4040fc405dfbdcd0	33.97071432874657
245	0x4034294376a15f88	20.16118565978789
246	0xc01329b04a9b72f6	-4.790711560953005
247	0xc04d343c36761354	-58.408087546972325
248	0x4036c03b02889b7a	22.75090041957035
249	0x3fe3cee5adefedb4	0.6190060040675491
250	0x401768c00d2e44d0	5.852295118283294
251	0x40495b12e14784e4	50.71151367180008
252	0x4051399c32fd8635	68.90015864141681
253	0x402b65d784a87d9a	13.698909898345665
254	0xc034ed95bb5388eb	-20.928065975088355
255	0x401c9db95764f939	7.154027333772597

arr_3 f8 [64]
0	0x401811b83e3367a6	6.017304393661027
1	0xc033412e98e4568c	-19.25461726736698
2	0xc0453febd438b0b3	-42.499384429627206
3	0x4023f7501389bd1b	9.98303280884152
4	0xc0479ba9388f3683	-47.21610171311206
5	0x4038d86f33dcd53a	24.84544681683949
6	0x401b0a8680a65299	6.760278711463479
7	0x4000f53e34ca13ac	2.1197475551766356
8	0xc03dedff96776652	-29.92968120970756
9	0x40367f07c29c5bb6	22.496212161229515
10	0x402fba122a00484a	15.863419830831976
11	0x401dc64973fafb2c	7.443639576142953
12	0xc047b6dd91abfa5d	-47.4286367501961
13	0xc03c6ac3c39a8e21	-28.417049622758103
14	0xc038d6a7c44b6c6e	-24.838497417844728
15	0x402bd37cc78b5246	13.913061366803174
16	0xc02a6f7bf7dbe226	-13.21774267729877
17	0xc01fdeb125332441	-7.967472630735814
18	0x403753271b2146e8	23.324815459846747
19	0x402c92f8bd79c8e7	14.287053986660295
20	0x4037bbfddedc3151	23.734342507131547
21	0xc031626cbfe0d4e4	-17.38447188605359
22	0x4040efb921224ea0	33.87283720183518
23	0xc029ec27b14e486e	-12.961240330511114
24	0xc02abfb69da914a9	-13.374440123452887
25	0x4041bbbef8c74548	35.46676549654018
26	0xc010cb266c4a8d9b	-4.198388759661067
27	0x4041bb0a7e97f59c	35.46125776691335
28	0x4042abf433383e50	37.343389894926645
29	0x403c8710c65c6318	28.52759971385521
30	0x4047463d1b60daa4	46.54873983601763
31	0xc03f97d7ebf34c3d	-31.593138453387144
32	0xc0384985a539d06c	-24.287195517172606
33	0x403b2dad8f2d8292	27.178429554568147
34	0x4027ab2df24aa71b	11.834334918606649
35	0x40183878f371e25e	6.055148891282981
36	0xc0286e2875254656	-12.215152416992321
37	0xc027d5d7dc179082	-11.917662504078411
38	0xc02d0fea2dd51bff	-14.531083519234015
39	0xbff62e34a537d742	-1.3862806752999437
40	0xc036abb1c212dd10	-22.670681123357156
41	0xc03fbcabda805a34	-31.73699727662661
42	0x405236b7862d9075	72.8549514241184
43	0x401e8642262a4ca3	7.6311117137258035
44	0x40278af0cc3bb02e	11.771368391309888
45	0xc0208941cbfb7ee8	-8.268080114793932
46	0x40321fefb209bae0	18.124751212478145
47	0x4032b9561ab33f7f	18.723970097314574
48	0xc02d5f6c6ab5c65c	-14.686374029816925
49	0x400f99abd580977d	3.9500347785823906
50	0xc0488aaea8538f9d	-49.08345512466551
51	0xc0407616db1767d1	-32.92257250445221
52	0x4043a745ad57e033	39.306813877018065
53	0xc0117d5cb164d1ea	-4.372423908022464
54	0x4042133fc7a0fa83	36.15038390503198
55	0x40336a61282a123c	19.415544996520325
56	0x4014c1c7a0eef01f	5.189238085349671
57	0x4035fe1542d933be	21.992511919048177
58	0xc029354fd2696ddf	-12.604124617929243
59	0xc0147bff223591de	-5.121090445060387
60	0x403122ca17a5b360	17.13589618487765
61	0x40172626c05f0d16	5.787257200051746
62	0x4001a0dd8109f982	2.203547485463049
63	0x402fb1377553fae1	15.846126238347496

arr_4 f8 [64, 32]
0	0xc0369f30df73dd91	-22.621839490687822
1	0x4029090d5c06d328	12.51768004973708
2	0xbff4d64a79a5fa46	-1.3023171188248326
3	0x402d381615b88da4	14.609543494013288
4	0xc036e06d6b3480b6	-22.87666959792906
5	0x4013113f3de591f7	4.76684281076131
6	0x4015c95c6d6f72da	5.446641645362172
7	0x404b7eec5c334f1c	54.99158813958476
8	0xc014dbc6b7503ff2	-5.214625229142245
9	0xc03052a83be28511	-16.32287954597729
10	0x4039c11f803cae3c	25.754386915983773
11	0xc01e04eb2fdf72da	-7.504803417218421
12	0xc034040c51e93f75	-20.01581298775223
13	0x40339bf78124a70f	19.609245368431456
14	0xc02afe77a20a5f53	-13.497006477132947
15	0xc023e06ed88de121	-9.93834568721701
16	0x403c6f0d5f232b76	28.433797784887666
17	0x40431f7cedb73717	38.24600001760535
18	0x403aebec67ef7996	26.921576019254267
19	0x40365544c1df6b61	22.333080403371586
20	0xc04343906d90a89e	-38.5278450924245
21	0xc02933620a4000cc	-12.60035736113823
22	0x4011d4c5bcd0fddb	4.457785558944546
23	0x403279782ecea796	18.47449009461669
24	0x401e661481e3aa71	7.599687604446999
25	0xc03907cfade1aab5	-25.030512683481636
26	0x40291d089918ea12	12.556706222811986
27	0xc0368d81e15779ae	-22.55276306520107
28	0x4040ce59888a9634	33.61210734145098
29	0x4046fed8bc968b7a	45.990989278324335
30	0xc025822c93d3b4b2	-10.75424634894657
31	0x3fdc90d8f1f7e460	0.4463407862636526
32	0xc048d378e036b45f	-49.65212633772966
33	0xc02090746b957382	-8.28213821601253
34	0x402af8df6e24fb5e	13.486079637541192
35	0xc02ee1b1016dec74	-15.44080357043115
36	0xc02bed89bacf43ea	-13.9639414194116
37	0xc02e64f538c8cb3c	-15.197183393965695
38	0x40337691dbd52422	19.463163127457058
39	0x401905794eb9b7a0	6.2553455639698825
40	0x402d006f9538ddbc	14.500851309959096
41	0x402dce81324f2b4b	14.903329441227148
42	0x4016e8a1c7e3978a	5.727179644838438
43	0xc015da975e4d883a	-5.463468049509226
44	0x4030501b29d2f740	16.31291448021443
45	0xc044c8402b6804f1	-41.56445829943721
46	0x403ecd1481d30d47	30.801094163919768
47	0x404f8e81ad5d724f	63.11333243429964
48	0xc020b8c2c45cc110	-8.360860954592255
49	0x403f724fb7fcb509	31.446528910823904
50	0xc023cc6c3aaac123	-9.899263223022507
51	0x400f1e3562ac4e2b	3.889750262149183
52	0x3ffcf771109d2868	1.8104105614643462
53	0xc02325f741cce065	-9.574152046450942
54	0xc014c817986d3878	-5.195402509371085
55	0xc03d3a948b0bd52d	-29.228829088581893
56	0xc041a79a18612e1b	-35.30939011330721
57	0x404a537fe18808d1	52.652340117857996
58	0x3fe25bba547f8f6c	0.5736972475392412
59	0xc03d03287f62f10f	-29.01233669438903
60	0x3ff3da500382a33c	1.2407989632722112
61	0x403c9794b1127f14	28.592112605109904
62	0x3fd5310d55b2d500	0.3311189019107843
63	0xc03219ede94311ee	-18.101286486506005
64	0xc04db42218abe925	-59.40729053873137
65	0x4023f4e712125366	9.978325428711923
66	0xc014ebed32999c16	-5.230397024751275
67	0xc02465e8c0293408	-10.199041371373838
68	0xc0393c05ce3a6083	-25.23446358609409
69	0x401c9c70bb3bcc84	7.152773786091647
70	0x401fa6b5fc003ff7	7.912803590312243
71	0x403addaf4da4767a	26.865956165935565
72	0x402026314c734066	8.07459486872558
73	0xc0489369707af423	-49.151655254398314
74	0xc037ce257abf4c81	-23.805259391502208
75	0xc02fe79eba1f83fd	-15.952382866236798
76	0x40363bef27594dfe	22.234117945959945
77	0xc04404e2079420ac	-40.03814787609858
78	0xbffed6f17be5dd58	-1.9274763908159311
79	0xc0392687fe68fa13	-25.15051260054504
80	0xc030c2428ffcf276	-16.758828162436167
81	0xc03246fbe66fca03	-18.277281191150916
82	0xc03b4d57661299ac	-27.30211484865292
83	0xc0410d08753d7c31	-34.10182061674312
84	0xc04c4d969588ea99	-56.60615796265956
85	0xbff671c3dd349042	-1.4027746811707549
86	0x404359dfccbd8d09	38.70214232688347
87	0xc00d82f80532a206	-3.688949623687452
88	0xc036c4f4618584f3	-22.769353957269185
89	0x403682d4af36fdc5	22.511057806897742
90	0x402c3bf77ecff5d7	14.117122614751606
91	0x402dc9fd80e26a0b	14.894512202871757
92	0xc02a074533167d96	-13.014199825759345
93	0xc03f1ff41b2eaaca	-31.1248185147222
94	0xc02bafa9d7979d20	-13.84309266782526
95	0xc0348f93dbc1aca7	-20.560849890502734
96	0x402f3dad1139efec	15.620461023638164
97	0xc00cbb509e412fc2	-3.5914623607295377
98	0xc007d8ccb6a21738	-2.9808592098442226
99	0xbfecaab89b699cc4	-0.8958399806405386
100	0xc017749438710e45	-5.8638466662410496
101	0xc02c2f56b971d42d	-14.092458529610747
102	0x4037c97eb5192ee9	23.78708965172601
103	0x40299292a74dc081	12.786275127640922
104	0x403778e6a22a759e	23.472269187322688
105	0xc03db943529ca7ec	-29.723683512922364
106	0xc0231ab3524088e4	-9.55214936292436
107	0xc02e5ce487eaf50f	-15.181431052619272
108	0x402d14db17425244	14.54073403057658
109	0x40510838f2bcc3af	68.12847584184668
110	0xc023d5178dedc69a	-9.91619533088242
111	0xc01231a5c563a57d	-4.548483928877769
112	0xc03fbfa38e127250	-31.748589400771664
113	0x4031b27927c1df8d	17.69716118319734
114	0x4022d7bc5463ed72	9.42135871620005
115	0x403574ecb55da898	21.45673688446604
116	0x40071f748361a3dd	2.890358950059165
117	0xc0244edeef82415c	-10.154044613504702
118	0x4024cc45ed27c371	10.398970996002136
119	0xc01b9161785dd486	-6.891973381735744
120	0x4007c8e7ff40eaf1	2.973098749321587
121	0xc03a0dcf0f35677c	-26.05394072583975
122	0x3ff92e3afc28a0bb	1.5737867212247199
123	0x3fe81af677150b18	0.7532913518738011
124	0xc03dee0682bad087	-29.92978684483435
125	0x400cdf8ad63c213e	3.609151529035585
126	0xc01bb1a17ad8cd3c	-6.923467559320951
127	0xc030e290e7af3c63	-16.885023575098227
128	0xc0188c3f6fe51868	-6.136960743291731
129	0x4030dbc432d92dcc	16.85846250345439
130	0xc030f16cd602f786	-16.943066955303514
131	0xc038c5aba87e00b2	-24.772150545847303
132	0x3ffab49b9da02f5f	1.669093719220619
133	0xc02b99aec2f681bc	-13.800161449996146
134	0xc02462fa73d934e2	-10.19331705118606
135	0xc010df8a83b61128	-4.218301828372468
136	0x404a085cb94af349	52.065329705807535
137	0x4034c5d5be24ae0b	20.772792705493014
138	0x40500637d6a9751d	64.09715811298925
139	0xc01bf8a02b6e76be	-6.992798498742273
140	0xc03151ccad4b97b2	-17.31952937217256
141	0xc038ec08542170b4	-24.922002084888575
142	0x403f58dec8461fb0	31.347149388427795
143	0x404037f2c155d622	32.43709580126985
144	0x40292696a49166e3	12.575368063687568
145	0xc03bb365e154add4	-27.700773318456257
146	0x4040b45bdfac0305	33.40905376338018
147	0xc03942ace23e59e0	-25.26045049688571
148	0x403071f149563c5c	16.445087989381463
149	0xc0366ce13a8be34f	-22.425311717178655
150	0x40383ebfed4fb677	24.24511607357132
151	0x403ae3899a005975	26.88881838329822
152	0xc02383827e5e2918	-9.75685496234341
153	0xc03a2ed44cd4cd86	-26.182926942781272
154	0xc03d951a45337d5e	-29.582432103224498
155	0x4031db97219dee19	17.857774830872675
156	0x40265e838f289f99	11.184597467144885
157	0xc02efa31cd8ad3df	-15.488661215969783
158	0x40384cb2e6e3a60a	24.29960482652499
159	0x403195af0847bd9b	17.584702031626517
160	0x4030148232813bca	16.080111652899895
161	0xc0221dc27561a44f	-9.058124225777787
162	0xc0152f3a69b4e9ea	-5.2961212650938965
163	0xc015b0436782ad90	-5.422132127142859
164	0x4038479a816e072a	24.279701318132688
165	0xc0188bfddfab6dcf	-6.136710638845627
166	0xc0258d552015be9f	-10.776040079740879
167	0x402a439304d09992	13.131981039489606
168	0xc04634f8c36f9d1d	-44.41384165716065
169	0xc02e250ff6fb8047	-15.072387426567856
170	0xc0301e15e8f7843e	-16.117521820477343
171	0x4029f0b5ab55b007	12.970136026582635
172	0x400f9f9d2ebc1d00	3.952936520686876
173	0xc03900d403fba284	-25.003235100683483
174	0x40457b76bbbc2fe7	42.96456095398735
175	0x40375cb03d3ab1d9	23.36206419642426
176	0x4039d8a84931afe9	25.84631783927026
177	0x40397ffab2450132	25.499919072958797
178	0x40308ce5050363a4	16.55036956150765
179	0x4030b9ba53ddb1e8	16.72549938356852
180	0x3fca8c7c1896e380	0.2074122543397401
181	0x403206fe674d5add	18.027319389710886
182	0xc00eb4cbeb96b4c9	-3.8382795720450287
183	0x404119e50cf1ca76	34.202302568494744
184	0x404102ba4b803c5a	34.02131026994239
185	0x400fab632237761a	3.958685176198526
186	0xc047502881337391	-46.62623610508229
187	0x401e42dccdf0d5ee	7.565295427154963
188	0xc011badcbd6dcc1e	-4.432482681108949
189	0x404b4fdf57f22287	54.6240034038829
190	0xc047d962e861803e	-47.69833092461384
191	0xc033b1e572bde8b0	-19.694907351841437
192	0xc029f1297bd2305b	-12.971019620330642
193	0xc03169a20f8390da	-17.412629098530353
194	0xc038f38f53eb506e	-24.951405758809805
195	0x4030f278edf581c6	16.947157738149848
196	0xc02755a07de99d2d	-11.667240080611544
197	0xc0275cea1b035ba8	-11.681473583373943
198	0xc03bf16c10a3d260	-27.943055191035796
199	0x4011b411906bda7c	4.425848251898625
200	0xc020567855204a54	-8.168886814300244
201	0x4014d0121143f7c4	5.20319392182677
202	0xc0194a3e53342b75	-6.322503376063527
203	0x4029e923303c1038	12.955346591312363
204	0x4040212f6152c3d9	32.25925842801343
205	0xc02609bf36acf77b	-11.019036968816854
206	0x3feaf851dfcc40f8	0.8428124781658246
207	0x40347085ac872efc	20.439539702419083
208	0xc0451a1faa84835d	-42.20409137220734
209	0xc03253282b2de5bf	-18.324831675248557
210	0x4033adf98c68dd60	19.679589057542557
211	0x401835bae809ed21	6.052470803838589
212	0x3ff812f34051b7e4	1.504626513716624
213	0xc02712e82322ed0b	-11.53692731667845
214	0x3fdabfa8c1b1216a	0.41794794955469305
215	0x4029aa707ff00471	12.83288955502414
216	0xc0192fb11910239f	-6.296574012384467
217	0xc0144a31ae404082	-5.072455141708021
218	0x401db068e35e8a5e	7.422275116582197
219	0xc033279d78649288	-19.15474655585652
220	0x4036f4a838ccfe5e	22.955691862151404
221	0xc02608d4f5988cd4	-11.01724975096878
222	0x402b07da94470782	13.515339502020428
223	0x40104f20faf808fe	4.077274247540343
224	0x40385ddfc7c6ba43	24.36669586755512
225	0xc010ee519518caab	-4.232733087194599
226	0xc0060345ab7be416	-2.7515977284606477
227	0xc0264726e1f86a0a	-11.138968526433946
228	0x404764e3a3498cbd	46.78819695559785
229	0xc003edfc39f80276	-2.4912037400065925
230	0x4025f3408d3e8f3d	10.975101865660344
231	0xc041341a7065d080	-34.40705685588273
232	0x402a719bc4e2085a	13.221891548721192
233	0x4023d3be553b4bec	9.91356150006137
234	0x403ddb76472279c7	29.857273527066152
235	0x40313efde2169a50	17.246061449545152
236	0xc032ed49abcc7143	-18.92690538159628
237	0xc036694e37927692	-22.41134974790345
238	0xc03eaf324096dcfe	-30.68436053927598
239	0xc032d6e180a1f223	-18.83937839463955
240	0xc018d9ca096412a2	-6.21268477128311
241	0x4036207a733a832e	22.12686844042326
242	0x403cf589f59aec9e	28.959136343310654
243	0x4026c8a72246c6ed	11.391900130405213
244	0xc04549ce651dc3f9	-42.576611175092644
245	0xc005b1231ba1588d	-2.7114927443136083
246	0xc034a32dce05bb38	-20.637417675399064
247	0xc01456c1bdcbfd23	-5.084723439765443
248	0x40360f60db7fc0c7	22.060071676912028
249	0xc022acf5bfdbae34	-9.337812419477906
250	0xc02cea68a8658788	-14.457829725640991
251	0x403d2ac514348a3b	29.16706968577112
252	0x401f4084893b11f7	7.813005584936483
253	0x4036a52b468c65ca	22.64519158294369
254	0x3ff7762dd33cb0a4	1.466352296013647
255	0x402dbe3d85095566	14.871563107861856

arr_5 f8 [32]
0	0xc037d1e2d9c4a8c5	-23.819867716324342
1	0x400b5ce328c2f46a	3.420355146836802
2	0xc0071e43cb145e62	-2.8897777429190663
3	0xc03a3c3a955079d3	-26.235268909594947
4	0xc037bf66667f4e7a	-23.747656255799008
5	0xc043e6ef71aca946	-39.80418225222324
6	0x403c6ce846c199df	28.425419256463893
7	0x402f91002d4d9bc8	15.783204475139328
8	0xc03b529f980e2c72	-27.322747710666995
9	0xc029d3cd3f41d161	-12.913675286087427
10	0x403b46a36d833b46	27.27593121007819
11	0x4039d4757aad14bb	25.82991759038553
12	0x4040d489ec9b43c7	33.660459113896245
13	0xc020366144a8895d	-8.106210847447693
14	0x4038c7ceeb7006a0	24.780501093721455
15	0x402132566d17a96f	8.59831562913743
16	0xc03e4c22e60a7ed3	-30.297407510340076
17	0xc01087dfc7baf70b	-4.132689591204108
18	0x403feaf275bcd12b	31.917762144658962
19	0x40386dc5c773d868	24.428799119741967
20	0xc041ed029b940066	-35.851642081514726
21	0xc033c91392871117	-19.785454900718005
22	0xc01c37442ce488fc	-7.053971005867648
23	0x4041f5b2ba5b2fb2	35.91951684429604
24	0x40308d008840a3f8	16.55078937128198
25	0xc024263f0c11839b	-10.074699761522245
26	0xc01011f3372eb5f6	-4.017529356218338
27	0x402bb864b27c5d7a	13.860143258744518
28	0xc024aababc6515f8	-10.33345593198736
29	0xc0389cf2c8f0c716	-24.613079603942502
30	0x403f7959384d80f4	31.47401763813191
31	0xc024d6740eacf605	-10.41885419713345

arr_6 f8 [32, 1]
0	0xc02cc64be23446d8	-14.387297696000516
1	0xc0307acf37b070a5	-16.479724388672043
2	0x4022103dfbde6055	9.031722899337334
3	0xc011eb80fa2617cf	-4.479984196257603
4	0xc036567c8458e2d6	-22.337837478352263
5	0xc03653f91a75ceca	-22.328019765626586
6	0x4021a061f73e3e4f	8.813247419689246
7	0x4030d19997bada3d	16.81874988853291
8	0xc025fcf1fa96fe5b	-10.994033652240594
9	0x403da3e61880274a	29.640229731833905
10	0xbffa28259f1443b8	-1.6348015035657522
11	0xc01275d043ee4177	-4.615052281777358
12	0x40427118fd54eea5	36.883575121374896
13	0x4046698ac991c5e8	44.824547954729326
14	0xc01f5e6672cdef5a	-7.842187684840463
15	0xbfc146928a938bf8	-0.13496619955466804
16	0x401bb95dac698338	6.9310213984870686
17	0xc001b897a88cfd5c	-2.215133015444435
18	0x40367731f5e540f9	22.465606087179342
19	0xc03135e720042195	-17.210557938583936
20	0x403e0ae08d3c1ba6	30.042488886999898
21	0xc02b8d60853ee4ec	-13.77612701790573
22	0x4041b4485ccacf52	35.40845832732033
23	0x4038500b7e7cf40e	24.312675385957895
24	0x403dc990358b4540	29.787356707097615
25	0x40166da8953b08ea	5.607088405349922
26	0xc03c8822ee2eb624	-28.531782995609447
27	0x401ec2df861d3592	7.690305800946037
28	0x3fdee59bba8b086e	0.48276417939280847
29	0x4033410d205960e9	19.254106542416512
30	0xc010a33b5f57dd38	-4.159406175363351
31	0xc03396073d706def	-19.586047973583785

arr_7 f8 [1]
0	0xc02c7adb3c16e23c	-14.239953878205704
