weights/global_round_44.npz (npz, 129966 bytes, 8 tensors)

arr_0 f8 [43, 128]
-12.509808103629634 -41.412701375323365 -31.292680100993365 18.300743563851885 19.34935017531147 30.138867284557186 -3.744118820002255 -13.874057662859173
-9.394337907565209 -33.65525938667163 32.5126986033732 -40.45598052660174 -0.07300550815756623 -19.609338548012733 -2.699844253251827 23.969042566440137
15.891548881321768 -32.99535799248356 -2.1361467760061466 13.34055302514945 9.296056123502083 4.073134255912661 4.960799821567463 35.419346528123995
-3.5637382587862083 20.438207316566636 -2.635920119118249 -19.902245363342985 -15.961316066112019 18.225132874502773 14.396536307637561 18.60954365190014
23.360111944542133 10.854682764605345 -4.785584233243187 -29.25602090612591 -4.20339626373781 23.22717976423156 -23.4967886736977 -0.8339815099273983
27.98299507322719 0.47788374881832507 -36.97662492931894 -1.4080076629952771 -8.293017333657843 -2.621884765236439 -9.59114368139668 -30.03511890844117
-10.606799806300337 -3.923722166106283 28.295076196098456 -7.663393643737107 -23.823708174752433 0.40826375845994045 -11.600899002413612 -33.94633168873594
-14.879131995757255 3.7921545421790155 18.848652939811853 -20.33740583524138 14.91159968187705 29.906522794217615 7.70283430201034 -10.695195557452971
7.8214233445423815 -13.279994681022849 9.35688616027402 14.666567810230871 -12.339566792675189 -43.86854533220745 2.5381828388832286 -4.507662443652591
-6.30930336222672 -19.662840465055435 4.0226791598166205 -13.271874060465198 20.876500666060593 -0.5023345150024846 25.16031338996332 -3.0522556084229504
-42.62139955524613 7.488174306325528 -10.907582694436316 16.135655268880825 22.60544224363878 -34.871347738903495 -17.63685378554552 15.438798875094509
-15.289665670068167 10.346882076095376 -9.232712754093598 -7.838442446783046 1.411340940727242 -21.265927160933337 -39.430792603127216 -0.4525478862456138
-1.6513355846122626 -12.276237151993538 0.19594206519049195 -6.428356594291012 -15.122645055374315 -4.694684753589786 14.711274838520758 6.449143115725214
21.40992209338832 13.36816629335517 -12.272481224370287 -6.693969263454545 -1.9775122672906082 13.275877646798559 -28.570173915809526 23.668760571203087
11.033728727677627 10.919421994629385 -11.483836089175536 -24.321717564701537 -14.523197439097256 4.498928397414487 14.099207853522373 -27.322686479024966
8.62823740961769 16.778523944625142 5.166990985640635 -19.01679177814862 -2.581068648884035 -0.07643949784370818 39.483565666874014 -19.162816830493018
-46.95570334691427 18.283333257066385 -10.120553787752126 0.9646013285251114 -1.655747778757151 1.4822496965280056 22.168539041168657 -3.199783295349641
-3.118198569312442 23.464590027208352 -18.366306572065977 -18.397350913081695 -7.529030539959908 -6.101615351149472 0.7092767089247191 -2.94176784229782
23.308511414462963 8.854992867398424 14.266206093075688 -17.753980224556862 16.504720410028426 69.3258844643599 -8.4963214149857 -27.709309399570195
-2.3857682724634257 -15.548212255299504 -14.51134892834463 -34.87682014856753 42.26510210738378 12.536422251216365 -36.161256536796145 -1.0664901413782952
-19.318289499566088 32.681619880916344 -13.160075577753434 18.123632730063772 29.779651698313756 -19.712873770776284 15.692707678634255 -14.41152967664858
-11.24535488217652 -18.432807246999516 -1.8261314018346093 27.808400489604065 -3.483892661408735 21.07909842239735 2.946733759314382 14.464613724068673
23.664184637683505 3.8600270685448277 35.332365083474706 -18.29702287202406 -11.30751008924389 -21.386749599783414 -20.18538353455947 -12.118419043268283
-6.258299484396956 -2.6554716851142652 9.293541319321161 5.141985511355594 28.984427830376784 30.878459567479055 -22.499173413423776 13.206172714836985
-11.864514335749325 -15.368692174388784 4.630377467726792 4.119168044775916 7.027501343739846 23.748242385291725 1.119097401701979 -12.561351922262169
3.9582707003461355 46.20837773178548 -7.145885146465041 13.695795981789137 1.8585909978031971 2.2996367458857194 -11.363432424407181 32.709025026125694
-10.50718185695599 -19.148908208458117 -42.07982639287872 14.399930380853224 0.5133938544401895 -30.88594752193026 12.007084238118711 0.20360215176544427
11.202292075974785 -13.007073636692308 17.55817207915252 -0.4235952800518967 -23.374430975554162 -9.218405010028034 -35.72915114763565 22.068930249355947
-21.31804307472959 16.980633820208727 -8.786536186068545 -0.08498205944668835 -33.98707085025408 19.36254516650553 4.5660624248013155 18.64659029278959
-14.659669143299737 -13.837336670688185 -12.377613178085701 -1.3318536326131272 -1.6848752754459244 -7.5186066488644165 -12.124313084314085 -13.407150760453233
-12.939963315542727 -3.956606453531056 -11.082433511988398 -10.122354988905148 -15.279686616265744 -8.803817581825093 5.623668928950004 4.268979432906527
11.582997614866041 -7.660264199188788 5.278435900354124 -30.77755273706071 -23.071573149249485 -10.286650168433987 -9.262061160424324 -4.2589934503419435
00000000: 6ea6 5891 0505 29c0 9803 0f66 d3b4 44c0
00000010: dcf4 4515 ed4a 3fc0 f139 bb87 fd4c 3240
00000020: 8cd0 5903 6f59 3340 4ea8 6dce 8c23 3e40
00000030: 7cfb 6191 f4f3 0dc0 c098 697c 84bf 2bc0
00000040: 9c21 81a8 e6c9 22c0 6a13 228a dfd3 40c0
00000050: ad18 9b1b a041 4040 05af e491 5d3a 44c0
00000060: 90f0 f62d 7db0 b2bf 25e8 6f9c fd9b 33c0
00000070: c414 a0f1 4799 05c0 d44a 732c 13f8 3740
00000080: f01f 5018 79c8 2f40 bac3 04e4 677f 40c0
00000090: c837 f31e d416 01c0 3a24 53f7 5cae 2a40
000000a0: a871 10ab 9497 2240 de72 d5b4 e34a 1040
000000b0: 208a 8ee8 dbd7 1340 eafd a325 adb5 4140
000000c0: 0eed 4734 8982 0cc0 8985 cd5a 2e70 3440
000000d0: b6d9 9349 5d16 05c0 9886 588d f9e6 33c0
000000e0: 1824 929e 31ec 2fc0 6f3e dd4e a239 3240
000000f0: b8f5 91ce 06cb 2c40 4065 820d 0b9c 3240
00000100: 1ab5 e04b 305c 3740 a1de b4fa 98b5 2540
00000110: 8221 7831 7024 13c0 30e7 0a96 8a41 3dc0
00000120: aa87 331c 47d0 10c0 03b0 f973 283a 3740
00000130: 0a8e e28a 2d7f 37c0 856b d3fd f9af eabf
00000140: d1a3 ab90 a5fb 3b40 c2bb 1db8 a595 de3f
00000150: 0bf1 b10b 027d 42c0 4d50 110b 3387 f6bf
00000160: 7071 325e 0696 20c0 b491 44b8 9ef9 04c0
00000170: ecab 7562 aa2e 23c0 de39 838d fd08 3ec0
00000180: e48e d676 ae36 25c0 5622 7072 c863 0fc0
00000190: 2a12 141d 8a4b 3c40 8ee6 d0a9 50a7 1ec0
000001a0: 7202 f889 ded2 37c0 288f ae50 fe20 da3f
000001b0: 8821 b708 a933 27c0 0825 9365 21f9 40c0
000001c0: 0c4a c596 1dc2 2dc0 364b e01e 5556 0e40
000001d0: 6b25 ae51 41d9 3240 5fd7 933a 6056 34c0
000001e0: 7069 8931 bdd2 2d40 423e bae0 11e8 3d40
000001f0: ca90 96cb b3cf 1e40 852b 0fac f063 25c0
00000200: 00ec 8333 2349 1f40 1c18 7c76 5b8f 2ac0
00000210: 3a8b 65c8 b9b6 2240 0f04 4360 4855 2d40
00000220: f2b1 dab2 dbad 28c0 5476 527e 2cef 45c0
00000230: dc2c e2cd 324e 0440 cf94 e3a9 d807 12c0
00000240: f639 4505 ba3c 19c0 e7e0 a7e9 afa9 33c0
00000250: 42da a634 3917 1040 52a8 ac13 338b 2ac0
00000260: 08a7 ff58 62e0 3440 61ce 32d5 1f13 e0bf
00000270: dc00 5f4c 0a29 3940 59ac 09fd 046b 08c0
00000280: fac3 4705 8a4f 45c0 9ba9 21f7 e3f3 1d40
00000290: 010a cead aed0 25c0 8c5f bf4d ba22 3040
000002a0: a10b 4c43 fe9a 3640 5c04 9d52 886f 41c0
000002b0: 7640 85d9 08a3 31c0 e21a 043f aae0 2e40
000002c0: f46e 070f 4f94 2ec0 e4cb 0887 9ab1 2440
000002d0: 6063 4820 2677 22c0 ad0b 22a8 905a 1fc0
000002e0: bcde fe3c da94 f63f aa53 6bcd 1344 35c0
000002f0: 22e5 4636 24b7 43c0 3020 d368 8bf6 dcbf
00000300: 6217 aadc de6b fabf 3e81 bbf4 6e8d 28c0
00000310: c8b1 f32c a114 c93f fa05 6e1c a3b6 19c0
00000320: 95b2 2b55 cb3e 2ec0 b3ca a670 5bc7 12c0
00000330: 24d4 3337 2c6c 2d40 a80d 452c eccb 1940
00000340: bd02 81a7 f068 3540 66e6 da4a 80bc 2a40
00000350: 8be3 b6a8 828b 28c0 addd ebe0 9fc6 1ac0
00000360: 483b 37e7 e3a3 ffbf fe64 bdd5 3f8d 2a40
00000370: 266f f1ea f691 3cc0 ea2b 8ee4 33ab 3740
00000380: 489f 4ce4 4411 2640 0650 cc7a bed6 2540
00000390: 5644 275d b9f7 26c0 1ef1 1215 5c52 38c0
000003a0: 1e8c e488 e00b 2dc0 7fc3 f715 e7fe 1140
000003b0: 18c5 2c5f cb32 2c40 0c46 c294 9b52 3bc0
000003c0: 0cdd 7055 a841 2140 6251 6158 4dc7 3040
000003d0: 9d36 58af ffaa 1440 71fd 4977 4c04 33c0
000003e0: b180 dd51 07a6 04c0 0084 5cf7 8991 b3bf
000003f0: 9e58 d27a e5bd 4340 b534 225d ae29 33c0
00000400: 57d6 bd7c 547a 47c0 23f8 4087 8848 3240
00000410: ce9b df39 b93d 24c0 3231 f69a 03de ee3f
00000420: 58fc 0262 f17d fabf d57f 3175 4bb7 f73f
00000430: 28eb e55f 252b 3640 b282 fefb 2799 09c0
00000440: 240c 6d17 12f2 08c0 5ae8 3c5f ef76 3740
00000450: 4f55 7b44 c65d 32c0 bcb8 18ca b865 32c0
00000460: 23da 8e2e ba1d 1ec0 8bd5 c7da 0d68 18c0
00000470: 81ad 9411 65b2 e63f bdbf 1894 bd88 07c0
00000480: a68f a39a fa4e 3740 3994 07a0 c1b5 2140
00000490: 1483 3f2a 4c88 2c40 6e4d 16d9 04c1 31c0
000004a0: 20b2 565b 3581 3040 d12c 834a db54 5140
000004b0: 0756 2bd7 1dfe 20c0 3ee6 014d 95b5 3bc0
000004c0: c684 10ad 0d16 03c0 388e d746 af18 2fc0
000004d0: 6f2b d886 cf05 2dc0 2449 83a4 3b70 41c0
000004e0: 32a8 a8dd ee21 4540 58a4 f3ef a512 2940
000004f0: 20e7 df0d a414 42c0 7e9e 6bf7 5710 f1bf
00000500: eb4b af6b 7b51 33c0 686b fc51 3f57 4040
00000510: b9ad 166d f551 2ac0 cf56 0465 a61f 3240
00000520: 4887 f240 97c7 3d40 0ca9 3be5 7eb6 33c0
00000530: 2bd8 b294 aa62 2f40 0614 8d04 b4d2 2cc0
00000540: 63b9 b527 9f7d 26c0 b055 ab74 cc6e 32c0
00000550: a440 918f d537 fdbf 7beb a055 f3ce 3b40
00000560: 0833 9c1d 03df 0bc0 a05c 51cb 3f14 3540
00000570: fc31 3226 e992 0740 a24b 9cd9 e1ed 2c40
00000580: 345b 2101 08aa 3740 2999 28df 55e1 0e40
00000590: 97ed 65f0 8aaa 4140 e081 e1b0 094c 32c0
000005a0: 2ffc 60f6 719d 26c0 94cf 9205 0263 35c0
000005b0: 5a26 9a4b 752f 34c0 2c1f bc6b a13c 28c0
000005c0: ff3b f8a8 7f08 19c0 8228 58f0 673e 05c0
000005d0: a604 3d0c 4b96 2240 ca1c 5fa6 6491 1440
000005e0: 93bd 5876 03fc 3c40 4c2e e9b9 e2e0 3e40
000005f0: 14b0 2dd4 c97f 36c0 d21a 5778 8f69 2a40
00000600: dbee 7d9f a1ba 27c0 f894 7e38 c5bc 2ec0
00000610: 6416 c0ab 8185 1240 cd29 1c30 077a 1040
00000620: b4d5 ef4f 291c 1c40 1a4f 1ed0 8cbf 3740
00000630: c393 55ad d2e7 f13f 5453 e784 691f 29c0
00000640: 049d 35d4 89aa 0f40 dd9d 1b1f ac1a 4740
00000650: 7828 74ea 6295 1cc0 f3f1 f45e 3f64 2b40
00000660: 9d46 03ea c9bc fd3f 7d12 42f3 a765 0240
00000670: 0945 92d0 13ba 26c0 b1a0 0155 c15a 4040
00000680: 4580 2157 ad03 25c0 fe6e 2dd9 1e26 33c0
00000690: c962 51c0 370a 45c0 02e2 c4ac c3cc 2c40
000006a0: 4837 d9f2 b86d e03f a7a9 f074 cde2 3ec0
000006b0: ea12 968b a003 2840 f028 9da3 a20f ca3f
000006c0: 721a b5d3 9267 2640 b683 dc27 9f03 2ac0
000006d0: 1a80 895d e48e 3140 dc05 a460 2f1c dbbf
000006e0: 509d 5ab5 da5f 37c0 b7b4 0ec8 d26f 22c0
000006f0: ce77 26d3 54dd 41c0 5db0 ae69 a511 3640
00000700: d1ae 5c45 6b51 35c0 e525 6bd1 0afb 3040
00000710: e891 f8de b492 21c0 30fc 115e 62c1 b5bf
00000720: 8d56 6e56 58fe 40c0 d176 91c2 cf5c 3340
00000730: 7f10 48de a543 1240 3e71 01f1 86a5 3240
00000740: 304e 6927 c051 2dc0 ceb1 6064 b7ac 2bc0
00000750: 5bd5 b483 56c1 28c0 691d 32c1 454f f5bf
00000760: 5b11 dec6 3ff5 fabf 7c71 119f 0d13 1ec0
00000770: 1230 eff6 a53f 28c0 5760 8110 76d0 2ac0
00000780: 3864 27df 42e1 29c0 aa77 c848 21a7 0fc0
00000790: 502b acb9 342a 26c0 3ab3 2750 a53e 24c0
000007a0: 05fb 8b15 338f 2ec0 f4c6 63fa 8d9b 21c0
000007b0: 897c 5511 a37e 1640 4985 2e58 6f13 1140
000007c0: c6fd d2a9 7e2a 2740 20f1 584c 1ca4 1ec0
000007d0: 8e36 f84c 1e1d 1540 4e97 38b2 0dc7 3ec0
000007e0: 5b4c 2f9e 5212 37c0 3ca2 95cf c392 24c0
000007f0: 0826 63e1 2c86 22c0 2c63 3c94 3509 11c0

arr_1 f8 [128]
36.13313647736141 18.59546654144774 -25.7453409658504 -13.277052713994333 3.7113822363253726 -2.1270349128225683 18.8937288587547 -7.7421172082004865
12.878195371830877 -3.113202681536962 7.894241994470297 36.26257595400058 -15.397932572793598 31.160002610087137 25.55384974644165 6.346359043898233
15.414836236271327 -1.7049614700368105 5.556132083668844 9.999316498197869 -24.03089111013819 -13.116723942301842 -11.03825582937305 12.88576544240483
-17.763527793167178 2.68252117815674 -2.7088506541718385 13.933254430777463 -14.59708858520672 -13.273015753526845 3.70163427334282 5.876906007439959
33.64401779033163 14.079976207912667 -18.890093838885456 25.284314678756434 12.11693113247303 -37.39193094740925 -29.408382433118724 -22.34262011664261
11.571228482114414 12.210871573277402 10.976877625106344 -5.570169188658306 19.844461905677377 18.272899843020628 3.719060788005666 -39.33246728158219
-13.755451571436641 3.8460935005977044 1.4348709449519363 0.46075432004296935 18.143658821904403 3.274462720885492 -34.0268711490007 -26.342592720153608
10.14472608150217 7.1619721076042175 -1.1063924696560743 14.052468532481186 -4.032449915163669 3.329684731696567 25.28290222384948 23.48043958798389
-1.0425741106528321 -16.378788935016843 1.0089898546282905 6.511447842602333 27.700666905475344 20.39357133533293 33.33244442032877 37.92442086565451
-4.141023114192005 10.540723286147506 20.78731660694764 -12.230487685617057 28.055455916003552 28.91323879996117 8.955180213271493 -16.73572062070505
-19.317099415731363 3.687732969776458 -6.191287091858867 -14.110944663381032 -4.946407516491988 -16.55966028920055 -20.00532435309404 9.915467088186425
12.798037751597171 -15.65834108586374 -9.284348059185485 11.853470053990137 3.376556811293206 36.78564199347214 2.2873544180418968 -22.571589966727842
-5.489968124210252 11.456738810947758 -26.24089086549158 -32.98294710559342 2.49967943288576 7.609292744751273 18.715199796509282 34.29184926183996
-32.517442862617884 -10.965641555521723 13.737636482606542 7.182393567180318 -15.799478976605856 -3.638379862867337 -9.491595327004466 17.04999455636201
31.1703641624069 0.07879584788760363 11.460229570519818 31.435715946667678 1.5574322409559054 -14.877165404156472 23.81065825747964 25.446407853877986
-31.186790443006764 13.8502135982807 11.061081150016243 3.5697558641798386 9.596901979540508 3.6405937392670094 -8.57674460379913 20.20833046030351
00000000: 0116 b89d 0a11 4240 5961 c97e 7098 3240
00000010: 4fb2 60aa cebe 39c0 56bf 73da d98d 2ac0
00000020: 55c8 7f2b e9b0 0d40 652f 60e1 2a04 01c0
00000030: c4d7 1b6a cbe4 3240 6414 cc92 edf7 1ec0
00000040: 3c06 e3d2 a2c1 2940 812a b8ce d6e7 08c0
00000050: c6d6 632c b493 1f40 0293 bf16 9c21 4240
00000060: c352 74d1 bdcb 2ec0 5199 59ee f528 3f40
00000070: 62dd d318 c98d 3940 f1dd f8f1 ab62 1940
00000080: 50f6 476a 65d4 2e40 91f8 abad 8547 fbbf
00000090: c274 5eb0 7a39 1640 e739 7c69 a6ff 2340
000000a0: d9c7 d37a e807 38c0 76b1 953d c33b 2ac0
000000b0: c413 a044 9613 26c0 871c 4e0c 83c5 2940
000000c0: 763d b58e 76c3 31c0 af15 d8a9 cd75 0540
000000d0: 7c54 4be4 b9ab 05c0 9612 5686 d3dd 2b40
000000e0: 388e 5498 b531 2dc0 9661 89b8 c88b 2ac0
000000f0: c214 0e6e f29c 0d40 737b fea5 f381 1740
00000100: 1ec2 c92c 6fd2 4040 d1e2 3aa4 f228 2c40
00000110: 5662 9830 dde3 32c0 1908 c7d8 c848 3940
00000120: 3ab6 bb65 de3b 2840 deb4 14cb 2ab2 42c0
00000130: 7e81 4ac0 8b68 3dc0 85ee b3f3 b557 36c0
00000140: 4473 420f 7824 2740 d8c3 dd5b f76b 2840
00000150: 420d d84d 29f4 2540 a9e5 896e da47 16c0
00000160: 289a cba7 2ed8 3340 6ddb 9cc3 dc45 3240
00000170: 0690 42f1 a2c0 0d40 59b1 b249 8eaa 43c0
00000180: 7a10 628c ca82 2bc0 0267 53ab ccc4 0e40
00000190: 74c9 683c 3bf5 f63f 3cd1 04b0 ff7c dd3f
000001a0: 7edc 15d3 c624 3240 1965 d182 1932 0a40
000001b0: fc14 8983 7003 41c0 4de8 1028 b457 3ac0
000001c0: 30dc 7589 194a 2440 e418 2404 dca5 1c40
000001d0: 8b6a 1b97 c8b3 f1bf d026 ce27 dd1a 2c40
000001e0: 328b f18c 3a21 10c0 b104 a5bf 31a3 0a40
000001f0: 3166 b747 6c48 3940 3318 be16 fe7a 3740
00000200: 2d90 ce30 62ae f0bf e8fb c74f f860 30c0
00000210: 24fd b98b d224 f03f dc58 b6fb b80b 1a40
00000220: f867 04e8 5eb3 3b40 e2e5 4d17 c164 3440
00000230: 5e86 ec89 8daa 4040 f2dc 446c 53f6 4240
00000240: 2bbd fd5c 6890 10c0 dd60 bcae d914 2540
00000250: 1470 c694 8dc9 3440 44b6 5f7b 0276 28c0
00000260: e09a e15b 320e 3c40 8245 9b04 cae9 3c40
00000270: 2293 8361 0de9 2140 c7eb c42f 58bc 30c0
00000280: 9c25 646d 2d51 33c0 1691 ac24 7a80 0d40
00000290: 1fb9 6ec3 e0c3 18c0 47c6 29bd cd38 2cc0
000002a0: 3016 500d 1fc9 13c0 7cfc 8ee5 458f 30c0
000002b0: 4869 d2ef 5c01 34c0 6ca6 281a b8d4 2340
000002c0: 9c2a 7867 9898 2940 b8cb 3215 1251 2fc0
000002d0: f5c3 9d11 9691 22c0 8801 e406 fab4 2740
000002e0: 10b9 ac37 3003 0b40 de29 b6ea 8f64 4240
000002f0: f8ce 1e79 804c 0240 5cd1 55b8 5392 36c0
00000300: 1243 3634 baf5 15c0 4aab 5fab d9e9 2640
00000310: 0431 1506 ab3d 3ac0 5d1c f435 d17d 40c0
00000320: 49d3 35ee 57ff 0340 5196 f16f ea6f 1e40
00000330: fc1c 7855 17b7 3240 707b 0d51 5b25 4140
00000340: 083f 5691 3b42 40c0 ad3f e991 68ee 25c0
00000350: 5d43 327d ab79 2b40 3629 1861 c5ba 1c40
00000360: 31b9 f44e 5599 2fc0 7c85 cbe6 661b 0dc0
00000370: 83b3 f861 b2fb 22c0 888d 7871 cc0c 3140
00000380: b5f2 59fc 9c2b 3f40 a0e3 bcf5 f62b b43f
00000390: ca11 d435 a3eb 2640 8a48 8d14 8b6f 3f40
000003a0: 0444 ca11 3eeb f83f c011 e8d2 1bc1 2dc0
000003b0: 7f1b b04c 87cf 3740 6015 fdc8 4772 3940
000003c0: 5eeb 9b7f d12f 3fc0 ce75 5e32 4fb3 2b40
000003d0: 9471 4b07 461f 2640 5eda 9a29 dc8e 0c40
000003e0: 9a16 e222 9d31 2340 ac64 419c ef1f 0d40
000003f0: 69ec 9611 4b27 21c0 a3c3 2125 5535 3440

arr_2 f8 [128, 64]
-10.702168251095392 4.1373116464028845 40.22068676273581 -42.295085072820335 0.361109011630257 -12.977257334944046 19.75123503371139 -7.156397909506666
2.293441695296481 -17.43189880895448 -12.996979338798523 -13.31739570913258 -10.055298361378805 -25.57039988626191 -24.503904961375117 26.26089089472566
2.2134074009367084 17.79521017663681 14.121035626562339 39.84090413909495 -37.318417427372495 7.178331958380305 14.848819109736388 -11.404538004767911
11.275587008490131 -9.726627001655734 29.33511782669678 16.15812221359783 6.510472688821286 15.191994228497745 21.29491866452089 0.5055764532803855
-9.629198679710704 26.51155745903366 29.395073006806193 -9.629055808285562 20.181443734894255 -10.640827826959276 -49.16628392171216 -9.237832706607112
-40.11225257788995 -6.0970642634176055 -6.694288120141644 19.780175593516404 16.11005430763585 -0.32880874261938065 -28.681224430333323 -5.840743919663223
-9.727142131481797 -15.028736345747026 -8.162529265132259 -32.42131383820977 11.841224290320142 1.603798844730638 9.27423158168441 27.403768044879428
-7.903681879377157 -7.53877110132947 13.845563576693635 42.88935370652077 15.076047149920836 -53.47153162197094 -26.517204803385553 -19.536541561483844
21.9262042355533 -29.62293814275131 -32.032094851549964 1.2676808692382158 -18.420288805524578 -20.68839778935765 -25.879559041182397 30.32694763721627
4.586976411034453 -22.332247934214113 -6.300951971865732 15.138255486371527 -9.80088046768374 15.953907444157256 5.874798161989058 9.513491232115008
-26.85381260670219 26.754842151648916 -23.905709641563973 18.103386281651108 -32.097903954924796 55.58509521359119 8.349524871375849 -23.01648399498932
-14.950217238747769 -5.334561751465754 -10.436425193927382 -17.84286360138269 3.713352458767816 18.225856447540696 -31.320519320858658 -4.509550818753755
-17.142239755024598 0.4822809377416897 -16.09826578946113 5.936187717517323 10.806586675951241 -46.619450704300135 -1.1424932434524286 -24.986326360536843
10.827022720548914 -0.680156895530974 30.516727905554763 37.268268399707765 22.538202187938765 24.586647680442823 -32.91881879994587 -13.028344625181452
0.27873093486146194 25.01234626545444 9.699673095914608 3.5143069540297636 7.572438792525318 19.626708281882188 3.450707968071883 22.384984697011557
-31.92325958300427 6.434896898722457 24.121869186373054 11.11593583635825 6.242368880406104 -4.943214010444153 -7.40513911533843 -9.066516855213063
37.71703216959004 7.171312286500001 13.779895863842825 -8.839817747900614 32.96315013631785 -3.7804186087627545 -17.021303553501767 19.103367561154723
-26.832005225192344 26.531123492544985 1.33280540846713 -18.733934679252336 3.377834985072997 3.3242234611355648 18.761097774957804 3.5300380702262744
-4.457769088122105 -20.29190143711217 -13.21726589955863 12.452488632287169 1.5146788288313582 8.980604358204523 -40.098752580803065 -30.187133711016145
-21.560435633013753 -11.91644907480336 0.17124573473839677 34.132027552127944 10.891367082876716 -24.569613824339086 -13.845742782571786 -6.95063825771742
22.936499074241254 -1.873052915989927 -29.601245697434283 10.725625010155527 -14.44015528370961 23.247752101864204 -27.58281193322226 2.825511227709228
-30.341676541749862 -5.622631138845211 -38.81710199658972 2.773853370969961 -2.3631069211185234 -11.351501114618564 1.5031515365694188 -7.185792977804916
9.158632652667215 -1.4189894660550664 -6.982248558821832 31.38493954214214 -19.328560024507745 -23.962303913772065 4.170800336967882 16.139864555937322
-19.181972873609112 -7.311848341632635 -6.713116594348371 13.65941120793877 8.153364820424645 -31.30337543733154 5.6089420850160945 -5.917504603977101
43.307606548460186 26.625284385119627 -13.7269149403616 -8.343202100777585 -22.42302496053178 -19.03693680383023 4.572041227988862 20.642836318742646
-12.405410000354268 -4.9546925560769175 -45.742638863685734 -36.19428058771611 -33.16377351212374 -9.277222797134506 8.209476515950783 -7.020350538812547
-6.761248317649557 -24.097130976631764 17.405556485367157 -3.0734587865172784 -18.491742770041892 6.363385039906186 -9.110211389612687 10.202706719675888
-3.0077027976752015 -22.30494917145166 49.99683493827894 -24.619582713745235 -18.253542320592693 -12.707470712808092 13.657306727126892 -8.405591044153331
-17.488851768673015 -16.411246822835864 -48.163119828455294 16.15278215442168 -17.919927813526627 -5.506554940979643 -12.010337531745623 13.86379734895953
-22.15308606537382 -8.501750467354203 -32.45590647089687 16.002721607433664 11.671542477163467 18.979199427516672 -14.56526443285923 -15.0565713798855
-18.178060904596247 -28.49090472368029 4.000417340640373 -29.85564292711865 7.91981067333581 -2.3815436984767935 19.83643110787671 11.459164934748006
-8.741755331694911 -1.256703232578618 19.879504369452228 13.25221471641962 58.17726778252786 -5.026137588840002 -7.153803623681499 24.93058456799064
00000000: 0b7d d598 8267 25c0 27a4 9a6c 9b8c 1040
00000010: 224e be76 3f1c 4440 8ba6 0059 c525 45c0
00000020: a68a cff8 681c d73f bab8 ca12 5bf4 29c0
00000030: 5e66 6df0 50c0 3340 c0f9 09c6 26a0 1cc0
00000040: 43a6 a4f5 f758 0240 0ea4 9beb 906e 31c0
00000050: cfda 6d13 74fe 29c0 f63a bdb0 81a2 2ac0
00000060: e949 1b11 501c 24c0 1423 19ba 0592 39c0
00000070: f565 61ea ff80 38c0 bfab e4be c942 3a40
00000080: edfa 7df0 0eb5 0140 fb19 e6e4 92cb 3140
00000090: e478 b361 f83d 2c40 ef3d 30bf a2eb 4340
000000a0: 4a85 fae6 c1a8 42c0 d84c 24a7 9cb6 1c40
000000b0: 4313 196b 98b2 2d40 3eef f89a 1fcf 26c0
000000c0: ce55 89bd 198d 2640 fb00 5174 0874 23c0
000000d0: 22f8 2948 ca55 3d40 7f2c 88b2 7a28 3040
000000e0: 56f4 3f5a b90a 1a40 4ed6 4811 4d62 2e40
000000f0: e318 23ca 7f4b 3540 12f1 8eab ae2d e03f
00000100: 7416 5054 2642 23c0 0e93 fc6d f582 3a40
00000110: d6c3 2b81 2365 3d40 03e4 579a 1342 23c0
00000120: 576f bb18 732e 3440 4d50 be95 1a48 25c0
00000130: 5bcd a2ca 4895 48c0 ea97 6135 c579 22c0
00000140: ea76 df4a 5e0e 44c0 aef4 73d0 6463 18c0
00000150: ea09 0877 f3c6 1ac0 544a 7396 b9c7 3340
00000160: 7414 e484 2c1c 3040 901a 0cd3 330b d5bf
00000170: 9284 69b9 64ae 3cc0 bd0e 5df9 eb5c 17c0
00000180: 1f84 34f9 4b74 23c0 4b61 c287 b60e 2ec0
00000190: 9dc5 2c09 3753 20c0 4a3b a29c ed35 40c0
000001a0: 380d 3ff3 b4ae 2740 d5b0 37fa 28a9 f93f
000001b0: d3ba f514 688c 2240 50ed b357 5d67 3b40
000001c0: 9ca6 57c8 5e9d 1fc0 bcf5 909c b327 1ec0
000001d0: 082d 89b5 edb0 2b40 a30a 9e57 d671 4540
000001e0: 5eba eba6 ef26 2e40 90b2 ef25 5bbc 4ac0
000001f0: 04e0 b388 6784 3ac0 9484 abc9 5a89 33c0
00000200: 3c1e 85b8 1bed 3540 408c c6df 789f 3dc0
00000210: 77e3 20af 1b04 40c0 af49 32bc 6b48 f43f
00000220: 5c9a 120c 986b 32c0 08ee 67d6 3ab0 34c0
00000230: 8ec7 04c8 2ae1 39c0 2e59 21d7 b253 3e40
00000240: 6caa 2358 1059 1240 f99c 5b33 0e55 36c0
00000250: f451 f3c0 2c34 19c0 a4ea 506c c946 2e40
00000260: e869 3101 0d9a 23c0 fa21 788e 66e8 2f40
00000270: 2b60 e116 cb7f 1740 f46e a152 e806 2340
00000280: cbb2 8676 93da 3ac0 70f9 d255 3dc1 3a40
00000290: 6c30 4a96 dce7 37c0 eb8b fa85 771a 3240
000002a0: 8946 e61d 880c 40c0 ccb5 6366 e4ca 4b40
000002b0: 5065 87ec f4b2 2040 f562 8b4b 3804 37c0
000002c0: c008 b9df 82e6 2dc0 ce26 145b 9756 15c0
000002d0: 1b23 7e1f 73df 24c0 6ced b2e8 c5d7 31c0
000002e0: 826e 4722 f2b4 0d40 2dc7 67ba d139 3240
000002f0: f6d2 e08d 0d52 3fc0 24ca 98b0 c709 12c0
00000300: 8e05 18d3 6924 31c0 dc6c c5dd b0dd de3f
00000310: 1a0d 60f2 2719 30c0 7b9d 36fe a7be 1740
00000320: 2a33 c5ed f89c 2540 043a 2229 4a4f 47c0
00000330: 6377 c8fe a647 f2bf 3eb0 65e2 7ffc 38c0
00000340: f29c a385 6fa7 2540 a08a ce64 d8c3 e5bf
00000350: cd49 af47 4884 3e40 c6a5 719e 56a2 4240
00000360: 28d5 5b9e c789 3640 b4c6 d98a 2e96 3840
00000370: d65b bcda 9b75 40c0 eb57 cc2f 830e 2ac0
00000380: 5843 6746 bad6 d13f c45a f61f 2903 3940
00000390: 4ab0 518d 3b66 2340 414e ddf6 4c1d 0c40
000003a0: 906e 1365 2d4a 1e40 fcd0 36f4 6fa0 3340
000003b0: a352 77c7 0c9b 0b40 0720 6b5b 8e62 3640
000003c0: d1b8 72bd 5aec 3fc0 4094 d49c 55bd 1940
000003d0: c6dc a9d1 321f 3840 aa2f 23f1 5b3b 2640
000003e0: 40a6 3b8c 2ff8 1840 52f2 bfe4 d9c5 13c0
000003f0: f1d5 cac9 dc9e 1dc0 b68b 4b7f 0e22 22c0
00000400: da48 cbb5 c7db 4240 94ae ef7c 6caf 1c40
00000410: 30fb ba82 4e8f 2b40 c2aa 8397 fcad 21c0
00000420: c24f f080 487b 4040 579b 8e1c 4c3e 0ec0
00000430: 2494 5126 7405 31c0 77a0 e64b 761a 3340
00000440: 5f4d 604b fed4 3ac0 369e 8eb5 f787 3a40
00000450: 9cc5 94c3 2b53 f53f fec9 a424 e3bb 32c0
00000460: a762 4159 ce05 0b40 ab62 5178 0298 0a40
00000470: 8c80 c44d d7c2 3240 ed0d 8a99 843d 0c40
00000480: af6a 7a6b c1d4 11c0 5b0d 760d ba4a 34c0
00000490: da47 da79 3d6f 2ac0 67f8 0a97 ace7 2840
000004a0: 6463 1cde 1f3c f83f 649b 41c6 11f6 2140
000004b0: ee78 b0ec a30c 44c0 20cb b0fe e72f 3ec0
000004c0: a04e abb5 788f 35c0 b475 29d0 38d5 27c0
000004d0: b4f4 2357 61eb c53f bd47 6147 e610 4140
000004e0: 725f 2b44 61c8 2540 c8e2 2a36 d291 38c0
000004f0: 9ef2 af32 05b1 2bc0 16e4 8c1d 74cd 1bc0
00000500: b899 4067 beef 3640 b0aa 9d55 06f8 fdbf
00000510: 4957 ef3c eb99 3dc0 298e 0f1f 8573 2540
00000520: 8563 8908 5ce1 2cc0 a305 87ae 6c3f 3740
00000530: 7ce8 b029 3395 3bc0 80ef 6ba1 a59a 0640
00000540: 44a0 241d 7857 3ec0 e43e 6b04 937d 16c0
00000550: b16c 58cc 9668 43c0 03b9 4109 da30 0640
00000560: 133e f999 a4e7 02c0 ac96 3ff4 f7b3 26c0
00000570: fff6 27a0 e80c f83f 89fe ad83 40be 1cc0
00000580: 1c91 8e4c 3851 2240 4033 614c 2eb4 f6bf
00000590: 4abb f290 d2ed 1bc0 0d70 d865 8b62 3f40
000005a0: a208 8082 1c54 33c0 bd76 9e8c 59f6 37c0
000005b0: fbb0 9548 e6ae 1040 d09e dd29 ce23 3040
000005c0: 08e9 34c6 952e 33c0 fb7e f22b 553f 1dc0
000005d0: 38d8 8b3c 3bda 1ac0 fe6c 8958 9e51 2b40
000005e0: 5a29 70d5 854e 2040 a8bf 3d03 aa4d 3fc0
000005f0: 6e35 9183 8e6f 1640 590b b053 86ab 17c0
00000600: 02d6 c0a6 5fa7 4540 ccc9 30a3 12a0 3a40
00000610: 5ba7 ef31 2e74 2bc0 3684 8d2f b8af 20c0
00000620: 2de0 225d 4b6c 36c0 3878 bcb0 7409 33c0
00000630: 10b4 f82c c549 1240 42ae c5eb 90a4 3440
00000640: 61fc 49e6 91cf 28c0 0c57 e8ec 9ad1 13c0
00000650: 6922 50ca 0edf 46c0 823e b12f de18 42c0
00000660: e242 cb87 f694 40c0 f4cb 7e25 f08d 22c0
00000670: c893 8281 406b 2040 9c9f 8ac5 d614 1cc0
00000680: 6cc2 d1ad 840b 1bc0 dd0f 6093 dd18 38c0
00000690: 2855 c18c d267 3140 8090 6d8f 7196 08c0
000006a0: d75f abda e27d 32c0 ca02 3935 1b74 1940
000006b0: 0011 94a0 6d38 22c0 f05f d72c c967 2440
000006c0: 52d2 007c c60f 08c0 c253 1e26 114e 36c0
000006d0: 88b5 8949 98ff 4840 e5b3 04f9 9c9e 38c0
000006e0: fa18 4726 e840 32c0 f2c6 ec99 396a 29c0
000006f0: cfe6 e081 8a50 2b40 cb60 1ca1 a9cf 20c0
00000700: d80a b763 257d 31c0 f8a9 c678 4769 30c0
00000710: b645 4c1c e114 48c0 4ea7 34bb 1c27 3040
00000720: 14c7 a163 80eb 31c0 038a a456 b606 16c0
00000730: a289 01f6 4a05 28c0 2c4e 68a5 43ba 2b40
00000740: fe40 fca5 3027 36c0 fa13 f06f e500 21c0
00000750: b744 ab24 5b3a 40c0 8eeb fe5c b200 3040
00000760: 7695 626a d457 2740 2f72 4dd0 acfa 3240
00000770: dc71 f956 6a21 2dc0 e2fe 84ec f61c 2ec0
00000780: e3ef 4166 952d 32c0 a5a8 95ee ab7d 3cc0
00000790: 569b 4167 6d00 1040 4007 356a 0bdb 3dc0
000007a0: c8f4 61d9 e2ad 1f40 289f 57c8 660d 03c0
000007b0: 01b0 5d59 20d6 3340 e26c 94aa 17eb 2640
000007c0: cc86 d65a c77b 21c0 0a3e 4bd9 741b f4bf
000007d0: 867c c732 27e1 3340 322f 8d49 2281 2a40
000007e0: ba4b f0b5 b016 4d40 710e e5cf c31a 14c0
000007f0: 92df 76b2 7e9d 1cc0 9dae 4dca 3aee 3840

arr_3 f8 [64]
-10.139869886623732 -27.57438838830505 6.273573341661352 0.7736335040465698 22.976925249233684 1.1234513835586095 -15.005429167262175 9.545508582266644
-9.719588316152159 13.843104360181947 -19.73281041059769 -28.210605434338916 10.2699833275134 0.3461360947927586 -7.6353500771590745 -20.866446270622944
38.69237263781439 -6.268024672483879 -17.368107180353633 -4.657535625852324 13.753847877143727 -11.080848024538136 12.282731750453241 15.102983237245919
13.192967582989844 11.812352310699568 -7.673745869103438 33.12426185706711 46.00140722027374 -13.869145374522539 -30.845168652418664 23.148323440324447
-3.982453257154666 36.1289155458425 20.50474128740352 23.933933171365403 8.44696230281336 -18.09172000866993 12.601403709917445 17.86257216405391
-17.354649794472135 -16.683476000386218 5.581905790403843 21.882522912964415 35.86907631624751 13.764127386285448 -4.845325808569777 -6.8278097965642335
-6.631016107193716 -22.98656421418951 2.303067396615856 -3.834904050752608 -14.19674882761264 4.332611392682332 0.05698184960690922 12.723918738258256
17.576665791300158 -17.91158842855441 6.1680303546941655 23.56594302792073 28.0756403581091 -4.101367659408571 18.182193392111618 20.42711624434223
00000000: 027d 9906 9d47 24c0 ebf8 0e1e 0b93 3bc0
00000010: c6f8 2d9c 2318 1940 6e09 df0c 9bc1 e83f
00000020: 6718 ecc5 17fa 3640 9e7b 7028 a8f9 f13f
00000030: ceab 9f9c c702 2ec0 8d0b a1e6 4c17 2340
00000040: 1aea 38e1 6d70 23c0 6431 ec5f abaf 2b40
00000050: 77af 8b76 99bb 33c0 74d8 dc3c ea35 3cc0
00000060: 4745 3441 3b8a 2440 4967 c601 1827 d63f
00000070: 20a3 eb35 998a 1ec0 1411 3c6c cfdd 34c0
00000080: 6e07 a6aa 9f58 4340 845b 4b0f 7512 19c0
00000090: a80a ad45 3c5e 31c0 66f6 e304 51a1 12c0
000000a0: 90fb 5459 f881 2b40 cdac 8ae9 6429 26c0
000000b0: 9a79 4b37 c290 2840 ce03 0838 ba34 2e40
000000c0: 5442 a4a5 cc62 2a40 c191 5ea4 ec9f 2740
000000d0: 1c75 e66f eab1 1ec0 2a1f 02d0 e78f 4040
000000e0: e986 9e1c 2e00 4740 8416 5e9f 00bd 2bc0
000000f0: 18be 09f9 5cd8 3ec0 786c 6586 f825 3740
00000100: ae9f 0a74 10dc 0fc0 76ab fa4d 8010 4240
00000110: cc56 9ab9 3681 3440 faa9 8b3e 16ef 3740
00000120: a741 323e d8e4 2040 4ea0 65f6 7a17 32c0
00000130: b693 e32f eb33 2940 2e0d 8387 d1dc 3140
00000140: 7bca 3454 ca5a 31c0 7b42 7d48 f8ae 30c0
00000150: d68c 8c1c df53 1640 1f27 8905 ede1 3540
00000160: 6f01 8ae4 3def 4140 de25 6cb4 3b87 2b40
00000170: 7a16 b916 9d61 13c0 0a35 0e5f ad4f 1bc0
00000180: c095 1e16 2986 1ac0 0f59 eb78 8ffc 36c0
00000190: 7a97 6799 ae6c 0240 363e ca2c e2ad 0ec0
000001a0: c93e 2843 bc64 2cc0 f963 b714 9854 1140
000001b0: c0f5 0d99 b92c ad3f c48f 137a a572 2940
000001c0: 2c5b 8a5e a093 3140 a00d f8db 5de9 31c0
000001d0: 3e96 3826 10ac 1840 9a51 6ca4 e190 3740
000001e0: 1956 a02a 5d13 3c40 a520 78ec cc67 10c0
000001f0: adaa e439 a42e 3240 4c0a 7d7d 576d 3440

arr_4 f8 [64, 32]
0.42786809249866753 11.134597658856123 8.84104640311055 27.007961133268335 34.03411885705586 -11.616996844923573 -19.807028875317755 -16.429274312777697
21.15347142219574 11.510511959539487 2.826305808578936 0.9867976594300336 -9.435107649769618 -2.4886830069827237 3.1932500025034525 11.217831201749995
14.451249449581544 15.605890799945058 6.595810210843421 23.39997582921863 23.466853521091622 15.183299547943726 33.85751463665969 -7.6328403672037535
-33.90210859174179 24.823005360233097 10.297053166043804 -6.7347706343227465 -16.504856908563955 7.208784267457627 -6.222796672512684 9.309323064908074
13.948281172633198 5.958207255132623 -7.812856873564714 28.63763717431236 4.9911893693598355 7.824490887424492 5.471670681238779 18.154300876625832
8.008428481402245 35.17248760979749 4.873752215973957 4.370930697195963 -4.882381136299173 1.5851400315437343 1.768574690892422 12.574095294687837
16.878625241767814 -13.82126381782475 15.985031746645081 2.5438187407993955 12.3630071078804 -38.32273470645664 -19.077065810891146 22.940032046700615
-22.949874774058692 -12.999496765435063 11.737839631477398 8.447139840484626 14.27597172163695 -6.2744901628628025 -0.9247053835273267 16.26438079343646
25.271443294258074 -0.051582861000803615 -32.892477364835194 -5.471128387879132 1.727063315502587 -16.656343328017506 10.971905483386749 -14.656962913177773
13.65937410476173 3.213921911143885 -6.377439760860079 -9.842061061527781 44.79764926679122 -24.870683832745534 -2.4768783209000915 22.26667595235284
3.5335433006188577 20.05981219811673 22.441116971650864 -10.978639046705416 -24.585784380767464 5.889529073235088 -5.145322386779327 0.77840568592129
-8.155738037132368 -1.5116727015253864 26.15715574345481 14.175277592839908 -8.032677858043758 33.314872002402076 -6.7974121186343694 5.480027664065866
14.28755768767881 -15.998852573027445 -7.284577866750039 27.9929549692081 12.896044366387635 -21.639322522900265 -11.666718684850736 -50.803310961781435
5.871868238015934 -34.90741041260823 -1.3141880566015358 7.043677706729651 6.659878445563542 19.09677488920334 -11.630308973372362 -0.16781281176422524
2.2510825543166737 -2.7927310188077943 7.449167875788213 -13.018729928732595 6.228021731788291 -0.3104150191292333 15.213558381714819 -11.507422860024999
6.488261417349818 18.787299925762106 -25.950485075297653 -12.414628368720882 -8.323668682103738 3.015874015281057 11.960253294337134 24.136826612652627
-3.534414635374381 -24.415871891396844 -12.510525442694957 -26.45204934228079 21.294158676429447 20.793591800020675 -17.05318831215295 7.952963741064813
-24.5783582800118 3.886587133672898 7.515228252936231 -23.96381010331981 13.399595364848846 -8.08403954398518 3.8444083807062666 -12.072083518137777
-19.991385188946403 -8.357246250060054 3.414627928932955 -4.31841421029566 -0.5308291083771558 5.6109777246716455 11.391976339773711 -30.524877345049347
23.80289245669108 -24.233732778456243 -6.163998758526684 -6.83694785353671 -17.894941969289953 -38.69652545921679 -8.985819430390102 -7.83993076482396
-6.970535635872436 17.84874332466496 -16.282081106966064 -23.672801665668285 14.161225214912754 -12.120804879658996 -13.932041930779796 -11.879054657094299
0.47690073959009394 21.15910800226094 10.685135361120565 -0.6356489111885298 -12.39477533022309 -12.285227937556844 -5.454395647352408 -12.127004193729189
-26.421157484719988 23.186395141718876 -2.8146817743506904 -2.261725553211517 0.4176054272311893 -17.646145903516558 31.82725780534304 26.284557252171062
-4.364034876376069 -10.426006334883938 -15.763498139584534 -4.716117738211483 -21.80886829545927 27.375961454467152 11.928569693706162 -8.746917213337476
13.238947955042864 -2.585228554428599 -7.474919752224558 -9.165668941388539 -20.497809255392028 -12.441521891915693 -9.560260629005631 -29.116579947602865
7.646969928835034 13.566982415773237 20.434747119195297 -0.25907565035873364 -26.07634500413039 11.487108762900629 -5.198099930838103 -21.31749753123168
12.628054554467637 -11.449104537924338 24.33507822592386 9.256315977657867 11.028798831967046 -7.258989352444564 -6.403235218706517 -18.8156520617072
4.5610984160705375 -7.160003961157437 20.960424944587583 -34.928716844971014 -4.784321093675121 2.2222849981228636 -33.46753589934299 2.9670312450707
-8.100578534300215 9.843740297066311 7.121948287651405 18.702943907959405 -24.28803262958792 -2.9271208453111104 23.674088165365273 -26.296446258227988
-39.29461522065741 -2.893077307713774 6.425719415413541 6.236785219868037 8.735860137988691 16.18194553128916 0.3616145537984987 5.776486207980394
16.607017703272838 -15.905520675042093 20.730438600359243 -12.352044406226872 -20.40517888426539 14.097882577077018 15.771036215774327 -10.496208968907528
-4.107003932129868 -11.29445228333509 30.27736647589077 -11.564618821627194 -13.108608357778188 -7.263886023448874 0.2814407237153491 13.093559904736125
00000000: d027 12da 3062 db3f 78cf fdfb e944 2640
00000010: 768e 57a2 9dae 2140 cf06 a7bd 0902 3b40
00000020: ac9d b701 5e04 4140 265d ad02 e73b 27c0
00000030: dc6a c271 99ce 33c0 a164 deeb e46d 30c0
00000040: 8933 33e7 4927 3540 c1e0 d4d2 6105 2740
00000050: 1ebb 4238 469c 0640 d2ae 60af d893 ef3f
00000060: f7ff 0b6e c6de 22c0 5cd0 e8a2 d2e8 03c0
00000070: 4ca2 45a8 c68b 0940 1421 3f92 876f 2640
00000080: db94 f82a 0ae7 2c40 306c a551 3736 2f40
00000090: 0cc8 6812 1c62 1a40 3baf e1d0 6466 3740
000000a0: 681c 5db6 8377 3740 6c94 3770 d95d 2e40
000000b0: b825 240a c3ed 4040 3eea 224e 0788 1ec0
000000c0: 5e7c 594b 78f3 40c0 44a2 b27a b0d2 3840
000000d0: ada9 425a 1798 2440 d4e8 91b6 67f0 1ac0
000000e0: 1d71 674d 3e81 30c0 6c99 028b cbd5 1c40
000000f0: fe65 98cf 24e4 18c0 7a5b bf97 5f9e 2240
00000100: 86be 1f1c 85e5 2b40 9356 5e48 34d5 1740
00000110: 3228 618d 5d40 1fc0 ac62 9a30 3ca3 3c40
00000120: 662c 9658 faf6 1340 545a d556 474c 1f40
00000130: 429c 99a3 fde2 1540 22da 2243 8027 3240
00000140: 86f4 e7bc 5004 2040 d185 f112 1496 4140
00000150: a6a9 a1e6 b87e 1340 1428 b641 d57b 1140
00000160: 900c aceb 8e87 13c0 d2f8 30cb bb5c f93f
00000170: 02a9 9ef9 144c fc3f 88f1 86d1 ef25 2940
00000180: 36d5 7695 ede0 3040 0ce4 edb0 7ca4 2bc0
00000190: 8ab9 c214 56f8 2f40 817b d5a3 bd59 0440
000001a0: ac1f 5111 dcb9 2840 fac1 f05e 4f29 43c0
000001b0: cd6a c195 ba13 33c0 66c5 b1f0 a5f0 3640
000001c0: a2e0 41fe 2af3 36c0 b500 400a beff 29c0
000001d0: b7c6 bd1d c679 2740 813d 5f83 efe4 2040
000001e0: 601a 5e2a 4c8d 2c40 1e47 02f3 1319 19c0
000001f0: 90eb 95be 2f97 edbf 0880 ad75 ae43 3040
00000200: 938e c74e 7d45 3940 68ac 109a 1169 aabf
00000210: 9731 c3b2 3c72 40c0 dea1 e87a 6fe2 15c0
00000220: 7047 a324 0da2 fb3f 72c8 c81d 06a8 30c0
00000230: f8e5 7398 9df1 2540 1d91 6571 5d50 2dc0
00000240: d38f 8f7b 9951 2b40 2016 e2b0 1cb6 0940
00000250: 996a 9491 7f82 19c0 65fe a0a0 22af 23c0
00000260: f945 055f 1966 4640 4acc ba22 e5de 38c0
00000270: 907f c394 a5d0 03c0 30fc 0de0 4444 3640
00000280: 5c43 9959 b244 0c40 30d0 2ada 4f0f 3440
00000290: 76f3 b60a ed70 3640 7360 582d 10f5 25c0
000002a0: 64e7 15f7 f595 38c0 278b 99b5 e08e 1740
000002b0: 2060 4a64 cf94 14c0 2aad 810a b3e8 e83f
000002c0: 1974 60e5 bc4f 20c0 89eb f4b6 cf2f f8bf
000002d0: 5884 da5b 3b28 3a40 22f0 11fc bd59 2c40
000002e0: da33 f726 bb10 20c0 195f ccb9 4da8 4040
000002f0: f0df 6bcd 8c30 1bc0 495a 395f 8ceb 1540
00000300: 7696 e0c2 3a93 2c40 4e5b bd9a 69ff 2fc0
00000310: 6e6d 5b61 6823 1dc0 4426 ff4b 32fe 3b40
00000320: c4cc c253 c6ca 2940 ee73 0fa4 aaa3 35c0
00000330: d021 c626 5c55 27c0 4eaf c2e4 d266 49c0
00000340: 5fcc 0207 cb7c 1740 e219 3f06 2674 41c0
00000350: b95b 3e0e ea06 f5bf 5edf 47d9 b92c 1c40
00000360: 771f dc2c b7a3 1a40 ce33 383d c618 3340
00000370: ee04 96db b742 27c0 8046 30e5 e37a c5bf
00000380: 0e17 fb91 3702 0240 146f 425c 8357 06c0
00000390: 58b2 e3a9 f2cb 1d40 cfb9 1ef8 9609 2ac0
000003a0: 633b 6387 7ee9 1840 b239 d6f4 d6dd d3bf
000003b0: f080 3286 576d 2e40 ae19 daed cc03 27c0
000003c0: 10aa 0dcd faf3 1940 9e4a e97c 8cc9 3240
000003d0: 51bd 69fd 52f3 39c0 cf4c 672b 4ad4 28c0
000003e0: fdbf c8e6 b7a5 20c0 21e8 438e 8220 0840
000003f0: c71b de51 a6eb 2740 c490 a211 0723 3840
00000400: 6d7e 2b2e 7b46 0cc0 07e0 8c94 766a 38c0
00000410: 314d 4097 6305 29c0 3946 7581 b973 3ac0
00000420: 6019 a7fb 4d4b 3540 6b76 0bd5 28cb 3440
00000430: f339 cdbf 9d0d 31c0 b796 18ba d5cf 1f40
00000440: 8005 ca49 0f94 38c0 926f c1fe ba17 0f40
00000450: 6658 c1fe 970f 1e40 1e50 4942 bcf6 37c0
00000460: 6651 7fc3 97cc 2a40 65f9 293b 072b 20c0
00000470: 59d0 5c2e 59c1 0e40 faf6 8121 e824 28c0
00000480: 7a43 746b cbfd 33c0 ce40 01fb e8b6 20c0
00000490: b833 9672 2851 0b40 c334 ef5f 0e46 11c0
000004a0: c7d4 8753 8dfc e0bf 6432 0825 a471 1640
000004b0: 8b44 701f b1c8 2640 f465 975c 5e86 3ec0
000004c0: 7bb1 2b5c 8acd 3740 0879 4fe9 d53b 38c0
000004d0: acd3 614a efa7 18c0 1c97 addb 0859 1bc0
000004e0: 0eeb b9ea 1ae5 31c0 7015 0abf 2759 43c0
000004f0: dc92 0a53 bdf8 21c0 ee4a 77cf 165c 1fc0
00000500: dfb2 fe17 d4e1 1bc0 6222 163e 47d9 3140
00000510: 1d3d a977 3648 30c0 57bd deba 3cac 37c0
00000520: 84ae 821c 8c52 2c40 4baa 1e23 da3d 28c0
00000530: 5c66 9699 34dd 2bc0 a73b b773 13c2 27c0
00000540: 1492 fead 8a85 de3f 1d3e 524d bb28 3540
00000550: 24b1 e20f ca5e 2540 295e a962 3c57 e4bf
00000560: cc26 f9fd 1fca 28c0 a26c 6f65 0992 28c0
00000570: 1a4b b317 4dd1 15c0 1e0b 95b1 0641 28c0
00000580: 8556 17fa d06b 3ac0 dcd0 8d97 b72f 3740
00000590: 24de cbe0 7784 06c0 5a91 1c91 0318 02c0
000005a0: a4c3 251d 0cba da3f 490c 64d1 69a5 31c0
000005b0: 214f e32a c7d3 3f40 12ea 7bbe d848 3a40
000005c0: f28d 028f c574 11c0 416e 9880 1dda 24c0
000005d0: 1425 683a e986 2fc0 b3d0 e6f7 4ddd 12c0
000005e0: d2c4 1bfe 11cf 35c0 367e 8702 3f60 3b40
000005f0: a60c a57c 6ddb 2740 3435 d8ee 6b7e 21c0
00000600: dab5 e862 577a 2a40 46a6 ef4e 8cae 04c0
00000610: 981d 105d 51e6 1dc0 1474 3a8f d254 22c0
00000620: 0c8e 676d 707f 34c0 ed7d 4c28 0fe2 28c0
00000630: 93a1 2d7b da1e 23c0 de52 f62e d81d 3dc0
00000640: 205e f748 7f96 1e40 674e ea84 4b22 2b40
00000650: 59f9 5296 4b6f 3440 a7c3 5e09 b294 d0bf
00000660: f8f3 9f58 8b13 3ac0 a681 dc51 66f9 2640
00000670: 7628 51b5 daca 14c0 6833 a984 4751 35c0
00000680: af15 d75d 9041 2940 8ebd ad07 f1e5 26c0
00000690: d6f1 c5af c755 3840 32f7 0ad9 3b83 2240
000006a0: 45ec 72b8 be0e 2640 e60b 3b81 3409 1dc0
000006b0: 75c2 73b1 e99c 19c0 89f2 d192 ced0 32c0
000006c0: 0271 4b95 903e 1240 499b 1114 d8a3 1cc0
000006d0: 2b44 bf68 def5 3440 8932 8e31 e076 41c0
000006e0: 2497 9b11 2523 13c0 0aa2 6a5b 3dc7 0140
000006f0: 2ab1 6237 d8bb 40c0 804f 9ee0 7abc 0740
00000700: 82ff 9607 7f33 20c0 2c6f 6cba feaf 2340
00000710: 5e10 0d03 e07c 1c40 ab9b c721 f4b3 3240
00000720: d142 a481 bc49 38c0 a468 7055 be6a 07c0
00000730: 4fdd c00a 91ac 3740 5c1c e8e6 e34b 3ac0
00000740: 4fd0 98f3 b5a5 43c0 6f71 2bb7 0525 07c0
00000750: c2e4 59ca efb3 1940 9d09 1ed3 77f2 1840
00000760: d62e f6a8 c278 2140 508a 7afb 932e 3040
00000770: ac9e 945e b124 d73f 8c48 5433 1f1b 1740
00000780: 5ea6 1f83 659b 3040 b550 ea67 a0cf 2fc0
00000790: 6a47 2c06 feba 3440 e3f7 162a 3fb4 28c0
000007a0: 1af3 a8cd b967 34c0 b9c9 46aa 1d32 2c40
000007b0: 8e90 4542 c58a 2f40 22e1 1a1a 0ffe 24c0
000007c0: 2d2a 5470 926d 10c0 4050 1e73 c296 26c0
000007d0: 27f5 467d 0147 3e40 9130 dbb7 1521 27c0
000007e0: 8c75 c183 9b37 2ac0 6e56 4223 380e 1dc0
000007f0: 04ae 07f4 1f03 d23f f81d 7615 e72f 2a40

arr_5 f8 [32]
-0.2737088195436126 -6.543141010357125 13.375253456610897 -4.176760325447448 15.521857153556951 29.856559200412754 -1.8335592490257782 3.567650554019874
3.3251210043731976 16.07052045628379 1.0917071606421072 -7.256052315826087 -7.040355618249541 -26.043277297914564 0.1023045730141508 -23.558894069365426
-18.729666795205933 1.0918300446672728 19.96914386995381 -3.7939792038343487 24.479493859531388 24.06962212537225 -27.731579306108998 -18.649809824830342
16.576875511477255 2.507531558365429 27.765177019045844 0.15681809505881955 14.414595433462733 -6.201180146875772 10.633747499931918 -17.485670916525983
00000000: e042 24ff 7184 d1bf a866 3228 2d2c 1ac0
00000010: a3b5 9738 21c0 2a40 c21b a4a8 00b5 10c0
00000020: e86b 5fdc 300b 2f40 56dc b876 47db 3d40
00000030: 2d81 1d39 4256 fdbf b892 a85f 8c8a 0c40
00000040: 5734 880a d999 0a40 1970 eda0 0d12 3040
00000050: 1845 7ced a177 f13f 0527 0a94 3206 1dc0
00000060: d75d b2fb 5229 1cc0 ca33 9338 140b 3ac0
00000070: b4b7 53eb a130 ba3f 55da 85ae 138f 37c0
00000080: f962 6e71 cbba 32c0 b22d eac7 2278 f13f
00000090: 0c92 0ad0 19f8 3340 9461 d1c4 115a 0ec0
000000a0: f451 0d1c c07a 3840 448d 6fc1 d211 3840
000000b0: 242b 0ac8 48bb 3bc0 0c44 caef 59a6 32c0
000000c0: 78a8 0f1d ae93 3040 81f0 a6b4 6c0f 0440
000000d0: e273 20a4 e2c3 3b40 566d d986 9d12 c43f
000000e0: 3696 47da 45d4 2c40 61be 1d2b 02ce 18c0
000000f0: 3a42 648d 7a44 2540 f218 dfed 547c 31c0

arr_6 f8 [32, 1]
-39.81717438504441 -2.1269518403203342 17.72824425672936 -17.514900725916117 19.274646761150304 -22.57042148332087 -13.071858064227312 -19.350421855740024
-43.49261959832849 -1.6270333328617208 -10.175612902023916 -5.084808926857189 10.019751125847874 -20.470044624668116 -20.060204678916566 -11.457872570409055
0.6399076717353513 7.284381239265889 10.004199172668606 23.796730210507043 -15.028370524320149 3.212406011592958 8.847688553143147 -9.41145543649683
22.623022331956477 -19.92364775881192 -11.662776914510912 -19.282499353754282 -6.579258403139235 0.029443890335004885 -0.7668265989069692 -31.375601575118353
00000000: 8472 952b 99e8 43c0 28be 9253 ff03 01c0
00000010: 0627 3237 6eba 3140 137f b288 d083 31c0
00000020: c717 0940 4f46 3340 88cc 6f24 0792 36c0
00000030: cf9e 8794 ca24 2ac0 0035 2a3f b559 33c0
00000040: 4218 b428 0ebf 45c0 9e49 a21a 5408 fabf
00000050: 91e5 2def e959 24c0 bc0a bd26 d856 14c0
00000060: cf26 cfd1 1c0a 2440 339c 32d8 5478 34c0
00000070: 4903 e792 690f 34c0 e248 0746 6eea 26c0
00000080: c402 52a7 1f7a e43f c6f8 e8d5 3423 1d40
00000090: 5890 da64 2602 2440 eadc d582 f6cb 3740
000000a0: 3640 d494 860e 2ec0 d91f 4aec 01b3 0940
000000b0: 02e3 e93b 04b2 2140 d407 7749 aad2 22c0
000000c0: 446e 3c64 7e9f 3640 f31e f52d 74ec 33c0
000000d0: 7fbc e87e 5753 27c0 0a84 ade0 5148 33c0
000000e0: 30aa 651d 2951 1ac0 7032 3908 8a26 9e3f
000000f0: 5744 80ef d789 e8bf 9c75 c16c 2760 3fc0

arr_7 f8 [1]
0.9228353467184812
00000000: 55f5 37fe dd87 ed3f
