weights/global_round_5.npz (npz, 129966 bytes, 8 tensors)

arr_0 f8 [43, 128]
-5.659016388570322 5.237016138246563 -0.46231923055065094 8.492267182033169 2.991004823688067 5.710202461365384 10.187974270744471 -0.22167853612294985
6.430677768233746 -11.139441241008143 4.372840799832946 -5.069399037041121 8.16399272637234 5.806905201127537 4.9888733656275885 -11.237563708606594
-0.288873236920161 -3.447583360399071 -4.137030223059275 1.0861546783077705 -2.6509894817923314 0.8097131008176899 8.086463761153768 0.8431758096957378
-1.0889671393889528 6.384132178656786 -5.064079438348509 -2.7531850471800823 -9.09453051693667 -4.360569093502811 -4.244407404460629 2.5435036443502064
2.125372916038807 4.740703786866184 -7.490381698741815 -7.787154662660162 8.178886582405907 3.574125910669509 -4.922082820779304 -1.6510925250682633
0.4384156487320139 -6.169361570838838 -9.139362466220671 2.733570771771233 -7.910892581913418 -4.304879980219795 -0.6416892837322439 -1.3585566375772258
-5.818834597657641 0.5363878813234626 1.0724691958744972 -7.513424643568596 -14.521436322982396 2.280655001739755 -11.606025603431439 -4.527372756632676
-0.6973188981322656 -6.229682447454114 -1.9771554490230399 3.481767123330187 2.522483766846866 9.139136960352264 -0.04810767008243477 7.644467220161182
-2.1977524505316803 -3.276083718951457 -0.9922605703193295 1.4064194565098218 -5.2047102036055515 -8.00115628338683 1.1485310148358425 0.34062625490201237
12.447431292178145 -0.9039763809012464 3.197727276534033 -3.264077312614821 7.63348966002124 -3.1065315935916287 -7.5783642643511655 4.027994388161578
-14.003607322972034 0.08152283236615943 -8.445975328577447 4.032226232619074 -3.209741022805253 -6.67686867670834 -14.982637264358743 10.169679548730256
-15.429871026751407 -2.8809133079837266 -11.396563610138244 -0.38637580701785 11.81456495503759 -6.425047143039213 -8.58502680388183 3.6823767992433782
3.9111219351171873 -5.492481047987607 4.863213840927651 0.7361032851769869 -4.842206606193352 7.61925251422247 5.612823609740232 -4.321567530221266
9.816278601411572 7.8213018457155465 3.8515462823230044 5.048419990738001 1.4818832867554441 9.607037715468847 3.3922154257818966 1.272821174081471
-2.694937607665298 0.3397051853088753 -3.4656502702476732 -0.3847252384962243 -15.444445303604555 4.273918763515911 -7.999900249074358 1.8872968269502282
13.35905271970121 2.1056287575944364 -2.685976421316818 -1.5200063716949597 3.6168192218479964 -14.879416780316909 -1.894351973246546 -1.9844394619345782
-0.5974654453551812 1.8010375584760134 -1.45558272484763 6.293244148370601 -4.964127300502167 -3.926257721863255 12.32193359476776 3.8645469442136955
-5.299939828877434 -1.893488352435582 -13.195715107083863 3.8777993627584886 -2.524174736585037 2.2860782894523197 -2.6996234792931553 9.26412045830712
14.63464044492385 -2.841016839583418 -0.23643599163389273 -7.563297798403874 -1.2094115689606137 9.574600905028213 0.40071694438852345 0.6452866467734635
1.3553532776370694 5.6585916225738355 -1.2391188937913302 6.2902811619893235 22.332053650004834 -3.5785801224869282 -4.3995775611941745 -5.684370178651008
-6.140510104333695 -4.265317385147292 7.869300637924081 -9.190265166713516 7.92506406396532 5.7377373178412485 9.857767384864188 2.6583519490777148
-0.21507823078069221 -9.080372246393924 1.5370557181020041 -4.712047081943869 -3.1464958805856513 -3.1806502482757417 -3.2000200077535865 0.8768643389189108
8.64697325435044 1.9313720991803298 9.60157174386255 -2.1600417323540375 -1.0291763785866683 -9.89651979705017 -4.844453726897844 7.657670128477817
-8.71145233583604 -2.99435808132635 1.5495810998793926 -5.432812610980512 8.791115700599855 -3.479757590160231 -13.30558057998968 -6.517607979692679
-3.703282796577469 -1.8788843935663313 -0.6773373211813017 -0.06165420812592726 3.6699581480631465 3.000789818055159 -5.38454376249307 -7.054385931715677
4.40096138778454 0.4733288651181573 -2.2226028381549345 0.7488894092001583 -0.3275447310236026 3.9824845078549513 5.406540256285986 0.543022657791383
-2.5894531071952964 -3.789794262748417 -0.41074861035986576 2.6472921563785827 -3.6435575935154034 -1.9392820267640885 -6.991934504381641 -0.24441357827886057
-10.607560969592683 9.97145456118394 6.9974611101170225 -1.9266143144944246 10.19668273087437 -2.9862625435551475 -5.128798894606803 2.245664305695497
-2.2877004807954457 -1.068407337308537 -8.382030966300198 4.332907623557217 -9.073043716893535 4.368544093063163 4.0539722316371956 13.75641818968364
0.14445387402013 -0.22532728026457627 -4.64570017488479 2.533276863642582 -11.346766393996834 9.024245908540593 -2.2142027036089678 -2.5319538947816285
0.4326718500807969 3.0399207432916 2.275257212751671 2.1656600766396035 -7.809614421136452 7.588979536486703 6.964408269159036 5.255805945600117
2.3532335178995822 -3.0970060025485395 -1.1145848520083814 -5.575546681314137 -3.7844454354049906 -0.023459480213483652 8.150796385280483 7.135459085205623
00000000: 10c0 3131 d5a2 16c0 a492 c95b b4f2 1440
00000010: 38b9 e165 a396 ddbf fd73 af71 0afc 2040
00000020: 1359 dfef 93ed 0740 8069 6450 3fd7 1640
00000030: 85ac e229 3e60 2440 d0c5 6f57 f65f ccbf
00000040: 7cb6 c697 03b9 1940 f0af a3d7 6447 26c0
00000050: 8396 87fa c97d 1140 aedc 898a 1047 14c0
00000060: 271a c9da f653 2040 a342 675b 453a 1740
00000070: 1606 3538 9bf4 1340 145d 4ef3 a179 26c0
00000080: 88c0 502c e67c d2bf ad2e b995 a694 0bc0
00000090: a669 9aa6 518c 10c0 1cab 5bba e360 f13f
000000a0: 54b4 32f9 3935 05c0 8af3 e472 2be9 e93f
000000b0: a1e3 64fa 442c 2040 0a7d edd5 4bfb ea3f
000000c0: f381 a1ce 686c f1bf 42b0 22f2 5989 1940
000000d0: 2a36 500a 9e41 14c0 20cc cbe1 8506 06c0
000000e0: 176f cd4d 6630 22c0 f82b 4206 3971 11c0
000000f0: 0e3c 44ef 45fa 10c0 78ed 4d70 1859 0440
00000100: d286 f183 c300 0140 5774 b20d 7bf6 1240
00000110: b19c ba9e 26f6 1dc0 c613 34df 0b26 1fc0
00000120: cf40 aa05 975b 2040 e2e4 5053 cf97 0c40
00000130: 5acd 9d7a 36b0 13c0 7a69 ddfe df6a fabf
00000140: b0f3 5682 000f dc3f d8ce 9f1e 6dad 18c0
00000150: 566a 6584 5a47 22c0 ae78 505a 5ade 0540
00000160: d3f2 6506 c1a4 1fc0 20ff 2075 3238 11c0
00000170: 5c5b faf6 b788 e4bf cc86 82e2 a5bc f5bf
00000180: 7017 a793 7c46 17c0 f828 08eb 162a e13f
00000190: 61f9 a375 d528 f13f ae59 9430 bf0d 1ec0
000001a0: d04f a4b3 f90a 2dc0 d572 af0c c83e 0240
000001b0: ab8d e6fc 4836 27c0 a427 9a9a 071c 12c0
000001c0: f88b cbb8 6f50 e6bf 651f 21e0 31eb 18c0
000001d0: 2c98 8ac0 6da2 ffbf e1ed b7b8 a8da 0b40
000001e0: ab62 1af8 0b2e 0440 72c1 acf5 3c47 2240
000001f0: 80b2 618b 91a1 a8bf c8be 0737 ef93 1e40
00000200: 3fe6 9d3c ff94 01c0 25d6 7e61 6b35 0ac0
00000210: f037 543d 99c0 efbf 39af 22b0 b180 f63f
00000220: c992 368d 9fd1 14c0 a6a9 6e8e 9700 20c0
00000230: 0e96 b20e 6260 f23f 7aa3 3d10 d2cc d53f
00000240: 6c39 deb6 15e5 2840 2e79 0ae0 5fed ecbf
00000250: 33ed d109 f294 0940 ab5e ea90 d41c 0ac0
00000260: e094 7083 b188 1e40 06bc 733c 2dda 08c0
00000270: e040 c2b8 3e50 1ec0 8580 968f aa1c 1040
00000280: ca61 acd1 d801 2cc0 70d3 e32a aede b43f
00000290: 4020 d6e0 56e4 20c0 58b0 dce9 ff20 1040
000002a0: 0ea0 8cb3 8cad 09c0 b298 f80f 1db5 1ac0
000002b0: e080 443b 1cf7 2dc0 6731 e13c e056 2440
000002c0: 5cca 220e 18dc 2ec0 d335 c346 1c0c 07c0
000002d0: a8a7 b062 0acb 26c0 90dd c697 61ba d8bf
000002e0: 54b5 64a8 0ea1 2740 5572 ea8e 3fb3 19c0
000002f0: 67e9 1ba2 882b 21c0 4f65 a2f7 8175 0d40
00000300: f1f8 0f4c fa49 0f40 bd06 acf3 4cf8 15c0
00000310: 8af4 4054 ee73 1340 b806 0a7a 288e e73f
00000320: 6a4d 9868 6b5e 13c0 8434 c254 1d7a 1e40
00000330: 3034 4808 8873 1640 f805 a7ff 4849 11c0
00000340: 82f9 d244 efa1 2340 89f8 dd59 0349 1f40
00000350: 8bdc 4c7f f7cf 0e40 f4c4 9202 9531 1440
00000360: 70a8 d13f cbb5 f73f 27c1 bea5 cd36 2340
00000370: 7bc2 55d7 4123 0b40 3e61 45bc 795d f43f
00000380: a676 cd72 3b8f 05c0 30ba 4bd1 babd d53f
00000390: d4b2 50d9 a6b9 0bc0 945f 529b 569f d8bf
000003a0: 49af b755 8ee3 2ec0 133f 0c29 7e18 1140
000003b0: 8025 d4d9 e5ff 1fc0 6788 5928 5e32 fe3f
000003c0: 2850 11c2 d5b7 2a40 ec14 dbe3 53d8 0040
000003d0: 1410 bb34 e17c 05c0 7843 8233 f251 f8bf
000003e0: ee0c 8bea 3eef 0c40 8c07 8eea 42c2 2dc0
000003f0: cc4f c303 444f febf e269 de97 43c0 ffbf
00000400: 6b4c 89da 6f1e e3bf ca5a 48c2 0cd1 fc3f
00000410: 7e7d 7d1c 114a f7bf fcfa ab31 482c 1940
00000420: ac59 e32f 44db 13c0 a88f f8ce f968 0fc0
00000430: c205 ea7a d4a4 2840 5609 9a96 97ea 0e40
00000440: 882f 2f6d 2333 15c0 7d15 5171 ba4b febf
00000450: 4484 40c5 3464 2ac0 92fa 1bac bb05 0f40
00000460: 5c2d 3886 8231 04c0 c058 0a6a e349 0240
00000470: 689f d831 d498 05c0 6944 f5cb 3a87 2240
00000480: 6a55 a797 ef44 2d40 212b 6b09 67ba 06c0
00000490: 681b d5d9 8843 cebf b936 5823 d140 1ec0
000004a0: 2b70 01f2 bf59 f3bf 44b2 fe16 3226 2340
000004b0: 3883 c6ae 58a5 d93f 3e00 8e2e 30a6 e43f
000004c0: 56a4 1feb 86af f53f 2e7f a1d7 65a2 1640
000004d0: 0808 4b55 6ed3 f3bf 5c8e 0577 3f29 1940
000004e0: c749 cf77 0155 3640 8593 819d eea0 0cc0
000004f0: 7c2d 36dc 2a99 11c0 b0a7 3e89 cbbc 16c0
00000500: ab7b 7be1 e18f 18c0 4912 515c af0f 11c0
00000510: 7c1a 49f2 297a 1f40 8034 996f 6a61 22c0
00000520: 5dbe 75fe 43b3 1f40 edaa 5469 71f3 1640
00000530: 5f22 6349 2db7 2340 865f d406 4e44 0540
00000540: 386e a4f7 ae87 cbbf 3289 138d 2629 22c0
00000550: e40b 96bc c797 f83f 04a5 c8de 22d9 12c0
00000560: aae9 4008 062c 09c0 65de e2c1 f871 09c0
00000570: 50c7 fe16 a499 09c0 a6ee 55cd 450f ec3f
00000580: c7a4 1114 404b 2140 a22e 266e e6e6 fe3f
00000590: b82c 2c36 0134 2340 6ea5 b3f5 c347 01c0
000005a0: fc86 7da6 8177 f0bf 1518 91a4 04cb 23c0
000005b0: d50b 507a b860 13c0 2f79 3547 74a1 1e40
000005c0: 3e28 067b 436c 21c0 d87a 7e02 72f4 07c0
000005d0: 0cb5 278d 15cb f83f a7d4 a53a 33bb 15c0
000005e0: 65db fa1d 0d95 2140 bcf7 bd25 8bd6 0bc0
000005f0: 60b2 ca0e 759c 2ac0 fab6 83d3 0712 1ac0
00000600: 011e 19bb 52a0 0dc0 a250 f514 e90f febf
00000610: a1af 5a51 bfac e5bf a08e 1fef 2391 afbf
00000620: a3f5 7c04 135c 0d40 ccbb 9517 9e01 0840
00000630: 7427 0fd7 c589 15c0 4653 18f2 b037 1cc0
00000640: 37f9 3d9f 959a 1140 a4db fb26 054b de3f
00000650: 51fa 2eff e3c7 01c0 f0bb 1aec e6f6 e73f
00000660: a84d ee2c 7ef6 d4bf 6682 70d6 20dc 0f40
00000670: e805 c516 4ca0 1540 826e 860d 7160 e13f
00000680: 5f6f cf30 33b7 04c0 4395 88a7 7f51 0ec0
00000690: 62e0 178a b449 dabf 9fd3 9482 a72d 0540
000006a0: d0ed 0986 0126 0dc0 f9c1 2a97 4c07 ffbf
000006b0: 5a5f c0ad bdf7 1bc0 30f9 b3b2 f148 cfbf
000006c0: 0874 3d3b 1237 25c0 8cab 037e 62f1 2340
000006d0: 18f0 fb71 66fd 1b40 ea24 0c88 69d3 febf
000006e0: 3796 5199 b364 2440 8cb6 ce9d dde3 07c0
000006f0: 8063 80db e383 14c0 bc0d f6d8 1ef7 0140
00000700: b57a e0e8 354d 02c0 e7be c84a 3218 f1bf
00000710: 23a3 1490 99c3 20c0 be11 6fbc e554 1140
00000720: d778 6efc 6525 22c0 6f5c 6b9f 6379 1140
00000730: 7718 277f 4437 1040 de94 b53e 4983 2b40
00000740: 1036 59ec 767d c23f 8805 d139 86d7 ccbf
00000750: 4b9b 386d 3295 12c0 7c77 08a9 2644 0440
00000760: f222 635d 8bb1 26c0 c07c b0f5 690c 2240
00000770: eeb8 35e8 afb6 01c0 0d89 280b 7141 04c0
00000780: 30cc 7f45 e5b0 db3f 99f4 76f7 c151 0840
00000790: 650d b60d ba33 0240 0f5c 1b97 4553 0140
000007a0: a89a 1490 0b3d 1fc0 ffe4 9c73 1d5b 1e40
000007b0: bf1e 60d7 8ddb 1b40 41e6 69fe f105 1540
000007c0: 80d6 3918 6cd3 0240 80b1 4315 abc6 08c0
000007d0: 52e3 ffec 56d5 f1bf 2043 f61b 5c4d 16c0
000007e0: c17c 1454 8b46 0ec0 a039 3111 c305 98bf
000007f0: f644 0e2f 354d 2040 ee9d 53c9 b58a 1c40

arr_1 f8 [128]
-2.104627213386549 4.567334651906961 3.547362828318044 -4.097837149963909 3.7335378895817692 6.037918045758422 6.316966166190151 -2.1212448154846175
-3.5782482800712674 -0.763583080905508 6.466630520479204 3.029963571448093 -4.5677312067352105 -1.3342743160880834 -6.14210000826293 5.864307146161478
6.581457500826627 6.897542071488333 -0.8871022024868431 7.940317616724368 -8.76351438872583 -8.150998406031814 -1.0835007343339444 6.506174639942071
-7.5132557945987894 2.063917925164178 6.64944925720856 5.665176964296289 -0.5113722604577068 -4.470208662394813 -0.32631133344066665 1.392923176741078
3.8973547364847194 -5.571668027932326 -9.3973595838229 10.076831046718114 5.841687888016127 -6.923673328046397 -0.48123455196363274 -3.4614923538116003
-2.9041846738235026 5.244480153778248 -2.839847224635486 -0.7521316073047778 8.924959251922488 5.766015897190696 -8.6255149681498 2.350780467699769
2.829339843014818 1.5352562433919164 -2.2761567378453176 -0.2097444217956485 5.689868434906147 5.934106043313362 -5.392195275103912 -6.167086738855659
14.304877282943686 -0.40157317618694965 4.6604518659912575 -5.41690014541183 5.209881128816942 10.987153112519467 16.104463537298418 -4.462842774121222
-5.551537514262731 -2.048718400440084 -1.296827406126772 -2.6603390351852876 10.910669868643724 -0.962718525366971 4.806129629941686 2.7842026637482014
9.359653344274735 7.735606203885533 5.196038628380233 -8.297918280838966 2.7703167200659804 2.1150907027471098 -1.807101009171205 -10.278250079280197
-12.727036658475395 0.9203430190095626 -9.172248065053065 2.7732636575010234 -4.784658255454758 10.584502085028925 -2.8274361138138606 0.9129689352289312
3.5233106323506385 -1.1119139388017336 -6.314501410142896 0.8546977822357751 -1.6448022660539536 2.7176328595947385 3.920173707640797 -9.540049611139963
1.5564792781164951 -0.014856665682447479 -1.0738046112398623 -0.7555880523328933 7.704807298722176 -0.03624431380872495 -2.1957604523538103 1.2593265105856521
-7.380751199072854 -2.905703035002796 5.277978779455059 -9.01380174380999 -10.280941844738988 -6.051785645340241 -3.3206746717645346 5.1722383956643325
6.1439452183255785 -2.8870897773340634 -0.9120005556152524 -0.4306111180721046 2.345849321986279 -3.895026143775607 -0.44009156986165 -3.4951099841404933
2.402519539217154 -1.9301587119796666 4.102299531718709 -3.238554865956729 0.506540698335731 5.618603758044511 2.423046065842332 3.0123584257584324
00000000: 7e22 deca 46d6 00c0 d04f ff5f f344 1240
00000010: 6260 35c3 ff60 0c40 21b7 fd6b 2f64 10c0
00000020: 620b f11c 49de 0d40 b6d7 f9fc d326 1840
00000030: 9be6 56c7 9244 1940 2487 aa33 4ff8 00c0
00000040: a7fe 5ea2 40a0 0cc0 1a94 08c9 456f e8bf
00000050: 3518 2364 d4dd 1940 0087 7b8a 5d3d 0840
00000060: a862 5754 5b45 12c0 7cdb 7706 3059 f5bf
00000070: a100 21aa 8291 18c0 bed9 b9ee 0c75 1740
00000080: cc41 5898 6953 1a40 524e cf44 1597 1b40
00000090: 7a7f 7c28 2463 ecbf 3cbc 0e9f e2c2 1f40
000000a0: ac34 a35b eb86 21c0 3e4f bfa9 4f4d 20c0
000000b0: 1b80 b2dd 0456 f1bf 8c76 12a5 5206 1a40
000000c0: 1e23 51ed 920d 1ec0 a4aa b166 e782 0040
000000d0: 317d e039 0999 1a40 0bd2 6e26 24a9 1640
000000e0: 11eb d75b 295d e0bf 6320 2d61 7ee1 11c0
000000f0: b046 5cee 48e2 d4bf fe17 1fd0 6949 f63f
00000100: 8ae6 f051 c82d 0f40 788d f057 6349 16c0
00000110: 058b 22b7 72cb 22c0 89f1 2166 5627 2440
00000120: d2df 016e e35d 1740 4796 c06b d7b1 1bc0
00000130: a0e5 9801 8ccc debf 90cc 37e7 22b1 0bc0
00000140: 54ee 9c2c c53b 07c0 98fe 6301 59fa 1440
00000150: f490 5bd2 01b8 06c0 932e f54d 7611 e8bf
00000160: 8847 5242 94d9 2140 be99 aa78 6610 1740
00000170: 47b9 767f 4340 21c0 ccc4 66fd 65ce 0240
00000180: b825 78ed 7ca2 0640 ce91 c5d9 6890 f83f
00000190: ecec eca9 9135 02c0 16bc 10bc e7d8 cabf
000001a0: c2db f9de 6cc2 1640 7e1b 6c4b 86bc 1740
000001b0: 3cde 60a3 9b91 15c0 e0eb 3bc9 18ab 18c0
000001c0: ac12 0fe0 189c 2c40 741f abfa 5fb3 d9bf
000001d0: fa0e 747e 4da4 1240 40f7 28df e7aa 15c0
000001e0: ec43 2114 ebd6 1440 d9d4 fc21 6cf9 2540
000001f0: 3952 541f be1a 3040 8a29 c874 f3d9 11c0
00000200: 2d1a 0940 c634 16c0 28d4 0479 c663 00c0
00000210: 99ef 1d18 cebf f4bf df24 03d5 5f48 05c0
00000220: 098e 2e52 43d2 2540 288b b614 97ce eebf
00000230: 97be b30b 7a39 1340 7be0 d10b 0c46 0640
00000240: 311d af7b 24b8 2240 3ab1 b1c0 42f1 1e40
00000250: 4c95 a659 bec8 1440 f52a b2be 8898 20c0
00000260: 86f6 01d0 9b29 0640 defa a2ac b4eb 0040
00000270: be57 6fbf e2e9 fcbf 573c 5dcb 768e 24c0
00000280: 364a 1e26 3e74 29c0 6fef f733 7373 ed3f
00000290: 8667 fce5 3058 22c0 ca37 41db a42f 0640
000002a0: c0db 2674 7d23 13c0 3d49 77db 432b 2540
000002b0: 01e1 42d3 969e 06c0 7a4f e2a0 0a37 ed3f
000002c0: b5c2 1c7c bd2f 0c40 7ceb 3145 66ca f1bf
000002d0: 4070 5ca8 0c42 19c0 0453 d529 af59 eb3f
000002e0: 2d6a 512e 1c51 fabf 74f4 f34b b6bd 0540
000002f0: 7ba6 6708 845c 0f40 9820 f461 8114 23c0
00000300: b297 c6d0 56e7 f83f 40a7 dee9 2b6d 8ebf
00000310: 741b 79be 4d2e f1bf 6294 c0fe c62d e8bf
00000320: b3f9 2701 b9d1 1e40 20e9 f25c 9d8e a2bf
00000330: a2ad 25db ea90 01c0 0238 1f8e 3326 f43f
00000340: 08b9 6fa4 e385 1dc0 b4cc 993b e13e 07c0
00000350: 45f7 1a78 a61c 1540 5795 ac05 1107 22c0
00000360: b776 069c d78f 24c0 eb8d d44b 0735 18c0
00000370: dd12 dfe1 bd90 0ac0 abf9 1143 5fb0 1440
00000380: ea7e 1460 6693 1840 3420 7286 c218 07c0
00000390: 90a4 09ca 1b2f edbf cc79 5aef 218f dbbf
000003a0: e032 3aa6 4cc4 0240 5aa6 8477 0329 0fc0
000003b0: fe44 f3d4 752a dcbf b573 2e39 fcf5 0bc0
000003c0: 6382 072a 5c38 0340 a7ac 001a eee1 febf
000003d0: 0b83 5c35 c168 1040 c0af 1c74 8fe8 09c0
000003e0: 2a3d aed6 9435 e03f 7cef 7743 7379 1640
000003f0: 48f4 cbf9 6562 0340 39b3 d35f 4f19 0840

arr_2 f8 [128, 64]
-10.033418351625308 -0.2990043011819602 17.17440206139218 0.4851119649533512 12.176749911399757 -9.80423278570369 -3.744980225637563 -6.425991805311986
-1.889083125574452 0.45029939651690254 -1.669103012266016 2.03530337775656 6.807577241706276 -0.0002822341969372921 2.7914894573105986 0.7723178910464052
-3.520069318467327 3.9784857914104403 -7.431066691639371 10.107700527114016 -4.351213729455559 -3.8398805699296426 2.4792486276043126 0.936595406970002
1.1672383977286271 -6.471913657614129 3.212267770238108 3.7655660564589906 4.291263290147847 8.525805870869496 1.6258318071558155 13.632212970062351
-5.772659312779774 -4.000844178873181 7.403173409400529 6.467486395419254 4.550319098020154 3.062869311443013 4.153999788273476 -8.538285993264383
6.785070129484859 -15.17384627071347 -5.293479109125341 6.842514659989193 2.609406620109608 -2.5214698283230073 -5.793365485858562 -0.4368302984277257
6.887497217482538 -1.5360218264981658 0.011361491669824808 -16.1420716908474 -3.701370510717921 -0.7810113445636603 -1.4798706977694749 -0.3091828234204441
1.9191107785217316 -5.879492378080272 -1.6299779195077895 5.018138142375684 12.18426865874899 -3.903034025526985 -2.3917442701022575 2.5693356167283614
5.071678825726081 -9.144125979282387 -6.731978917813828 6.702430620501971 4.559534689505555 -0.7522360175450946 -9.12700710234791 5.356479971770458
0.4456420561933425 2.2943771799075727 -8.743201066909688 7.136440274459 8.427371726858317 4.143025944896572 0.8184833928521593 -0.36074389932370576
-5.154704974262952 2.0812794138257926 -1.1540641163407601 2.1364092755900184 3.7173453081175913 15.773166541226614 1.7363391202940641 0.4847987925006447
-4.1299125311194 0.07250664975690446 7.4906446745026045 -2.8353598415668073 4.45846175153123 -0.027754985663624776 -6.3467468696227645 -3.559325636326437
5.072973905909111 -4.554594675414783 -3.444207980560538 -9.149033081043717 3.016810595348608 -16.244993601598217 -2.577295627806227 2.0951987488565247
-0.14342237496534183 -5.932587796809988 6.556764951182117 9.486376350490303 -3.998378817285987 -4.434320224691325 3.129450403698903 -4.570791204525289
7.9591919888146725 2.1266297674316177 -4.557471578564794 1.4787622342294258 2.275285780807326 -4.058069578245752 9.048777930883432 -1.6336949992658583
6.917760740912928 0.8372293703348259 2.3546858935694517 2.2688347730101297 -0.6163523334475546 1.7318703980269454 -2.4155068636472614 9.167754859676029
-5.896366443115788 -15.27830385002433 11.903576077782425 -3.063027348911602 2.3451613504465456 5.611078160418479 -0.13940760301471056 -2.5268252727658105
-0.5009378393168075 2.130579844929665 1.723406922044359 -6.100427865509546 -2.6058007091359814 -2.1692103088793595 -4.6469923686765435 -3.0684793409447684
-1.3060696579578532 -4.6915088127370765 -22.899055441539893 7.923506863657602 -8.54606655732492 8.143145946604049 -5.854893462420074 -10.019424888437058
-2.193895934175491 -8.868496042864335 -3.272151165030606 2.4756950693514317 12.44652622565512 -12.848242821790194 3.256875214415432 -7.956263334245859
1.7698516237603785 0.41288255498238646 -4.160442875342654 1.656258727572172 -1.0532652212385865 8.79233218123854 1.0186002723319056 -3.712649370043795
-7.850797842101734 -6.771619150466666 2.903535110068975 -6.574967338318997 -5.485187786536417 -3.4497579681126798 -12.599478192089947 -10.410240602088098
-8.335111444972878 2.4869085878639927 -6.1939198718291095 6.355468530674418 -6.228882526816315 -10.234230549249379 1.172711450354467 -1.463193679533153
1.3736697100130155 -0.047590789724093585 -7.272415570665702 3.3670165067526927 3.4073382090933775 -13.279624497055767 7.257029341088771 -0.9424826786215892
-3.8642665040107915 -3.017505392036292 4.351254824031789 -2.849309812292936 -4.3018023195845885 1.0761010392389165 0.20170469687411652 13.406876398424949
0.7786518419037187 -2.4999962644439675 -7.206047900416056 -3.2322832332357736 1.109684693156532 -12.416863247838506 14.262037327865366 -10.509886152574781
-1.1800691034511952 -4.452446858205199 4.657690432624006 -0.046550535922873504 1.9752917229419271 -9.549604653965616 6.340377881011685 6.340317786565588
1.8744206333317872 -7.465293729117722 14.302850571784518 1.502914704083151 2.5077320974066852 0.964669206522677 -1.470423597160672 -1.4544199709780132
-6.526594695479963 -1.0282571325030467 -4.815273895810549 -4.406433663103837 5.610280880907158 -0.750685042726887 -2.7200236656675396 13.545475449608539
-5.259021117914948 -1.0800537053975945 -3.0970712909469587 1.4205245624201477 5.708956352386367 -3.464355466388991 -2.2853745101440297 -11.352753477544343
-8.438758828472363 -10.968230026488003 -5.384793742948188 -2.8066825880764075 -0.801933945842426 5.564935832862668 2.101669841700729 -10.259029898113809
-6.649231729389106 1.0816826693650226 1.6842315187666166 7.455618508780686 0.5295608891506275 -8.08189062144826 3.8344259631655406 -5.23591346161232
00000000: 44a2 ce35 1c11 24c0 8e26 bcef e222 d3bf
00000010: ce08 0e9d a52c 3140 46de 170e 130c df3f
00000020: d210 e2f6 7e5a 2840 c8ef 5166 c49b 23c0
00000030: 823d 4a31 b8f5 0dc0 46b7 2032 37b4 19c0
00000040: a248 3c3a af39 febf 66b6 5c8f b4d1 dc3f
00000050: ea66 355c a5b4 fabf da38 2723 4d48 0040
00000060: 477d 4887 f53a 1b40 00e0 49a5 1a7f 32bf
00000070: f438 b26c f854 0640 bc1e 8502 d4b6 e83f
00000080: edc2 531a 1a29 0cc0 0cab cd5b f0d3 0f40
00000090: aef1 fb8b 69b9 1dc0 ee6e 0386 2437 2440
000000a0: d8ab 6792 a467 11c0 3526 e34d 13b8 0ec0
000000b0: 0eb5 f14d 80d5 0340 96a3 50ee 96f8 ed3f
000000c0: 0c14 8e2b 02ad f23f 26f4 7755 3de3 19c0
000000d0: 1357 d971 b9b2 0940 395a bb18 e11f 0e40
000000e0: 69d7 86ec 402a 1140 cbdb 566d 360d 2140
000000f0: 2f7e 8836 6803 fa3f b60c 1d6b b143 2b40
00000100: 195b bd00 3417 17c0 f19b e24b dd00 10c0
00000110: e7f7 7f7d d99c 1d40 3c9a eec0 b4de 1940
00000120: 7071 81d9 8633 1240 e98e 24a0 c180 0840
00000130: eae6 d81e b29d 1040 49ee c138 9a13 21c0
00000140: dad0 8c6c e923 1b40 e97d de60 0259 2ec0
00000150: 9e02 9fc9 852c 15c0 7137 bc29 bc5e 1b40
00000160: 7cb1 fa93 10e0 0440 02fc 935f f82b 04c0
00000170: 9426 7e00 682c 17c0 4089 6911 07f5 dbbf
00000180: 9683 1112 cc8c 1b40 6807 6c9f 8b93 f8bf
00000190: 00d2 3e99 b144 873f 83e0 71cf 5e24 30c0
000001a0: 5e4c 6f24 689c 0dc0 cd96 d680 0bfe e8bf
000001b0: 53a8 93e5 8cad f7bf 18d9 c4c0 a6c9 d3bf
000001c0: 556e f280 adb4 fe3f 80be 63a6 9984 17c0
000001d0: 29cf 17ba 6314 fabf 4941 21ce 9212 1440
000001e0: 6802 2e76 585e 2840 5082 36e7 6939 0fc0
000001f0: 6fe0 e3d1 4a22 03c0 d45e f2d4 ff8d 0440
00000200: 9f3c 912c 6649 1440 2d0b 5fe1 ca49 22c0
00000210: ca7c a5e1 8bed 1ac0 500f fbf8 49cf 1a40
00000220: 919d 61a9 f63c 1240 c457 c744 5112 e8bf
00000230: 54e3 2d13 0741 22c0 84bb f115 096d 1540
00000240: 7ca5 4442 6685 dc3f 4522 436c e25a 0240
00000250: 7675 a9d9 847c 21c0 7aa2 d2ff b68b 1c40
00000260: db2e 8c77 d0da 2040 b93d af64 7592 1040
00000270: 08d0 9315 0431 ea3f d4ea 7494 6d16 d7bf
00000280: 9cf3 13fb 6a9e 14c0 36c2 41d2 75a6 0040
00000290: 34bb 52ef 0b77 f2bf cf3d 0cbf 5d17 0140
000002a0: cb6e 7289 1fbd 0d40 07dc 217c dc8b 2f40
000002b0: cada 8687 0bc8 fb3f 488e bb83 f106 df3f
000002c0: 5efe 61ca 0785 10c0 60cc 72b9 cb8f b23f
000002d0: f0c7 bb8e 6bf6 1d40 935e ff23 d1ae 06c0
000002e0: 8e2c 55ff 76d5 1140 80a5 e78e cd6b 9cbf
000002f0: a214 849c 1163 19c0 06b1 1eb8 7f79 0cc0
00000300: 325d edab b94a 1440 d7c4 a5aa e737 12c0
00000310: a809 e9e9 bc8d 0bc0 b335 6210 4e4c 22c0
00000320: 0efd e997 6d22 0840 f697 92e6 b73e 30c0
00000330: 8a69 8c2b 4d9e 04c0 cfab c78f f7c2 0040
00000340: 48d2 fe14 aa5b c2bf 55ca 9f4b f8ba 17c0
00000350: 808b 6397 203a 1a40 b0ce 2d52 06f9 2240
00000360: 8c19 8a08 aefc 0fc0 9629 e470 bebc 11c0
00000370: eeb9 124b 1d09 0940 4c1f 517d 7d48 12c0
00000380: 472d ba6c 36d6 1f40 138d ae77 5603 0140
00000390: 888a 59d4 d93a 12c0 5434 a996 02a9 f73f
000003a0: 67f8 0c08 c933 0240 03d5 6d97 763b 10c0
000003b0: 60d2 c36b f918 2240 0ac5 175e 9d23 fabf
000003c0: 5318 bf78 c9ab 1b40 0ad7 9a3f 95ca ea3f
000003d0: dddd c98e 65d6 0240 46d9 70d8 9226 0240
000003e0: 9d0e 5f87 28b9 e3bf d0fa 06bc bdb5 fb3f
000003f0: 3507 3543 f552 03c0 731b 08f7 e355 2240
00000400: 18a8 b915 e195 17c0 2869 9cd7 7d8e 2ec0
00000410: 040c 0f86 a1ce 2740 9da1 927b 1481 08c0
00000420: c016 40f4 e3c2 0240 5830 2979 be71 1640
00000430: 0487 e1bb 1bd8 c1bf 2ce2 292b f036 04c0
00000440: 173a a6ca ae07 e0bf d4ea 1b72 6d0b 0140
00000450: b516 fe22 1393 fb3f e1e1 f78f d666 18c0
00000460: aa0f cd0a aed8 04c0 6543 36ef 8a5a 01c0
00000470: c9e8 e02a 8596 12c0 ae79 8ee5 3e8c 08c0
00000480: 53a1 334c a9e5 f4bf f867 dee2 1ac4 12c0
00000490: 66b4 567f 28e6 36c0 ea29 84c8 abb1 1f40
000004a0: b84c 2a09 9617 21c0 4f70 ee6c 4a49 2040
000004b0: 3aa2 1a31 696b 17c0 9821 190f f209 24c0
000004c0: 8ae3 c04f 198d 01c0 8f9d 6983 abbc 21c0
000004d0: 7eff 0a97 5d2d 0ac0 e1dc 6d37 39ce 0340
000004e0: 78fd df15 9fe4 2840 b04f 15e2 4cb2 29c0
000004f0: c489 a897 140e 0a40 aecc 0bb2 36d3 1fc0
00000500: 542c adef 4f51 fc3f d83f aff3 aa6c da3f
00000510: 41e4 1923 4ba4 10c0 5e31 ca26 0980 fa3f
00000520: 31be f3a1 2cda f0bf cbf9 4b90 ac95 2140
00000530: b0cb 95cc 2f4c f03f 27d3 4e83 81b3 0dc0
00000540: 5856 ad8c 3767 1fc0 f4e2 a054 2316 1bc0
00000550: a645 a49d 703a 0740 9e64 e93c c44c 1ac0
00000560: c35e 2e11 d5f0 15c0 6446 a1b4 1a99 0bc0
00000570: 1062 3bce ee32 29c0 62eb 620e 0bd2 24c0
00000580: fe58 31ba 93ab 20c0 9e23 6854 30e5 0340
00000590: c033 4eee 92c6 18c0 e403 48f1 ff6b 1940
000005a0: 2935 5d2e 60ea 18c0 1a80 0911 ed77 24c0
000005b0: b4ac ee14 6dc3 f23f d5f0 94c6 3d69 f7bf
000005c0: f22f 0017 8dfa f53f f05d e9ea d15d a8bf
000005d0: b2b8 7b1b f416 1dc0 84c2 ac59 a6ef 0a40
000005e0: f6bc f388 3a42 0b40 aa07 2cf1 2a8f 2ac0
000005f0: d45a 18b3 3207 1d40 103d 376f d128 eebf
00000600: 6d09 8e8e 04ea 0ec0 7265 f2dd d923 08c0
00000610: 761d 3758 af67 1140 aec2 5ff1 62cb 06c0
00000620: 18e4 d1aa 0b35 11c0 6c90 2bb9 b537 f13f
00000630: f00f 43a2 75d1 c93f b47f 711a 52d0 2a40
00000640: d44a 7e44 b7ea e83f a645 9f0a feff 03c0
00000650: 24c9 8638 fed2 1cc0 1a41 d14f b7db 09c0
00000660: 65aa 9fbc 44c1 f13f d0bd 8019 6fd5 28c0
00000670: a506 b3c1 2986 2c40 e1fb 3bcc 0f05 25c0
00000680: 9e7c e523 90e1 f2bf 57ad ac3a 4ecf 11c0
00000690: 7d0c cc99 79a1 1240 c0ce ccca 78d5 a7bf
000006a0: 6885 617e cb9a ff3f 0006 fdc7 6519 23c0
000006b0: 6ae8 ec04 8c5c 1940 6c2f 0e44 7c5c 1940
000006c0: deb8 717d a0fd fd3f c460 96f5 75dc 1dc0
000006d0: 60c7 ea3a 0f9b 2c40 366f eb49 f00b f83f
000006e0: faed 8bd8 d50f 0440 3024 aff4 91de ee3f
000006f0: f325 d1e4 da86 f7bf 54ff 1fe0 4d45 f7bf
00000700: 8655 cda3 3b1b 1ac0 50ab 3fc0 bd73 f0bf
00000710: c027 ff28 d742 13c0 0d19 6c25 30a0 11c0
00000720: 347b a378 ed70 1640 8a77 83a3 9c05 e8bf
00000730: df1a 83c4 9bc2 05c0 dcad e18e 4817 2b40
00000740: 18ac f9d4 3c09 15c0 5ab3 e964 e647 f1bf
00000750: 44fb 1f50 cdc6 08c0 de25 acf6 77ba f63f
00000760: e129 6fa7 f8d5 1640 58e0 aeff ffb6 0bc0
00000770: ed71 616e 7248 02c0 da34 931a 9cb4 26c0
00000780: 7a3d 46ff a4e0 20c0 d98a 95d8 bbef 25c0
00000790: edab f65e 078a 15c0 9453 3000 1674 06c0
000007a0: 2b41 de60 71a9 e9bf 4aef f989 7e42 1640
000007b0: c6c0 2847 38d0 0040 882b 1a91 9f84 24c0
000007c0: c601 d533 d098 1ac0 ff29 997c 924e f13f
000007d0: a3eb bfbf 9cf2 fa3f 4ea9 8aa8 8dd2 1d40
000007e0: 6590 84ad 29f2 e03f 54f0 4991 ed29 20c0
000007f0: 9ad5 f584 e7ac 0e40 883e 694c 93f1 14c0

arr_3 f8 [64]
-7.019605427608402 3.6908896853734747 1.3591669588552788 -6.0773697585760615 -1.6767674466169433 -4.056115599024805 -12.76485245680471 -7.859575200282037
-9.20560474911222 -1.0086706002737413 -6.922746514155592 -2.238478162841706 4.140308024315449 3.1255394182909386 -8.492448982016153 -2.2201896341093517
5.227825511790208 6.616669713586315 -5.182541436801456 -4.405656407577148 4.550887200791525 -5.083293801595237 1.974766895286947 0.14968598160698948
0.7189622234804026 -0.3235285363067515 -7.03837307092007 6.938355061798576 3.326344839059347 5.214354317447895 -8.37164893249064 4.218607101707065
-4.9416011588932065 -6.218795717123714 1.8823870575489263 -0.3149001220093627 2.5176326335878 -4.990320303712743 8.57695745139683 -10.05670454947701
-12.56495444743452 -6.946574935731396 2.405124715484753 5.075527012709748 0.15242868144012914 6.8816679743781215 -0.5172279895825489 0.6910760158051499
-1.8942222065378254 4.349824473103595 6.4806897276924 -1.3394764490290965 -4.590088336617961 1.7504716553583466 5.614261858068705 -3.896462665282267
-3.370111415653099 -0.6302652855918729 1.0173678984775052 -6.193560236356301 13.468880929292595 -3.140820301298025 2.774860889197947 1.5608869242008443
00000000: d69b f971 1314 1cc0 1a95 de2b f186 0d40
00000010: 2c65 61da 25bf f53f 6822 9b04 3a4f 18c0
00000020: a479 231a 0ad4 fabf 8e6d 1a5e 7639 10c0
00000030: a47b c0bd 9a87 29c0 efa7 367b 3470 1fc0
00000040: b5ad 9206 4569 22c0 6ccc 89c8 8323 f0bf
00000050: 612f 5376 e4b0 1bc0 eab8 313d 67e8 01c0
00000060: 7534 1fe8 ac8f 1040 fa58 7fcf 1a01 0940
00000070: 6e6a e145 22fc 20c0 cd57 6bc8 f2c2 01c0
00000080: 6855 4917 4be9 1440 cc25 f143 7877 1a40
00000090: 8ee8 7424 ecba 14c0 a8d3 af64 649f 11c0
000000a0: 04bd 3cc6 1b34 1240 853e 67f8 4a55 14c0
000000b0: beb1 072c a598 ff3f 86f9 d505 e928 c33f
000000c0: 790c 9d10 bd01 e73f e0a7 b008 b1b4 d4bf
000000d0: 5c98 3245 4b27 1cc0 01d8 3926 e0c0 1b40
000000e0: 84d3 d7ae 5a9c 0a40 cbc7 bcb2 7fdb 1440
000000f0: fe47 d5c4 48be 20c0 5105 428a dadf 1040
00000100: c049 1d18 33c4 13c0 7334 06fc 0be0 18c0
00000110: 8561 29e4 411e fe3f 0658 62d7 5227 d4bf
00000120: ccd0 0494 1c24 0440 480b 9486 16f6 13c0
00000130: a4dd 91f7 6627 2140 8b13 f360 081d 24c0
00000140: 0aec 96b5 4121 29c0 f6b7 a0f0 4ac9 1bc0
00000150: 7077 de06 b23d 0340 3736 06f4 564d 1440
00000160: 2dfe e074 c882 c33f d489 2ff8 d386 1b40
00000170: eca6 7ab6 218d e0bf f0db dd72 4b1d e63f
00000180: 9dfd c6f1 bb4e febf 1048 fd62 3866 1140
00000190: 17d9 8fed 39ec 1940 9279 65db 7e6e f5bf
000001a0: c919 ee1d 405c 12c0 e16c 0591 ee01 fc3f
000001b0: 5457 7e0f 0175 1640 56c7 2b9e f42b 0fc0
000001c0: c0d9 50f9 fcf5 0ac0 6c7a ad1a 222b e4bf
000001d0: cd60 bf8f 2347 f03f 4cd3 93a7 34c6 18c0
000001e0: 400f 4229 11f0 2a40 c980 e564 6620 09c0
000001f0: f36f 1044 ea32 0640 8225 4391 64f9 f83f

arr_4 f8 [64, 32]
1.5410471891365547 -15.688478187774322 9.732904376294893 12.04698499278259 6.170645396825194 -0.24556349559402268 -3.2348824226106374 -1.8872795949766417
5.901524555515952 -12.297444181721977 0.9168133864408372 1.0230101118155865 -1.3415382099521704 -4.320857331069434 -0.9052348592348 5.093274905312006
3.0328230916158647 -12.477290139508868 7.233768322936385 -4.091668096561416 4.7287976491525905 -4.972016288450728 2.337142203157753 -6.479981888479426
-2.4230506533299985 -5.376001961210689 2.876193813743657 -1.8330475790005196 -2.426757232760408 4.944707989294368 -4.603915678717275 -5.4513528292190525
4.195419589023472 -0.4910559654287656 -3.499331697491176 7.0700256055563155 -5.707691440237192 10.232410715554789 -6.523413558335289 12.715790261572359
-0.7353419285996892 3.6782150419002635 0.166613792440107 -6.813743087318274 -8.34961806480341 0.20664472171790282 0.3841518710580054 6.0393457292648005
7.811266204568893 -6.921447036631377 -2.1314548509658753 6.459795040634898 -7.1672596537364015 -2.560300985649935 -6.986925722935942 12.926614594876023
-7.064374640289906 -1.7057675618608836 -4.600196752227322 -6.259108640620848 4.697000171276415 -2.2980899157265235 4.4966740110379035 3.0211094166420356
5.685816194790152 1.335915250798487 -3.3987896538422504 9.23934611779023 -3.3234283032320615 10.384975404537183 -11.102213683254092 5.549381912911827
4.776760219150069 -0.0975150192453918 3.860826852661364 -5.9830929613751325 1.5869260389969178 0.1721535788113251 -0.7027954691508355 -0.6250665335005167
6.79519773768582 1.8188146740965674 -6.7173128915466895 7.711871286988872 5.984559624517654 3.3688451473077103 -8.060475915580826 -6.013185794779695
-2.0126646226376006 -5.164824171806583 7.379668794232286 2.8378473481560977 -3.90036912743953 2.5438408975279625 0.25230581767454535 4.911211067754947
0.927157759427051 -3.265457820578531 -4.169638080469472 9.831743081504875 -7.855798869063147 4.558016786971531 -1.5277630544743785 -15.336595067569355
-6.797060914526492 5.04742700791063 -3.4899898698738996 -1.8280016021726782 -1.3832878278443093 -7.535511142351707 1.5418788854916838 9.00474038592244
-1.3887405578418779 -2.5745552297868795 -7.221244944645267 -0.6875339605580497 3.081830307911396 -4.046060851400309 0.8380855230712615 -5.031497609899714
-0.5358565430721689 5.829448089844937 -20.320405953407978 -11.232297487955556 -9.483283246219438 1.3503224268603664 -0.6171993655894747 4.121748861627481
9.971685311533879 5.633201872868378 6.770696717400092 -2.1485715460139767 -5.317859243035942 -2.173315438270773 -2.125834269868537 1.042438637068366
-1.2171355676557318 -11.914226107650506 5.710422563251047 1.6582242204282545 -0.8607035847266704 -9.301608033042447 0.8854300098634413 -4.31041374289223
1.0859291439797025 5.786547208983818 3.1809648792131298 3.9030038749093636 -2.340622087136845 3.864217793010553 5.740126157655707 7.231871355697675
2.052621341674939 -9.140760025314957 -0.916313371671265 -8.646341294113602 -13.718540619106847 -4.8590759395615235 -3.179650943568349 -5.264400749098421
-5.014075381560781 1.6734301625554755 -8.556269974544723 -0.7513512861556784 2.781122421915333 0.15984600399930138 -2.2248760409772927 -3.307391735739655
-0.713778828490153 8.047603901931257 -3.6039037992279592 -11.146599694324795 6.984072248636127 -4.371598301587159 -4.118519575720333 -2.8528743746087066
-2.7581253111227015 -1.2522309000109306 -9.459031713203313 -1.2947597996826292 3.4318010677725304 1.0535023703193 14.488070259408243 3.7028177672998943
-9.329695735537516 -6.34571919021972 -12.068785866961434 -1.5222245350611685 -4.642061861304839 6.169853097083624 4.5879213962306915 -10.036610524363553
-4.994474127795794 1.0608002565459564 -11.120460522076218 3.81391510768057 -4.468678162566317 -0.5182788503163779 -0.5755386320787357 -7.826394028130791
-3.9279133593209616 2.001542121700054 -4.503880634413852 7.251844287813015 -14.433418871677997 3.169973025160477 -8.406502233684972 4.663207907972227
2.7733888825511896 0.4038880324815093 9.892470553890117 6.1591066600104005 5.055412940387929 -1.8528651734270767 -1.5542081015172213 -10.986049603696468
-4.871095942105835 -4.326173931945998 5.923726101847423 -8.824606895629254 -10.71297501674731 4.059284611010779 -15.405174279870598 13.962039100907456
-7.652252081085034 2.350672694036403 0.8269227092296814 3.0176174351865903 -1.0746801666586798 4.601635897875778 4.4020858550406805 14.069744357866483
0.12356785254865896 4.085604515516039 -6.6166438005436605 -5.528884101391371 -3.8982022982730324 4.61306525240639 6.657027146445192 -4.417699349270814
2.0962064922973336 -7.090961280121361 -4.401503210243632 12.708295632601185 -11.215177478553166 -5.52379753364419 -0.21551963312744177 -4.146484988236481
-0.2843198130395206 -1.6169345945750777 4.469211522019966 1.1611381315525193 6.768784777500157 0.040904413323196165 -2.146460866910428 8.122388379107637
00000000: 9af2 ee18 21a8 f83f 0800 8936 8060 2fc0
00000010: 4e90 0e3e 3f77 2340 dcce be6a 0e18 2840
00000020: 014f baaa bdae 1840 6879 55e7 9f6e cfbf
00000030: bd24 1c09 0ae1 09c0 2853 ad16 4c32 febf
00000040: 84ed c940 299b 1740 43c3 919a 4a98 28c0
00000050: 8a8c e906 8956 ed3f 9d9a dbd9 3f5e f03f
00000060: 6543 21c5 f076 f5bf 1180 fed2 8e48 11c0
00000070: a99a 7318 aff7 ecbf 0669 ef74 835f 1440
00000080: 9a59 c8c0 3843 0840 a9c9 875f 5ff4 28c0
00000090: 0069 97f6 60ef 1c40 7b45 d33d de5d 10c0
000000a0: 590c 52ee 49ea 1240 fc4c e83c 58e3 13c0
000000b0: be4f 859c 77b2 0240 0cc4 465f 80eb 19c0
000000c0: 89d4 8461 6862 03c0 ef86 7aa8 0681 15c0
000000d0: 66e4 f7e6 7102 0740 7a1b bdb2 2954 fdbf
000000e0: 9f4c 30b2 ff69 03c0 2c28 f987 61c7 1340
000000f0: 8487 26df 686a 12c0 c6cf a16f 2fce 15c0
00000100: 0f6a 9f12 1cc8 1040 a06c 0100 766d dfbf
00000110: 69a5 f49d a1fe 0bc0 e6fc d6ca b447 1c40
00000120: 59e9 9d10 add4 16c0 7618 8d89 fe76 2440
00000130: 0c55 4db9 f917 1ac0 447f a80f 7c6e 2940
00000140: ccd2 d6cb eb87 e7bf 6aef 0402 fc6c 0d40
00000150: 98e0 cbca 9953 c53f 2283 2dde 4541 1bc0
00000160: c9d7 9423 01b3 20c0 58af d590 5573 ca3f
00000170: c00b b9ba f195 d83f e6b7 313f 4a28 1840
00000180: cee4 6391 bc3e 1f40 bf4f ddcf 8faf 1bc0
00000190: 5464 6e33 380d 01c0 3c8f d982 d4d6 1940
000001a0: d8f3 5a1d 46ab 1cc0 a843 4a15 7f7b 04c0
000001b0: 365d 1ea8 9cf2 1bc0 45fa 693a 6dda 2940
000001c0: 99f2 fa6c eb41 1cc0 8b52 4ced d24a fbbf
000001d0: 53ed 37fa 9966 12c0 6c4f 86c6 5309 19c0
000001e0: 21c1 b369 bac9 1240 a580 3af7 7c62 02c0
000001f0: 48b9 a81c 98fc 1140 e4eb f069 3b2b 0840
00000200: 73c3 be99 46be 1640 a583 86ab e85f f53f
00000210: 90e2 49a1 b830 0bc0 ceaa 0893 8b7a 2240
00000220: 1cdc 0794 6196 0ac0 ce80 087f 1bc5 2440
00000230: 608f 155a 5534 26c0 81e1 132c 9132 1640
00000240: 5755 e807 671b 1340 d41b 878a bef6 b8bf
00000250: e697 5d30 f9e2 0e40 cd22 d8eb afee 17c0
00000260: f099 ea8e 0c64 f93f e826 71e3 2009 c63f
00000270: 3ff4 78ec 4c7d e6bf 8dae e687 8b00 e4bf
00000280: eada d450 482e 1b40 abac 6b6a dd19 fd3f
00000290: d7c4 4845 87de 1ac0 8650 62c9 f4d8 1e40
000002a0: bc0f f165 30f0 1740 a2cc a715 65f3 0a40
000002b0: 093b ffb2 f61e 20c0 f966 b593 800d 18c0
000002c0: 7f5b e0e8 ef19 00c0 8cff edaa c7a8 14c0
000002d0: 5e28 7ae5 c784 1d40 54f7 7a4f e9b3 0640
000002e0: 5b72 a5ba f433 0fc0 0ce1 a841 c959 0440
000002f0: 6b2c e04c c725 d03f ff0a 9f83 14a5 1340
00000300: 2619 dfbf 46ab ed3f 5cd1 8e59 a81f 0ac0
00000310: 2417 df9a b5ad 10c0 b479 ab3a daa9 2340
00000320: ec51 ea89 566c 1fc0 9ba5 aac0 683b 1240
00000330: 8612 30ac b771 f8bf 1c69 4e30 56ac 2ec0
00000340: 9a3e 83bc 3030 1bc0 73b1 9fb4 9030 1440
00000350: 6ad6 13cf 7feb 0bc0 47e0 a59b 7e3f fdbf
00000360: 2ebd d86a f221 f6bf 3e2d 6c08 5d24 1ec0
00000370: 7f46 b931 89ab f83f bd03 f554 6d02 2240
00000380: 60f4 e804 4838 f6bf 7c71 8d69 b098 04c0
00000390: 84a0 e608 8ee2 1cc0 c48e 6f38 4700 e6bf
000003a0: 9068 02a6 96a7 0840 9c8f 6993 2a2f 10c0
000003b0: a9f2 1abb 98d1 ea3f 8daf d1e8 4020 14c0
000003c0: 6cf6 fa9e bc25 e1bf 6774 0ed7 5a51 1740
000003d0: ba54 e31f 0652 34c0 946c 43b2 ef76 26c0
000003e0: 356f d2e6 70f7 22c0 e2ba 66b0 eb9a f53f
000003f0: 2233 4ae2 18c0 e3bf a00f ccbb ab7c 1040
00000400: 4a15 b6bc 80f1 2340 4af1 5e12 6688 1640
00000410: c878 3185 3115 1b40 32f8 5947 4630 01c0
00000420: 6248 b6e4 7c45 15c0 781e 5a34 f362 01c0
00000430: 4769 ce65 b501 01c0 25ba e422 d4ad f03f
00000440: 8313 1e25 6379 f3bf 4004 c371 15d4 27c0
00000450: d403 2e03 79d7 1640 8aca c21e 1688 fa3f
00000460: b66e 7e3e e28a ebbf a341 3c5e 6c9a 22c0
00000470: 8255 e850 7155 ec3f e8cd a719 dd3d 11c0
00000480: 56a8 f23c f75f f13f df61 ada1 6c25 1740
00000490: 538f efb6 9d72 0940 0a2d 7718 5a39 0f40
000004a0: 5462 a412 98b9 02c0 1fd0 ac04 ebe9 0e40
000004b0: 7e2e a8a1 e3f5 1640 1d67 46af 6fed 1c40
000004c0: 2786 ecbc c46b 0040 ae9f b2b2 1148 22c0
000004d0: 00e6 866b 7052 edbf 638b 003f ed4a 21c0
000004e0: b0d2 578e e46f 2bc0 f3c9 649a b16f 13c0
000004f0: a392 7ad5 ec6f 09c0 98a9 e911 bf0e 15c0
00000500: daed ddc6 690e 14c0 3c0d c5b4 5ec6 fa3f
00000510: 2ad5 086b cf1c 21c0 e013 3bda 110b e8bf
00000520: ad63 c21c bd3f 0640 6461 c977 d575 c43f
00000530: 2036 4dcf 8bcc 01c0 fc7f 60cc 8975 0ac0
00000540: 2428 9eb2 46d7 e6bf dae9 e389 5f18 2040
00000550: f4e9 dc83 cbd4 0cc0 0a75 791d 0f4b 26c0
00000560: 632c b3a2 b0ef 1b40 9443 e243 847c 11c0
00000570: 569e 1632 5d79 10c0 a853 d4cc afd2 06c0
00000580: aa55 cc00 a410 06c0 c866 a944 2309 f4bf
00000590: f611 6834 06eb 22c0 9bff 3c0d 56b7 f4bf
000005a0: ebaf 431e 5474 0b40 5e7a 2c4d 25db f03f
000005b0: 069e 5458 e4f9 2c40 68ce eceb 5e9f 0d40
000005c0: 5287 23e1 cda8 22c0 8a5f 1e36 0462 19c0
000005d0: 800d b2e6 3723 28c0 b91a 341d 085b f8bf
000005e0: b040 21aa 7891 12c0 d764 64f8 edad 1840
000005f0: c9b7 0511 085a 1240 68a9 599d be12 24c0
00000600: 7c67 fe6c 57fa 13c0 b040 97b0 09f9 f03f
00000610: 8a8d 6500 ad3d 26c0 bcaa 89ec e582 0e40
00000620: 6c49 122b eddf 11c0 8127 0a87 bd95 e0bf
00000630: 9e9b 4bfe cf6a e2bf ceb9 713c 3a4e 1fc0
00000640: b270 ded6 5d6c 0fc0 3e25 1284 2803 0040
00000650: b694 f748 f903 12c0 815d 0f78 e301 1d40
00000660: 06a7 0e14 e9dd 2cc0 a821 42d1 1a5c 0940
00000670: 16db 8e0f 21d0 20c0 d6c1 4cf9 1fa7 1240
00000680: c32d ad82 e62f 0640 603f b030 4dd9 d93f
00000690: be33 83e6 f1c8 2340 2748 35db eca2 1840
000006a0: 25f7 7a2b be38 1440 4044 bcf3 55a5 fdbf
000006b0: 8c1d 7350 09de f8bf 5e38 607e dbf8 25c0
000006c0: 6b17 1c93 007c 13c0 2c10 0a8a 004e 11c0
000006d0: c295 5741 e5b1 1740 4591 01e0 32a6 21c0
000006e0: e996 b70f 0b6d 25c0 1dca e51a b53c 1040
000006f0: fb72 d200 73cf 2ec0 d5bd 9763 90ec 2b40
00000700: 5b08 34f8 e79b 1ec0 7ce4 437c 2dce 0240
00000710: 24c2 0e9d 2676 ea3f f8b9 1f9c 1424 0840
00000720: 7d57 97d4 e331 f1bf 7de7 a53d 1368 1240
00000730: ef55 f664 bc9b 1140 f03b 5088 b523 2c40
00000740: 8e8f 888d 24a2 bf3f 1020 cab5 a857 1040
00000750: f576 f278 7177 1ac0 b266 3bcb 931d 16c0
00000760: 9c32 c2af 842f 0fc0 0499 a560 c773 1240
00000770: e543 6ab9 cba0 1a40 eab6 d260 b9ab 11c0
00000780: afa3 d0e8 07c5 0040 4e4b 2df4 245d 1cc0
00000790: 10f1 54a8 239b 11c0 ecd7 a3b9 a56a 2940
000007a0: 7471 12be 2b6e 26c0 b6e8 7261 5e18 16c0
000007b0: e6d1 f6b7 2596 cbbf 9152 2729 0096 10c0
000007c0: 4803 a7ba 4b32 d2bf 2089 37cf f6de f9bf
000007d0: b6ed 37fc 78e0 1140 8081 d293 0594 f23f
000007e0: 6e1a 1451 3c13 1b40 606b f85a 6cf1 a43f
000007f0: 5a31 ccac f32b 01c0 025b 8bb0 a93e 2040

arr_5 f8 [32]
-2.344106477473256 1.256434137145802 11.868606809887606 -4.085039872869812 7.803623284986657 0.6569621694034921 -0.6596602069129585 4.454623078885857
1.9191313491381408 1.2272590505705898 -3.0367451006891866 -1.9016823450330733 -6.158611008644089 4.8476685672131365 -7.584255764244311 0.6177759126100669
4.01495066954356 5.483980173979494 4.328512005130418 9.93458345012459 2.9349247877833804 -7.620515526300373 2.760378385113936 5.640775465309605
9.332694701200039 10.125059315733466 -1.354983250162281 -2.2567693977977266 -0.21880601840650696 11.603604192139528 -7.861145438130275 0.32551602753752895
00000000: 15b7 98e5 bac0 02c0 3de8 89ae 5a1a f43f
00000010: ae19 2308 babc 2740 ce53 43b1 1457 10c0
00000020: 8149 bd05 e936 1f40 bf82 0987 d505 e53f
00000030: 703d e5b8 ef1b e5bf 4d49 5fb6 88d1 1140
00000040: 406d d412 c3b4 fe3f 29bb de62 daa2 f33f
00000050: 7cfc ed03 414b 08c0 20c3 7477 4a6d febf
00000060: d2a5 9bec 6aa2 18c0 431c 983a 0364 1340
00000070: 18b7 9f24 4756 1ec0 5b56 9dfd d1c4 e33f
00000080: b9f8 723a 4f0f 1040 059e ac7f 98ef 1540
00000090: 9d83 7973 6550 1140 ff55 d3b8 81de 2340
000000a0: b0fe ddd8 b97a 0740 387b 106c 687b 1ec0
000000b0: 7b32 4543 4115 0640 f355 8e71 2790 1640
000000c0: cf69 baf5 56aa 2240 5045 4ec6 0740 2440
000000d0: 5032 a1ea 02ae f5bf 223d 311d dd0d 02c0
000000e0: 75a9 9cea d501 ccbf 80ef d19b 0b35 2740
000000f0: fb79 171c d071 1fc0 ce3d 262d 41d5 d43f

arr_6 f8 [32, 1]
1.370854792166403 1.308467263267 1.1003942944054292 4.29312252491226 -2.1562461096459606 -5.424646497050528 -2.7688426667546926 -6.2036914868238915
3.0293373901163956 2.165735963244531 -5.2739889922491185 -6.752428386922159 1.593821918153072 -2.9939529489052097 0.6978288779971373 -4.854479549487201
5.7897788125246255 3.359421834598934 7.034918223762634 3.221404710399932 -2.8064686191055035 -7.814114090426639 -0.6080225811182127 -7.042041474390719
1.5607237234357316 5.0007331314211 -4.289557541663449 0.8239552742819461 2.569818487119117 6.081783704930718 0.4647880028527984 -0.19172201164965935
00000000: 97b6 3e6f 05ef f53f eae4 795e 7bef f43f
00000010: 2fd2 320c 379b f13f 5ce0 a84f 282c 1140
00000020: fb73 d8f5 fd3f 01c0 9cc5 0488 d6b2 15c0
00000030: bed8 ebfb 9626 06c0 6787 4980 94d0 18c0
00000040: 9fcc d83d 153c 0840 2440 6f60 6d53 0140
00000050: 23b2 0492 9018 15c0 9da6 4996 7c02 1bc0
00000060: d0d8 6169 4b80 f93f 2e7c 8a9a 9df3 07c0
00000070: 6e77 263a 9d54 e63f e797 e0af fc6a 13c0
00000080: ca77 ebc6 bb28 1740 e290 088e 18e0 0a40
00000090: 3461 549a c123 1c40 d3c8 32d5 6fc5 0940
000000a0: a477 c2d1 a573 06c0 7c61 c61f a741 1fc0
000000b0: 3c3b a4c5 eb74 e3bf c555 96eb 0c2b 1cc0
000000c0: 0ef7 6370 b9f8 f83f c0e8 9d2f c000 1440
000000d0: c804 afc5 8128 11c0 9f0b 8d73 d75d ea3f
000000e0: 96a9 b6fe fc8e 0440 b417 881b bf53 1840
000000f0: f0db f42d 16bf dd3f feb3 facc 588a c8bf

arr_7 f8 [1]
3.7677980312846904
00000000: 4e68 524b 7324 0e40
