weights/global_round_32.npz (npz, 129966 bytes, 8 tensors)

arr_0 f8 [43, 128]
0	0x403d1a96a7fb04be	29.103861330779857
1	0x3ff078b24af36c14	1.0294669082420613
2	0x403e6b9740264137	30.42027665075258
3	0x40457d3ac58c1d84	42.97835606900756
4	0xc0359804ae2a2646	-21.593821416178137
5	0x402e0157ec951cf7	15.002623933031357
6	0x40207c71dc29a2c5	8.243056182940004
7	0xbfdd79bd0d8ffb20	-0.46055532764869334
8	0x4041105981191b78	34.127731454142975
9	0x40325742410f4db6	18.340854707943173
10	0xc00c40548a636d13	-3.531411248358958
11	0x4041b0338879e81c	35.376572665714974
12	0x4038c66962b69d8e	24.775045556625223
13	0xc02349b1b038964b	-9.643933779628375
14	0xc022467e30e6ed18	-9.137681511105754
15	0x4021986a951820a2	8.797688159175156
16	0xc037371ffef5edc9	-23.215331969300482
17	0xbff50ef2db6925d5	-1.3161495753032473
18	0xc021d7fd9197d89c	-8.921856450830369
19	0x4035e220393ece65	21.883304193337967
20	0xc044134d8b753792	-40.150803978190325
21	0xc028b3568bc08602	-12.35026966786518
22	0xc03e7d813d9e4f4d	-30.49025330653176
23	0xc02b675e8eb655c8	-13.701893291242314
24	0xc0368b023bbfded0	-22.543002828925466
25	0x40249007a958cf50	10.281308452693025
26	0xc02fc75b0c3edde7	-15.889366514848872
27	0xc02478c144a3c95e	-10.235849518769722
28	0xc037103b93a1a60c	-23.063409068074222
29	0x403ec3d025ef1d5b	30.76489483917008
30	0xc04c62eb3005790f	-56.772802355453784
31	0xc0218d748c3d316b	-8.776279814214567
32	0xc03125ab7b71dc6c	-17.14714786081133
33	0x4028873ed530e17c	12.26415125104608
34	0xc03be33840bb4cd4	-27.88757710049397
35	0xc011d2b2f2391931	-4.455760750517855
36	0x403412d9d52ce90c	20.073636363472403
37	0x40383e0cdb26822d	24.242383667851914
38	0xc03e0e360fcf9596	-30.055512417011037
39	0x4021987281749cb4	8.797748609051588
40	0xc0364adac736148d	-22.29240078993148
41	0xc03200dd46aab8c3	-18.003376404457196
42	0x40439b75b3bab9cd	39.214529482054424
43	0xc0207d900cee39d8	-8.24523964317352
44	0x4039d81d24895b92	25.844194682631105
45	0xc030c3ab1726ce30	-16.76432938287161
46	0xc036d14c2909d271	-22.817568364046057
47	0xc03e737e53d603d8	-30.451146354436645
48	0xc02df230f77d7cbc	-14.973029836719768
49	0x4041b6bbd482de4a	35.42760712041907
50	0xbff3aa7a37f623d2	-1.2291204629893753
51	0xbffdaaeb565de722	-1.8542283414557876
52	0x4033c6daa743bab9	19.77677388576078
53	0x402595cd0bfb60a4	10.792580007968645
54	0x404955d262dcd1d9	50.67048297674382
55	0xc00cda57da3d77a5	-3.6066128778465605
56	0xc030c511f56c378d	-16.769805277748265
57	0x402f43b73aa8c785	15.632257302382422
58	0x403c81bac5c096ab	28.50675617172116
59	0xc0147c30661d282e	-5.12127837708435
60	0xc03af98b7f75c522	-26.97478481889005
61	0x4040b2f7e84fa22d	33.39819053543429
62	0xc03164b7cc153812	-17.39342952268641
63	0x403960f7bebdf8d1	25.378780290012234
64	0x404af9959ca1e6bd	53.94987829118097
65	0xbffbdf111d591d2a	-1.7419596811685758
66	0x403720ae3a9128a3	23.127658520163674
67	0xc045ff4ebe747ea9	-43.99459057510587
68	0x403698a1b6ad489e	22.596217553430158
69	0xc012c1d849444d32	-4.689301628869815
70	0x402105a8ef8f2f91	8.511054502705322
71	0x403639e7747c9d2a	22.22618797342617
72	0xc03e2491c78521cb	-30.142849416735583
73	0x4027aa2a6f980e70	11.832355010329792
74	0xc0081be69ec4e574	-3.0136234668577178
75	0xc048f066750f6822	-49.87812674762996
76	0xc046fa14e5236264	-45.953762666966924
77	0x40475ac547e73933	46.709145534421985
78	0x40304a6be5ac59e7	16.290708880021977
79	0xbffb5a0a58d0d408	-1.7094825238575613
80	0x4032fcfaba8061d6	18.988200813620857
81	0xc033cbab3b7dcc02	-19.795581548893104
82	0x4033533311b7a1c5	19.324998004276285
83	0xc02a46c2d2d0f7fa	-13.138205135353918
84	0x40206571278cfe2f	8.198128925286339
85	0x4035e5ee0d16f991	21.89816362200651
86	0xc01391a23d816258	-4.892220459959013
87	0x403d5fe818349192	29.374635231813564
88	0xc039dc49d81dc525	-25.860501773136225
89	0xc02d03098aa2455e	-14.505932171162097
90	0xc035820aeda2fa5b	-21.507979252137698
91	0xc003307197f74e2f	-2.3986541626307125
92	0xc024d5f72d94399d	-10.417901443809393
93	0x404e44ad1493f2af	60.536531994095064
94	0xc01b5a094bdba51b	-6.8379260876474985
95	0x40465d940b23e007	44.73108042957033
96	0x4047bb7a5240308d	47.46467044958363
97	0x4045bff36295dd9d	43.499615023781395
98	0xc02eef6cc3c1c8e6	-15.467626683621756
99	0x401fe89dcd597f0e	7.977164467418119
100	0xc00c83591328baa8	-3.5641347405247252
101	0x4034157bb5240880	20.083918877885026
102	0xc051438237f5986a	-69.05482291206286
103	0xc03b109ba04a1286	-27.064874666294166
104	0xc021ad8b644dec7b	-8.838954100143601
105	0xc03c41f249ea2552	-28.257603282608507
106	0xc043ada5aceb9ae3	-39.35661851410057
107	0xc018908646aea7f8	-6.141137222681202
108	0x403075288227862b	16.45764935936874
109	0x3ff1e35e2f1adad2	1.1180097427401745
110	0x4047a544108ad669	47.2911396673124
111	0xc0113342a65feac6	-4.3000589366953985
112	0xc028607c68922db3	-12.188449161380822
113	0x4043069a2ca7bd11	38.051580030349335
114	0x4042b2055a18f198	37.39078832834201
115	0xc034cbf60c7e3ac2	-20.796723156755213
116	0xc019f122269d4ac8	-6.485481837606763
117	0xc01b8963c1f07f22	-6.884169607452153
118	0x4017570f3355238c	5.835018922873939
119	0x4031f38dca52a0f2	17.95138229863455
120	0xc03583c21d677f54	-21.514680707710184
121	0x4027a65a9a09e6ad	11.824909986218097
122	0xc0304e5a64da197f	-16.30606680226037
123	0x40267df7eea02cfc	11.246032197048855
124	0x3feda140ece16784	0.9259342791149128
125	0xc024370d0d87b4c6	-10.107521460357372
126	0xc035c6876171bd2c	-21.775503244655894
127	0xc02b29fcf8e633ba	-13.582008150196874
128	0xc0335537a2b22284	-19.332880180826137
129	0xc040fb2e41a2789b	-33.96234913285408
130	0x400f109e564c8a5d	3.883114504061537
131	0x401734c5e3d5e2be	5.801536140374706
132	0xc000420a54081eac	-2.032246262071416
133	0x403b34347b5a9fae	27.203925809502543
134	0xc04208317e50a15c	-36.06401041924502
135	0x4041173c322d39bc	34.181524536211754
136	0x3ffbaf74bfbc41e0	1.7303359498656548
137	0xc0415aae65c8797f	-34.70844719208525
138	0xc043807ff50358b5	-39.003904940256156
139	0xc0282cecb702af7b	-12.087743491247002
140	0x4037b47bade7e0dc	23.70501219664662
141	0xc00ae5713ffafb94	-3.362032413336644
142	0xc03b12bb47dd1b1f	-27.073170176964705
143	0xc02068fc11e82b85	-8.2050481410895
144	0x402219f658ff67ca	9.050707608392162
145	0x4041c4e8aa90415f	35.53835041087836
146	0x40209d67b56983fd	8.307431859140701
147	0x4049f14b2511ccd2	51.885105737391896
148	0x40388b18ad284cff	24.5433452819243
149	0x4037713e34ef1981	23.442355450033123
150	0x3fe6876505284cd8	0.7040276623469266
151	0x4003d9507f523140	2.481110567756474
152	0x4027f7afd13c7c21	11.983763254769714
153	0xc02cd7e72998f930	-14.421685504840383
154	0xc03235ab098103a3	-18.20964106940995
155	0x401da17a6e4aad16	7.40769359904086
156	0x403f57e4109e6090	31.34332374445563
157	0x40417c98bb108f0a	34.97341097172291
158	0xc01a787788e50a8e	-6.617643488864486
159	0x4033db4cab86d139	19.8566386417526
160	0x40489b866f283f76	49.215040106441776
161	0xc028d56a6c1e71eb	-12.416827563015394
162	0x403d1e83d9f148b9	29.11919939175343
163	0xc03161c492dd2ae6	-17.381905726428975
164	0x403ab2f6a5c1f69b	26.699076042036364
165	0xc046fd7d015324ab	-45.9803773551915
166	0xc04208f47a6faeae	-36.06996088460197
167	0xc024ef32251945d4	-10.467179450354628
168	0x401b2ba1a17091c6	6.792608759399121
169	0xc01f3155f77d6976	-7.79817949965433
170	0x4028b50696485ea2	12.353565880140483
171	0x403455d7e03d379d	20.335325255342116
172	0x40200609c7c996bc	8.011793368680962
173	0xc01934636070ad06	-6.3011603420993705
174	0x401d4ba5d36016b8	7.323874762286941
175	0x401549c547300776	5.322041618639437
176	0xc004ee9db68877f0	-2.6165117512127765
177	0x40336231e4c86006	19.383573817176533
178	0x4018d80798ed42b2	6.210966481667741
179	0x4033ab00e727f5d9	19.667982527976935
180	0x40313c4a6381ec4b	17.235510081500518
181	0x403c834923f085c2	28.512834783765136
182	0x403564fe06546578	21.394501109699803
183	0xc021e163d1dbefee	-8.940214689348036
184	0xc04007038d3719e1	-32.054795886902646
185	0xc037e92fec161545	-23.910887484923723
186	0x401cd6fa11301e04	7.209938305436939
187	0xc03c62c31dd1a8a6	-28.385789741216875
188	0xc04326821fa674be	-38.30084605815635
189	0xc0479e4f970b4e30	-47.236803894539094
190	0x404af2a9405c0b9f	53.89579014295963
191	0x4017b9687cb66c2e	5.9310626493780045
192	0x40494b24c4f90280	50.58705961378746
193	0xc038f656602afafb	-24.962255487912426
194	0xc0406d254ab8cf25	-32.85270055793652
195	0x3ff7f6bfabb78f70	1.4977413852402286
196	0xbfd080d6d76e06b0	-0.257863722210554
197	0x4030fbd7de784254	16.98376264987958
198	0xc02112487e2191b7	-8.53570932540684
199	0x4039535629ac8839	25.325533489820575
200	0xc047dac6abb895a9	-47.70918795121117
201	0xc0463a9e64b13f8e	-44.45795878081036
202	0x40417c3c4dc3215d	34.970590324667434
203	0xc01c98e6b20c00b5	-7.149317533476439
204	0x40298d71257e7699	12.776253863990222
205	0xc0438d6f84fc7b67	-39.10496580436921
206	0xc026d832c2cadea2	-11.422262274994242
207	0xc03244926eba8ac2	-18.26785938314675
208	0xc042b4418187b310	-37.408249083766464
209	0xc0441f45809bb575	-40.244308544187255
210	0xc033d9244cd25d2d	-19.84821014533843
211	0xc043676ec984be15	-38.808068456474
212	0x4030b8109f124ab0	16.7190036220224
213	0x402c1c81cb64ecd2	14.055677753515202
214	0xc00f90f3ace3a0e1	-3.9457772738424954
215	0x404b139fa30b3feb	54.15330923127461
216	0xc0313d12e1e9490c	-17.238569373564175
217	0xc03f4a495976c2dd	-31.29018172406619
218	0xc04ce5d012b9e297	-57.795412388576715
219	0xc03b399dfd5f1638	-27.22506698199706
220	0xc02ff2f30f851702	-15.97451065539963
221	0x40252d4ab453068a	10.588460574278788
222	0x402bb795b6e74fbb	13.858564105736027
223	0x4017b31da32b12b8	5.924917745117163
224	0xc01f736b16b51652	-7.86271319847363
225	0x403735db129cabca	23.210374034166115
226	0xc041e91bce431d46	-35.82116106297558
227	0xc030e5cdac2567c7	-16.897669562465833
228	0x40281900caffbea9	12.048834174841732
229	0x4048823e54b6943c	49.01752718844406
230	0x4041f1bbbe48ab10	35.88854197071316
231	0x402bb772cc66635a	13.858297717569872
232	0x404a1682e8236dc8	52.17586995820926
233	0xc0330f7aca6bff45	-19.060467387548915
234	0xc03609622f850a11	-22.03665444372206
235	0xc04086f70c71458c	-33.05441432505458
236	0xc03373e4e7b04462	-19.45271156361958
237	0x402d0c066c2fbe03	14.523486500575933
238	0xc01c598d23f2e458	-7.087452470493268
239	0x40412efc5a729425	34.36707621187842
240	0xc0360d598207ecce	-22.05214703267557
241	0xc040df4c066580c0	-33.74450759845922
242	0xc0182a9779df08ea	-6.041593460309949
243	0x405203c9bef88c43	72.05918859741455
244	0xbff349652bc0e59a	-1.205418749725459
245	0x40503233adb084ca	64.78440420377879
246	0x403bbad134b3296e	27.729754728069956
247	0x40471c5b9e961fbb	46.221546004584035
248	0xc02cd0cedfd7198e	-14.407828326232245
249	0x3fe33dfc4540f16a	0.6013165810214052
250	0x40421feeb0d84ae0	36.249471765147746
251	0xbfe4f4a33507d6a8	-0.6548629794840126
252	0x404256f815d65068	36.679445962567854
253	0x402e2b9ba1d4542f	15.085171754044579
254	0x4051664ff6c0f51d	69.59863060801986
255	0x403cb04f4565becb	28.688709580745847

arr_1 f8 [128]
0	0x4020ec1b512e9d0e	8.461145913066982
1	0xc0218788836621b1	-8.764713388650167
2	0xc050f43b71f8ee1a	-67.8161282473524
3	0x404800e4b6d9723c	48.00697980515949
4	0xc04166ad0642c884	-34.80215528736974
5	0x40096614ddc4b68d	3.1748444867760726
6	0xc029929cc0369903	-12.786352163948782
7	0x4006d1027e1baf17	2.8520555355261297
8	0xc0209bfe4f829c38	-8.304674610799438
9	0xc04222eec3ecfebc	-36.272911539764635
10	0xc022fd5c758d5bae	-9.494846032624846
11	0x404e2fffdb8ac05d	60.37499565386745
12	0x4040ad5eb9e46f20	33.354453312435226
13	0x4028c75343c005bd	12.389307133856045
14	0xc02b890d6e4d1bdc	-13.767680594361018
15	0xc03ae3a1ffe39b58	-26.88919066721732
16	0xc0101abeb76e8f2f	-4.026118150828366
17	0x3ffe1f1ed5778110	1.88259776483034
18	0xc006981eb21f9c62	-2.824277297582328
19	0x404abdd6e5dc8681	53.4831206633362
20	0xc040faf69f91d8df	-33.96065134641116
21	0x403a7803bca7cf0c	26.46880702111143
22	0x4042815799555f7e	37.010485808073085
23	0x40351ed192f512b2	21.12038534625271
24	0x4042ecc70eaf2a2b	37.84982474854436
25	0x400e70f01c39f269	3.805145473974609
26	0x40224fe995b765fc	9.156078985822198
27	0x3ff26b899cc250f4	1.1512542842293074
28	0x400a31badabf45ba	3.274282177889032
29	0xc01e8e45b456e91f	-7.6389377763792075
30	0x3ff143a1fc9e098c	1.079011904512842
31	0xc04fad0277234b62	-63.35163773749697
32	0xbfe5c46da82662b0	-0.6802280697039205
33	0xc03cdcef0120aac3	-28.86302191779647
34	0xc041a048785906d4	-35.25221161219602
35	0x403c4918d217a627	28.285534983419122
36	0xc03ed0a3585c46b8	-30.814992449310665
37	0xc0384a385d2e06a5	-24.289922546135717
38	0x402a40dd9ad83a5e	13.126690710921306
39	0xc0168b30bd45d190	-5.635928113352193
40	0xc03145e6906f6482	-17.273049380488835
41	0xc02b071ff4dfae50	-13.513915684037016
42	0xc034eaf9f243381b	-20.91787637845128
43	0x402cf378a495fbc4	14.475529807384994
44	0xc01d7b6df610eac1	-7.370536656172306
45	0x40404f05b3cb6d83	32.6173615210819
46	0xc0385371222ec944	-24.325945030615244
47	0xc0448d4e5291d506	-41.10395271416387
48	0xc0492b6a6b9b8abe	-50.3391851911051
49	0x40126a07dc96e0bb	4.603545614918569
50	0x4034e70d5c569621	20.90254761804511
51	0x40402e4e8d18413d	32.361772190898115
52	0x40328e1540171c55	18.55501175464845
53	0xc01e8075f25195de	-7.625449930409983
54	0x4043efb837d057c9	39.87280938790315
55	0xc039a9dc33a2cb91	-25.66351626133434
56	0xc04f602b69d3f827	-62.751324871540696
57	0x40153e6d3ac94844	5.3109635529854735
58	0x400d8f3de2d5ac8c	3.6949422570665487
59	0xc003ba772d63f7ed	-2.4660476251728967
60	0x402bea770b5fd857	13.9579394869326
61	0x40241aec058ed0f2	10.05258195274698
62	0xc0508720fc6133ec	-66.11138829700911
63	0x4031504727de0aeb	17.313585750302916
64	0xc03edbc8a7677794	-30.85853048587849
65	0x40210d5b7b486f9c	8.526088574020655
66	0xc04aaa68cdb33597	-53.33132334948021
67	0x40450c5aff430a66	42.096527011618306
68	0xbfe54c8b6cd94b18	-0.6655938268616834
69	0x4034f414f1285c52	20.95344454989783
70	0xc01b8fb0c9773f6b	-6.890322826293281
71	0x404b9852cf2b2d18	55.19002713783465
72	0xc04455ff077e6d54	-40.67184537575909
73	0x40307bcf2b29d44f	16.483629892074813
74	0xc012704bcfc7485b	-4.609664198435065
75	0x40340203b40c77f9	20.00786900810633
76	0xc044518551bcd340	-40.63688108177166
77	0x3ffde4b6d2813c94	1.8683384154171891
78	0xc04a62f99fc6d43d	-52.77324292381716
79	0x4044b9d076fef5b5	41.45167434167107
80	0x403e225d44597f5f	30.134235641336428
81	0x4018f4fc42bbb1e2	6.239243548112855
82	0x40025c2e49a18d1e	2.295010161631253
83	0x4043ed06c1f7e064	39.851768728288135
84	0x402f08e85d51fd5c	15.517397800692088
85	0x403710fd22c8d806	23.066362546953336
86	0x403c6af267cace2a	28.417761313450832
87	0x4027269a87188980	11.57539770292783
88	0xc03eeef13b5360ed	-30.9333684042512
89	0x400ae58179ce7d74	3.3620633617535365
90	0x4030f581c947e006	16.959011631057386
91	0x4044d5520de7c12a	41.666566599046135
92	0x403a57afb72a9167	26.34252495564706
93	0x402aac082bda898a	13.335999842097198
94	0xbfb8db4d8b7e10a0	-0.09709629684045007
95	0xc00e68efbd4a56b2	-3.8012385166465146
96	0xc03c9842547455d2	-28.594762113954694
97	0x400ed0ebd37d4984	3.8520123026475535
98	0xc0254a4b7201b708	-10.645106852254244
99	0xc03e615ca6136e88	-30.380319957489093
100	0x403a7056e47efcd7	26.438825875285
101	0x4032aa94770db5e2	18.666327896926198
102	0xc0160dae74cec866	-5.513360810395261
103	0x403c8573ec8146fb	28.521300107538064
104	0xc0356463fff018c8	-21.392150875203498
105	0xc0012dd283636e98	-2.147374178382801
106	0xc039dff5a758d0c5	-25.87484212797496
107	0xc03d06d030576a5e	-29.026614209500956
108	0x4025416fa7e361d7	10.627804991251578
109	0xc00f962e9d45fda0	-3.948331097315261
110	0xbfe17df57b7d5c3c	-0.5466258441837293
111	0xc042ffe4578d3262	-37.99915594477058
112	0x402c40c7be1dad4a	14.12652391540782
113	0x40503d932548bd93	64.96210605720107
114	0x403cb7aace4d3960	28.71745004067759
115	0x4012434c76764c6e	4.5657213697150905
116	0x403d26e56c672c36	29.151938224018714
117	0x401497b824463931	5.148163382326218
118	0x40188e3505a28243	6.138874137920143
119	0x4033d989a2ddc47d	19.849756411688293
120	0x40512170d16fd55e	68.52251087113606
121	0x4049cd7e8da991fd	51.605424602315885
122	0x401cc964a08806fe	7.196672924330185
123	0x3ff1eece8e896aa8	1.1208024566500772
124	0xc049712124fbf4aa	-50.88382398893857
125	0x40231599bf49e0b5	9.54218862320736
126	0x4026a2ff6891d1f6	11.318354862022698
127	0xc0255189436708da	-10.659250360801185

arr_2 f8 [128, 64]
0	0x4035c4c2b3c758aa	21.768595920723477
1	0x401ab95bdaffb667	6.681014463288739
2	0xc0340ac07e4219ae	-20.04199971307542
3	0xc048b3d108dffed3	-49.40481673180843
4	0x403e3c3ea243084c	30.235330716481528
5	0xbff1430754fbec99	-1.0788644141855797
6	0x40337b7ca15dc268	19.48237045802162
7	0xc026e9f815bb5469	-11.45697086250057
8	0xc03e914b2d21cf53	-30.567553349260674
9	0x4045bf505bdd283a	43.494639857279665
10	0x4031a8451c7ec402	17.657304554890295
11	0x403f4255f6a11a4d	31.25912419732258
12	0xc03d2dbecbbc4f5e	-29.17869256350911
13	0x403a95d9cc19bfa1	26.58535457256915
14	0x40321a90c7aa4d7d	18.103771666600995
15	0xc0366fcfe398cf02	-22.436765885168832
16	0xc0440b73eb2a0b38	-40.0894750552456
17	0xc049d582cee7db26	-51.66805445023628
18	0x401bcff9a8898474	6.953100808518787
19	0xc0333360057a8d5d	-19.20068392030713
20	0xc0428ba3e9283eae	-37.090939659739306
21	0xc02b3d68fc862292	-13.619941607831866
22	0x4035a69a639eefa2	21.650793291380644
23	0xc01ad10ea20a83bc	-6.704157382861862
24	0x400d0608e3839dbe	3.627946641401393
25	0x40316168f34b94a8	17.38050766558868
26	0x40140832c2828416	5.008006133285582
27	0x403046b5d6309d18	16.27621210753304
28	0xc045930b82761169	-43.14878874554672
29	0xc034868d1a904a94	-20.525590572574018
30	0x4034932178403d31	20.57472945755325
31	0xc01256c3c31cbc2f	-4.584731148365832
32	0x403944d239520783	25.268832762266822
33	0x4045359b40db5e44	42.418800456155196
34	0xc01220e8d9c13fc3	-4.53213825456618
35	0xc04805faa813d9f3	-48.046711930935906
36	0xc02819fa7d158688	-12.05073920142901
37	0xbffb51758bdcc4f9	-1.707387491547989
38	0x403356367a3df931	19.336768760805345
39	0x40086ec654cb865c	3.0540892243014195
40	0x404e5e9122d07126	60.73880419900733
41	0xc03baa0a28783d04	-27.664217500071587
42	0x4026a10052f3013a	11.314455597079917
43	0x403658506ca72c53	22.344977179349666
44	0xc03987608f276683	-25.528817126387832
45	0xc03899c34c9658f9	-24.600636278825707
46	0x40402eec38a8ef18	32.36658390282372
47	0x40387fbda95d2403	24.498987756003782
48	0x40094e428ede5be3	3.163212886963707
49	0xc03b58cf68697998	-27.3469147927768
50	0x401590b5880729af	5.391317487179932
51	0xc01f9e3a22aee394	-7.904518644260765
52	0xc03d452e66b5af23	-29.270239276272275
53	0xc03244c638d926c4	-18.26864962865399
54	0xc034f76db8d6351c	-20.96651797513651
55	0xc02392be7b34451f	-9.78660950673162
56	0xc040da8f2722606e	-33.707493678842056
57	0x40125505eded24b0	4.5830304313650885
58	0xc021b1e3cc2f2b48	-8.847441082723563
59	0x4040501c3092d36f	32.62586028260454
60	0x403224f8e9aab1ae	18.14442310731254
61	0x4034debfe9ca1805	20.870115863646806
62	0xc04449a6c29d7b14	-40.57540161790362
63	0x403b809505bbda08	27.502273901331165
64	0x40295cb3af7dd170	12.681058391674668
65	0xc045958fd68fe66e	-43.16845209146855
66	0x3fadf8b5c6ab9c00	0.0585381321923748
67	0x400553a2ce77d12c	2.6658378725352545
68	0x401a3def41c43eee	6.560483005144972
69	0xc00696f16aa47d52	-2.8237026530693266
70	0xc03d419b4e69f990	-29.256276036141173
71	0x400df6188e666925	3.7451640248301765
72	0xc02e732153d8eda6	-15.224863643866069
73	0xc011531d6c6a1c10	-4.331166929222505
74	0x40278d0081b34b32	11.775394490372125
75	0x402febf38eaf35bf	15.960842570197995
76	0xc0257c9f99d1281e	-10.74340515783484
77	0xc03faa1d84317c6e	-31.664512884217793
78	0x403c153be23df87a	28.082945003633064
79	0xc0276ce33243c8a1	-11.712670870565775
80	0x4042cf0db00245da	37.61760521040897
81	0xc02cb7ccfb6a37a3	-14.358985764232619
82	0x401214ed9a35bbaa	4.520437631158453
83	0xc0516c09915e7fe1	-69.68808397510976
84	0xbff509ec4496f76a	-1.3149225882802633
85	0xbffb9703b86c6011	-1.7243687824284317
86	0x40359e4275023949	21.618201554339326
87	0xc0480c7ba16853fc	-48.09752290338653
88	0xc02e7420961e3e02	-15.226811114494016
89	0xc02e63dac16b8318	-15.195028347372087
90	0x401069b11e35233a	4.103214714043867
91	0xc04869e2877089b1	-48.82722561831486
92	0x404a5c2a5a2e7115	52.720042488743424
93	0x400117eaa0099e9a	2.136677980702939
94	0xc0271f94e8d1af6c	-11.561682963939994
95	0x402d0420a8f3b00c	14.508061675784141
96	0x40194614e869bda4	6.318439132169633
97	0x402fe1a079feda56	15.940677463874788
98	0x4039670127edb2ff	25.402361388713867
99	0xc0443c3dcb7ae98d	-40.47063582898691
100	0xc03fbf4ba3d2d8f1	-31.747247923828528
101	0x4041d2e855059f84	35.647715213533075
102	0x402b4477860f7b5a	13.633724393262742
103	0xbfd1d76c50ff2d40	-0.2787733832344266
104	0x402b6cd2734cc1d9	13.712543109054353
105	0x40350be980094a98	21.046531679409412
106	0xc036f15de025970d	-22.942838677575356
107	0xc023834173e757f6	-9.756358739843545
108	0xc03bfda0471114f4	-27.990726892156957
109	0x3ff143ef280fbbf1	1.079085499277195
110	0x40227cdd4e57ced8	9.243875930994747
111	0xc0453a7bd0721fb2	-42.45690351078464
112	0xc03542a640990700	-21.260349309311096
113	0xc03e5922eee2e646	-30.34818928756274
114	0x404af66d6fd96a65	53.925214749488795
115	0xc028c91010c64837	-12.392700695232731
116	0xc01cb2d0ce5a5c05	-7.174624656930068
117	0x403204739a046b3e	18.01738894088634
118	0xc04b965c6a467d2a	-55.174695286196155
119	0xc020de28f4d5d794	-8.43390622244241
120	0x403c0051dd745a9c	28.00124916163132
121	0x402fe84b0f7da147	15.953697666249935
122	0xc032996ca3399012	-18.599313928178226
123	0x402b7a87a776f9cc	13.73931620910016
124	0x403af35f9f666932	26.950677835943857
125	0xc04c81c7967f324a	-57.013903438670766
126	0xc033872df3cf40b2	-19.528044927691276
127	0x403599dbc9576b21	21.601009925691987
128	0x402749ebcead6536	11.644377192179132
129	0x400f8e27c376eea2	3.9444117804212775
130	0xc037abd034f8f780	-23.671145735533628
131	0x4043081fb074f53e	38.06346708021964
132	0x4048bd87738507f8	49.48069614406262
133	0x4002a543955b3f0e	2.3306953114005244
134	0xc01c5ed719f28396	-7.092617421557312
135	0x40322f57384a0793	18.1849246197449
136	0xc01cd3815d32d1da	-7.206548172213354
137	0x4031fab538f6a70e	17.979327736108694
138	0x403249b7f1a24f91	18.287963010908758
139	0xc041af02dc845819	-35.36727482282749
140	0xc046ab58130355ef	-45.3386253134048
141	0xc01b9a37578613ba	-6.900601737554945
142	0xc02f24a5281c64e4	-15.57157254549606
143	0x403d7db964b3e89c	29.491110128329282
144	0xc0280aa20e3dedf8	-12.020767636356126
145	0x403138fbe0a02e9f	17.222593344790422
146	0x401214d74a9ef898	4.520352521851372
147	0x402e1e2d00cf108d	15.058937096859404
148	0x40358ad4219c6983	21.54229936665207
149	0x402c752e55600c41	14.228869121527284
150	0xc03ed06ae154e44a	-30.8141308624511
151	0xc031da5f994deff4	-17.853021222617784
152	0x4028d898d4b624bf	12.423041007265395
153	0xc03e1fe5a7840640	-30.12459799741032
154	0x4036c47840564409	22.76745988947008
155	0xc0117e41b91b37f8	-4.373297588621419
156	0xc044f1c052871461	-41.888681713063086
157	0x404ab482672fec64	53.410229586029146
158	0x40356bcae6e68a20	21.421064788135595
159	0xc0408225639d22ff	-33.01676602528277
160	0xc050ae913a2ca077	-66.7276139674958
161	0xc00526f15816efb2	-2.644015014839135
162	0xc03619a16b25c464	-22.100119301529404
163	0xc00353e6f87ceae2	-2.415967885315113
164	0x403c0177ddb673c3	28.005735261005395
165	0x4044aa70b8e7dcef	41.33156501122891
166	0xc04c3cc4dc0a9a34	-56.47475767629331
167	0x402899f38237a9d5	12.300685948653078
168	0xc0274a90b846de68	-11.64563537469003
169	0xc03558ad4fe53454	-21.34639453264056
170	0x404ef536b2d1146b	61.91573176583264
171	0xc0406b0d7406695a	-32.836348059778814
172	0xc02bf9a5b6d85c3e	-13.987592424307987
173	0xc041e37e7ecae2ce	-35.77729782969037
174	0x403091185182cde6	16.566777319368974
175	0xc037aac2043df672	-23.667022957923514
176	0x4026b500aa859e56	11.353520706950047
177	0x400e1df82a3a150c	3.7646334933257375
178	0xc0270368b4eb381c	-11.506658223832396
179	0xc02d55c4e8a31a7e	-14.667517919454664
180	0x402616250b20b10b	11.043251369229003
181	0xc039ff3865cdc3c0	-25.996954310164938
182	0x400b42d563c36b98	3.407633571053747
183	0x404a63b1a348f379	52.77885857641281
184	0xc025bdc81ead2595	-10.870667418132863
185	0x4012fe8e920f7d5e	4.748590738482873
186	0xc0502bea53369efe	-64.6861770661744
187	0x40402d14b2a6eda7	32.3521941485481
188	0xc02f2fea0c4d7185	-15.593582519963784
189	0xc041bae4457404d1	-35.46009128727895
190	0x404c8a0461574128	57.07825867424464
191	0x402b7c84d25639f0	13.743200848603891
192	0x3ff0cbc04229e68b	1.049743898822643
193	0x40412499e9fa5659	34.28594708178998
194	0xbff1e3abba9ca008	-1.1180836953662965
195	0x40267346d89a8890	11.225149887908884
196	0x401bfd314809fe62	6.9972583061313305
197	0xc03a3ff4462d40ab	-26.24982107739258
198	0xc03305ea4e459265	-19.023106472001377
199	0x40415d99fa8d7812	34.73126155765216
200	0xbfd537bec15a09f0	-0.3315274131965955
201	0xc02940cae6c5064c	-12.626548015166144
202	0xc03a67f75eae4bcf	-26.406118314316526
203	0x402a2bd65aedb5c0	13.085619775311784
204	0xc01ddbb47e1b081d	-7.4645557121275745
205	0x4035b17ab0ba2d1c	21.693278356030632
206	0xc00188db421af40e	-2.1918244518733507
207	0x3fff8593046c53f0	1.970110909727051
208	0x40404d0bbebe163b	32.60192093164047
209	0x4040a6482a74344c	33.299077326527
210	0x40123c4cd5cb9bcd	4.558886852791102
211	0x4033f03d2ed78131	19.93843357812256
212	0x4027a7642e2fdfdc	11.826936190933274
213	0xc04497fe6c147244	-41.187451848968095
214	0xc043f7b3a4e1e686	-39.93516980200097
215	0x404a07d069db6f33	52.061047775407495
216	0xc0405d967228be00	-32.73115374554982
217	0x40073b7900bea749	2.904039388483316
218	0x4029b5f1ebcf04f5	12.855361336728018
219	0xc03237f179205abc	-18.218528337859183
220	0xc0301a6d1a91d9e6	-16.103227291687197
221	0xc02f577b0b9d2fb6	-15.670860636651792
222	0x4044016358fe9ac6	40.010844349211354
223	0xc0273c13573dea2a	-11.617335058505962
224	0xc01596d80352c9ac	-5.397308399131742
225	0xc0309f00e585908c	-16.621107430561594
226	0xc04244f6d61fe8d6	-36.53878284986574
227	0x4043bbcfc5cc537e	39.46727821804869
228	0xc043edc9760b5618	-39.85771060517817
229	0xc040a65f5770ca65	-33.299784593652284
230	0x402f0a1a29d9aa8e	15.519730861492715
231	0xc037ec4a2f6f5f64	-23.923006977739888
232	0xc0265d29b270457a	-11.181958748059277
233	0xc03a5b56b2aa83d7	-26.356791655187262
234	0x4028eeb5a7e649c4	12.466229674207064
235	0x4040cc301d0a6071	33.595218305651436
236	0xc033bfaa2ae5c984	-19.7486903010372
237	0xc02ae3cde4905890	-13.44493021261249
238	0x40256054ec5ff206	10.688147913658224
239	0xc02967762c04f291	-12.70207345543284
240	0x404ac2be398a35ad	53.52143019913215
241	0x4011d32ebb7caf97	4.4562329573490365
242	0xc0532e6f3f54ddfa	-76.72554000175288
243	0xc038df8972992d06	-24.873191034695104
244	0x40408e9219daec3d	33.113833648582364
245	0x4025f9b742ba902f	10.987726292871313
246	0x403771e30a1b6024	23.444870597537502
247	0xc055ee60db0c0007	-87.7246615998448
248	0x4009bbd9132740f0	3.2167226311067836
249	0x4000d8705d82367e	2.1056830697405635
250	0xc034e4bc3140f496	-20.893496588094955
251	0x404be3c3fab134a1	55.77941831257454
252	0x4052bea6981199a8	74.978918091953
253	0xbfd7ea1fe69d4060	-0.3736648323147218
254	0xc0320aeb04b01767	-18.042648594847744
255	0x3ffacdec616cbb00	1.6752742581990674

arr_3 f8 [64]
0	0x4033e207a315bc3d	19.88292903214118
1	0xc0416da12d35f06a	-34.856481219613514
2	0xc04208b416f60801	-36.067995901234106
3	0x401fbbc71b54f026	7.933376719531259
4	0xc04034b39124d206	-32.4117299489772
5	0x4026aea91fcba105	11.341134065253309
6	0x402fd0e7be405233	15.908018060065933
7	0x40428b1b6ae63874	37.08677421799885
8	0xc04c5fe2eb71ca18	-56.749112539826626
9	0xc00bab4eaaa4f834	-3.4586461383433065
10	0xc0339906bb655c12	-19.59775897240258
11	0x401762ad310c0e58	5.846363798485605
12	0xc049dfd567174629	-51.74870003353528
13	0xc043701c30b5e18a	-38.875860298928345
14	0xc03ca4be5c52e1ba	-28.643529672846604
15	0x404259f1dc94a2e3	36.702693531585986
16	0xc044b4911a065be7	-41.41067815123079
17	0xc02e2cca284c9305	-15.08747983870263
18	0x4019709b7ce91eba	6.359968139389531
19	0x4022749ebb588b2a	9.227773527678057
20	0x402887a7140a28bd	12.264946581115845
21	0xc0075cc1139c3bfe	-2.920290139394182
22	0x3fe80965325df650	0.7511468871814007
23	0xc0000ce967d4cab8	-2.0063045608343053
24	0xc02a37a2836b4219	-13.108661753504792
25	0x403652480e227500	22.32141197530018
26	0xc0390c2d6d92f324	-25.047568176628502
27	0x4041cddcd3690cfb	35.60830156926564
28	0x404541f34e4411d5	42.515237601506364
29	0x40439b4482b915b3	39.21302827870695
30	0x404ed013983a0426	61.62559798081229
31	0xc041cc968e78a45a	-35.598344620616174
32	0xc042ed1516217343	-37.85220600732148
33	0x4040cc7545ef60c4	33.59732889355067
34	0x40104e7db2382d32	4.076651367834801
35	0xc01b2c2ff355cfe1	-6.793151666748572
36	0xc035e025beb0ca26	-21.875575941239866
37	0xc0140ca58d9bac38	-5.012350285173902
38	0xc00a44e944349c14	-3.283648045402069
39	0xc0352ba2d6be285e	-21.170453473496643
40	0xc036cb81a20a6423	-22.794946792160896
41	0xc031bb02259a907d	-17.730501508937312
42	0x40493d32cdd09948	50.47811291394697
43	0x3ff0a12223cce1d1	1.0393391989183451
44	0x4023f64854499e24	9.981020578371563
45	0xc03403dc116af021	-20.015076721771155
46	0x4038b5477559c5bc	24.708121618668642
47	0x4040ac8af25981e8	33.347990316109474
48	0xc01f8f847911ffb1	-7.890153781627235
49	0x402df5c56c50026c	14.980021843687801
50	0xc04872379a86d401	-48.89232188781171
51	0xc0394291f5b77ba9	-25.26003967027251
52	0x404728fe725d66cd	46.32026509819625
53	0x4014132c2477c028	5.018723077591893
54	0x403d55c3b26b242a	29.335017348439727
55	0xbfe86e2eb47a3e04	-0.7634500050498336
56	0xc00114916c32035a	-2.135042996670035
57	0x4049bcc231578e18	51.47467629218244
58	0xc036b08512bd8bbb	-22.689530535960994
59	0xc039a8bbd32762d3	-25.65911597930501
60	0x4042e5d7822bfd85	37.7956392969891
61	0xbff34f558a52bc44	-1.2068686869859144
62	0x4021effe49e25cbc	8.968736943132505
63	0x4034955f50923566	20.58348563737436

arr_4 f8 [64, 32]
0	0xc02f369416185df2	-15.606598558878407
1	0x40225863a9b6a9c4	9.172635367915866
2	0xc040d162bb97f9f1	-33.63582558556289
3	0x400ffc9203227d70	3.9983253712559232
4	0xc0419dabfa464d59	-35.23181084091875
5	0xc023106128be3cc2	-9.531991265508967
6	0xc032b1433737be16	-18.692431880101218
7	0x40501285f245c8f7	64.28942543806976
8	0xc027acf8011c0a33	-11.83782962291034
9	0xc024329d3abc567a	-10.09885581540151
10	0x40420133b1aa25a3	36.009390075759505
11	0xc0383ccce4feb99c	-24.237501442135553
12	0x400397841bd137a0	2.4489824460242318
13	0xbffa6f5e0fcfc430	-1.652189313663495
14	0xc01464a381db3171	-5.09827998066281
15	0x402d099bfa4ecbb4	14.51876814090597
16	0x40476df213823523	46.858950079515374
17	0x404740081debef83	46.50024770756047
18	0x40211200c3f29d79	8.535162089696984
19	0x4032be0ad98e09c0	18.74235305516936
20	0xc043f28aa8b591e9	-39.894856537492
21	0xc03292d77f78a63b	-18.573600737529187
22	0x403a81a1991dd870	26.50637204149865
23	0x4032f389b3a3df53	18.951319911487484
24	0xc02f7580cb870545	-15.72949825308991
25	0xc0380a3523573e77	-24.039873322295957
26	0x401f9788ab5cc7d2	7.897982289827228
27	0xc0345ea03d6038d8	-20.369632564536772
28	0x402abd4198761576	13.369641079344301
29	0x403c3e77e98c52b4	28.24401721645218
30	0x401a135764d9640d	6.51888806893204
31	0x40350bb0f2c25448	21.045668766444834
32	0xc03bfa53f2cbc14d	-27.97784345125665
33	0xc036c95e01391f78	-22.786590649076487
34	0xbfec955ccb37c788	-0.8932327241038687
35	0xc03bb36650f2ed10	-27.70077997141658
36	0xc035772ba1327a65	-21.465509486030346
37	0xc037287127c740ea	-23.157976614137546
38	0x403d51ed0bd59270	29.320023288385016
39	0xbff6b8fa3fea4654	-1.4201605316815362
40	0x402dacb37f68ab58	14.837306958701149
41	0x4042fb59cb221670	37.9636777798122
42	0x403ac518241f461c	26.769899613986226
43	0xc026003624ed65b6	-11.000413087824978
44	0x403f320ce1f8995c	31.195509074395304
45	0xc044979d9d87c495	-41.18449753884594
46	0x402f582a6ed6c29a	15.672198737827149
47	0x4051ce2f99d78b84	71.22165533112826
48	0xc0225167ef24c2bb	-9.158996079671274
49	0x4048f268ecb17f1e	49.89382704417061
50	0xc024d3e94a008828	-10.413889229359555
51	0x40312ae4f807295c	17.167556287525585
52	0x402dd2dba6a62c64	14.91183205393299
53	0xc040e9dd628f95ed	-33.82706863413828
54	0x403675a5b33edaef	22.459559634061346
55	0xc03eeb778f7b682c	-30.919793098095553
56	0xc0404e86a29e716d	-32.61348374115446
57	0x404d04193738a4ee	58.03201952234109
58	0x3ffef92911e06110	1.935830182867054
59	0xc038baf9d8fba28d	-24.730374871668165
60	0x4002866580cdd475	2.3156232893766693
61	0x4039f8e7fed0f67f	25.97228996850617
62	0x40325d13922f8928	18.363579880338108
63	0xc04304c70ac8a461	-38.03732428357103
64	0xc04c436e3f8a951d	-56.526802008311485
65	0x40330682eb73a0cc	19.025435176591415
66	0x401b313630d662b0	6.798058283886959
67	0x402146ec3bf74d46	8.63852107423612
68	0xc022aa51b43bd0c9	-9.33265460233851
69	0x40295fae6874bea0	12.68687750268083
70	0x4036efbbc93ea549	22.936459138674113
71	0x40479c0a77a36ab3	47.21906943778358
72	0x4022d79998e539b3	9.421093729001631
73	0xc03bf10a56df8b77	-27.94156401593815
74	0xc03331c5eabdab60	-19.194426223093046
75	0xc02a9ed1c1abf416	-13.31019406532327
76	0x403174bda6afd482	17.456018846442483
77	0xc04c5d00aa0d369a	-56.72658277173214
78	0xc0232509945b4840	-9.572338710921144
79	0xc02fd0202736e324	-15.906495309305292
80	0xc02850f177538d3c	-12.158092240285093
81	0xc023b8abdf2da78e	-9.86068627769762
82	0xc03d1fb498f9b9a6	-29.123849450080932
83	0xc040a38bc748e278	-33.27770319994755
84	0xc0385def332c7ff0	-24.366931150783728
85	0xc0027ecbca21878b	-2.3119121352655774
86	0x404805399090d024	48.04081923552465
87	0x400bd3aca39ccffe	3.4783566267233246
88	0xbfff85fa01ff4d49	-1.9702091291445234
89	0x4041b8f4472c9bcc	35.44495477369455
90	0xbff05c73282384dc	-1.0225707595748679
91	0x40158c4513c3842c	5.386982258613937
92	0xc0224b66595ad8ab	-9.147265236224788
93	0xc032a7fb918edfa9	-18.65618238199355
94	0xc0460077f34d3c77	-44.00366059562014
95	0xc0473c656dfdbe66	-46.471845387361824
96	0x403ae3b355204493	26.889455147149942
97	0x400c1d72524f24aa	3.5143782072451204
98	0xbff4b80898dc2b40	-1.2949300738425364
99	0x4030117185b739db	16.068138463242445
100	0x403b33a88f16cb09	27.201790755333636
101	0xc02f9d89c7ac5db7	-15.807691802778988
102	0x403fb604fa7bb3c6	31.711013465119116
103	0xc007e975da7b28f2	-2.9889943188510353
104	0x40392308cf41f7c6	25.13685317383331
105	0x4029e7e8c3a2cf32	12.95294772493762
106	0x4034e60eacec0ced	20.898661430005564
107	0xc03a137bc98279be	-26.076107591966995
108	0x3ffe70554eb425d4	1.9024251055110328
109	0x4050a3f25485d209	66.56166565960315
110	0xc023e7fd3081906f	-9.953103557411138
111	0xc01aff2c534f631c	-6.749192525597007
112	0xc045df4214f0c632	-43.744204156461265
113	0x4040d46817223ee4	33.65942658588554
114	0x4043829e3a40a162	39.02045372157842
115	0xc005fdb7ecbfc60b	-2.748885964968172
116	0xc00aebd933d822f0	-3.36516037467333
117	0x402d4fc4dec286e3	14.655798875089607
118	0x403bb81a7f32502a	27.719154310019952
119	0xc03211cfbb26bf18	-18.069575974425874
120	0x401e9629d6bf0a56	7.6466439775563995
121	0xc03edd49ae56e193	-30.864405533038347
122	0x4034d2dc30bdb952	20.82367233879024
123	0x401f0affef872b50	7.760741942048142
124	0xc03cc194d9b5e84d	-28.75617752734279
125	0x40222d8946ec9f5c	9.088937965759833
126	0xc0012028849e56ea	-2.1407022820302375
127	0xc042a2374bd18f92	-37.26731250507795
128	0x401e63b43354bc26	7.597367097899257
129	0x40281fc31f378bdb	12.06203553727203
130	0xc03b77c116666f33	-27.46779003144111
131	0xc04166446fb4e588	-34.79896351178019
132	0x4034c29f3ece3cc1	20.76024239096728
133	0xc045faa14074df87	-43.95804601389596
134	0xc03422052bbe0286	-20.132891401185155
135	0xc03a4a35116e10f7	-26.289872254726074
136	0x4055bf1dbdefdd13	86.98619030403306
137	0xc00913e56f0a9afb	-3.134714953910018
138	0x4053b5ca7d5a66aa	78.84048398807741
139	0xc03357ec8c9c5cb3	-19.34345320527491
140	0xc03db0409738010e	-29.688485575840836
141	0x400500ff698e3a08	2.625487160351671
142	0x40444eeaa99162cb	40.616536327351774
143	0x404dfbeffc242e8c	59.968261258761316
144	0x403f8f40c793cbb4	31.559582208235682
145	0xc026f7bff13894da	-11.483886278302112
146	0x4047a7763a7d1f3d	47.30829554662203
147	0xc047bc24ed3d2b80	-47.46987691389859
148	0x40179ba06edd2947	5.90197919106351
149	0xc04269b71096b255	-36.825899194319085
150	0x401f1cd6660789d8	7.778161615572081
151	0x403ede3daf69c452	30.868128741571418
152	0x401e879021ad3a5d	7.632385755727765
153	0xc03a249784b1e9ae	-26.142936986385102
154	0xc03db46c9017bbac	-29.70478153781339
155	0x4035bd5ad474c610	21.73966720438881
156	0x402e8e7b3dacbb02	15.278284003577486
157	0xc00365cd9d4ed9cc	-2.4247085847557397
158	0x4036adc012792ccd	22.67871203859686
159	0x4023d23e5551375c	9.910631815113156
160	0x4016a0ab63b63c6f	5.656903799054915
161	0x4028bcbb52d07e98	12.368616664839735
162	0xc02f0fd4669450fc	-15.530917363743804
163	0x3fd54bebc4d27238	0.3327588483896622
164	0x40202edebe64ef12	8.09154314977744
165	0xbfd85a7dc3ddd904	-0.38052314879986704
166	0x4011014cff3fc01b	4.251270282999054
167	0x3ffefb4754fc6880	1.9363473243488727
168	0xc040e977643d2a0a	-33.82395604120764
169	0xc0480a55f08b0af4	-48.08074766911696
170	0xc03e021139f2c894	-30.008075353406255
171	0x404575f3ab0e62ae	42.92149866297164
172	0xc02f1e96c0edc0b8	-15.559743908903656
173	0xc048a853a0222aa0	-49.31505204838072
174	0x4044f986a94fa898	41.949422038932596
175	0x401e0a48f367028b	7.510043910181262
176	0x402434ddbea621b0	10.103254277972923
177	0x403d28b21c3ebc2b	29.158967747989816
178	0x3fba594df45c18e0	0.10292517867864914
179	0x4030761d99498738	16.46138914151308
180	0xc04136fd28dbc73d	-34.42960081797944
181	0x404227641db602a0	36.307742799637026
182	0xc02c84204c01dfd7	-14.258058905819707
183	0x404f0318f2796ec0	62.02419882706954
184	0x404d4d4306382f32	58.60360791915299
185	0xc02b75a4e19a9ffc	-13.729773569226374
186	0xc048b96b608a720a	-49.448589389419865
187	0x400b4f6b28aa6f3e	3.4137786080372328
188	0x402a6cdff3f1829e	13.2126461250603
189	0x4051055975e061de	68.0835852328523
190	0xc0424aa848a95be3	-36.583260615057746
191	0xc03405f162a82fce	-20.023214498578277
192	0xc03304a0e6062b14	-19.01808011675446
193	0xbfeeef4b576b24e0	-0.9667107303040687
194	0xc03784b3b08d2e30	-23.518366846530796
195	0x40410c30c3de22ba	34.095238193001435
196	0x3fff446d75d0f357	1.9542059519000838
197	0xc025a5a2e35dd7ef	-10.823508362966065
198	0xc045b01393505ef7	-43.37559739517558
199	0x403153a87598568f	17.32678923577492
200	0xbfc338ac97819150	-0.15016705892333926
201	0xc017c2f2471e744e	-5.9403773414934005
202	0xc02568bf37387e36	-10.704583860059852
203	0xc01c4220d2103ae6	-7.064578325501065
204	0x4037a2d4e8eadc8a	23.636061246241788
205	0xc029985ebe92ea20	-12.797597842630296
206	0xc01234d9672b3ba4	-4.551610576642734
207	0x404022ab6653fc2d	32.2708557043155
208	0xc030cf92f68fa6f2	-16.810836229392358
209	0xc03275bbb5b3ae64	-18.459895473830684
210	0x4032f4ae4f5e4501	18.95578476001265
211	0x403f371dd98b33c7	31.21529922150128
212	0xc020cb98a0661ffa	-8.397648823229236
213	0xc03417567f2c70b9	-20.09116358599633
214	0xc023613249dd2ffe	-9.689836796045707
215	0x4034fa39d62ce028	20.97744501681896
216	0x4030897cb2f0f3ad	16.537059005571496
217	0xbfe97d1659a8bcd8	-0.7965194464831269
218	0x3ff2928fa520a7da	1.1607815218253479
219	0xc04326060a350947	-38.29705932225857
220	0x4043e34a4b7dd229	39.775704800067906
221	0x3ff69782980ede90	1.4119897784966362
222	0x402aa612f17f9255	13.324363276312548
223	0x4001e3562c17f621	2.236004204255338
224	0x4033d05f1a30209e	19.813951145887238
225	0x4007ab983d8017a9	2.958786468955584
226	0x400f0b42d71dd504	3.880498581502822
227	0x401d187296808796	7.27387461814387
228	0x40346cf6296c33fa	20.425631131092793
229	0x40234d617778a8b8	9.651134236792458
230	0x403e6f712d854b5c	30.435320706408092
231	0xc04110cacd0132f4	-34.13118898924395
232	0x403ba096f963bd15	27.627303683138127
233	0x40224a37195ed06c	9.144951622795098
234	0x40309f0769858741	16.621206851100627
235	0x402c23a134e36f45	14.069589283717173
236	0xc0419684365773c4	-35.175909798337244
237	0xc00eda5181909924	-3.8566007730725165
238	0xc0484937bc8b5e58	-48.57201344304184
239	0xc045744164b15727	-42.90824564608766
240	0x4002804af7ab9228	2.3126429890856066
241	0x4025ab212cc0b353	10.834237478755005
242	0x40468ad3d925ba7e	45.0845900949689
243	0x403f9cb7c63870dd	31.612179173259268
244	0xc039aa651179d0e4	-25.665604679336766
245	0xc018f43fc4b5ae4f	-6.238524507130548
246	0xc020c7cfd0ae6b39	-8.39025737885605
247	0xc01ff6b8ab333e1a	-7.99093883037815
248	0x3ffc382fcaeafbbc	1.763717453620969
249	0xc02ca6423fd881a2	-14.324724192790033
250	0xc048f0da6a0ae91f	-49.8816654732966
251	0x4044b0ad282a2740	41.380284329016376
252	0x4028ce548dac7818	12.40298884134613
253	0x40232ebbfc507f07	9.591277966333577
254	0x4043b63579b5ff23	39.423506940713445
255	0x401cc6c066a148a3	7.194093326181391

arr_5 f8 [32]
0	0xc02c54f9c7a782d4	-14.165968169401289
1	0x4038ec4eb8c94000	24.92307619965868
2	0xc02a82d00cd63e2a	-13.255493546631516
3	0xc0309e68fe221410	-16.61878956157676
4	0xbfe4fd7f0010ac54	-0.655944347502905
5	0xc045ef152601f73b	-43.867832900009
6	0x4043826d3f9a29cb	39.018958997988726
7	0x402eba88da53f046	15.364325354334266
8	0xc03517597706e9ef	-21.091208876789036
9	0xc04191fdbac58a46	-35.14055571218027
10	0x4032ba94fc51655a	18.728835840103194
11	0x404bf3b8ee82c0f4	55.90408116707286
12	0x4043bae80ece684e	39.46020684317101
13	0xc03457d2706ffb28	-20.343054797495967
14	0x403674f18a25bfb0	22.456810602394114
15	0xc029b4207f696483	-12.85181043778926
16	0xc0489fb102f55da5	-49.24758946400406
17	0xc026738813f8e6bd	-11.225647567876303
18	0x4040535fe2ebb59d	32.65136372098207
19	0x40294e3cdc426f8e	12.65280807791694
20	0xc0478230f44f2118	-47.01711896766409
21	0xc025f8e4c60f2041	-10.986120404573855
22	0x402f1c0cb691f8c0	15.55478449375039
23	0x40429b3942911d3a	37.212684937340285
24	0x4039eef5aa4824b4	25.933436052907112
25	0x402aeb9ac84cbc02	13.46016527115535
26	0xc02e311b194d1cec	-15.095909872687535
27	0x4040c35cb4431a87	33.52626660610718
28	0xc01a256f407a563a	-6.536557204691741
29	0x401646a4b64063e0	5.568987701110899
30	0x40410affb86233b1	34.085928962659985
31	0xc0332a936d3b414d	-19.166312052694867

arr_6 f8 [32, 1]
0	0xc0381a03477ca782	-24.101612537320314
1	0xbfe409cf40379734	-0.6261974577180127
2	0x4022f1ca1a75d09a	9.472245051271148
3	0xc023f26cd6fc0dbe	-9.973486631649276
4	0xc03c9a33e68eabdc	-28.602354440528742
5	0xc01c1eadce1e0070	-7.029959889012488
6	0x403277a5a336c623	18.46737117850547
7	0x403b5d09e23a0e6d	27.36343206326858
8	0xc008df5df553749f	-3.109065929993974
9	0x4037ebf309126ff7	23.921677176476773
10	0xc02c5148350aeaca	-14.15875402220026
11	0xc01a6295de853d2c	-6.596274830705891
12	0x40378cfad814edd2	23.550702576741806
13	0x4042ae713f9e0588	37.36283107009791
14	0xc02dad817c643e70	-14.838878524052433
15	0xc01b8b8aa928ee0c	-6.88627113640133
16	0xbfd4f97fbd83d9ec	-0.3277282095654346
17	0x3fba7dc289f7c780	0.10348144405705106
18	0x403fbe5f5c4be981	31.743642586262926
19	0xc031373a3d570a65	-17.215732415914676
20	0x403367ae2cf76e92	19.405001459510977
21	0xbfd81112148ba4d0	-0.3760419083251465
22	0x4049853ab344fc7d	51.04085389011832
23	0x4030f74ce38cb1d9	16.966016980981156
24	0x403bec318f6da9b2	27.922631229661143
25	0x4026b2b8193d0d01	11.349060810759058
26	0xc033bfbacad5b25e	-19.74894397465902
27	0xc00ef29c84cb7c31	-3.868462598285554
28	0x402e6990df176143	15.206183406452174
29	0x4026b8e3fe3ef181	11.361114449676053
30	0x40310698349e17b6	17.025759972187835
31	0xc03dda0128bdddb6	-29.85158018718149

arr_7 f8 [1]
0	0xc03593a31f0669d7	-21.57670778185442
