weights/global.npz (npz, 129966 bytes, 8 tensors)

arr_0 f8 [43, 128]
000000 84 0b 91 a3 60 f4 84 3f 94 ea 4c 6b 23 12 c2 3f
       0.010231738082557625 0.141178538697052
000010 f7 06 c6 1d 20 0d 7d bf f0 97 6f 67 c5 29 af bf
       -0.007092595533664917 -0.060865563274816625
000020 c5 19 0f 2e 0c ed c4 bf d5 a0 d1 83 b0 08 ad bf
       -0.16348411797498677 -0.056706920710725285
000030 8f 2c 15 d7 6a d3 bf bf d9 03 f6 74 4f 46 6c bf
       -0.12431972266237977 -0.003451495351044259
000040 54 59 44 93 a0 33 b6 3f 95 c1 bf 90 96 fe c5 bf
       0.08672526927361918 -0.17183191364121045
000050 1c da 48 f3 0b 97 be 3f 9b 95 b3 7f 1e 4e a8 3f
       0.11949228944363494 0.04747100170952053
000060 07 b8 a6 a2 ee 1e b5 bf cb 73 8f 92 0c 94 ad bf
       -0.08250323744752573 -0.0577701500803652
000070 eb a2 79 b3 6f a0 bd bf a7 11 e3 79 0b 76 b2 bf
       -0.11572931415288294 -0.07211372113949342
000080 50 ea 9b 50 79 38 af bf 44 a0 bb 27 69 16 cf bf
       -0.06097773655888672 -0.2428714221962328
000090 51 06 ef 14 25 8a b5 bf 63 72 af 3b 15 e0 a6 bf
       -0.08413917313648624 -0.04467836717205811
0000a0 a9 71 0d 0b 63 1d c1 bf 6b 95 2d 2b 3c cb be 3f
       -0.13370931663201915 0.1202886205115498
0000b0 d3 d0 c1 4a da 9c b8 bf 49 a9 e4 62 fe b4 83 bf
       -0.09614338231205304 -0.00962256182954903
0000c0 20 f6 6d 06 92 57 c1 bf e6 3e 4c d2 9b 6b c1 bf
       -0.1354849368471358 -0.13609645622681582
0000d0 c2 cc f9 22 61 08 b3 bf 40 51 6c fb e8 01 a5 3f
       -0.07434661010647672 0.04103019780282802
0000e0 24 24 d9 26 51 56 c2 3f 11 b3 1b ce 46 08 b3 3f
       0.14325918576131003 0.0743450406259394
0000f0 31 e2 45 45 0e 04 8e 34 d8 0d dd 41 78 42 b0 bf
       1.5301758814110726e-55 -0.0635142479705374
000100 98 42 e6 9c 21 33 b6 3f b8 e0 85 cd 70 93 bb bf
       0.08671770172646587 -0.10771851556444545
000110 a8 7c 59 b0 8b ea 6d 3f 17 a9 6b cd 7a f6 c2 3f
       0.003651879148307186 0.14814696340847242
000120 f8 c9 59 f9 31 08 c1 bf ae da d8 64 49 3f b3 3f
       -0.13306259799317366 0.07518442833029823
000130 1d d4 7d 27 90 0f a4 3f ad d5 9f df f1 01 d2 bf
       0.03918123704981034 -0.28136870230022276
000140 19 d9 b1 5c aa 12 c1 3f 44 cf 35 78 f5 60 ad bf
       0.13338212514981576 -0.05738036243829339
000150 e4 b2 ed e6 e3 27 c0 3f 6d ab 22 0f ef 62 94 bf
       0.1262173535900707 -0.019908652590554455
000160 d2 ff b0 32 57 71 c0 bf 86 4e fc f6 4d 7e b3 bf
       -0.12845888114134013 -0.07614600448533268
000170 d5 6b a9 57 31 a5 c3 bf 18 8c 21 99 13 28 c2 3f
       -0.15347878246652039 0.1418480394087005
000180 b8 67 27 ad 79 c6 c5 bf 0f f7 54 a6 65 cd c4 3f
       -0.1701194854238659 0.1625182211081939
000190 cf d4 82 ce e1 79 9c bf bc 54 c8 48 96 83 c1 3f
       -0.02780869315093498 0.13682821801982026
0001a0 f1 c2 14 34 3e ff 8b bf 3d 7d b9 cb dc ed 97 bf
       -0.013670431103123689 -0.0233683108657463
0001b0 ab cb 76 6f 42 04 51 3f 27 45 bc c1 24 5b c7 3f
       0.0010386132033601652 0.18246898135888864
0001c0 0b 88 c2 a0 f2 05 a4 3f 67 b1 35 19 2f 36 c0 bf
       0.03910787784958821 -0.12665356379455803
0001d0 af c6 42 54 1b ea 73 bf 0c 0c 1a 78 50 ce ac bf
       -0.004861933474033782 -0.056261553440911966
0001e0 45 2d a1 59 b2 28 c2 bf 17 9b 67 b9 41 6b c1 bf
       -0.14186696411557356 -0.13608571579899184
0001f0 70 d0 75 55 83 41 82 bf 68 10 d7 cc 8b fd bf 3f
       -0.008914018674410523 0.12496255637148723
000200 d9 d9 24 aa 5b 94 ad bf 93 22 2b 2d a2 39 2e 3b
       -0.05777250720932487 1.2500821132149864e-23
000210 e8 89 1f e2 31 ee 84 bf 93 a0 e7 ea 7b aa b2 bf
       -0.010219945634109842 -0.07291388020496674
000220 40 31 56 77 ce 2f e0 ba b1 66 02 cd 0a 1f c1 3f
       -4.1841753002284345e-25 0.13375983247970205
000230 70 5c ec 08 3c 63 b6 bf c7 50 ea 5b bd 79 bd 3f
       -0.08745169847348833 0.11513885015512236
000240 64 ce 66 34 95 7f c0 bf 25 b4 1e 48 7d 10 7a bf
       -0.12889351900740842 -0.006363381749833007
000250 bd b3 26 99 07 e1 b4 bf 8b c0 29 a0 d6 7d c2 bf
       -0.08155868042986376 -0.1444652826353415
000260 d5 3a 7e d7 2b f4 c1 bf bd 63 8e 9b f2 e8 b5 bf
       -0.14026401540873815 -0.085585749604788
000270 13 ef c5 5e cc de 74 bf ea 34 c1 ac af d1 c0 bf
       -0.005095289536594344 -0.13139911589897874
000280 2e 62 eb 5a 8f 37 a5 bf 1b d8 67 67 9a ee b3 3f
       -0.041439514015739184 0.07785954498817242
000290 0b 6a 74 7f ce b3 ba 3f 8d 3c 7e cf 55 36 c1 bf
       0.1043061314743811 -0.1344706786298712
0002a0 52 ca e5 53 31 2c c1 bf 50 23 8c 97 0b fc 95 bf
       -0.13416115376056098 -0.02146928894493111
0002b0 68 de 71 b6 08 c5 a9 3f 5d f2 c6 79 f4 8f 93 3f
       0.05033137538060545 0.019103832180677894
0002c0 20 5d 89 a5 1f 39 ac bf 8b f9 67 94 cd 55 c5 bf
       -0.05512331863126918 -0.16668100115198245
0002d0 eb 20 ea 1a 17 15 c2 bf 73 bd 84 5b 43 94 c5 bf
       -0.14126862348735555 -0.16858713120152977
0002e0 08 30 bb d9 dc 07 a7 3f 1f 35 88 a4 cd 89 b8 bf
       0.044981862619891955 -0.09585271136184702
0002f0 e3 14 28 e3 d6 4a b7 3f 0d fd b2 c2 83 c3 b7 bf
       0.09098570867361704 -0.09282706740758702
000300 d5 d2 3b 7c b3 fe e3 ba fb 10 fa 3c cc 3a c5 3f
       -5.1685672891722345e-25 0.1658568666208636
000310 fb ca 48 cd b2 8a c5 3f fc 83 08 21 da d4 c9 3f
       0.16829524062776344 0.20180822956993427
000320 51 21 a8 6c 43 b6 a9 3f af 81 ae e0 a0 e2 b4 bf
       0.05021868420959897 -0.08158307538406605
000330 f0 77 11 14 71 0f b7 3f 56 f6 c3 21 63 e4 40 b5
       0.0900793718332975 -3.527242917397772e-52
000340 cd fb b6 b0 21 4c b7 3f cc 5d 3b 72 16 10 79 bf
       0.09100542606664348 -0.006118858032741991
000350 d9 52 9d f3 ca 78 bf bf c9 83 4a 0c 6d 43 a6 3f
       -0.12293690154667604 0.04348316931760327
000360 41 1c 3f c3 db 2b c8 3f 09 fb 32 67 f5 14 c4 bf
       0.18883845361253473 -0.15688960589428572
000370 a7 d7 fb 75 f4 f0 c5 bf b8 8e cd 4a de 12 be 3f
       -0.17141586075711965 0.11747540785068622
000380 89 3e f8 e3 24 c0 c0 3f 75 14 57 47 ed 4b b7 3f
       0.13086377269108976 0.09100230209067368
000390 13 3b e2 c8 04 4d b5 3f c1 ce 11 3f f0 25 c2 bf
       0.08320646194827601 -0.14178278998917018
0003a0 2f 10 31 bc 36 fb 9d bf 4c 77 82 d2 ed 1c d3 be
       -0.02927861713057228 -4.55689522751801e-06
0003b0 05 41 b9 d3 d5 dc ac bf e4 dd 1a a5 6c 8c a7 3f
       -0.05637233933942024 0.04599322810593856
0003c0 23 a1 12 d7 45 53 c9 bf 4b ff 2c 01 96 a1 b8 3f
       -0.19785378457641753 0.0962156060095342
0003d0 f3 0a f0 24 a8 0b ae 3f 10 b8 cd 3a f3 09 a0 bf
       0.05868268443011528 -0.031325913360760294
0003e0 25 91 eb a4 ad f2 b1 3f 09 28 06 f7 f5 86 c6 bf
       0.07010922695514361 -0.1759936767742263
0003f0 d0 3d bd 90 86 e8 b2 3f f4 30 07 b1 ee 15 c0 bf
       0.07386055978462669 -0.1256693233866667
000400 25 94 92 94 4e 49 bd 3f 0d 56 f4 a0 50 e3 a2 bf
       0.11439982535610278 -0.03689052548194747
000410 cf 8f 87 32 83 82 7b bf f0 c6 e6 46 fd 1c ca bf
       -0.006716263284463466 -0.20400968515382756
000420 2d 63 67 6c 62 cf b1 3f 48 0b b8 a0 51 bd b7 3f
       0.0695706858308653 0.0927325265293294
000430 37 2a 69 6c 7e 74 ae 3f 41 bb 04 3d af 2e 71 bf
       0.05948252747892407 -0.0041949124572927
000440 20 a1 6c 79 dc f4 b8 bf cc 77 a7 70 0b 14 b0 bf
       -0.09748628582440633 -0.06280585766168584
000450 44 c1 0e 97 5c 7c a6 bf b3 a8 66 84 fd 83 b2 bf
       -0.043917554320958035 -0.07232651216932844
000460 bd 83 41 9e 8e f3 c1 3f 99 e0 be 37 d0 e9 c4 bf
       0.14024527289714497 -0.1633854171939262
000470 17 15 64 3a d2 04 92 3f 27 d9 49 45 1e d9 c0 bf
       0.01759651643171364 -0.13162592299676953
000480 85 f0 d6 1c e5 7b d1 3f cc ec 68 8c 35 08 97 3f
       0.2731869489323418 0.022492253012597982
000490 dc 90 52 4e ac f2 ae bf ff bf 52 62 d2 4b c2 bf
       -0.06044519859395489 -0.14293889809550817
0004a0 3d 79 ab 10 8e 8d bb 3f 8b 9a 34 0a 46 86 97 3f
       0.10762870699861522 0.02297315060891462
0004b0 92 98 96 74 36 00 c0 3f dc 8d 3a 92 1b 1c c3 3f
       0.12500649159227756 0.14929527893137517
0004c0 bc 61 28 8e c2 62 c7 3f ff 43 95 bd e1 07 cd bf
       0.18270141545577967 -0.2268030334185198
0004d0 a9 ce 67 32 29 15 a6 bf eb 66 18 7d d3 66 bc bf
       -0.043130195048346316 -0.11094400219044658
0004e0 b8 ed 14 cc 63 1a b8 3f 3d ea 82 65 5b 95 b2 3f
       0.09415267689194351 0.07259150722794856
0004f0 0f 72 f7 bb 2e 6f 40 38 91 13 7a db ed b3 c7 3f
       9.659217435616766e-38 0.1851785012878762
000500 2f 9f c2 63 54 78 cf bf 1c 7d 49 36 84 dd 88 3f
       -0.24585966940980472 0.0121412591044519
000510 ac 58 f2 e9 4e a0 c2 3f 2a 80 fb 41 36 48 c5 bf
       0.1455172197644904 -0.16626623365209642
000520 0d 84 22 f5 3a 9c 71 3f d9 80 fa 62 5f ff cc 3f
       0.004299383452377914 0.22654335339485135
000530 d0 db d3 94 1f 3a bf 3f bc 11 2a 23 dc 38 bd bf
       0.12198064216123261 -0.1141488633966849
000540 83 c3 a4 2d c5 d3 9b bf f5 55 47 08 5c d9 b7 bf
       -0.027175026808609736 -0.09316039278140649
000550 bc 5e f7 a6 42 61 cc 3f 68 b6 11 5d 20 9c c0 3f
       0.22171815064097256 0.12976460022348424
000560 32 c2 a3 dd 52 ed a2 3f fd 76 a4 aa 96 80 90 bf
       0.03696688609659694 -0.016115526356876398
000570 f9 9c d6 85 17 ad c0 bf 15 77 fb d4 5c 2e a8 3f
       -0.13028234515261497 0.04722871875649851
000580 83 3a 10 6c c7 ec b3 bf b5 90 5a 09 9e 8d 9f 3f
       -0.07783171070352961 0.030813664742382858
000590 20 bb c9 2f 0c 51 99 3f 3d 89 e8 45 cd f3 c5 bf
       0.024723234574078323 -0.1715027419423424
0005a0 94 39 aa 6d e1 8a a3 bf 0f 4e 1f cc 76 2d a4 3f
       -0.03816894973452914 0.03940936319090948
0005b0 a3 4e 93 41 be 2a a1 3f 93 49 4a 20 15 28 c8 bf
       0.03352922964554963 -0.18872322155636975
0005c0 80 03 90 5a 9e 5a be 3f 47 34 3e e1 71 f7 cc bf
       0.11857022963523711 -0.22630141733353268
0005d0 af 9c 7d 06 3b 63 8e bf 20 a9 0a 72 12 95 cc bf
       -0.014837704787807075 -0.22329931801261527
0005e0 cf b5 e6 71 4c 51 ab bf 83 a0 60 ea 80 e3 b8 bf
       -0.05335463419337893 -0.09722142908197111
0005f0 75 3f b7 61 13 dc a6 3f bd 81 cf 36 56 68 a0 bf
       0.04464779441661807 -0.032046026411765884
000600 99 a5 4c 07 ff 65 ce bf 2d 1d 3c c2 3e 40 44 ba
       -0.2374876771585093 -5.112060403666014e-28
000610 3b 8e 63 78 b2 4d 47 bf 31 46 13 22 58 e7 9d bf
       -0.0007111665188656644 -0.029202820853987347
000620 df 5d a4 09 3a 0c e8 34 50 4f 84 e9 5a dc a9 bf
       7.845947979362338e-54 -0.050509301190827416
000630 84 fe b6 bf 17 3a c5 3f fc d6 cc ee c7 14 a5 3f
       0.16583535061908006 0.041174171352777095
000640 65 31 dd a9 f5 ce b5 bf f1 f1 fa 3a c2 e2 a9 bf
       -0.08518920323439756 -0.05055815668081099
000650 bd 39 4e 56 3b 25 b3 bf bc 60 e2 24 a3 75 b4 bf
       -0.07478686196393532 -0.07992000246520353
000660 d3 0a 00 5f 13 03 c5 3f 0d cd df 86 62 93 b8 bf
       0.16415636194877567 -0.09599891465022754
000670 ad 92 ab f5 a7 c8 46 bf af 95 a9 61 f5 b5 85 3f
       -0.0006953067889666397 0.010600964587136412
000680 95 8c d2 eb 5b 3c 9b bf 75 60 a4 ec 31 1c 64 bf
       -0.02659743906827979 -0.002454850681839866
000690 ce c2 e1 c8 60 39 b3 bf 4b b9 d5 f4 ce 06 c8 3f
       -0.07509426979391806 0.1877077765925129
0006a0 bc f0 80 ff fa d9 c3 bf c5 95 9c 08 4f b3 c7 bf
       -0.15508973575368212 -0.18515956802836633
0006b0 a4 68 e1 a3 7d 20 a1 bf e8 a6 06 59 78 85 d2 3f
       -0.03345100999349995 0.2893963689226511
0006c0 d5 fd d2 7e 2a e1 b8 3f 75 bd 38 2d bd 09 97 bf
       0.09718576046269985 -0.0224980887271022
0006d0 44 23 d7 0b c3 1c a8 bf 1b 7c 86 46 80 0f c5 bf
       -0.047094435878142465 -0.16453555530185401
0006e0 28 8f aa f7 1e b4 b1 3f e7 84 b8 55 91 9d cb 3f
       0.06915467783488494 0.21574608502945766
0006f0 71 63 4a 5c 92 39 66 bf 6e 9a 7e 90 e3 08 b3 3f
       -0.002712999210711713 0.07435438420962168
000700 54 3b 0a f0 4f fa 46 b8 e1 0b 9b 0d 10 a4 9c 3f
       -1.3505126615727126e-37 0.027969599562094664
000710 ed ae 41 13 98 74 ca 3f 29 24 70 d0 35 57 c6 3f
       0.2066831678415534 0.1745364444507527
000720 9d d9 fe 16 46 b8 d0 bf 60 df 7c ba b0 da cb 3f
       -0.26124717946677284 0.21761139970635224
000730 5b d2 cf f5 ed ac 9b 3f 24 b9 a5 73 06 7c d4 ba
       0.02702686131302055 -2.647556139494955e-25
000740 6d e4 de 00 f5 a9 c3 3f c1 f2 91 f8 c2 4b 63 3f
       0.15362417738450365 0.0023554618861097725
000750 ed ad 61 60 d0 21 c7 3f 55 86 7c 5d 56 8a c4 3f
       0.18071942049151293 0.16047172131316026
000760 db 75 eb 6a c5 25 ad bf 37 f9 17 c2 21 cf b0 3f
       -0.05692879610226572 0.06566058148016372
000770 6d 81 52 5d 8d 32 9a bf 6a 03 15 8f f3 49 d4 bf
       -0.025583466359081642 -0.3170136353765459
000780 9b e5 24 73 18 cb be bf 4d 6d 81 03 cf c8 b7 3f
       -0.12028649150024366 0.09290784679017357
000790 21 ff 97 56 d7 37 c4 bf 20 82 65 6b 5d 5d bf bf
       -0.15795413711747933 -0.12251838561997674
0007a0 82 10 ac 6c 27 cd a1 bf 9c fd 22 52 c6 bd be b8
       -0.034768325820579996 -2.3127189228217577e-35
0007b0 e4 e5 38 d1 1a 87 b1 3f 9f ba 7b 60 31 35 a2 3f
       0.06846778495755462 0.03556207945608957
0007c0 a9 3b 8a 42 8a fd 87 3f 79 05 0e 50 88 d5 b1 bf
       0.011714058070792026 -0.06966449694120581
0007d0 1b bb 44 83 36 61 7c bf 59 ed 5e 51 4e 91 a0 bf
       -0.006928646984575316 -0.03235859626098642
0007e0 8d 4c 9c 42 3c 4d b2 bf a3 b0 8c 7a 39 7c 9a bf
       -0.07149101854547464 -0.02586450396044938
0007f0 b8 49 0f d8 39 d1 b5 bf f3 6f 74 79 39 3a b0 3f
       -0.08522378468413805 0.06338843550878419

arr_1 f8 [128]
000000 44 4f 09 15 ae fe 9b bf 64 2c ee fb 66 fa b0 3f
       -0.027338714631994124 0.0663208355965011
000010 67 66 b9 49 b5 58 81 bf 93 69 3a 94 0d c5 c3 bf
       -0.008469978630432707 -0.15445108163551122
000020 a4 70 45 a9 d2 6c c3 bf d0 e1 21 cc db 67 c4 bf
       -0.15175851121137385 -0.15941951243782038
000030 c7 c1 9a b4 da 75 9b 3f 03 ba 63 82 7b e1 95 bf
       0.026816766045785003 -0.021367959817263592
000040 4a 0c f6 39 69 20 c0 bf 40 2d b8 fd 5b b8 ac bf
       -0.12598910646565492 -0.056094050141917595
000050 60 4f 89 d6 2c 63 95 bf eb 26 1b fe 75 87 c5 bf
       -0.020886135668049532 -0.16819643886110866
000060 15 1e 92 c6 9e 26 6c 3f 52 99 16 fb d7 1e c1 3f
       0.003436384304737814 0.1337537742630937
000070 85 4a 31 e9 e1 d7 b4 bf 19 ac 3c 72 c3 e5 a8 3f
       -0.08141910498788192 0.04862795609945909
000080 30 fa 05 3c 43 fd be bf 38 c9 3e 78 51 fd b8 bf
       -0.12105198111928739 -0.09761532960582009
000090 32 fa 7f fd b2 82 92 bf db 56 b8 14 b2 12 a3 3f
       -0.01807670280686064 0.037252011327081745
0000a0 5d b8 9e 89 79 07 90 bf ac 67 97 58 c0 35 bc 3f
       -0.015653513931902164 0.11019518053890803
0000b0 67 d0 45 0c 8d 34 a7 3f 54 94 7b c3 52 ce c5 bf
       0.04532280707181329 -0.17035898728423382
0000c0 2b 8e 5a 7c 0d 42 c4 bf af 04 17 34 fd 6f c1 3f
       -0.158265767783733 0.13623013537838832
0000d0 f5 0b 66 0d 44 06 cd bf 1d 7b cc bd 38 a0 b0 3f
       -0.22675371793965807 0.06494478830107338
0000e0 c3 75 02 ee 42 d3 a3 3f 25 1b 24 bf a2 71 c3 bf
       0.038721171907336614 -0.1519053872400146
0000f0 18 73 5d b4 e0 01 be bf b9 f0 c6 b1 50 ac 76 3f
       -0.11721615222399995 0.0055354263426431955
000100 ff e7 88 a7 35 aa bb bf 1b 83 8c 0d dc c7 bd 3f
       -0.10806594219403108 0.11633086519988149
000110 95 2e 37 61 a1 3b bb bf c1 aa 9f 44 f3 8f bd 3f
       -0.10637863753725647 0.11547775674231799
000120 f9 d7 85 4d ad 98 a5 bf 78 82 45 3f 47 91 c5 3f
       -0.042180457795367894 0.1684960421507815
000130 b0 87 34 53 4a ed c4 bf c0 bc b8 c6 fd d7 c3 3f
       -0.16349152624849017 0.15502903178410143
000140 53 9b 3f ac 51 de c0 3f 3b 0a e4 85 c2 c3 99 bf
       0.131784638505645 -0.025160827085537667
000150 b0 7b 05 5b 5f e7 92 3f 35 63 73 8b 04 80 c4 3f
       0.01846074097681666 0.16015679177396583
000160 50 9f d1 2e fa b1 b8 bf a9 a4 04 15 1d 52 a7 bf
       -0.09646571772611634 -0.045548352065744986
000170 48 3d 1b 03 7c 57 c6 bf a0 f6 dd 6e f6 f4 bc bf
       -0.1745448126953113 -0.11311283308711007
000180 31 93 03 90 d8 3d c4 3f 50 ab 2e 13 2b b4 c5 3f
       0.15813738853389617 0.1695607989944059
000190 a7 28 76 f6 b7 c0 a5 3f 7d bc 56 0f 79 39 c8 bf
       0.04248595126689852 -0.18925393341985233
0001a0 b1 f3 5e fb 25 74 c0 bf 45 3e f4 ba d0 87 ca bf
       -0.12854456685991303 -0.20726975563637687
0001b0 30 29 6f 46 08 cc c8 3f 50 1f aa 13 52 a8 a4 bf
       0.193726572410307 -0.04034668436093958
0001c0 20 bb 8b a3 2b ea bd 3f 4f ad 4a aa 3f f8 b6 3f
       0.11685440771882982 0.0897254744292486
0001d0 91 08 93 65 04 2c a6 3f e0 56 f2 2d 18 1d c8 bf
       0.04330457439347513 -0.18838789218414487
0001e0 51 8b fe cc 48 92 c1 3f d1 93 d8 44 19 e7 b7 3f
       0.13727674493301348 0.09337003641901666
0001f0 dd 18 d3 03 84 55 95 bf f3 5f 18 35 db 24 bb 3f
       -0.020834028943476624 0.10603113218564868
000200 e0 8d 8c 6d 7a d9 a8 3f 24 7f e0 d9 a9 74 c2 bf
       0.04853422724979928 -0.14418528688929044
000210 79 0c c5 bb 5b 36 b2 3f 41 5e f4 10 3e d5 c0 bf
       0.07114194235059469 -0.13150764301166087
000220 28 a7 b1 93 30 66 97 bf 4b 85 21 6e ac 06 a9 bf
       -0.022850760473750814 -0.04887904018756702
000230 2d 84 28 1e ed 3e b0 3f b8 2c ba e8 fa a5 c8 3f
       0.06346017824445545 0.19256531108508113
000240 00 61 b9 43 72 cf a8 3f c8 21 97 d3 6d b2 c9 bf
       0.048457690016848076 -0.2007577212482501
000250 b3 bb d7 d4 58 62 b7 3f 3a 64 e5 7f 9e 54 c3 bf
       0.09134440609316989 -0.15101987118649324
000260 e9 c2 78 a1 17 be c8 3f a5 39 16 da a3 f1 b3 3f
       0.19330115684854057 0.07790588449845488
000270 b4 3f 69 98 32 14 c1 3f 2b 72 27 30 d2 64 a1 3f
       0.13342888299893974 0.03397232854669981
000280 30 75 f7 fc 0c b5 c3 bf 03 65 1c 96 0c e2 98 bf
       -0.15396272994886706 -0.024299809133570893
000290 bd 08 8c 84 7c 02 c2 3f 3f 31 7c e6 c4 6f b5 bf
       0.14070087883016483 -0.08373671176031382
0002a0 5d b6 7c be 58 99 b1 3f 4d 37 69 33 cd 59 cc bf
       0.06874613428655026 -0.22149052629759539
0002b0 fc d7 d1 3a 3b 7c b0 bf bf d9 d8 34 22 51 b3 3f
       -0.0643956202128208 0.07545675077640278
0002c0 3c 60 22 88 38 42 a1 bf d8 84 4e 9d eb 35 c8 3f
       -0.033708349817232336 0.18914551907531663
0002d0 d8 65 6f a8 b5 41 b5 bf 27 a1 cf a0 db 62 c2 3f
       -0.08303389894663071 0.14364190437414345
0002e0 54 ae a5 8e 3f b9 ae bf 5d 43 08 53 d0 33 8b 3f
       -0.060007082140910356 0.013282420667594936
0002f0 68 28 79 56 85 49 b6 3f db 19 40 f9 66 a3 82 bf
       0.08705933915294539 -0.009100727540510547
000300 23 5a a8 81 d3 85 c5 bf 47 fa 1e 66 92 e9 b1 bf
       -0.16814655142725696 -0.06997027390659936
000310 df 5f a6 e6 b0 6d aa bf 6f 5c 73 56 1e e7 af bf
       -0.051618126063828866 -0.0623101692705682
000320 4b e6 4d eb 18 10 bc bf d4 56 20 84 87 9f c0 bf
       -0.10962062592252513 -0.1298684497020789
000330 73 93 7b e7 3f d8 c5 bf 78 98 ce 2c 98 54 ab bf
       -0.17066191485278245 -0.05337977930985088
000340 6a 8b 12 6c d7 75 a1 3f 6b 77 7c 1e 18 63 ba 3f
       0.03410218424075746 0.10307455772678302
000350 78 7c 82 40 3e 8c c3 3f 33 77 3e 66 b6 d4 b5 bf
       0.15271738195312756 -0.08527698513213693
000360 dc 0c 82 b4 91 fa a1 3f 64 c4 d3 e4 eb b7 9c 3f
       0.03511481598345664 0.028045354691986893
000370 99 2d 02 fc 23 77 b7 3f 29 d5 fb 01 32 24 b5 bf
       0.09166169073630782 -0.08258354710035988
000380 c1 9f 71 e5 b2 41 c3 bf 9b 9f 5f bd 28 7a c6 3f
       -0.15044246867478075 0.1756030010867534
000390 3c 13 79 35 68 05 a5 bf 1c c5 f2 8a 97 39 c0 3f
       -0.041056877639255224 0.1267575672587008
0003a0 98 15 49 fa ce ed b8 bf 00 6c 3b 4a 1e c9 c3 bf
       -0.09737866983876697 -0.15457514404883455
0003b0 eb ad 53 6b 1d a1 b8 3f 45 d4 cf 1c 6f 23 c0 3f
       0.0962084185627458 0.12608136088207025
0003c0 dc 3f dc c7 79 9c b8 3f 03 b1 b4 42 ad a9 ab bf
       0.09613762978938162 -0.05402890624313452
0003d0 19 94 96 36 6d a4 c4 3f 29 57 df d2 50 fc b4 3f
       0.16126790204467126 0.08197503231289417
0003e0 09 c3 79 65 fa 4e c0 3f 08 02 5d db f6 32 a9 3f
       0.12741022066941124 0.049216951635120465
0003f0 65 26 f2 29 1a 38 c2 3f 40 d6 6a 85 9c b5 96 3f
       0.14233710334910935 0.02217716755213517

arr_2 f8 [128, 64]
000000 09 52 6d 51 65 e5 90 bf eb 2e c9 6d 7b 6d 84 bf
       -0.01650007543078583 -0.009974445617579394
000010 a9 c0 10 8f 39 26 8a bf 0b 5c 7a 45 4c 18 c4 3f
       -0.012768220594893203 0.1569915141342054
000020 cb a1 7e dd e1 9a c0 3f 53 dd e3 06 5f e4 ac bf
       0.1297266322628857 -0.05642983397586456
000030 cf b5 cf 50 56 14 a3 bf b5 bf 85 a9 2a cb c1 3f
       -0.037264535298031747 0.13901265408958144
000040 6b 9b 2d e0 d9 43 b0 3f b9 a0 42 d9 14 dd c3 3f
       0.06353532527064736 0.15518437012111067
000050 70 bf 77 de fe 24 d7 ba dd 7e e0 ad 4b 47 8f bf
       -2.9913583221228706e-25 -0.015272704356959316
000060 28 53 92 2d 71 d6 a3 bf 50 4a 26 8c ab 84 a2 bf
       -0.03874543839734762 -0.036168442590810757
000070 2d 8d d5 d0 bd da 6f bf 5c 0b ec df b5 a0 92 bf
       -0.0038884837473901674 -0.018191186706654747
000080 43 b9 c7 76 44 c1 b4 3f 4f 23 84 ec 70 26 c2 3f
       0.0810740270605708 0.14179812954560098
000090 78 95 5d b9 3d f1 95 3f d4 df c6 97 96 d8 c1 bf
       0.021428074301544225 -0.1394222489450373
0000a0 8d ec ae 46 b5 4c a1 bf d4 c6 04 e6 a5 9f c3 bf
       -0.03378836143334594 -0.15330957156543568
0000b0 94 59 6c cc 30 30 8a bf 0a 3d e2 76 20 39 c5 bf
       -0.012787228811743025 -0.16580587200994784
0000c0 51 2a aa 01 6d 77 a6 3f 11 d3 ae 7d f7 58 73 bf
       0.04387989659615655 -0.004723517190474495
0000d0 53 c5 9b 1a eb 81 be 3f f0 4f 67 57 16 58 bb bf
       0.11916989707585417 -0.106812855089913
0000e0 b0 8b 04 35 e5 70 be bf f9 10 ef 28 40 fc b2 3f
       -0.11891014618281193 0.0741615390716709
0000f0 b8 20 a3 b5 04 6b c3 bf 96 cd 50 58 2d d9 c3 bf
       -0.15170344227795396 -0.155065219996328
000100 69 27 2c ad b6 90 bb 3f 90 3f 86 0b c3 4c 98 3f
       0.10767690399020825 0.023730323389429098
000110 25 f7 5d 3e 1c 84 be 3f bd 32 c8 55 10 64 8a 3f
       0.11920334360726466 0.01288616906915629
000120 40 3b 8a 09 c2 3a c2 3f 76 88 cd e1 d1 d9 b3 3f
       0.14241815057581597 0.0775424171711466
000130 82 33 06 c0 47 9e c4 3f 9f 58 62 7b f2 f8 c0 3f
       0.1610803306215552 0.13259726547830028
000140 e2 0f c0 51 b5 bc e2 37 11 8c 28 25 63 72 ab bf
       1.7207347058431948e-39 -0.05360708073228449
000150 2f bc e0 92 e3 a1 c1 3f 95 0b 8f 25 3c 9c c5 3f
       0.13775295898219173 0.16883041223453846
000160 99 63 56 c3 ee ff b3 bf bd e6 81 6f 2c e9 af 3f
       -0.07812397259693994 0.06232584820913931
000170 85 d9 57 ed 3c 0d 6a bf 70 2e 50 66 4e 2b 9c 3f
       -0.0031801404936643873 0.027508950228407547
000180 ed be 66 28 a2 b4 c3 bf 1b dd 33 46 c8 ef b0 bf
       -0.15394999478075225 -0.06615878786020739
000190 2c 1f b2 46 85 6e b4 3f eb a2 58 a1 e5 a8 b0 3f
       0.07981141067477598 0.06507716359250153
0001a0 e1 26 14 c6 32 53 e2 36 3b e5 62 1d 1f 64 c4 bf
       2.5678785244517554e-44 -0.15930546698454315
0001b0 75 7b 1a f0 65 0c a3 bf 15 fb f2 9c 6a 49 b0 3f
       -0.03720396572065613 0.06362024623647884
0001c0 91 0e 63 51 63 17 6f 3f 71 9b e2 f3 40 e9 aa bf
       0.003795331936176379 -0.05256083466638629
0001d0 8c 9b 9b d6 bd f1 8c bf f4 1a 87 61 73 c4 b8 bf
       -0.014132960426150885 -0.09674759989784915
0001e0 e4 42 56 24 c7 52 ad 3f 85 3b 53 4a 11 9d be 3f
       0.05727217024389633 0.11958416046694083
0001f0 4d 23 c6 08 a7 e6 c2 3f 4c 74 f6 c9 e1 b3 bc bf
       0.147663955005806 -0.1121197813103702
000200 61 21 65 61 17 a7 88 bf 4d 98 e1 75 f7 49 6e 3f
       -0.012037451419602165 0.0036973794185995224
000210 53 c8 95 52 18 8c 6f bf 73 57 41 45 73 8f 6c 36
       -0.0038509821940176186 1.5633429020762579e-46
000220 58 a0 98 dc f8 de a5 bf f9 f1 e1 11 e2 67 bf bf
       -0.042716767242666875 -0.12267888008677365
000230 a9 31 ee 51 fa 1a a1 bf e8 2e 06 5e 7e a3 c3 3f
       -0.033408949376368575 0.15342692938826663
000240 c0 e8 18 78 29 79 c4 bf d3 b0 2f a1 fe a2 b4 3f
       -0.1599475704586606 0.08061210093700603
000250 09 4b ce 87 7b fb 9a 38 03 1f 57 3a f2 74 8e bf
       5.074816690830355e-36 -0.014871494679837399
000260 bb 1f ad e9 e6 cf b8 bf fd 63 0b 62 e9 81 b1 3f
       -0.09692233281123112 0.06838854449905792
000270 5f ff d9 2b bc cc be bf e5 c2 62 af 76 92 ca 35
       -0.12031150885195306 1.420420678774689e-49
000280 52 7f 25 e2 63 0a c2 bf d0 84 f8 f3 92 ba c1 bf
       -0.14094208280857373 -0.1385062876952703
000290 23 e4 6b 04 e3 25 9f bf 98 59 a7 a5 ae a0 af 3f
       -0.03041796411978138 0.06177278301372552
0002a0 9b 71 07 0a ca 38 35 b9 2d be 50 3f 59 93 95 3f
       -4.087176340521992e-33 0.02106990288683457
0002b0 91 44 79 c1 46 b7 c8 3f f3 07 a1 1f bd 67 b8 bf
       0.19309315154035692 -0.09533292791550689
0002c0 03 12 f6 97 91 e0 b5 3f a7 2f c1 fa f0 4a bc 3f
       0.08545789680471931 0.11051851388873378
0002d0 3d 8d d2 ed b0 b8 8e bf 90 35 c3 6c 6f 58 c7 bf
       -0.015000707872167335 -0.18238632975264268
0002e0 63 b0 f2 b4 6e 71 bd 3f 13 a3 df 40 d3 9d 96 bf
       0.11501209180522802 -0.022086430391854494
0002f0 c6 22 a3 e1 f8 07 d1 3a 90 27 dd d5 0c b8 b7 3f
       2.2012234309567473e-25 0.09265213223730329
000300 65 6f 68 5a c0 7e c3 bf 08 e3 88 83 5d bd af 3f
       -0.152305645126826 0.06199161749504439
000310 64 7b 42 c8 91 9d ec 36 d8 99 fe 83 bd b7 ac 3f
       4.009886420845299e-44 0.05608932720433629
000320 bd c9 d2 fb 42 eb a3 bf 31 b9 41 5c c3 57 06 bf
       -0.03890427898422242 -4.261555616912256e-05
000330 5c 4e 78 a5 d6 98 8c 3f a4 8f c1 6c e6 b8 b2 3f
       0.013963391232244486 0.07313385157755065
000340 b0 a3 9b cd b3 8f 1f 37 18 a0 0b e6 37 a6 d7 37
       3.5381482824295417e-43 1.0859221609084736e-39
000350 70 d6 50 e2 68 fd 8d bf ad 07 02 c8 c8 f2 b1 bf
       -0.014643496901139502 -0.07011084445005507
000360 2b 33 43 50 d9 71 bf 3f 65 e1 f0 6f 41 0d 90 3f
       0.12283094605954818 0.01567556615575096
000370 9f 81 7b 3a b5 bd 81 3f e9 7c 5f 9b cb 1a 57 35
       0.008662620398752817 9.648960114121862e-52
000380 2b 9a ed 17 74 d5 c3 bf b7 94 08 55 e9 17 b0 3f
       -0.15495158356061842 0.06286485982907918
000390 e3 52 6c 99 af 54 85 3f 2d 45 1c 61 be 5f 9f b9
       0.010415431851961759 -3.8671439095808884e-31
0003a0 b0 56 d7 f4 a4 da 4c 38 13 6a eb c4 ea eb a6 3f
       1.6958903745829998e-37 0.0447686543827396
0003b0 03 70 99 f1 78 a9 87 bf 3f 81 3d 0b a0 4d b3 3f
       -0.011553711770083913 0.075403216118052
0003c0 a4 dc 0e c5 4c 22 94 bf 21 79 07 84 82 66 c5 3f
       -0.019662093665570382 0.16719085165727512
0003d0 21 33 1d 9a db 2e 63 bf cf 23 63 0d 6e 15 b2 bf
       -0.002341679487392404 -0.07063949419820335
0003e0 e9 ab af 74 90 b7 c9 bf 50 3f 81 39 57 5d b3 bf
       -0.20091443727082428 -0.0756430163758044
0003f0 2b 15 51 3a ee fd 35 3f 95 62 b6 1f 0b 77 be bf
       0.0003355700121726197 -0.11900395893315825
000400 f0 81 03 c4 12 21 56 38 27 26 8b bf 33 03 95 b6
       2.601274087960213e-37 -9.20149865739548e-46
000410 77 14 75 aa 68 49 7b b6 0f b2 4c 0e 4a 4e 94 39
       -2.987256681991259e-46 2.50288524631916e-31
000420 71 c8 0f c9 e1 6e 86 bf d1 17 37 77 3d ed 73 3f
       -0.010953678081907921 0.004864921665506076
000430 38 ea f2 e3 36 6e 66 3f 31 42 2b 85 79 01 6d 3f
       0.002738101203786838 0.003540742248653105
000440 fd 2a b5 66 8e 2b 8c bf b4 48 cd 8c ea b4 5d bf
       -0.013754951962842816 -0.0018131533172050353
000450 fc 23 bb 11 21 0c 27 34 55 24 a8 5d b3 10 62 bf
       1.8358297004302354e-57 -0.0022052291144559013
000460 05 d5 d6 54 38 6f 77 bf e1 8e ca e7 4c 97 80 3f
       -0.005721302074950478 0.008101082633693081
000470 1d 29 c3 5c 45 71 6a 3f 5b 52 bb 88 3f ec 06 b6
       0.0032278399213271484 -1.9605558307327806e-48
000480 f7 ed ff 68 ba d9 7c bf 41 49 4a 6d d9 f5 73 bf
       -0.0070435792586027645 -0.004873132060895736
000490 e4 a4 1e c0 70 00 78 bf b1 db d6 19 c3 38 40 b5
       -0.005859795028223067 -3.387254646333165e-52
0004a0 f9 71 eb 0e 20 a1 f4 b7 bd 36 53 71 8d e2 70 bf
       -3.789021527768242e-39 -0.0041223073105364745
0004b0 ff a3 b3 5f 0b b8 82 3f 9f d2 d2 9e d4 35 73 bf
       0.009140099390110732 -0.0046900086864992965
0004c0 f1 53 04 ff 7a f7 79 bf f3 82 4c e8 d5 13 48 3f
       -0.006339531377553152 0.0007347864599048501
0004d0 f1 fb 3f 18 b3 90 59 bf d6 be bb d5 4d 34 80 bf
       -0.001560377976602242 -0.007912262044072287
0004e0 23 6b a6 8b dc 2e 4c bf ac 41 ea 1d 8e 6e 6a 3f
       -0.0008600785143245453 0.0032265449256742764
0004f0 6c 8d e9 0d f7 17 2c 3f 38 95 1f ad 48 ea 95 3f
       0.00021433726120099626 0.021401534620868662
000500 6f 67 d8 52 9a 68 45 bf 2d 9d 79 a5 bf 39 67 3f
       -0.0006533387692713009 0.0028351538747305644
000510 1b 2a b0 14 87 c2 e8 37 30 a5 0f e4 fb 83 25 b5
       2.2738352832599127e-39 -1.1231647584383675e-52
000520 23 e0 29 7f 3b 6c 79 bf e0 91 c4 46 58 e7 64 bf
       -0.006206734093773067 -0.0025517200612219376
000530 33 fa c9 0b ca 2c 68 bf 4d f7 91 e2 bb e4 53 3f
       -0.002951044675057157 0.0012142023863641216
000540 f7 38 a7 27 e7 6f 86 36 59 4d 0d 36 d2 c4 e9 37
       4.912672351927648e-46 2.3664935242440732e-39
000550 a5 7d 6e eb 11 a3 60 bf 58 cd da a7 38 28 74 bf
       -0.002030882834745023 -0.004921170531520268
000560 e5 ba 32 ec 53 d4 0a 3f 4f 54 f9 5a 2d 4a 76 bf
       5.1173030010223134e-05 -0.005441834611322595
000570 43 5b 0f 03 1a 92 7d 3f 19 20 01 13 5f ae 64 b7
       0.007219411477271734 -7.418994489591809e-42
000580 95 6f a7 b9 a4 b5 54 bf a9 bb 2e 07 99 aa 7a bf
       -0.0012640103001251058 -0.0065103509577246
000590 3b c7 29 cf f4 ad 44 3f 7d a6 c1 74 e4 29 4e 3f
       0.0006310887677740471 0.0009205213077738275
0005a0 23 28 58 d8 7d 94 fe 35 01 b4 58 5f 11 d7 93 3f
       1.3077322521687828e-48 0.019375106281746216
0005b0 b7 8b 2a a1 7c f2 c9 b5 19 88 2b 04 44 c9 6c bf
       -1.3870159685706536e-49 -0.0035139397090100497
0005c0 65 fd 66 d8 8b c8 69 3f a4 21 c8 c8 67 b2 6a 3f
       0.0031473857263503596 0.0032588984524901266
0005d0 37 f4 62 29 3d 2f bd 39 d0 94 53 82 0f 64 8f 3f
       1.4389082743752668e-30 0.015327569164990257
0005e0 f5 b6 c9 40 31 90 6c bf 60 10 ec 36 dc f2 65 bf
       -0.0034867250417879255 -0.0026792813363290396
0005f0 1d f6 90 04 c0 52 4b bf 79 04 ef 1d ad b6 88 bf
       -0.0008338391863912973 -0.012067177272799367
000600 fd 96 a3 e4 6e 41 82 bf f1 a0 5b 30 fa 71 86 bf
       -0.008913866379269825 -0.01095958194805788
000610 71 db dd d2 4e 72 96 3f 19 e1 bd a9 7d 63 b0 bf
       0.021920425052907647 -0.06401811021885741
000620 9d 8a 02 84 6b 8d b2 3f b0 77 0e fb 57 cd 95 3f
       0.07247039769075987 0.021291136453889414
000630 9b 16 79 ba 22 9c 88 3f 66 db ec 7b a0 a1 c0 3f
       0.012016555133537657 0.12993246127163188
000640 af 08 79 ea 86 ea b4 bf a9 bc 0f bc 72 b0 c3 bf
       -0.08170359825547523 -0.15382227118195616
000650 cf 32 38 7c 1e a6 b1 34 5a 18 51 59 7a 0d b5 bf
       7.197778964564144e-55 -0.08223690682015797
000660 d4 8a 18 9d ec a2 c5 bf 3b 63 f4 8b 52 3a 78 3f
       -0.16903455420204827 0.005914995620764081
000670 cb 8c e8 e2 b3 3a c0 bf 98 c6 c6 6e 40 f5 a9 3f
       -0.12679146365653646 0.05069924690486721
000680 18 19 85 09 ef d4 9b bf 07 53 b6 e8 8d 5a a8 bf
       -0.027179465251969764 -0.04756587472653533
000690 f3 b3 d0 09 ce 83 c4 bf f6 1e 3a 32 31 29 b5 bf
       -0.16027236441860246 -0.08265979267354936
0006a0 c8 85 69 ac 4e ab 7c 34 d9 7a 00 07 3d 79 c2 bf
       7.307619451313187e-56 -0.1443249019802895
0006b0 00 52 4f da d8 f3 c4 3f d7 b1 69 e0 4b fc c5 3f
       0.1636916223493614 0.17176197488460218
0006c0 bc 2c e1 74 ed bd a8 3f 5f f7 97 56 e3 02 c0 3f
       0.048324032323387084 0.1250881359882738
0006d0 2f c9 ff 54 9c 30 c2 bf 95 a5 80 98 a5 8b c3 3f
       -0.14210847997998985 0.15269918390667372
0006e0 b5 e0 d8 fa 74 cb c1 bf 48 50 33 57 b3 7a bc 3f
       -0.13902151344678307 0.11124726179997524
0006f0 55 a4 73 c0 bc 87 89 3f 19 53 fc 67 4c f1 b1 bf
       0.012465929625664321 -0.07008817232810961
000700 04 32 01 4d 40 78 c2 3f 63 e7 85 50 9c 0f a6 bf
       0.14429477462762474 -0.0430878494543794
000710 14 68 3c 30 43 14 ae bf 59 76 62 80 db 94 b6 bf
       -0.058748340261630144 -0.08820888409032913
000720 00 be a5 71 bc eb c3 bf 03 e6 ab 48 b1 0b 8c 3f
       -0.1556315951270193 0.013694176702744981
000730 99 1e f8 f8 b2 8a b3 3f 69 e1 27 fa 6f 09 a1 3f
       0.07633513048505804 0.033275126730532296
000740 23 0c 06 70 a4 17 24 ba a9 37 39 6f dd f8 67 bf
       -1.2680057337513687e-28 -0.002926285256569867
000750 4b 0f 75 6d d2 90 89 bf 1d 9a 9f 41 4c d3 c4 bf
       -0.012483257260676025 -0.1626982994486789
000760 f8 d6 82 fe dd 9d c2 3f c8 84 ed ab 14 fa c1 bf
       0.14544272353457877 -0.1404443587771651
000770 a9 db 15 04 8b 5c a0 3f a0 1b e9 31 cb b5 3a ba
       0.031956047295288066 -3.371292594886701e-28
000780 07 76 9c d0 e4 de c4 bf d4 b3 52 9c 7f 86 b8 3f
       -0.16305217920391632 0.09580228392105933
000790 bb 7f 73 dd 28 ca c4 bf 21 26 1f 97 1f 28 8b bf
       -0.1624194222740679 -0.013260123061530628
0007a0 40 cd 12 d5 58 aa af 37 63 fd ee 6c e3 62 97 bf
       1.8175058566600865e-40 -0.02283816673638962
0007b0 c5 b5 76 8f d1 ac 8c bf 9f 57 29 cb b1 82 b9 bf
       -0.014001500311532031 -0.09965048990247148
0007c0 e3 9e aa 0a 4a 16 6d bf 7c 64 de 1d 61 a2 b0 3f
       -0.0035506673933304186 0.0649777124330217
0007d0 3b a6 a5 91 2f 52 78 bf 49 08 7b 58 7c d6 c0 3f
       -0.005937753502033123 0.13154558487264215
0007e0 3b 5a 4a a2 bc 0a b6 bf 57 11 23 af 7a 6d 9b bf
       -0.08610133135003022 -0.026784817637932914
0007f0 05 80 f3 f2 9a 34 b7 bf 23 c1 06 75 3b ed b8 3f
       -0.0906464427130232 0.09736987692918268

arr_3 f8 [64]
000000 1d c4 1b 71 fc 5c b2 3f 89 7d bd e9 f2 49 a3 bf
       0.07173135529934922 -0.0376735601737393
000010 3d be bd 94 43 03 b5 3f c5 bb 23 04 f3 76 c3 bf
       0.08208105450989307 -0.1520675440037548
000020 e3 64 fc d1 84 be c2 3f 1f 66 b4 7a f6 96 c2 3f
       0.14643917325228192 0.14523201934280025
000030 44 99 6e 73 d0 cf c2 3f 00 e8 33 0f 02 45 b7 3f
       0.14696698795632746 0.09089672919427016
000040 e0 ed b5 82 87 d8 b9 bf 3a e0 dd 46 df 1a c4 bf
       -0.100960225497992 -0.15707007370269982
000050 15 ee b8 83 25 75 bb bf 97 8e 5e 22 65 cb b4 3f
       -0.10725626436117637 0.08122856225105078
000060 f1 4a d1 22 60 c6 99 3f eb 03 a0 9e fe 50 bd bf
       0.02517080509671649 -0.11451712963754772
000070 0b d4 6a c4 30 f0 bf 3f cb b0 5c 6b 48 18 91 bf
       0.12475876612991514 -0.016694194367276077
000080 99 80 3a ad 9d 29 8f 3f 3b 01 e1 78 38 cd 78 bf
       0.015216094826712644 -0.006055088610139865
000090 04 e9 2c 22 ae 19 be 3f 89 4e ef d1 71 d2 a8 3f
       0.1175793488918409 0.048480564953618695
0000a0 08 48 09 45 c0 aa b7 bf 3b e1 ae 18 72 11 c7 3f
       -0.09244920430617765 0.1802199001811092
0000b0 5a fe e3 02 53 38 c0 bf c4 1c a5 7e b6 36 b7 bf
       -0.12671888009207316 -0.09067860214155404
0000c0 1f f1 89 d0 e3 e9 c2 bf 3b 07 0d ee f0 ca a0 3f
       -0.1477627533203156 0.0327983179654567
0000d0 b3 ec dd 99 4f 6f bd bf fd 3f 9a d6 4d b7 79 3f
       -0.11497972017780249 0.006278327995133279
0000e0 54 1c 83 10 68 84 af bf f1 2a 7b aa b9 3e ad 3f
       -0.06155705644192069 0.05711918073719414
0000f0 f7 49 30 86 1f 88 a7 bf 0b 19 06 68 b9 e3 b7 bf
       -0.045960412149856404 -0.09331854619640383
000100 65 87 40 23 a1 91 bb 3f fb 2a 4a 5a a1 1d bb 3f
       0.10769087896963254 0.10592087225283457
000110 31 81 08 47 16 50 80 3f ab 49 bc cb 01 a7 a0 3f
       0.007965253870736962 0.03252416240697483
000120 0d f5 c7 3f fa 71 bb bf e3 da 1f b1 76 a6 b7 3f
       -0.10720790917544694 0.0923837835724544
000130 bb ac ee 51 62 91 c7 3f 10 a8 a5 e0 74 c4 b1 bf
       0.18412426949121205 -0.06940393909977183
000140 09 a2 a1 80 44 08 c3 bf 79 57 ca bf c0 c7 a0 bf
       -0.14868980675534285 -0.032773993884958004
000150 a7 a3 05 1c 7c d0 73 bf 0c cb 09 e8 bb 2d b0 bf
       -0.004837498476583691 -0.06319784560200165
000160 29 aa 40 e2 07 a7 b0 bf fd 8f 32 b3 57 c8 c4 3f
       -0.06504868768448858 0.16236397027853391
000170 09 eb dd 7e 0d a8 bb 3f 9d f2 63 aa 11 2d c1 3f
       0.10803303096137652 0.13418789691777003
000180 98 bc e6 c8 04 09 c4 bf 28 91 4a e4 87 7c 73 3f
       -0.15652522859224827 0.004757433726499984
000190 52 37 46 c5 fb 0f 80 bf e5 1b 0e 7c 06 c1 9e bf
       -0.007842986066659261 -0.030033208200190748
0001a0 88 0e f2 e0 8f a8 9d bf 95 df 44 5e a4 da b1 bf
       -0.0289633256002291 -0.06974246312608863
0001b0 f4 83 e7 bb 3c df b0 3f 9f 16 14 b7 78 94 ac bf
       0.06590632998951645 -0.05582024798245055
0001c0 9d 08 6c 51 1b c3 be bf 75 74 8d 68 72 14 b4 3f
       -0.1201645921501346 0.07843699505379383
0001d0 a3 05 59 1d 58 14 b6 3f 2b 4a a2 36 2b 3e bb bf
       0.08624792782304395 -0.10641737064205674
0001e0 2c 25 1f 77 b1 14 c2 bf f3 6b e5 36 48 54 c0 bf
       -0.14125650707709647 -0.12757208519437277
0001f0 11 0a 65 45 54 68 c2 3f 39 2a b2 1d d9 3a b1 3f
       0.14380887401974055 0.06730420088766999

arr_4 f8 [64, 32]
000000 90 68 a1 3f 3e a8 74 b7 ac 0e d0 0a 02 48 97 bf
       -1.4820814033752676e-41 -0.022735626134830753
000010 f8 df ce 89 63 03 7f 3f 8c 8a d5 bc f8 4d 64 bc
       0.007571591207060628 -8.805706461344753e-18
000020 8d a2 5e ae d8 8a 8f 3f 83 6f 56 37 4b b0 8e 3f
       0.01540154726156231 0.014984691263457034
000030 67 36 20 36 35 2e 90 bf 59 20 63 20 aa 7e 88 bf
       -0.01580126898629999 -0.011960343469027789
000040 1b 86 fa 9a 71 e0 57 bf 3d 7e 48 f9 bc 57 7e 3f
       -0.0014573201587285759 0.007407892397651103
000050 7f 42 0c a0 ee 02 ed ba 18 3e a5 86 fb 79 89 bf
       -7.499284995584578e-25 -0.012439694448999325
000060 ff 1c 50 68 28 4d 82 3a af 6c 95 cd da 05 59 38
       7.391875712196505e-27 2.9414242232036966e-37
000070 00 1d 58 00 7f 33 86 bf 48 6e cb 3b a7 d5 90 bf
       -0.010840408514026567 -0.016440022492004297
000080 5d 01 a8 ea 5e ba 71 bf e4 c2 59 e2 0b ca 79 3f
       -0.0043281276398377784 0.006296202108942526
000090 19 03 7a 8b c1 28 11 bf 28 c7 cc 0d bc b9 18 37
       -6.54571657552446e-05 2.7718272982321526e-43
0000a0 c0 8d fd 59 b0 f3 e1 35 00 54 77 3e 98 3f 94 3f
       3.838498449595586e-49 0.01977384454024289
0000b0 65 3f de 69 3f 7d 77 bf bd e0 ff c9 04 75 8f bf
       -0.005734679898423999 -0.01535991422132132
0000c0 9f f4 1f d7 1d fc 01 3a c3 d4 e0 82 69 22 91 bf
       2.837505906451456e-29 -0.016732834447073196
0000d0 4d ae ca ca 4c 5f 8e 3f 9c 87 25 7d 6f af 83 bf
       0.014830207766258452 -0.009611960417433889
0000e0 a1 d6 c4 31 f6 cb 7e 3f 10 2d c3 45 f3 e0 9a 3f
       0.007518731781876704 0.026248742230376598
0000f0 52 20 a7 7e 5f e1 b2 34 f3 59 c0 25 9c 1f 6f 3f
       7.700007471714457e-55 0.003799252486724963
000100 34 fb de ae b7 81 c8 b9 47 e8 20 04 2d dc 5e bf
       -2.4165480838244466e-30 -0.001883548699437758
000110 77 a8 cf 98 8b 4e 79 bf a9 f2 9d 46 20 68 a6 b7
       -0.006178422260726283 -1.2860839461785364e-40
000120 e2 37 71 f0 8a dc 20 37 70 b4 3c 39 3a c2 96 3f
       3.7804779379025075e-43 0.022225293868519846
000130 9b ab 68 77 64 d1 6b 3f f9 60 ac 99 80 b4 77 3f
       0.003395744536893242 0.005787374825352958
000140 97 e0 c9 34 8d d3 0d 36 a6 30 12 cb 4a 84 a4 3f
       2.5510041028908445e-48 0.04007180909056389
000150 fb 62 b4 a9 12 95 78 b6 de 35 03 e1 56 c0 92 3f
       -2.6911845072750336e-46 0.01831184147231634
000160 f5 8a b5 38 c1 ba 72 35 a0 ff cc 21 a7 3f 0d b4
       3.128723473383717e-51 -5.824472267505572e-58
000170 2c 5a 81 2e 72 32 a3 3f 8c f9 c4 9a 10 2b 96 bf
       0.03749424760524209 -0.02164865440976764
000180 25 ba 20 52 7e b8 92 3f 40 3e 94 50 96 8e 20 bf
       0.018281911623654907 -0.0001263197412204476
000190 1c 9b ce 1b 33 63 84 37 25 5e 06 9f ed 04 94 39
       2.925462577925347e-41 2.4675631745481376e-31
0001a0 07 b6 e5 1d 43 7a 7b bb 7b af 5d 41 b0 57 78 3f
       -3.636628309206892e-22 0.005943001267819765
0001b0 2f bf ad 32 b4 79 fc 3a a4 ba e3 64 e0 bc 94 bf
       1.472143978496661e-24 -0.020251756818590608
0001c0 7d e5 58 56 8e 12 b5 35 67 11 2b 66 e2 59 64 bf
       5.632179264424064e-50 -0.0024842664582555465
0001d0 8f 5e c3 95 6a 95 91 3f af ea 90 89 f1 7c ad 3f
       0.017171540633028 0.057593868296370025
0001e0 48 0c 57 66 7b 77 9f bf 18 19 e9 d6 00 a5 94 bf
       -0.03072922527441005 -0.020160687558267915
0001f0 07 00 10 7e 11 f5 93 39 13 e8 1e 4e 92 0d 9e 3f
       2.459926921075921e-31 0.02934864618121231
000200 02 3e 34 69 cd 6c 93 bf 4c 2c bb ee 11 46 a6 3f
       -0.01896973566641514 0.04350334204863113
000210 d4 ab 8d af f5 0b 92 bf 05 94 41 1f 16 ac b8 b8
       -0.01762374767296733 -1.856130974867326e-35
000220 95 b9 bf 8c a5 2f 81 3f 68 78 87 8b 97 11 b2 3f
       0.008391660077873545 0.0705809322020926
000230 95 aa 8b 86 52 c3 a0 bf 6b a8 cf d7 67 4e 83 3f
       -0.03274019138719556 0.009426890634092374
000240 53 b7 b5 f5 37 50 72 3f 5d 55 a2 ab ad b4 82 3f
       0.004471033661827511 0.009133679199559703
000250 71 9e 6e 36 59 07 f0 34 ff 22 d5 4b 52 68 9f 3f
       1.0459218052651776e-53 0.03067139232487914
000260 75 41 53 92 46 3f 79 3f 8b ee 60 da d5 8b 4a 3f
       0.006163860006566648 0.000810126705580187
000270 65 94 6d 83 57 5a a4 3f 81 e7 8c 12 44 3d 9b 3f
       0.03975175361009845 0.026600898391940134
000280 b9 08 54 64 60 11 b0 3f 89 76 31 35 0f 8d a6 3f
       0.06276514481945385 0.0440449478562473
000290 50 6a 2d a9 07 ad a4 3b fb 75 2c 1e c9 ff a3 b4
       2.189145867891042e-21 -4.078144526319644e-55
0002a0 73 ff 39 06 38 b7 30 3c 8d 45 d5 06 bd 11 61 bf
       9.061598375586721e-19 -0.0020836536338399493
0002b0 be 3b f8 3b 2b 8e 80 3f d7 fc a1 c9 45 ec 9d 3f
       0.008083665626171906 0.029221620971381448
0002c0 a8 2e b3 30 40 4e e7 3b 84 53 99 cd b0 94 a2 3f
       3.948133555459235e-20 0.03629066953423091
0002d0 4d 39 dd ab b2 b0 76 3f 9d d9 7e e2 96 98 9d 3f
       0.005539606032313249 0.028902394842327806
0002e0 48 37 de 7c 85 6c 7d 3f 10 7e 9e 40 7c 1b a3 3f
       0.007183572231850573 0.037319071662974435
0002f0 0b f6 d9 6f 99 79 ee b9 38 35 f0 4a b9 40 b0 3f
       -1.2020267061800547e-29 0.06348760680721888
000300 b1 0e 90 28 65 52 ce 3e 9d 1b 59 d0 eb 08 a2 3f
       3.6146469182279203e-06 0.035224312956919614
000310 23 46 67 99 32 80 c4 bf d0 f1 91 59 d2 94 03 b5
       -0.16016228189850876 -2.5554834141224395e-53
000320 58 8a de 46 c8 c2 98 bf c0 44 03 7d bc 35 ae 3f
       -0.024180535626906113 0.05900372530016673
000330 80 02 cd 49 35 ea cc bf 4b 06 68 15 14 4e 66 3f
       -0.22589746573978076 0.0027227775819944947
000340 2a ca 0d 1b 1e a1 a4 bf f3 d6 cc ff 89 fd c7 bf
       -0.0402917297386874 -0.18742489805452286
000350 d0 4a 74 ee 29 9c 70 b7 1d e1 d1 10 5f 6b cb 3f
       -1.1917101191346976e-41 0.21421421357423123
000360 3b 0c 72 31 89 ca 87 3f 57 54 c3 99 db 31 34 bc
       0.011616775342423327 -1.094759975478586e-18
000370 70 3b a6 77 44 de 81 3f 51 60 c0 49 7e c3 c7 3f
       0.0087247227682192 0.1856534824480627
000380 cf 17 e5 2d c7 05 c6 3f bb 1b da 91 cb 39 77 bf
       0.17205133191072128 -0.005670352167391475
000390 e4 d1 3d 31 ad 90 bd b9 25 ef 3b 48 66 fd 0b 39
       -1.4576740773544986e-30 6.738309344246434e-34
0003a0 c3 30 25 20 b9 27 36 3b 9f f1 6f cb e2 3c bf bf
       1.8326325885774124e-23 -0.12202279535990222
0003b0 64 e6 e7 7b 1f bc 55 bf 1b ba 81 21 80 d9 9c bf
       -0.0013265902958877968 -0.028173448605622747
0003c0 6e 3f af 11 b0 97 f4 ba a8 02 17 27 31 7a bc bf
       -1.0646088668575897e-24 -0.11123950199454191
0003d0 b7 8d 0b a8 e2 6b 86 3b fd 3d d3 67 ef 4b b7 bf
       5.934902377317617e-22 -0.09100242886346872
0003e0 c1 f4 47 ec b0 39 c3 bf 97 4f 4a 09 d4 40 a9 3f
       -0.15019809281503707 0.04932272542387677
0003f0 2d 77 cb 33 18 e2 d9 b4 bf 73 a5 d4 7d 14 73 bf
       -4.222391045836732e-54 -0.004658214117026326
000400 13 0f 1d e8 c9 53 b5 bf 78 09 4d 78 45 75 aa bf
       -0.08330976406892558 -0.051675959525271986
000410 18 c4 60 9b 41 0c cd bf 7d aa 7c 15 5c 83 9c 3f
       -0.22693653189483665 0.027844847499333348
000420 dc a1 59 c5 33 9c c8 3f 07 1d e1 e0 a2 f5 cb bf
       0.19226691375958083 -0.21843372326313945
000430 25 58 0c 93 b9 17 cc 3f 45 62 c9 fc 16 01 c0 3f
       0.2194740264901053 0.12503325789545464
000440 fd 56 97 df 35 dd b9 bf c9 64 3d 33 b4 f6 c2 3f
       -0.10103165348786187 0.14815380575126927
000450 92 7c e5 8a 2b 8c c0 bf 93 89 c0 aa c8 4e c9 bf
       -0.12927765161564203 -0.1977167924643025
000460 9d c1 8b 23 9f 45 ba 3f 25 2a 29 5e b5 cf 87 bf
       0.10262484186001193 -0.01162664121252017
000470 db 8f 5a bd 93 7c be 3f b0 04 be 49 98 12 a3 3f
       0.11908839581388923 0.037251242639294246
000480 fd 48 b4 64 b6 cc c4 bf a5 04 ae d4 32 d8 8e bf
       -0.16249732892226368 -0.015060803523512975
000490 b5 5b ef df 18 d9 7f bf 07 e5 78 95 e5 fc 2b 39
       -0.007775399367310355 2.69513463255961e-33
0004a0 c3 b0 32 6c 96 f0 cb 39 ed 25 7a a2 1c 15 c8 bf
       2.7550765232976057e-30 -0.18814428266004715
0004b0 75 59 f0 84 bb 71 94 3f e0 53 1e 10 25 d8 c1 bf
       0.01996510504621925 -0.13940871512445963
0004c0 18 2a f2 6d d5 ad 8d bf c8 a3 04 78 5a 5c c3 bf
       -0.014491717736992135 -0.15125590191135374
0004d0 9b ad b6 45 96 1c d0 bf d4 dc 97 4c 4a af c7 bf
       -0.2517448120877021 -0.18503693332579607
0004e0 39 73 a4 e6 2e 6f aa 3f 3b 0b aa 21 58 09 9a bf
       0.051629510550105846 -0.025426270537091993
0004f0 94 75 f1 c9 d3 6c 98 bd b9 34 54 21 7d f7 c8 3f
       -5.553626270112752e-12 0.19505275847806106
000500 96 cc 12 bf 6e 72 b4 3f 99 e3 c5 63 d0 87 a6 3f
       0.07987110295180097 0.044004928759881774
000510 a1 f7 3b 3c 79 de ba 3f ec 6d b8 4e c2 1d bd 3f
       0.10495717735827138 0.11373533651242668
000520 f3 85 1f e1 3e 42 b5 bf f6 f9 12 da c7 c8 c0 bf
       -0.08304207798166612 -0.13112733982229913
000530 c4 e5 80 c9 2e db 9b 3f e5 45 6c 28 40 79 ba bf
       0.02720330338363454 -0.10341263758552761
000540 4d 68 9e dc c2 39 ad 3f e7 0a 9c 6a 79 68 c2 3f
       0.05708130782223062 0.1438133020929719
000550 69 da 9b fc 5f 46 c2 bf f4 1c 58 43 a8 f7 c4 bf
       -0.14277267298139698 -0.16380790031710257
000560 b0 31 16 70 c1 4a b3 bf 0d 8a f4 10 35 e7 8c bf
       -0.07535943018428415 -0.014112867908413507
000570 d5 4e 22 81 01 dc cf 3f ec 6f 61 0a 40 e8 ce 3f
       0.2489015465295014 0.24146271235338135
000580 76 8e b3 17 d5 39 b5 bf 94 41 31 0c 5a 04 59 3f
       -0.08291370228431014 0.0015269164439538395
000590 4f 53 80 b2 3c 78 81 bf 81 32 f7 f6 9f ee 68 bc
       -0.008530115315844048 -1.0812587096404563e-17
0005a0 17 ea b5 fb f5 d6 a2 bf 2d 64 2a bf 47 e4 a8 3f
       -0.03679627130164336 0.04861664017261833
0005b0 4d d2 6c 6b 19 8a cc 3f 19 aa 02 84 40 1b aa 3f
       0.22296445603719164 0.05098916636901069
0005c0 27 1a 84 b1 36 97 8e bf e3 95 d2 47 0a 88 be bf
       -0.014936854641303189 -0.11926330808144985
0005d0 33 d6 f5 73 2a 10 be 3f 08 da d4 98 62 48 bb bf
       0.11743417101919178 -0.1065732596515333
0005e0 75 e7 1d 1f 57 e6 c9 3f 68 f2 85 62 6b d3 be bf
       0.20234192866683612 -0.12041350512840554
0005f0 03 b4 7d af bb 88 72 bf f9 41 91 5e db b8 b8 3f
       -0.004524930140047625 0.09657069262289743
000600 b1 e7 ae 05 b5 05 ce bf f5 57 31 f9 fe b8 cb bf
       -0.23454916741849055 -0.2165831295739619
000610 13 1f f4 54 a2 4b cf bf 0d ff 93 23 b1 6c cb bf
       -0.24449566982388457 -0.21425451504909923
000620 a3 7d d9 a7 6d 6e c8 bf 51 53 de 68 66 5e b2 bf
       -0.19087000556735942 -0.07175293026223285
000630 f8 8c 8b 39 fb ca 45 3f 54 99 a3 70 03 f5 85 3f
       0.0006650664027713351 0.01072123229500891
000640 47 2d a6 4c f2 16 c8 3f 55 78 f5 c7 d3 58 96 bf
       0.18820027105935308 -0.02182322414352485
000650 df 95 45 e7 ba b3 45 be 7f ec 07 61 99 08 c6 bf
       -1.0105814165268182e-08 -0.17213742482985947
000660 b7 86 56 0c 9a db c6 bf ce 6a bc fd 26 f9 90 bf
       -0.17857671358529156 -0.016575440632645315
000670 39 ed d4 eb b7 9b c2 bf c4 53 ea f4 67 c3 d0 3f
       -0.14537714972707663 0.2619266406775831
000680 93 15 9f 94 81 da b2 3f b0 a3 41 c9 f4 1b c4 3f
       0.07364663961842259 0.15710315539334152
000690 b1 85 05 8a a3 0a 77 bf a1 91 81 05 86 bf a2 3b
       -0.005625380348960916 1.9850364032454868e-21
0006a0 c0 42 52 32 28 cd bb bf 3f 29 15 8b 2c 34 c6 3f
       -0.10859919765995141 0.17346722403665102
0006b0 01 ec c9 e6 3f fc b0 bf 05 9d ee 2d a2 eb 97 3f
       -0.06634902367106578 0.023359808019134416
0006c0 24 38 e5 30 17 8c 90 bf 71 0b 68 26 74 69 cb 3f
       -0.016159403189981117 0.214155691865098
0006d0 63 bd 2c 68 ba c0 bf bf ac dd cf 70 09 e5 c4 bf
       -0.12403454821900577 -0.16323965080640102
0006e0 cf 8d 90 6c 86 bd c0 bf 95 7f c6 2d 80 52 bf 3f
       -0.13078384686478592 0.12235261075556843
0006f0 c7 c9 09 ba e4 01 69 bf 00 5a 62 be ae 7c b3 3f
       -0.003052660686358541 0.07612125537921344
000700 78 18 b1 c8 35 0e cb bf 17 4d 57 bc ae 3d c8 3f
       -0.21137115764048864 0.18938240238512868
000710 5c 43 06 4d ad 3a ac bf 7d 8a 3f 17 93 25 c0 3f
       -0.05513516965141349 0.12614668498197892
000720 f5 f7 78 02 47 27 c1 3f 63 63 cb c2 ee 1d cd 3f
       0.13401115055779625 0.22747597228478886
000730 45 ba ea 6f 35 df c7 3f 3f 35 fd 58 28 e0 a2 bf
       0.18649929012959113 -0.03686643682758949
000740 a6 c9 84 ee 5b 82 b0 3f e0 5a 55 74 25 78 cb 3f
       0.06448912213526245 0.2146040742906825
000750 d7 dd 2a ea 6d 31 bd bf 1b 72 15 70 e1 25 cc bf
       -0.11403548209170054 -0.21990602467384765
000760 b9 22 0f ec e8 a1 5e 3f 7f 4f 5c cb e3 36 a0 bf
       0.0018696570043507511 -0.03166877610615781
000770 0a 08 61 56 d3 c6 c2 bf 1d 8b 35 4c 2e 2a c8 bf
       -0.14669267385221502 -0.18878725739622207
000780 2c 50 23 02 7b 27 a5 bf d1 b6 12 41 67 e4 c2 bf
       -0.04131683732126165 -0.1475953166713482
000790 57 d3 f5 57 42 59 89 bf 05 2d f3 fa 2b 89 a0 bb
       -0.012377279576620088 -1.7507988204317986e-21
0007a0 59 ba 75 41 bd 65 70 bf 30 99 a0 71 c3 51 bd 3f
       -0.004003276138389988 0.11452886127571982
0007b0 1f 98 db 04 12 9d a3 bf 55 02 82 35 ae b9 cb 3f
       -0.03830772694873041 0.21660401928604026
0007c0 8c 8d b4 3c 41 33 93 bf 7d 6f 9f 8b 76 68 82 3f
       -0.01875020916953711 0.008988309989881088
0007d0 ca 69 08 0c 1f bb a4 bf 60 05 06 e7 93 b4 a9 3f
       -0.04049012205014753 0.050205823851693365
0007e0 2f 6e 6c 98 b6 2a 8d 3f dd 30 ac 79 89 40 cb bf
       0.014241625334356104 -0.2129070133308976
0007f0 69 0e df a8 80 42 8f bc ff 2b 81 6d 26 1d c2 3f
       -5.422706674410489e-17 0.1415145907106705
