weights/global_round_13.npz (npz, 129966 bytes, 8 tensors)

arr_0 f8 [43, 128]
00000000: 5c10 d754 eb5c 1140 d77b e0d9 4f21 febf
00000010: dc87 79b6 039b f03f bf8a 1c35 e499 3440
00000020: 6d29 8213 22d9 2a40 2a22 a200 4144 1140
00000030: 1af6 5db8 62e1 1640 d6b7 53d2 3432 28c0
00000040: 1812 e262 8902 0040 a28b 1f6d 76b0 38c0
00000050: 0127 0087 a8be 3140 6a2b 806d adc1 ecbf
00000060: 6427 1259 7dc2 27c0 cb46 3608 8328 1740
00000070: 593e 661f 050a 1140 98dd 33e9 20b3 1bc0
00000080: 5b23 de33 89da 0a40 d80e 02d1 db2f 23c0
00000090: dcd7 eec2 82c4 1540 64f3 7034 511c c5bf
000000a0: d805 9db9 9b80 1740 74da b528 f649 edbf
000000b0: ace9 9797 5d32 2e40 e1a6 bb0d 5e86 f33f
000000c0: e834 2a4b 3ccf 29c0 aa72 a429 a0f1 1140
000000d0: fdc9 b5b3 3154 20c0 63bd adba 5b6f 1d40
000000e0: adcc 4413 8803 26c0 fb77 9cfa 9727 f83f
000000f0: d5e4 95aa 69b5 20c0 32db ce6d 6e53 2140
00000100: 0e6d 0316 9a76 1dc0 3e4b 06f2 397f 15c0
00000110: a085 c752 ba67 ccbf 439c 43b5 49a3 24c0
00000120: d145 2144 34a9 2d40 38ec 4539 048c 1240
00000130: b7d8 7e57 6292 f1bf 34f2 7beb e182 0740
00000140: 7832 cc2e 69c0 2040 863b d2dd b83a 30c0
00000150: c6c1 eb00 6f82 3fc0 a4dc 3c01 5a4f cdbf
00000160: 2de8 b705 bf91 2cc0 fb5e dab2 0e3d 13c0
00000170: 8488 b47e 618f 0240 729a 94b7 71d8 26c0
00000180: cfc8 74c8 2004 24c0 023b 5ac5 3d04 1940
00000190: 124e 2832 9f36 20c0 0c95 0113 2158 dfbf
000001a0: 0961 94ad 2499 22c0 5785 eb96 112e 13c0
000001b0: b7fc aa75 1d47 21c0 5ff3 de35 2b11 0a40
000001c0: 2a0d 0e61 9f2e e9bf c252 14e3 2194 f23f
000001d0: 2ef0 0bac d14d 0c40 76d1 a8a5 6ac8 1c40
000001e0: 8521 cbc1 6372 1cc0 1a00 1dc6 734c 1e40
000001f0: 4cf4 db17 6087 2040 6443 5a4f d1d1 01c0
00000200: a88c 655d b1c4 2540 a08e dcb1 7064 20c0
00000210: b81c 95cc 60c7 1540 4769 aa02 2b9e 0540
00000220: 10a7 f3f9 27f4 25c0 8e2d d9f3 d911 3dc0
00000230: 2bf3 cd86 a67a 2640 cb04 3938 4c8c 03c0
00000240: ec80 15cb 7340 2440 6ca5 27bf 6248 1540
00000250: c36a 7394 e22f 1340 68e8 9cfb 84fd 2dc0
00000260: 6c8d bf0a 8d90 3140 cad3 3b7a 6bc1 2d40
00000270: fffa 6f5e b200 1dc0 5a14 8ea0 f14a 2540
00000280: 7511 1fe2 ec10 36c0 99ff f83a c0ee 2940
00000290: 6990 2cad 6f74 2fc0 541e 27c7 5c6b 2540
000002a0: 39b8 ff58 43b0 1940 ccbc 79ba 83ca 02c0
000002b0: 6b26 731b 8588 2ac0 9868 7dc1 0d1a 2740
000002c0: 4c8f ceb4 5ecf 37c0 7290 1498 6e5b fb3f
000002d0: a055 93b5 7e6f de3f 0074 b73f ffcb 1740
000002e0: b705 c061 79e0 2940 8ae3 0c4a e43b 1340
000002f0: adca f32f 10d7 21c0 3b95 62ef 7050 08c0
00000300: 667b e0da d982 2540 0e11 efc4 012f 2640
00000310: d4ec 60ac 150d 13c0 99f2 dc53 5270 fc3f
00000320: 6064 8344 7a1c 2cc0 bf42 eb04 4259 2c40
00000330: 921c 7b44 93c2 2140 ca96 295f dfd2 01c0
00000340: ffec c399 cc55 3840 524b 3f31 dcbd 3140
00000350: c61b c030 9e28 ec3f 1d4d 7c3e d64e 2340
00000360: 7494 bcfa 3bd5 1ac0 7803 a3ce 9ab9 2840
00000370: a490 7bf1 ca39 1940 3586 2ddd f1e0 2540
00000380: 0f37 e525 1755 1cc0 4c87 08c8 4c51 f43f
00000390: 348d 597b cb5e be3f 2eaf 98d7 a689 1940
000003a0: fc2e 2b0a 0085 39c0 6e22 76f4 d204 2d40
000003b0: e94c 2648 02ce 0940 967f 3332 b1be 1340
000003c0: 51c3 5408 60c2 1540 55bf 8a66 d7e6 fabf
000003d0: e06d 6c6f a138 1240 521f fcbe 9b3b 0440
000003e0: cfa5 4c13 6d78 1e40 1391 6262 2fc5 1dc0
000003f0: dab0 5b80 1ce2 0e40 9c0f b392 ed81 11c0
00000400: 90f5 bd25 7e94 25c0 3ae5 81d0 2f96 1d40
00000410: adc7 4c64 70df e9bf 73b8 d42b 7c94 0140
00000420: c1eb 4976 2e27 0340 429c e78b 1c7f ea3f
00000430: d0c0 4c99 0f1d d8bf 24ff a0fe bd24 fb3f
00000440: 0654 4360 c287 1ec0 0c4c 19f2 5b0f 1b40
00000450: 2d53 e578 af5f 33c0 3356 691a ae6c 1ac0
00000460: d1b9 8d04 92a1 0ec0 b6fe 935c 91a6 1fc0
00000470: 4990 7398 74e1 1040 d8ba 1d10 5ba2 b4bf
00000480: f661 bca8 4abf 3c40 809c 25a9 5462 9b3f
00000490: e52f 6d6a aa31 2040 e638 57e7 6919 2fc0
000004a0: 54f6 535d 7945 e1bf 0ad4 3144 f645 3a40
000004b0: 5a35 d78c 7004 2ec0 3841 3afd c065 ff3f
000004c0: 6056 791b f1ee d03f 663a 03a0 d4af 0440
000004d0: 858b b99e 244b 27c0 bacb 4d65 dc14 1240
000004e0: 7c98 fd23 9688 4540 979b 6e5b 26c4 14c0
000004f0: 6bdf 7222 9f28 26c0 8863 ec46 323f 0240
00000500: d7c8 8040 7c3c 24c0 b459 4683 55ff 28c0
00000510: 5425 3dee f3d9 de3f b773 9ce0 32b9 27c0
00000520: f0b2 0973 49f4 2640 289f 428a fdd6 3240
00000530: 47ad 78d6 1d7b 2640 12c8 0c18 48a8 f2bf
00000540: 0540 9938 5345 1240 124a 4840 0d9b 2fc0
00000550: 7d89 252b e03c 2140 2ca5 9df8 017a f0bf
00000560: 4774 7706 6127 15c0 6fb6 1e0d 901c 01c0
00000570: c337 bdc1 d84f 0640 a8cb 48eb 3f1d 1740
00000580: 6222 0681 2585 2340 1817 1e3f 1b16 c6bf
00000590: 83f0 6fb9 ad53 2b40 889a e5be d036 01c0
000005a0: 720c 4868 7ecb 26c0 5f32 5a4e 193f 40c0
000005b0: ebed 19ca 8909 21c0 0003 5178 f71d 2a40
000005c0: d6c6 1175 1011 0dc0 80af 17b2 78a7 0f40
000005d0: 7e0c 838e 86cf c7bf 438c 94a8 1549 0c40
000005e0: ccde 774f b3cb 0c40 2fff 7cc6 a537 3040
000005f0: 1345 67d0 6e9f 21c0 7a4f d688 f328 07c0
00000600: 6bc4 70a6 c6a5 00c0 df6c 4874 8d22 32c0
00000610: ee0e f4ae e893 3440 13df 0675 205f 1b40
00000620: c283 2993 5be0 1640 46dc e1e2 3a5c 2240
00000630: 857f 3c81 e569 fabf 6ce6 a6de c3fc 24c0
00000640: e498 7ff7 6d3c 0840 9deb 4c36 e4cd 2840
00000650: 25b5 b9be 4ac6 2740 dd6c 59f5 67ae 1940
00000660: ea23 044b 00c1 29c0 912a 22b8 8fa3 0e40
00000670: 3f76 7e9a 5528 febf 3889 f052 3db6 2a40
00000680: e7c1 93c8 a9ae f13f 1277 1f09 177f 28c0
00000690: 8a4e fc9c 13ae 11c0 4a9b 9081 dc78 1140
000006a0: 88cf 3b1c 21a0 13c0 a95f cd31 c81e 0040
000006b0: 210f 7a09 98d0 1fc0 3020 551b 0c11 e7bf
000006c0: 7714 49c5 700d 0340 dcc8 2ec8 514b 2a40
000006d0: 2c9d ced2 c283 06c0 3a93 8424 7ae6 0840
000006e0: e06c 3779 6037 ed3f cc7f 33d7 6f3f 29c0
000006f0: 1ce6 7437 da6b 2dc0 2738 0295 74db 2e40
00000700: 9af3 60eb 35ba 0ec0 d8f5 ad1f 851a e9bf
00000710: 7c3d ad30 8ae6 2dc0 242e 8834 d505 2040
00000720: 8e22 7301 d75b 3ac0 722e 0b40 5039 1640
00000730: 0cf7 9021 45a2 d53f 11aa 12ef b4b7 1340
00000740: 05c1 c124 2898 21c0 6af4 7616 4fe6 18c0
00000750: 5ebe f5b0 acc3 1fc0 fe2f cf45 2820 10c0
00000760: f2c6 c290 a48d ffbf 10e0 0cea 9ed1 1240
00000770: cf8f 648c 3ead 0d40 c08c f70f 0054 07c0
00000780: e06c 6b85 404f f8bf a99d 1f10 9493 18c0
00000790: 211d 9b5c 2215 27c0 88ad 2320 ceff 15c0
000007a0: 4db3 dd23 987f 31c0 4e02 7412 ef14 2740
000007b0: 32c3 d736 ac99 1040 e048 2596 fbf4 07c0
000007c0: f286 5648 b47a 0fc0 ec7e 7521 8914 1ac0
000007d0: aef9 d6bd 2055 1840 035d 2014 6c63 0940
000007e0: 7808 4625 c445 34c0 c8b3 934c 161c 0f40
000007f0: cc9a 0570 0347 0240 4c9d bf62 5532 21c0
4.340741468073329 -1.8831327925506594 1.037845337669288 20.60113841959787 13.424088105811018 4.316654214759675 5.72010315011496 -12.098059246749397
2.0012386059991165 -24.6893070413604 17.74475902322502 -0.8986422671017469 -11.879862578836487 5.789562347710397 4.259785166373683 -6.9249302328020335
3.3567070057073756 -9.593473941327304 5.441905065372307 -0.16492667255979676 5.875594043930924 -0.9152785105823811 15.098370301527062 1.2203045402952102
-12.904756878759557 4.485962534582237 -8.164441696110766 7.358748356680141 -11.006897546909693 1.5096664227962708 -8.35432179527053 8.662951880932813
-7.365822166403872 -5.374244481691504 -0.22191552202188536 -10.31892172289202 14.830476883947002 4.636734862225289 -1.098238317279124 2.9389074704361295
8.375802481104287 -16.229383338762567 -31.509506280477375 -0.22898411808430297 -14.284660509776666 -4.809626383379277 2.3200101755947475 -11.42274259270673
-10.008062614684972 6.254141887314065 -8.106683318538703 -0.48975397926399533 -9.299107956278492 -4.794988973736813 -8.638896634218652 3.258383198610701
-0.7869412322619713 1.1611651296890817 3.537997573961568 7.195719326428266 -7.111708667777184 7.5746603923035085 8.264405007934464 -2.227450008337131
10.884165686269924 -8.196172292874792 5.444705196953855 2.702230473351992 -10.976867495529888 -29.069731941720924 11.239551746979108 -2.4435047523880704
10.125883432745887 5.320689188761531 4.796762771172044 -14.99515520372752 17.564652129903536 14.87777311306299 -7.250680423340554 10.646374718993844
-22.066114552102096 12.96631035127193 -15.727414523782686 10.70969221451302 6.422131910903823 -2.3488840645219167 -13.266640527540593 11.550886198576606
-23.810038853101375 1.7098222675931791 0.4755551121901025 5.949215884754267 12.938426069917893 4.808488041912719 -8.920045374402742 -3.0392779066047786
10.755568351652709 11.091810373480737 -4.762777989784087 1.7774222637082515 -14.055620327986787 14.174331811636305 8.880029811886093 -2.2279651102606737
24.335153208096923 17.741641118958178 0.8799582435757365 9.653978302644243 -6.708236615905765 12.3625092100135 6.306438229719934 10.939345275694999
-7.083096115222147 1.2698486150552126 0.11863395463438026 6.384425514883146 -25.519531856100897 14.50942195837089 3.225590289753758 4.936222824471676
5.439819460080643 -1.681357765726678 4.555303326600068 2.5291056557361253 7.6176035895854985 -7.442563569322618 3.8604059246045894 -4.376882831744208
-10.79002492851103 7.396666772773921 -0.8085252722723816 2.197502462796416 2.3941315881070016 0.8280165417207928 -0.37677373858151686 1.696470255512346
-7.632577423200024 6.764999182504663 -19.373771244037176 -6.606132900885814 -3.828891788077478 -7.912663885624786 4.220171339086002 -0.08060235160312901
28.747232957832203 0.026742289375218053 8.097003293827536 -15.54963610591626 -0.539730722695547 26.27328897682677 -15.00867118956619 1.9623422519399139
0.2645838516521959 2.5858547688470024 -11.646763763570343 4.52037199294403 43.06708192713356 -5.191552570939982 -11.079339100382375 2.280857614602102
-10.118135467263 -12.498699285829254 0.4820527864981916 -11.861716288660189 11.477122874196965 18.839806214585366 11.240462019187033 -1.166084379143744
4.567700275758402 -15.802835472893126 8.618897770244752 -1.02978703609035 -5.288456059494883 -2.138946630954528 2.788987649523706 5.778564144437873
9.760051757811372 -0.17254963476096274 13.66343478671502 -2.1517653383082838 -11.397448786540028 -32.49295977977885 -8.51862937513848 13.05852867115891
-3.633332171063425 3.956773177478624 -0.18602067907895398 3.535685841592142 3.5994631012398255 16.217373281018066 -8.811392319303684 -2.8949957552339898
-2.080945301357635 -18.13497092025943 20.577769217094946 6.842897251648327 5.71909933033834 9.180136766501288 -1.650853638486269 -10.493681867478891
3.029506620007952 12.402131745233243 11.887289009255776 6.420318444808086 -12.876955360656172 3.8298639665056915 -1.8848472628518633 13.35593661485892
1.105142386917686 -12.248222622958142 -4.419996693515381 4.368028664065443 -4.906376305723718 2.0150302782821723 -7.9537049751996 -0.7208309682691887
2.381562749188159 13.147108321867954 -2.8143364400199484 3.112537656112548 0.9130098693380226 -12.623900151287579 -14.710649235744363 15.428623825570027
-3.8409231556856414 -0.7844873064747686 -14.950273057124598 8.011392251609387 -26.358749476060034 5.555970192606411 0.33802917745548267 4.929401145471744
-8.797181271220788 -6.224911070833608 -7.941088452338219 -4.031403628130645 -1.972080769989074 4.704707772289126 3.70959195787325 -2.9160157439633565
-1.5193486415581035 -6.144119502954177 -11.541277784285343 -5.4998097440506015 -17.498415223718712 11.540886475239997 4.150071007651421 -2.994620488179052
-3.93491417421398 -6.520054362102865 6.083132711645176 3.1735459873558525 -20.272524194333954 3.888714407212749 2.284674525424043 -8.598307691469607

arr_1 f8 [128]
00000000: c697 b16f 691b 3340 5a10 0840 16f5 1f40
00000010: f956 67c3 3774 ee3f 306d d3ad 7a37 23c0
00000020: d4b2 ca77 a25a 2c40 0add 4f84 3655 0540
00000030: fdbb 4034 905c 0f40 58d3 4ac2 e8fd f6bf
00000040: 1aff 04ac 5327 2e40 6dc4 7acf 061b 1e40
00000050: 63dc 1c58 5caa 1d40 b631 3906 f9d7 1b40
00000060: 24d8 e5f6 6a81 1fc0 a097 e341 e0ff 0040
00000070: 9af6 e19a 2af0 2540 7f7c 2243 1a57 2340
00000080: fe7e d1c9 8bf6 2c40 87a2 e2c4 95a6 1840
00000090: fc46 f8ee a016 2f40 78de 6fb1 ac92 3140
000000a0: b4e9 dcfe 2ca9 19c0 5e7d 3647 c29a 0fc0
000000b0: e870 6917 fabd c9bf b800 822f 6c73 0ac0
000000c0: 464d 30b2 afe0 2cc0 c0a1 1aa1 dc5e 0840
000000d0: 824e 69ab 5afb 1440 8e03 d716 4197 2140
000000e0: 6925 ba2f f252 03c0 05f2 ff78 ffd7 13c0
000000f0: 36fb f7af 4311 2140 e5b2 7253 e605 1140
00000100: c6af cbe9 594d 0940 468f 78d1 401f e8bf
00000110: 247c 8977 2383 38c0 6031 c22a db23 2040
00000120: b401 8071 b8ea e63f c41c b2e3 cd8b 27c0
00000130: 137f 77a5 b079 22c0 9cfa af57 7abd 15c0
00000140: b9fb 082c e443 3040 3604 02d7 e302 1940
00000150: 45cd 20e8 1ab1 1ac0 fc03 d15e ddf4 20c0
00000160: 3a1e f515 6509 2840 e161 19b5 c5aa 1040
00000170: 9665 5375 08f3 38c0 0a4f 9c9d 5d9c 23c0
00000180: f0c5 4c9b d0b8 22c0 b64f a903 92b6 16c0
00000190: d6a7 d21a 971c 31c0 98e0 d337 c610 12c0
000001a0: eacc f785 df58 16c0 b24e 2ef0 0d61 0240
000001b0: 42c2 15e4 6b61 2cc0 822b 0102 98e6 24c0
000001c0: 828f 011a 9ab9 2d40 b417 97bb d463 21c0
000001d0: 6ef8 05d7 53e5 00c0 4e24 12f4 4c5e 0940
000001e0: 16ca b8bc 3466 2c40 d1cb 42bd 5a03 2440
000001f0: daa2 c4ce 9b63 3040 55c2 8d32 a3ec f33f
00000200: 6d7d 675d 87f1 0e40 1858 c456 c05d 0ac0
00000210: b9f4 9e97 a429 31c0 46f6 9b21 eda8 11c0
00000220: a825 0428 3844 3640 6d33 a590 b33b fe3f
00000230: c3f2 27df 452a 2240 7edb 4b8b 8ab9 2540
00000240: d30a 720c 3ed9 1940 5a4b 97a4 91ae 2240
00000250: 73a4 302a 70ef 2640 00e0 4d70 7661 03c0
00000260: c76f b47d 45ed 1640 fccb 1bad a528 2640
00000270: 3691 1055 a57f 2340 b573 3a36 6de0 13c0
00000280: 6124 d679 fcd6 14c0 0661 940d 1e74 e03f
00000290: eb51 6ee5 62f9 16c0 4221 2f68 481f 1940
000002a0: fd22 a814 5d80 26c0 a32e 8c8c 1d55 3040
000002b0: c5f8 33ff c4dc 19c0 3e2a 06f4 a13c eabf
000002c0: 95cb 405a d9bd 3140 d206 9b15 4486 01c0
000002d0: ce80 3625 d09e 1040 bb33 7e12 b05c 2a40
000002e0: f69d 41d4 0a09 24c0 3024 ad5a 4b09 c2bf
000002f0: da3c 1c66 8e2b 2c40 1277 5737 4dc2 27c0
00000300: 7323 51f9 9316 06c0 a6f2 461c 3102 2840
00000310: 92b4 9226 4a99 2ec0 2914 dee0 3542 21c0
00000320: f595 0464 0f06 f13f caae f044 4f0b 1740
00000330: 531c b3db 7fc6 fb3f 6a67 15a4 f43e 0340
00000340: 9d39 5d3d 1e11 35c0 68cf 47a8 f47c 1140
00000350: e877 77f8 d180 ca3f 7ea7 20b1 e0f3 e5bf
00000360: be46 5758 ed68 22c0 8c5f 9e42 89d8 d63f
00000370: 1060 1e9b 9973 cf3f f71f 90f2 a8cd 1d40
00000380: 86c4 469c afa1 1a40 7664 3856 51e4 d13f
00000390: 60d4 2f5a 0b43 e3bf cfb3 371b c599 3140
000003a0: 3e24 ea9d 679f 1fc0 52d1 eaff 8138 2cc0
000003b0: 4c73 9841 1f39 1740 f8a1 c594 1b69 bd3f
000003c0: 2902 d59f 6eb3 00c0 4ab6 853b 094d 0740
000003d0: 40f4 72cb 4e1e 0140 0d6a 9077 a7b0 14c0
000003e0: 9ac6 3746 b26c 02c0 fa11 a8ca b83c 2140
000003f0: c21d e03f 4db2 2240 d628 9fa6 35dc 3240
19.107077580316194 7.989342689983539 0.9516867462614008 -9.608357841547871 14.177020781987643 2.6666078888771425 3.920196922517333 -1.4369895543615794
15.076810241327212 7.526393167369958 7.416367890130547 6.960910889855247 -7.876384599474509 2.124939455755296 10.969075050433549 9.670122240028148
14.481535250495195 6.162680698712058 15.544196574981008 17.57294758778741 -6.415210706933454 -3.9505658687118475 -0.20111013549001844 -3.3063586913632115
-14.438840454479429 3.0463192545177833 5.245463064482125 8.795418466326534 -2.415500996463994 -4.96093548834006 8.533719538708834 4.255761436343822
3.16276915219166 -0.7538150874356482 -24.51225993258062 8.07003148670691 0.7161524025723822 -11.773055186741097 -9.237675829731904 -5.435037012210753
16.265200378602206 6.252822265146326 -6.672954203607621 -8.478251421942325 12.018349348231926 4.166769818948951 -24.949347813473274 -9.805401730852754
-9.360966542360046 -5.678291375359484 -17.111680675916283 -4.516381141955343 -5.5867901737685575 2.2973898662692926 -14.190276267677408 -10.450378477709595
14.86250382679987 -8.694982397264404 -2.111976318235114 3.1710452144657557 14.199621102864551 10.00655166092284 16.38909618664443 1.2452728247409557
3.867933969231379 -3.295777013651797 -17.162667728717427 -4.414967084068456 22.26648187733886 1.889575543423429 9.082564328791142 10.862385132799087
6.462150759182538 9.340954917400882 11.467652624547759 -2.4225891851201595 5.7317103997592715 11.079389009135404 9.749308260223739 -4.969166610067011
-5.209947494216153 0.5141744866587323 -5.743541321619413 6.280549648167211 -11.250710149311539 16.332482132171787 -6.465595233485321 -0.8199014440627435
17.74159778673091 -2.190559548181093 4.155090886546715 13.181030824571158 -10.017660744676487 -0.14090864112429946 14.085070792147622 -11.879495362688917
-2.7610244253050324 12.004280933056474 -15.299393849762314 -8.62931730948374 1.0639795214605077 5.761044575872527 1.7359617788331618 2.4057400530845614
-21.066867671260855 4.372027043707796 0.2070562804428271 -0.68602022738672 -9.20493579926858 0.3569663191387853 0.24571533273842805 7.450839796110805
6.657896463221851 0.2795604078288031 -0.6019341241323097 17.600663853739942 -7.9056687044295 -14.110366818823113 5.805783295564492 0.11488506681565258
-2.0876133429412858 2.912615265863484 2.1397987265068252 -5.172513836087558 -2.3030744062205715 8.618597348228821 9.348245617015781 18.860193647248558

arr_2 f8 [128, 64]
00000000: a929 aeb5 a4e7 22c0 c2bd 78f6 9082 d43f
00000010: dc1e c9e2 63fb 3040 7873 3f48 a98e 19c0
00000020: acf9 d6b7 ee0c 1540 5f10 53e8 23b6 35c0
00000030: 4068 6d32 8725 2dc0 3f01 32d0 6070 1cc0
00000040: e892 bb8a 2f0d c3bf 9c73 d303 972b 20c0
00000050: 0ece a5ed 30fd efbf a16e 4a97 edc5 1d40
00000060: cbe8 e2e9 0084 1e40 4223 4d2f 84cc 27c0
00000070: cf28 fb1e aaa1 fcbf 8c46 6b87 63a8 2e40
00000080: d6c8 58ce f63a fdbf 56c7 7c27 72dd 1840
00000090: 99f0 4f08 3eae 19c0 b292 1fce a578 2940
000000a0: 656a 238e e165 02c0 da73 680c 1168 2340
000000b0: 1f28 4792 17b2 0440 b638 2b4d 973a 0340
000000c0: dad3 a22a d05a 2a40 4665 3a4a 62e5 c3bf
000000d0: d450 5c19 4bd7 1a40 b7c7 46c7 4893 2240
000000e0: c478 c0ec fb1b 2440 0e5e bfc7 3bc2 1440
000000f0: ee57 47ce eb64 14c0 fa2c 67b0 3d40 2d40
00000100: aa5b e722 fbf3 f53f 9f33 0073 117a 1b40
00000110: 7bb0 cc65 3048 2940 ac07 7bd6 e513 1940
00000120: 83ed df53 5d5b 2d40 88ed 7008 a949 1740
00000130: 6a0f a3cd 8399 27c0 5568 810d b62a 27c0
00000140: bde6 49ca 04a6 23c0 80af 89e0 5ba4 38c0
00000150: 884f 65ee b094 2cc0 94fe f935 97c2 2840
00000160: 364b 3a02 c271 fcbf 88b4 3261 f1c9 d2bf
00000170: 3ab1 283c db94 1dc0 58a9 19e0 d6eb d2bf
00000180: 1cc0 66a8 388a 2440 48c4 5e09 2583 0140
00000190: d6b7 61e7 efa4 2bc0 0721 1f31 1a2d 23c0
000001a0: ef3a 840c 422a 0540 a39a 8902 c0c2 fbbf
000001b0: 1e2a 74e4 bcf2 2940 681c f4a2 128e 2c40
000001c0: 4949 563c 2d1a 10c0 e8f3 f0d9 176b e93f
000001d0: 4539 66c5 e780 1140 8a89 42b2 8091 2e40
000001e0: ca1c 4051 1711 0840 2f54 0b7c 6d9b 00c0
000001f0: 81e5 4172 053d 1ac0 ec0a e1b6 9448 16c0
00000200: 2dca ad4c b643 2040 53cd 916e aa56 2ec0
00000210: eee6 ac9e e560 19c0 50b7 3c02 e8c1 2c40
00000220: f8ba 30c1 b301 1240 5e81 ac47 fee5 37c0
00000230: 9ebd 0dff f947 1ac0 ac5d 921b 15fe 2940
00000240: 82e0 4d2a a375 2340 3394 382b 75cd 1d40
00000250: 9d1c 17a8 db56 22c0 48c8 31e7 8ace 2640
00000260: fbbe c5ee 666a 2740 e2bc 684e 2ad0 1140
00000270: f6ea 3fe6 6d95 1440 fb77 4cd9 a15f 02c0
00000280: 2060 a315 5014 2cc0 5651 479a 2361 11c0
00000290: 6ebc 0a67 57c8 25c0 d7d3 2ad1 0fff 26c0
000002a0: f20b 0b61 1e9e febf d673 cd4a 3ce8 3940
000002b0: 8ec6 30c3 64b3 2140 2acf 1488 6472 2240
000002c0: 36dc 4c84 ac57 f43f 488e a4ec d0e5 b63f
000002d0: d7cb ae17 01c3 f7bf e280 93af 3b55 20c0
000002e0: c8bd 6653 84cf 0140 d45f 7e85 c694 18c0
000002f0: 46fd 6e27 2bf4 20c0 de93 b20c 42f5 32c0
00000300: 3e26 4875 1d32 2840 3a37 9791 eeb8 ea3f
00000310: f096 507b ea8c 1cc0 372e 2d09 c51b 28c0
00000320: dd75 85cd f33d 18c0 8a22 bd65 d01d 33c0
00000330: 8d43 1682 300c 0a40 43f1 6e44 e9b5 1b40
00000340: b468 b605 2f66 eabf d817 02df 4f10 21c0
00000350: ecb2 7031 0975 3140 17ec 9d0e 788d 3f40
00000360: 8a25 d2a3 4e7e 2440 6eda fd54 44a6 2d40
00000370: a6d2 89c5 da22 f6bf eea4 5241 dcaf 2fc0
00000380: 7e38 b3c1 be9f 1e40 6ca2 12bd cc74 3240
00000390: 745d ba30 6b84 f6bf 699d 2fc0 dc85 07c0
000003a0: 278c e9c6 6b77 1040 a12e c35f dff5 0740
000003b0: 3e32 241a 5923 2240 404c 06fe c832 0dc0
000003c0: 9c5f b38c 40c2 1fc0 f1b8 238d c67f fc3f
000003d0: da39 7e22 b9c3 0440 9c1d bcfe bc1b ec3f
000003e0: fc97 394e ce42 1840 38ee d090 0c4e 1440
000003f0: dc42 dd1b 5536 05c0 98e3 58f5 2e2a 2040
00000400: 95fe e8f9 c2ac 1f40 b013 6a11 082d 25c0
00000410: 0f3a 64a6 f76c 2b40 23fc 90ad 6d02 e93f
00000420: 17c0 ad4e dc17 0bc0 daf0 66ab b32f e4bf
00000430: ad58 9921 cc43 29c0 8007 5fa9 29cf 813f
00000440: 4121 05f7 42a0 23c0 62be 2f40 29b4 3240
00000450: 9d79 aad8 e59e f93f 2c4a 5f80 b484 2cc0
00000460: 4fb5 56c8 b830 1dc0 ae94 5678 5294 1340
00000470: 53f9 ae17 4649 11c0 fc31 f051 1b13 18c0
00000480: 19c8 6978 829d 1740 3fb5 c820 8143 21c0
00000490: 64d9 0ef8 cfe2 38c0 2bc1 bc54 bc32 ff3f
000004a0: 96ba f239 bb1d 16c0 814b 75ad b50e 2140
000004b0: e036 e4c3 2ccc 26c0 3e8b 11f1 efeb 2cc0
000004c0: b13c e212 27a6 2ec0 ad07 da21 3e8c 2bc0
000004d0: 7cf4 49ab c702 1dc0 6068 ed9c a961 2440
000004e0: ccdb 97b5 43d5 3040 1753 a90b c786 36c0
000004f0: 7cd2 aed0 9852 17c0 44f2 cb31 e021 35c0
00000500: aaa4 b91c 63f2 2640 b161 885e d60a d43f
00000510: 168a 0851 acdb 20c0 f433 f30f c90f 0140
00000520: 36e6 6bb1 2a23 14c0 672f 6443 67b8 2f40
00000530: 0cfc efdd b33d 0cc0 6c68 9855 749c 25c0
00000540: 81a1 de89 7813 38c0 ee27 910e 6fb1 1540
00000550: c737 6a49 93b0 1a40 d923 e9e2 3b76 23c0
00000560: 3e56 24b1 6967 29c0 5078 42e9 9a36 29c0
00000570: e2f6 168c c817 29c0 4a02 7b76 abf1 30c0
00000580: 0033 4620 ceac af3f ea1b 5d10 bdd2 f8bf
00000590: 24e5 2dab cb4e 1bc0 c591 24a2 786a 0740
000005a0: 6a13 08ed 3174 22c0 e8a3 f156 a341 2fc0
000005b0: 2090 e648 08aa 03c0 791a c010 de2a babf
000005c0: 9c2f 33a9 594b 14c0 f286 9a0f 7878 26c0
000005d0: 5d62 57ed 7730 1dc0 a073 54b6 ad55 1640
000005e0: af66 11df 7d3b 17c0 daf9 2ea3 4fae 2fc0
000005f0: 520f ca89 2943 1140 4419 b89f a9bf 21c0
00000600: 3ff7 5b2e e54e 1940 3867 77a0 99d4 cbbf
00000610: 757f 2e07 33da 1bc0 908a 09dc ec6b 1ac0
00000620: 3f6f 1fd3 604c f53f bc9c 30b6 4081 2bc0
00000630: f51b 514e 10c2 00c0 b942 4581 0b7b 3840
00000640: 36a5 eea8 e3c7 29c0 7f79 2e07 f21a 30c0
00000650: bf7b a6ad 309f 36c0 c060 2809 7851 0340
00000660: beeb 6463 129e 24c0 5cfe cddb 4fed 2fc0
00000670: 6856 30ab 548f 0e40 e9a8 7b10 1389 3ac0
00000680: 3c64 b82e 9c58 fdbf 7fd6 f199 79b8 1fc0
00000690: 2056 3ff5 4d95 3240 a247 fd86 8b74 28c0
000006a0: b051 bd42 d8dc 1740 7318 8ea1 3b3d 26c0
000006b0: 3cc2 41ab 7cb6 2140 f4fc c027 22de 3040
000006c0: 6af9 69ad d24c 0ec0 56ef 78da 6a8b 02c0
000006d0: f30c 4c46 dc30 3440 8fa5 e7fb 72e2 10c0
000006e0: acbd 206e 8f82 d8bf f1c7 3b86 38cd 31c0
000006f0: 3564 ee91 6460 ebbf b0ca 75c6 9d7b 22c0
00000700: 27d6 57ac 550b 2dc0 f406 0b69 9f6a 2dc0
00000710: 7e0b de18 3419 17c0 c11f 22d7 d717 eabf
00000720: d45d 89bb 3e99 c73f 5e5d 773a 512c 14c0
00000730: c2d9 7b0b d8e0 33c0 aef6 51f6 2457 2e40
00000740: 9451 36b6 97c3 08c0 f6e7 2425 0849 27c0
00000750: 6f15 58df 1a02 0ec0 d6f9 5900 fc12 22c0
00000760: 1fb8 43c8 5483 e9bf 30cb 132b 6f25 0ec0
00000770: fad5 93b9 d097 28c0 a0a7 e84e e2f1 16c0
00000780: c57e 04ba c3f4 2ac0 ed2c 1b31 89ca 34c0
00000790: c4bf 2e73 3be0 2940 ee87 cc3b 3a40 32c0
000007a0: dac0 cafd a1a1 fcbf cac2 b681 9172 2a40
000007b0: 48b9 87fe 9128 ee3f 5c47 b689 7234 f0bf
000007c0: 40c5 7a7a 8fcd 983f 3a18 60eb 13bc 1ec0
000007d0: d0b1 d770 9ff2 1940 a9bb 9f37 5749 2640
000007e0: 1836 f56a 5a22 1d40 a7d0 5a31 a8e9 00c0
000007f0: e312 b495 9c17 1440 4da1 95c9 210e 2140
-9.452428510198688 0.32046913213249806 16.981992887593933 -6.389317635414834 5.2626293873749255 -21.71148540523461 -14.573297096114516 -7.109744313289695
-0.14883989595468639 -8.085136527597392 -0.9996571198993836 7.443289150159814 7.6289097351784205 -11.89944598976729 -1.7894688806723484 15.328884345860637
-1.8268955288336222 6.2162557763966415 -6.420158510092869 12.735639993051652 -2.2997466187055573 9.703255069494777 2.586959021374255 2.4036088970961726
13.177369434715661 -0.1554377424661572 6.710247417697435 9.287664630308297 10.054656408782087 5.189681168608798 -5.098555777649365 14.625470650286378
1.372065674154991 6.86920718849879 12.64099424480104 6.26943144918361 14.678446408352789 5.8219338721204466 -11.79983370414239 -11.5834202022999
-9.824255296250493 -24.64202693330253 -14.290412378184342 12.38005989720049 -1.7777729117412497 -0.29357561580656766 -7.395367565139447 -0.29564449200429044
10.269963514845635 2.189035485462714 -13.822142821005325 -9.588090453195504 2.6456337907651384 -1.735046396171733 12.97409738462471 14.277485935496045
-4.025563185469147 0.7943228966392981 4.375884136547318 15.284185000059342 3.008345255631501 -2.0758924189526833 -6.559591088554385 -5.570879800305857
8.132250210012979 -15.169269042299367 -6.344625930121522 14.378723211204175 4.501662272071137 -23.898411254516184 -6.570289597715059 12.996254788987095
9.729760477072208 7.450642276123335 -9.169644596883069 11.403403496577212 11.707816564215582 4.453286385672273 5.145927045489534 -2.2966954208814037
-14.03967349643068 -4.344862375834358 -10.891291828213266 -11.498167549589125 -1.9136031904934012 25.907169985923097 8.850378131584218 9.223423244991483
1.2714047592142044 0.0894442155591203 -1.4851084637746135 -8.166470991855423 2.226326610157887 -6.145288549268987 -8.476891739176278 -18.9580390869122
12.09788099771242 0.8350746959274382 -7.137613226693915 -12.054237639203263 -6.0605003464420095 -19.116461142230527 3.2559518969578165 6.927647656699551
-0.8249735938618614 -8.531859368329535 17.457171525968917 31.55261317592166 10.246693725016275 14.824740081775612 -1.3835094181387517 -15.843477288568888
7.656001116336595 18.456249062585286 -1.4073287871777582 -2.940362454846469 4.11662207413159 2.995054958480822 9.069039170187462 -3.6497974248573257
-7.9396993622284775 1.7811952126754103 2.59556796024047 0.8783860183038317 6.065240118279686 5.076219809295758 -2.6515295197390127 8.082389514065468
7.918712525220731 -10.587952179144708 13.71282691930267 0.781546439167759 -3.386650671651306 -0.630822977800132 -12.632416772812883 0.008695912820147589
-9.813010901809891 18.70375443616502 1.6012934173119 -14.259189616806076 -7.297579889576197 4.894845848354789 -4.321556444220124 -6.018658905301432
5.903818017441176 -8.631844543934333 -24.885985854745186 1.9498866376926098 -5.529034524383539 8.528729839866857 -11.398779031379888 -14.460814984695045
-15.324516859165984 -13.773911531319607 -7.252714802159172 10.19074716947597 16.833064412665223 -22.52647469409848 -5.830661068601895 -21.132327186862554
11.473412416135336 0.31316146117890314 -8.429049045841605 2.1327077146620415 -5.034342548571251 15.860162836055407 -3.5301282252180552 -10.805575060705642
-24.076058022359124 5.423275210961931 6.672436854465508 -9.730925646743275 -12.701978240667014 -12.606650628437052 -12.54645192890479 -16.944022564918022
0.06186527389500007 -1.5514498366553604 -6.826948809314931 2.926987902394304 -9.226943404422588 -15.628199307438948 -2.4580236144411316 -0.10221660527177247
-5.073584216832298 -11.235290992367911 -7.297332485636244 5.583670472054024 -5.808097348630027 -15.840451335415242 4.315588143308405 -8.87434100267695
6.327046131480357 -0.2174255403068004 -6.963085281575208 -6.605395734865525 1.331147026728061 -13.752446835931885 -2.094757663584 24.480644301804862
-12.89040878213073 -16.105255555006348 -22.62183652224098 2.4147797313163153 -10.308734041280214 -15.963499897857382 3.8199857114912454 -26.535447149458296
-1.8341333222399632 -7.93015137232362 18.583220794642443 -12.227627008836695 5.965668719105835 -11.119595573993342 8.856419898774327 16.867708668342814
-3.787511210247591 -2.3180749004513173 20.19086112362579 -4.221141754163354 -0.38296876673390545 -17.801643743128754 -0.8555167055338929 -9.241438104514003
-14.522138009760125 -14.70824745425805 -5.774612797310395 -0.8154105378935058 0.1843641677576061 -5.043278611693806 -19.87829658292481 15.17020387411625
-3.0955042109801045 -11.642640267138614 -3.7510278176075 -9.03707886789645 -0.7972816382805411 -3.7682784428992804 -12.2965143197025 -5.736214859914895
-13.478055775688867 -20.791155881056444 12.937953566986728 -18.250888574060745 -1.7894611276388361 13.223766377982788 0.9424524279873276 -1.012804544389346
0.024221650934753258 -7.683669736614371 6.486936343350365 11.143243540047324 7.283548041550169 -2.1140903335418275 5.023058261028129 8.527601527705565

arr_3 f8 [64]
00000000: 6698 ec44 f50c f53f a633 6697 3a8d 0440
00000010: 6ab2 6b26 5900 e1bf 1a0e 57bf 5e4f 2940
00000020: 596d 842d 87d2 2d40 a2af 27a0 273f 0840
00000030: 5afe d39b 495f 19c0 9a7f 0206 c9dc 1bc0
00000040: 9a97 903d bb6c 3ac0 2e27 35fa da7c 2840
00000050: 0452 4f72 c727 27c0 0635 de7f 0f7c ee3f
00000060: a652 b9ee 6196 2240 8cb6 5d99 8b33 1340
00000070: 0015 772a 7dac 1cc0 6833 0f02 a1e8 1dc0
00000080: 42d0 faf6 be37 1340 3cf5 68f0 807a 0f40
00000090: f10e a1c8 2904 00c0 2108 c113 6f3d fe3f
000000a0: 6478 3587 3f09 dfbf 613b 6b2c 7c1e 19c0
000000b0: e85b dfdd 1526 2040 cf6b 46b7 eabd 1e40
000000c0: 4e06 8144 0749 1dc0 648a 2cca 96b9 1240
000000d0: 3a69 5d58 8fa9 1bc0 41d1 ddab c4f5 3140
000000e0: ba86 0bf6 daec 2440 7238 11fa c21e 12c0
000000f0: 76fb 9624 15d8 2bc0 1294 8d63 3cbe 0340
00000100: 757c 374b 21d6 2140 c51c 0472 8586 2640
00000110: 2c76 4adb aecd 04c0 1c0c a7a8 33a7 0f40
00000120: 7fcc d587 baa8 1840 0610 3a16 2d35 b13f
00000130: fc63 80b6 dd1c 1a40 8f63 cef0 e8e8 0e40
00000140: 3eab 4a7a 3c91 fcbf bfdc f64d 0adb 14c0
00000150: 9ce1 dc4d b35d 1240 a2ea 49d2 30b8 1a40
00000160: 220a 08c9 2ede 2640 8371 5182 4c0c 2a40
00000170: bf33 c778 509c 2ec0 126e fd6c d7a2 0740
00000180: 705b 0da5 6341 d7bf b4ac 961e edfd 04c0
00000190: 1487 870d 2c76 1f40 ad26 e082 4ed2 fd3f
000001a0: f60e 6fb0 cc58 22c0 4f4f d26a aeaf 2140
000001b0: 3d9c 5611 fcd6 18c0 8e50 93ba 8405 fbbf
000001c0: 3669 aa5e dea2 f13f c35f 6de1 e69c 33c0
000001d0: 8c6e 2ce8 89bb 2ac0 8f1d cb2a 78ac 14c0
000001e0: a2f0 ff93 8ccc 1640 2354 767e f7bc 1fc0
000001f0: b73f 5c1d 236e 2640 6c41 117c 81d4 2c40
1.3156635944701747 2.5689594104828357 -0.531292510071194 12.65501974046406 14.911187574782774 3.0308372985945917 -6.343054232420025 -6.965610593702786
-26.424732063103512 12.243858164776238 -11.577693531210578 0.9526441094800766 9.293715915796678 4.800337215752403 -7.16844621993846 -7.477176696946891
4.80443941026539 3.9348162443190215 -2.00203282109748 1.8899985095636185 -0.4849394626998047 -6.279770559353751 8.074385579600815 7.685465682671704
-7.321316786170042 4.681239279717008 -6.915585880948408 17.960032216696394 10.462608040720955 -4.530040652562194 -13.922036307745412 2.4678886201459216
8.91822276165315 11.262736857416153 -2.600431168756378 3.95664150008953 6.164774057792896 0.06721765320440917 6.528189517580355 3.8637255490288633
-1.7854580666559765 -5.213906496231345 4.591504303556942 6.679873739015109 11.433950693351168 13.024021217767546 -15.305301451031367 2.954512454494542
-0.363366042312399 -2.623987425778603 7.8654024232835305 1.863844405396246 -9.17343665462202 8.843127573177894 -6.209945937072061 -1.6888472831824717
1.1022628496053364 -19.612897957995084 -13.36628652136212 -5.168427151343521 5.69975501298555 -7.934537864658554 11.215111653815127 14.415050389391318

arr_4 f8 [64, 32]
00000000: 0e4a 6c51 cf4a 1f40 a7c1 8f0a 34b1 27c0
00000010: 6839 08e4 64b0 1e40 88d6 3ffc 9d26 3940
00000020: f06c cb20 9ab5 2b40 2c7e 0449 5a10 2cc0
00000030: ada7 2693 8f78 1c40 3eb6 a407 5d52 ee3f
00000040: 481f cce6 b113 11c0 ad07 1650 eaad 20c0
00000050: 4ab7 122d 456a f1bf 6a11 b00d 7615 fcbf
00000060: 405a 0c19 b2f0 a4bf 6526 5c79 e71b f33f
00000070: 27de f9e8 df12 1ec0 d453 7a99 b7eb 1a40
00000080: ad9b 66d4 7876 0ac0 da79 8938 6bc4 1bc0
00000090: 8818 204e 0c44 3540 94a6 51d8 407b fe3f
000000a0: c208 e3c9 f285 2540 3023 df3d f4d1 0ec0
000000b0: aed7 522d eb0c 2c40 0963 f4b8 be54 1bc0
000000c0: 5943 d26c 5e65 2ac0 7d6d f3eb 7f1e f83f
000000d0: 94dc 0cc2 bee2 f9bf 3a8d ac1f 1d50 27c0
000000e0: 4b09 78ec b9e4 0c40 a46b 2e11 ceb2 05c0
000000f0: bba6 b9f1 a697 0ec0 885c 1839 114d f4bf
00000100: 44a0 2ffb c864 24c0 1a31 4637 70ca 0040
00000110: 0019 6951 89b2 bcbf 0e3f 1581 e4b4 2c40
00000120: 9815 339b 1173 fcbf 0c98 d65a ea01 2440
00000130: 1a6f 4085 3cb2 09c0 a407 a382 6b3f 2a40
00000140: f4d2 9bd5 da2e 2840 f022 5709 c809 cabf
00000150: 1e58 e139 58ab dc3f da08 491a 4e04 07c0
00000160: d7ce bdf1 252b 2ec0 6a54 3774 8ae8 2e40
00000170: 0d08 ae20 a314 04c0 365d 4ed9 a105 2340
00000180: 86d6 26cc 91ea 1140 3ad0 2120 74da 0bc0
00000190: d30b 3d46 25f6 05c0 c099 c670 b6a5 1440
000001a0: ec2f 99c1 80e7 08c0 7195 5ef1 0e38 1f40
000001b0: 6d2e c7b4 bf11 24c0 cf58 51b6 88dc 3140
000001c0: 7785 9fb0 bfc6 31c0 3611 b4ef b9dc 08c0
000001d0: 1dce 5d83 6848 0dc0 bc29 6af6 933c c83f
000001e0: a56c 638f 2ffe 2240 dec6 89c4 f285 1bc0
000001f0: 24e9 85f5 db36 2840 266f ad26 bc1e 3040
00000200: 2ae5 2770 446e 3240 f2fa bb34 6ea3 2140
00000210: af0a 7754 3d08 0040 a011 90f4 c078 0a40
00000220: 7e65 1541 d9d5 f93f b292 fb20 65b4 0c40
00000230: 744c 750f 11be 26c0 2e8f 2025 78e1 0fc0
00000240: d8a0 8fc4 9045 2340 95df feee 4d0f 0ec0
00000250: b9a2 09f0 f5b8 1340 c23f f472 6a98 27c0
00000260: 9459 6c78 1195 3640 d32f d989 8221 17c0
00000270: 9825 1572 7c7e 1040 d78f 9eb6 92ca 2040
00000280: 874e 6fb1 76a3 0340 7c6b 7453 f3a3 0e40
00000290: dbbc d675 163b 0640 9d32 46c7 8a5a fe3f
000002a0: 69c3 29f5 e345 20c0 2c01 79a3 4885 3040
000002b0: 30a9 d700 3980 dd3f a026 ffd3 e3be f43f
000002c0: c09e e855 a2e3 eebf a2a4 710d 8e9c 0740
000002d0: ccd8 913c c6e0 3640 8646 443f f9fd 3140
000002e0: fecd 817e e982 2240 64fd b32d 85fc 1b40
000002f0: 7c86 6a56 6832 1bc0 022f f408 e83d 1a40
00000300: 067f fae3 2d2f 07c0 323d b0a6 560d 24c0
00000310: 3e5a eb60 f810 2040 9637 7235 bf75 3040
00000320: a8e2 aeaf ab97 dc3f c581 9b2d a913 11c0
00000330: 67cd 5ece 787e 20c0 a076 1939 c958 32c0
00000340: 3ca8 0d46 517e fabf d402 f5fd 4987 1ac0
00000350: 22dc 6b55 a7e8 d73f c324 5cce 3046 1b40
00000360: 0357 5aa0 e5ab 11c0 d833 83c9 39f4 02c0
00000370: 0a1b aeb1 ddc7 1640 de36 2c72 ff22 2140
00000380: 96db 2af8 6fe1 10c0 c563 7b77 b1da 18c0
00000390: f9fd fdcd 155a 1440 a4a2 3b1f 0d49 0540
000003a0: 160b 3bab 9944 1dc0 d88c 48bc 69d3 13c0
000003b0: 8b3b 8393 7c19 e33f 4d05 5690 448f f1bf
000003c0: 9882 e221 3f45 f7bf b0c4 0cad fade 0940
000003d0: 282a 4ee1 3d9a 3ec0 8013 57d5 0639 b33f
000003e0: cfa2 41ab ae4d 2cc0 f6c7 a761 2508 0d40
000003f0: fab2 315e a754 f13f 3656 075a bde0 2440
00000400: 1ccf 9b1f 4d4b 0f40 3bf4 606c d440 19c0
00000410: 1234 7220 d4a7 2440 e3de d5db 8922 2fc0
00000420: 2e45 c612 dca7 1140 ce86 56b5 a04c 29c0
00000430: 7c3f 5dd5 4acb 0540 07cb 1f4e ed06 2040
00000440: 72fe 7a16 1044 3ac0 a8c3 8616 4540 24c0
00000450: dba0 02cd 6bf2 fa3f ecca ab1a f686 2940
00000460: 9487 b1c7 3635 2340 3569 1cf5 c588 2ac0
00000470: e141 8423 cb12 2840 eb08 7cc4 142d 0ac0
00000480: 79de dd25 920a 2040 9b82 c7ab 06a8 1040
00000490: 00b8 1125 4585 d8bf 53e8 a9d3 f871 2340
000004a0: 98e2 a0e2 f9c2 cdbf 75f6 720f bef8 1040
000004b0: f7dc 2719 ff24 3240 f8a1 21db 230b 07c0
000004c0: 7633 f520 7806 1040 cdf4 43fb 346e 31c0
000004d0: 5334 9866 45b7 1ec0 bec2 5532 bf21 17c0
000004e0: 5680 876f fc10 29c0 467e 79b3 b887 32c0
000004f0: 4100 74fe 6bbb 2cc0 9491 6666 cfaf 1440
00000500: 3d0c 866e 3dcb 23c0 f007 41ae 404c 0340
00000510: 074e fcc5 75ef 33c0 319e cad4 22cc 18c0
00000520: c079 7fc0 a5ff 1940 f878 688e c0fa 12c0
00000530: 50be 8c96 95be cfbf 5080 679f 3cc4 fb3f
00000540: 7a7d 7ef4 ce49 20c0 4c09 c119 f083 1f40
00000550: c318 6157 0fe8 0cc0 be51 bf33 4544 3bc0
00000560: e61e 3195 d70a 2340 4261 e87f e7ed 1240
00000570: 33d0 2aae 87c5 11c0 6297 65d6 db1d 0440
00000580: 9d0d 22fd 8c49 30c0 d696 1d62 340a 1e40
00000590: 1c47 562f ceb5 13c0 304c e281 84c5 f73f
000005a0: 40a9 faa5 4b13 2b40 2ae3 dbd4 32d7 08c0
000005b0: d63a 58f9 a30b 3340 bc06 c2fb 35fa 1740
000005c0: 038a 6418 f4f5 27c0 a110 a79d 8ac3 30c0
000005d0: 58dc 2e58 955d 24c0 7c94 1a6c 4c3e febf
000005e0: 76fa 9c79 f02b 24c0 a643 d26b 0e9c 0840
000005f0: 00af 2ebd e494 70bf 9177 679a fe7f 0d40
00000600: 5c6e 5afe 4aae 27c0 0a6e 7cc2 3c6c 2540
00000610: 07bd b0b5 ec1b 1fc0 eeb4 7f32 0178 0b40
00000620: 1ad0 0fe7 b057 26c0 2123 cef4 f057 0bc0
00000630: 46ce 7cf6 60a8 32c0 c34b 9901 7abe 04c0
00000640: eacc 8a6b 0622 1140 99ce b6bc f433 2240
00000650: c09a 27e6 7f65 15c0 af03 daa9 7ba8 fb3f
00000660: 4485 2cff 1ef5 2ac0 5003 4beb 6b72 3240
00000670: 9c68 89d5 fd7a f73f 50ea a12e f385 ef3f
00000680: 8418 7498 64b6 1440 3f07 5f98 83db 0ac0
00000690: 40df 38bd 15ab e73f 3b81 5a2b c4ae 1cc0
000006a0: 5eec 58cf 54d6 1740 a59e 0493 6eb9 f83f
000006b0: 45d1 4fc0 509b fabf 2034 d9ec 6548 26c0
000006c0: 58c3 9e45 064a 00c0 660e 7850 bebf f3bf
000006d0: 08a9 dab8 3c90 1a40 4586 ed1f c13b 24c0
000006e0: 4880 9347 166f 00c0 3227 a7f8 0aec 2040
000006f0: 8ed2 fef7 0e3f 34c0 08af d021 1a94 2540
00000700: ea37 7205 7214 25c0 7865 d298 91ba 11c0
00000710: 7917 f409 8b92 1d40 55f1 4a9d 5f44 0d40
00000720: 99b7 3a6d b69a 1040 eae6 3329 2871 f5bf
00000730: a653 7fbf 69ce 2f40 ff6f 4e4a 484f f43f
00000740: faf6 549c 246a 05c0 ed88 c188 4303 04c0
00000750: b6c7 a6d3 1ff1 0540 80bd d9eb bba9 c8bf
00000760: 7188 2898 25a4 1540 fee5 e22a b5d3 3140
00000770: 6577 5797 f5e9 2140 b0bf 3f10 fbbd b63f
00000780: a326 6f3e 475c 2140 9267 56b0 c3c7 38c0
00000790: 7a94 ed6b a221 ec3f 1a6d 6489 1b74 1640
000007a0: a65d 51e7 c26f 17c0 2a9e 14b9 a365 07c0
000007b0: e4db fdee 9013 2440 020c 6473 af4d 26c0
000007c0: a2a8 37c5 5639 1840 44db 4565 4632 2640
000007d0: 8255 684a 8a85 2140 8c67 1195 5187 2ec0
000007e0: b027 0049 28fb 26c0 1073 96b0 41a0 04c0
000007f0: 1faa f465 6eee 23c0 1df6 25a4 6a3c 3a40
7.8230564806313065 -11.846100168274303 7.672259867670029 25.15084816511674 13.854691529113978 -14.031938821600384 7.117735194429696 0.9475541257176656
-4.269233328064566 -8.339678290070731 -1.0884448776882487 -1.7552395376852368 -0.04089886241688534 1.1943125477431746 -7.5184322741038505 6.730192564097667
-3.307847651845313 -6.941815265074604 21.265812762103934 1.9050911378821285 10.761617955173623 -3.852516635295977 14.025231758463487 -6.832758798519316
-13.1979860312146 1.5074462143737428 -1.6178577022635965 -11.656472196401058 3.6116827463276073 -2.712307104329243 -3.8240488896161344 -1.2688152532844317
-10.19684586483357 2.098846847371658 -0.11209924924432713 14.353305848926109 -1.7780929625017503 10.00374111051135 -3.212029496220464 13.123867113495926
12.091513324042786 -0.20342350441048707 0.44795804645889514 -2.877102094034041 -15.084273867053907 15.45418131995594 -2.5100767663107093 9.511000433746272
4.479071798201067 -3.4816668043440844 -2.7451882827167338 5.161828767892473 -3.1130385517953894 7.804744502447066 -10.03466572696126 17.861461062297902
-17.776362456269876 -3.107776520426479 -3.6603555930139593 0.18934869319885006 9.496456604849593 -6.880808897885542 12.107146904560587 16.12005845770104
18.430731782665283 8.819200180002984 2.004023227579942 3.308961783072121 1.614709142906889 3.588083512952232 -11.371223910397227 -3.98509243970502
9.635870115788222 -3.7574728652507 4.9306256776696324 -11.797687141719397 22.582297827198616 -5.782724527245551 4.123521597424222 8.395650584083269
2.4548162328808902 3.830053951254227 2.778851433387542 1.8971050056599446 -8.13650480398947 16.520639626543172 0.46095109064357853 1.2966039925690112
-0.9652873685745007 2.9514428186708566 22.87802485047068 17.992084459465808 9.255687669129653 6.9966017857653675 -6.799226141216078 6.560455455688272
-2.8980367480106706 -10.026051720632129 8.033144978265337 16.45994886435036 0.4467572417884562 -4.269200050941838 -8.247015427658608 -18.34682041999497
-1.6558392273386877 -6.632118194655693 0.3735750517075208 6.818545555471419 -4.417868142618093 -2.369250845257266 5.695181633235515 8.568355148217446
-4.22015369187911 -6.213567606836425 5.087973803164908 2.660669559485841 -7.316992450216977 -4.956458036354171 0.5968611603837969 -1.0974774969220846
-1.4544059108376697 3.233876563980253 -30.602506715377018 0.07508890827655357 -14.151723243486598 3.6289775494888046 1.0831674270113454 10.438944638629533
3.9117681950973644 -6.3133103307891885 10.327790273609967 -15.567458028657205 4.4139254506601855 -12.649663607418372 2.724263827236369 8.013529244786254
-26.26587048056394 -10.125527099562376 1.684184838124614 12.763596375914368 9.603933563634008 -13.267135295599113 12.036706075567908 -3.272012267146342
8.020646270116446 4.164087947895179 -0.3831341611866037 9.722601522913612 -0.23251269880144743 4.242912522689598 18.14451749060842 -2.8804394836081393
4.006317629781611 -17.430495933619387 -7.6789756803892315 -5.7829559197277245 -12.533175931254089 -18.530162064706268 -14.366058303509023 5.171689605722708
-9.896953061927087 2.4122327436061752 -19.93539082917962 -6.19935162054712 6.499655730991833 -4.744875168920991 -0.24800367213309693 1.7354093767862828
-8.14415706676549 7.878845598608972 -3.6133105112558908 -27.266680940827193 9.521176016088656 4.732328413542122 -4.442900391924968 2.514579462981531
-16.2873075683725 7.509965451293928 -4.927544345513322 1.4857220719902777 13.537686526153834 -3.1050774221042916 19.045470794716344 5.994346555440355
-11.980377924225655 -16.763833859717696 -10.182780032844832 -1.8902096007161893 -10.085819054043196 3.0761993812124784 -0.0040482459179818076 3.687497335703434
-11.840415905512764 10.711401059807958 -7.777270163452392 3.4335960335944185 -11.171271534614835 -3.4179400563629234 -18.65772953555122 -2.593006145945283
4.283227615687091 9.101476571383772 -5.349120708625094 1.7286335596875053 -13.478752111611023 18.44695921498652 1.467527231338443 0.985101309851709
5.178118116460727 -3.357184591674837 0.7396343894715542 -7.170670201682067 5.9593078992866975 1.5452714674847041 -1.6629188072375467 -11.141402627481568
-2.0361447753024713 -1.2343123572653893 6.6408566363773005 -10.116707799668015 -2.0542417137039912 8.461021204380447 -20.246322154724616 10.789261872028433
-10.539932413284948 -4.432196033326697 7.393108516238379 3.6583854950423906 4.1510865275467035 -1.340126191089832 15.903150543492142 1.269356050738679
-2.676827641814154 -2.5015936550199656 2.7427364859840635 -0.1926798726667407 5.410299661134659 17.826983147044295 8.956951836993264 0.0888363756819206
8.680231047695377 -24.7803297244023 0.8791057689637818 5.613386294130828 -5.859141935673881 -2.9246286830346166 10.0382151303183 -11.151729207957036
6.055995065233363 11.098193325784116 8.760820698963247 -15.264294298529215 -11.490541726368832 -2.5782502933419735 -9.9656860219157 26.23600221564094

arr_5 f8 [32]
00000000: 30e9 f1c4 cb05 0b40 1240 13aa 09c3 1ac0
00000010: d4df 03ae 2c24 3740 c0fb 2ba2 0d07 27c0
00000020: 3acc 4e7a accc 3340 6c1e 9972 5b58 2540
00000030: 449f 76ba efb1 11c0 075e 475f e1cb 13c0
00000040: 1a05 5a11 7689 1640 58cf 8a91 f53e 10c0
00000050: ba75 9942 dbc5 1740 2428 6c79 548d 26c0
00000060: 2cde 4f8e c00f 31c0 f80f a4de 6ed2 24c0
00000070: 1cce 3e26 4bcc 28c0 ee14 2573 be53 1bc0
00000080: 7060 0007 dfc1 b8bf 8b4f c7c9 930e 03c0
00000090: 1990 8847 fbbb 1e40 a2ff 47a6 0588 ea3f
000000a0: a259 7bbd 6b81 1e40 cef7 f0bc 691e 0bc0
000000b0: f308 2b27 6d35 28c0 6b18 3e89 ad76 1340
000000c0: 62a3 69aa 84ab 2440 a416 722e 572a 1640
000000d0: ff09 790f 7a33 f73f e055 1715 c085 de3f
000000e0: eb78 0bb9 6e15 f2bf 6480 4f77 f00b 2b40
000000f0: 2250 e327 bfea febf 7ce5 471d 2135 28c0
3.3778300653767914 -6.690466554093307 23.141306758829003 -11.513775890225475 19.799506801831946 10.672572690192474 -4.423766053667183 -4.949101914149202
5.6342394553369335 -4.061483644578253 5.943219223610351 -11.276035112812743 -17.061531919955243 -10.411002118613382 -12.399010844389572 -6.831781195772448
-0.09670823975500453 -2.3821178211164287 7.6835757424451225 0.8291042564087443 7.62638755860681 -3.389850116828689 -12.104348396304408 4.865896362700464
10.334996533770838 5.5413481957563455 1.450067577782306 0.47691347179110544 -1.1302325466454544 13.52331898541906 -1.932311206638595 -12.103768267656726

arr_6 f8 [32, 1]
00000000: cad8 6ee0 318e 20c0 60e8 d480 353a e33f
00000010: 1546 01bc d5d5 e3bf 95f1 c761 d328 ee3f
00000020: 2797 4df1 49f9 2140 98ca 8028 d143 19c0
00000030: fcc9 ffe7 039e 23c0 bc2a 97b2 c4eb 2fc0
00000040: 5b81 d709 28a7 15c0 caa8 a9e2 8c52 1640
00000050: 1bad 1690 1e01 14c0 e102 6b5d b506 25c0
00000060: 6a39 9648 a87c cd3f ce7f f9bb bd67 25c0
00000070: 4bf0 219d dbb0 22c0 a856 f6b9 6cec 2dc0
00000080: 07d4 ddc0 23b7 2240 d617 a5e6 d270 0440
00000090: 5ea1 b5b7 2181 1c40 1ebe 02ac 6df4 0840
000000a0: 1a4c fc48 2289 24c0 fff5 b8b4 2723 0040
000000b0: 2005 7704 2c10 1640 27f3 19de e4f8 25c0
000000c0: a1ba 7d16 a676 0440 5cde 730c 59d5 15c0
000000d0: 43e5 c92f 0849 17c0 18f6 8639 8003 21c0
000000e0: c0f6 2375 097e 04c0 f620 de3f 44af f8bf
000000f0: dad4 085c d6af eb3f 24d9 d3de ad2c 11c0
-8.277724278956516 0.6008555904620714 -0.6198528930637531 0.9424836072717421 8.986892262193193 -6.3162275627716085 -9.808623552297824 -15.960485058739657
-5.413238672045135 5.58061556015509 -5.001093150505109 -10.513102454483887 0.23036674064901358 -10.702619432646227 -9.345425520317937 -14.961767016716593
9.357694651678697 2.5550897616512698 7.126105184994541 3.1193498075806607 -10.267839699552542 2.0171655768342585 5.515792913212209 -10.986121121089651
2.557933974945016 -5.458347506115015 -5.821320292184569 -8.50683765194394 -2.5615414764023114 -1.5427896971542032 0.8652145192669665 -4.293632013015927

arr_7 f8 [1]
00000000: 8de8 9542 f3c4 2a40
13.384668427276006
