weights/global_round_23.npz (npz, 129966 bytes, 8 tensors)

arr_0 f8 [43, 128]
000000 04 6c 9e 32 4c 1b 26 c0 83 db 0b 25 5d 31 33 c0
       -11.053315717543235 -19.19282752551545
000010 75 8b fb b5 ce 06 1f c0 ae 55 b6 75 9e d5 38 40
       -7.756647914388727 24.834449154868416
000020 7f 40 4c 71 57 f4 26 40 5a 53 9c 7d 8c 7b 28 40
       11.477229633863542 12.241306233723368
000030 be 56 4c 89 c6 72 26 40 2a fd c6 a9 d5 e6 21 c0
       11.224170961922365 -8.950848870793
000040 88 96 b1 8b 69 11 c8 3f 22 e1 f9 48 14 22 38 c0
       0.18803138085347748 -24.13312202549526
000050 d7 62 58 41 8d 90 33 40 30 81 b5 79 de eb 2b c0
       19.564655384138714 -13.960681727796867
000060 4a 8e 7d a7 2c ff 11 c0 12 3d 17 52 62 9c 22 40
       -4.499193779981917 9.305437627159822
000070 d0 53 11 9d 1a 62 24 c0 a2 51 62 cf 50 e7 13 c0
       -10.191609295239601 -4.975894203544529
000080 5e 9e 5a 13 0d 1a 10 40 d7 aa d2 c1 05 83 31 c0
       4.025440504461214 -17.511806596691567
000090 a2 c3 77 0a 8b 8d 26 40 d6 d4 53 12 23 61 20 c0
       11.276451422805454 -8.189720700009655
0000a0 e9 db 24 38 55 ff 1c 40 b5 81 a0 66 1c 0f 24 40
       7.2493485233780826 10.029513556569194
0000b0 fb aa 0e ae b6 e8 16 40 5c a9 f8 67 bb 27 22 40
       5.727259368558175 9.077601670364565
0000c0 57 19 03 1e 70 90 30 c0 52 43 a2 f7 c1 eb 0c c0
       -16.56421077323588 -3.615116057052014
0000d0 f9 a8 95 41 32 e0 0e 40 c3 35 d3 48 98 6e fc 3f
       3.85947085607506 1.7770006985405054
0000e0 57 d5 1f 41 d9 48 3a c0 32 74 ad 4f 1c c2 21 40
       -26.284565038940254 8.879122247623034
0000f0 27 a7 56 72 ce 71 10 40 26 6e a9 25 10 32 3e 40
       4.11113909391296 30.195558885445415
000100 80 fc a1 a2 49 fa 1b c0 9c 96 7a 31 55 eb 25 c0
       -6.994421521317349 -10.959634348120112
000110 6b 12 ca 6c c8 44 21 40 7d 8f 16 6d 0f 41 30 c0
       8.634341621081338 -16.254141633994994
000120 3b 19 0f 71 d7 e2 19 40 e4 8b a9 a3 20 ae 3a 40
       6.471524969622176 26.680185536282707
000130 ec 7d 58 8a 92 4e ec bf 1c 0e d3 83 8b 38 00 40
       -0.8845913602889914 2.0276098536285314
000140 de 88 4b 5e 47 9e 2f 40 18 9b b0 16 5b ba 1a c0
       15.809138247223412 -6.681988100556531
000150 92 6a bb 77 aa 55 38 c0 0c bb 94 92 b1 02 d8 bf
       -24.33463238072961 -0.37516440691517583
000160 9a 34 91 f1 0a 7f 38 c0 f5 06 c4 d1 d8 40 f2 bf
       -24.4962607364183 -1.140831775090587
000170 00 bb 51 f1 8c 2a 2a c0 6a d5 31 1f fc f3 3d c0
       -13.08310655710875 -29.95306582419054
000180 30 9d 0e da 0b 9c 0d c0 d8 81 b5 3e fe d7 33 40
       -3.701194480486855 19.84372322017029
000190 3f 25 76 8f 7c 83 18 c0 26 c3 00 10 6e c3 2c c0
       -6.128404847703961 -14.381699085324339
0001a0 c8 b4 38 d0 a5 3a 2e c0 43 49 7f 6d ec 45 05 40
       -15.11454630558218 2.659142356345144
0001b0 41 27 e2 7c a9 62 27 c0 21 9d 43 b0 0a 49 34 c0
       -11.69269933949147 -20.285319344050667
0001c0 a9 86 ad 10 64 23 e8 3f e8 00 81 5c bb 2f 04 c0
       0.7543201757182106 -2.523306582152248
0001d0 70 76 b1 e8 2a 63 13 40 09 65 b0 7c 18 ac f5 3f
       4.846843372184239 1.354515540186471
0001e0 98 1e fb 1b ef 7e 06 40 f6 92 fc c2 0d 82 21 40
       2.811979502297458 8.75401124318294
0001f0 a6 5e 5c 0f 91 1f 33 40 9c fa 79 a5 9b 37 27 c0
       19.123307189990236 -11.608609362735756
000200 92 eb 5b 5c ee f8 2c 40 3a 8d 61 e5 52 c4 18 c0
       14.486193548413016 -6.191722473219949
000210 67 45 e3 16 70 15 12 c0 50 8b c6 05 ae a2 04 40
       -4.520935399648216 2.579433484193409
000220 8c 01 a5 f8 23 ad 14 c0 64 92 76 c0 d2 5c 35 c0
       -5.169082531996889 -21.36259081740208
000230 f9 fe 45 3d fd 96 24 c0 e0 ff 31 c2 37 14 00 c0
       -10.294900812906677 -2.009871976042618
000240 db 9d 2c 49 66 09 fe 3f fd ec 96 66 44 e0 2b c0
       1.8772948130007225 -13.938021856235077
000250 ad cc 70 07 1e 3a 14 40 89 48 b2 d4 e2 a5 2a c0
       5.056755176791893 -13.323996207011321
000260 8a a6 37 d3 05 26 30 40 7e 1e 27 81 4a 6b 39 40
       16.148526383482512 25.41910559849793
000270 f3 b8 bc 44 d1 15 37 40 1a ab 4a b2 f7 a5 18 40
       23.08522443397028 6.162077699477573
000280 f0 38 c6 ba d1 c0 39 c0 b6 09 2e 82 be 52 30 40
       -25.753200219530243 16.323219429244737
000290 6e 32 5e c9 28 8d 22 c0 64 0a b6 29 43 9b 39 40
       -9.275701802014023 25.60649357504225
0002a0 60 a1 57 3d 03 12 28 40 67 90 cb 7a 75 be 08 40
       12.035180966326777 3.092997512185366
0002b0 2f dd b3 89 df 51 1b c0 bc 25 13 ba 4b e8 32 40
       -6.829954291918781 18.907405500101717
0002c0 90 2c 77 31 dd 3f 39 c0 7f 00 b0 f0 bd 19 2c 40
       -25.249468890757782 14.050277253613102
0002d0 e8 99 b8 7a 0c 76 22 40 4b 47 27 62 d1 0d 13 40
       9.230563960108114 4.7634940468286215
0002e0 40 ea 46 91 a9 b3 25 40 7b 1b aa c7 bc fe 14 c0
       10.850903072268125 -5.248767013318566
0002f0 9c 62 1a 0f 2f 50 35 c0 00 0a 1b 01 83 f7 f5 3f
       -21.31321806329889 1.3729276698292097
000300 19 7b a5 17 31 4a 33 40 74 c0 61 c7 ec 90 28 40
       19.289811590099905 12.283056479151334
000310 12 ca 49 81 11 94 17 c0 27 8f 6d f0 fc c3 f6 bf
       -5.894598026398414 -1.422848643466702
000320 96 34 58 19 46 0a 17 c0 ba 80 81 dd f5 ea 18 40
       -5.760033031471854 6.229453526524759
000330 8d f6 38 ff e6 75 22 40 57 24 64 7d c9 5a f0 3f
       9.230277991965773 1.0221648119061422
000340 12 8f 69 b2 0b 22 36 40 31 2f ff 47 f8 01 2e 40
       22.132990980883797 15.003847360516007
000350 3c 04 77 a5 8e 6a eb bf a0 65 8a 5e a9 f3 d9 3f
       -0.8567574722038738 0.40549692375642543
000360 37 f8 a0 a7 9f 79 32 c0 ec 46 0f 13 a7 96 d2 bf
       -18.475092388915268 -0.2904451070909164
000370 08 f6 3e ad c1 7b bd 3f 19 e1 5a f1 bd 4b 3c 40
       0.11516962508809325 28.295867047011686
000380 b1 df 6b b5 53 49 f2 bf 1c b3 4f de a4 ca 0d 40
       -1.142902096440576 3.7239472740242388
000390 69 52 e4 83 0b d9 25 c0 03 32 80 fc 9f 2b f7 3f
       -10.923915979024246 1.4481506217299518
0003a0 72 09 87 1e b3 46 2a c0 11 ef 3d 6b 22 b0 23 40
       -13.138085321411129 9.844012595472607
0003b0 c5 e8 70 6a 52 ae 1a 40 6a 88 2c 39 14 24 33 c0
       6.6702362662710515 -19.14093358361462
0003c0 d8 39 a6 cc 23 7e ed bf a5 94 42 27 da 79 21 c0
       -0.9216479298646005 -8.737992503049393
0003d0 60 96 ae 19 2b 7e 2d 40 9d f3 10 70 21 2e 0a c0
       14.746422579347552 -3.2725247149632666
0003e0 6b f2 2e 32 b3 f8 1a 40 c3 6c dd 4e 8b 0e 26 c0
       6.742871078601278 -11.028406586198235
0003f0 e9 91 60 14 00 38 28 40 a5 ce b2 a5 2f 6c 06 c0
       12.109375607288671 -2.8028252549355153
000400 61 f6 c1 f5 c3 c0 1a c0 97 0c 60 a2 c6 ca 31 40
       -6.688247528041388 17.79209341855002
000410 a1 e0 e3 82 53 87 1e c0 32 00 b4 e1 98 09 14 c0
       -7.632154507788216 -5.009372259723067
000420 10 7b d2 9b a5 54 11 40 3e 94 a5 a7 70 9d 23 c0
       4.332662996980403 -9.80750011345128
000430 c3 c5 84 70 23 39 0b c0 29 30 e2 af 0e e0 f3 bf
       -3.402899626781364 -1.2422015066577023
000440 88 76 28 45 04 ac 0d 40 64 63 3c 6a d4 ac 14 40
       3.708992519662221 5.1687790488584575
000450 ea dc 3b fa c7 90 33 c0 94 ba aa 8c 0f 9c d0 bf
       -19.56555141412256 -0.2595251916599548
000460 dd 3e 13 2a 95 ce 01 40 bc 00 9f 60 69 76 30 c0
       2.2258704459307936 -16.4625454319182
000470 19 8d 38 f7 4a a7 2e 40 01 62 eb d5 49 a2 10 40
       15.326743817952364 4.158484785548809
000480 27 4a 0e c4 f3 8a 40 40 eb 60 c4 bd 3c 00 0a 40
       33.08556414315927 3.2501158547930706
000490 72 ef d3 8a 34 6e 30 40 82 d9 8e ed ef f9 2e c0
       16.43048923181727 -15.488158630073261
0004a0 4e a1 1b da 9d ce d5 bf e6 51 9f 4e 13 6c 44 40
       -0.3407358770332579 40.84433920649808
0004b0 c4 37 f4 79 72 7e 2c c0 28 2c e4 0c 61 3a f4 bf
       -14.24696713548827 -1.2642527106825217
0004c0 25 d2 67 87 85 bf 16 40 e2 09 41 c0 36 12 1c c0
       5.68703280993626 -7.017786983461038
0004d0 42 ee 7d cb 76 15 39 c0 fa 09 07 fb 1a 2e 20 c0
       -25.08384391617279 -8.090049595460176
0004e0 f2 ed dc 02 ad 99 41 40 00 55 3c 5a 65 1c 20 40
       35.20059238231251 8.055460758080244
0004f0 33 f7 90 b3 45 6f 33 c0 c4 af ee 09 20 60 fd 3f
       -19.434657309429166 1.8359680545790846
000500 00 dd 32 3a e0 51 25 c0 dc 26 8c f5 8c 68 fe bf
       -10.659913843830964 -1.900525054139897
000510 90 64 69 43 b1 cb 23 c0 5d 2e c0 03 f5 6c 21 c0
       -9.89783678685697 -8.712806813439949
000520 08 63 1a 51 f2 9c 31 40 8b dc 3c cb 0c 96 ec bf
       17.613072461073017 -0.8933166474806894
000530 f5 79 32 96 f5 0b 24 40 04 6f bd c0 f2 c7 21 c0
       10.02335805288474 -8.89052393257544
000540 e8 be 17 de c0 70 fe 3f aa 6d 3f a3 26 db 31 c0
       1.902527682828742 -17.856058314309543
000550 b4 96 34 26 35 eb 17 40 8a c1 85 17 f4 2b e4 bf
       5.979694935760268 -0.6303654155181431
000560 c4 48 03 1d 2a ea 27 c0 c7 31 79 42 b1 48 33 40
       -11.957352549219998 19.283954767788398
000570 dd 48 6a e1 12 8e f5 3f 06 62 c0 20 04 b1 2b 40
       1.3471859746246573 13.845734618648759
000580 4b 9d ef 18 3f e8 2a 40 51 7f 43 43 8b 94 1a 40
       13.453606395005997 6.6450624952265835
000590 9a c9 4a 74 1e 11 2a 40 d0 84 51 a1 ac c1 23 c0
       13.033435472611746 -9.878270188523317
0005a0 c2 bd ca 97 e4 76 2c c0 7c e9 2f 70 e4 58 43 c0
       -14.232212775705992 -38.694471381563716
0005b0 d6 af 7d 32 85 58 1c c0 c1 53 6e 2a be f7 0b 40
       -7.086445607110326 3.4959681811255625
0005c0 1c a8 b4 79 ec ad 2d c0 fc ec 7e 67 f6 c1 21 40
       -14.83969478922159 8.878833040469992
0005d0 7b d7 95 68 52 9a 0a 40 a0 89 aa 46 8e a7 dd 3f
       3.3253524943092407 0.4633517923449748
0005e0 1f 22 ab 36 2e 37 09 40 56 1d de ee dc e6 2f 40
       3.1519436140990957 15.950904335607145
0005f0 57 61 87 e6 4b c8 27 c0 0c 19 55 01 be af 25 c0
       -11.891204074884326 -10.843246499669952
000600 66 fd 7a ea a7 a9 16 c0 26 46 59 6a 7c 6f 31 c0
       -5.6656796109740295 -17.435492178721823
000610 b3 0f b8 48 42 8c 0e 40 14 ed 16 de 5c cd 04 40
       3.818485801808458 2.600274787020348
000620 a3 b0 b8 38 02 1d 31 40 60 80 78 ef 02 2a 2c 40
       17.11331514843972 14.08205364557233
000630 97 71 17 aa da ac 0e 40 ae a7 b1 00 36 5d 34 c0
       3.8344014442829564 -20.364105265972903
000640 8c 1d 79 b9 90 bf 0f c0 98 cc 41 a4 c7 b3 31 40
       -3.968537758835458 17.70226503950525
000650 bb 09 4e 99 35 66 fc bf 77 1b 8f b7 d2 c7 fb 3f
       -1.7749534595937877 1.736284939792055
000660 81 96 b6 29 fa 44 07 c0 9b f1 36 a4 cb 8d 13 c0
       -2.908680272946015 -4.888472143033506
000670 48 40 37 02 2b 6b 11 c0 b5 3a 31 b7 ed 54 3b 40
       -4.3546562525007815 27.3317522521199
000680 56 f0 06 e1 7d 0d 19 40 fe 33 8c 17 b3 0b 31 c0
       6.263175502823364 -17.045701476792594
000690 79 86 18 c1 f8 a0 35 c0 01 c1 b0 01 f9 01 f3 bf
       -21.62879568909418 -1.1879816118271835
0006a0 a6 94 63 82 78 4f 2d c0 5e 30 81 42 0e a1 25 c0
       -14.655216288238375 -10.814561918516286
0006b0 aa f9 0b 2c 33 f6 0b c0 24 e0 30 46 bc ff 28 c0
       -3.4952147904543454 -12.499483293024305
0006c0 de 35 6d da f2 af 19 c0 d8 5d 14 35 41 12 e6 3f
       -6.4218248490483045 0.6897283589086625
0006d0 50 69 db c2 92 b4 29 c0 51 f5 35 87 c0 de de bf
       -12.852682198794952 -0.4823457069795341
0006e0 17 e4 71 cc 9e 3f 2d c0 10 55 44 e2 7d f6 24 c0
       -14.62425841226836 -10.48142916759619
0006f0 ac 07 62 79 c1 c4 37 c0 5f b5 5f 1c 49 45 22 40
       -23.76857718127546 9.135323416407742
000700 15 0d bc bd c8 85 f1 3f fa fe d8 17 44 1d 2f 40
       1.0951621448046513 15.5571601345432
000710 96 c2 16 04 e1 87 34 c0 8a aa 15 97 6b 8e 2d 40
       -20.53077722125689 14.778164597887798
000720 42 ad d3 69 e3 80 3e c0 ac f8 cc 01 43 8d 26 40
       -30.503470052889732 11.275901848097725
000730 dc 52 6e 1b c2 e8 01 c0 ca 9e 01 63 cd 48 f6 bf
       -2.238651480011283 -1.3927739970621809
000740 81 5a b9 f3 fb b6 e2 bf fe 64 c2 3c 44 67 f4 3f
       -0.5848369369731047 1.2752115605747458
000750 9e f6 a3 93 97 6b ea 3f 7e ec a1 a8 ab 02 25 c0
       0.825633800850216 -10.505215902105416
000760 ac 08 45 ed bf 54 f2 3f 72 e3 a0 c0 22 55 24 40
       1.1456908481928094 10.166280765189843
000770 ff 21 71 78 51 cf 1b c0 c2 4e 90 e7 85 cf 22 c0
       -6.952459222703054 -9.405318485608749
000780 e6 c3 f7 a3 34 3b 12 c0 d0 50 f0 01 56 1a ce 3f
       -4.5578179950689215 0.23517870993294432
000790 25 24 06 08 2e 53 34 c0 30 ad 9b b0 2d 4b 1e c0
       -20.32492113256389 -7.573416480542889
0007a0 5a ef 2e 4e 86 8c 28 c0 e7 d5 43 ab b4 68 02 40
       -12.274462168912283 2.301125848777463
0007b0 10 89 92 6a af 7d f6 3f f3 18 04 bf 0e e6 ee bf
       1.4056848681435135 -0.9655832033902513
0007c0 38 ce 52 9b 1c 4b 29 40 a8 7b 84 3d 31 23 33 c0
       12.646702627046679 -19.137470097393503
0007d0 18 fb a4 52 43 c6 d5 bf 86 92 04 bb 39 69 10 c0
       -0.3402260119509477 -4.10275928702743
0007e0 c2 a1 8a 3c f6 9b 35 c0 34 a8 0f 0f 66 59 11 c0
       -21.609226020665808 -4.3373033860498715
0007f0 da 07 44 f2 b2 70 e0 3f aa aa 1b 27 34 c3 1c 40
       0.5137572032692745 7.19062863451351

arr_1 f8 [128]
000000 6e d0 6a 20 60 22 33 40 81 23 58 cf ea 5f f2 3f
       19.134279275968247 1.1484172915827175
000010 02 19 40 52 b0 c0 23 c0 c8 97 b8 c2 ce 89 15 c0
       -9.876345224689889 -5.384577791706711
000020 86 e8 a8 90 b0 85 0a 40 5a 45 07 40 99 88 ef 3f
       3.3152781774088593 0.9854246378473974
000030 1f eb dc 17 06 9f 11 40 80 de 17 d8 56 fc 12 c0
       4.405296681269447 -4.7464250340050285
000040 89 36 ac da 93 de 20 40 82 07 70 2d df c0 0a 40
       8.43472178795061 3.3441756772817266
000050 cd ec a8 9e 88 e6 2a 40 54 34 52 6f a7 5c 02 40
       13.450261076088646 2.295241231628589
000060 63 88 26 a7 62 72 25 c0 78 6b 73 cd a6 4f 33 40
       -10.723408912137705 19.31113895480982
000070 aa 12 1a e9 66 ad 28 40 8c d7 b7 98 e1 b1 04 40
       12.33867577021859 2.5868560725311394
000080 bc ef b1 42 a3 01 22 40 6d 4c 80 3b 48 2f 0d 40
       9.003198703976402 3.6480869911697966
000090 a4 d2 b1 2d 54 e4 36 40 48 e8 54 c4 a1 df 38 40
       22.891909461892865 24.87356211731847
0000a0 82 66 f8 8e 20 6c 12 c0 ac e6 38 c5 80 dd 18 c0
       -4.605592950736197 -6.216311532590833
0000b0 be 91 96 81 11 9f 17 c0 1c a2 cc 0e 82 d7 17 c0
       -5.905340218367597 -5.96045706867201
0000c0 b4 b0 61 b6 7c 51 10 c0 92 d0 a9 4d c5 ae 1e 40
       -4.0795773026585955 7.670674527635258
0000d0 25 45 03 6c f4 01 fd 3f 2e 90 60 ff 42 53 1c 40
       1.8129772395371415 7.081310262936354
0000e0 53 02 8a 6b 13 09 22 c0 18 f0 f8 07 d1 f9 30 c0
       -9.01772628841096 -16.97584581210694
0000f0 68 80 d3 38 cc 8d 2c 40 54 80 2b a8 c2 a7 25 40
       14.276948715036454 10.82765698939344
000100 f9 b8 8f ac 1a 09 32 40 6c d5 44 38 c4 fa f1 bf
       18.03556326397754 -1.1237222860339342
000110 ce d4 ef 40 54 ce 31 c0 dd 01 98 f6 95 e5 30 40
       -17.805973108818584 16.89681950770488
000120 42 2c 48 3b ff 58 17 40 06 5f 12 55 56 ec 2e c0
       5.8369111311722595 -15.461596163265778
000130 f0 56 2c dd be f0 1b c0 44 55 42 a6 f0 b8 11 c0
       -6.985103088217997 -4.430605504797601
000140 fb a3 ae 79 61 1d 28 40 fc 8d 38 1c 4c 5b 22 40
       12.057384302681376 9.178315050033227
000150 b1 e8 df 35 d7 e9 30 c0 9a 98 c0 2d 17 a9 e6 bf
       -16.913440100827476 -0.7081409352874914
000160 cc 9a 3e a8 00 b4 11 c0 f9 ab 96 19 13 76 34 40
       -4.425783757039152 20.46122894218931
000170 ef fb 61 ad 30 52 34 c0 9e 5c 98 60 67 c6 31 c0
       -20.32105525629225 -17.77501491279383
000180 37 32 34 ad d1 f0 28 c0 13 78 f6 9c c8 02 1e c0
       -12.470349705335236 -7.5027184033806575
000190 f9 34 9f 97 f0 77 31 c0 66 f9 ad 6e be 71 27 c0
       -17.46851489674461 -11.722156008469664
0001a0 15 ad 5a 1c 4c b5 26 40 bf de 93 43 0c f0 17 c0
       11.35409630400549 -5.98442178335216
0001b0 72 2b 51 9b 16 bd 38 c0 7b 49 08 8b 0e 82 1d c0
       -24.73862620097811 -7.3770086025054935
0001c0 16 d3 cb 7d 30 30 32 40 47 ed 42 df 04 bd 13 c0
       18.1882399199122 -4.934588898143665
0001d0 6c 27 d2 97 2f 07 18 40 d9 79 64 6b 7c 0a 08 40
       6.007017490579397 3.005120123866828
0001e0 59 2b ab 3b 0c e5 1a 40 d4 30 8c bb e7 8a 2b 40
       6.723679477999064 13.771299229491355
0001f0 3b 45 d8 6b 92 ac 27 40 02 b0 9c 7b d4 40 06 c0
       11.83705460562725 -2.781655278891777
000200 74 50 03 08 d2 af 0c 40 96 c4 8d 9b 46 dc 23 c0
       3.5858498216639934 -9.930226193481115
000210 98 2e ec 80 bc 53 c2 3f 73 2f df 5e 3e fd 14 40
       0.1431804303650679 5.247308237430718
000220 4e 23 16 99 8d ef 32 40 0e 6b 2f c1 03 06 01 40
       18.935754363922847 2.1279368488880044
000230 67 b3 22 72 68 fc 30 40 1a 22 f1 ba cb f0 2d 40
       16.98596871707141 14.970304338393408
000240 9e 9f 88 39 3e 6b 0b 40 cd 9c 32 2b e1 06 2e 40
       3.4273647780245957 15.013436651161465
000250 70 8b 2b da 17 da 24 40 b8 fd c1 77 56 48 21 c0
       10.425963228049767 -8.641284696989587
000260 f8 cf 9b 07 14 79 30 40 72 41 e3 ba bc 92 34 40
       16.47296187929166 20.573192291719756
000270 19 7a f9 33 d6 46 24 40 f6 96 43 c8 e0 eb 34 c0
       10.138352989391068 -20.921398655415906
000280 a8 d5 b6 44 ed c0 12 c0 f5 97 70 46 77 bb f9 3f
       -4.688405107173288 1.6082680465274255
000290 9b d9 f4 e6 b6 de 0b c0 b5 58 8b 55 4e 33 20 40
       -3.4837472957107827 8.10020701719291
0002a0 49 ca 13 9a 5b d4 1e c0 0a e9 ca 10 10 fe 25 40
       -7.707380683381936 10.996216320771527
0002b0 32 79 5f 11 76 17 19 c0 de 0e a8 79 b7 69 2e 40
       -6.2729113306543685 15.206477929844763
0002c0 49 be 2e 33 c1 b1 df 3f 68 65 01 5f f4 5c 27 c0
       0.49522428510951905 -11.681551903648781
0002d0 09 32 9f d1 d9 60 28 c0 f5 3f 34 ca 69 8a 2b 40
       -12.18916182583145 13.770338362577585
0002e0 1d 4f 2e 62 0d 23 1f c0 45 15 25 d0 89 41 32 40
       -7.784230741573791 18.256009110501754
0002f0 54 e0 03 17 42 99 2a 40 70 d2 78 51 f7 1f 2c c0
       13.299332350943736 -14.062433763502867
000300 00 06 32 9c bd 15 13 c0 a0 0b c2 e0 40 00 13 40
       -4.771231117776097 4.750247489780037
000310 8c 9b 62 8b c2 ca 1f c0 bb 2b 1b 44 66 9c 39 c0
       -7.948007753270655 -25.61093545592642
000320 5c e4 64 78 31 43 f6 3f c4 52 8f 4c 79 71 1a 40
       1.391404600419512 6.610814281699906
000330 90 09 1b b2 75 9c f9 3f 6c e9 05 1e 38 24 37 40
       1.600698180890138 23.141481281703292
000340 a4 bd b2 ec d3 7b 33 c0 2e 91 11 d4 f6 4b 01 c0
       -19.483702462804686 -2.1620918815480286
000350 08 22 0a 76 25 6e 1a 40 2c 1c fb b2 2b 8f cd 3f
       6.607564777725663 0.23093172301580134
000360 b0 62 22 ff 83 2d 3b c0 48 04 97 84 01 b6 ee bf
       -27.177795358557603 -0.9597175206801092
000370 1f 0a c2 4d 75 60 22 40 4e 4d 81 25 a4 bd 1a 40
       9.188394956528155 6.685196481720892
000380 8b 5d 3c f9 60 18 2d 40 14 16 5c 76 73 fa 10 c0
       14.547614849680732 -4.2445810788826925
000390 56 b8 11 b6 cb 62 26 c0 3c 31 3b 3a f4 bc 39 40
       -11.192960443175405 25.738101615382433
0003a0 d2 c3 4f 3f 50 34 20 c0 b4 a6 dd 27 cc 3f 1f c0
       -8.10217473839467 -7.812302229789271
0003b0 75 97 61 1e af ec 33 40 77 2d b1 28 1b 9b 25 40
       19.924547098947603 10.802941581371426
0003c0 d0 4f ca 31 b7 06 2d c0 38 f2 f8 ac 7b d1 0e 40
       -14.513116413065205 3.8522866738769856
0003d0 6d 73 df 14 9a e1 15 40 cc 24 ce 0f 19 21 10 c0
       5.470314336908683 -4.032322165448203
0003e0 7e a3 70 b5 5f 75 11 40 c8 6b 89 4d 8d 82 2c 40
       4.364622912406842 14.254984305405642
0003f0 58 60 4b b3 b8 ed 12 40 46 3c ab ad 25 cb 31 40
       4.732149888492209 17.793543676667717

arr_2 f8 [128, 64]
000000 a6 e3 98 2f 0c a0 2b c0 a4 2b 99 8d ba 95 0a 40
       -13.812592971242179 3.3231097280854147
000010 08 bb 03 04 d9 80 3d 40 de e1 ee cf 5a e0 2c c0
       29.503311396513737 -14.438192842398106
000020 d7 32 0e 8c 93 ff 10 40 9e 9e 6e d5 1f 0d 31 c0
       4.249586284987081 -17.051266994005907
000030 ae 26 e1 31 bf 1a 27 c0 b6 98 66 c6 51 1a 38 c0
       -11.552239950880303 -24.102810287521343
000040 1e 52 89 75 74 25 f6 3f 86 ea e1 f2 09 04 31 c0
       1.3841442672029483 -17.01577680602579
000050 62 b8 d2 8e e1 88 10 c0 e0 f6 ae 5d 31 28 19 c0
       -4.133672935115188 -6.2892508161582725
000060 9c 83 c6 b6 65 b8 ec 3f 87 88 8d fc 6c ed 33 c0
       0.8975094384987758 -19.927444252542525
000070 14 ff ea 32 9e a8 1b c0 14 af 84 89 75 1d 39 40
       -6.914665980904619 25.115074725049524
000080 b7 ec c5 0f 03 a2 0a 40 b2 ce fd a6 6e b4 29 40
       3.3291074020649734 12.852406710131024
000090 88 14 3b c9 a6 d1 d7 3f af 7a ed 24 83 3f 30 40
       0.3721711125511509 16.248094852426842
0000a0 a0 63 c6 6a 02 03 b0 3f 56 01 38 17 45 24 28 40
       0.06254592043695917 12.070839620195937
0000b0 ce a8 24 7d 76 c0 09 40 a0 f9 ba 5b 4f e7 f0 3f
       3.2189759995281753 1.056472166368259
0000c0 94 1d 8e 6f 84 c7 31 40 14 06 14 a1 b9 01 24 c0
       17.779364559360673 -10.003369363493256
0000d0 1a 7f 0e 5a 31 49 2a 40 40 66 87 49 ef 1d 24 40
       13.14295464922866 10.05846624162507
0000e0 4d 8c e5 0e 82 fd 25 40 10 cd 78 85 96 55 29 40
       10.995132890244486 12.667164011951655
0000f0 86 3c f9 5d db 5a f3 bf 45 b6 c3 0c 72 cd 24 40
       -1.209681861004158 10.401260756388305
000100 34 61 81 2e 91 5a 18 40 e8 cf 5d c7 62 a4 28 40
       6.08844444908782 12.321066122247387
000110 d3 90 89 f5 5b b7 36 40 98 d7 30 fe ee 52 b0 bf
       22.716246934972173 -0.06376546579198672
000120 2f 4d ad 47 1f 10 28 40 db e1 21 a4 35 44 0a 40
       12.031488647370308 3.28330543735886
000130 77 b3 e9 07 bf 85 35 c0 a6 70 cb f0 cc d0 16 c0
       -21.522446150356213 -5.7039067863626425
000140 4e 74 c0 df e7 dc 39 c0 2e 20 d7 62 5a c5 26 c0
       -25.862913116918484 -11.385455216179334
000150 ce 86 b7 7c 25 f5 1d c0 7e ab 0a 77 02 77 17 40
       -7.489400814725469 5.866220340753783
000160 73 40 c2 bb 40 c2 02 40 71 e7 67 af 8f 78 23 40
       2.3448500317245418 9.735471230920412
000170 34 34 b3 71 4d b8 32 c0 5a ce 00 7a 51 79 2b 40
       -18.719931703806836 13.7369497419342
000180 bb 0c db b3 c6 a1 06 40 7a 91 4d 45 4d 45 09 40
       2.82899227630841 3.1588387884423215
000190 b6 ae 56 0a 2b 5b 32 c0 7c 58 1f ec a8 f8 30 c0
       -18.35612549415847 -16.971327550556893
0001a0 92 1e db 11 ef 1e 19 40 1b d6 6c 4f 21 12 1a c0
       6.280208853720653 -6.517705193536609
0001b0 05 4d 9b 96 9c 8f 1d 40 9c f6 7f 2e ef d6 31 40
       7.390245774487316 17.83958712219338
0001c0 d0 64 3b 5b 60 50 17 c0 2c 13 f1 83 20 80 0f 40
       -5.828492570400343 3.937562018198511
0001d0 b1 ed 90 4a 9f 90 31 40 25 f1 d6 fe b8 d6 3d 40
       17.564930591948443 29.83876030681235
0001e0 40 09 5a c0 41 6d db 3f 3e 07 94 c2 d0 7b 30 c0
       0.42854350838037547 -16.48365417589161
0001f0 50 57 c7 e8 60 e1 22 c0 84 1c 48 f4 a1 ff 18 c0
       -9.440192484220148 -6.249641243840532
000200 66 e3 05 a7 77 6a 33 40 87 be b2 1d 6c 45 31 c0
       19.415888251245086 -17.271180969370587
000210 66 7a a0 32 e1 5b 28 c0 d6 58 eb ce 18 e0 29 40
       -12.179452497567762 12.93768927214516
000220 c4 0e 77 95 db f4 1a c0 b4 cb 37 10 d6 11 40 c0
       -6.739118895904259 -32.13934519504929
000230 b0 1b 14 96 a8 ba 16 c0 fa b0 f8 f9 0b 17 36 40
       -5.682283730485253 22.090026496139195
000240 5a 3f 09 6c 81 84 e4 3f 1c 1f 26 7d 21 f5 10 c0
       0.6411749944763685 -4.239385562373879
000250 e1 78 50 2d 27 70 18 c0 08 07 b0 f3 ea 1c 28 40
       -6.109524448429711 12.056480040776947
000260 2e 46 d3 2d cf b1 15 c0 a2 d6 b9 9d 59 b6 2e 40
       -5.423641887684012 15.356152466712334
000270 d8 d6 8e c3 90 4d 18 40 cb a0 4a b4 30 0f 28 c0
       6.0757475429470205 -12.029668459043384
000280 3c fc 75 da f0 4d 36 c0 40 84 2b 65 2b 4e 23 40
       -22.304456380658152 9.652674829065404
000290 12 28 fb cb 1a 97 36 c0 98 8f ac e0 e5 b5 1e 40
       -22.59025263673545 7.677634726078303
0002a0 7b 27 f9 89 9e 04 21 c0 1a f6 e2 b9 68 3c 3d 40
       -8.509022056259473 29.235972993765337
0002b0 94 a8 66 5d 90 c9 34 40 aa 85 be 7a 66 6b 24 40
       20.78735908275901 10.209766231305213
0002c0 ba 8a 25 9d f7 dd 30 40 2c d9 32 30 5a 5f 32 40
       16.867059537568572 18.372469913877623
0002d0 b8 cd 3b be fd 3a 09 40 3c 18 f0 41 7f 7b 17 c0
       3.1538042890549285 -5.870602636603561
0002e0 93 81 42 f9 c4 6f 1a c0 85 f9 84 c2 4a 49 18 40
       -6.609149832424367 6.071574248663073
0002f0 85 11 10 d1 fa 1b 32 c0 b8 81 f0 11 dd 9d 38 c0
       -18.109295908377607 -24.616654511659107
000300 66 58 6a b3 5d ee 1c 40 dd 01 dd 2d db 5a 24 c0
       7.232779315343668 -10.177453454235485
000310 6e 17 47 1e 8c 00 30 c0 59 f2 e6 57 aa ea 2c c0
       -16.002138035160378 -14.458330866758091
000320 7c 40 27 4e 27 68 ea bf 9e 16 4c 81 2c 22 28 c0
       -0.8252140547210867 -12.066745796716813
000330 0c e2 2b 01 a3 8c ee bf e2 72 37 62 7e 95 0f c0
       -0.9546675703887231 -3.947994963948404
000340 43 41 7a d1 a6 03 11 c0 18 a2 fd 4a d9 99 a8 bf
       -4.253566048704957 -0.04804877319731221
000350 7a 2a 07 79 05 8f 3a 40 76 4f 72 ac d8 29 45 40
       26.558677257775777 42.32692485410273
000360 01 a9 fc dc 9a 21 21 40 4a 84 91 3d 8b 1a 30 40
       8.565634637682253 16.10368714144378
000370 32 ee 1b a1 a9 fc 2d c0 84 45 c3 71 9a cf 08 40
       -14.993481669101218 3.1013687980382105
000380 1b 59 58 d1 6a e3 25 40 62 51 95 e0 79 f9 35 40
       10.94417432979076 21.974515949682775
000390 6a f1 45 d2 d6 ba 23 40 2a d0 de 39 65 ec d6 bf
       9.864920207059829 -0.3581784310474655
0003a0 d8 1c 51 23 79 16 f7 3f 16 ad 45 a3 29 f4 29 40
       1.4429866199077903 12.976880171065698
0003b0 aa fa 02 44 0e a2 15 40 85 c0 c0 dc f2 3c 18 40
       5.40825754421409 6.059520196213389
0003c0 92 f5 7a bf 2b 29 33 c0 4b 7d c3 c9 9b ef 1a c0
       -19.160823791045523 -6.733992722088554
0003d0 b6 1a 22 bc 2b cd 11 40 0f 39 8d 73 4a 95 21 40
       4.45036214788586 8.791583643902895
0003e0 fa fc 99 82 0f ac 13 40 20 bd e6 68 74 b2 0e 40
       4.918027916573232 3.8371360965171704
0003f0 5f 01 61 a0 de d2 df bf 19 a6 91 20 1d 10 19 c0
       -0.4972454611015759 -6.265736111535738
000400 eb 2c d9 d7 af 60 24 40 e4 82 33 b3 88 e8 21 40
       10.188841576824833 8.954167938268661
000410 d0 4c 3a 85 fe 66 30 40 2e b7 19 c6 6f 76 18 c0
       16.402321173413668 -6.1156607583232425
000420 b9 99 06 77 bf b7 fd bf b8 6f 07 60 1c 03 14 40
       -1.8573603295750287 5.003037929967768
000430 f6 20 c1 19 52 2a 34 c0 dc 9b 70 42 2d 08 00 c0
       -20.165315255785536 -2.003992575704144
000440 5d a2 f7 04 e2 c8 2a c0 3c da 29 65 9a 51 38 40
       -13.39234939120177 24.318762133329287
000450 a4 86 bb 57 36 13 15 c0 4e 05 ba 03 36 7a 3a c0
       -5.268761988468814 -26.477386696734634
000460 a6 e0 ac e3 e3 eb 1a c0 93 07 f6 85 81 25 15 40
       -6.730361516405685 5.286626904622511
000470 50 a3 b8 e5 9a 0f 21 40 91 fe c0 32 02 0a 22 40
       8.530478647984324 9.019548021372687
000480 60 f9 76 6b fb 30 1c 40 fa 8f a0 5b e0 8d 30 c0
       7.047834090363125 -16.554204680156523
000490 16 03 f6 9d 64 50 2c c0 72 82 4a 1b d4 27 ef 3f
       -14.157017647057312 0.9736118824985864
0004a0 8e d5 d4 b8 02 c1 10 40 c4 b2 d5 a6 ae ba 28 40
       4.188486946096772 12.36461373671171
0004b0 58 49 73 12 0f 3b 33 c0 d0 fd 52 c1 8c e0 3c c0
       -19.230698731561773 -28.877147753488146
0004c0 2c 97 ce 5e 28 00 37 c0 d0 0b 9f 1d 8e ac 2f c0
       -23.00061600249971 -15.837021756806195
0004d0 fa 13 ff d6 27 74 02 40 77 a6 20 5e 38 79 2b 40
       2.3067166134446753 13.736758176313044
0004e0 1b 18 bd 37 c5 78 24 40 02 26 14 34 23 bb 34 c0
       10.235879651863845 -20.731005911749897
0004f0 4e db ad 21 8d cd 1b c0 b6 f7 e6 51 fb 56 17 c0
       -6.950733686672562 -5.8349430844518135
000500 de b9 b2 b5 f6 90 31 40 e2 59 b8 7f e5 cb 24 40
       17.56626449216298 10.398235312703893
000510 37 c0 87 61 81 e5 30 c0 a4 1a 15 2b b8 ea fe 3f
       -16.89650544704656 1.9323045428188061
000520 4b d2 22 9b 34 6f 1b c0 ad 10 c0 55 9a c0 00 40
       -6.858599113464673 2.094044370578635
000530 8d 9e b8 93 ed 2a 2b c0 19 15 29 a3 e3 bb 20 c0
       -13.583843818937817 -8.366971110119765
000540 46 79 15 07 52 ed 3b c0 d3 1f 31 94 59 d0 13 40
       -27.92703289293538 4.953466716287909
000550 13 90 d3 63 da 60 21 c0 d4 e9 8b 77 fc ac 22 c0
       -8.68916618306688 -9.337863670186302
000560 6c 4b f6 bc ce 16 26 c0 5d bb 56 ea eb 5f 25 c0
       -11.044546036782513 -10.687346766555203
000570 dd 66 8a 4b d2 0e 26 c0 7a ce 3b 1d 40 02 14 c0
       -11.028948174137833 -5.002197701239874
000580 1c ac 3f 77 80 f4 14 40 2a 7b ba ab 66 38 24 c0
       5.238771308194398 -10.110158316148574
000590 74 c3 c3 ff 41 f5 1e c0 0b a9 78 13 4e ca 0a 40
       -7.739509579013305 3.3487817307660683
0005a0 55 21 4d dc 15 fe 28 c0 21 e8 4b 0b fb c1 32 c0
       -12.496260532775219 -18.7577368793792
0005b0 45 63 38 59 6f 92 1a 40 aa f0 9f 49 ab 9b 06 40
       6.643002885882031 2.826010298913464
0005c0 fa 17 1b 3f 13 4a 36 c0 d8 05 90 3d d5 0f 28 c0
       -22.289356178393042 -12.030923770743286
0005d0 1d fe ab cc 06 06 21 c0 ba 15 96 04 24 27 27 40
       -8.511770626063532 11.576446669884593
0005e0 bf c9 d9 ca 1d 9b 06 40 1c 67 71 1c e2 db 2e c0
       2.8257404182160992 -15.42945946583091
0005f0 ce 10 00 aa f1 e7 1c 40 31 30 8d 1f 6f 03 fd 3f
       7.2265078127422395 1.8133383972626798
000600 e0 80 44 c8 48 f2 2a 40 d8 95 9d 75 d8 36 18 c0
       13.473211534845575 -6.053560102217908
000610 ce b6 b2 35 06 d3 15 c0 b8 10 b9 d4 56 8f 1b c0
       -5.456078375847666 -6.8899796712832355
000620 44 de 48 37 e6 fd 0f c0 08 4c 0c bc bf 3c 32 c0
       -3.998974258338224 -18.237300637247273
000630 ac ba 6b f8 9a 84 d1 bf ea b4 17 1b 3a bd 3b 40
       -0.27371858844609664 27.73916787461068
000640 60 a1 32 e3 ac 48 2b c0 aa 5c 23 5e d4 be 32 c0
       -13.641944026880708 -18.74542797435121
000650 f2 22 c9 ac af a4 42 c0 a6 61 f5 1e d5 f0 26 c0
       -37.28661117383116 -11.470375983670987
000660 68 cd ef cc 7b b6 26 c0 16 d6 90 39 c1 0a 3b c0
       -11.35641327311778 -27.042010877476137
000670 d2 f3 6b 97 77 71 17 40 3c 0e ed 45 c4 f8 38 c0
       5.860807767833608 -24.971744890570548
000680 b3 4b a4 6a c4 92 22 c0 3e e0 fd b8 3d 03 0c c0
       -9.286654789500835 -3.501582570312194
000690 4c dc 06 6e ca 6e 35 40 a2 ad 9b 5f c0 e4 1b c0
       21.432776333498893 -6.97339009654698
0006a0 ee 49 f6 82 0c 7f 10 40 20 d1 3a 64 0c 17 34 c0
       4.124071165354037 -20.090032829627603
0006b0 b7 cd ae 68 8c 4f 00 c0 9c 1d 40 55 65 4e 27 40
       -2.0388420275064294 11.653116859509105
0006c0 e8 b4 db e0 20 6f 13 c0 1f e6 8a a9 d8 b6 fb 3f
       -4.8585238584612185 1.7321402189976494
0006d0 8a 18 da ac 5e 81 3f 40 2a 32 84 44 fe 2f 2c c0
       31.505350878950175 -14.093736783158494
0006e0 49 ed 16 1a 57 ee 15 c0 4f 8c ac 35 f3 21 16 c0
       -5.482754142426821 -5.53315433374071
0006f0 b8 f0 78 e2 a4 4b 30 40 13 28 de 87 37 2d ea bf
       16.29548469021458 -0.8180196431796979
000700 39 85 1c 97 59 b7 36 c0 b1 5e ec 3f 2d 00 1f c0
       -22.716210789168347 -7.750172613908647
000710 4a c7 e0 09 6e 7b 2e c0 c0 77 f4 e9 94 fe 16 40
       -15.241073902786997 5.748614936395768
000720 9a 3b e4 de 88 c3 27 c0 22 71 4b 52 ef ab f9 3f
       -11.881903615341617 1.60447628160825
000730 84 2a fb 5b af 10 2c c0 a6 3e 6f e1 f2 03 23 40
       -14.032587885293886 9.50771240694969
000740 6b 64 ba ec 91 0e 11 c0 b7 76 dc 36 40 fd 30 c0
       -4.264228533627015 -16.98926108248153
000750 9e 62 6c 43 23 dd 27 c0 70 ff 2e 60 08 4f 05 c0
       -11.931909663181894 -2.663590194162616
000760 c0 08 1e 65 91 4d 18 40 42 04 89 f1 e7 63 11 40
       6.0757499503690156 4.347564481723625
000770 7c 29 d3 72 ee 65 1d c0 22 d4 8a a5 20 b4 0c c0
       -7.349542421472844 -3.587952893542494
000780 ba d8 ae 00 c7 54 32 c0 9a 3f ab 67 63 dd 2b c0
       -18.33116153973308 -13.932399024633742
000790 c3 92 8c a3 17 c4 2a 40 a8 7c 53 99 27 bd 3b c0
       13.382992850217653 -27.738885481722406
0007a0 c6 d1 e3 65 a3 e4 f7 bf 35 dc fb 37 d5 9d 23 40
       -1.4933198909831034 9.808267354483272
0007b0 c8 64 3f 1c a9 0d 22 40 c2 5c f5 45 33 97 2b 40
       9.026680834520803 13.795313059045274
0007c0 f4 8e 15 70 68 1a 25 c0 5e e9 91 22 bc 33 23 40
       -10.551578047401087 9.601044731437181
0007d0 c0 eb 75 30 da 55 31 40 6b 49 59 82 34 58 2e 40
       17.335360554494173 15.172275613211886
0007e0 5a 19 ed f6 3e 75 3a 40 7d 9e 27 75 eb ce 23 c0
       26.45799201286841 -9.904140149198833
0007f0 a6 4c 46 7c b2 10 15 40 7b 51 e8 19 ef c9 2d 40
       5.266305867949233 14.894402322396436

arr_3 f8 [64]
000000 2f 78 c7 9d 5f 1f 21 c0 1c 7d f0 57 61 35 27 c0
       -8.561276369666386 -11.60425829706815
000010 29 e5 02 4b 77 cd 10 c0 6a 16 27 f4 04 c3 14 40
       -4.200650379230219 5.190448584447589
000020 bd cc a1 2d f4 18 3c 40 f4 01 15 00 df dc f0 bf
       28.097475864412207 -1.0539236071782598
000030 f1 2c 1b 4a 1e 60 10 c0 10 83 17 dc 44 82 11 40
       -4.093865545185722 4.3772158040381015
000040 b2 3c 7c 41 79 af 38 c0 1e cf 2e 78 e0 f0 24 40
       -24.685443966704675 10.470462566102977
000050 08 4a 49 00 5a 1a 13 c0 ea 78 4e 10 cb c1 22 c0
       -4.775733952019898 -9.378502378062382
000060 7d 34 7e ee 6d 8f ee bf 52 2f b3 fd de 06 22 40
       -0.9550084741655521 9.013420036433363
000070 23 c4 13 9a 09 c2 f9 3f ec 56 6f f7 c4 11 40 c0
       1.609872438301189 -32.13882344185353
000080 ab 90 24 d9 33 05 31 40 fc 7c 6b ff 8f 32 b5 bf
       17.02032239096358 -0.08280277238690198
000090 ae fd ef 8e ca 73 08 c0 9e 04 08 27 99 3c 20 40
       -3.0565386931409284 8.118355960587277
0000a0 ce ae b6 91 0b f6 12 40 46 af 37 b0 13 b7 09 40
       4.740278507971835 3.2143930212968455
0000b0 e6 d1 19 56 ed 2e 1c 40 21 8b 7d 85 de 09 12 40
       7.045827241254733 4.509637914454999
0000c0 68 1f af e1 f3 1c 23 c0 34 85 42 44 ea 36 21 40
       -9.556548168780594 8.60725606262222
0000d0 62 19 be 75 3d a8 0e 40 ea ff 7f f2 46 9a 3a 40
       3.832148475517145 26.602645069360655
0000e0 bd 48 ac e2 c2 91 32 40 21 94 7a 61 6b cd 11 c0
       18.56937996584087 -4.450604937655073
0000f0 94 79 93 97 7b 13 30 c0 4f f4 51 f0 d6 8a 31 40
       -16.076104615692728 17.5423422050556
000100 f0 00 f8 2d ec d1 07 40 b6 16 d9 5c 8e dd 39 40
       2.977501258021327 25.8654535322191
000110 f8 5c f1 8f 75 9a f9 3f 44 4a 95 c8 22 31 30 40
       1.6002097723738284 16.19193700451639
000120 79 71 3f ba 9e 1d fb 3f 8f 78 ff 80 01 52 28 c0
       1.6947314524942085 -12.160167723832528
000130 f5 22 d8 be 61 3f 20 40 57 4a bd 99 9f ab e5 3f
       8.123792613872391 0.677200126907631
000140 18 6e 69 18 82 c0 f9 3f b1 fb 79 7a e5 ed 1c c0
       1.6094990686023092 -7.232320703215849
000150 f0 60 57 85 31 a0 fa bf 93 ae 2b e5 07 cb 17 40
       -1.6641097267766405 5.948272305289396
000160 bc 1a f4 36 41 ef 39 40 78 c3 f2 62 ad 40 41 40
       25.934588846774872 34.50529133657159
000170 8d a3 d4 f3 95 27 29 c0 54 9a 20 92 d4 65 2b c0
       -12.577315921503919 -13.698887411575164
000180 fa 35 17 82 85 a2 1d c0 54 2e c1 b6 47 3f 16 c0
       -7.408712418238332 -5.561797004261809
000190 0e 9b 76 07 06 3c 09 c0 12 ec 9d b5 13 84 28 40
       -3.1543083746977407 12.257962871101004
0001a0 2a 28 81 9a e8 81 f9 bf 56 14 34 a4 6c 0a 31 40
       -1.5942159686405923 17.040720236506182
0001b0 ae ab 0d dd c7 50 07 40 12 f9 39 92 99 1c 24 40
       2.914443709354109 10.055859155251287
0001c0 e8 a8 32 35 b3 bf 27 40 8a 8d a3 05 1c 00 22 c0
       11.874414122041756 -9.000213791098549
0001d0 78 61 65 0a dd 66 1a c0 d6 7d 04 d6 bd df 05 40
       -6.600452578008451 2.7342488021965705
0001e0 32 31 d4 eb e2 5f 2d 40 8c 29 c6 dc 4b e7 17 c0
       14.687278146412243 -5.975875329584948
0001f0 f7 03 0c 80 84 5d 25 40 4f 3b 69 ac ec 20 30 40
       10.682651521174177 16.12861135071881

arr_4 f8 [64, 32]
000000 9c 38 53 bc d4 20 1b c0 00 c3 2e c4 79 02 14 40
       -6.782061522082724 5.002417626718625
000010 6c 3a 5b 86 bb af b8 bf 68 72 7f 6a 7d ad 3c 40
       -0.09643146543678832 28.677694946398702
000020 b3 13 93 cc 56 a7 1f 40 f6 8f 9d 56 87 40 f6 bf
       7.9134170498627325 -1.3907540687005144
000030 92 34 a0 86 75 e0 28 c0 9f 9a 43 f9 1d 6c 19 c0
       -12.438396651321714 -6.35558309054491
000040 6a 70 b5 6d 46 a0 1e c0 28 b5 7a dc 58 32 19 c0
       -7.6565186635963105 -6.299167103757362
000050 30 c4 32 8a 78 9b fe bf 80 0e 48 91 6b 6d ac 3f
       -1.9129567526217777 0.055522309765390965
000060 4d b8 dc 7d ee 24 1f 40 9a 93 f5 4b 5d 37 16 40
       7.7860660234419585 5.55406683622723
000070 c8 1a ec 1a 58 ac 24 c0 58 7d ce f0 38 fd 03 40
       -10.336609689065327 2.4986437619224198
000080 86 ef 4e 16 4b 61 f1 3f 30 a5 d1 eb fb c7 26 c0
       1.0862532493037818 -11.390593880979026
000090 67 0f ff 3c 0d aa 37 40 46 44 47 4a 5c 52 34 40
       23.66426449992232 20.321720735930533
0000a0 14 6d 39 89 ff 97 33 40 6e 68 d2 98 3a ba 06 c0
       19.593742920417824 -2.8409320773326305
0000b0 f7 c7 03 d7 f9 24 3a 40 4c 38 3b 57 ec 31 20 40
       26.144437254355548 8.097506261805528
0000c0 dc d5 3b c4 36 ac 37 c0 f0 9d ff 65 ce 48 37 40
       -23.672710671051263 23.284399390131455
0000d0 ae 18 2c df a0 fc 27 40 3e 99 bc a1 a2 ba 1e c0
       11.99341485417639 -7.682261016021867
0000e0 a6 f3 64 92 1a c9 0a 40 3d b1 60 5a 24 54 23 c0
       3.348195213037303 -9.66433985166861
0000f0 f6 ac 46 65 d0 4a 29 c0 c8 2d 53 f9 f0 22 2d 40
       -12.646121182324787 14.568244735149065
000100 bc 93 aa 7c 45 29 16 c0 42 9b d6 7d 94 d4 2a c0
       -5.540304134284209 -13.415195400664405
000110 00 14 e5 31 53 84 4d 3f 4d 30 a1 a9 f1 5d 38 40
       0.0009007841324907284 24.366968728878692
000120 8d 83 17 06 51 15 23 40 af 28 af 81 d5 83 fa 3f
       9.54163378750834 1.6571860376157408
000130 2c 65 04 b9 15 10 20 40 68 61 84 ee 0f 70 37 40
       8.031415731226467 23.43774309856363
000140 40 64 54 ca 6c 4f 13 40 55 ac 80 bf 5f 69 2b 40
       4.827563439751486 13.705808624703574
000150 fa c0 8a 85 63 93 18 c0 fc 2e 98 6e fb bc 17 40
       -6.143934332460271 5.934552886999651
000160 1c a2 15 9e 32 2b c9 3f 31 b9 18 fc 9f 26 0b 40
       0.19663078993768657 3.3938598341984734
000170 7f c1 4d b3 d9 50 15 c0 68 1d c4 b8 9d 40 15 40
       -5.32895546114048 5.3131016606997505
000180 48 8f 26 16 d7 f7 02 40 da 19 ab 72 04 69 29 40
       2.3710157137410626 12.705112059961653
000190 30 cd 19 68 99 af 2f 40 0a 1f d9 79 07 85 d6 3f
       15.842967274808501 0.35186945819121773
0001a0 d0 df 85 69 0c a9 0f c0 9e f5 4b 7c 51 6b 10 40
       -3.9575432056408104 4.104803030143925
0001b0 c3 6b ae 61 fa 1e 20 c0 66 38 19 27 4d 01 3d 40
       -8.060504009763354 29.00508350721102
0001c0 1a 2b f8 18 ee 51 36 c0 3c e1 63 fc 67 aa 23 40
       -22.32003933008955 9.832824599449502
0001d0 fc 36 fb 0e e2 34 10 40 f6 03 79 1a 47 9b 10 c0
       4.051643594820913 -4.151638425480078
0001e0 18 9b 3f 8c 6b 85 3c 40 54 9e b8 6b d1 12 12 40
       28.521172299889344 4.518377001898973
0001f0 bc 50 e5 a6 7d d5 33 40 5e 0a 65 3d b3 20 40 40
       19.83394854639549 32.255469965301685
000200 97 e0 44 c2 36 ea 30 40 db 5e 81 fb bc 65 37 40
       16.91489805394721 23.397414893231012
000210 00 71 43 24 63 fc 33 c0 bc e3 a7 37 3c b5 0a c0
       -19.985887781586825 -3.3384937618361317
000220 cd fc 78 3e 4f c2 1e c0 06 e3 24 18 2f 9a f1 bf
       -7.689755416998378 -1.100142568886612
000230 c2 b8 35 43 cc 0e 19 c0 9a 2d d1 d6 01 2c 2c c0
       -6.264451074747003 -14.085951531443062
000240 79 09 79 38 4c 14 20 40 c6 cd 30 fa 75 e7 23 c0
       8.03964401700499 -9.952071970422264
000250 80 d4 62 e0 ac 87 15 c0 fb 8a 3c 1d e0 54 38 c0
       -5.382495409042463 -24.33154471138094
000260 82 11 8c f5 52 af 37 40 be ea 7c 5f 32 09 29 c0
       23.68485960645331 -12.517962440489438
000270 1d 8f 14 5a 9f 46 05 c0 f7 8a b8 e2 b6 43 12 c0
       -2.6594836270832176 -4.56612734080658
000280 d1 41 71 eb d5 d6 12 40 1e 36 1b 3d 93 5c 30 40
       4.709800413882889 16.361621684211165
000290 54 0d e8 f2 3b 1e 30 40 8a e6 40 98 99 12 13 40
       16.118102246907554 4.768164042435851
0002a0 6a 88 9b 32 55 eb 33 c0 ac 1e 9b 8e 15 6f 17 40
       -19.91926876351537 5.858480671136629
0002b0 7e d0 84 64 25 7f 36 c0 76 52 0e 34 82 2c 25 40
       -22.496664316583058 10.58693087267714
0002c0 fb ff f4 e0 49 d8 25 40 6c e9 8a 4b f4 7c f2 3f
       10.922438650042741 1.1555064154514083
0002d0 28 c9 ff aa a2 6d 36 40 b6 54 76 06 e8 06 30 40
       22.4282633661725 16.02697792424143
0002e0 7c 9d 90 3a 1a 39 24 40 96 5e b1 5f 49 71 30 40
       10.111528234627933 16.442525845339865
0002f0 f3 ca 76 bf 21 a7 2b c0 cc 3e 70 ae ef 35 24 40
       -13.826429351092406 10.105344248964137
000300 58 d1 89 ab 8a b0 12 40 76 aa 8b 58 e4 95 24 c0
       4.672403984343269 -10.292757765816742
000310 e7 2c 07 1a 73 f5 20 40 d0 b3 9a 51 8e 8d 33 40
       8.479393781066802 19.55295286204256
000320 ac 2f 98 18 32 ff 15 40 7b cc ec 06 a1 1d 17 c0
       5.499214538849554 -5.778934581950234
000330 75 f3 46 95 71 3e 07 c0 66 e9 d1 b7 c2 af 41 c0
       -2.9054900800969627 -35.373129823203996
000340 f9 be 92 42 82 c9 2a 40 55 d9 7b 82 3c ce 32 c0
       13.393571930325821 -18.805610804783402
000350 c3 87 3c b0 8c 3d 18 40 6b ca 13 07 6c 9b 16 40
       6.060106996244886 5.651779280264786
000360 a3 a3 e2 f2 e0 b2 09 c0 fa 80 6d 2b c1 d8 23 40
       -3.2123431182303235 9.923348767392316
000370 0e 37 d4 fa 88 da 29 c0 5a 03 85 99 2a c0 20 40
       -12.926826322941931 8.3753250098104
000380 e5 4b 66 d4 6b 17 f2 bf 24 4a aa 31 2b 31 19 40
       -1.1307180687770082 6.29801633455148
000390 25 b8 fe 99 10 61 35 40 19 12 8f 04 77 dd 07 40
       21.379159569442113 2.9831371647035323
0003a0 f2 86 7c d3 6f d5 08 c0 b0 b7 67 8c 19 24 24 c0
       -3.1042171976449646 -10.070507419262725
0003b0 c2 26 b8 ee 3a 80 33 40 30 78 8c cb b1 61 14 c0
       19.50089923854717 -5.095404797028138
0003c0 4a 47 d2 4d 42 55 e3 3f 24 91 2f fc 52 4d 1d 40
       0.6041575927685952 7.325511875537163
0003d0 41 a9 d3 ce bf 87 45 c0 d0 bf ca b0 6c cd 14 40
       -43.060541013097925 5.200609934210618
0003e0 22 6d 75 1f a8 f2 0c c0 b2 b4 44 8d 3c bb 21 c0
       -3.618484731455866 -8.865696348797744
0003f0 34 5f ba 4f 89 33 c6 3f a2 dd 52 a8 e4 c4 27 40
       0.17344776528329364 11.88455701839013
000400 45 a4 8e b4 53 dd 30 c0 2b 7c 5d 2d 20 28 3e c0
       -16.8645584915396 -30.156740985225195
000410 7e fa e9 9e c2 dd 1f 40 5b f6 f2 84 24 8c 31 c0
       7.96656273177234 -17.547432240788435
000420 6d 57 7f 0b 39 5d 2e 40 c8 f2 e6 1a e2 40 2b 40
       15.18207584313833 13.626725044910373
000430 b0 2d 37 a1 77 f0 15 c0 ca 0f 38 92 be b1 2b 40
       -5.484831351273371 13.847157067626444
000440 92 8f 9e af ec a6 36 c0 ba f3 08 b8 f3 d2 2f c0
       -22.652049041949404 -15.91201567754057
000450 0e 99 e8 61 94 4c 25 40 66 f9 6d 99 fb e6 1d 40
       10.649569568293852 7.475569150292676
000460 c6 b7 d3 23 8f c1 0b 40 54 50 31 9d fa b0 30 c0
       3.469511299036614 -16.691324066676614
000470 82 c0 c2 57 ce 43 f4 bf 46 c2 25 1b 56 a3 12 c0
       -1.26655420571845 -4.659508155994052
000480 24 cb 86 ca ec ec fa 3f 02 05 8a f4 fd c3 23 40
       1.682843009108816 9.88279689965066
000490 2f 1e e6 b8 cf fc 22 40 9a 20 8b b7 3b bb e8 bf
       9.493772295084538 -0.772855623706181
0004a0 75 80 1f f6 4b 46 26 40 60 4e 10 ff 1a a3 2c 40
       11.137298289628442 14.318565340748307
0004b0 d5 ef b5 bb 24 a2 21 40 3c 1a 3e 6a 32 c8 19 c0
       8.816686502417648 -6.445504818001208
0004c0 82 84 94 4a 03 8b 18 40 c6 e1 d4 d1 16 37 39 c0
       6.135754742922588 -25.21519195029557
0004d0 be d4 39 43 b2 4f 35 c0 3c 1c ec b8 fa a4 14 c0
       -21.31131382142916 -5.161112679873494
0004e0 ea 97 64 4e d5 77 30 c0 e0 87 16 83 56 04 3b c0
       -16.468098544653834 -27.016945069313692
0004f0 b9 26 4e 3d 04 b0 13 c0 f4 b8 41 4d 59 88 15 40
       -4.921891172308897 5.383153159271604
000500 8b 7a 0a 26 83 62 18 c0 a0 f8 8d b7 49 0b 2b 40
       -6.096203417195862 13.5220467911534
000510 33 3e de 6a 83 ad 30 c0 e0 42 17 ca 73 ad 20 c0
       -16.677786521204506 -8.33877402814818
000520 e3 fa 56 cf 28 40 31 40 86 61 3a ee f6 40 35 c0
       17.250622709975584 -21.253767861607706
000530 28 6c dc 6f 18 79 30 c0 bc 8b cc ef e2 5c 17 40
       -16.47302912837418 5.840709444865691
000540 78 c0 cb da 97 9c 01 40 fe b3 7d 90 ae 1d 20 40
       2.2014615148000836 8.057972445816628
000550 e6 26 21 79 cd 13 0c c0 b2 b6 ea a9 b3 d5 36 c0
       -3.5096692527048274 -22.834772701075686
000560 0c 15 61 80 69 6a 19 40 ed 6a e8 99 d9 2a 05 c0
       6.353918081212452 -2.6459228538563964
000570 da 82 16 64 06 c4 25 c0 c1 66 9c 66 46 e0 ee 3f
       -10.882861259220068 0.9648773197288493
000580 61 da 89 46 6b 75 34 c0 46 40 ea 35 e8 3c 23 40
       -20.458668144851234 9.61895912632475
000590 cc 40 a3 c5 e4 43 18 c0 76 38 3f 2d 29 84 12 c0
       -6.0663023835078995 -4.629063326820065
0005a0 8c 58 0c b3 95 25 27 40 44 ec 46 6d 7c eb 23 c0
       11.573407740838114 -9.959933676631529
0005b0 59 a6 f9 fc fa 56 34 40 5a 56 83 92 06 e7 2c 40
       20.33976727576223 14.451222017795931
0005c0 80 16 01 22 67 c0 35 c0 1c 8e c7 d4 c7 c6 35 c0
       -21.751573682084654 -21.776486681670676
0005d0 d6 28 a1 16 be c6 0d c0 0c a6 ae 9a 01 19 04 40
       -3.7220422523433667 2.5122100910709886
0005e0 7f 08 a9 ae 9a ec 0b c0 2a e6 ce 1f d2 56 28 40
       -3.4905294080099902 12.16957187080978
0005f0 cd 9d ea 71 03 3a 23 c0 3d c7 0f d3 44 2a 0f 40
       -9.613307533158968 3.8956390847387454
000600 c7 2a a9 dd de 94 10 40 fb f6 52 6a 14 a0 19 40
       4.145381415796414 6.406327878297584
000610 78 8e 86 ca a5 8c c4 bf 43 aa 00 09 1c f4 21 c0
       -0.1605422247786128 -8.976776391345203
000620 37 c4 47 13 86 bc 20 c0 23 5e 83 0e d3 61 2a c0
       -8.368210413466029 -13.191063359771823
000630 94 2d 42 31 69 ed 37 c0 e0 27 0d 8d 5e ad 1a c0
       -23.927386358887432 -6.669305995872463
000640 37 68 76 70 e8 dc 32 40 df 9b 6d 59 09 8e 11 40
       18.862921742351514 4.388707539858813
000650 e6 3d 1d 95 bf db 06 40 cd dc 16 07 7e ab 06 40
       2.8572990083264243 2.833736472497185
000660 33 ff 6d 44 8d 61 36 c0 6f 3f 27 51 71 67 2e 40
       -22.3810618179843 15.202036415139188
000670 7f 7b 4d 4d 20 17 2e c0 d3 a9 10 7c bf 07 f4 bf
       -15.045168319423963 -1.2518915983479146
000680 6c 52 83 bb bc 9c 05 c0 9c 48 fb 54 fb e4 10 40
       -2.7015318536235124 4.2236150053378445
000690 ee 55 94 56 ff 0e 31 40 82 b6 ed 92 7f 07 21 c0
       17.058583651747476 -8.514645186917964
0006a0 e3 cc 38 eb f2 92 1c 40 1d b6 cd e4 9a 2b e0 3f
       7.143504786817377 0.5053228825397046
0006b0 64 81 80 22 db f0 17 c0 3f bb ab a7 e8 e8 25 c0
       -5.985210932820653 -10.954900016511258
0006c0 0c 9c 4b 37 fd e4 1a c0 d3 d5 33 45 45 26 1b 40
       -6.723622192373124 6.787373620308659
0006d0 4e 1b b8 e9 16 35 18 40 4e 18 75 6c e4 16 22 c0
       6.05184521852682 -9.044711484235588
0006e0 d6 a2 a8 6f 54 07 12 c0 bc b1 3a e9 56 4a 24 40
       -4.507158035915117 10.145194328703717
0006f0 95 35 dc a2 3f 8b 3a c0 62 ea a1 34 43 9f 24 40
       -26.543939760934865 10.31105961300381
000700 da d2 b2 7c ad 28 06 c0 3c 71 a1 29 ae 69 e2 3f
       -2.7698621503899234 0.575400430021126
000710 28 f4 aa e0 c3 00 36 40 a2 76 a9 37 2b 19 2e 40
       22.002988855110885 15.049157847820712
000720 18 62 b6 e9 3b 11 1f c0 19 18 7c 29 dd d5 05 c0
       -7.766830112225328 -2.7294257393832706
000730 92 e5 2e 94 3b c6 20 40 4f a9 3c ff 64 79 30 c0
       8.387173300480558 -16.47419734221449
000740 d4 dc 4c eb bb 2e 3b c0 12 46 0d 90 f0 0c f2 bf
       -27.18255491854218 -1.1281591059708984
000750 38 a2 be bd 0e 56 0d 40 70 ec 8a b5 c3 df 18 c0
       3.667020304088762 -6.21852000866339
000760 b4 e8 57 0f bc 4a 1f 40 7e ef 29 32 f7 07 36 40
       7.8229830167203325 22.03111566089455
000770 f1 84 e6 0c f1 58 19 40 63 00 ce b3 5c 54 17 c0
       6.336857034272939 -5.832384881447157
000780 16 16 55 7c 0a 92 32 40 74 66 fd 67 a3 3e 34 c0
       18.57047249867727 -20.244680880894933
000790 7a f0 0b 44 7b d7 0b 40 ee dd b8 6e 9a 21 19 c0
       3.4802155796187977 -6.282815675767308
0007a0 78 e9 5d ad b4 bf 24 c0 60 2b 04 ba 98 d2 22 c0
       -10.374425332750192 -9.4113214616861
0007b0 03 99 36 b7 0f 62 33 40 b1 a0 43 25 42 27 31 c0
       19.38305230219795 -17.153353051195783
0007c0 96 56 c6 be 03 7c f7 bf b6 40 9e a9 27 39 0b c0
       -1.467777009214307 -3.4029076816005626
0007d0 ba 55 67 f6 26 57 35 40 62 ea 76 7a a2 a2 33 c0
       21.340438270786514 -19.635291723281973
0007e0 4b 7c 16 9a a5 56 36 c0 7a 4a 64 2f 1a ea 25 c0
       -22.338464384545926 -10.957231026642365
0007f0 aa c2 34 4f d6 3c 21 40 f8 02 54 70 b5 37 34 40
       8.618822550955276 20.217612286101

arr_5 f8 [32]
000000 29 46 74 9a e0 6e fc bf 84 4c 2b 42 ae 6f 24 40
       -1.7770696671835913 10.21812636164237
000010 bf 9c 40 71 3d 66 34 40 9e 0a d2 43 fd 5d 27 c0
       20.399375036501393 -11.683572883024052
000020 c8 d3 5c 34 36 d1 22 40 3e 47 4b 87 f6 f1 2e 40
       9.408616672831968 15.472583988131756
000030 1c 77 56 d0 53 84 24 c0 e5 0c 14 9b 7d 70 25 c0
       -10.258451948695033 -10.719708296010547
000040 0e 5b 37 9f fd 86 14 c0 ea 60 3f 24 5d a1 22 c0
       -5.131826865914958 -9.315163738953249
000050 e4 22 38 83 a1 66 1c 40 ec 61 87 00 4d f0 30 c0
       7.100225496579444 -16.93867495827901
000060 bb 63 72 ec f8 b7 0d c0 4d f0 8c d3 c4 88 32 c0
       -3.714830252877133 -18.53425333205114
000070 e8 75 ac b8 5b fc c5 bf db a9 68 db 1a ff f6 bf
       -0.17176386372822994 -1.4372814722688563
000080 98 c9 12 8c ec a3 33 c0 52 21 ed 41 15 29 fc bf
       -19.64032817324332 -1.7600300383802119
000090 50 b2 03 fe 19 15 30 40 a5 78 a7 bf 30 33 08 c0
       16.082427860167 -3.0249953244193244
0000a0 41 13 84 f2 d4 bd 29 40 a9 11 e1 d8 32 12 21 40
       12.870765284178221 8.535544183229677
0000b0 3d 4c f3 7d 4e b5 3b c0 e8 e3 f0 35 ec 11 31 40
       -27.708228942774657 17.070010539351557
0000c0 9d 8a 33 73 f0 5c 31 40 a0 c6 8a a5 65 dc 00 c0
       17.36304397590958 -2.107615750596622
0000d0 60 86 bf 4d dc 00 2d 40 36 e8 b3 3d 76 a2 14 40
       14.501680783872132 5.1586541787201465
0000e0 c5 75 20 4c 0a ed 02 c0 30 4f 41 06 5e 0f ec bf
       -2.365742296925165 -0.8768758890314299
0000f0 b8 e0 fc dc 1c 58 00 c0 5f 91 4e 4e ed 5d ee 3f
       -2.043023802249163 0.9489656953269722
