weights/global_round_40.npz (npz, 129966 bytes, 8 tensors)

arr_0 f8 [43, 128]
23.630340225238545 -0.5996731759518334 16.074401894488805 58.41364793572047 -14.979337365204195 -2.905000120814935 30.294544998454263 3.90655901025083
23.665775465497642 18.51865808903903 -10.155738661933304 27.353578109047202 33.04182074278309 -10.66649187152347 -9.905149359085183 13.015988984368281
-43.61478474911617 -8.247636878193026 -24.849103786355272 26.202311729492322 -41.543289470821655 -42.38772374068066 -27.753692161856325 -30.14460723059489
-48.1044467027227 4.438034169217103 2.4812750050271277 -1.571734081353262 15.435700845739492 50.08563509414806 -69.69987302860591 -5.739994712614464
-17.521262151354193 -2.0089626889103585 -13.185186884109498 -0.7232502610345094 20.34566955742904 11.160255707866128 -33.9626674864948 -3.992629485707643
-48.782388053794456 -24.712726280452273 29.383835242012076 -7.43073510761638 11.313483547469481 8.981920547877943 -13.806928291965793 2.982098035254319
-17.906796343188926 1.9611011682682902 22.566614762960533 -6.4443335531368415 15.499261608444815 5.665480461509211 72.29865308065506 3.718241008785082
-11.137262513490182 6.04740345787377 4.358882174332677 -15.338587794262859 -46.37738256019821 41.49183998046406 -14.601782332175315 29.06878875268241
58.93199300889161 -14.986079675638413 9.742206593233146 -40.049292269712986 33.28394426730991 -15.277217669449211 -1.5944109588966031 23.25400499393438
-43.770388598634746 25.650666607230676 -34.342943840235634 -45.58047833524425 -49.1697312376272 33.00796790241554 18.70404104317276 5.06520403540326
28.212183021851782 -8.403140917745691 15.682357232539344 -15.48390743851474 17.194556054650178 27.108743743889885 -38.85676638536625 50.78777276220968
-29.11217335209675 -17.261187980005758 -18.862415261383564 10.942166658305307 3.6069005095956648 63.886042033239185 -37.84559697693562 64.46440800638999
57.86806340440463 51.25525285453005 -23.77524428153655 18.233949745195602 10.609942131630449 22.886610859817765 -90.71772330891164 -20.66748301583575
-13.47194688338744 -30.83794544263766 -46.05583529761031 -13.809565422080771 22.920277706217806 22.417366784430772 52.28369965683514 -33.632771264989735
-12.598993710942215 62.16083647745509 42.49313921648884 -23.381845806754978 2.0870925382696726 -17.734865060158242 16.81635741279136 38.69550334723382
-30.760328371032656 34.98932764317912 -21.5445662935461 33.88839003659596 -7.59987355306735 -6.833901311916981 -39.58264918324687 -30.216462561940652
-9.615182412315768 -44.87712423452944 20.056929499993277 -9.80664082591667 12.913303570703567 26.743197443148635 -41.75793681044964 37.922713929401176
-17.936995397423157 -47.005818831584975 -53.147177956778805 5.185960074880693 36.7435186431578 -1.9322904453905103 -29.42333733975856 -32.19637338597755
19.31029571640625 43.97496694193014 17.98936013029326 43.76598300896537 12.539419870739259 22.04166989534783 7.382977115895445 7.7175955847478335
8.448971015715918 -48.71284741711166 -14.89675895847024 5.80477545722632 40.066606732808935 27.325545367060034 -10.436458330508211 15.124189379950147
44.578861317339374 3.4210677614475236 32.726434923002685 -20.063734056565846 -5.451199112876607 -52.1882820676547 -29.261858744021207 -5.982110627347913
19.773996492864082 21.37656044070306 7.300968681377757 -14.164176957186747 -7.976262178449576 -13.83694639518717 -16.274313239304256 1.0138784919562054
-4.570412501787528 7.742174371493052 5.871767301223502 26.86768267741475 12.636168275216491 23.126797328220658 9.531540467450855 9.460747196572157
-54.33212405467317 -21.00255660466192 29.229131151937615 -38.663574298910554 -61.76969671598346 -39.31126465753782 52.00455661500079 -0.34500639656002985
44.607614115086506 -25.54001394355695 6.556068661297716 -28.160618014961155 23.361146632837254 29.43761939638613 -19.760923390195668 25.75569635395479
-57.986460032811216 -48.97558681916779 36.861732638193644 13.913214643794767 5.419037007231177 -28.094681160206633 -6.191365049381444 -24.533458312751936
-27.325024228711477 -67.67697256583202 -6.437163527938221 -35.64611402956249 9.575023317268084 11.779775163843492 -2.4211275069090368 39.19966875489114
-25.79986564861209 -29.531252025437023 -38.00337322448757 -43.34349282070807 -36.765326005722386 22.84345180810155 7.66526971543434 21.959342579949844
-18.720731220056752 25.546684674869137 -38.449903682519626 -13.639784606522062 41.382860894798874 58.418479798011454 44.48008886120029 22.30911565348779
61.63898472502738 -12.504594654398002 -33.32609363739583 -25.86226133213039 5.953467759330325 6.369959209999458 -20.616625084094068 36.24400965561966
-13.860277356368295 -44.148905994329645 -29.45059572974923 90.77442160825542 -4.859470512640493 74.26412131237082 20.13525791863919 37.386213126637884
-3.7651425982296196 2.6953607985459622 25.21930349886711 -6.289800157368722 33.32122617619023 18.357305979191604 83.24453671559567 22.41563169835346
00000000: b9c0 1cfa 5da1 3740 ee0c e0cc 8530 e3bf
00000010: 0197 a700 0c13 3040 19fd 616a f234 4d40
00000020: 0c9b 06b5 6bf5 2dc0 a635 0eb4 703d 07c0
00000030: ba8f 0f4d 674b 3e40 1e5f a702 a240 0f40
00000040: a3ca ca42 70aa 3740 7e3a cac6 c684 3240
00000050: e373 57fa bc4f 24c0 73f0 4e18 845a 3b40
00000060: 1e46 d161 5a85 4040 7c7c 2e6c 3e55 25c0
00000070: 4e88 9ebc 6fcf 23c0 82ea 49b5 2f08 2a40
00000080: 4ac4 4344 b1ce 45c0 c33e ca42 ca7e 20c0
00000090: 404e a1dd 5ed9 38c0 48c4 95b3 ca33 3a40
000000a0: 57b8 6682 8ac5 44c0 990d 79ee a031 45c0
000000b0: a96c 32f8 f1c0 3bc0 912b befa 0425 3ec0
000000c0: 3c2f 7282 5e0d 48c0 9e45 7d07 8cc0 1140
000000d0: 3dca b7b5 a6d9 0340 dcbb d6a2 d225 f9bf
000000e0: d194 662e 14df 2e40 be60 3c17 f60a 4940
000000f0: c04d 3eb8 ca6c 51c0 7391 872c c1f5 16c0
00000100: 78b5 b46f 7185 31c0 a008 be07 5b12 00c0
00000110: 00cc b5d0 d05e 2ac0 0def 3ebb dd24 e7bf
00000120: 6a61 d4cc 7d58 3440 9090 4009 0d52 2640
00000130: 77b5 2db0 38fb 40c0 ea46 51ba e7f0 0fc0
00000140: 05ea af4a 2564 48c0 d08a c13a 75b6 38c0
00000150: 7e7e c306 4362 3d40 3ace c19f 12b9 1dc0
00000160: 546e 60ea 80a0 2640 f5cf 404a bef6 2140
00000170: a26b 80b4 259d 2bc0 b410 f736 56db 0740
00000180: fb20 1ece 23e8 31c0 54c1 5d9e ab60 ff3f
00000190: a658 44aa 0d91 3640 eef3 fc5f ffc6 19c0
000001a0: 72d6 b037 9fff 2e40 773c c9b5 73a9 1640
000001b0: d790 cf21 1d13 5240 1806 5b24 f5be 0d40
000001c0: 6ed0 ac45 4746 26c0 0024 3588 8a30 1840
000001d0: 3f81 07cf 7e6f 1140 155e 1e61 5bad 2ec0
000001e0: e710 5d12 4e30 47c0 ad7a cb9c f4be 4440
000001f0: d601 58d0 1c34 2dc0 841a c323 9c11 3d40
00000200: 22a5 028c 4b77 4d40 0b3c 6c6f dff8 2dc0
00000210: b69f a980 027c 2340 732e 8735 4f06 44c0
00000220: cbfd 2649 58a4 4040 be50 7079 ef8d 2ec0
00000230: c184 cd10 b582 f9bf 06f8 a578 0641 3740
00000240: 7b2c f617 9ce2 45c0 b0a7 3616 92a6 3940
00000250: 9e16 7195 e52b 41c0 8ef4 341d 4dca 46c0
00000260: f55b d1c0 b995 48c0 6f25 9c17 0581 4040
00000270: ff77 a708 3cb4 3240 367f bed8 c442 1440
00000280: af9e 63a0 5136 3c40 5acb 827c 68ce 20c0
00000290: 1fe4 5bed 5d5d 2f40 836c 3db7 c2f7 2ec0
000002a0: 18f6 f36c ce31 3140 d3a6 47a1 d61b 3b40
000002b0: e7ba 5a85 aa6d 43c0 612f e5bc d564 4940
000002c0: fdbc 8e64 b71c 3dc0 a83b 2837 dd42 31c0
000002d0: b536 1f3f c7dc 32c0 169b 11ab 63e2 2540
000002e0: e81c 85a7 eeda 0c40 63d2 49d3 69f1 4f40
000002f0: 79c4 9085 3cec 42c0 84dc 5bdc b81d 5040
00000300: db62 9eb3 1cef 4c40 6735 2320 aca0 4940
00000310: 4a9c c368 76c6 37c0 cc85 6821 e43b 3240
00000320: 519c c755 4a38 2540 1c32 e7ed f8e2 3640
00000330: 8ed6 be2d efad 56c0 66a6 bb2a e0aa 34c0
00000340: 4532 9b05 a3f1 2ac0 04f6 af97 83d6 3ec0
00000350: 6f99 6c9c 2507 47c0 639e e75b 7f9e 2bc0
00000360: 8171 db51 97eb 3640 1d91 b18c d86a 3640
00000370: 26ff 3545 5024 4a40 5f7d 18a6 fed0 40c0
00000380: 5303 be4d af32 29c0 3456 294a 9614 4f40
00000390: ea98 932f 1f3f 4540 9b20 94a5 c061 37c0
000003a0: 40c0 9c92 5db2 0040 4c5a d81d 20bc 31c0
000003b0: 3bc9 a5cc fcd0 3040 5b50 f140 0659 4340
000003c0: 64ce 4fe1 a4c2 3ec0 d53d c849 a27e 4140
000003d0: d148 55b2 688b 35c0 cda2 c4c3 b6f1 4040
000003e0: 6ba3 b040 4566 1ec0 8719 bb39 ea55 1bc0
000003f0: 108b 993f 94ca 43c0 ee57 2817 6a37 3ec0
00000400: f4f0 6b30 f93a 23c0 9fea 5e9b 4570 46c0
00000410: 15a6 84ee 920e 3440 6edc bd06 009d 23c0
00000420: d3fb 8e86 9cd3 2940 51cb 0830 42be 3a40
00000430: 6ba8 ca12 04e1 44c0 bd2b 737d 1bf6 4240
00000440: 5b6f 2cee deef 31c0 e0ad e5ab be80 47c0
00000450: 4e87 2fba d692 4ac0 ace5 5f51 6cbe 1440
00000460: 1e2a 709e 2b5f 4240 5035 d562 a9ea febf
00000470: 4c70 fdd5 5f6c 3dc0 084a 5bc3 2219 40c0
00000480: c20d 428a 6f4f 3340 b322 7db7 cbfc 4540
00000490: 6b93 9bb4 46fd 3140 2366 32bb 0be2 4540
000004a0: 7c46 5fd7 2e14 2940 26bf d5e0 aa0a 3640
000004b0: a28c 2f27 2b88 1d40 d8fb 8060 d1de 1e40
000004c0: 1bb4 6a87 dfe5 2040 2ec4 8b95 3e5b 48c0
000004d0: a60c 7efd 23cb 2dc0 58a4 b50e 1738 1740
000004e0: cc8d c591 8608 4440 1de3 f0f0 5653 3b40
000004f0: f532 5f77 77df 24c0 f5ca 1ac0 953f 2e40
00000500: 3072 ad20 184a 4640 4e89 46c6 585e 0b40
00000510: 027c ced1 fb5c 4040 7b97 08e0 5010 34c0
00000520: 2e28 e723 07ce 15c0 0680 75a0 1918 4ac0
00000530: 23be b52c 0943 3dc0 a60d 8668 aeed 17c0
00000540: e711 58a2 24c6 3340 78c9 d943 6660 3540
00000550: 048d 4e22 3134 1d40 6cbf 8b00 0f54 2cc0
00000560: f30c c345 b1e7 1fc0 00ab e73c 84ac 2bc0
00000570: eeab 7764 3946 30c0 7f1d 51a7 d838 f03f
00000580: bea0 0137 1a48 12c0 d2f7 f58e fcf7 1e40
00000590: 93e8 4191 b07c 1740 54cd b273 20de 3a40
000005a0: 789d 21d9 b745 2940 8bed 29ca 7520 3740
000005b0: 6967 7812 2610 2340 9000 7a0e e7eb 2240
000005c0: a284 800a 832a 4bc0 6869 b58c a700 35c0
000005d0: 1e11 d456 a83a 3d40 bb24 ac00 f054 43c0
000005e0: 687e 076c 85e2 4ec0 4643 3285 d7a7 43c0
000005f0: 5534 a84f 9500 4a40 70b6 88b5 9514 d6bf
00000600: 3871 a04c c64d 4640 0af6 925a 3e8a 39c0
00000610: b16a 2a10 6a39 1a40 1768 2143 1e29 3cc0
00000620: b618 111b 745c 3740 dd92 23d3 0770 3d40
00000630: dfa6 13e0 cbc2 33c0 38f1 f550 75c1 3940
00000640: 1dde 8552 44fe 4cc0 fe5d 6507 e07c 48c0
00000650: 0078 4d41 4d6e 4240 54a7 aade 90d3 2b40
00000660: 8a7c 8709 18ad 1540 84a2 4606 3d18 3cc0
00000670: 4ec3 1233 f5c3 18c0 850c 57b9 9088 38c0
00000680: 32b9 b0c9 3453 3bc0 6aa2 bd84 53eb 50c0
00000690: 9cfe bdcb a7bf 19c0 953a 51dd b3d2 41c0
000006a0: 2c35 cc74 6926 2340 b6e1 b5b0 3e8f 2740
000006b0: 6ef6 2c19 785e 03c0 2f25 eabe 8e99 4340
000006c0: 96fb c1fe c3cc 39c0 8f2f fb21 0088 3dc0
000006d0: 976d a888 6e00 43c0 0dad 9f92 f7ab 45c0
000006e0: 90ad da33 f661 42c0 588c 2b75 ecd7 3640
000006f0: 263d db76 3ca9 1e40 7b8b ae79 97f5 3540
00000700: 9559 5bd7 81b8 32c0 8fc9 df86 f38b 3940
00000710: c962 a171 9639 43c0 33fe 12d9 9147 2bc0
00000720: 0b0a f795 01b1 4440 793f fbbe 9035 4d40
00000730: ba03 438d 733d 4640 6769 1634 224f 3640
00000740: 6d51 6040 cad1 4e40 6ec0 043b 5a02 29c0
00000750: 3e06 b26f bda9 40c0 fd1a 9e28 bddc 39c0
00000760: e274 30da 59d0 1740 e934 4f96 d67a 1940
00000770: c813 3a24 db9d 34c0 b765 59b5 3b1f 4240
00000780: ad2e 0e46 76b8 2bc0 7fe9 035a 0f13 46c0
00000790: 7efd e23d 5a73 3dc0 7531 a61f 90b1 5640
000007a0: 49ab be09 1970 13c0 cbb3 135d e790 5240
000007b0: 9214 5143 a022 3440 0a19 866e 6fb1 4240
000007c0: a861 2115 031f 0ec0 1f67 8552 1990 0540
000007d0: 5988 2b46 2438 3940 e618 595f c128 19c0
000007e0: 97ad 78f0 1da9 4040 0f4b 9767 785b 3240
000007f0: e609 537d a6cf 5440 eb9b c7d6 666a 3640

arr_1 f8 [128]
-1.5937022741213784 -3.866310922692021 -71.51830626695525 44.36464946607224 -37.35359799891126 19.844073187493137 -13.047397403015408 2.331125786821727
-11.609363780170485 -40.58053673204632 -10.359040496208209 50.641294648061844 42.20565748161465 19.299272114786973 -28.977293219788017 -21.99156104212024
-1.708311500757377 -11.003741658538708 6.406284860185246 68.00785747460954 -22.325571161020086 34.321208234403784 24.782659493633755 26.06572195950652
31.175568663097586 5.269418418245398 17.662601941731644 14.414828427616072 -5.819279983415389 -16.539367242915098 1.1466259220290038 -43.09253746411406
3.4466578013121945 -40.32765834250324 -25.887508432298738 48.169295761427996 -32.16780473796832 -11.921149246588616 11.932594230657724 -31.362183274810395
-29.411193059994346 -14.403841017971725 -35.52010589011769 18.70440749636848 -10.757744787678124 25.76111006262004 -57.044892840068556 -41.98145182996008
-70.19218369036082 14.110477610882997 41.24921984961926 21.882812809468657 33.355262313220656 -16.783087776353902 48.34579334463193 -18.177767599462662
-75.05614782060202 13.976152776254793 -19.296670694714532 11.887322213209474 16.215120522921307 33.131266285096075 -64.66054102920974 27.255586920915132
-34.85268148563412 7.6619072440229 -71.18007849572933 56.133504849112114 3.845043982403296 40.464860907636385 -0.3004502085878682 50.29852792498612
-41.99247757019827 10.554077758581844 -12.21025123899204 17.704354025896887 -28.900641390418357 6.494225791058815 -61.377300239475815 56.8028380804442
19.712959785218523 -20.411984154422136 14.536646721548486 38.62506239001023 3.584679626231713 12.975940527317668 35.31441856257561 17.390752281429155
-19.210923129740188 16.792190196053113 28.75720574500173 45.317845692522575 23.482210090932067 -0.07202563503639059 -15.487736040884286 -2.6186325986160126
-35.49213885636517 1.947520370888669 -9.943442640081598 -49.63051721108626 25.85590066037645 17.23128061213746 -23.510382679515033 16.224823139351876
-7.365303116205732 15.79129213157766 -41.9839083683042 -36.486403014370836 6.8656532569511235 -15.3406587077677 -8.484558815477296 -28.974286042528092
10.550227211274972 65.59231166358872 44.03995738546378 -16.697145787174343 12.99675990684964 -5.0028579339062995 -4.9308127617387445 8.639557243707213
92.99608928625449 40.51443779529725 11.551093268558636 -5.121504146736726 -21.158965911366586 34.933695085930125 10.617758775975611 8.649059667719527
00000000: 2898 aef4 cd7f f9bf dc09 c96b 34ee 0ec0
00000010: 9e78 0cee 2be1 51c0 5ea4 6dd5 ac2e 4640
00000020: a1a0 00b3 42ad 42c0 a8b6 2f2e 15d8 3340
00000030: a7bb ef78 4418 2ac0 ba17 ca46 25a6 0240
00000040: f965 8687 fe37 27c0 0122 1307 4f4a 44c0
00000050: c84e ea27 d4b7 24c0 4243 6af1 1552 4940
00000060: 38db fefb 521a 4540 649d e918 9d4c 3340
00000070: 9297 71e3 2ffa 3cc0 e4e4 c7f1 d6fd 35c0
00000080: 4823 b270 3e55 fbbf f41c 3a6d ea01 26c0
00000090: 196c 6d23 09a0 1940 891e a3bc 8000 5140
000000a0: 1e1a b1a1 5853 36c0 2efc f659 1d29 4140
000000b0: 970f 615f 5cc8 3840 a4b5 8227 d310 3a40
000000c0: e234 6211 f22c 3f40 5537 fd6b e213 1540
000000d0: e600 e647 a0a9 3140 d01f 4464 64d4 2c40
000000e0: 6525 fc54 f146 17c0 a2da bcf8 138a 30c0
000000f0: 45c4 3d6c 9458 f23f 2803 8344 d88b 45c0
00000100: f61c 4953 c192 0b40 10a8 64b5 f029 44c0
00000110: b6a5 abc0 33e3 39c0 a357 c77b ab15 4840
00000120: 09d8 2aa0 7a15 40c0 92aa c1df a0d7 27c0
00000130: f639 b2fd 7cdd 2740 0578 080b b85c 3fc0
00000140: 9404 c9f2 4369 3dc0 9ef1 f93f c4ce 2cc0
00000150: 9841 6ed4 92c2 41c0 b9f5 b70c 54b4 3240
00000160: 8295 f31f f783 25c0 0e9c eb1b d8c2 3940
00000170: a2f5 6f0c bf85 4cc0 9223 ac36 a0fd 44c0
00000180: 283b d2bc 4c8c 51c0 895d 7b85 9038 2c40
00000190: 7bd0 9f6f e69f 4440 6328 3105 00e2 3540
000001a0: 5b64 483c 79ad 4040 5e56 c570 78c8 30c0
000001b0: 2e2f d1f4 422c 4840 06fb 692d 822d 32c0
000001c0: 8d4e 07ed 97c3 52c0 f0d3 f34b caf3 2b40
000001d0: 037b 539c f24b 33c0 817f dd18 4fc6 2740
000001e0: 3ba5 7a23 1237 3040 0cc7 6855 cd90 4040
000001f0: cf87 e14d 462a 50c0 a79d fa24 6e41 3b40
00000200: 045a bbaa 246d 41c0 6141 3803 cba5 1e40
00000210: b477 f467 86cb 51c0 a065 d8af 1611 4c40
00000220: 7ed4 606b a6c2 0e40 5bbe ed8f 803b 4440
00000230: 7c85 fd82 933a d3bf 0a61 bd29 3626 4940
00000240: ef01 4981 09ff 44c0 9a19 7914 b01b 2540
00000250: 1ed4 e60c a66b 28c0 7708 a28b 50b4 3140
00000260: 5445 256f 90e6 3cc0 d6bf 6553 16fa 1940
00000270: 2aa9 ce5f 4bb0 4ec0 e1be f165 c366 4c40
00000280: 72e0 5088 84b6 3340 9ab6 25cb 7769 34c0
00000290: dc1c ed5b c312 2d40 da86 5d0b 0250 4340
000002a0: f46b 0a83 6cad 0c40 3c57 0f7a aef3 2940
000002b0: 40c2 11de 3ea8 4140 5b93 6d57 0864 3140
000002c0: 3e34 e80e ff35 33c0 8c42 08fa ccca 3040
000002d0: 3120 573c d8c1 3c40 8b47 eb2a afa8 4640
000002e0: bb5a da1e 727b 3740 4076 f4a2 4570 b2bf
000002f0: 685b d189 b8f9 2ec0 b65c daa5 f5f2 04c0
00000300: f296 f267 febe 41c0 842b d41e 0b29 ff3f
00000310: cf9a e9e9 0ae3 23c0 1e97 b8c9 b4d0 48c0
00000320: 10f1 404e 1cdb 3940 4a54 c934 353b 3140
00000330: 40f6 7470 a882 37c0 7ee6 5e02 8e39 3040
00000340: 0aec 2405 1276 1dc0 966a 053e 2495 2f40
00000350: 4a10 9cb5 f0fd 44c0 04b3 3774 423e 42c0
00000360: b41f b1ce 6d76 1b40 77eb 71d1 6aae 2ec0
00000370: 4eed d217 18f8 20c0 809b 61cf 6af9 3cc0
00000380: 3097 8b61 b719 2540 c909 2e6f e865 5040
00000390: 7ae6 d752 1d05 4640 3e75 7425 78b2 30c0
000003a0: 34c4 8350 57fe 2940 91a5 b230 ed02 14c0
000003b0: 2a78 09fb 26b9 13c0 e648 0b0c 7447 2140
000003c0: fa16 47ed bf3f 5740 6350 0119 d941 4440
000003d0: 9b02 9be5 281a 2740 2040 4295 6b7c 14c0
000003e0: 927f 6efd b128 35c0 be40 1152 8377 4140
000003f0: b543 d7e0 4a3c 2540 1804 7c8c 514c 2140

arr_2 f8 [128, 64]
13.196487428146398 -10.827641833965469 -38.75871824856094 -37.59803184142106 22.900504859224036 -21.81412449463818 12.493343433187848 14.073759151168723
-61.70145091626835 59.878807944916275 23.702938036044806 14.744386960739416 -39.338773183066095 13.904574960240566 31.58254052846139 -9.157401366979503
-57.716605322636404 -53.00706154820976 19.11158340761899 -35.42876036942176 -56.34208163873974 -27.525224272776548 30.872571604688957 1.2683534531236926
-3.9180340550866726 9.664641172009887 16.316911731038026 31.541225469418443 -9.932178939051296 -40.55149345688294 8.555333468654048 -4.401413913827216
25.75834995743805 43.078036316982065 -32.452015091017046 -25.101699176134126 1.9438239664379537 -15.863746161194733 14.063654890924965 3.3935531203356737
33.961175697919586 -24.859943024236753 14.553625258166733 16.193192891717104 -48.205946747912755 -60.336537404603284 30.874090769634506 13.350659595913534
-7.61669626132098 -45.36984212766981 9.394216775767962 3.653782224724684 -48.35680491827789 -5.39796682145375 -45.89357762963103 -1.9194934720786185
-44.49667651121136 13.042384636492299 -18.71727060418371 30.088909539439523 26.955832838234233 4.837689245210337 -38.68657124761861 35.49172476881929
2.837466905051878 -26.507109367908328 -15.963933714731303 -14.841099488830055 0.3755338130194481 -5.184344657533766 -24.17336833333914 -31.46279930722349
-14.9749940178781 -7.263172394654408 28.849324519062396 19.154585395840634 4.863102684441097 -43.420432804157315 24.95283578865334 -8.14618030327802
47.05900426497714 17.564421596426964 10.809695940924417 -56.734534469519 -23.458255058121253 3.977973155813444 47.437791090538965 -42.49939690600738
-2.237031333483986 -33.521859664913244 9.915678550879958 -58.46717723898403 25.420994573402574 -2.7931674136416063 -9.845661332860153 11.772465458824177
-0.09496535785367222 27.954441507450067 30.548384059717904 -38.30601483669406 -36.647508627114334 48.181286464217926 9.558028498659635 -27.00305737996767
13.86840733719318 47.57389146286482 -25.716046045320727 13.2131873613032 -24.844750190299823 22.425264919633094 13.427465511128018 -63.9546692907856
-28.625783728789862 -46.39501967791725 29.000255695313005 -20.77228735520132 11.439921981167613 30.47051808911704 -76.8078961421037 -1.3905762312903045
23.29596571178322 14.66114690320301 -20.044977304705483 3.2226923747671465 37.612099603927845 -47.47797135744079 -9.00083455975729 -2.8953881522554044
4.485576738555446 -4.2088743867003995 14.248300935358092 38.496957803299956 68.80920158911835 1.393526858126258 -21.759632817669996 8.56522530250304
-10.866228231049268 31.104206773802396 6.914132136762763 -31.901828540547235 -26.613179153317706 -16.66880038357418 -18.236788901605763 34.39113212706768
-5.230804865895253 15.25177623968677 0.7453983329264098 20.536564234949424 35.261107633660394 22.530399088790528 -37.724080271126525 -17.956719891455624
-1.5186620966721498 -52.41518207108406 12.704085481168455 2.8682250018294075 -37.99407025655518 79.96678486717943 17.62088953263555 -14.817504597185938
-68.61723205445843 10.82220199555335 -37.353167352157996 -11.280809144512466 33.37989804086783 54.27076844738838 -66.18584549812942 -4.540080446627384
9.689820075107693 -32.00069509282723 74.12724137654676 -41.68181600609781 -11.224933994744642 -34.614845393939746 44.63680628935337 -17.784816084914524
4.051178531027178 -1.5619012723765315 -32.492282082656914 -27.990790674398703 -1.7808085103231868 -29.89795214603648 15.572252175677278 82.89256868100559
-0.0349162356749011 -1.6678378382146453 -90.4054329318901 43.794942357237694 -5.534966477804747 -61.596652728152684 61.67825435697851 37.674289787699
14.436749821925146 45.575850829933 -10.545079275133393 20.29922407059511 13.49755788043167 -49.20739950252029 -24.765643560978884 37.08595117493885
0.7965140875631942 -17.4387325524849 -17.05454365091367 21.495899466751638 -10.983979669442093 30.749896510248536 -5.534312016045234 10.669178149813796
52.111387053131565 23.102856246517348 11.684966938060018 18.176192857238128 4.242304002679293 -36.086699171462925 -45.19401112142218 47.58228032471496
-20.95375929042173 7.951497527340088 24.85349881522299 -17.931812021002028 -25.92939064344896 -31.771726317008472 56.79349817183211 -3.374683681673876
-18.22203200002138 -20.110481667809033 -23.84118703748899 59.440877488467564 -51.33543960487933 -57.00018765853994 27.210439225556463 -29.820009222166387
-46.42888485698781 -35.72083285308928 15.328512164166717 31.21587621522705 -39.01165186122153 -37.37233543669902 -11.468817818010999 -34.285499444085325
55.97548758368628 -1.1975443292574042 -69.70101869808687 -27.748046214714922 26.566352201866934 -10.950235885720044 15.407731652887618 -86.72725171713336
-8.598498575820155 -1.611496571959976 -35.741425651138265 50.575387016718494 81.88932961817635 5.574595909522517 -11.14618824399015 -22.565132422435248
00000000: 88ed 0b00 9a64 2a40 c65d a3ab c0a7 25c0
00000010: 4c39 f8ad 1d61 43c0 606f b04e 8ccc 42c0
00000020: 9e41 887c 87e6 3640 f057 7f76 6ad0 35c0
00000030: f179 ae82 97fc 2840 cc19 6cc2 c325 2c40
00000040: 978f c424 c9d9 4ec0 b070 5bc7 7cf0 4d40
00000050: 4aed 43bf f3b3 3740 a6e3 a749 207d 2d40
00000060: ee03 6feb 5cab 43c0 0807 fe72 24cf 2b40
00000070: 1356 4660 2195 3f40 9a0b 77e9 9650 22c0
00000080: 736e 24b9 b9db 4cc0 5e4f 8f64 e780 4ac0
00000090: f37f eeba 901c 3340 613e aa9e e1b6 41c0
000000a0: 8279 c554 c92b 4cc0 02a4 1219 7586 3bc0
000000b0: ac8e 49da 60df 3e40 78f5 8efd 2c4b f43f
000000c0: 32b1 193d 2258 0fc0 14b7 02d9 4b54 2340
000000d0: ee86 9020 2151 3040 1aea 9ac0 8d8a 3f40
000000e0: 977d d28e 46dd 23c0 96a2 6c56 9746 44c0
000000f0: 9c7c 1cab 541c 2140 6430 c03f 0c9b 11c0
00000100: 921e 0a39 23c2 3940 4cab 1218 fd89 4540
00000110: bc9b 68a1 db39 40c0 b686 0bf5 081a 39c0
00000120: 2083 d028 e719 ff3f fcc0 d4ef 3cba 2fc0
00000130: a081 b55f 9720 2c40 cea4 a82d ff25 0b40
00000140: 2623 26ce 07fb 4040 2b85 dd39 25dc 38c0
00000150: a021 14c5 741b 2d40 a0be df16 7531 3040
00000160: 5d80 8976 5c1a 48c0 6f53 5da8 132b 4ec0
00000170: d050 a569 c4df 3e40 54f4 90a7 89b3 2a40
00000180: 9ec1 8739 7f77 1ec0 3083 a1fc 56af 46c0
00000190: 7aea fec7 d6c9 2240 6a30 cf2c f23a 0d40
000001a0: 1a87 97c8 ab2d 48c0 d025 4c9d 8497 15c0
000001b0: ebd9 73c0 60f2 46c0 1669 77c9 3eb6 febf
000001c0: 0e2c 8e18 933f 46c0 af2c 6770 b315 2a40
000001d0: e859 db0b 9fb7 32c0 f731 8cc6 c216 3e40
000001e0: ada8 fc75 b1f4 3a40 aa8e a135 cb59 1340
000001f0: ab72 0f91 e157 43c0 235b 54d6 f0be 4140
00000200: f470 45d9 21b3 0640 58a9 66eb d181 3ac0
00000210: c390 48b8 88ed 2fc0 316a 9a97 a4ae 2dc0
00000220: 407c 5df9 be08 d83f 0b33 8dd8 c4bc 14c0
00000230: 88da f9dd 612c 38c0 e822 f103 7a76 3fc0
00000240: 062a 796a 32f3 2dc0 b400 7110 7d0d 1dc0
00000250: 5d10 e954 6dd9 3c40 2293 93e8 9227 3340
00000260: aa0e ab30 d173 1340 b802 fcbd d0b5 45c0
00000270: 76b9 d60b edf3 3840 03cc 0b25 d84a 20c0
00000280: 5f33 a673 8d87 4740 57cf 09ef 7d90 3140
00000290: daf2 6377 909e 2540 352f ba39 055e 4cc0
000002a0: 7cdb 1734 5075 37c0 5fad 0497 e3d2 0f40
000002b0: 2a2c d889 09b8 4740 3c83 e13c ec3f 45c0
000002c0: 2687 0baf 70e5 01c0 b3f3 284c ccc2 40c0
000002d0: 2f5b abd1 d3d4 2340 9d6f b976 cc3b 4dc0
000002e0: ba8e e44c c66b 3940 b3bf 2e28 6858 06c0
000002f0: 9440 b085 fab0 23c0 03e1 b597 808b 2740
00000300: 8005 3c52 a64f b8bf 6771 5447 56f4 3b40
00000310: d822 d2e5 628c 3e40 8cd8 817e 2b27 43c0
00000320: beaa 0c90 e152 42c0 0183 1565 3417 4840
00000330: 4ef5 4fe9 b51d 2340 fcf8 525e c800 3bc0
00000340: cab3 f1e2 9fbc 2b40 a03a 8446 75c9 4740
00000350: 2915 2bcb 4eb7 39c0 816f d1e4 266d 2a40
00000360: a5a0 688c 41d8 38c0 d0f5 6929 de6c 3640
00000370: efec 6cc2 dcda 2a40 b835 739a 32fa 4fc0
00000380: 7a85 c95c 33a0 3cc0 2cf7 3a01 9032 47c0
00000390: d101 dbc1 1000 3d40 3ab4 c59f b4c5 34c0
000003a0: 17d0 3374 3de1 2640 21ef 9cdf 7378 3e40
000003b0: 9939 0592 b433 53c0 e4c9 bfdc cc3f f6bf
000003c0: a7d8 ac68 c44b 3740 9b37 ced8 8152 2d40
000003d0: b4c5 f4a1 830b 34c0 3a8c 95f0 12c8 0940
000003e0: e061 a247 59ce 4240 0351 5a2a 2ebd 47c0
000003f0: 6eba 2d63 6d00 22c0 7a4d 7943 c129 07c0
00000400: 0a2d 4f07 3bf1 1140 ae66 cf2a e3d5 10c0
00000410: c2db d94c 217f 2c40 2955 3450 9c3f 4340
00000420: 9c48 76f5 c933 5140 a2ff 9bd1 e24b f63f
00000430: 68dc dc4b 77c2 35c0 993e fa35 6521 2140
00000440: 0375 4644 82bb 25c0 c280 8d4b ad1a 3f40
00000450: 8479 3e41 12a8 1b40 f23f 383c dee6 3fc0
00000460: a916 1a4f f99c 3ac0 dc00 7f80 36ab 30c0
00000470: d873 8c32 9e3c 32c0 d615 179e 1032 4140
00000480: 721c 5b1c 58ec 14c0 a4ba b6d0 e880 2e40
00000490: e02d cd9a 4dda e73f a04f 1146 5c89 3440
000004a0: 57a7 95f9 6ba1 4140 fb2e 143c c887 3640
000004b0: 6815 8ea9 aedc 42c0 0d3c 4598 ebf4 31c0
000004c0: 561b 6ea0 704c f8bf 8698 a4af 2435 4ac0
000004d0: f469 66e4 7d68 2940 2e6a 23f3 1ff2 0640
000004e0: 59ea b4b1 3dff 42c0 6ab3 a2cd dffd 5340
000004f0: 3219 cd9d f29e 3140 8c7c 6af6 8fa2 2dc0
00000500: 47fc dfba 8027 51c0 1437 f3a8 f7a4 2540
00000510: 4ac4 7996 34ad 42c0 9332 5837 c68f 26c0
00000520: c0ab be7f a0b0 4040 3029 5d8a a822 4b40
00000530: c824 84e4 e48b 50c0 0ee5 3dd9 0a29 12c0
00000540: 726c cd18 3061 2340 f67a dcc6 1600 40c0
00000550: d9bd 03b9 2488 5240 2b0a 34bf 45d7 44c0
00000560: ae5f 6e8c 2a73 26c0 a288 fd40 b34e 41c0
00000570: 7654 55de 8251 4640 2815 fab4 e9c8 31c0
00000580: 8213 1425 6834 1040 0302 4730 8cfd f8bf
00000590: 88b5 6a19 033f 40c0 66b9 2775 a4fd 3bc0
000005a0: d06c 8410 317e fcbf 8699 1c31 e0e5 3dc0
000005b0: 9032 b73c fe24 2f40 9596 63d8 1fb9 5440
000005c0: 2071 a574 8ae0 a1bf a29c a2ba 76af fabf
000005d0: 1fcc f79c f299 56c0 4145 d1ab c0e5 4540
000005e0: c382 9a40 ce23 16c0 133e d91d 5fcc 4ec0
000005f0: cecb ec09 d1d6 4e40 d518 b520 4fd6 4240
00000600: 9767 33ac 9ddf 2c40 e6f7 e07a b5c9 4640
00000610: c2d9 78a1 1417 25c0 ca61 ddf2 994c 3440
00000620: 67a4 10e8 bffe 2a40 0244 2011 8c9a 48c0
00000630: 1bcc 6637 01c4 38c0 23b5 b672 008b 4240
00000640: f063 9c1c 0b7d e93f fe9c ccc6 5070 31c0
00000650: efe0 9c92 f60d 31c0 58cd 7744 f37e 3540
00000660: 885d e82e ccf7 25c0 e9e6 ba37 f9bf 3e40
00000670: b018 6bb0 2223 16c0 cc4b b984 9e56 2540
00000680: ee32 53ee 410e 4a40 38fb 76c9 541a 3740
00000690: 3a9e 8bfc b35e 2740 66a0 9ff9 1a2d 3240
000006a0: 33ca 5c8a 1ef8 1040 0403 5df5 180b 42c0
000006b0: c6c8 3e5b d598 46c0 a4e0 6329 88ca 4740
000006c0: 149e a091 29f4 34c0 289a 285e 55ce 1f40
000006d0: b88e fae5 7eda 3840 2f39 8c3b 8bee 31c0
000006e0: 5ad2 928b eced 39c0 9003 1ddb 8fc5 3fc0
000006f0: 34ba 1c59 9165 4c40 c912 7928 5aff 0ac0
00000700: dec1 d216 d738 32c0 1e0c ce86 481c 34c0
00000710: 97d5 9f08 58d7 37c0 6241 6dac 6eb8 4d40
00000720: b55e 5aaf efaa 49c0 5ca5 3126 0680 4cc0
00000730: 828f 5758 df35 3b40 7f9f d71f ecd1 3dc0
00000740: 9241 f1b2 e536 47c0 4ef3 3c40 44dc 41c0
00000750: 54de 12bf 32a8 2e40 6a62 e4a9 4337 3f40
00000760: 2771 e5ce 7d81 43c0 d0e1 05b0 a8af 42c0
00000770: 5547 98e3 08f0 26c0 b3af eb3e 8b24 41c0
00000780: 17cb f2c6 dcfc 4b40 a0bb 1a3e 2429 f3bf
00000790: ba8a 877d dd6c 51c0 e118 ecf4 7fbf 3bc0
000007a0: 3c09 3975 fc90 3a40 6e4e 6951 85e6 25c0
000007b0: 8764 0534 c2d0 2e40 0c43 c94a 8bae 55c0
000007c0: 46b3 c367 6e32 21c0 84f2 22a1 b0c8 f9bf
000007d0: f506 2609 e7de 41c0 aaac 2148 a649 4940
000007e0: 9f5b c6c6 ea78 5440 2342 bfde 624c 1640
000007f0: a6fe 7d2f d94a 26c0 c644 b884 ac90 36c0

arr_3 f8 [64]
7.299546205319752 -37.74119284824027 -47.83516856734058 14.94780675767361 -42.876617376025855 -0.3157401691610543 4.8862427543361076 41.61530155756004
-49.99121272290513 7.5263289246992375 0.5700980736323724 0.15570371714243836 -59.90959228382451 -38.801804020818565 -8.376964100884441 24.582805370664165
-26.1327827807142 -24.39006264398355 3.026888882946201 -2.3643790063652137 -22.92000944688692 -4.008439701117117 2.705527613665776 -5.674367445615904
-29.518499600610244 35.62723271863348 -26.049638870824065 33.20967368750995 22.164040890945756 25.518329542388095 59.579890760724915 -39.85110595702946
-46.89285662614365 37.30605744808772 12.125600042040857 -22.59613152120714 -29.260166157395425 -7.558987895375408 -24.315970071450824 -32.81149027459518
-24.600605167930453 -42.255661420797914 46.856796593717625 -0.8594578056133773 1.4263863738974059 -14.5814386931334 37.847540183038994 9.484343556783482
-13.341385615820297 17.3857531250289 -56.233696859222526 -20.5391742135247 29.982066757762354 -2.8520612097801403 18.95426823394482 3.7421962368189527
-8.855596218791327 57.79472237056255 -16.22041452275034 -35.365571665302255 36.09265632934982 12.819726629414115 1.7754671706662468 24.32180121588121
00000000: faf4 8d3d bc32 1d40 4b9c 4168 dfde 42c0
00000010: ffaf b9cd e6ea 47c0 9b45 66ed 46e5 2d40
00000020: 7591 88ff 3470 45c0 9622 2541 1635 d4bf
00000030: 1ec3 7838 838b 1340 f972 9133 c2ce 4440
00000040: da20 fa0e e0fe 48c0 9a16 3af8 f51a 1e40
00000050: bc6f b850 3e3e e23f 3407 7f72 19ee c33f
00000060: 30dc 1b85 6df4 4dc0 c89b 9f83 a166 43c0
00000070: 2321 4a70 01c1 20c0 8def 96bb 3295 3840
00000080: b2a3 640d fe21 3ac0 f74c 3b25 db63 38c0
00000090: 0c0a c784 1137 0840 2480 5d8a 3fea 02c0
000000a0: ef63 36bd 85eb 36c0 e624 c16a a408 10c0
000000b0: 98f4 58a9 eba4 0540 25a1 3161 8db2 16c0
000000c0: 2d9c cb63 bc84 3dc0 88c1 6629 49d0 4140
000000d0: bbcc 0e22 b50c 3ac0 ee57 5f96 d69a 4040
000000e0: 98d1 7595 fe29 3640 861b b13e b184 3940
000000f0: 7548 46dc 39ca 4d40 a86f 3d0a f1ec 43c0
00000100: e5a6 3c20 4972 47c0 f31d f5e3 2ca7 4240
00000110: 27e2 11a6 4e40 2840 0cb3 4b13 9c98 36c0
00000120: 128a d13f 9a42 3dc0 2efd a552 673c 1ec0
00000130: 6565 236a e350 38c0 4534 cfe9 de67 40c0
00000140: e411 a242 c199 38c0 8596 7083 b920 45c0
00000150: b3ab c282 ab6d 4740 1cd8 eca7 ad80 ebbf
00000160: 1697 b584 7ad2 f63f 1c46 1755 b229 2dc0
00000170: 6319 5c32 7cec 4240 a6d3 f0e0 fbf7 2240
00000180: c68b 6e18 caae 2ac0 3454 80b7 c062 3140
00000190: f3c4 57c7 e91d 4cc0 63ef 3d52 078a 34c0
000001a0: fc13 1fba 68fb 3d40 3391 b177 05d1 06c0
000001b0: 9967 48ec 4af4 3240 3ad0 a294 04f0 0d40
000001c0: 7c94 24b5 10b6 21c0 9e7b 6f76 b9e5 4c40
000001d0: b2c6 0e16 6d38 30c0 a268 650d cbae 41c0
000001e0: 9629 a029 dc0b 4240 e5fc 7135 b3a3 2940
000001f0: 8221 9243 5068 fc3f d805 8290 6152 3840

arr_4 f8 [64, 32]
-10.651461168857367 7.843869212958511 -27.342376275494694 13.686694046177266 -65.16695356957229 4.619227612709048 -17.61395715132875 61.72871393446277
-0.5560320079053803 -17.724956839155492 18.123904224608697 -15.987660394352742 14.063189720495025 -4.233733058086214 -8.167333820594076 9.981637202598282
55.19169507098358 52.50814894226618 -3.910030440949699 4.402815330150871 -46.00772881164056 -29.806183747632563 23.43193216132045 4.786910509608682
3.193584816792077 -39.39684295724422 9.794270488681402 -9.103777000398026 -32.55285099927696 45.477599770309205 -0.6980979838285348 38.46042508285367
-11.504602562995574 -33.549484709737975 -3.591445141654873 -22.090888924001426 -26.504710175790812 -39.199847231244625 18.713149201346916 6.113310707128395
3.006118125045476 40.15616495234198 32.31043847178142 -22.727346820509762 36.446101112274135 -56.9018605473164 11.152626228927339 90.1540750999182
-25.832765949975077 51.13017224228752 10.515973765197195 13.190331835489467 3.0882821178391127 -57.78420523746621 24.230828065382916 -62.92730274270177
-28.748276661871408 53.16313445581652 -3.4540976539015267 -17.635970539733798 15.092011362463523 36.15425045217312 18.76195386435368 -33.89407384181622
-51.32437629153176 25.282174121259434 5.072217056025257 13.127780823419151 -26.0275655351031 9.843291184925473 46.39188310133101 55.295373211604215
1.9558646499375194 -33.112865650486384 -9.783718201021774 2.426751093270478 13.929562658946093 -61.705156287904565 -1.0330914885767921 -3.748967915274601
-21.870331425935323 0.7991416169798615 -1.2855639595460717 -37.035050019213685 -45.148971135938666 -1.1904448457466221 73.53249943380227 -2.7771762937535542
-9.277328118287802 32.74384094621072 -1.305371589639484 19.83355835190055 -11.312686015448202 0.10897341701328589 -50.07903202371955 -43.06921548992616
23.75670695340458 -11.826961756136024 -11.055962271159284 27.58193498787162 9.058241271740684 -2.0903431454076546 51.07498959375308 -7.018956132575909
3.8808579731538018 10.959941249546475 -0.46482687958337204 -0.36208658360312596 -20.17992658471495 60.989145666994204 -13.423431665481765 -4.200225828534682
-37.0219618630089 46.441559132619666 34.832471962168874 11.998427038655395 -9.81677724329072 12.939435421332451 35.57259210025719 0.9677081259404443
-0.3090656685828752 -49.31952906303811 6.76157709199506 -0.8968075510652724 -28.559933774216844 8.653636634350713 -28.618062318537582 -32.410668239196255
27.252682764274333 16.95806011324852 -31.64835254446006 -33.44911212526473 44.94852864286435 -23.94034012542782 -15.816425181351875 -28.019617413442617
79.14640126014046 -2.2500801629685263 83.56285896472436 -24.805968675558276 -27.027100516255935 -10.890662822698037 51.54381526586012 54.96992098106422
31.60032301662598 -1.2018551958903165 38.14338267817205 -69.89192125369975 13.939861614921195 -23.453132065587212 26.49865724433679 40.32530365178667
9.168393661683247 -43.45306163991137 -21.197507035155766 24.297840075834564 3.354381567795672 1.598876512642244 25.434882089850593 11.501558501137213
25.696599924946906 0.5478273040580097 -0.6121321671986326 5.643336354526934 -1.7192632566321424 20.10244683727245 -13.758629713859133 13.640029495748358
-21.205359512851533 -59.131625299902765 -43.13560081382954 30.890626932443357 -10.084963223227964 -59.51291783464585 47.25007206169945 32.074381155178266
19.73856006360801 35.68850650713948 23.778634057646656 2.827050456693102 -27.922784624618743 42.72255113683888 -12.315902400159656 65.57359850554874
52.794109128298324 -25.71762251385589 -44.61289493879018 -1.445114611099747 8.339141489174024 85.94967236776031 -32.22273205294539 3.0258630433784885
-20.949731692780574 -6.535896791551902 -10.632168766582767 25.094549907925852 15.646910095746676 -7.491295444638913 -42.19535977706802 11.135609433135807
29.72155316099242 -20.573278039088137 -8.996100349284713 11.030830657942618 33.058662338656845 -13.582668854637719 -8.020199032149712 14.983935688455782
-32.504363351092714 -20.963093884582534 34.458359450791676 27.842696107219552 5.19539529950204 -50.244121677221486 7.359367991263975 39.862072065130526
19.729397151655235 -8.948323739422106 18.579472978317202 -32.00066379895753 53.54463953981647 2.8869472209739793 30.449149669043692 2.7974805284730238
19.06958290755474 -24.19135853668122 3.393172286891058 11.14995143472434 31.836436664915688 25.405387116083475 23.518308378951374 -41.10703464471184
33.51904082300001 13.185499266967984 26.59007761416961 6.642255965555603 -35.47801074144579 0.8643123924760632 -55.22724472693283 -43.121545283026514
-17.574010824035135 4.994054618381396 69.24266460290758 28.170246181026158 -31.37637357022179 25.556389348432546 -4.723320228823729 -16.14032835407788
-23.000556322035244 6.989081676881205 -47.88334328191475 32.87743639666108 18.570994740288178 10.169175484925038 29.70497692521216 -25.113146746655623
00000000: 70b6 7d51 8c4d 25c0 4208 3f40 1f60 1f40
00000010: 0e2d baf8 a557 3bc0 e860 ad5c 965f 2b40
00000020: dc50 065e af4a 50c0 4a76 a5cd 167a 1240
00000030: 311a be4b 2c9d 31c0 1b54 8a7f 46dd 4e40
00000040: 4773 2fa3 03cb e1bf 332f 7bc5 96b9 31c0
00000050: d587 f02f b81f 3240 5799 8a9f aef9 2fc0
00000060: 64f0 2d67 5a20 2c40 bee5 01b8 57ef 10c0
00000070: bdee 4dc7 ac55 20c0 a264 c326 99f6 2340
00000080: e556 ce76 8998 4b40 df43 4806 0b41 4a40
00000090: 84f2 310a be47 0fc0 3e4d 359f 7b9c 1140
000000a0: d89d f841 fd00 47c0 09a6 de0e 62ce 3dc0
000000b0: 41f6 2a1b 936e 3740 8997 5ede cb25 1340
000000c0: 34fe 4832 768c 0940 8481 01c0 cbb2 43c0
000000d0: 0e21 1a9f aa96 2340 b092 4d42 2235 22c0
000000e0: 4dba 50d2 c346 40c0 0f07 41fd 21bd 4640
000000f0: 984e 3e95 d156 e6bf ab8e 8835 ef3a 4340
00000100: 6916 6344 5b02 27c0 03fd d483 55c6 40c0
00000110: 4049 2697 47bb 0cc0 9e27 1c7f 4417 36c0
00000120: defa a2af 3481 3ac0 2732 1598 9499 43c0
00000130: 1af4 30f2 90b6 3240 c49c d5b8 0774 1840
00000140: 82dd d7a8 870c 0840 8c8b 9136 fd13 4440
00000150: 57dc a572 bc27 4040 63f0 b666 33ba 36c0
00000160: 9cf6 5bd7 1939 4240 6823 9a2a 7073 4cc0
00000170: 6c82 6b06 254e 2640 b4d1 ce5d dc89 5640
00000180: 865d 3826 30d5 39c0 67bc e97b a990 4940
00000190: 5c3b 9eb6 2d08 2540 3ca1 a12c 7361 2a40
000001a0: 5d86 4741 cdb4 0840 7822 54d6 60e4 4cc0
000001b0: 8ed1 4f8c 173b 3840 96b2 34db b176 4fc0
000001c0: 0619 2f0f 8fbf 3cc0 964a 0097 e194 4a40
000001d0: 3e94 65f3 fda1 0bc0 4a60 1df7 cea2 31c0
000001e0: 5048 011d 1c2f 2e40 07bd 937a be13 4240
000001f0: ba75 9068 0fc3 3240 a667 fb02 71f2 40c0
00000200: 04dd 8d29 85a9 49c0 3996 2e90 3c48 3940
00000210: 155e 9744 f349 1440 4c48 f37c 6c41 2a40
00000220: bac3 ef88 0e07 3ac0 1e85 b8dc c3af 2340
00000230: 2f09 b839 2932 4740 30fa 15ca cea5 4b40
00000240: 6a25 2ebb 384b ff3f 24d7 b261 728e 40c0
00000250: 4256 1583 4391 23c0 1608 297a fc69 0340
00000260: 3683 07a3 efdb 2b40 378f ad8f 42da 4ec0
00000270: 9869 d3f0 8a87 f0bf 97dc eee3 e2fd 0dc0
00000280: c112 530a cede 35c0 50a2 b970 9192 e93f
00000290: 94aa b283 ab91 f4bf 9c1f df84 7c84 42c0
000002a0: c873 767c 1193 46c0 afc6 02e5 0f0c f3bf
000002b0: 6f54 8178 1462 5240 1d2f 6734 a837 06c0
000002c0: 5a9d 7cf3 fd8d 22c0 4bb3 1c2e 365f 4040
000002d0: dc10 ea51 cde2 f4bf 74b8 8414 64d5 3340
000002e0: 7d88 a461 18a0 26c0 4097 348e aee5 bb3f
000002f0: 289b aab8 1d0a 49c0 03ce 9c0d dc88 45c0
00000300: 4a87 018c b7c1 3740 3d4b 0388 67a7 27c0
00000310: c6e0 3816 a71c 26c0 884e fdb0 f994 3b40
00000320: b0ce cacc d11d 2240 988c b7d3 05b9 00c0
00000330: db5a 4e42 9989 4940 80e3 853c 6913 1cc0
00000340: 70ee d843 ff0b 0f40 58c4 616b 7deb 2540
00000350: 2330 873d b9bf ddbf b854 b934 6d2c d7bf
00000360: 1c08 2dab 0f2e 34c0 305c 4153 9c7e 4e40
00000370: 84ab 0609 ccd8 2ac0 de7b e5ff 07cd 10c0
00000380: f4b0 75a5 cf82 42c0 01ed 7802 8538 4740
00000390: 172d f670 8e6a 4140 21ef 2cd4 31ff 2740
000003a0: f219 78a0 30a2 23c0 5aa7 f6ad fde0 2940
000003b0: bb46 acb2 4ac9 4140 e49a 1f08 77f7 ee3f
000003c0: 084f b85e bbc7 d3bf 63ef 0d54 e6a8 48c0
000003d0: 9b01 7edd da0b 1b40 c032 d4bf a5b2 ecbf
000003e0: ec2f e0d1 578f 3cc0 f501 0076 a94e 2140
000003f0: 4402 0555 399e 3cc0 4a6d e0c6 9034 40c0
00000400: 36d2 50d1 af40 3b40 2401 766d 43f5 3040
00000410: febb ae6e faa5 3fc0 e21f 9181 7cb9 40c0
00000420: f935 f662 6979 4640 3bd4 6521 baf0 37c0
00000430: 0813 3b7b 02a2 2fc0 0c2b 95a5 0505 3cc0
00000440: 6019 64a3 5ec9 5340 18a0 4a07 2a00 02c0
00000450: 1970 9be1 05e4 5440 8c1f 8ff6 53ce 38c0
00000460: 2206 370f f006 3bc0 9280 1ef5 04c8 25c0
00000470: a6f7 16bd 9bc5 4940 02b0 e65e 267c 4b40
00000480: d471 ebc4 ae99 3f40 7c06 8e83 cc3a f3bf
00000490: ebc7 145d 5a12 4340 dbcf e13c 1579 51c0
000004a0: 5eb4 a58a 35e1 2b40 4c77 8a76 0074 37c0
000004b0: 0a57 4c00 a87f 3a40 b8d8 d08c a329 4440
000004c0: 0491 abb1 3756 2240 e83e 7fec fdb9 45c0
000004d0: 54b9 30d2 8f32 35c0 ca25 493f 3f4c 3840
000004e0: a4e6 df00 c6d5 0a40 6841 c289 ff94 f93f
000004f0: 4186 c16e 546f 3940 89d4 9e46 cc00 2740
00000500: 030b 685f 54b2 3940 b81e 5920 cd87 e13f
00000510: d053 de32 9696 e3bf 8c15 ecc3 c692 1640
00000520: 2e31 4730 1a82 fbbf efa9 b7f4 391a 3440
00000530: fe98 251d 6b84 2bc0 dc6d 31f2 b147 2b40
00000540: ad9e e770 9234 35c0 4c34 0b19 d990 4dc0
00000550: bc5a 125e 5b91 45c0 f1c7 6b20 00e4 3e40
00000560: f340 b24c 802b 24c0 66ab a64a a7c1 4dc0
00000570: 3b52 7f5c 02a0 4740 f576 5a52 8509 4040
00000580: fd53 b745 12bd 3340 a69f 31fb 20d8 4140
00000590: e824 c58f 54c7 3740 221c 3da1 cc9d 0640
000005a0: 38fd f79c 3bec 3bc0 8f34 3f8e 7c5c 4540
000005b0: c7d3 9af5 bda1 28c0 7297 81d6 b564 5040
000005c0: 89bf 2f5e a565 4a40 65e2 eb1b b6b7 39c0
000005d0: 6efe 6257 734e 46c0 a052 9a7f 301f f7bf
000005e0: 3770 09f4 a3ad 2040 825c 9c6e c77c 5540
000005f0: f095 e17b 821c 40c0 96e2 ebae f734 0840
00000600: a077 c09d 21f3 34c0 acfc e620 c224 1ac0
00000610: 210d e49f ab43 25c0 a061 3a6c 3418 3940
00000620: 505e d1cc 374b 2f40 7697 2d27 16f7 1dc0
00000630: 02bb 968c 0119 45c0 ddb1 8099 6e45 2640
00000640: b2c9 3cb5 b7b8 3d40 0866 7d59 c292 34c0
00000650: 8e6c 6fdd 00fe 21c0 c927 3709 c90f 2640
00000660: de04 5d3f 8287 4040 3122 7692 532a 2bc0
00000670: dcfc 0c87 570a 20c0 d591 266b c6f7 2d40
00000680: 411f 71fa 8e40 40c0 7442 2152 8df6 34c0
00000690: 3c7b c185 ab3a 4140 78f9 9cee bad7 3b40
000006a0: 119d 94b4 15c8 1440 9af4 0d61 3f1f 49c0
000006b0: fad4 a629 fe6f 1d40 f143 9f60 58ee 4340
000006c0: a027 90c5 b9ba 3340 3fad 6db0 8ae5 21c0
000006d0: c1c9 5257 5894 3240 2868 59c0 1500 40c0
000006e0: 64cf 99bf b6c5 4a40 ffe3 dac8 7718 0740
000006f0: 488d 0379 fb72 3e40 50e8 a778 3d61 0640
00000700: e64e 782f d011 3340 34db 80df fc30 38c0
00000710: ff1f 0f83 3725 0b40 3642 386f c64c 2640
00000720: fafc 98b6 20d6 3f40 5ccc 3573 c767 3940
00000730: c4d6 a0db af84 3740 c549 ad4f b38d 44c0
00000740: 7809 00ee 6fc2 4040 721e 8ac2 f95e 2a40
00000750: cef5 9653 0f97 3a40 8de3 3e8c ab91 1a40
00000760: bdd2 ba74 2fbd 41c0 68ca 6676 72a8 eb3f
00000770: b72e ef5a 169d 4bc0 7dca bbcb 8e8f 45c0
00000780: eac7 945f f292 31c0 1e8b 3174 e9f9 1340
00000790: a258 1dd1 874f 5140 b8c6 f340 952b 3c40
000007a0: 6d2e af04 5a60 3fc0 4c5c 4788 6f8e 3940
000007b0: 2655 dd0e aee4 12c0 4c77 1b8f ec23 30c0
000007c0: 8af2 8875 2400 37c0 471c bdd3 d1f4 1b40
000007d0: 8a7b 8564 11f1 47c0 5efd f9d5 4f70 4040
000007e0: cab9 17b6 2c92 3240 7213 4e2b 9e56 2440
000007f0: 8b38 265e 79b4 3d40 e288 682f f71c 39c0

arr_5 f8 [32]
-1.3207994246700228 20.20955668672111 0.9317302489223674 -18.853396392392312 -20.405272431696904 -34.01645414078871 37.01307078371032 -0.9650484486724502
10.073447068374202 -76.25278264460044 12.745643788440429 44.115451375099994 61.40001393791171 -29.5536100336629 38.30074501382143 -8.08105023341446
-38.99040294298722 -11.430758869294795 26.716728727803442 10.422387027137033 -45.09765470338163 4.147703435687981 27.625871663697342 35.05020632932708
31.784101754798847 5.524246846151465 -21.253497192553407 35.959783231356006 -5.112343860938041 13.887477576669884 39.34665344515718 10.661631503309184
00000000: a888 d893 fe21 f5bf 1320 cc81 a535 3440
00000010: a318 7af4 bbd0 ed3f 70d9 9b2f 78da 32c0
00000020: cd1b 20ef bf67 34c0 2049 562b 1b02 41c0
00000030: d248 ae4d ac81 4240 9451 c348 ade1 eebf
00000040: fd4e a9da 9a25 2440 8ae3 4197 2d10 53c0
00000050: 66a2 cb05 c57d 2940 962a 541c c70e 4640
00000060: 32a3 1ea8 33b3 4e40 d251 1d63 b98d 3dc0
00000070: 2866 07d0 7e26 4340 51b2 8b6a 7f29 20c0
00000080: 02ff 0c86 c57e 43c0 8a2a 306d 8cdc 26c0
00000090: fc04 ae88 7bb7 3a40 cf9d c71c 43d8 2440
000000a0: 8fa9 06f3 7f8c 46c0 9925 c791 3f97 1040
000000b0: bd12 1720 39a0 3b40 8a41 3729 6d86 4140
000000c0: e698 81e4 bac8 3f40 ba01 4d2a d418 1640
000000d0: 0ba5 2731 e540 35c0 2df6 4a2d dafa 4140
000000e0: 818a e244 0a73 14c0 0276 ff75 63c6 2b40
000000f0: 77ff dc23 5fac 4340 ba6e 495d c152 2540

arr_6 f8 [32, 1]
-37.802643439118285 -1.5791943422711796 -16.340735609655535 -2.5447580284036446 -50.377791634379015 -6.2880910004273805 8.514751202474304 21.685943254523373
4.114684795218247 5.916729707420782 -12.269538257141239 -20.562732779716598 12.709150972763094 1.0396776759379738 0.38468879664210753 -14.474206825587439
10.894745051358594 15.12686243830572 32.07016336854886 2.5868431062794857 23.241474070469593 12.935303430961637 42.892733856547444 13.291769452922926
30.81152696096147 9.97297400690195 -17.837452188309058 -3.285518213031712 21.20419958850676 -2.7897216023420754 12.437715711246506 -14.723358513028119
00000000: 56ae 2c05 bde6 42c0 c053 6149 6144 f9bf
00000010: 9b0d ec72 3a57 30c0 16d1 e118 aa5b 04c0
00000020: 1d2e ed79 5b30 49c0 1a6e c453 0127 19c0
00000030: 5a68 3878 8d07 2140 f616 25fa 99af 3540
00000040: 4a3e 53ee 6f75 1040 5c93 4231 bbaa 1740
00000050: 8ae2 1eeb 008a 28c0 1c45 6541 0f90 34c0
00000060: 5ee3 17d6 156b 2940 e28e 080f 85a2 f03f
00000070: e0c9 2dc2 bd9e d83f 45e0 ae3c cbf2 2cc0
00000080: 9eaf fb05 1cca 2540 4f3a 0f1d f440 2e40
00000090: b4a5 fe1c fb08 4040 dad3 6acc dab1 0440
000000a0: b87f a33e d13d 3740 37a2 5f17 e0de 2940
000000b0: 9df3 5e1a 4572 4540 338d 44ce 6295 2a40
000000c0: db26 1d3b c0cf 3e40 0001 27a6 29f2 2340
000000d0: 44c0 4044 63d6 31c0 8a11 dbc5 bd48 0ac0
000000e0: 427e 9a6c 4634 3540 0d08 388f 5951 06c0
000000f0: 8d7f 1146 1ce0 2840 597a 090c 5c72 2dc0

arr_7 f8 [1]
-26.815224443117184
00000000: 8f16 928c b2d0 3ac0
