weights/global_round_2.npz (npz, 129966 bytes, 8 tensors)

arr_0 f8 [43, 128]
000000 92 fc ae 89 73 28 28 40 31 d4 db aa fd 00 1c c0
       12.079006483660383 -7.000967664401331
000010 56 9c 02 a5 ed 7f 08 c0 51 e6 7b 7e 91 cb 27 40
       -3.062464989797756 11.897594406723472
000020 53 41 f5 ad 5a 8b 20 40 5e b5 4c c2 89 c1 24 40
       8.272176204861045 10.378004142631365
000030 80 82 1a 58 da 40 c8 3f a4 5c 57 e8 b5 42 f2 bf
       0.18947915365153634 -1.1412867618399014
000040 28 cc 53 e4 27 12 24 40 9e 67 26 ca b5 8c 1f 40
       10.035460601071534 7.88741222247509
000050 bc f9 04 08 fd 44 13 40 d5 c3 7f 38 5c 1d 10 40
       4.817371487907106 4.028672106550364
000060 68 f4 ba 1a 19 28 f1 3f 47 59 f5 86 c1 27 06 c0
       1.072289566436007 -2.769412092554521
000070 ac 2a f2 ef 01 e1 14 40 84 cf 6f 2f b4 aa de 3f
       5.219733952670747 0.4791689360856639
000080 4d 00 7c 25 11 45 e3 3f c4 67 a1 5e d0 0d 0f 40
       0.6021810276142873 3.8817450898177146
000090 1d e2 9b 78 06 e1 08 c0 94 48 90 17 fe 13 24 40
       -3.1098756239482683 10.039047943461163
0000a0 0e bb 3f 9d c5 4a 27 40 9e ca 38 3a 62 5e 1d 40
       11.646038927106499 7.342171582905079
0000b0 cc d7 bd 03 dd 3c 22 c0 03 17 84 48 2f 37 21 c0
       -9.118873707699002 -8.607782617687468
0000c0 30 61 2a 7f 8b 0e f3 bf 77 11 8f fd 80 a8 12 c0
       -1.1910510032085533 -4.664554559571449
0000d0 c9 99 76 09 3f dd 12 c0 8d 45 88 bb 4a b7 17 40
       -4.716060779441656 5.928996019546855
0000e0 88 5a e7 ec 77 4a d5 3f 82 39 d1 c7 c8 0c 0b 40
       0.3326701940072003 3.3812423334813397
0000f0 9a 0a 35 2e a5 13 14 c0 d2 ad ad f4 3b 87 ec 3f
       -5.01918480108966 0.8915080813289313
000100 94 41 51 4e 52 03 21 c0 de 91 ca df 7a d4 07 40
       -8.506487319392171 2.978749988908233
000110 0e 25 5b 05 4e f4 28 c0 45 88 55 e3 93 bd 17 40
       -12.477157752395694 5.935134460540273
000120 70 93 19 6d f8 10 18 c0 d0 6e a3 d4 4e fd f7 3f
       -6.01657267063716 1.499342756861484
000130 e5 93 5c 97 5a 7a e0 3f 88 34 ce 4d bb d4 22 c0
       0.5149357754022473 -9.415491515561612
000140 3c e0 bd 0f 3e f0 13 40 ee 57 23 59 4c 47 06 c0
       4.98461174580012 -2.7848135913763974
000150 e5 6a af eb ff 1d 0e c0 60 8d c1 4a b3 f8 df bf
       -3.7646482861431303 -0.49955446529766867
000160 39 a9 0c 44 43 3d 2e 40 13 1c 01 dc 58 64 1f c0
       15.119653822465454 -7.847995221679429
000170 6a d0 ba 3f 85 3c 25 c0 04 61 51 a3 01 31 0f 40
       -10.618204108766992 3.8989289054117098
000180 dc 55 b0 bd e5 38 f1 bf 76 8e 44 cc ad a4 20 c0
       -1.076390973064341 -8.321638472908699
000190 f3 96 e4 91 03 40 1a c0 16 89 81 1c 6a e4 1b 40
       -6.5625136180658385 6.973061032682628
0001a0 4f 06 7b 6a 95 1a 06 c0 a0 81 6f 62 98 de 06 40
       -2.7629803007883207 2.858689087894348
0001b0 11 ed 71 92 f6 74 15 40 44 95 c6 12 b1 d2 0a 40
       5.364221847728246 3.3528768030979865
0001c0 90 a5 96 0c ff 4a 2a c0 38 cf 8c c5 d8 a0 11 c0
       -13.146477120770925 -4.407076918334319
0001d0 49 1d 34 1c 34 13 12 c0 dc 92 02 84 26 36 1c 40
       -4.518753472023783 7.052881300599179
0001e0 c2 1f 59 52 5a f9 f7 bf ec f0 3f 38 7d a5 2d c0
       -1.4983771530842067 -14.823220975690184
0001f0 be 61 ff 19 fc 18 f6 3f 0c 58 7c ba d9 3e 0d c0
       1.3810997977762862 -3.655688721580196
000200 d7 5c 96 fe ee 3f 09 40 b9 e8 c1 74 09 a7 18 40
       3.1562175645482102 6.163122009597083
000210 2f a5 87 22 16 1a 11 40 70 75 a2 51 2a ed 20 c0
       4.275475062874917 -8.463213492471112
000220 9c 3a f2 c7 5e 3c 29 40 9f 8e e4 98 43 bb 13 40
       12.617910621947253 4.932875050497073
000230 d2 40 e3 8b a6 ed 1b 40 88 e0 5f 5a 49 a4 14 40
       6.982080636735377 5.160436069585678
000240 80 d9 d9 27 4e 9d dc 3f ac 71 33 bc 01 e4 0e 40
       0.4471011532945326 3.8613314345550034
000250 ca a9 bb 39 a6 49 25 40 54 09 ba da 4c a8 22 c0
       10.64384632507144 -9.328711352548147
000260 49 ef 85 05 17 dd 24 c0 89 93 9e 32 d1 b1 34 40
       -10.431816265677883 20.694598354067725
000270 fd ea 76 af 92 16 2d 40 e9 e3 fe 0b 66 43 26 c0
       14.544087870851849 -11.131637930740867
000280 18 a1 7e 63 24 54 14 c0 51 a1 e0 ec 49 16 0d 40
       -5.082170061687314 3.6358831888248138
000290 5d db 02 b6 54 a5 0f c0 6a 45 9c 12 1f 5a 1d c0
       -3.9557279796239713 -7.338009157932314
0002a0 14 03 6e 29 f2 a0 19 c0 1f 5b e1 57 18 e6 02 c0
       -6.407173774089433 -2.3623511186264206
0002b0 4e 72 f5 c7 62 8a ea bf ba 76 e6 91 9e 85 24 c0
       -0.829392805618747 -10.260975417502198
0002c0 e4 71 d9 07 93 52 0c 40 8e 9c a4 5d 39 27 fc bf
       3.5403195012315667 -1.7595761926584461
0002d0 07 e7 0a 34 f3 a1 1a 40 d4 eb 76 1d 85 ac f8 bf
       6.658154309430535 -1.542119135948032
0002e0 12 7d cb 07 11 ed f7 3f 5a 20 74 ca 72 70 16 40
       1.4953775696265592 5.609812892282287
0002f0 44 81 0f ba e3 d2 21 c0 f2 f1 8f bd 05 a6 16 40
       -8.911893667595571 5.662131273184501
000300 b7 83 fb d3 cc 6e 05 c0 fc 2b dc af 88 dd 2e 40
       -2.6791016160136354 15.43268346369404
000310 ae 35 6b 13 62 30 24 40 7b 65 50 1d d8 05 02 40
       10.094498259389038 2.2528536119613682
000320 d6 d0 b0 61 5e 07 15 c0 dc 9b 7b 6f a5 7e 0e 40
       -5.257195974747637 3.8118389806363506
000330 52 16 f8 02 c6 d5 19 c0 0a db 60 c0 85 f6 d2 3f
       -6.458763166801491 0.29629653727481353
000340 48 f7 09 fd 55 fb dc bf 20 bc 5e 97 17 8a 1f c0
       -0.4528403254588409 -7.8848556186267444
000350 55 c6 68 80 4f be 00 c0 c8 a4 13 5e 7f 5f fa 3f
       -2.0929250747656547 1.6483148264763248
000360 1c 31 60 2c 2c 63 f8 3f e2 a0 9e f5 8f 30 06 40
       1.5242120488574704 2.773712080863434
000370 58 dd de 7c ea 95 e3 3f 54 25 d7 96 f7 70 f3 3f
       0.6120502890470716 1.2150798694804807
000380 90 89 ed d4 ee 41 fa 3f 40 a4 78 6d b6 bf ed bf
       1.6410969083304714 -0.9296524179563974
000390 55 5c 4a 5d 93 dd 13 c0 e0 e7 ae a0 37 7f fa 3f
       -4.966382463134399 1.656058910054064
0003a0 62 76 41 cd 2e d7 13 c0 d7 49 81 fc eb 3a 00 40
       -4.960139472122679 2.02877042073781
0003b0 5a e9 ac 74 3b 5e 19 40 f7 37 43 fa ce a1 29 40
       6.342023680738146 12.81603223867931
0003c0 5e 12 bc df 9a b5 0f c0 52 ca ab 48 23 90 f2 bf
       -3.9636743048925345 -1.1601898993218538
0003d0 df 68 8a 50 42 ff 18 c0 b0 a6 6e 97 ac d2 e0 3f
       -6.249276407668929 0.5257170636807214
0003e0 36 88 7b e1 f2 d9 19 40 9a 84 4e be ed 53 30 40
       6.462840579190063 16.32784642617171
0003f0 30 3c 4c 97 3e 16 1f c0 f0 dd 4c ab c2 2c 17 40
       -7.771723140743276 5.79371135384234
000400 be 69 e0 34 c0 ba 12 c0 a9 e3 c9 1a b5 f2 04 40
       -4.682373834797941 2.6185094921933865
000410 d4 20 f9 16 30 33 15 c0 9e 32 1a 09 5d 55 0c c0
       -5.299988135295468 -3.541681357490531
000420 d3 a6 25 c3 c2 38 11 c0 51 9a 6a f9 30 da 17 40
       -4.305430459187579 5.963077447062987
000430 a8 21 56 a4 49 3b 23 c0 f9 5e 9d 31 25 e6 1e 40
       -9.615796218408676 7.724751258115924
000440 ef cf dc a3 fb f1 14 40 e8 22 67 94 ae bc e0 3f
       5.2363114932559105 0.5230324648374252
000450 56 df 20 ca 7a b4 1e c0 14 b4 5b c6 4f 0a 18 c0
       -7.676249655014393 -6.010069941851743
000460 d2 a3 6d 66 61 72 05 40 35 e5 d3 1c 13 13 0a c0
       2.6808498384675454 -3.259313798157246
000470 08 2f 25 4e 9e 5c 08 c0 a4 b7 96 4f 7a e7 27 c0
       -3.0452238183114595 -11.95210503306209
000480 50 37 74 29 a9 0e f9 3f 92 bb 34 23 e3 67 e9 bf
       1.5660792941375412 -0.7939315497986732
000490 8e c4 7f e4 db 3c 20 40 a6 89 3e 00 a6 75 09 c0
       8.118865147205977 -3.182445527943133
0004a0 5a 27 e8 50 df 61 19 40 6c 67 2c 90 7c 30 09 c0
       6.345578445596255 -3.148675085406401
0004b0 b0 0b 56 95 67 00 ea bf b2 d1 81 49 c6 2d ed bf
       -0.8125493923874867 -0.9118377147374785
0004c0 d3 98 a9 d4 53 10 20 40 6d 15 28 22 2b af 1c 40
       8.031889577582126 7.171062978455081
0004d0 b8 a6 83 c5 69 5b eb bf 9c 17 59 f7 61 4e 03 c0
       -0.8549088342380946 -2.4132727932037152
0004e0 84 d2 23 8b 5a f0 2a 40 48 70 36 bf a1 b0 f2 3f
       13.469440792200892 1.1681230038875743
0004f0 60 84 9b 86 47 b2 fc bf 93 1e e2 0f b1 2a 22 40
       -1.7935252435784363 9.083382126190633
000500 6d 6a a8 53 53 1d 1e c0 b8 fd d7 82 0a 72 2d c0
       -7.528638178972511 -14.722736443391895
000510 a0 d4 90 f3 d8 a6 dd 3f 00 0c 93 0a f4 e5 1f c0
       0.4633085611888621 -7.974563756203679
000520 a0 08 b3 b3 57 dc 12 40 f6 68 e4 4b 5c 7f f7 3f
       4.7151783063910955 1.4685938801326848
000530 19 de ad ec 70 15 08 c0 c9 46 46 e1 f2 57 15 40
       -3.010469292694108 5.335887451090181
000540 66 86 d3 98 ff f0 2c 40 f8 3d 1e 27 e0 0d 20 40
       14.470700050183222 8.027100775186213
000550 90 fd ef 1c 4b d7 1f c0 d4 be 5d f5 a0 8f 2c 40
       -7.96024747099672 14.280524890607388
000560 ea b0 cb 24 0f 81 22 40 67 70 74 75 22 50 07 40
       9.252068662514336 2.9141282249602685
000570 50 6a 34 37 3c cf 05 c0 6d 9f c2 e2 ff 8a 2b 40
       -2.726189070975387 13.7714835035874
000580 90 d6 fe 08 95 62 24 40 76 41 d5 fc 0e c0 f3 bf
       10.192543297870799 -1.2343892933168639
000590 d7 03 62 78 ea 27 e1 3f 94 61 86 5e 97 ea 12 40
       0.5361225463130904 4.729093052818275
0005a0 76 a5 f3 82 80 27 10 c0 15 b3 88 d2 5a 2c 0d c0
       -4.038576170083038 -3.6466576049773587
0005b0 b8 c3 b3 71 f7 bc 03 40 eb 51 b9 64 8e 81 1b 40
       2.4672688372597484 6.876519750414881
0005c0 b4 32 fd 70 e8 15 2c c0 86 f8 8c 21 3d a9 24 c0
       -14.042789011867491 -10.330544517954205
0005d0 d8 a0 d9 7e 0e ff 05 c0 12 f8 8f 55 73 ae f6 bf
       -2.7495393667378316 -1.4175904600410871
0005e0 35 46 f9 af 08 4a 06 c0 08 08 6a dd b0 8a e1 bf
       -2.7861493823955024 -0.5481800388809015
0005f0 54 c0 0e 36 56 ba fe 3f ac 6b 1d 99 67 cf 2c 40
       1.9204923736215465 14.405087265817052
000600 14 97 c9 dd e6 54 1c 40 84 fd 81 79 05 6c 1b c0
       7.082911935261809 -6.855489634093264
000610 e7 17 a0 81 d9 de 22 c0 8c 50 11 56 18 78 f4 3f
       -9.43525319175019 1.2793200838105205
000620 f9 50 8f 2e 97 bf 21 40 49 7e 32 e2 8a 7a 12 40
       8.874200301165262 4.619670423824183
000630 d8 50 03 3b 8e 12 14 c0 70 83 ee fb 74 4e e0 3f
       -5.018120691373234 0.5095772667446976
000640 f0 14 ca 32 36 66 2c c0 30 b9 b3 4c c3 0c 1f 40
       -14.199632250946223 7.762463758916326
000650 c0 fe 50 f0 9a 3b 1f c0 67 cd 31 3d 46 98 19 c0
       -7.808208231872129 -6.398705440678305
000660 a0 c0 44 97 99 85 22 c0 d2 af ea 71 83 b0 13 40
       -9.2609374305178 4.922376422833581
000670 7a 90 99 d9 7f 49 1a c0 28 27 ca d7 89 b4 20 c0
       -6.571776771543336 -8.352614158083796
000680 c4 fb 6c f8 f9 bd 26 c0 5a ad c4 9a ea d6 07 40
       -11.371047747901578 2.9799396601935486
000690 4a 8d e4 30 37 a0 11 40 94 03 f7 5e 1e 13 14 c0
       4.406460536908819 -5.018670543505227
0006a0 35 b7 03 d3 b3 84 14 40 8e 46 b6 38 eb 99 05 40
       5.129592225171838 2.7001556807161426
0006b0 05 b3 99 4a 4a 80 2e 40 c8 d0 af 05 16 79 0f 40
       15.250566798460122 3.934124035289731
0006c0 f8 8b 5d 45 2b bf 01 c0 62 2f 37 9f ef 0e 29 c0
       -2.218344251553841 -12.529171920286618
0006d0 87 f0 8b 49 fe d8 2d c0 d8 e8 8b f6 93 6e 21 40
       -14.92381505807158 8.715972618655016
0006e0 29 38 fa 57 33 74 06 c0 6f 97 71 88 17 19 1c c0
       -2.8067385552631277 -7.024503833706929
0006f0 10 3d 3c 59 4c f0 e4 3f ba 64 4e ba 92 62 01 40
       0.6543332808377347 2.1731314234899317
000700 15 cc 38 b8 52 69 07 c0 12 f7 4e 64 be 37 00 40
       -2.9264273063977364 2.0272186123464815
000710 76 4a 80 f9 27 08 f6 bf ad cd 8c 95 89 88 e0 bf
       -1.376991247762502 -0.5166671677492808
000720 d7 0d 3d 34 0b a2 f5 bf 80 dc a0 16 40 d7 17 40
       -1.3520614662710295 5.960205415313908
000730 a8 e0 19 51 2a f6 dc bf ca 59 41 ba e7 1b 0d c0
       -0.45252473754909284 -3.6386255789941275
000740 55 46 30 f4 a1 78 2c 40 d0 f3 02 e3 32 55 1c c0
       14.235610609906113 -7.083201930098724
000750 80 26 39 f4 20 14 ba bf 25 5b d6 c1 90 ff 09 c0
       -0.10186963999253784 -3.249787821153762
000760 3e f3 e9 57 80 3b e7 bf 82 5c ec 6f 2e ba 25 40
       -0.7260133473460895 10.863635537722306
000770 4f fc 32 59 70 73 0f 40 93 1d 7b b6 8c f3 18 c0
       3.931366631382424 -6.2378414642947915
000780 db cd 85 08 c9 c1 14 c0 ff 9a b9 83 12 52 21 c0
       -5.189243443648105 -8.660297504813114
000790 cc aa 9d 4d 67 2a f8 3f ef 2b b4 39 19 9a fc 3f
       1.5103524238463022 1.7876217130712992
0007a0 00 44 b6 32 27 ad d0 3f e9 76 d3 b1 3b 98 01 40
       0.2605684275850422 2.1993326084765283
0007b0 ee 80 e2 cc 8e c9 1d 40 98 45 55 82 c0 70 2d 40
       7.446833802532849 14.72021872797886
0007c0 85 3b 47 bd b0 4b 04 c0 28 15 10 74 40 39 f1 bf
       -2.5369581973422464 -1.0764774831489579
0007d0 5c c6 4a 8f 0a 0d 25 c0 27 68 e2 70 eb 61 26 40
       -10.525471189382351 11.191249396932177
0007e0 a8 15 a7 46 72 e1 fb 3f c0 6e d5 bb 38 19 23 40
       1.742540622698792 9.549260968974863
0007f0 4f d1 03 1e 0e bf 08 40 16 1f a4 01 66 a3 18 40
       3.0932886452593844 6.1595688110753795

arr_1 f8 [128]
000000 b6 9a 3d 11 b4 de 14 c0 e8 f9 f6 9c 57 6d 15 c0
       -5.217483777413397 -5.356779530119162
000010 84 59 fb 58 38 df 26 c0 78 85 cf 35 60 fa c0 3f
       -11.435976772959073 0.13264086368057426
000020 a8 5a 46 57 70 15 de 3f e2 52 b8 88 3e 12 19 40
       0.4700585224431202 6.267816673517446
000030 9f 11 8e 6f 63 e8 16 c0 cc 9d 31 34 a0 2e f7 bf
       -5.726941817327684 -1.448883251077734
000040 c1 59 82 fd cf 16 07 40 9a 55 d3 cf 5e 4b 01 c0
       2.886138897457585 -2.161801932942308
000050 04 33 55 e1 0b 19 01 40 80 10 ee 61 a3 c3 01 c0
       2.1372296909452206 -2.220526471212054
000060 aa a5 65 16 9d 1a 27 c0 7e 50 be 89 84 f3 06 c0
       -11.551979732425782 -2.8689051400379517
000070 32 9a 16 7b 75 06 0e 40 22 b9 e0 fa 9c 34 12 c0
       3.7531537643692667 -4.551380081144346
000080 b0 22 43 d1 2c ff 16 40 96 b7 0c 7e 8b d7 20 40
       5.749194402430177 8.420986117412934
000090 eb 12 1b 39 a6 32 1d 40 df a8 88 d9 d2 43 20 c0
       7.29946221568819 -8.132468030864798
0000a0 f0 9d 9a 61 9c c5 f1 bf fc 5a cf bc 08 8b fe bf
       -1.110744839921491 -1.9089438796415257
0000b0 ee 26 da 3b eb 0a 30 c0 de 84 5f 18 5b 36 16 c0
       -16.042651882896216 -5.553081875638979
0000c0 dc 18 44 f1 e0 d8 15 c0 e9 f5 22 af 85 da 0e 40
       -5.461795587331121 3.8567002947372555
0000d0 7a 52 cc 8f a5 1b 12 40 01 90 e4 f5 b2 36 0e 40
       4.526998755307995 3.7767085276009316
0000e0 06 63 c7 c5 74 ef 07 40 64 4c 75 46 22 15 04 c0
       2.9919219447587038 -2.51031928105799
0000f0 db 6e be c8 a8 29 01 40 78 b9 84 d2 60 b4 f5 bf
       2.1453414614787625 -1.3565376494767332
000100 10 16 cc c7 e2 f8 c4 bf b1 69 75 3c 96 57 23 40
       -0.16384539371226525 9.671068085987686
000110 4e 9d ec 68 61 97 1c c0 e0 79 c9 9f e2 d1 21 c0
       -7.147832526628305 -8.909932130188224
000120 e4 20 46 62 f1 b6 19 c0 50 f1 f6 89 83 10 eb bf
       -6.428655181436827 -0.8457658476468541
000130 65 cf 1a d3 b2 03 02 40 7c d1 b4 49 84 bf 07 40
       2.251805924659424 2.96851403792442
000140 c0 88 46 8b ad ec f3 bf f3 e7 2e 3e 3a 84 0c 40
       -1.2452826919984972 3.564564214521846
000150 b0 7d e2 ab 78 1c 09 c0 7a 3b 90 6e a0 3b 27 40
       -3.1389020374769743 11.616458373171316
000160 7f b7 36 d5 be 7f e3 bf 82 c5 54 54 e8 f9 1a 40
       -0.6093439258890924 6.744050328897517
000170 f8 45 fe a5 f5 4b 0e c0 78 0e ad f4 ef 34 c5 bf
       -3.787089630911165 -0.1656780190188447
000180 8e 63 b4 6a 60 cb 26 c0 5a 3e 5e 80 eb fd 16 40
       -11.397219976921203 5.747968679191752
000190 49 f6 68 8c c3 6e 03 40 dd 27 43 5e f4 00 fc 3f
       2.4290839166194798 1.7502330476877355
0001a0 dd 57 10 e2 37 81 20 40 38 e9 f5 10 79 61 0c 40
       8.25237947892668 3.5475941968008122
0001b0 cb c3 19 10 cb 80 14 c0 b2 74 01 90 38 d4 f7 bf
       -5.125774623463211 -1.489311754724707
0001c0 22 8a a8 49 23 c0 1e c0 06 93 50 cb 93 d5 06 c0
       -7.687634611999359 -2.8542858013119057
0001d0 bb 42 af 52 45 8a 20 c0 e1 fd d9 d4 4b d4 01 c0
       -8.270060142416119 -2.2286602620149414
0001e0 0b 2c 94 14 65 ae 23 c0 a9 29 16 e2 3e 56 04 c0
       -9.8406149321436 -2.5421121275914698
0001f0 e0 2f d0 db d4 53 c0 3f 8c da ca b0 d6 c7 08 40
       0.12755833371227165 3.0975774585634266
000200 d7 ac 0e 60 6e d2 01 40 23 cb 7a 0c 4e b1 2b 40
       2.22774958653245 13.846298589696351
000210 2a fe 1e 0a 48 88 f5 3f cc 0b 77 55 8a 8a db bf
       1.3457718272546892 -0.430330832921922
000220 38 c0 24 5e 9e ac 20 c0 e4 50 af d4 6f 90 30 c0
       -8.337145750032604 -16.564206402589562
000230 58 aa 40 b5 92 16 d0 3f 83 94 01 3a 83 a2 01 40
       0.2513777513546862 2.2043518573505607
000240 50 be 46 d4 b8 65 e4 3f fd 41 51 6b 5a 71 15 40
       0.637417234995107 5.3606964844079785
000250 b6 26 6e 92 c9 68 37 c0 b8 00 82 3e 64 09 fe 3f
       -23.409325744526278 1.877292865916429
000260 f7 0b 49 cb 02 77 22 c0 2a ad 7d ae 55 8a 0b 40
       -9.232443192164267 3.442546237192478
000270 2f bf 19 fd 4a dc f1 bf 0e 56 6f d5 70 f7 f7 3f
       -1.116282452272525 1.4979103410054253
000280 6f 64 30 0b 23 8c 0d 40 61 65 b3 6f 82 07 21 40
       3.693426215566937 8.514667025231292
000290 fe fc 11 6a 25 3f 2c 40 ff 03 a0 b4 11 90 0f 40
       14.123332323737937 3.9453462706883324
0002a0 ba 8b 84 46 ba f2 13 40 34 cd ed 97 72 d8 1a c0
       4.987038709487871 -6.711374639405495
0002b0 b8 07 f3 4b d6 e4 1e 40 b2 76 7e e4 08 bd 24 40
       7.72347372694815 10.369208469808061
0002c0 3d c8 5f 0a e3 e1 15 c0 a0 1d 0d c0 39 e0 b9 bf
       -5.4705926533661655 -0.10107766093016446
0002d0 8c 22 15 ca 67 d5 01 c0 b8 ca c7 3f 61 57 e9 bf
       -2.2292018687915682 -0.7919164891921673
0002e0 5a 66 3a 5c ae f3 02 c0 20 14 9e 3b 82 33 14 c0
       -2.3689849095651825 -5.050301486514428
0002f0 7b 63 46 93 66 d3 13 c0 ec e4 f8 2e 44 ef 1a c0
       -4.956445981188945 -6.733658536855028
000300 e8 06 8a d4 1b d4 1f c0 86 f5 ea 38 48 34 2b c0
       -7.9571374139065725 -13.60211351268914
000310 8d b4 cf 88 2e 50 0a c0 e6 a2 98 f2 80 34 09 40
       -3.2891512573610897 3.150636573107806
000320 59 f0 6e b6 66 8f 16 c0 28 50 9f 94 d1 66 f5 3f
       -5.6400402550899225 1.337602215343404
000330 fc f4 54 aa f9 37 1c c0 8f f9 62 51 49 b4 18 40
       -7.05466333526169 6.176060935655541
000340 d7 18 0d 02 e7 9c 08 c0 24 98 31 8a 4c 4a 11 40
       -3.0766124878165146 4.3225576012392
000350 53 82 c2 e2 b1 33 31 c0 15 de f8 ba fa 6e f4 bf
       -17.201933071601456 -1.277094583854596
000360 1a 39 20 e6 d8 f4 32 40 41 2e 74 a2 eb 6b 19 c0
       18.956434615008313 -6.355391062108141
000370 47 93 ad 6d f0 77 1e 40 08 e5 b4 1c 56 03 e6 bf
       7.6171280991737325 -0.6879072724033515
000380 94 9e d5 7c 48 03 eb 3f f4 e3 d0 51 56 00 ed bf
       0.8441507757351752 -0.9062911603897406
000390 7b b7 2f e3 04 f4 01 c0 a0 81 94 cf e3 4b d7 bf
       -2.244149947065066 -0.36400695106024195
0003a0 20 de 2d 06 c3 75 04 40 d2 dd ef cc ef 80 15 40
       2.557500885271807 5.375914766445435
0003b0 ac 10 df be fe 9c 23 40 06 4f a0 73 f2 93 25 c0
       9.80663105462039 -10.788959134406024
0003c0 5c 59 32 9d a2 d5 16 40 e9 80 a2 81 41 98 03 c0
       5.70862813587004 -2.4493436935155057
0003d0 ed 05 2d 0f 45 6c 1a 40 da 25 31 9d e4 45 20 40
       6.605732190249438 8.136509811639304
0003e0 ed f6 1e 22 39 f7 07 40 a6 81 f3 d6 d0 2b 13 40
       2.9957144418429977 4.792788847553686
0003f0 f4 f5 3f 97 d1 f3 1f c0 86 5f 00 be af bc 13 40
       -7.988104213026862 4.934264153263831

arr_2 f8 [128, 64]
000000 4a 82 22 34 13 73 00 40 dd 0d 82 b0 0a 41 0e c0
       2.056188971808557 -3.781758669823587
000010 78 6d 79 81 46 33 10 40 32 0f 2c 06 7d b0 02 c0
       4.050073645626405 -2.336175964564881
000020 a8 00 84 3f a1 ef 14 c0 ec ab 53 6a bf 06 13 40
       -5.234013550216481 4.756589566571147
000030 80 5b 06 d9 a7 38 be bf 3c dd 32 d4 75 14 fc bf
       -0.1180519966932092 -1.7549951828967343
000040 bc c6 c2 f9 b1 d8 20 c0 5a a3 21 3c 03 98 f6 3f
       -8.423232846285252 1.4121124600298658
000050 76 17 0a 61 4c 53 08 c0 96 87 e3 9e 1a 64 fb 3f
       -3.040673025246117 1.7119394499390856
000060 d2 a5 97 d4 52 a5 20 40 5f cb be fc c1 67 08 40
       8.322897571098029 3.0506629701352916
000070 88 95 2e c3 1a 15 f4 3f 58 a4 b7 6c 86 93 df 3f
       1.2551524757667227 0.49337921730927325
000080 6f 2c 2b 3c ac b5 01 40 46 06 ae c6 59 65 00 40
       2.213707418506196 2.049487640558058
000090 56 d9 ec f0 b7 c7 03 c0 44 9a 46 bd 8a 2c 19 c0
       -2.47251880858236 -6.293497998651734
0000a0 dd 29 34 5b 3e c8 09 c0 7c 45 e4 05 a8 88 ed 3f
       -3.222775185136227 0.9229316821166971
0000b0 d6 bc 30 76 a8 ad 2e 40 d6 0f 6d 7d 6d 50 1f c0
       15.3391758856291 -7.828542670995338
0000c0 60 2a 43 17 14 98 0e 40 06 90 11 d2 33 db 29 40
       3.824257070290784 12.92812973465335
0000d0 be a9 a6 54 d7 23 0b c0 e1 c6 ac 09 6b a2 22 c0
       -3.392500554405358 -9.31722288354962
0000e0 d0 f1 7a a3 49 93 24 c0 f5 c4 ab eb 27 81 21 c0
       -10.287671192891963 -8.752257694929066
0000f0 16 25 d2 8c 9c 02 1e c0 f9 fe eb 5d 5a 6b 12 40
       -7.502550316168046 4.604836909798672
000100 2a 46 c2 3b cf cd 0f c0 4e f6 fb 2d 52 ae 27 c0
       -3.9754929226553672 -11.840470730788322
000110 ba c1 4b 66 b4 87 24 c0 c8 2b 9f 05 94 34 d9 bf
       -10.265048214671754 -0.3938341193103807
000120 6e 5f 22 aa f2 54 15 c0 c8 5b e0 ec 2e 8b 2b c0
       -5.332956941936443 -13.77184238661529
000130 29 4b 0f af 13 fe 21 40 9a 87 3d 99 cf 08 0b c0
       8.99624392568292 -3.3793022128965733
000140 a2 77 20 14 6e 18 fe 3f 7e 04 92 b1 b5 42 10 40
       1.8809643541530723 4.065146231209949
000150 8e 7a a0 5a c1 75 1c 40 28 87 78 c0 be de e7 bf
       7.1149953995178645 -0.7459405669398835
000160 6c 15 03 ca ca 22 33 40 b8 0c 22 66 af 11 1c 40
       19.135906816246845 7.0172706564218785
000170 a0 4a ad 1b 30 b6 c9 bf 88 84 f2 dc 87 a3 10 c0
       -0.2008724341527186 -4.15969796400271
000180 e6 5b e6 cf 14 7a d7 3f 3c 9c 41 49 49 57 20 c0
       0.36682625105589606 -8.170481004008359
000190 a2 92 ef 3e 5c a5 1a 40 ec bc 9f 08 a5 4b 24 c0
       6.661484702465403 -10.147743482112183
0001a0 85 be 74 c0 48 94 24 c0 8a 72 37 ae 51 c1 10 c0
       -10.289617552042964 -4.188788149008028
0001b0 f2 6e 17 8c 0f 69 f5 bf 61 12 8c a8 5f 2d fe bf
       -1.3381495926213884 -1.8860775550721416
0001c0 a8 6c ae 5a 59 ee 16 c0 62 74 cd 07 5b 87 24 c0
       -5.732762734313987 -10.264366382436666
0001d0 00 da dd bc 1d f2 e2 bf 6e 30 5a 7f 7e 22 1f 40
       -0.5920551956940585 7.7836856745526415
0001e0 78 b2 6a 07 b9 59 eb 3f ac fd fc 50 e8 5d 18 40
       0.8547024865016075 6.091706529084529
0001f0 e9 a7 96 9a 0f 68 12 40 56 b1 fe 3e 1c ef 0c c0
       4.601622024007136 -3.6167530938602495
000200 94 63 41 b0 c3 20 19 40 50 79 5d 10 33 b1 f0 bf
       6.281996492377306 -1.0432615889800054
000210 1c b8 5f 7c 2d 10 15 40 4d 4c f3 83 d2 cf ff 3f
       5.265798514692531 1.988237872534927
000220 62 e9 6f 4c a9 f5 01 c0 06 b6 b5 62 c6 07 0f c0
       -2.2449518176701284 -3.8787963592246824
000230 dc 3d 4e 6f 6a 65 f0 3f 46 36 01 27 2f 7b 0e c0
       1.0247597072483279 -3.8101485297436595
000240 ed 39 df b4 c4 dc 18 c0 f2 ea 91 d3 73 a1 f7 bf
       -6.215594125866557 -1.4769171013310225
000250 09 a2 7d b3 24 35 11 c0 b6 fe fe 43 4e 03 19 c0
       -4.301897816222216 -6.253228247107179
000260 d7 e3 27 be 59 46 05 c0 d4 45 09 f7 ab f8 20 c0
       -2.6593508582995855 -8.485686988717966
000270 78 02 f8 ef 0d 05 16 40 08 d7 72 5b 76 7c 01 c0
       5.50493597937804 -2.185772623483789
000280 5a eb 76 2a e6 9e 1a 40 b0 f7 79 da 13 c8 d3 3f
       6.655174888141881 0.3090867646750395
000290 80 e6 d2 16 d9 e1 0c c0 4e 53 80 72 ea 3f 14 40
       -3.6102773459541027 5.062417782862054
0002a0 65 cd 36 42 53 10 fa 3f 10 c1 c5 7c 56 ca 18 c0
       1.6289856516349002 -6.197595548219638
0002b0 01 02 1d c1 9d 2a 0a 40 bc 1e c7 a8 e2 1b fd bf
       3.2708087050416457 -1.8193079560168561
0002c0 0a a1 ef 84 3f 58 0a 40 80 79 ff 99 2c ba b7 3f
       3.2930899034146295 0.0926845432254364
0002d0 a2 20 66 bf 02 f0 f6 3f 18 e3 7c 14 24 9c e0 bf
       1.4335963703652301 -0.5190601730492714
0002e0 68 ae 16 f4 a8 2a f6 3f 16 48 c6 6c 86 c7 07 40
       1.385415032836045 2.972424363900255
0002f0 92 b3 e0 70 16 c5 15 c0 9e c4 97 9d 51 df 19 c0
       -5.442468417849243 -6.468084776294885
000300 9c 4f 08 ef 09 c3 ff 3f a2 87 35 ef 12 2d 20 40
       1.9851168954091696 8.088035083088304
000310 9b 83 06 5b 5f 0e 24 c0 2a b7 e6 ca f8 8f 25 40
       -10.028071255250145 10.78119501177169
000320 b0 19 68 a1 16 93 22 c0 42 01 29 3e eb 58 fb bf
       -9.287282031972467 -1.709208720029054
000330 9f e5 c7 8a 83 a1 07 40 dc fc a1 c9 d9 ea 1b 40
       2.953864177918788 6.979346418868968
000340 6c 85 4b 8c 59 f8 10 40 08 e1 7e 4b 1b c6 ec bf
       4.242529098615119 -0.8991829370998241
000350 ec 10 9b a3 d4 fc 1e 40 8e 4e f8 79 1a 75 fe bf
       7.746904903735622 -1.903589703030693
000360 88 2a 14 f9 07 37 18 40 b2 61 1e 05 9d 76 f6 3f
       6.05374135194382 1.403958339686238
000370 3e de 25 fb 13 ea 06 40 04 a4 ce f7 d0 59 10 c0
       2.864295923321861 -4.087711212146136
000380 ba 37 c1 1d c9 7e dc bf 38 b1 ca 9f 8c 97 11 c0
       -0.4452383795331759 -4.39799737620006
000390 a4 fb 20 3c 65 f6 00 40 5e f2 6c af 3e 7e 1b 40
       2.1203102777066807 6.873286000275213
0003a0 c0 2d 15 e3 df 7e b9 bf 06 f1 5a ae 93 bf 12 c0
       -0.09959220212947795 -4.6870867960935865
0003b0 e8 ec f9 d3 83 1e f4 bf e4 a8 9f e9 9d c9 08 40
       -1.2574499397585956 3.0984457256173403
0003c0 6a a5 a1 d2 6d a2 1f 40 5a 78 25 3d 0a 08 11 c0
       7.908622065654848 -4.257851558124537
0003d0 ac 8d 11 01 53 d5 f1 3f c7 fa 2e 61 61 74 02 40
       1.1145811120739877 2.306826361890987
0003e0 45 6c ca 0e 03 1c 24 c0 da 35 21 97 c5 5d 1e 40
       -10.054710828981237 7.591574059869766
0003f0 ba cb a8 d3 2f ac 05 40 c4 92 03 c0 18 53 0c c0
       2.7090755973708527 -3.540574550732659
000400 13 61 5c 28 8f 0c 21 c0 9e 13 c7 d6 c4 bd 0b 40
       -8.524529706265218 3.4676605968001715
000410 5c 1b 2c 3e e5 11 07 c0 1e d4 9f 48 74 71 14 c0
       -2.88373802730659 -5.110795149569666
000420 03 df 1e 87 5d b1 23 40 7a dc 76 a4 ad 16 01 c0
       9.846416685598802 -2.1360733841680117
000430 0c 77 be cf 6c 08 1d c0 78 aa f6 ac 3e ff 1b 40
       -7.258227582931578 6.999262526088039
000440 d8 74 cc 99 36 9b 26 c0 45 22 5e 7f 91 f7 18 40
       -11.303150945861873 6.241765966530299
000450 88 48 54 fc 6c 41 19 c0 a2 1c 2b 17 08 03 f7 bf
       -6.313892309803244 -1.438240137578568
000460 28 12 fd 1e 47 73 23 c0 3c dd 57 09 b7 c4 31 c0
       -9.725151985542723 -17.768417915297718
000470 2e 5a 3c 01 ba 0b 06 c0 1f b4 68 f7 01 60 30 40
       -2.755725869802766 16.375030005514528
000480 a2 3e ff 52 a0 27 26 40 d0 fe a2 35 5f 9f 13 40
       11.077395051629825 4.905636632989356
000490 7d 7b 47 f3 a8 a7 01 40 fd 95 35 23 44 ce 09 40
       2.2068652158918085 3.225715899536907
0004a0 bc b2 39 1a 42 3d 14 c0 c2 c9 1c 86 0a de fc bf
       -5.0598224733081985 -1.8042092551009863
0004b0 44 b0 0a e8 19 79 e8 3f fa be 1f 1f 09 1b f5 bf
       0.764782860952899 -1.319100495889812
0004c0 10 01 7b 65 56 be cf bf a9 d3 73 59 9b f1 21 40
       -0.24799613909818463 8.97188834704305
0004d0 54 c0 ab ce 37 f9 1a 40 77 31 97 10 dd 9b 1a 40
       6.743376950486056 6.652210482814886
0004e0 b4 bd e9 5a 93 f1 17 c0 d2 ff 2a 63 4c 33 1f 40
       -5.985913677708073 7.800096082210034
0004f0 d0 c3 ea 59 9b 8e 17 c0 50 5d c4 79 ac 6e 00 40
       -5.889264492944633 2.054039908700055
000500 61 7e 31 d0 d9 12 1c c0 0a 7b 7e 19 35 e5 2a 40
       -7.01840901662908 13.447670742692498
000510 64 49 89 5a 6b 56 01 c0 f4 2d a7 4e 9d 31 16 c0
       -2.167196948351533 -5.548451641992404
000520 ae b0 54 4b 29 22 14 40 99 9c 5d fa 6a 66 f4 3f
       5.033360650104596 1.2750043659123433
000530 ac ec 66 da 7d 37 e6 3f 59 4b c6 39 78 45 f9 bf
       0.6942738786377922 -1.579460359270078
000540 c9 a3 f3 ae 77 45 2b c0 d7 33 19 2d b9 54 1b 40
       -13.635678736916718 6.832737641013373
000550 84 e0 35 22 6d 81 31 40 37 af b5 0d fb d2 21 c0
       17.505571497109955 -8.912071636608387
000560 ba 08 46 b7 b4 59 0a 40 fb ac 5d c8 53 41 23 c0
       3.2938017194984157 -9.627592336115859
000570 30 7d 66 81 5e aa cc bf 69 ad f1 96 cd f8 23 c0
       -0.22394925421120027 -9.985943524362215
000580 04 0f c7 2a a4 a2 2a 40 4e 1f cd b4 f8 c2 1f c0
       13.317658745574143 -7.940401864070578
000590 fe 73 46 13 72 42 fa 3f 4a 8e 40 74 1b 7d 18 40
       1.6412220719278134 6.1221750416185134
0005a0 a6 89 15 80 78 07 f4 3f 65 b6 95 9b df 02 05 40
       1.2518239024435416 2.6264030604423163
0005b0 30 e6 4a 6e a3 3f 14 40 da 43 50 27 2a db 01 c0
       5.062146876641734 -2.2320139953012417
0005c0 09 14 fb c5 62 d7 12 40 ca 3a 3b 69 e3 ec 11 40
       4.710337727975465 4.481336254348841
0005d0 af 9e 5f c0 b7 f5 1d c0 44 66 4d 64 39 94 21 40
       -7.489958768688367 8.789500364731005
0005e0 b6 5a fd e2 29 bd 0f c0 00 ac dd e9 81 47 05 c0
       -3.967365048748742 -2.6599157591604126
0005f0 f9 be 0e f6 65 28 14 c0 e8 11 c2 e0 5b f9 d0 bf
       -5.039451450967811 -0.2652196593192273
000600 3a 6a bd b0 ea 5c f1 3f 3c 57 d0 7b 04 2a 24 40
       1.0851847556974819 10.082065457517835
000610 f7 4e 83 b2 60 59 f8 bf 25 42 df 45 bb 51 24 40
       -1.5218207333718377 10.159631904128284
000620 b4 03 2d cf a1 1a 18 40 c6 21 26 35 ff 26 21 40
       6.0260078784203195 8.576165829567696
000630 20 42 e5 e6 79 52 0e 40 73 25 31 1d 1a f2 0f c0
       3.7902715719904023 -3.9932138710616356
000640 66 cc 97 bb ec 97 17 40 8e eb e0 83 85 28 36 40
       5.898364001407662 22.158287279522078
000650 08 ef 79 36 71 ab e1 bf 57 eb d0 f6 bf 2d 07 40
       -0.5521780075063996 2.897338798762046
000660 d0 c6 95 80 21 a5 ca bf 5d 49 65 84 67 11 17 40
       -0.20816439417426702 5.766996449167292
000670 38 6b 62 76 84 0b 0f 40 2a c7 a3 2f d4 f4 18 40
       3.8806237458024064 6.239090675708022
000680 e1 8f 92 40 41 cd 20 40 da 13 4c 8d bb df 28 40
       8.40088846005523 12.436977782761392
000690 4a 67 f6 92 68 b3 23 40 bc b4 f3 f0 df ac d3 bf
       9.850407211855458 -0.3074264386221548
0006a0 64 18 fe cb c8 da 17 40 10 3e de ea c5 94 1f c0
       5.963656604179139 -7.89528624516926
0006b0 5e 30 a3 1d c1 05 2b c0 53 10 13 df 51 c8 26 c0
       -13.511238981409573 -11.391249629094238
0006c0 ae bf a0 03 d5 de f8 bf 95 7e 67 83 c6 a6 18 40
       -1.5544023648944676 6.162866643134881
0006d0 1f 75 48 af f5 cf 1a 40 78 e8 a6 a2 d0 76 12 40
       6.703085650250869 4.616030255734692
0006e0 72 4a 61 de 48 6a 2e c0 de 65 c6 78 f2 64 01 c0
       -15.20758719384796 -2.1742906032129516
0006f0 dd 86 7e 67 62 d5 17 c0 26 70 b9 e8 e0 f7 20 c0
       -5.958383195016464 -8.484137795101628
000700 40 ff 6c 4a a4 24 0f 40 86 b1 24 39 d2 d4 22 c0
       3.8928914846909777 -9.415666375855618
000710 28 02 25 54 9a 61 1f c0 6e 9c e2 c1 05 c1 22 40
       -7.84531527973062 9.376997050201876
000720 05 50 bb 6d 9b 0b 16 c0 5b 5a b6 b7 64 f4 00 40
       -5.511335100705769 2.1193327286267
000730 4e 99 da ef 8d fb 05 c0 96 b3 b4 30 21 51 1f c0
       -2.747829316958053 -7.829228173283715
000740 bc e3 e6 91 01 a9 0e c0 38 19 cb cb 40 76 d0 3f
       -3.8325225256525908 0.2572175970239132
000750 d3 b4 a4 d2 5e 2c 24 c0 80 40 7c a0 9f 6a 22 40
       -10.086660940747981 9.208249106566882
000760 68 18 39 00 14 c8 ff 3f 27 49 fc 25 65 4a 00 c0
       1.9863471993171746 -2.036325737725878
000770 c4 7e ef 2d 20 e7 fb 3f 34 b5 3b 43 a4 9e 12 c0
       1.743927173076302 -4.654923487204815
000780 12 2f c3 85 06 a4 0a c0 4e 4a b4 d0 9e 4b 25 c0
       -3.3300905656996145 -10.647696039207542
000790 fa 9b aa 23 5a 6a 22 c0 d6 4c 65 1a b1 4d 03 c0
       -9.20771895845063 -2.4129354536213254
0007a0 f7 0c 02 b3 99 0f 12 c0 5d e2 ad 70 6e e5 0d 40
       -4.5152347536088575 3.7370270541253334
0007b0 67 2f 04 37 59 b4 16 40 10 54 28 5b 02 94 2a c0
       5.676121577864115 -13.28908047549524
0007c0 07 dc 93 53 d3 87 03 c0 30 64 7b 33 0d 19 fc bf
       -2.4413210420129903 -1.756116105176499
0007d0 90 9f de 47 91 79 10 c0 af fe c8 07 74 0c 14 40
       -4.118718264544341 5.012161370890381
0007e0 4e b7 e6 98 73 a5 05 40 73 3f fb 27 6c 14 e8 bf
       2.7057868905457445 -0.7524929791343155
0007f0 ba 7b bf a8 0b aa 08 c0 5c 57 84 7c c9 9d 1f 40
       -3.083030050605399 7.904088922097653

arr_3 f8 [64]
000000 64 b2 fb af d4 aa 21 40 a4 3d 75 bc d5 b0 03 40
       8.833653926348411 2.461345169380097
000010 52 1f 6b 99 92 d2 21 40 db c1 59 7c 6e da 21 40
       8.91127471382757 8.926624189335532
000020 72 89 bd a5 af 60 2e c0 6e 3e 72 d4 9e 42 ff bf
       -15.188840083491161 -1.9537647532160025
000030 3a cb 81 65 3f ea 24 40 68 09 ed 3a c3 56 25 c0
       10.457514927000023 -10.669458238063001
000040 3b 89 eb 7f c2 56 03 40 30 13 e0 dc 30 3e f4 bf
       2.417363166213503 -1.2651833179417729
000050 d0 25 c0 df d0 b4 0c 40 74 63 7e bf 9b af e8 bf
       3.5882890205873323 -0.7714365711318423
000060 04 f3 fb 17 d3 c1 31 c0 64 14 02 fa 82 b0 e6 3f
       -17.75712728406053 0.7090468295069852
000070 f8 0f 16 ff c9 87 29 c0 ca 4f d4 ba f5 0b 0b 40
       -12.765212985461389 3.380839786152113
000080 a8 84 5d 8a 98 7c e0 bf db e9 6a 4e fb 10 0b c0
       -0.5152094557235118 -3.383291828763715
000090 23 76 37 2e d2 71 fb 3f ca ff 25 20 e4 ae 24 40
       1.7152883344018697 10.341584210051128
0000a0 c4 93 82 be 1d 34 1d 40 3c aa 13 33 82 5c 12 c0
       7.300894715041924 -4.5903404217484045
0000b0 d0 eb 8f 8d f0 c4 0a 40 a8 40 10 17 a4 0c f8 3f
       3.3461619433923957 1.5030861760060734
0000c0 89 35 20 1c 70 fb 21 40 e0 c1 d3 f8 12 a1 a0 3f
       8.991089705402162 0.032478897928630124
0000d0 ca 86 0a cc b1 58 00 c0 e5 7c ad 09 10 cd 23 40
       -2.0433078709328116 9.900512983730048
0000e0 7e 14 60 6c 40 aa 0e 40 de 65 cc ba 6a 31 12 40
       3.833130690271502 4.548258703923663
0000f0 7c 43 fb e1 28 60 25 40 58 70 f2 21 c3 a7 23 c0
       10.687811910554721 -9.827660618633828
000100 62 52 8d 74 6e 8e 22 c0 04 83 1c 68 b4 05 1a 40
       -9.278186456919858 6.505571009388181
000110 de cc 0b d6 f7 48 16 c0 c3 56 28 dd 75 de 19 c0
       -5.5712579197599705 -6.467246490084736
000120 70 b8 9b c4 5b d5 17 c0 50 81 28 2c 86 2d f5 bf
       -5.9583578796428895 -1.3236142849855987
000130 27 fb 51 fa ab 20 f2 bf e3 6c 2a 8f 54 66 08 40
       -1.1329765108236616 3.0499659714529215
000140 2c 6d 77 15 8a 62 2b 40 3a 80 09 5a 04 eb 04 40
       13.692459746197152 2.614754393973297
000150 d9 dd 00 78 5e bf 10 40 0f 73 0f f9 b9 26 17 40
       4.186883807232754 5.787818805282554
000160 5c dd e8 90 77 fa 20 c0 9e 1e 97 90 d4 6d f5 bf
       -8.48919346659266 -1.3393140457209607
000170 dd 2e 35 09 99 43 13 c0 2c 81 86 1a 4c 7b d0 3f
       -4.816013473387753 0.25752546873447346
000180 26 f7 ce 0d 5d 69 28 c0 12 43 d9 7f 76 cc 0d c0
       -12.205788070215544 -3.724835394685564
000190 3e 11 7a ea fd 5a 11 c0 ba 8b 0a 94 c9 dc 25 c0
       -4.3388592373851775 -10.931225420272188
0001a0 60 78 bb 35 cb 37 21 40 ee fa 5a c8 eb 9a 14 c0
       8.608972243437336 -5.151290064385405
0001b0 3c 65 a0 66 57 b0 0f 40 10 f3 5a b7 07 1c 09 40
       3.9611042039583975 3.1386865925436567
0001c0 86 88 7a e2 b7 84 01 c0 a0 f3 28 f2 d0 10 d2 3f
       -2.189803857197208 0.28227637909349745
0001d0 cf ce 7a df b5 0a 10 c0 bb 75 5b 2a ba da 02 40
       -4.010459415312382 2.356800394931921
0001e0 62 80 f4 ec 7b 71 20 40 68 68 0b 09 65 11 f9 3f
       8.221648602339148 1.5667467454245756
0001f0 76 b3 4c f0 ac ee fb bf f7 81 61 9c 91 26 25 40
       -1.7457703959182402 10.575329672720711

arr_4 f8 [64, 32]
000000 00 1f 52 b7 4d c4 f4 3f 20 4f d9 5f e2 53 c0 3f
       1.297925678345507 0.1275599449169187
000010 66 6e 07 8c 42 32 1f 40 64 88 ed 93 cf f5 cb 3f
       7.799081981614654 0.21843905184784085
000020 2c 8a c8 47 64 d2 23 c0 b5 37 d5 6e 9a 35 02 40
       -9.910921328763912 2.276173463708768
000030 8a bd cc a1 56 18 03 c0 82 72 f2 13 e0 e7 2a 40
       -2.3868839874846275 13.452881453843705
000040 d3 e3 e8 6f 37 50 02 c0 30 15 1a 02 39 e1 1a c0
       -2.2891682379672402 -6.71994403156468
000050 b4 27 4e d6 23 d6 0e c0 8b bd fe 55 bd 7e 20 c0
       -3.8545605414010087 -8.247538268419495
000060 e0 ce 9f fa 31 82 15 c0 50 22 22 06 9d 70 14 40
       -5.37714377975837 5.1099739988645325
000070 6a 06 cf f1 70 6c 20 c0 17 03 b0 5a a8 1a 1c c0
       -8.211799198648084 -7.026032845490383
000080 b5 da 4f dc fb 37 16 c0 c8 ac 09 58 a5 0f 01 40
       -5.554671709417268 2.132639587207084
000090 e7 92 db f3 6e 86 13 40 78 08 05 26 65 a1 d1 bf
       4.881282625462268 -0.27547577584130734
0000a0 22 73 e6 71 1c f0 0a c0 f3 5c 43 80 80 d2 27 c0
       -3.3672417543842963 -11.91113663503936
0000b0 d5 1d 31 3f d4 7a 1c 40 6c 7a 19 c1 c2 8b 16 c0
       7.119950282452426 -5.636485116176669
0000c0 36 b6 03 11 91 e9 0b 40 f7 26 b0 5a e3 47 13 40
       3.4890462235696544 4.820203225137212
0000d0 00 ac 9c 23 0a 1c 79 bf 9e ca c4 ee 95 a0 17 c0
       -0.006130256276985158 -5.906821947823714
0000e0 91 ee 80 b8 ee 48 02 40 5f 9d e1 96 d8 7a 24 40
       2.2856115736338514 10.23993369583212
0000f0 38 15 1f a7 72 56 00 c0 67 ae 29 01 7a 67 11 40
       -2.0422108703957313 4.351051347893736
000100 7e 89 1e e9 c4 e6 22 c0 ab 89 46 54 f4 19 2a c0
       -9.450721058824225 -13.050692208872382
000110 0a 10 a6 46 2a dc f7 3f ca 70 8f 8e 48 aa 06 c0
       1.4912512550081396 -2.8331462037586777
000120 d0 f5 d6 dc 49 14 d6 bf a0 45 cb ae c0 14 e4 3f
       -0.3449883133542615 0.6275332845636292
000130 a6 f4 f9 08 81 d7 fc 3f cc 45 e8 0b ed d3 06 c0
       1.8026132918014723 -2.853479474092387
000140 c2 3a 8f b0 e3 f3 1b 40 66 97 72 83 67 47 0c 40
       6.9881732547207225 3.5348654050202866
000150 96 2d b9 f9 e5 36 11 c0 d8 67 b9 fc 4c bb 27 c0
       -4.303611661841748 -11.865821740753674
000160 60 c0 09 bc 38 ff b2 bf 56 70 c1 b4 a6 87 eb bf
       -0.07420687285207483 -0.8603089838393412
000170 2a e0 69 f4 bd d3 29 40 2f 4f 82 1f 7a d7 11 40
       12.913558614658616 4.460426800087403
000180 32 60 0c 52 23 e4 21 c0 e0 94 39 11 d6 f9 02 40
       -8.945581974039758 2.3719903321931355
000190 41 71 6b ef 15 c7 1a c0 f0 21 b6 ad ee d5 b0 bf
       -6.694419613774074 -0.065764348421119
0001a0 44 b6 2f 28 7c 06 11 c0 6a 3e 01 73 93 40 20 c0
       -4.256332996284588 -8.126124948407966
0001b0 d0 32 d8 a6 12 1f 29 40 40 e0 c1 4f 50 29 9b 3f
       12.560689176455895 0.02652478682327364
0001c0 3c 4a 01 94 ee df 1c c0 45 b1 d5 df bc 10 19 40
       -7.218683540896162 6.266345498483422
0001d0 49 41 9f 54 47 a0 21 40 00 20 a0 46 ec e3 f9 3f
       8.813044208946524 1.6181452521141182
0001e0 b2 ff de 02 78 8a 00 40 a0 08 a2 33 13 0a 22 c0
       2.0676117157272182 -9.01967774727774
0001f0 3c a2 01 64 e3 3f 07 c0 a6 ea 6d 57 b1 52 f5 bf
       -2.906195431995256 -1.3326886573037569
000200 6a d5 97 38 9c bd 16 40 9d 3f 77 e8 8c 9c 18 40
       5.685166248576346 6.15288127162776
000210 d2 70 1e cc d7 e3 11 c0 ca 48 22 0f 37 34 01 40
       -4.472502889020875 2.150495641931319
000220 d3 45 e5 14 41 93 1a 40 63 88 25 c9 f5 8a 02 40
       6.64380295419092 2.317851611574086
000230 70 76 1c 69 d1 10 10 40 ee fa 85 1a 1d 93 f5 bf
       4.016423838007185 -1.348416427237392
000240 40 25 e9 dc 36 61 07 40 53 a8 6a af f3 86 20 c0
       2.9224679239893305 -8.26357792069408
000250 e8 cd db 3c 9f 0b 00 40 03 99 90 0b f6 cd 12 c0
       2.0056748156146007 -4.701133900356811
000260 a0 7f 55 5e 8e 00 f3 3f e7 b9 07 a7 d5 b7 0a c0
       1.1876357731743852 -3.33976297848061
000270 e7 08 ef 6a 04 ab 26 c0 39 63 76 b0 b3 9d e4 bf
       -11.334018079451608 -0.6442507216007477
000280 dc 4e 88 1d 2c 74 00 c0 38 59 fb 03 49 7d d0 bf
       -2.0567247683737673 -0.2576468027958927
000290 b0 d5 12 f0 cf 28 22 c0 5e 7b dd da cf f4 02 40
       -9.079711439417991 2.369537076839534
0002a0 10 bb 38 d5 99 e8 18 c0 cf 24 7e 19 23 30 0e 40
       -6.227149325931137 3.7735044471379307
0002b0 6e 52 13 3a c0 ec 25 40 bc 5e 5e f4 0f 48 e7 3f
       10.962404074534074 0.727546670229422
0002c0 21 42 dd 7a 3a 7a 04 c0 58 ea b4 7f ca 4b 1d 40
       -2.5596818541310005 7.32401465932579
0002d0 55 87 56 5c b6 0f 1f 40 1a ad 07 c8 f8 dc fa 3f
       7.765344088345803 1.6789481939002315
0002e0 07 d9 11 6b ca 33 06 c0 0e ce e3 4a e4 10 0c c0
       -2.7752884259053903 -3.5082479334612406
0002f0 d7 4a a6 0d 7c fd fe bf 3b a9 47 10 44 9c 19 40
       -1.9368858845888803 6.402603392003864
000300 84 6a d5 e4 fd 90 0f 40 22 97 02 e4 96 00 23 c0
       3.945796764147703 -9.50115120441075
000310 fc 4f 57 22 3d e4 12 c0 67 d2 ef 38 55 c9 1c c0
       -4.722889458254937 -7.196614160192076
000320 f2 70 11 90 4b 2a 0d 40 0a cf 1f c8 2d 4c 02 c0
       3.6456519370386724 -2.2871966967303523
000330 38 85 4e 54 a0 be 12 40 d6 72 bd 8e c0 77 04 40
       4.686158482830528 2.558472743183624
000340 65 0c 79 de 87 5a 22 40 04 94 ec 64 fd 9c 15 c0
       9.17681784846918 -5.403310372294985
000350 70 6b 8c 35 2b 28 ba bf e5 ed c9 c9 f1 74 f1 3f
       -0.10217542702996041 1.0910508997320616
000360 9e d0 77 73 23 be 09 40 9e 42 b8 03 3a d6 1d 40
       3.21784105500599 7.459205682870246
000370 46 1e 7c d9 5a b8 17 c0 54 e4 18 f0 d1 11 f4 bf
       -5.930034063530519 -1.2543506029890255
000380 10 1c e1 e1 e5 2a 0b 40 bc 3d 98 03 bf af 21 40
       3.3959462782691006 8.843254196485638
000390 0c 21 ef 2f 6e 7c 1b c0 e8 b7 ce 54 d3 d3 29 40
       -6.87151408097294 12.913721704706361
0003a0 f7 9b 5e f2 91 92 1e 40 34 ea 06 c6 5a 50 24 40
       7.643134867691507 10.15694254717264
0003b0 77 62 a4 3a 0c d5 2f c0 74 76 c5 ab e3 b6 1e c0
       -15.916108925405963 -7.678602870871703
0003c0 80 67 49 d5 18 3d c0 bf d8 fd b0 58 45 00 28 c0
       -0.12686453260795005 -12.000529071431558
0003d0 fa ce f8 97 34 ae f6 bf ac 29 29 cd 40 f3 d0 3f
       -1.4175306259539284 0.2648469928286896
0003e0 1b 91 85 d6 90 66 28 c0 cc f8 d1 0b 63 73 13 40
       -12.200323776058715 4.862682518664041
0003f0 5d 29 42 2e 0d 0e 31 40 44 cc dc bd 09 0d 0e 40
       17.054888621475914 3.756366236973493
000400 fa de e5 1d a8 9f e2 bf 38 5d a8 d9 07 ca 1b c0
       -0.5819893440193191 -6.947295571232921
000410 74 ea 95 8b e8 e7 00 c0 fb 2a 60 4c 4b 86 1f c0
       -2.1132365136266404 -7.881146615380881
000420 c2 f5 41 5c 3b d0 15 c0 b9 f1 83 0e 72 31 1e c0
       -5.4533514418848785 -7.548286654284703
000430 48 84 13 6a 3c 1e ef 3f 00 ad 46 64 1f f7 12 40
       0.9724409171868809 4.741330687345226
000440 ff 2e f9 f7 1f 37 20 40 d6 8c 39 92 7d ea 09 40
       8.107665776412885 3.2394973205387982
000450 40 f0 20 af 3d 49 23 40 a8 94 8b 84 fd 8c eb bf
       9.643048737307367 -0.8609607304357683
000460 59 6d 45 4b 82 19 14 c0 94 6b 40 6a b1 45 24 40
       -5.024911094772812 10.136119194377706
000470 74 3a 60 b2 24 d7 30 40 f0 02 e3 17 1b f8 fa 3f
       16.840403698437925 1.6855727131916716
000480 48 3a 81 c1 21 83 08 40 d2 58 d6 e2 ae 67 0b 40
       3.064029227977958 3.4256265374816417
000490 27 34 1b 44 df 01 00 40 9c 01 44 4f ae 1f e2 3f
       2.0009141274263302 0.566367296996805
0004a0 6a b4 2f 44 48 3f 26 40 33 3f c9 2e 44 80 19 c0
       11.123598223517735 -6.375260096581587
0004b0 78 eb 2a 3d eb 47 ea bf fb e2 31 50 db ab 29 40
       -0.8212791628533145 12.835657602395704
0004c0 5f ba 24 13 26 b1 1d c0 fe 3b 3e 9c 82 44 f5 3f
       -7.422996806256008 1.3292261222120483
0004d0 07 3e 85 60 14 c6 13 c0 e4 35 7f 1f 90 ce 0a 40
       -4.943437107212509 3.3508608303734366
0004e0 90 65 0b 2a 5d 15 24 40 6a ba 78 f6 f0 5f 1d c0
       10.0417264117157 -7.343692637556709
0004f0 db f6 e1 ba c3 c7 34 40 4a 3f 86 94 08 4e f5 bf
       20.780330352942524 -1.3315511514410496
000500 3f 28 0c 8d d0 12 fa bf 46 b3 a0 5f f5 6e 04 c0
       -1.6295934209506553 -2.5541789503971897
000510 9e 09 a3 93 64 e4 20 c0 5c 24 8a 7a be 19 01 c0
       -8.446079839374587 -2.1375703404815294
000520 0d 4d 37 96 a7 fe 12 40 38 8d ef 45 3c 55 fd bf
       4.748686167836479 -1.83330943411495
000530 10 47 72 72 13 50 0e 40 da 8a 61 a0 06 f9 1c 40
       3.789099592316127 7.243189340547099
000540 9b 4e 7f 05 12 41 1b c0 ea 93 00 ee 5d 5c 23 c0
       -6.813545308966833 -9.680404126711398
000550 57 16 52 de 58 56 10 c0 1a 58 a4 bf b3 f2 20 40
       -4.084323381195268 8.474027622996847
000560 a0 90 11 8d f5 15 09 c0 9e 09 36 2c 6e 2b fc 3f
       -3.1357222577081103 1.760603115748928
000570 4e fb a8 bd 4d 26 0e c0 f0 16 4e a0 40 47 f2 bf
       -3.768702966422473 -1.142395616714051
000580 ec 42 07 8a 68 77 1d 40 5e 29 7a 55 90 48 e0 3f
       7.36660972279854 0.5088578862644615
000590 26 b3 e5 f8 ae 3c c2 3f 12 a4 fc 16 2c 1e 06 c0
       0.1424769130057026 -2.764732532105435
0005a0 d2 fa f4 a5 42 1e 1e c0 6e b0 5b 85 98 17 17 40
       -7.529551117970827 5.773042758675826
0005b0 17 0e 05 bb a5 c5 15 c0 2e 33 69 ad 25 5b 23 40
       -5.443015024360213 9.678021830646312
0005c0 68 21 5a e3 7b 4b dc bf f9 fd 88 19 37 65 2b 40
       -0.44210717394209675 13.697686002705256
0005d0 60 cb e0 f2 9d f9 20 c0 4d 55 6a 38 5e b3 1e c0
       -8.48753317827294 -7.675164109697403
0005e0 15 1f 47 e8 5a f0 1e c0 68 a9 30 ba d6 ad 2c 40
       -7.734721783963114 14.339528864326624
0005f0 08 fd 2e 19 18 75 1c c0 5e e7 73 9d 27 40 e0 bf
       -7.11434974049849 -0.5078313899277693
000600 38 f6 69 3d 86 9f ef 3f 12 3a 66 c9 88 83 15 c0
       0.9882231902590268 -5.37845148741191
000610 98 b9 42 85 28 d5 18 c0 25 3c 8c 35 6a 8d 11 40
       -6.2081623861289685 4.388100468334447
000620 09 8c 04 74 2b 11 23 c0 6b 78 90 32 76 23 0d c0
       -9.533534646563583 -3.6423152876223432
000630 a2 d3 b0 6a cc 89 18 40 f5 d6 48 fd 1a 08 03 40
       6.134568850557942 2.3789577281812577
000640 b2 38 03 6b 9f b4 1b c0 96 c2 d6 e5 5a d1 15 40
       -6.926389381476996 5.454448310120503
000650 8e b7 ce 08 00 f0 27 40 ae 7e d9 95 3a a8 08 40
       11.968750262483606 3.082142992687145
000660 b3 d8 95 5a 97 31 f6 3f 32 c9 4a 1b 71 f5 f9 3f
       1.3871072329034575 1.6224223199938703
000670 18 89 6c 99 b7 e8 2f c0 22 59 b3 0d ef 5a d2 3f
       -15.954525751589742 0.2868001588625636
000680 d6 aa 42 ac fd 37 1e c0 6c 36 c4 d1 6a 20 1e c0
       -7.554678622788478 -7.531657483673921
000690 2c c4 c5 09 da fc f0 bf d7 bc 12 19 0f 2f 1c 40
       -1.0617313749064676 7.045956031578689
0006a0 88 fd 84 bd 6c b9 e5 3f 6a 1b 39 09 f8 c9 0e c0
       0.6788848592331513 -3.848617622428198
0006b0 9a dc 39 0c 35 0a 2a c0 de eb db a8 c9 27 fb bf
       -13.019935972274016 -1.6972138019616447
0006c0 37 3e 43 6f 55 00 04 40 b2 8c 4c 99 5f 01 1c 40
       2.500162953605265 7.00134124307367
0006d0 20 f4 44 8b 73 4d bb 3f 2c 30 46 b9 56 2a 08 40
       0.10665056371813408 3.020673224882577
0006e0 65 a2 35 e0 7c 8c 1a c0 98 0d 51 38 18 37 10 c0
       -6.637195113442975 -4.053803329417313
0006f0 f3 7a 08 2e e6 f6 01 40 10 7f 4e 48 60 69 10 40
       2.2455562206590627 4.102906350890194
000700 57 58 0e f8 e1 cf 09 40 86 e5 25 58 95 68 18 c0
       3.2265052203538676 -6.102132203400634
000710 64 2e 8a ae 00 84 d0 3f 89 29 d5 11 f7 6f 03 c0
       0.2580568031778283 -2.4296704667260127
000720 d0 22 26 82 0d b3 18 40 12 6b 6f 17 5c 73 0e 40
       6.174856217935215 3.80632799443027
000730 7a 0b 8a 4e 32 3d 18 40 ce 67 68 e0 2d 5b 19 40
       6.059762217689121 6.33904219281426
000740 36 59 e7 0d 3e d5 27 40 d2 10 88 62 c5 b9 01 c0
       11.916489061823636 -2.2157085130475958
000750 20 50 6d c4 e6 f6 f6 bf 28 62 46 1f 05 82 14 40
       -1.4352786705903853 5.1269726645191795
000760 f6 e7 32 4b 6f 6e 0f c0 c6 ad 16 92 99 31 e0 bf
       -3.9289232134733494 -0.5060546735089069
000770 0c 16 2d 14 71 9c 0c 40 2a 4d fb ef 67 75 0b 40
       3.5763875557192986 3.4323271511617763
000780 b1 27 89 cb 30 3d 23 40 b5 79 97 65 f6 b2 12 40
       9.619512901775893 4.674768054361654
000790 0b 7e 00 94 f1 8c 23 40 af 78 34 80 ad 6c 14 40
       9.775280594883062 5.106130603029825
0007a0 14 6d 4e 91 0f 14 23 c0 b4 c4 19 63 65 3a 14 c0
       -9.539181271384713 -5.057027386138703
0007b0 a0 39 b4 ef 00 93 21 c0 55 05 e5 cf f7 19 21 40
       -8.787116518736013 8.550718781191486
0007c0 6d 9b 30 d2 46 2f 09 40 96 e0 b0 01 79 0e 1d 40
       3.148084299190876 7.264133478565915
0007d0 8d b7 0d 29 19 26 1b c0 8b 2e 5d 55 fe 36 22 40
       -6.787205354177684 9.10740916025613
0007e0 70 13 b3 03 d0 db f1 bf 6f 73 cc 33 48 94 24 40
       -1.1161651749145811 10.28961336012591
0007f0 92 3f cb a1 64 fb 16 40 a8 64 7e 12 9e 70 10 c0
       5.745501068144124 -4.109977997745922

arr_5 f8 [32]
000000 1e 30 e4 af b7 30 10 40 84 b7 ae 48 06 86 f1 bf
       4.047575710585106 -1.0952208365592648
000010 a4 e6 df 56 9d 8c 12 c0 2c 45 70 68 6f f9 0a 40
       -4.637318952003316 3.371794525076117
000020 90 92 8f ff 61 04 02 c0 e1 74 89 0d c2 90 ff bf
       -2.252140041893945 -1.9728413132464129
000030 91 1e 1f 2f e8 42 20 40 f8 94 84 94 c5 fe 03 c0
       8.130677673863177 -2.499400291725234
000040 76 cb 73 b7 d6 29 1c c0 ac 63 c4 b5 12 50 10 40
       -7.040858141367485 4.078196373092322
000050 ba cb 56 5a de 32 1f 40 0c 29 d1 79 c8 4e 18 c0
       7.799676333949657 -6.076936629668364
000060 e8 26 c8 65 58 de ee 3f b4 18 2c 10 53 ca 1c 40
       0.9646417606283793 7.19758248585838
000070 e2 72 71 79 8e e2 03 40 99 68 68 76 50 0e ff 3f
       2.485623310827905 1.9409947037989126
000080 47 31 0e cf 3a 36 26 c0 04 08 0f 55 4e 61 1a 40
       -11.10591742561577 6.595025376360358
000090 29 d4 a9 2c e2 fa 13 40 dc cd 3b c4 9f e3 03 40
       4.995003412118458 2.4861445742369437
0000a0 f8 0f c8 00 75 c2 22 c0 dd de 52 40 ab 2e 19 40
       -9.379798912450482 6.29557514673044
0000b0 80 80 ac 92 61 c5 1f 40 0f 3e 43 55 3e 4c 22 40
       7.942755023745235 9.148913063486388
0000c0 ed 25 e0 d5 6d 60 e1 bf 88 93 d6 43 5b 25 22 c0
       -0.5430211236245533 -9.072961921637912
0000d0 e3 54 8c 71 af fb 21 40 b8 14 9d da 1b 6b 16 40
       8.991572903042146 5.604598441922626
0000e0 60 e8 fb 63 17 85 b4 3f 91 56 a1 06 14 52 11 40
       0.08015581313148479 4.330154517743396
0000f0 d3 81 7d 10 9e 67 00 40 d6 b1 ad 60 60 3f 20 c0
       2.050594452696012 -8.12378217811867
