weights/global.npz (npz, 134546 bytes, 10 tensors)

arr_0 f8 [43, 128]
0	0x3fa5a29856b0f95d	0.0422561269592616
1	0x3fbdd136ffda10a0	0.11647361513502341
2	0x3f359b480ee84c7c	0.00032969006761724546
3	0xbfb7485b921bf1d7	-0.09094784085386408
4	0xbfc4d5e41e28f36b	-0.16277743790297036
5	0xbfb7b02680061588	-0.09253159165935732
6	0xbfb6ac169c88ab15	-0.08856335946681455
7	0x3fb72307d05f4e55	0.0903782733651551
8	0x3f81ecc552b1ba15	0.008752385698440649
9	0xbfc8cda42b6b6d5c	-0.1937756740579556
10	0x3fb8923ee6eaac99	0.09598153245558406
11	0xbf8ebc3a4572abd3	-0.015007453197844278
12	0xbfbfbd3c5020a580	-0.12398125606764232
13	0xbf64f22ec61da85d	-0.00255688796544455
14	0xbfb906179ddb9fb1	-0.09774921039536257
15	0xbfa6380d80432f93	-0.043396398455654815
16	0xbfba0c5fa24c1b30	-0.10175130569778612
17	0xbfc52b8f3a41de94	-0.16539182991595125
18	0xbfab331f58e7463b	-0.05312440834280748
19	0x3f6788e3d8d08790	0.002872891438998111
20	0xbfc77fc2bedd2c67	-0.1835864479020046
21	0x3fcaaba302d92cbf	0.208362938299933
22	0xbfb17a41de846e96	-0.06827174837638447
23	0xbf805c4d53277453	-0.007988552189028086
24	0xbfc1e5f79f12958b	-0.1398305441590931
25	0xbfc0abbc43b37655	-0.1302409487315567
26	0xbfb8be5b5e00c740	-0.09665461583133794
27	0x3facf7f538c939b0	0.05657926862896845
28	0x3fc30cb269e5e1d9	0.14882497950362852
29	0x3fa81d8ef438ffd4	0.04710051280244412
30	0x354b78a4cfa4f071	5.7362677458647804e-52
31	0xbfab661f712d4518	-0.05351351028969925
32	0x3fa8204810446925	0.04712128828596666
33	0xbfbd0ab7212d0737	-0.11344475326498303
34	0xbf8308711fdee040	-0.009293445382226762
35	0x3fc27243eba7eaa1	0.1441121006644908
36	0xbfc2677133e67cde	-0.1437818053645747
37	0x3fc0ae993805a855	0.13032832370237438
38	0x3f990a049611ddf3	0.024452277812512645
39	0xbfba9ccd5e6d8b9b	-0.10395511203164036
40	0x3fc6fa0f702bf389	0.1795062349046044
41	0xbfb1fa8cd263636f	-0.07022934090072196
42	0xbf72d71f5ab16fa9	-0.004599688031785045
43	0xbfb51f0f344ca481	-0.08250517870750863
44	0xbfbfe6b12db9f1c7	-0.1246138321529947
45	0xbfbce7ea18b62e6f	-0.11291373351394339
46	0xbfbc033053cdf027	-0.10942365690237975
47	0x3fc16df771c6a731	0.13616841369121738
48	0xbfc4ab81126e8e73	-0.16148389244073122
49	0x3fbdfc1caf4765a3	0.11712817458410156
50	0xbfa038e2f8d5d8d7	-0.0316840103868558
51	0x3fc4a1caa1007fde	0.16118748532699007
52	0xbfac26681948cd31	-0.05498051937720517
53	0x3f6ba4b6fd313d54	0.0033744405750792215
54	0xbf9b21b8dac14d65	-0.02649582705664723
55	0x3fb7888bdaee84bc	0.0919272813321354
56	0x3f7aca1f34109be0	0.006540414703557013
57	0xbfbcaa197f4b9e37	-0.11197051389501032
58	0xbf2f81f7185b6cb7	-0.0002403844957175932
59	0xbfb41dcfe7cace2c	-0.07857989701261009
60	0xbfc07cd64152c4d3	-0.1288097208940032
61	0xbfc2811679ace60b	-0.1445644468420116
62	0x3f71d03f32b06799	0.0043489903137245095
63	0x3fb05f94d2978c7e	0.06395845548063225
64	0x3fb0d03d7db27f2d	0.06567749327450363
65	0x3bbbc4aeeb8ab1e8	5.880164991304708e-21
66	0xbf8cda6120cdcf20	-0.014088400662991385
67	0xbfba6cc5acaed0f4	-0.10322223153963589
68	0x3b32478675dde729	1.5120361528030373e-23
69	0x3fb66eeb4592b6e0	0.08762999008714756
70	0xbfaa31a46c0f3bb5	-0.05115999049268486
71	0x3fb1106ceccb19ae	0.0666568830593863
72	0xbfaa81257a21f7f3	-0.051766558798575966
73	0xbfb0badae6a0dbe7	-0.06535118227553448
74	0xbfbf356abcf2ed47	-0.1219088279057604
75	0xbfbb4d834ea37575	-0.10665150327573321
76	0xbfbf0a7f20d93617	-0.12125391532864459
77	0xbfc1823e6499bb90	-0.13678722297796897
78	0xbf775e78d8c963f0	-0.00570532995023941
79	0xbfc30fd56e922b08	-0.14892070673916913
80	0xbfaca1e5beebd70d	-0.055922679477516814
81	0x3fc1a7779d6fef6c	0.13792319476476267
82	0x3fc22902e177b1eb	0.14187656411321767
83	0xbfc47620cc08d5bb	-0.1598549839269888
84	0xbfacfd781e310260	-0.05662131660983927
85	0xbf863ff7ddd6b9ed	-0.01086419721363271
86	0x3fbbd4d07f4ebd10	0.1087160406884673
87	0x3fa8eecf1591e90b	0.048696967490245845
88	0xbfb4b96bd3859aa4	-0.08095430292233147
89	0xbfc58524b516d523	-0.16812571375127403
90	0xbfb7c91a4fa3f033	-0.0929123348650485
91	0xbfc15146b0ded174	-0.13529285084008402
92	0x3fa931dca2a3acd9	0.049208540776669536
93	0xbfbdee315c77d217	-0.11691578395386447
94	0x3fb4d6e01419adef	0.08140373697977286
95	0xbfac72760877b210	-0.05556076863635806
96	0x3b3648b6c8a89183	1.843292507962956e-23
97	0x3fc71266f7cbcbe0	0.1802490911428256
98	0x3fc3b7f76071f66b	0.15405170640217433
99	0x3fce39843c61e1d7	0.2361302656970696
100	0x3fb24767d6c1a743	0.07140206330373382
101	0xbfb763dae07b5ff7	-0.0913674161960215
102	0x3fbe924620bb3ad5	0.1194194631491244
103	0x3553c55ef13e75d8	8.256746485753753e-52
104	0x3fb66eeacb0e380b	0.08762996156130513
105	0xbf6dba6d9a70f19d	-0.003628934925954576
106	0xbfc493df2e5226e7	-0.1607626892257976
107	0x3fa39b4c56f29bb9	0.03829420625088837
108	0x3fb40d6a6cf00f35	0.07832970771420096
109	0xbfbd9222fe086bef	-0.11551111890769027
110	0xbfccbbe3b293c1a3	-0.22448393077457948
111	0x3fc349b8687859c0	0.15068726636009266
112	0x3fbd2c287b075bc5	0.11395504954940268
113	0x3fc131aa8575e3ad	0.13432818905473934
114	0x3fbf5fdd8755fb33	0.12255653909776924
115	0xbfc147c45d8ae4bf	-0.13500265662677255
116	0x3fa204634154cee3	0.03518972561360358
117	0x3faf59babdd0045c	0.06123145644233638
118	0xbfb37259e331a006	-0.07596360966419988
119	0x3fa8e5fbb1071b50	0.04862963233931927
120	0xbfbc2a335bb34319	-0.11001893032813505
121	0x3fac3cf6843c29ad	0.055152610437363726
122	0x3fb4055b2b64f413	0.07820672807152133
123	0xbf363d598368f133	-0.0003393500841502195
124	0x3fa95086e13dec28	0.04944249629530645
125	0xbfc15c04cb93f90d	-0.13562068882306058
126	0x3faf56fb54c65911	0.061210493181692034
127	0xbfbbacd3d7e0b2a3	-0.10810588856174745
128	0x3fa1d7d83b44bc96	0.034849889025616296
129	0x3fb37cdbebbb263c	0.07612394814636841
130	0x3f844ea58fabc601	0.009915631720534003
131	0xbfc4bd34100ece2a	-0.16202402862619297
132	0x3fc7f7fb9f02c78b	0.18725533737375274
133	0x3fc699a1d78d0b08	0.17656348252247533
134	0x3fc58ce55971e049	0.16836230151580114
135	0x3fb128aab5fbcb46	0.06702677672346366
136	0xbfbd07ab678917b0	-0.11339827802393532
137	0x3fa9f9ba4f5e1a3d	0.050733396709848645
138	0x3fa9e9cd2a4f06c7	0.050611888327251324
139	0xbf731448771448ad	-0.004658015315060532
140	0x3fc1ecaa56a2da7c	0.14003495435982305
141	0xbfc6db5dd1009690	-0.17856953339758208
142	0x3fb075ce6461292c	0.06429758024856785
143	0xbf98528f60602bcd	-0.023752441651634194
144	0x3fcb08c2b706437b	0.21120485245458184
145	0x3fac215a87bb1333	0.05494196802968645
146	0xbf7ac275fc9f3b48	-0.006533108602481637
147	0xbfc27cb5ba191553	-0.14443084322753438
148	0xbfa2c93a9ba87012	-0.03669150495645125
149	0x3fcd8acec3f1d827	0.2307985741387608
150	0x3fcd17ed6c06cd89	0.22729270720229192
151	0x3fc96d8edf298bc7	0.19865594765278002
152	0x3fc5e7d0f1afd059	0.17113696862327535
153	0xbfc04e2a3be6e377	-0.12738540577791088
154	0x3fa3c2f3075f692b	0.03859672036169778
155	0xbfc69c64695616b1	-0.17664771216748457
156	0x3fc558fd155af51f	0.16677821676959412
157	0x3fc72f8b8f0296c8	0.181138462857396
158	0x37e9a78157d04203	2.3559769640740118e-39
159	0x3fc764348b549edd	0.18274552157639948
160	0xbfca5f8a75795ef1	-0.20604067550697594
161	0xbf934af4cb29ca87	-0.018840622806644915
162	0x3fc8988a1075199c	0.19215513042054233
163	0xbfc3823a87900461	-0.15241176242128332
164	0x3f84303b5b9c399d	0.009857619984839522
165	0x3fb3b8d350133baa	0.07703896241149147
166	0x3fc3195eae970e53	0.14921172642617594
167	0xbfb54a3f0a144d3a	-0.08316415783001654
168	0x3fb49a3508b9a5a4	0.08047801459328824
169	0xbfab2e9c9e5bd5b4	-0.05308999474611245
170	0xbfb80fd0a16a4421	-0.09399131718443289
171	0x3fc428a27c28acf4	0.15749007284589533
172	0x3f9e531ba55b53a5	0.029613906829428455
173	0x3fb574e0f7ba3387	0.08381467865019775
174	0xbfbdf1f3a146607d	-0.11697313964248397
175	0x3f97c97eeff60b80	0.023229583164276146
176	0xbfb5e8372b7e8edd	-0.08557457744478421
177	0x3fb0dace7514f44e	0.06583872183269188
178	0x3fa0b58797098225	0.032634961306716094
179	0xbfca4a007b92f2f7	-0.20538335832488716
180	0xbfc15a7c2e180dfb	-0.1355738854473286
181	0x3fa6ef52d7b93c41	0.044794644196934026
182	0xbfb19785aed365f8	-0.06871829527099027
183	0xbfc2e99d749b2ebf	-0.1477543658605693
184	0x3fb9bfc3e7a36624	0.1005823555491579
185	0xbfc37c39765d7287	-0.15222852973501608
186	0x3f284f8e9df39013	0.00018547645502231587
187	0xbfc579d79777e685	-0.16778082748333048
188	0xbfc2bc7ae8975d95	-0.1463769565295762
189	0xbfbedfb854ca1624	-0.12060119695714683
190	0x3f77b4dc23669cc0	0.005787715830968654
191	0xbf8fce7e80f3dc81	-0.01553057509452871
192	0xbfb64c88a1e2dbf1	-0.08710531189250027
193	0x3a447a561050dbc3	5.16934258690479e-28
194	0xbf851289383d747b	-0.010289260891733534
195	0x3fc4603dfb9eba81	0.15918707643637123
196	0x3530c86071cbf4c1	1.7521978946396964e-52
197	0xbfc04879d9dea99a	-0.12721179140255573
198	0x3fc58bccdb37ca53	0.1683288641357473
199	0x3fb61e47ea16e7d5	0.08639955010485718
200	0xbfbc69df1bbe3e13	-0.11099047114679932
201	0xbfbbe0de603dc82d	-0.10889997338907227
202	0x3fa1eab9bdf744e2	0.034993938864895005
203	0xbfbefc3f4aca34e4	-0.12103648734974432
204	0x3fbef9e1f15ec30b	0.12100040572000752
205	0xbfba64ac3af570e5	-0.10309864463255598
206	0x3f71f7b9c7fcba66	0.00438664027005462
207	0x3fb55fe221dea12c	0.0834943134965484
208	0xbfbd37bb005ac7a4	-0.11413162954957429
209	0xbfa18cdd2d0f8e6b	-0.03427783179338636
210	0xbfa9e4268230fbfd	-0.050568774597643064
211	0x3fc2adbcae086faf	0.14592703340247
212	0xbfc0af0a2325c03c	-0.13034178463158408
213	0xbfcc214ecb90453b	-0.21976647319437767
214	0x3fa74bca7d40399f	0.04550011424008748
215	0x3fc3cd00c036bc08	0.15469369302215363
216	0xbfa7400f35dfc0ad	-0.04541060955659879
217	0xbfba3b49d3fd17bb	-0.10246716905120838
218	0xbfac6432bd4baab8	-0.05545195160614952
219	0xbfc4d75b196c4831	-0.1628221391807201
220	0x3fb1f3793cc0fd8b	0.07012136204956769
221	0x3fcb0796ab842680	0.2111690843087679
222	0xbfa284612a163e79	-0.03616622580295554
223	0x3fb2ac386dd40d43	0.07294037515025757
224	0xb80e66ea55ee76a3	-1.1167935857818287e-38
225	0x3fba79668ed85b83	0.10341492640905696
226	0x3fc37812a4436fcb	0.15210183163332966
227	0x3fc17c5c12efb4f4	0.13660765576006606
228	0xbfd08d09213846cc	-0.2586081337368398
229	0x3fc36d0214b244f8	0.15176416407170001
230	0x3f927598646c38f9	0.01802671540195264
231	0x3b252c9f7ebe1a14	8.757488821215466e-24
232	0x3fb248249d2141cd	0.07141331516437006
233	0xbf6c34660aec1a03	-0.0034429543515017715
234	0x3fc3cfabed2e93fa	0.15477513390683822
235	0x3fb646e19868a343	0.08701906176487477
236	0xbfc65fc0af842f9d	-0.17479713983663894
237	0x3fa3066c5d402eda	0.03715838087381736
238	0xbf9525369ee2e531	-0.02064977020993303
239	0xbfb15c83bdd138c4	-0.06781791099749329
240	0xbfccd569bfa936eb	-0.22526285036513313
241	0x3fc189c59dd95b22	0.13701696593735685
242	0xbfb9866972b1e239	-0.09970721292655406
243	0xbfb6c7927c808e5f	-0.08898273028949565
244	0x3fadb43cf545941f	0.05801573270836279
245	0x3f9d781e3c2442ef	0.02877852670741537
246	0x3fc1ca589c182545	0.13898761388581185
247	0xbfb867c1ed759d65	-0.09533321425771175
248	0x3fa4f9b4e58bc3ec	0.04096761037897764
249	0xbfc1a4601a3da4f5	-0.1378288391236208
250	0x3fa2f9c0fb995847	0.03706172057415862
251	0xbe592d1c9d9b3b09	-2.344718006454913e-08
252	0x3fa6711f9d600d28	0.04383181377490991
253	0x3f915429058ebae5	0.01692260834141281
254	0xbfb94fc30abe42e7	-0.09887331974301682
255	0xbf8660ac09352eb1	-0.010926574736593283

arr_1 f8 [128]
0	0xbf9a1850511720f0	-0.02548337454734989
1	0x3fb555b22be8d573	0.08333886692056129
2	0xbf65ff58f2024291	-0.0026852357114609056
3	0xbfc12c46111d4b79	-0.1341636260572974
4	0xbfbd06ffb59f1b18	-0.11338804420584514
5	0xbfc759607b01c9e9	-0.18241506582451386
6	0x3fab876667ffa778	0.0537673952056385
7	0x3fa0d8974e150372	0.03290245845938146
8	0xbfbe847ef1e5da74	-0.11920922666272721
9	0xbfa758c6e073f768	-0.04559918870835028
10	0xbfa4049ef4a44ba2	-0.0390977548251137
11	0xbfc5e3ee49685209	-0.17101839622831985
12	0x3f7923da55616195	0.006137707581807557
13	0x3fc167888fcb26e5	0.1359720899693492
14	0xbfb646540155fdb5	-0.08701062233557517
15	0x3fa3156b70d13f91	0.03727279426732289
16	0xbfc2c5bcade23891	-0.14665945520795678
17	0xbfb3b3dc586a568f	-0.07696320684984868
18	0x3f84828ee2233f79	0.010014644886183298
19	0x3fafda50e69033b8	0.062212494034703025
20	0xbf9d3ae2e3c7bf5d	-0.028544945862392413
21	0x3fc0d463d1fa1067	0.13148162606023847
22	0x3fb25576c369ea89	0.07161657591670169
23	0xbfc1c892baa254e9	-0.13893350708955346
24	0xbfc40301cd6a40c3	-0.15634176759750149
25	0x3fbd8d2f3508b5d5	0.11543555302406301
26	0xbfcaac3e771396f1	-0.20838146986277864
27	0x3fb5976141ccfe4c	0.08434112411941291
28	0x3fb374ea64adccda	0.07600274045926217
29	0xbfc107d09f54ab9b	-0.13305099277326068
30	0xbfbe01e0b45d7318	-0.11721615222399995
31	0xbf996af416809075	-0.024822057603288223
32	0xbfc1be836fe034eb	-0.13862650835691367
33	0x3fbb79826add7895	0.10732283696185825
34	0xbfb964c0d08b2249	-0.09919362155336232
35	0x3fc0f4107f31e8ef	0.13244825564090187
36	0xbfa08cf0fd61c8d1	-0.032325297289291684
37	0x3fc22fdc4f43d19f	0.1420855891261796
38	0xbfc77d95d4192701	-0.18352005821571285
39	0x3fc5d43221a75447	0.17053820269817008
40	0x3fc71d8029e6c9f7	0.1805877880666029
41	0xbfa27a2f303f7dff	-0.036088442458773067
42	0xbf70500deff14ea4	-0.003982595865710845
43	0x3fc7eb8b097f9c8d	0.18687570537369816
44	0xbfb7e43dd245447c	-0.0933264387470149
45	0xbfb4e79178725bcc	-0.0816584509906157
46	0xbfc689787546faf5	-0.17607026792935412
47	0xbfc172d5955471b7	-0.13631696502205923
48	0x3fc5d7c8d9d41c73	0.1706477225891124
49	0x3fc4072d02601783	0.1564689885710174
50	0x3fa233d308f46809	0.035551638453583286
51	0xbfcacd1e448f2684	-0.20938471171966822
52	0xbfc45ca1923b771a	-0.15907687797783227
53	0xbfc6b52ddd3405ff	-0.17740414906442933
54	0x3fbcf1a7856a3a9c	0.11306235320283026
55	0xbfb8adb8931fe7b5	-0.09640077201757331
56	0x3fbb17cca8b987d5	0.1058319007802589
57	0x3fb822aaec1eb65b	0.09427898659370142
58	0x3fa62d4e60643bbc	0.04331440855650423
59	0xbfc9701ad0ba7347	-0.1987336653882272
60	0x3fbe829e585f6abb	0.11918058068787733
61	0x3fb39ec9c1952309	0.07664166427742826
62	0xbf8e23c68aa2dcb0	-0.014716673951950504
63	0x3fb961d2af42814d	0.09914891032031399
64	0x3fbbccf01aba00c8	0.10859585430626162
65	0xbfc274a9d9e07f24	-0.14418528688929044
66	0x3fb0dce69d2c1cf5	0.06587067925658004
67	0xbfc3fe89cac40900	-0.15620539093658437
68	0xbf97663093b1a728	-0.022850760473750814
69	0xbfb1d86fbb486950	-0.0697088081582582
70	0x3fb36f29b8aaa317	0.07591496237240523
71	0x3fcb69f4a0d81105	0.214171007668604
72	0x3fa8fd030db04b45	0.048805327816941836
73	0xbfc7d9d70ebed2a0	-0.186335451316741
74	0x3fc2fae5883f5e83	0.14828175690376008
75	0xbfc2cbc8dd641687	-0.14684401331048866
76	0x3fc71d72f32cd484	0.18058621286187215
77	0x3faf65b60523a21b	0.061322868468611534
78	0x3fc135196423fac0	0.13443295850443882
79	0x3f98acfddaa3a0b0	0.02409741064994425
80	0xbfc53ebb36b7db5c	-0.1659769074610392
81	0xbf4df8bf32fc023b	-0.0009146627034795693
82	0x3fc0bdeca5fdac92	0.1307960329535019
83	0xbfb4da2cb120b185	-0.08145407986075355
84	0x3fbfa39ec125334b	0.12359039512120977
85	0xbfce14c0de4a2a93	-0.23500834325780726
86	0xbf92b7096fa0c328	-0.018276355207663603
87	0x3fb2b844a4a9cc90	0.07312420864200164
88	0xbfa6ad7c21fae0c0	-0.04429233469767402
89	0x3fc50b7bd043126d	0.16441295308154072
90	0xbfa99a01f54d7f59	-0.050003110117130496
91	0x3fc1c5d9df586cc1	0.1388504353097684
92	0xbf98d3d57926ed6b	-0.024245582122359204
93	0x3fa38c590809cf14	0.03818014357685065
94	0x3fb3c61c8092af3c	0.07724168910015988
95	0xbf88907891473e10	-0.011994306500951374
96	0xbfc585d381a85a23	-0.16814655142725696
97	0xbfa219b3b6170cd9	-0.03535234067705923
98	0xbfb249f843aa0d3d	-0.07144118930778105
99	0xbf8cacc8564b68af	-0.014001431592465556
100	0xbfbe06a7dd95a92b	-0.11728905830174045
101	0xbfbd99506bc16a6c	-0.11562063818693397
102	0xbfc6e8098ff1a0f7	-0.1789562180376902
103	0xbfab54982cce9878	-0.05337977930985088
104	0x3f9f560ddab5233d	0.030601707910395282
105	0x3fbc690be24e1bdd	0.11097788119342007
106	0x3fbf3936a8b853e5	0.12196675891057358
107	0xbfbca8f772d2ca93	-0.11195322564416647
108	0x3f63fefc20e397c1	0.0024409222015604197
109	0x3f954f86e1539e3f	0.020811183455320622
110	0x3fb5377ad75b03e1	0.08287780530646628
111	0xbfb2e9fff37e5e85	-0.07388305372875877
112	0xbfc74578c2fa15f7	-0.18180760879856425
113	0x3fc718f4adf3d2fd	0.18044908994456668
114	0xbf9e3ca70552c6cd	-0.02952824563971639
115	0x3fbbe3991c24d26d	0.10894162118058555
116	0xbfa0262fc2c3343e	-0.03154134037468069
117	0xbfbbc52cb0f7c5d1	-0.10847739525322388
118	0x3fb5e0d6da4a5d4d	0.08546202496869633
119	0x3fc0bf8eb587c415	0.13084586967264103
120	0x3fc3b041396ec6a6	0.1538163690980145
121	0xbfb50e1981470fb4	-0.08224639326277733
122	0x3fc600535efc98f7	0.17188493860266593
123	0x3fb6cb63f5fd22f5	0.08904099231325431
124	0x3fc3f779591781b0	0.15598980760752346
125	0x3fae2f6359ce49b8	0.05895529242765768
126	0x3fc2aef24d408325	0.14596394321508757
127	0x3fa010be3dc5e25b	0.03137773994507561

arr_2 f8 [128, 64]
0	0xbf7e85ac14ba1b8b	-0.007451698485630663
1	0xbf70e4afe860e8ec	-0.004124343051495876
2	0xbfa5c5ee05655f3f	-0.042525709303559804
3	0x3fc39edd8bb40b23	0.15328568765115688
4	0x3fc1ec52265732e9	0.1400244414529859
5	0xbfaa70240dd2297c	-0.051636816680075776
6	0xbfa6626ed3a1fbd9	-0.04371973355681975
7	0x3fc2dc1b828dc5bc	0.14734214663216771
8	0x3fb50aa2748a7c50	0.08219352097738519
9	0x3fc34bcf787884da	0.15075105078088918
10	0x3b28d3a8d802afb4	1.026812179001409e-23
11	0xbf97e394dbe78bef	-0.02332909195127891
12	0xbfa5777632f9065d	-0.04192704555726998
13	0xbf9d2765b0f30a18	-0.028470601010449043
14	0xbf76d877045fab60	-0.005577530775535106
15	0xbf872452e542782b	-0.011299750920724069
16	0x3fb905b73e873758	0.09774346615378471
17	0x3fc13da246f2f853	0.13469341720878222
18	0x3f958e77c82b6171	0.021051284401296614
19	0xbfc1f578882b7093	-0.1403036751643226
20	0xbf9e04bc98fa058d	-0.02931494411177975
21	0xbfc5d7f2b93ee2ff	-0.1706527142066747
22	0x3f72004751a706c1	0.004394796933810675
23	0xbfc648ea12255c6b	-0.17410016904861733
24	0x3fb009eaf78bf067	0.06265133422488277
25	0xbf73d5465d8ab43b	-0.004842066635927951
26	0x3fc0a4c8df09e7e5	0.13002882853089584
27	0xbfbe99c90def58a1	-0.11953407850464483
28	0xbfc0583787c7fd3f	-0.1276921666139774
29	0x3fb1aa42551b1a3d	0.06900419786243446
30	0xbfc2a42312eff0ad	-0.14563406395598602
31	0xbfc1f6ff00d079d0	-0.14035022296680078
32	0x3fbccf12ec057f71	0.1125346971725756
33	0x3f8e9d733cdd5ce8	0.014948749823516086
34	0x3f98fdd7bb20d8eb	0.024405833050161013
35	0x3f9178fe7463d515	0.017063117841606152
36	0x3fc1cf387ec8f012	0.13913637343091573
37	0x3fb78da24619fcb5	0.09200491153204633
38	0x3fc554fd622d4092	0.16665618222987583
39	0x3fc138a7aa3660a5	0.13454147158768595
40	0x37abb972686adc44	1.5913026319522013e-40
41	0xbfac42b620ee4670	-0.05519646789538235
42	0x3fc1d9f63ceebe51	0.1394641683123035
43	0x3fc56f73a123b92b	0.16746373527662092
44	0xbfb2d667a729c983	-0.07358405905850955
45	0x3fabc5e9b69eab75	0.054244330923515806
46	0x3f6dd559c8630e8b	0.003641772610622434
47	0x3f9e8ded7afe2915	0.0298382860487801
48	0xbfc3d9280bbbe831	-0.15506458828878203
49	0xbfb3f1345eea7427	-0.07789923970490574
50	0x3fb6c1053cfba6b3	0.0888827585110004
51	0x3fb2fc0653243058	0.07415809182947564
52	0x3696470292bd30c3	9.755394564550527e-46
53	0xbfc583aec1a9327f	-0.1680811353311533
54	0xbfa0e311132c2ec0	-0.032982381430057384
55	0x3fb327e3045bfca1	0.07482737404278562
56	0xbf68a19c1a6099cb	-0.0030067490470344397
57	0xbfa6f1c971dfccd8	-0.04481343760553508
58	0xbf83d780e3245973	-0.009688383991073057
59	0xbfb4f15670c00160	-0.08180752041517314
60	0x3fab33502f853b98	0.05312586383899215
61	0x3fbd513046108e90	0.11452008925021517
62	0x3fc4459bba76cd95	0.1583742771596063
63	0xbfbc16b012d6ee81	-0.10972118816328626
64	0x3c7193c4d7eb5fd0	1.524581011996229e-17
65	0xbf7541757eec0fed	-0.005189379661491228
66	0xbf9a55ea4a8236f4	-0.02571836547627178
67	0x3fa9bf68e9f05331	0.0502884660310542
68	0xbf918b6553b8aa09	-0.017133315310426087
69	0xbfbbb373416119ef	-0.10820694299864163
70	0x3f9758c35ee982e7	0.022799542110422257
71	0x3fbfa0386e618ad0	0.12353851981019237
72	0xbfc3d2d2bcdd2e5f	-0.15487131330370382
73	0x3fb04d9e213a565f	0.0636843520281558
74	0xb87627f732b32d4d	-1.0417755533243407e-36
75	0xbfa9e6bbf67fc133	-0.05058848747273927
76	0xbfb02babf966f684	-0.06316637839241862
77	0x39d11c6408109eb1	3.3745302839229436e-30
78	0xbfbd819df1bee068	-0.1152590480040786
79	0xbf622f9bf54b6f4d	-0.0022199674661872782
80	0xbfc3ff2b73dc140b	-0.1562246623726938
81	0xbfc34eed19b240b5	-0.1508461356611456
82	0xbfa5756f556e9cfc	-0.04191158216354471
83	0x3fb22c638d32237d	0.07098982045330433
84	0x391f9b63fcd6e32f	1.5218214261269614e-33
85	0xbf60d5c3c7ec11a2	-0.002055055985126412
86	0x3fc4be58ec178b6d	0.1620589402001217
87	0xbfc0ba1fa3bb0503	-0.13068004126220253
88	0x3fbc8d05f1c1bb6f	0.11152684356941987
89	0x3fbb1b22fa87ab6c	0.10588282219366157
90	0xbfa6ef4d3972e0ff	-0.04479447675970682
91	0xbfc03fcbd20ee174	-0.12694690472359194
92	0x3faaeaaf80d39f30	0.052571758724126005
93	0xbf730b0c6d343aeb	-0.00464920858509175
94	0x3f92923bcd165b07	0.018135961906945244
95	0x3fc2e4c7b590220c	0.14760681500799
96	0xbfbf4fe26251d26d	-0.12231268787747647
97	0x3fb117e8e976b237	0.06677108478351888
98	0x3f1eadd79c5dc144	0.00011703136905594653
99	0x3fb264db223ffd51	0.07185144029789582
100	0xbfa4ca94c19724a9	-0.04060807097591496
101	0x3fa23ebdafcb2229	0.03563492556492449
102	0x3f935e1623b7a171	0.018913598947535918
103	0x3fa59849afff6678	0.04217748902710822
104	0xb6d1ea07b3d95e64	-1.2551556483795004e-44
105	0x37a0bde42b03edff	9.60930059333746e-41
106	0xbfa30ca5aa6c6cc9	-0.037205864957479635
107	0xbfb56bf8227f24df	-0.0836787304134705
108	0x3fbedea40acbbbf0	0.12058472884721971
109	0x3f7d62a47e5078d9	0.007174150993732386
110	0x3fa6609adf105aeb	0.04370578740070193
111	0xb572b1fd7686c9f4	-3.123004251690663e-51
112	0xbfc0a21d0408ef7f	-0.12994730660454576
113	0x3fb4459320544de4	0.07918662585534936
114	0xbf967ef00610b9ff	-0.021968603487204415
115	0x3fa7dc794630e715	0.046603956049194796
116	0x381a7d2c211f1690	1.946101031519565e-38
117	0x3fa0abac4cc19fc5	0.03255976139990894
118	0xb851e18e411058d7	-2.101910485453909e-37
119	0x3fb2948057504fc9	0.07257845050509028
120	0x3ef75f6b35f5bf55	2.228997197789515e-05
121	0x3fc312a18ea59630	0.14900607552697087
122	0x3e7a2353b65089a9	9.73716232787415e-08
123	0xbfb1ad932e94a431	-0.06905479323599263
124	0xbab598840b462668	-6.977967961875408e-26
125	0xbab7e475f52bae5d	-7.720058850482241e-26
126	0xbf9610e12dae6e25	-0.021548765576524204
127	0xbfc0dfdd8c4aa2a7	-0.13183183050320688
128	0xb83c6258aaa89243	-8.341356533490461e-38
129	0x3675143c2933f89b	2.307658637644026e-46
130	0x3617ca809acd8fc4	4.0696199450424794e-48
131	0x39e83dfcf0aba66b	9.561838571905897e-30
132	0x3f6ae9d71dab1eb5	0.003285331867434705
133	0x3f670f501c71df17	0.0028149189634482197
134	0x3f7008109717e4b6	0.0039139411978734075
135	0xbf70c4acacc694ed	-0.004093813430164445
136	0xbf403e61d91b79f4	-0.0004957177900129493
137	0x3f5ae6d57cc32f58	0.0016419491612848693
138	0x34f6417363238689	1.452250027905372e-53
139	0xbf6d9ce19be76d00	-0.003614845888689211
140	0xbf9193a3877c4ba4	-0.017164759773617214
141	0xbf41ef2696ab4f88	-0.0005473078175222005
142	0xbf6300913795b9da	-0.0023196064254797756
143	0x35a89be6a594d3c5	3.288701752704051e-50
144	0xbf62dae485734194	-0.002301641779560446
145	0xbf4ac09dca854957	-0.0008164186920487743
146	0x3f80a282d00b2954	0.008122465108858869
147	0x354f9118b11893bc	6.591451848291024e-52
148	0xb79820439d4ca29f	-6.923831540116704e-41
149	0x3f43f149653dda20	0.0006085976005881268
150	0xbf700b9ff4a775eb	-0.003917336298824274
151	0xbf73ff3deb1bff00	-0.004882089489683272
152	0x3f6861e24e778839	0.0029763622330714304
153	0x3f5793da99801628	0.0014390597116301727
154	0x3f7e53e79901ba84	0.007404236486861952
155	0xbf906c813515c355	-0.01603891264443587
156	0xbf8ea349c09b1584	-0.014959884825098475
157	0x3f299afc21cccf04	0.0001953537729605313
158	0x3a9a195d3d0b8da1	2.1082668083845307e-26
159	0x3f8ac330da3e042c	0.013067609462952566
160	0x3f7ff42771d1ac1d	0.007801202850809677
161	0x384b5a6ea63b1880	1.6076795940050857e-37
162	0x37afc0937ef2741b	1.8224898054851467e-40
163	0x3f56f233c0919fcf	0.0014005189316552596
164	0xbf7a6b9d6f261910	-0.0064502858898605325
165	0x3f60588c00251765	0.001995347441296968
166	0x3f54529badab765b	0.0012403984352923534
167	0xb9f2762f0bf984ef	-1.4563678172446653e-29
168	0x363f88e45fadac38	2.157694107300132e-47
169	0x37afdd8d13e5bc1f	1.8289862092585476e-40
170	0x3f7cadbff74e9de1	0.007001638285977192
171	0xbf560b877cf26575	-0.0013455222249717212
172	0x3f1c830d34be8aa0	0.00010876434424615189
173	0x3f2cec313b326354	0.00022066212622886639
174	0x3f89868fd2e45a33	0.012463687537587287
175	0xb7894364e1912e07	-3.6250997496414717e-41
176	0xb70be725b198eeec	-1.5640126967967584e-43
177	0xbf627af255e09ca1	-0.0022558911432671446
178	0xbf860a9f29c3c29d	-0.010762446844155444
179	0x3f7915d82456c8d0	0.006124347977151071
180	0x35d02a0e3be5a0bc	1.7281326531202252e-49
181	0xba35f3266ea43e8b	-2.770454909235657e-28
182	0xb5b3547bfac4d23c	-5.166458668984042e-50
183	0xbf94f8016d6adda8	-0.020477316191969713
184	0x3f54c3b782ab5084	0.00126736565532773
185	0x3f82be5b2444448b	0.009152137798567736
186	0xb9ab5a653047cd59	-6.74306136449175e-31
187	0x3f8fd7dacba375af	0.015548428859285616
188	0x3f554f5164546f79	0.0013006491511253478
189	0x39f657d3ee488940	1.7625580387264127e-29
190	0x3f74645c1d11b257	0.004978523081359563
191	0x38805872c288085f	1.537123536063756e-36
192	0xbf751630a7fff361	-0.00514811521861422
193	0xbf8c74003b33c9a8	-0.013893129164419829
194	0x3fb0df2724fff007	0.06590504315676081
195	0xbfb3c754eb28e7e0	-0.07726031056600347
196	0x3fb3be346be9ffa7	0.07712104448910272
197	0x3f88304bd6e51334	0.0118108677821823
198	0x3f9fd9737848e6ab	0.031102947441673006
199	0x3fc27e740895714b	0.1444840471184626
200	0xbfb03f67bfde6212	-0.06346748766225854
201	0xbfc3a18568918a47	-0.15336673360714512
202	0x351a29650142baa4	6.8285216537869145e-53
203	0xbfb97eaa0bbb8648	-0.09958899294317647
204	0xbfc2e23859580677	-0.14752868998043642
205	0xbf929fa811997fc7	-0.01818716628474684
206	0xbfbbbc4e78d4aa83	-0.10834207963913838
207	0x3fb5fe34d2e0dc25	0.08591013096234741
208	0xbf938847db51b487	-0.01907455707662511
209	0xbfb05840f5791fc7	-0.06384664528843507
210	0xbfc43699994cd595	-0.15791625962598901
211	0xbfb32afa26472317	-0.0748745292140821
212	0x35121519b07bd333	4.719732686140773e-53
213	0xbfc6137bb6090017	-0.17246958149371558
214	0x3fc469a9de229428	0.15947459551276322
215	0x3fc5c304b9c391d1	0.17001399107461038
216	0x3fa9127dafe6d6bc	0.04896919986951562
217	0x3fbd66e04deeca7c	0.11485101606994336
218	0xbfc24e0c4b83b17b	-0.14300683676936984
219	0x3fc223e3c2440131	0.1417202662050925
220	0xbfc0f1e726d5566f	-0.13238229175719904
221	0x3fbfd8e7aed5a10d	0.12440345781726965
222	0xbf76d000234d549c	-0.005569458521525263
223	0xbfb82dc2db2d4251	-0.09444825983997275
224	0x3fc1870c01f84e7c	0.13693380447567793
225	0xbfa400affbcab8fd	-0.039067744718851195
226	0xbf88c0b55eb92428	-0.012086312249396228
227	0xbfb526cf743df48b	-0.08262344921054614
228	0xbfc64ca8816d2003	-0.1742144233669479
229	0x3fa6916a822f4194	0.0440781864086858
230	0x3fb2aa174ada0363	0.07290788247520434
231	0x3f9b9bde4523833b	0.026961777658360147
232	0x3a49e5e93bf57c59	6.537597061403382e-28
233	0x34f57b8ae6e1277c	1.4018042892473059e-53
234	0xbfa0fab8255951bf	-0.03316283660811647
235	0xbfc4d5603dc566f9	-0.16276171699683298
236	0x3fc4249666b637f3	0.15736656203483754
237	0xbfc31e7afbcee13f	-0.1493676881343706
238	0x3fa40129f6c81be1	0.03907138001891731
239	0x3a510739d93115cc	8.597057362549445e-28
240	0xbfc39de0becffe19	-0.15325555150046524
241	0x3fb814531808cdb4	0.09406012856270857
242	0xbfc2a302e54a3b56	-0.14559971042441572
243	0xbfb226a5b554cd97	-0.0709022109702374
244	0xb74819470a36804b	-2.1612497715410216e-42
245	0xbf92784f9b83542d	-0.01803707491565747
246	0x367d690cbd1f3f94	3.2197405601798367e-46
247	0xbfb44dbf5d866518	-0.0793113330204459
248	0xbf8b2b2cffada859	-0.013265945007976553
249	0x3fb0859e69588931	0.06453886100692753
250	0xbf7887ff95c0acfd	-0.005989073160928668
251	0x3fbf159c9b6fa44b	0.12142351908518483
252	0xbfb69b4d400a1568	-0.0883072167726674
253	0xbfa34fb7c8ec7c3f	-0.037717574383571144
254	0xbfbb833e3829ce5f	-0.10747135993170208
255	0x3fb8d77b30a66b28	0.09703798234697258

arr_3 f8 [64]
0	0x3fb0ba5661305799	0.06534328339361507
1	0xbf9d405663216054	-0.02856574039500999
2	0x3fb89d180982d657	0.0961470626087587
3	0xbfc01c93737b371f	-0.12587206972823936
4	0x3fc3e7cdf8e3f8bf	0.1555116143499102
5	0x3fc29db3517e7c91	0.14543763617709662
6	0x3fc3f8355c4f93fc	0.15601222045293628
7	0x3fb40659465fc885	0.07822187393301945
8	0xbfb643660b1245a7	-0.08696592111871003
9	0xbfc430e356c6de60	-0.1577419446673387
10	0xbfbb752583b8ee15	-0.10725626436117637
11	0x3fb43cac52db96a6	0.0790507986344787
12	0x3fa18a0c6285a07f	0.03425635054264919
13	0xbfbb377ae79b342b	-0.1063153090901358
14	0x3fbe9f229211132c	0.11961570802766336
15	0xbf7dc9580430e62f	-0.007272094549131177
16	0x3f9b8bcb0d1c04f0	0.026900456118714666
17	0x3f622700f1995dad	0.0022158640320346285
18	0x3fc0bbdc9fe664e4	0.1307330876123053
19	0x3fa4471561afa8e7	0.039604824232655926
20	0xbfb6ded63df3959f	-0.08933772099006497
21	0x3fc23c2c16657330	0.14246131032532494
22	0xbfc12ffbcb3f3ea7	-0.13427684234783507
23	0xbfbc8d0fb33d5580	-0.11152742505995228
24	0xbfbd395ef5ee1da3	-0.11415666107324411
25	0x3f737d9024aa8ca1	0.004758418139917315
26	0xbfba81e77df327e8	-0.10354468178698506
27	0xbf59454747198fe5	-0.00154239617077056
28	0xbfb6d2e804f1ccad	-0.08915567513195084
29	0x3fb051389517049b	0.06373933448687057
30	0xbfa16c6c78a83ae7	-0.03403033230653368
31	0xbfbafe3ef1c4b837	-0.10544198420095162
32	0x3fbfc6960a73493b	0.1241239333642498
33	0x3fb8c8bb80e74918	0.09681293389374834
34	0x3f69055f67c21180	0.0030543197045195813
35	0x3fa7df2154908a41	0.046624223301723784
36	0xbfbc2a654cf962bb	-0.11002190713169117
37	0x3fb902392e0ea9e0	0.09769017576642325
38	0x3fc483e944bc496b	0.16027561050629954
39	0xbfb4211e49c588e8	-0.0786303453546996
40	0xbfc3084480a1a209	-0.14868980675534285
41	0xbfa1621c0475734d	-0.0339516406481609
42	0xbf97991d647e1690	-0.02304502416475046
43	0xbfae0b4077144f3d	-0.05867959455113556
44	0xbfae1fc86545aaf8	-0.05883623348457506
45	0x3fc5088402f1fc3f	0.16432237762271204
46	0x3fbaf37ea70fe094	0.10527793482458697
47	0x3fc1bc67cb9da733	0.1385621780603344
48	0xbfc48929a435a0db	-0.16043587224999709
49	0xbf6b02e22cafc0bd	-0.003297273394757465
50	0x3f2ee51a3d6e2455	0.0002357096224978895
51	0xbf6f16ad5aa2a423	-0.0037949930020500107
52	0xbf9da88fe0f20e88	-0.0289633256002291
53	0xbfb3b7fd18a090e4	-0.07702619410753503
54	0x3fb05792f01b9e10	0.06383627283104709
55	0xbfaa7ad68c888ae8	-0.05171843019004091
56	0xbfbc07c7013d2a5d	-0.10949367313620813
57	0x3fb6325be184dd55	0.08670591598353401
58	0x3fb477ae39ce083c	0.07995118056536027
59	0xbfb7895934929bf8	-0.09193952115548132
60	0xbfc1764ce863a5b7	-0.13642274233943194
61	0xbfc03088d67c72a1	-0.12648115609126356
62	0x3fc4e284b055b92b	0.16316279039478707
63	0x3fb915a796fcd858	0.09798667370054781

arr_4 f8 [64, 32]
0	0x3f7504e9a885bcfd	0.0051316382672290635
1	0xbf4d45b6468538fb	-0.0008933200852341555
2	0xbf74adbb177c6d0c	-0.005048495127790941
3	0xbd5d22c48b753c6d	-4.140447847333635e-13
4	0x3f70b13125e382db	0.004075233444581906
5	0xbf71ca553d645bf6	-0.004343350379961022
6	0xbf61a0f172774db7	-0.002151938988143444
7	0x3f6a295e16253d29	0.0031935536982598167
8	0x3f43203a68f61757	0.0005836758809187698
9	0x3f670f71d641ae44	0.002814981782696598
10	0x3b3bbf6f4e2d677d	2.295243569548786e-23
11	0xb4f7f43595e61474	-1.5630676900337084e-53
12	0xbef1d70d08db0f80	-1.7013590471362094e-05
13	0xb8300ccd3fbf85f7	-4.716673096132542e-38
14	0xbf75f79f6266da49	-0.005363104434243989
15	0xbf6f737408d03d70	-0.0038392320916568676
16	0x3d7ba841fd1e2b88	1.5721330389788307e-12
17	0xbf0c3953503c664b	-5.383286955247239e-05
18	0x3c316511276c5689	9.429736179844779e-19
19	0xb6e82b9c3816316b	-3.3869877790162423e-44
20	0xb5b13c563ca500d1	-4.606694631287994e-50
21	0x3f753da397b3c2df	0.005185736688176872
22	0xbf301aac802408fc	-0.0002457305091782128
23	0x3f5622bcffe1e185	0.0013510556887280378
24	0xba2c058216c71690	-1.768406293985999e-28
25	0xbf66a2638283c553	-0.0027629798461183213
26	0xbc173ad86b5a7851	-3.1482337349584183e-19
27	0x3f6425d9b822068e	0.0024594547585941656
28	0xbf72dd25c7b5cd29	-0.004605434015832168
29	0x3ee776a0b922dbcf	1.1188216181385727e-05
30	0xb523ecb7a295b690	-1.0401166733810333e-52
31	0x3f71a5217bdb31a9	0.004307871624132189
32	0x3f9de0edbe5946c0	0.02917834734245761
33	0xbf69155c5a7a54dd	-0.0030619434144890504
34	0x3f6945d0831131ac	0.003085047960246187
35	0xbf7bdb78be926423	-0.0068011013583140515
36	0x36e1614fa96d9639	2.4354737978359733e-44
37	0x3f9b298cf0a74158	0.026525690258325824
38	0xbed009f839c2ee9a	-3.823982208380319e-06
39	0x37c0fa55648c8db6	3.897926752504152e-40
40	0xbf60204e49f14181	-0.0019685296133859502
41	0x3f9ce0610e80fceb	0.028199688444371523
42	0x362523d72aabfc33	7.23228814566855e-48
43	0xba411930a57614a9	-4.316242606549351e-28
44	0xb58348d00c213d20	-6.442841174333547e-51
45	0x34d6cf0001ff574b	3.7208254870628475e-54
46	0x3fa6276e3f2c1bfd	0.04326958199640527
47	0xbf93ee35c33517ce	-0.01946338657332785
48	0xb81adbdc0395027f	-1.973274881985152e-38
49	0x34f20fe809419408	1.1786092591543517e-53
50	0x3738f5603a720127	1.119177828147538e-42
51	0x3996f553a55cc944	2.829829891332118e-31
52	0xbc3ca1262636f7b5	-1.5520076739483797e-18
53	0x3f58726b862ea5d4	0.0014921236076851268
54	0x3f9b2b7c639edb9c	0.026533073025088436
55	0xb9f6b710c91c0760	-1.791905425169594e-29
56	0xb593a27c300d981d	-1.3119738294030123e-50
57	0xb510a33813f97567	-4.342609551309184e-53
58	0x3c70dfd0ce58c782	1.4636104721723098e-17
59	0x3d726dba67bc5091	1.0475460821845373e-12
60	0xbf9fb2038d18fc70	-0.030952506529726198
61	0xbcc2caab3832ca62	-5.215737592549728e-16
62	0x3996dc088ac5f06c	2.817651574510669e-31
63	0x3f9e025b2c0511a9	0.029305862962489524
64	0xbf9a6122392d3638	-0.02576116060236286
65	0xbf901da4581e2e5d	-0.015738075140275466
66	0xbface86b834c1e2d	-0.056460723664767044
67	0x3f680ee883ac771b	0.00293679631194167
68	0x3fa761aef7a9aafc	0.04566714070536723
69	0x3fb9a30d1fb0a44f	0.10014421485597434
70	0xbf8ea6c4e96e1ab3	-0.014966524480553777
71	0x3f916ec3604398e1	0.017024090528956818
72	0x3f9cf4283aa806a3	0.02827513559350926
73	0x3f8bec0d5edf1217	0.013633827646011771
74	0xb560fd70af0936f7	-1.4190710690028532e-51
75	0xbb1f154ccc340143	-6.427855742905106e-24
76	0x3f82bf77e5c41091	0.009154259395025373
77	0x3ce1c92c1753954f	1.9746236897917678e-15
78	0x3fba4488be663831	0.10260824821872984
79	0x3fb24ba18e72122e	0.07146653869319472
80	0x3fa53f1517c90207	0.04149690547319911
81	0x3fbd7357ac8637a5	0.11504123651522365
82	0x3c76d900c8d7db3d	1.981719321731112e-17
83	0xb519c45de93dbc2c	-6.725515939858457e-53
84	0x3d2344fc0bf4fed7	3.422945647375516e-14
85	0xbfa5335989467053	-0.04140739250871719
86	0x3fa9c302535476a3	0.050315926239119756
87	0x3fbdd0c4cb328391	0.11646680794593879
88	0x3e31f84d3f4b9ef1	4.183950065508785e-09
89	0x3fb6bf1f8621fc6c	0.0888538076851419
90	0xb66396beb8498959	-1.0722586771820577e-46
91	0x3fb610e1172f6280	0.08619505706827546
92	0x3fafcdcfba5b6aad	0.062117091654461866
93	0x3f6af095881157d0	0.003288547567119139
94	0x3a150a82e9baaeb9	6.639387878690708e-29
95	0x3faebf4006d445a8	0.060052872499123666
96	0x3fb8c41427f83bc0	0.09674192405530757
97	0x3fb5e929a95a5108	0.08558903107251947
98	0xbfceec77a55f9588	-0.24159141135093543
99	0xbf9082198bcfea62	-0.016121291311700488
100	0xb9d2648f6187f03d	-3.6273427427134985e-30
101	0x3f9adc2add103d5b	0.026230497114793177
102	0xbfaee63db9b1e00b	-0.06035035030157595
103	0x3f58946dfed17efb	0.0015002321408913988
104	0xbf5246df30fe0867	-0.0011155299762042549
105	0xbfbdb8b25f93c590	-0.11609949906757877
106	0xb7377f46160dbc05	-1.0536492377520447e-42
107	0x3f7c7116eb37ff10	0.006943788077023574
108	0xbfa59574b7164e77	-0.04215588316870094
109	0xbd27d8312494da67	-4.235634041032349e-14
110	0xbfc80813339c74bb	-0.18774642963481888
111	0x3fbd9c547ea71c38	0.1156666573725581
112	0x3f8a58af005083e5	0.012864463040445482
113	0x3f8c559df72b9b55	0.013835176568546418
114	0x39f5db27288ddc88	1.7241396214425274e-29
115	0x38e1d80bbc43b820	1.0739424161816928e-34
116	0x3bcc87e72af151a4	1.2083293913486177e-20
117	0xbfb44fdb72521f0c	-0.07934352437052555
118	0xbf656d3680215b61	-0.0026155533278528352
119	0xbfab962641e27dd3	-0.05387992433793056
120	0xbf2989f5a68441e3	-0.0001948463789252084
121	0xbf9c328c2f34aaa8	-0.027536573773583456
122	0x3c4d4475a510c01d	3.1731800473882955e-18
123	0xbfbf6f474cd5597b	-0.12279172540488574
124	0xbfc454348ccabaad	-0.15881974100689913
125	0x3f27aae31b13c204	0.00018056890761598843
126	0xb5122fcc89c7649b	-4.74695404202065e-53
127	0x3f9924707f2c74ed	0.02455306793409744
128	0xbfb039f71c297380	-0.06338447988077966
129	0xbfc036ad350ec521	-0.12666859713275705
130	0xbfcdacf64a09338d	-0.23184088339840195
131	0x3f9974d3d6d338f8	0.02485972403229028
132	0x3fc64038ae010139	0.1738348817471065
133	0xbfc4d231dff234c0	-0.1626646369444753
134	0x3fc99375fc5fe8a3	0.19981264899235382
135	0x3fb9b95453fef70d	0.10048415232355641
136	0xbfb21823a6113245	-0.07068083576559399
137	0x3fc318edbcd07745	0.1491982624001428
138	0xbfb2267344ee26a8	-0.07089920456760501
139	0xbfcc626b0cc8a394	-0.22175348400312755
140	0x3fb9d8a2a24e4a6c	0.10096184217972287
141	0xbf83c976ae92b246	-0.009661605074449697
142	0x3fbdeb5aaee3b135	0.11687247056733414
143	0xbf8ec8a26463b934	-0.015031117142339491
144	0xbfcb496bbfd253a8	-0.213178127920995
145	0xbf9cad6575537c4d	-0.028005204473512447
146	0xbf8571f940639e88	-0.010471293714046995
147	0x3947c722a5926fb3	9.158903300609458e-33
148	0xbf8254e912ae0c35	-0.008951016314091212
149	0xbfc56db8d7f77904	-0.16741095109222937
150	0x3f9b4d1453702f53	0.026661222069420742
151	0xbfc541e3cee5d309	-0.16607329943112628
152	0xbf879d628e1908d1	-0.011530656777840072
153	0xbfc6912e2d6951f8	-0.17630555360177858
154	0xbfc37c1fa88f3d42	-0.1522254536671231
155	0xbfc9ff5d102efb43	-0.20310557642184265
156	0x3fa3f80443842383	0.039001591912955845
157	0xbf9ef0b7de1af434	-0.03021514218447781
158	0x3bd63da80845a561	1.8838728675797535e-20
159	0x3fcb296f4628f997	0.21220198560508827
160	0x3fb8710d7e6376cc	0.09547504745156771
161	0x3fa5fbd5a8ee8eef	0.04293697058827017
162	0x3fbe27e2e98b39c5	0.11779611779932171
163	0x3fbcdd2f263aba80	0.11275000270209468
164	0xbfb8fc10a2acbaf8	-0.09759620639372801
165	0xbfb827b1681d0b4d	-0.09435566703636518
166	0x3f843b9f6bb94cc5	0.009879346346826865
167	0xbfc07d20bd6b6c69	-0.1288186001682761
168	0x3fb41d8a85556cba	0.07857576136796043
169	0x3fc342e8dba512d3	0.1504794189915147
170	0xbfb79ddbcb05b823	-0.09225248056984063
171	0xbfc80bf7502d6b71	-0.18786517538941497
172	0xbfb1fa973bc4a962	-0.07022996148285679
173	0xbf8cfc47115822f4	-0.014153056351476213
174	0x3fcfc099021ab483	0.24806511500120018
175	0x3fcb3c4955a74b2c	0.212777296851152
176	0xbfbc449bc314ce30	-0.11042188179708812
177	0x3f7931e823ec64d5	0.0061511104566076185
178	0xbf8a244630fe3708	-0.012764500017307792
179	0xbd621d983446a295	-5.148764245696225e-13
180	0xbf7bd34ccbeea629	-0.006793308245428822
181	0x3faf68269cb70f83	0.06134148276353726
182	0x3fcd6167290d063c	0.22953500275075267
183	0x3f9de9b611df3b91	0.029211850014515376
184	0xbf8353c1954be2da	-0.009437095993676637
185	0xbfc1b452fd850161	-0.13831555727848424
186	0x3faffb723333ac7c	0.06246525645277587
187	0xbfbd0955516aee69	-0.11342366445290399
188	0x3fca6335fd754fdb	0.20615267635241605
189	0xbfbeeb5da6aff920	-0.1207788974715851
190	0xb9d44e091c5554cd	-4.004420956816421e-30
191	0x3fbc0f8d41a4f60b	0.10961230137487392
192	0xbfcc3040cbd79bfb	-0.2202225680659636
193	0xbfca440deccf69ad	-0.20520185530660964
194	0xbfcdc81a2b164dd9	-0.23266913513053458
195	0xbfcc8fad34049bf9	-0.22313466110173844
196	0xbfcd57bbfa973895	-0.22923993812441226
197	0xbf97520279064d73	-0.02277377952266364
198	0xbf931620bb52b1bc	-0.018639098580637045
199	0xbf97be3d9c7cb1bd	-0.023186648060048876
200	0x3fcae4861a4d16d7	0.21009899410471775
201	0xbf90ef4a3cf7e983	-0.016537818881241072
202	0xbfa3e00083e62e1b	-0.03881837473008095
203	0xbfca3443b0a42af8	-0.20471998333990604
204	0xbfc6046827603e85	-0.1720094864144707
205	0xbfa3ad4c99dc607b	-0.038431543142167755
206	0xbfc34bb44ef14c39	-0.1507478127919926
207	0x3fcca7305e2a7f98	0.2238522014422386
208	0x3fa7ae5e133bef43	0.046252193305888166
209	0x3fc5caff0c03949b	0.17025745474453377
210	0xbf6eaa5a5d36162d	-0.0037433400081592545
211	0x3c73fb9e91238729	1.7332392716910637e-17
212	0xbcac5955eed16ba1	-1.9671047764107706e-16
213	0x3fc8edd29f0231cd	0.19475777401056718
214	0xbfad821b5d862bd8	-0.057633261839405925
215	0xbf5b6f590ca60e89	-0.0016744966147549686
216	0x3f59f739ef991910	0.001584822252327426
217	0x3fc878d7da74dd65	0.19118784109898992
218	0xbfaf7b894f50de8c	-0.0614893826790964
219	0xbfc5bc75a97d3265	-0.16981383109886675
220	0xbfc03cfd9317294d	-0.1268612831320958
221	0x3fc0b372c8bb936f	0.13047632981683985
222	0x37b62e52a3bed884	2.5462480112243294e-40
223	0x3fb7c552b5911fcd	0.0928546613005203
224	0xbfc9b8d03360db05	-0.20095255383213143
225	0x3fc74f9e2757d8e0	0.1821172420602073
226	0xbf9e5139841c13d8	-0.029606722534499003
227	0x3fbee17de0c6df81	0.1206282304545976
228	0x3fbed0f1abc47b4d	0.12037573283712995
229	0x3fcff0d7e6482cf1	0.24953745598063606
230	0x3fc571d0078d9175	0.16753578537749161
231	0xbfab35d16428a817	-0.05314497325555594
232	0x3fb2c3e0cbd85187	0.07330136276897835
233	0x3fcc34b8a3dab1fd	0.22035892487237155
234	0xbfb58a0091bb50ad	-0.08413699682143046
235	0xbfce156c8873c1ff	-0.23502880728439376
236	0x3f65d469016e8fc8	0.0026647616281980403
237	0xbf9f8784c7009a8d	-0.030790400167598753
238	0xbfc32d4e8f9640c1	-0.14982015620308256
239	0xbfca84ff07ef5521	-0.2071837223763078
240	0xbfad3dc4979eb688	-0.057111876972482156
241	0xbfc3385493bf2fb0	-0.15015656675529732
242	0xbfa536890457db75	-0.041431695728468755
243	0xbc70d0821bb78dc3	-1.4584241188539815e-17
244	0xbf733cb6959b03bd	-0.004696572513865624
245	0x3fbe7fb026c97add	0.11913586565922736
246	0xbf9c9bdbf8c312bd	-0.027938305910327744
247	0x3fc948a1ecff78ab	0.19752906868138118
248	0xbf876387d7cb726b	-0.01142030837348181
249	0xbf7bd92e2f595317	-0.006798916254031415
250	0xbf929defe9a5554b	-0.01818060744820586
251	0x3fa552c8427a1677	0.04164720355497036
252	0x3fa13cdb01818f7f	0.033667415555810536
253	0xbfcb24969c2c44a0	-0.21205408692961658
254	0xbc9c9354ce6f7ead	-9.914122575948275e-17
255	0x3fc3804b1b7394bf	0.15235270347981175

arr_5 f8 [32]
0	0x3fb92be1a713a623	0.09832582787535009
1	0x3fc20e2178059f92	0.14105623588988841
2	0xbfcd0ab0410b2983	-0.22688868690449845
3	0x3fca73b44c6efb8b	0.20665601474862813
4	0xbfcef86db81d4d89	-0.2419564389225395
5	0x3fca2c41717147e1	0.2044755748671028
6	0xbfce1b7606647740	-0.23521304428225598
7	0x3fd02b938bc37490	0.2526596894147781
8	0x3fc82867a87e757f	0.18873306014294752
9	0x3fc81b340a8201d4	0.18833017838552613
10	0xbfc70e4e8f58ebb1	-0.1801241111696448
11	0xbfb744a9dd109a18	-0.09089147231188865
12	0xbfc2b95e53c9ab98	-0.14628199664306574
13	0x3fa8070150d2f9dd	0.046928444973207674
14	0x3fb811da9a944593	0.09402242921739505
15	0x3f9b378128dc9b18	0.026578920477869777
16	0x3fc2bf9f99c21446	0.14647288329811853
17	0xbfb1b3589e134937	-0.06914285525570994
18	0x3fc3478ddb46ffb4	0.15062115866566972
19	0xbf9765b70d49df00	-0.022848949609822533
20	0xbfc13c1d49bdfa39	-0.13464704609573788
21	0xbfb170237b051d1d	-0.06811734918038721
22	0xbfc6a642e574015f	-0.17694889262930766
23	0xbfbefcf5c99cc6f5	-0.12104736492326736
24	0x3fb6840778bcde78	0.08795210550021604
25	0x3fb96f30c7aff129	0.09935288310220315
26	0xbfbd22bbded618e7	-0.11381124677982123
27	0x3fcefb7da034c75b	0.24204988787237877
28	0xbfb14533ecb9af79	-0.06746220139910787
29	0xbfcb94c490dac1b7	-0.21547753403639344
30	0xbf652c9692a19f80	-0.002584737861116737
31	0x3fcafaa24e3a691f	0.21077374286398595
