weights/global_round_45.npz (npz, 129966 bytes, 8 tensors)

arr_0 f8 [43, 128]
-12.20485212886334 -44.566114458134045 -26.793915077282403 17.344116689555356 18.723948811218207 27.897773538345035 -3.034854445590519 -13.860917640058279
-8.474888894268474 -39.771333406588354 33.14639288750233 -36.04580660494658 4.825614799423728 -19.314556584074737 -8.40207868955108 27.544026337152093
15.05893230398155 -34.36552221318567 -1.3453586605364836 18.937094933642044 5.35271388715325 6.0810773374466365 2.1300955881233086 37.51585577351553
-2.844234381477469 18.28125570210359 -2.9665257933575804 -23.207934284354415 -16.034653287706785 18.577265399399693 12.597205078681517 22.40353396678696
24.950724104553665 13.972719616820442 -2.7864579417155038 -27.605727520537872 -10.214718470638838 22.054819966384652 -23.749576798093926 -2.0454364054923095
28.412258331896666 2.5866587900943743 -31.162419971179823 -5.425408410159046 -3.193352670047828 -2.5696314294438762 -10.12513837759614 -30.567418920660263
-11.528795538002518 -5.295380554360191 24.57368566201351 -10.49085051818556 -24.133012195243683 1.1680669964526609 -13.475097179307726 -32.594775108657025
-15.262479157413964 5.627103101562311 20.37490553128452 -20.89624667403173 16.455887114551224 30.98513028427276 3.5731699168095052 -7.580622118086426
1.241409754520215 -13.047512581321833 6.7625751205440245 16.041505544344894 -9.487474993047083 -47.78852684133323 5.89029130299209 -4.984489532540216
-9.51906826591837 -20.20138774194596 3.6539831540040537 -17.610477313035133 23.098170139203486 2.6389497504614945 23.939516400887545 -4.779375020167379
-42.699265958140884 1.2617880229172707 -9.911032262078411 16.315254483584386 28.14730179627165 -32.46474662695893 -20.696907095735764 14.90841824958584
-14.970510889558854 9.803136529697063 -10.138795429200705 -7.843201175888273 -2.0010942274786236 -19.188051419389073 -39.253526522183336 1.3871229650659025
-2.2934948744620187 -9.470366884636894 -0.7253188533795023 -7.747805887952984 -14.578221253137027 -3.865849413328449 17.491635626275517 3.2820986164304595
21.56630835443054 12.765880489820768 -12.60727468887864 -7.851198029132394 3.063492115714738 15.474694370436378 -25.28991357338669 23.583537539695666
12.817740439887976 11.349140488956369 -11.045965922418414 -23.74062143580264 -13.38622042898157 6.475605903675597 21.360637939080554 -24.077269649451104
9.567129912123916 11.804533756083497 5.176925261333823 -21.159484158110804 0.799742315702547 2.0276985433535573 36.288380936722575 -15.863278474147162
-42.52409287877069 20.739426816268754 -13.952954362595841 1.5679378665658041 0.4428905470722043 3.589938071608279 20.928475542850173 -3.2381133538165927
-3.6284115886255393 26.588345352277095 -15.185578879714189 -22.576402556759387 -3.382301799518487 -5.7263787338484375 -0.8401399207766445 1.82487269457891
21.47906922451706 11.278867422102342 11.952079363369755 -19.6538509431444 15.66538904117552 66.88782972224749 -8.452369089543055 -27.084584956664962
-2.062896893568178 -11.614663071356297 -18.478097976648222 -34.05350659159779 39.17139935430151 10.839436169345284 -36.06688393250737 0.26293665209532957
-24.839640199590374 29.896007030947647 -12.492939122058212 23.135641378816064 28.493251248225665 -19.18708597802479 14.875585745547038 -14.73028013545042
-11.228108836056517 -18.105671963092934 0.6775419998364409 29.207047989208014 -9.013814550620342 21.335008048770728 6.704039798395495 10.75836351814223
25.018543158279915 0.8589236937039773 38.78204631475607 -15.84041460693316 -18.92129840499851 -20.11018826042566 -19.724225836345806 -17.9965847203603
-4.4989366678532985 -6.79261018427473 5.0992723496259345 4.77451376141387 30.629679600046366 33.49748851352501 -20.83131527925855 10.34832189288073
-10.879239465382563 -14.033208665935183 2.6388598189622234 6.713822098621298 10.409288674361223 17.152783200535183 0.968780068437423 -15.058324369717809
7.517632582277717 46.76514803934435 -9.362562745018295 11.118739478081736 -2.2695533002578436 1.771657792233438 -9.016396892741852 30.938640766791387
-14.43635957417391 -22.34952011122056 -38.694340479523994 16.050479380098526 1.8521788211945827 -32.01914982730796 11.680528351631365 0.5630707480136383
8.796862929284288 -12.021743143580917 17.791465107956167 0.38350186953381327 -22.54450429632651 -15.17360810839988 -36.36788474933577 25.477008820914605
-22.26251940363685 21.27384297380035 -6.350543916711905 1.3463586645293972 -31.79480527419047 21.264890800055465 4.917685822593134 15.523249647343974
-14.29366859065252 -17.01879560076817 -6.017417330829914 -0.3404140010098625 -3.446733245687767 -7.127316067465372 -5.35047528991821 -10.72310785795515
-13.985155213988728 -2.387773424752505 -9.374250056739587 -5.141992646471229 -14.422711265525958 -9.116289944560021 5.61882691183102 4.33694488294428
8.521821528376005 -13.968976856653278 5.945244612828041 -26.189838975453643 -22.472531949866145 -10.548300355242336 -10.13222121072512 -3.7012687937905877
00000000: d2f7 d360 e268 28c0 3fbd 4570 7648 46c0
00000010: afba bc04 3ecb 3ac0 e6a5 0708 1858 3140
00000020: 0829 94b5 54b9 3240 f867 927c d4e5 3b40
00000030: b173 7fc4 6147 08c0 1a33 6932 cab8 2bc0
00000040: c03b 1ca3 24f3 20c0 fccd 950d bbe2 43c0
00000050: 4218 8c00 bd92 4040 da17 a7fd dc05 42c0
00000060: 5b79 4af7 6d4d 1340 ac57 c1c7 8650 33c0
00000070: b314 0c42 ddcd 20c0 1d3b 5e4f 458b 3b40
00000080: b08e fc5f 2c1e 2e40 08cc 8f6e c92e 41c0
00000090: 2150 86cd 9686 f5bf 683d 1d74 e5ef 3240
000000a0: 48ac 48d4 2d69 1540 c81e 03f0 0553 1840
000000b0: 7bbf 428e 6f0a 0140 db59 de8f 07c2 4240
000000c0: 0dd6 94f4 fdc0 06c0 3359 aa5f 0048 3240
000000d0: aab0 09e0 71bb 07c0 f604 672e 3b35 37c0
000000e0: 4766 b109 df08 30c0 b888 4baa c793 3240
000000f0: 6be2 33dd c431 2940 d62c 8600 4e67 3640
00000100: ae93 a8a7 62f3 3840 c8d7 3c4e 08f2 2b40
00000110: cfc7 1a76 aa4a 06c0 51ff 72f5 109b 3bc0
00000120: 5d7b 5294 ef6d 24c0 37ca 6aae 080e 3640
00000130: 60a7 d943 e4bf 37c0 1e19 1dc3 0d5d 00c0
00000140: ecff 14c3 8969 3c40 1dee ea29 7ab1 0440
00000150: 426f f05a 9429 3fc0 4b4e 2443 9eb3 15c0
00000160: fc98 137c fc8b 09c0 a6e1 41ec 9a8e 04c0
00000170: f67f 2e23 1240 24c0 115e cb5d 4291 3ec0
00000180: abfb eb49 be0e 27c0 ce67 733d 782e 15c0
00000190: 3a88 4410 dd92 3840 cca9 55c2 50fb 24c0
000001a0: 718a 5416 0d22 38c0 6ad1 d404 67b0 f23f
000001b0: d918 ffef 3ff3 2ac0 1114 3c97 214c 40c0
000001c0: 00f3 09ab 6386 2ec0 9fb8 c150 2782 1640
000001d0: def4 13cf f95f 3440 741d 0a6c 70e5 34c0
000001e0: 52aa 9704 b574 3040 2d40 917f 31fc 3e40
000001f0: a1fb fd1b da95 0c40 d20f c29a 8e52 1ec0
00000200: 6b98 8979 d0dc f33f 04da ad91 5318 2ac0
00000210: 5ceb 0d7e e00c 1b40 6290 7b1b a00a 3040
00000220: 9682 8152 96f9 22c0 afc5 9172 eee4 47c0
00000230: 980e f985 a88f 1740 e80e 2606 1ef0 13c0
00000240: 8c05 d550 c309 23c0 2379 a525 8e33 34c0
00000250: a3a8 1485 5b3b 0d40 946f be3d 489c 31c0
00000260: 9f52 a1ad 2119 3740 e527 d0af 911c 0540
00000270: 1dde 9725 84f0 3740 c0c0 3b7c 141e 13c0
00000280: eab5 028c 8159 45c0 77a0 4ea3 4830 f43f
00000290: 9274 16d2 72d2 23c0 8de9 9084 b450 3040
000002a0: f8a0 0d92 b525 3c40 82db 45d1 7c3b 40c0
000002b0: 1389 e080 68b2 34c0 1a1f 6232 1cd1 2d40
000002c0: 6122 a6cd e6f0 2dc0 2c8b 12b6 349b 2340
000002d0: ac80 ca31 1047 24c0 368e 0921 705f 1fc0
000002e0: 6ee1 b9b0 3d02 00c0 113e 4823 2430 33c0
000002f0: 18b9 9c8e 73a0 43c0 50d1 a7d9 a731 f63f
00000300: 2ddd 3ad7 1359 02c0 1346 a5ed d3f0 22c0
00000310: 64fd 4de2 cf35 e7bf a60e a2d3 c0fd 1ec0
00000320: be26 b89d 0c28 2dc0 430d 0c75 42ed 0ec0
00000330: de66 18d5 db7d 3140 7f86 5eeb bc41 0a40
00000340: 12bb 9595 f990 3540 6dd9 d07c 2188 2940
00000350: 3cd8 40b5 ec36 29c0 542c c674 a067 1fc0
00000360: a163 8427 0882 0840 363d f923 0bf3 2e40
00000370: c25c a4c6 374a 39c0 2ffb 58b7 6295 3740
00000380: fbde fbdf aea2 2940 da8d cb8a c2b2 2640
00000390: fe08 6bd8 8817 26c0 297d cd5d 99bd 37c0
000003a0: be0b 1faf bec5 2ac0 ed48 e83b 05e7 1940
000003b0: 3e0c 9ac4 525c 3540 aa5d 99f1 c713 38c0
000003c0: a74f 12da 5e22 2340 36d0 35d9 eb9b 2740
000003d0: 620f 4de5 2bb5 1440 e550 2bf4 d328 35c0
000003e0: 906e 6532 7d97 e93f 8dcd 8e03 ba38 0040
000003f0: b401 a2aa e924 4240 0e9b dba2 ffb9 2fc0
00000400: 7c31 b779 1543 45c0 e2a8 6913 4bbd 3440
00000410: fddb 5ba2 e9e7 2bc0 56f6 3004 4616 f93f
00000420: 9a7d d897 5158 dc3f 6dc8 a173 31b8 0c40
00000430: 66ad bb92 b0ed 3440 ad10 5bf9 a7e7 09c0
00000440: c097 aca7 fc06 0dc0 a2c8 0ecd 9d96 3a40
00000450: ca66 e631 045f 2ec0 c39c 321e 8f93 36c0
00000460: 2012 f13e f40e 0bc0 438e a9d3 cfe7 16c0
00000470: 4c97 791d 6de2 eabf ec46 e9b5 ad32 fd3f
00000480: 23d2 db47 a47a 3540 e3b2 f3b5 c78e 2640
00000490: 3cbd 41f2 76e7 2740 9243 81c6 62a7 33c0
000004a0: 6aee 55df ad54 2f40 105e c133 d2b8 5040
000004b0: 109e daeb 9ce7 20c0 0e9c 165c a715 3bc0
000004c0: 9c29 2716 d080 00c0 8411 3b1e b53a 27c0
000004d0: e6fc 05a1 647a 32c0 3784 d24d d906 41c0
000004e0: e8a3 fe69 f095 4340 c4d5 dc93 caad 2540
000004f0: 9f5f 17a7 8f08 42c0 b0d3 6a40 f4d3 d03f
00000500: c7a5 fda8 f2d6 38c0 fde7 7eb7 60e5 3d40
00000510: 6551 4084 62fc 28c0 d5ff b564 b922 3740
00000520: 25d7 bbb6 457e 3c40 1a28 dddd e42f 33c0
00000530: c6ef 5bc6 4cc0 2d40 235b 2547 e775 2dc0
00000540: 2e95 6dae ca74 26c0 9996 5951 0d1b 32c0
00000550: b0d8 5e8f 6cae e53f da59 d618 0135 3d40
00000560: 223f 66b3 1207 22c0 f75d 6516 c355 3540
00000570: acc3 14cf efd0 1a40 ffcc 1939 4884 2540
00000580: 7560 923e bf04 3940 b4fa c68a 4d7c eb3f
00000590: d6ea f817 1a64 4340 9db7 c7d2 4aae 2fc0
000005a0: 5853 5736 daeb 32c0 6cee 3e4c 351c 34c0
000005b0: 0306 4add 66b9 33c0 0ba4 1d2d 20ff 31c0
000005c0: 0ed2 fc40 e9fe 11c0 fabe 0f01 a22b 1bc0
000005d0: 7029 9ca6 a765 1440 4f4c ae22 1a19 1340
000005e0: 5228 a9ae 32a1 3e40 e0dc 1fb4 adbf 4040
000005f0: a114 0114 d1d4 34c0 9ece 443f 57b2 2440
00000600: 5d57 daac 2bc2 25c0 5345 ecb9 0011 2cc0
00000610: ae5e 6989 621c 0540 56f6 222e f4da 1a40
00000620: 6102 fe48 8ed1 2440 44ad c1cc 1c27 3140
00000630: 6c92 de0e 3f00 ef3f e0fe 18b1 dc1d 2ec0
00000640: 44e8 9046 0e12 1e40 90ca f65e f061 4740
00000650: 0034 f9d2 a1b9 22c0 d835 be6b cb3c 2640
00000660: 2817 898f 0b28 02c0 f389 55d7 b558 fc3f
00000670: 202a 6c2c 6508 22c0 b60f e4c2 4af0 3e40
00000680: 32bf a885 6adf 2cc0 91fc 6626 7a59 36c0
00000690: 19ec 1926 e058 43c0 41a5 7637 ec0c 3040
000006a0: 37fe 7542 86a2 fd3f 8101 6580 7302 40c0
000006b0: d783 4c36 6e5c 2740 d0b0 01f2 ac04 e23f
000006c0: 7057 f96a fe97 2140 3e2f d5ea 210b 28c0
000006d0: cb98 1275 9dca 3140 c890 e66c 4b8b d83f
000006e0: fd40 31a2 648b 36c0 bbcb 7729 e358 2ec0
000006f0: 128c f3d8 162f 42c0 54bb 0540 1d7a 3940
00000700: 8a2f bd78 3443 36c0 3eb6 b892 1a46 3540
00000710: 865b 08fc f466 19c0 a070 0d62 af8a f53f
00000720: 1d56 c35b 78cb 3fc0 df3f 2be2 cf43 3540
00000730: 5629 10d5 b5ab 1340 c8f8 b560 e70b 2f40
00000740: 126e c1ba 5b96 2cc0 a39b dac9 cf04 31c0
00000750: 3f31 49d9 d511 18c0 1206 5cce 57c9 d5bf
00000760: 801e 42e1 e892 0bc0 9013 a824 5f82 1cc0
00000770: f204 91fe e266 15c0 c4cb 7231 3b72 25c0
00000780: 8521 a343 66f8 2bc0 358f 0cf4 281a 03c0
00000790: 0272 14b4 9dbf 22c0 3677 3385 6691 14c0
000007a0: 662b 6a9c 6dd8 2cc0 577a 095b 8a3b 22c0
000007b0: aecb 10c3 ad79 1640 7033 5314 0859 1140
000007c0: 8672 fd30 2c0b 2140 3cd0 0bbc 1df0 2bc0
000007d0: 3844 2b34 eec7 1740 5d14 7f49 9930 3ac0
000007e0: 7efd 96da f778 36c0 524d fcd2 ba18 25c0
000007f0: c8cd 9f7f b243 24c0 9c49 38d0 329c 0dc0

arr_1 f8 [128]
34.75566116091762 17.675711697107964 -26.810298847175297 -14.142542865692201 9.014730359457015 -4.050250035818514 15.714239107551224 -7.918391686439592
12.616755201783056 -4.033377504714984 6.924214305046217 40.06759844543887 -14.147010789466012 32.85731939235335 26.46284354201417 6.679291871799669
18.473871536512053 -3.3354536396983727 5.42851065891692 7.752521347043394 -24.32074680224467 -16.742067518705532 -7.806972912466849 14.81025192696286
-19.15647390051519 8.848800465289482 -1.9031218436669692 14.881490960758462 -17.918119531274392 -15.13515459536776 2.067214460760103 3.5793688549436817
32.484962869737714 16.26780850270586 -15.403394529425537 25.675097330708322 9.042889039328905 -36.01228167403912 -27.9768460132327 -20.794219013669824
11.71013898646702 11.504464274174738 8.502103239173115 -5.279090498344972 16.692968899193225 20.525778758265993 -0.7113385467417935 -39.48997453500267
-10.273532738485429 -0.7139770343656562 3.8314651562368645 4.361058919061757 14.531564443792085 1.7512168288795447 -31.037101613795578 -24.783768531680437
15.841942381650599 4.053227666693525 0.14946860087314628 14.745887841943718 -3.3587085070898546 3.3899649579523405 24.534025229938173 27.533046647739646
-0.6968607144331855 -16.41642851784698 -1.6997124707455007 10.839446993820532 23.967349029150544 19.100685125632697 31.142871395865285 33.71632880360258
-8.094070270816825 10.326573138351426 19.537451742378728 -14.3541489826681 28.503652661648346 30.73402278014506 8.025524098183554 -14.681470992871876
-16.409003076567657 5.484068858641801 -2.545292245461957 -13.096495862993628 -8.323996185626475 -16.771457676024177 -20.067441859967957 10.745067236062916
10.36392706806055 -19.935058001972127 -8.257928061253008 12.59284300532489 4.784769926951682 37.070348436131184 -0.6529915968109762 -21.54945980600506
-5.975560830359091 9.21115900981092 -22.42889059595317 -32.805471294588486 3.0612237369990236 10.051956648429563 23.68645614848154 36.647421686841334
-29.389159338377794 -16.653776379914163 15.05259373202712 10.402633625614975 -11.799276246537582 -0.6635145129011044 -7.80518393048788 17.497974173095187
29.68469559988196 2.7517069560578165 12.54146619099842 25.985122557194572 -1.5312243198055853 -17.935038398313534 23.46981439290173 28.441480762368013
-30.732658022711313 11.361972103927911 11.517855699417382 1.6813830778354468 13.434531651849394 0.718855995481905 -10.888222762155014 19.867581392520933
00000000: d17f 4281 b960 4140 769a 1871 fbac 3140
00000010: ba9a c8be 6fcf 3ac0 2dda e460 fb48 2cc0
00000020: 9e40 d8bc 8a07 2240 77da d1be 7433 10c0
00000030: d9e9 90bf b06d 2f40 91b4 c8de 6eac 1fc0
00000040: 9b97 7a56 c73b 2940 18b1 6cb6 2d22 10c0
00000050: ecac 1a3c 65b2 1b40 cf35 dc10 a708 4440
00000060: d2d4 89ff 444b 2cc0 2e31 50a4 bc6d 4040
00000070: 9c1d 14ea 7c76 3a40 d745 d749 98b7 1a40
00000080: 15d3 1fa5 4f79 3240 22a1 5e51 02af 0ac0
00000090: 7024 887f cbb6 1540 7b5f bcf4 9402 1f40
000000a0: fcef 6176 1c52 38c0 9e43 0c23 f8bd 30c0
000000b0: 4236 6f1b 573a 1fc0 26a7 2f57 d99e 2d40
000000c0: eb63 6dac 0e28 33c0 ee7e 7ef9 95b2 2140
000000d0: 4ea5 ede3 2f73 febf bc5a 80c8 52c3 2d40
000000e0: 72a4 b0e1 09eb 31c0 6d04 aefb 3245 2ec0
000000f0: 6a43 36bc a789 0040 c26e 6223 8ca2 0c40
00000100: 1ea6 6843 133e 4040 60b6 1819 8f44 3040
00000110: 3689 4eba 89ce 2ec0 5702 bd2d d3ac 3940
00000120: 8c8c 5a8d f515 2240 492b 2672 9201 42c0
00000130: fb0f 9094 12fa 3bc0 c292 f1ef 51cb 34c0
00000140: 1bfb 5456 976b 2740 6929 2f24 4902 2740
00000150: abed feac 1301 2140 6110 4ce6 c91d 15c0
00000160: 162e e768 66b1 3040 16af cb6f 9986 3440
00000170: 477c 540e 49c3 e6bf cada 4d7c b7be 43c0
00000180: 485c ac7b 0c8c 24c0 0a42 965d e6d8 e6bf
00000190: 2b68 2e34 d7a6 0e40 8b32 e56d b971 1140
000001a0: 5c9b fb36 2910 2d40 2be1 03f0 fb04 fc3f
000001b0: 7ee1 c97d 7f09 3fc0 9033 f30d a5c8 38c0
000001c0: 819c 6412 13af 2f40 aac3 3e50 8136 1040
000001d0: 98b7 4380 c921 c33f bb43 df02 e57d 2d40
000001e0: b8fb d590 a2de 0ac0 38ee a7f2 a51e 0b40
000001f0: c6d2 a1e0 b588 3840 c248 bfbe 7588 3b40
00000200: 8072 4bd7 ae4c e6bf 4846 310f 9b6a 30c0
00000210: d648 27b4 0532 fbbf 915e 12ff cbad 2540
00000220: d904 9c2f a4f7 3740 3dc9 1980 c619 3340
00000230: 78c6 4438 9324 3f40 f453 88a9 b0db 4040
00000240: 465e 81fa 2930 20c0 63f1 2998 34a7 2440
00000250: e2b1 f86f 9689 3340 3cf1 f403 53b5 2cc0
00000260: b052 7e61 ef80 3c40 f63d bbea e8bb 3e40
00000270: a1ea 9d7e 110d 2040 5e1d 17c4 e95c 2dc0
00000280: 4cd2 f56c b468 30c0 ab83 33bf afef 1540
00000290: 0d2c 482e c25c 04c0 8c83 dfe7 6731 2ac0
000002a0: c396 fad3 e2a5 20c0 a2c5 1040 7ec5 30c0
000002b0: 9cf1 a6de 4311 34c0 346c e873 797d 2540
000002c0: 01e6 0ea6 54ba 2440 5955 12f6 5fef 33c0
000002d0: ce9a 9725 0f84 20c0 c510 4f1e 892f 2940
000002e0: 3091 4cba 9a23 1340 0c41 742d 0189 4240
000002f0: f3b5 1ba2 4ee5 e4bf 1c42 d965 a98c 35c0
00000300: 859a 166b f9e6 17c0 8cc9 a208 1d6c 2240
00000310: 4a2e 2bc6 cb6d 36c0 ea0f f2ae 1967 40c0
00000320: 9c32 e1de 627d 0840 26a1 d30f 9a1a 2440
00000330: c8dd 1397 bbaf 3740 33da bdb6 de52 4240
00000340: 0044 47f2 9f63 3dc0 eca0 8ae3 5da7 30c0
00000350: e80f ce90 ed1a 2e40 8c92 9cfe 25ce 2440
00000360: 75b2 76bc 3a99 27c0 949c aac9 823b e5bf
00000370: 3ad7 e222 8238 1fc0 4cb2 433c 7b7f 3140
00000380: 4735 f935 48af 3d40 608d c3ef 7e03 0640
00000390: b074 7c0e 3b15 2940 dcb3 edfd 30fc 3940
000003a0: 337a 8612 e57f f8bf c742 2dad 5eef 31c0
000003b0: f9b3 8cc1 4578 3740 0b2f 1ce2 0471 3c40
000003c0: 76b2 e679 8fbb 3ec0 90de 5868 54b9 2640
000003d0: f816 da61 2409 2740 f89d 35f1 f1e6 fa3f
000003e0: 3e8a c3ee 7ade 2a40 151b e449 de00 e73f
000003f0: 8209 4622 c5c6 25c0 dc7e 6bd0 19de 3340

arr_2 f8 [128, 64]
-5.775160152288617 6.459559822244484 41.1772951963587 -44.849818192628405 -3.652552516519145 -6.827085249635806 18.35658326893156 -4.779511003994851
2.283401768764056 -15.18264531986929 -12.503178547032759 -14.341108152925539 -11.622012161029884 -24.355646712634925 -29.239292039550385 30.57886873061542
3.137777123717784 17.82380621437178 11.776158252988981 44.2608835031608 -42.50186391375661 8.160868430860184 12.966224008213453 -9.505528121287313
11.617487020784427 -5.207961128287167 28.04525245844666 18.828600003333467 10.166369300233706 15.744482253313297 19.85421331837506 0.0014394934013310934
-16.886168323232923 24.585742876360005 29.190577975771127 -7.290349686742427 18.975607287350442 -14.351457855769407 -50.638451143466355 -6.091780031090359
-38.98745160977682 -6.203824767882298 -6.763997162538477 18.972303285029174 17.880149728827046 -3.896239368592814 -29.95260545498131 -10.129759907442129
-8.082875111739781 -17.457007142206376 -9.82767546294416 -30.705166809069844 11.372025952434143 1.0972036820653939 9.92341292406632 22.420048058454796
-8.946686656061765 -8.474803005481245 11.988570397508463 43.14552307334139 16.356844267927144 -52.23666090117448 -27.70354640544459 -16.766576317055424
17.597696255302274 -26.28914826122731 -31.8803884573274 -0.5698581860844332 -16.883224611944804 -25.445847572132173 -28.674701077444077 30.502460327967302
4.336187222701889 -21.917183900502984 -2.127711426704086 16.884407383350034 -7.334299497480488 10.676917795186478 7.704311193716693 8.885702823147797
-27.232547255997268 23.683628529725976 -26.419227249742242 19.158542058023826 -30.822112932230027 53.111002676287285 8.406981678000834 -18.993774337570237
-16.875218293522792 -7.408595912955825 -10.578994453758122 -11.634146646619627 3.8447270575376242 19.691996364471958 -32.626470785652046 -0.8114227619850698
-13.825428481095049 -0.6922732027432668 -14.917193566327699 5.037742917685802 10.442841924054605 -49.40910149259608 -3.2962260377195474 -27.211700167447283
10.297662137570335 5.993644535571972 29.554505326543335 39.62488239854576 22.870977590973354 24.12615828094559 -36.31318229793033 -11.211502977673163
4.828077105061086 24.304581652430294 10.579112276430163 2.7770878912424592 9.417248960263077 15.008957677113134 0.6400655206571462 21.672248092423064
-30.210938317325237 12.0694476202213 23.60736848692231 10.525492945383258 4.162620756157837 -4.9353080161554645 -5.9173788363468045 -6.435515879989366
40.16631595470569 4.817358064333105 10.118945513464634 -0.01868043478353032 35.128232950360356 -3.644097123075856 -14.966155438463062 23.83207220264359
-28.741766359861145 27.09212573602848 1.6122092618786272 -20.633159339094178 6.526430754826997 3.1099139088631222 19.49058708581966 2.346263550059799
-6.716730203921458 -23.63177636561509 -12.62216852390701 13.292778226537067 1.4442429107913755 9.717715696333707 -38.918781508671586 -29.186110199713625
-24.71805000462306 -8.839243550135109 1.7349309805566655 32.99143645984815 15.920056757813807 -23.948786745155605 -10.640507309466255 -4.9259147221367074
17.96669402492355 0.308019791594782 -25.143995990727685 13.358152897708706 -16.6500156018583 28.046189617430347 -27.51863742871334 1.3215747888738776
-31.554401055851635 -10.870388534510932 -37.77852119821625 4.4692936600203765 1.1987089844083103 -9.854731114810088 0.09706210353129835 -3.1362012309869742
8.957563052138042 -4.385252562243749 -3.861599891671248 32.86234388656457 -17.685020359623255 -24.104707907575737 4.020828047650356 18.313327460839673
-18.79983590789384 -9.276520023177888 -5.8098495104617305 15.944426042332916 10.898008202093381 -29.690166614391302 7.604806333503866 -7.283066698113445
43.00715134336019 22.719632422678767 -9.401351160908323 -13.892182968207843 -26.265567801956536 -15.011491167108538 3.650786906733978 21.069309447264423
-15.761417526356244 -7.342395584368877 -46.48062125501666 -43.57504960125166 -33.89295455270522 -12.618230666574139 4.756561846803139 -9.404667045789973
-5.761711933320742 -18.837547685827694 12.570033999270748 -0.9034679943827431 -17.665400227701447 8.122648461401502 -7.82290254595248 9.656998400630792
-4.2996667360878 -18.961852511776108 46.87633296098948 -24.655791539745344 -18.65644618797242 -16.957673821489323 14.890441956639126 -9.773926612829415
-20.20641880674217 -16.065801687472437 -48.58212452600667 12.766863051803915 -17.141719518036833 -3.9630619854357843 -10.2239182556289 16.571762512182552
-20.585303685253265 -13.008037137247968 -32.030065283719686 18.514543564772865 18.169867574331953 21.275923158001838 -16.724105773281295 -14.611274744789725
-21.48514497847835 -31.931825528215555 3.032229440158236 -25.25801084796492 6.4752315172579245 -3.6303247967186287 18.521856605037485 10.981166739947808
-12.08371420819407 -4.164515952256377 22.94997410087391 11.031861528050385 54.833154313863545 -9.810869555157899 -10.675093276275758 28.3017563441865
00000000: ccf7 3c95 c319 17c0 ed61 9cd9 96d6 1940
00000010: 9c0c e79b b196 4440 4271 b0d7 c66c 46c0
00000020: 52fa 2a74 6d38 0dc0 56c2 886f ef4e 1bc0
00000030: a05c 860a 495b 3240 bb1e f421 381e 13c0
00000040: ebc2 8325 6844 0240 4d36 f7af 835d 2ec0
00000050: e71b 579e a001 29c0 a66d 52ba a5ae 2cc0
00000060: dfac c260 783e 27c0 69b2 b7a9 0b5b 38c0
00000070: e20f 3c3e 423d 3dc0 96ab babd 3094 3e40
00000080: e309 84e4 2a1a 0940 e6f7 ccf6 e4d2 3140
00000090: 6237 529d 648d 2740 1e12 71a1 6421 4640
000000a0: 4850 a413 3d40 45c0 b401 d358 5d52 2040
000000b0: 0dc6 c7e9 b4ee 2940 5046 f894 d402 23c0
000000c0: 7af2 3f42 273c 2740 a054 13c3 f3d4 14c0
000000d0: 8e17 45aa 950b 3c40 61c8 3b21 1fd4 3240
000000e0: d51f 5f5b 2e55 2440 b2dd 24c7 2c7d 2f40
000000f0: 803a 5ab9 adda 3340 00b4 3745 ac95 573f
00000100: 5c09 5fed dbe2 30c0 c9d4 c13e f395 3840
00000110: 5e46 ddb7 c930 3d40 acd9 a36d 5129 1dc0
00000120: d0e8 3066 c1f9 3240 5ee7 b848 f2b3 2cc0
00000130: 12a4 5ec4 b851 49c0 f8d5 9f95 fb5d 18c0
00000140: df2f 79d0 647e 43c0 53ad a070 b7d0 18c0
00000150: b45b ad45 550e 1bc0 61fe 3ade e8f8 3240
00000160: 3be5 1c7e 51e1 3140 5bf3 cb8b 7f2b 0fc0
00000170: cc22 7bf3 ddf3 3dc0 8497 fde3 6f42 24c0
00000180: 4026 4d9b 6e2a 20c0 97d0 896b fe74 31c0
00000190: fa17 0a14 c5a7 23c0 fe2d dfcf 85b4 3ec0
000001a0: 90ef 852f 7abe 2640 ac58 b872 258e f13f
000001b0: 1c23 2b94 c9d8 2340 c8cf 0145 886b 3640
000001c0: 94b0 061d b4e4 21c0 3e2b 2961 19f3 20c0
000001d0: 652f 2ee6 25fa 2740 4768 0480 a092 4540
000001e0: 1c83 5c25 5a5b 3040 a564 87e7 4a1e 4ac0
000001f0: 569a 029e 1bb4 3bc0 24a4 7358 3ec4 30c0
00000200: 0677 2d9f 0299 3140 a4aa d59e 054a 3ac0
00000210: 40ff 4f23 61e1 3fc0 90e5 123c 473c e2bf
00000220: 4253 1702 1be2 30c0 064f 0511 2372 39c0
00000230: c232 b635 b9ac 3cc0 3128 743d a180 3e40
00000240: c959 9b76 4158 1140 fa13 6990 ccea 35c0
00000250: 0a28 8891 8d05 01c0 4fd4 b385 68e2 3040
00000260: e1fd 829b 5256 1dc0 0dd0 20f8 945a 2540
00000270: 32e1 1cf4 36d1 1e40 11ca 26d7 7ac5 2140
00000280: 6648 8b37 883b 3bc0 1fc9 8147 02af 3740
00000290: 263c 1f7a 526b 3ac0 bc40 5a36 9628 3340
000002a0: f08b 3dfe 75d2 3ec0 1036 f055 358e 4a40
000002b0: 692b 0ae7 5fd0 2040 de77 b7fe 67fe 32c0
000002c0: 948a 5b4e 0ee0 30c0 b8b2 8df7 66a2 1dc0
000002d0: bde9 06f6 7128 25c0 e032 88de ae44 27c0
000002e0: fe5c 7142 00c2 0e40 a35b 7aac 26b1 3340
000002f0: 3223 d831 3050 40c0 7696 3ede 2cf7 e9bf
00000300: fafa d68f 9ea6 2bc0 88be b521 1a27 e6bf
00000310: 49f5 2665 9ad5 2dc0 ed76 5414 a626 1440
00000320: 7839 3a2d bce2 2440 f4b8 0d70 5db4 48c0
00000330: 3cd5 c1c1 ab5e 0ac0 6abe 6ffb 3136 3bc0
00000340: 7c3e f42b 6798 2440 de85 00f4 7df9 1740
00000350: 20f6 a20f f48d 3d40 cfcc 7c25 fccf 4340
00000360: 88c7 2c63 f8de 3640 e8c7 bae8 4b20 3840
00000370: 01a6 875b 1628 42c0 c839 481e 4a6c 26c0
00000380: 0237 d371 f34f 1340 5626 2c10 f94d 3840
00000390: 96f5 7f67 8128 2540 2008 38db 7937 0640
000003a0: 663d dda7 a1d5 2240 827f c419 9604 2e40
000003b0: 04a1 d0af 6a7b e43f 65c1 7373 18ac 3540
000003c0: 9a62 b60d 0036 3ec0 6245 73a3 8e23 2840
000003d0: ccf3 4b80 7c9b 3740 4d66 4d69 0d0d 2540
000003e0: 1265 350e 86a6 1040 254c 7462 c1bd 13c0
000003f0: b69b 905b 65ab 17c0 9fc5 f5df f7bd 19c0
00000400: c921 59d7 4915 4440 eeba 2d83 f944 1340
00000410: 4eac 246d e63c 2440 809c e1c1 f620 93bf
00000420: 9e08 f4ef 6990 4140 c977 7864 1c27 0dc0
00000430: 501a f6ec abee 2dc0 d143 12af 02d5 3740
00000440: 68e0 7066 e4bd 3cc0 bc5c 5f8d 9517 3b40
00000450: 683b 61f0 9bcb f93f 0491 feba 16a2 34c0
00000460: b85c eea9 101b 1a40 848a 1f8b 1ae1 0840
00000470: 756f 811d 977d 3340 f86d fad2 25c5 0240
00000480: a097 c785 eedd 1ac0 dab3 8c18 bca1 37c0
00000490: fa8f 6ddf 8c3e 29c0 48ea 1707 e795 2a40
000004a0: c742 5574 9e1b f73f 8528 876e 786f 2340
000004b0: fef4 e9a1 9a75 43c0 d838 05eb a42f 3dc0
000004c0: aabf 0620 d2b7 38c0 206b a254 b1ad 21c0
000004d0: f0ed e4fc 46c2 fb3f 0f8e d163 e77e 4040
000004e0: 568c eaad 11d7 2f40 5552 29b0 e3f2 37c0
000004f0: 5603 f692 f047 25c0 2dd9 29fd 22b4 13c0
00000500: 0749 7642 79f7 3140 98e6 daa4 98b6 d33f
00000510: 37ee d6eb dc24 39c0 c840 0dd1 5fb7 2a40
00000520: 04df 276c 67a6 30c0 3147 3015 d30b 3c40
00000530: 2ace 2a6c c584 3bc0 0de7 169b 2b25 f53f
00000540: 2ac0 433a ed8d 3fc0 5d13 e590 a3bd 25c0
00000550: 6fca 2695 a6e3 42c0 d807 6884 8ee0 1140
00000560: f447 d778 e92d f33f 45f7 1151 9fb5 23c0
00000570: 7c0f 59e0 0fd9 b83f aa1c c6ab f016 09c0
00000580: e894 51b4 45ea 2140 ff25 cea5 7f8a 11c0
00000590: a2b8 e77b 8ee4 0ec0 a559 d348 616e 4040
000005a0: 11ad 897e 5daf 31c0 9eab 2e23 ce1a 38c0
000005b0: c2fd 9df2 5315 1040 c03e 7d3a 3650 3240
000005c0: 0d92 ca0b c2cc 32c0 f479 5008 948d 22c0
000005d0: 7f75 a830 493d 17c0 059f 6acf 8be3 2f40
000005e0: c90f 27bb c7cb 2540 089a 5dc2 aeb0 3dc0
000005f0: 4840 fb59 526b 1e40 91ef 8b3c dc21 1dc0
00000600: 60ed d055 ea80 4540 eb8b 98d4 39b8 3640
00000610: 32a0 3ce6 7dcd 22c0 7500 bd34 ccc8 2bc0
00000620: 2046 6040 fc43 3ac0 1cd9 952b e205 2ec0
00000630: 13b3 08c4 cf34 0d40 f64d 9143 be11 3540
00000640: 429a 9c84 d885 2fc0 f4a2 b4f2 9c5e 1dc0
00000650: 8e07 4eff 843d 47c0 147a af39 9bc9 45c0
00000660: 7457 b455 4cf2 40c0 f2a3 dcba 883c 29c0
00000670: f2ae 1526 b806 1340 addf de84 30cf 22c0
00000680: 9257 8a36 fe0b 17c0 6e78 6f86 69d6 32c0
00000690: b0f3 107f db23 2940 3669 1bb6 35e9 ecbf
000006a0: 8aba 58ab 57aa 31c0 933f 75c7 cb3e 2040
000006b0: e7a4 0af7 a64a 1fc0 9577 2818 6250 2340
000006c0: dfc8 3cd6 db32 11c0 62a7 59f7 3bf6 32c0
000006d0: a7ed afad 2b70 4740 2233 50f4 e1a7 38c0
000006e0: e8ec 7cdb 0ca8 32c0 3088 8f1c 2af5 30c0
000006f0: aa80 1502 e8c7 2d40 7936 e71b 408c 23c0
00000700: aa3c e8dc d734 34c0 3ab7 1f61 d810 30c0
00000710: f7b2 740e 834a 48c0 6304 2046 a288 2940
00000720: 4f2c f7ba 4724 31c0 7cbd 9bd7 59b4 0fc0
00000730: 97ce e169 a572 24c0 22e7 2a07 5f92 3040
00000740: 1c64 5a76 d695 34c0 5844 9371 1d04 2ac0
00000750: 1729 e12d d903 40c0 1411 8720 b983 3240
00000760: 1668 fc70 7c2b 3240 b2d3 6be6 a246 3540
00000770: 8416 f7fe 5eb9 30c0 387c db00 f938 2dc0
00000780: 1562 1876 327c 35c0 8443 291e 8cee 3fc0
00000790: 8895 3b82 0142 0840 c605 baff 0c42 39c0
000007a0: e09a 4217 a3e6 1940 681d 1eba e70a 0dc0
000007b0: 6cd6 fb64 9885 3240 5fff a77c 5bf6 2540
000007c0: e2ce b496 dc2a 28c0 1c72 aade 76a8 10c0
000007d0: ea4c af80 31f3 3640 38f4 7927 5010 2640
000007e0: 5a48 f1cc a46a 4b40 5373 594b 2a9f 23c0
000007f0: 2fb5 6ed3 a559 25c0 3ca4 5de7 3f4d 3c40

arr_3 f8 [64]
-12.862503823993116 -23.145847954206303 11.110466301973775 2.0833961909262406 21.193902292617793 -3.6721455389408266 -15.331090232908412 9.956394174555204
-14.948197779900063 15.731915964777473 -20.313319157190485 -27.97132452231491 3.5573251261849026 3.026556606929228 -6.874602364047693 -16.476415434118998
46.977912542233256 -2.432612018170437 -17.73020282697638 -4.509187579158567 14.23773217469115 -15.094533635654752 14.431753799566883 17.130633472977493
8.147083311893306 16.006055061100422 -5.445906438575614 29.146324285323942 49.14304577582281 -13.268876701030038 -29.139243837822015 27.09809269911559
-8.387498109019761 36.62962833950632 21.63842478210517 20.047789816768905 5.689563582772871 -14.464610733634757 14.401527666510605 19.60552945054695
-21.562274448082295 -15.8933069633715 4.146183746361274 20.078200166865606 36.01182581583528 16.503932064570275 -2.3151566012918856 -2.9960813727171733
-3.7631068169132145 -28.07499239047761 -2.6459095217140116 -3.7821800129077197 -13.45468915223108 3.736253904183402 3.818755467809974 12.987379804336378
16.216114660554737 -16.701532600360323 5.912190903067943 29.99379854024866 22.955245372800885 -1.0577276402184335 19.556055495864495 30.480038779860212
00000000: 6473 e919 9ab9 29c0 2c81 a14a 5625 37c0
00000010: 2993 040a 8f38 2640 081d 459f cbaa 0040
00000020: b069 a594 a331 3540 a439 1fd7 8d60 0dc0
00000030: babb b4a8 84a9 2ec0 5a99 4b7f ace9 2340
00000040: 049f ed2d 7ae5 2dc0 7147 78b0 bd76 2f40
00000050: ea57 2daf 3550 34c0 3625 51b9 a8f8 3bc0
00000060: 37a0 31e0 6675 0c40 b407 724f 6336 0840
00000070: 445b 1ac3 977f 1bc0 cad9 a45c f679 30c0
00000080: ba9e f93c 2c7d 4740 4d30 2f4a fd75 03c0
00000090: 704f 8d92 eeba 31c0 d40f 0078 6809 12c0
000000a0: ca02 1708 b879 2c40 ae04 73b6 6630 2ec0
000000b0: 8320 82d5 0edd 2c40 8433 fe31 7121 3140
000000c0: fdbc fc80 4e4b 2040 cf66 11d3 8c01 3040
000000d0: 4a08 8bb2 9bc8 15c0 b013 2482 7525 3d40
000000e0: b67e f052 4f92 4840 2829 fb34 aa89 2ac0
000000f0: 769d f17b a523 3dc0 86ad 669a 1c19 3b40
00000100: e100 f326 66c6 20c0 3f68 53a9 9750 4240
00000110: fe18 78ce 6fa3 3540 b21a 14f4 3b0c 3440
00000120: 9a16 b2f4 1cc2 1640 e8a9 4475 e1ed 2cc0
00000130: 5934 c808 95cd 2c40 2fdd 62fa 039b 3340
00000140: d1e3 dd37 f18f 35c0 78f0 c187 5fc9 2fc0
00000150: 5050 2731 b195 1040 c23a 17ed 0414 3440
00000160: 6a21 2282 8301 4240 2fbc 18b1 0181 3040
00000170: 5856 fdd2 7085 02c0 e5cc bf82 f9f7 07c0
00000180: aff9 2fbf d71a 0ec0 da8c 88b3 3213 3cc0
00000190: 537e 7f9c d22a 05c0 2830 3898 e741 0ec0
000001a0: 5e5b 3d04 cde8 2ac0 0529 4016 d9e3 0d40
000001b0: f651 adaa cf8c 0e40 14b6 80d8 89f9 2940
000001c0: cc44 574a 5337 3040 1ca0 f7a3 97b3 30c0
000001d0: c68a 415f 15a6 1740 382e c594 69fe 3d40
000001e0: cbd5 f3f5 8af4 3640 cb03 6dd1 73ec f0bf
000001f0: c37f 29a7 598e 3340 b54f 4cd2 e37a 3e40

arr_4 f8 [64, 32]
3.8360535779162293 14.783737177154045 13.407450286189999 22.9671091487275 32.00550309804666 -11.685603153242804 -24.48075798277115 -17.246968955494744
19.348840622039578 8.321441895251937 0.33264643885855016 7.433980633899576 -6.81805666091162 -3.065039750005066 2.407919539900038 11.265162257274502
10.784264524206552 15.623242871994822 5.444418545061039 19.47867747068274 22.021550163725315 11.971779901304469 37.251583903696776 -8.710287402468799
-32.80543072471526 23.708469416384343 5.141471380669679 -6.806177285332082 -14.636785734639531 0.9741816405749615 -9.156468858061992 8.951627548531931
15.241712519768436 6.604667995094003 -4.706664766405453 28.964775677250998 11.627947598567188 8.043738678091907 5.518579246564352 12.567016146965365
8.879073796664525 37.0809292932841 3.1966210123038064 2.14715325454363 -3.0643468054483467 1.6699423290291302 1.033048720535712 13.035287847656694
18.347959846064008 -12.192657087101303 12.31034870525926 4.29599771087466 13.750009161110809 -40.802177135856816 -17.848180055318437 20.85994492511874
-25.5535214088925 -12.8068760862036 9.728828343684661 6.186853705111838 12.264982503644088 -5.877601898672645 -1.170021742594127 16.996797388807476
22.906696459762642 -1.5914524354626365 -32.35748720110593 -5.498556830746468 2.3952791072800252 -19.36503632120331 8.25419959065216 -14.641660660572674
13.355930055614055 4.466032946128376 -6.732274713202977 -12.26090165854822 42.83566459582936 -22.606468786421274 -0.4151546739880495 18.050776339905543
2.1230997350893435 19.30488135971622 22.4346903147836 -11.027123004360005 -25.48462498306588 5.4716371488572175 -6.7164375740046705 2.763158155875621
-8.545418556440104 -2.2519008106227245 26.06425749578127 7.307003018342643 -2.445301003533042 28.205663510211423 -8.858261945655514 3.7113749239192138
13.699543387182528 -19.580491227761502 -6.551774508191017 24.431686313031236 14.954641113849814 -24.07598136275268 -11.089826629543227 -45.752045773728234
3.996508553574509 -33.393728183018865 -2.6830734946628993 6.037840398863106 3.3316067292115656 16.80296999923101 -11.238922153273855 -1.2950494835366664
-0.21148026745888515 -5.721475398030506 11.264623019957362 -18.528342588415754 3.519308192752399 -1.8708009334776856 10.621487058444899 -12.852710252667027
4.370823300859431 15.844148922038425 -30.537080452823623 -17.0567404422547 -9.15476183748407 1.4345630177146664 9.175282041729622 19.893884929660658
-8.401341552964674 -26.69318140906779 -9.850918925703462 -30.001102003027107 17.79233941581827 23.206134777459162 -19.69896536329822 9.944091969232783
-27.67811587449393 7.858497033808601 4.347179516197739 -28.830425860885143 17.52118554787084 -4.253030103373627 4.206282366006288 -12.048201262651773
-15.942476927919873 -11.40160572562705 11.079587985330804 -3.067087089805341 0.4313819265295824 10.072808992919972 6.421078304902145 -30.19671298374594
29.93701686325812 -22.6403726823814 -2.679298093685481 -8.455452105652897 -19.684578687736096 -40.0308314471516 -10.118673268322427 -3.5488701101865363
-5.2186148688089595 21.0321003264211 -18.896077922162956 -22.561451145333844 11.505885957672596 -8.209641182253952 -14.705789319018049 -13.814573113322101
-1.3198004276513586 16.280785639201277 14.034345327296062 0.05908417948214506 -8.18019868049116 -13.35586282752583 -1.6537900260797014 -12.615141979454078
-30.586898143470663 24.847508474177356 -0.7000861342793723 -0.1734302517503471 2.2145618069065742 -19.075734400593994 28.23368485655046 25.375694860978307
-5.652435241683954 -10.449894596208999 -13.826322088265812 -9.18931434407217 -24.86177964463495 26.995927502070874 15.603143866158197 -10.062380461779764
12.945468953081358 -8.466297504577593 -9.398343516189952 -15.857000506246486 -22.000407088379713 -13.826640663263412 -11.696608103450199 -31.99095383896985
7.538479050823566 19.32193017728345 18.040672392897708 -5.47273511679387 -26.987902200299658 12.75078230749022 -4.266877972476617 -21.9181952031025
8.911078725355404 -9.801787821879579 19.772249790164825 13.247914442120884 11.66697493060235 -7.5375704308042275 -7.50864929303621 -15.766883950301414
2.04772439405867 -8.951186214843673 24.463772335212134 -33.186115730283404 -3.538364951728667 2.4697515777952384 -36.68148330880997 9.037331601210408
-9.136310791938968 11.355798976849115 3.371141849069906 18.040219232280116 -26.236392144571745 -2.2983531520705975 26.849075486296115 -27.90503923454959
-40.25363023407197 -3.2537989278725563 7.774864689780218 2.5330842099198425 10.999565575458998 20.418732697112247 1.1279479081356336 6.4778025251803
18.641217917677224 -13.252885090307995 21.040196498264837 -10.102593201325243 -16.895821833322017 17.130632616941533 19.318243924959745 -12.851924321515206
-3.0666400591490683 -9.131194816351966 33.145772969159 -11.99053294478292 -13.25316414425597 -4.272161643069544 3.197349433871556 13.740945345477563
00000000: fad4 b6db 3cb0 0e40 6c12 d1ff 4591 2d40
00000010: 20dd eb52 9dd0 2a40 6f72 1577 94f7 3640
00000020: 8c11 5553 b400 4040 b56c 6260 075f 27c0
00000030: 034b 85f4 127b 38c0 2afa 825b 393f 31c0
00000040: 212d 779e 4d59 3340 b857 3708 94a4 2040
00000050: 44d0 014a 144a d53f bcc8 566b 65bc 1d40
00000060: bd8f 33a5 b045 1bc0 b7b1 798f 3385 08c0
00000070: 0629 da51 6b43 0340 4b41 ee58 c387 2640
00000080: a2c2 a51e 8b91 2540 a25d 91b0 193f 2f40
00000090: 9e17 b3a7 15c7 1540 14ea 519b 8a7a 3340
000000a0: 766c c04f 8405 3640 8e06 9e22 8df1 2740
000000b0: f149 bfe6 33a0 4240 83ba 58ca aa6b 21c0
000000c0: 3dec 9e5a 1867 40c0 4396 6d40 5eb5 3740
000000d0: 592f a5df dd90 1440 0f1e cd89 8639 1bc0
000000e0: 18ac a1c7 0846 2dc0 3e42 d4f9 7e2c ef3f
000000f0: fc6f a8af 1c50 22c0 a8d5 ddb9 3be7 2140
00000100: dde0 4ebe c17b 2e40 6e77 3f16 2e6b 1a40
00000110: a0c9 b3ed 9fd3 12c0 f0c4 ed89 fbf6 3c40
00000120: 47e5 fe58 8241 2740 35f3 7fea 6416 2040
00000130: 4a83 2170 0613 1640 540a bff0 4f22 2940
00000140: aee3 eef5 15c2 2140 c8f8 1de4 5b8a 4240
00000150: fc68 8c09 ae92 0940 6c1e 7eaf 5e2d 0140
00000160: 9405 0842 c883 08c0 d12d 9672 15b8 fa3f
00000170: 2802 5e18 5e87 f03f 7243 af3f 1112 2a40
00000180: 862a 7fe5 1359 3240 ace2 20f3 a362 28c0
00000190: 91e3 8606 e69e 2840 1297 1f06 1a2f 1140
000001a0: b757 6533 0180 2b40 4f0d 8abd ad66 44c0
000001b0: 50b6 fe53 22d9 31c0 04bf c159 25dc 3440
000001c0: 42d4 3c94 b38d 39c0 7f56 c4dc 1e9d 29c0
000001d0: 040c 19fd 2875 2340 fa5d e293 56bf 1840
000001e0: be53 66c9 ab87 2840 79d3 7612 aa82 17c0
000001f0: b1cf 00b8 68b8 f2bf 93aa 191d 2eff 3040
00000200: 5c14 5a42 1de8 3640 a639 37d4 9676 f9bf
00000210: 89be fe23 c22d 40c0 9203 8dae 85fe 15c0
00000220: 707a b417 8829 0340 9d6b 3505 735d 33c0
00000230: e603 e172 2682 2040 2b94 00bf 8748 2dc0
00000240: 390d d976 3cb6 2a40 6ceb 99bd 37dd 1140
00000250: 0994 236c d9ed 1ac0 9fdf f5e6 9485 28c0
00000260: 8ec1 b60e f76a 4540 64b9 d389 419b 36c0
00000270: 8eda e3e8 e491 dabf 0d4e 9fad ff0c 3240
00000280: 07d7 c2b6 1bfc 0040 2424 6db4 0c4e 3340
00000290: 2ee2 4ddd 476f 3640 1764 0111 e30d 26c0
000002a0: af17 0562 107c 39c0 86ae 47d9 f4e2 1540
000002b0: 0ee7 b7cf a1dd 1ac0 ad4a c9a9 f21a 0640
000002c0: 6415 dd19 4117 21c0 16af 7b92 e403 02c0
000002d0: 46e7 e22d 7310 3a40 4238 ceff 5e3a 1d40
000002e0: 3667 f8f8 f98f 03c0 b056 225d a634 3c40
000002f0: c8fb 171c 6eb7 21c0 8b6b 0b56 e5b0 0d40
00000300: ff29 048d 2a66 2b40 bdd9 b612 9b94 33c0
00000310: a1c9 6d60 0435 1ac0 9899 84fe 826e 3840
00000320: cecd 56b8 c6e8 2d40 d720 bc83 7313 38c0
00000330: 6965 88c1 fd2d 26c0 ffa0 3109 43e0 46c0
00000340: 534b fe79 d9f8 0f40 2eca 62af 65b2 40c0
00000350: 90bb 823c ef76 05c0 ab56 2ea2 bf26 1840
00000360: 12c7 c86d 21a7 0a40 c85d 1e71 8fcd 3040
00000370: c433 2501 547a 26c0 e4dd a7ce 85b8 f4bf
00000380: 801c 3e10 c911 cbbf 70a3 5d72 cae2 16c0
00000390: a4f8 20ab 7c87 2640 6454 ba75 4187 32c0
000003a0: d354 c30d 8b27 0c40 91ce a9f5 ccee fdbf
000003b0: f0d0 3d8d 333e 2540 6a56 3070 96b4 29c0
000003c0: e424 771a b97b 1140 a637 9a49 34b0 2f40
000003d0: c632 c41a 7e89 3ec0 32d8 a78a 860e 31c0
000003e0: 6e53 8df1 3c4f 22c0 422b d259 f8f3 f63f
000003f0: 139c 5991 be59 2240 a047 8ba4 d5e4 3340
00000400: ac04 d9a3 7ccd 20c0 3024 3a56 74b1 3ac0
00000410: 3de3 3aa5 abb3 23c0 26f6 8a38 4800 3ec0
00000420: 6e45 86c1 d6ca 3140 5ec1 af3f c534 3740
00000430: 1267 e064 efb2 33c0 c68a c805 60e3 2340
00000440: 91d9 7f00 99ad 3bc0 0daf afd8 196f 1f40
00000450: 3ea4 ef06 8363 1140 1c41 0aca 96d4 3cc0
00000460: cb40 836a 6c85 3140 aa92 cb52 1a03 11c0
00000470: 3cf4 3eaf 3bd3 1040 386e fdd5 ad18 28c0
00000480: 024d fd55 8ce2 2fc0 b8e8 0244 9fcd 26c0
00000490: f84c a4c1 bf28 2640 0095 c5f4 6489 08c0
000004a0: 08ec a1f0 c29b db3f 57e4 6638 4725 2440
000004b0: 7770 b226 2faf 1940 2ce3 37c8 5b32 3ec0
000004c0: 7f7e 4f56 e0ef 3d40 7514 d076 efa3 36c0
000004d0: 0eea c4d6 336f 05c0 d958 b504 31e9 20c0
000004e0: 795d 838c 40af 33c0 2c9a ec48 f203 44c0
000004f0: 61b5 1cbe c23c 24c0 5406 2803 1664 0cc0
00000500: b4d0 7f93 dcdf 14c0 682b 1cba 3708 3540
00000510: 875b da5c 65e5 32c0 b782 2343 bb8f 36c0
00000520: 3c6b f77b 0303 2740 db59 cb16 566b 20c0
00000530: e618 b637 5d69 2dc0 b2d6 23ba 0fa1 2bc0
00000540: 8026 a00d e71d f5bf 528e 5191 e147 3040
00000550: 9603 f3b5 9511 2c40 0072 2c15 4840 ae3f
00000560: d8fb 5e00 435c 20c0 ca2b 0ca7 33b6 2ac0
00000570: b269 c787 ec75 fabf cf4d b8e3 f33a 29c0
00000580: 244a ecf4 3e96 3ec0 b3ac bb50 f6d8 3840
00000590: 709d 6309 1b67 e6bf 14d0 b365 f632 c6bf
000005a0: 4213 3d2e 6cb7 0140 bebb 6554 6313 33c0
000005b0: 6674 50c5 d23b 3c40 562d d589 2d60 3940
000005c0: 6929 e7fb 179c 16c0 c4ba a295 58e6 24c0
000005d0: d020 52b0 13a7 2bc0 46e8 48cf ed60 22c0
000005e0: cc10 3e97 9ddc 38c0 d594 d21a f5fe 3a40
000005f0: 6bdd d745 cf34 2f40 c681 f654 f01f 24c0
00000600: 4fbc b181 14e4 2940 febb e88b beee 20c0
00000610: 0f38 6dae f3cb 22c0 dcf7 35c5 c8b6 2fc0
00000620: 0747 cfad 1a00 36c0 2c85 ec71 3da7 2bc0
00000630: f6e4 3cd1 a964 27c0 9e38 9a26 affd 3fc0
00000640: 2e79 630d 6727 1e40 2407 1f04 6a52 3340
00000650: 8158 8581 690a 3240 9f33 a9ac 14e4 15c0
00000660: f8ee 9928 e7fc 3ac0 fc2b e289 6680 2940
00000670: 4b3d 8f75 4811 11c0 58ab 40d7 0eeb 35c0
00000680: 35f7 22e9 78d2 2140 949b f2ee 839a 23c0
00000690: cd19 8929 b2c5 3340 063b 4aa4 ee7e 2a40
000006a0: c060 f4bc 7d55 2740 3567 eedc 7826 1ec0
000006b0: 6be5 3a5c db08 1ec0 65be 5c03 a588 2fc0
000006c0: 92a0 bd53 bd61 0040 b851 2ae1 01e7 21c0
000006d0: 9286 a4c8 b976 3840 506b e7a3 d297 40c0
000006e0: e0e5 a748 924e 0cc0 e5ff 7e1d 0dc2 0340
000006f0: ea0d 56d8 3a57 42c0 ae9c ac20 1d13 2240
00000700: 80f0 3287 ca45 22c0 d008 9348 2bb6 2640
00000710: 2d75 bf37 19f8 0a40 3650 bfce 4b0a 3240
00000720: 8af7 1132 843c 3ac0 f269 36fa 0663 02c0
00000730: 247a d502 5dd9 3a40 c4fc b9a6 b0e7 3bc0
00000740: d74e 9cf4 7620 44c0 aac7 77bb c707 0ac0
00000750: 92b9 1521 7619 1f40 31f5 7ca7 c143 0440
00000760: 8e9b 210f c7ff 2540 ecdc e710 326b 3440
00000770: ea8b 101b 130c f23f e661 ae10 45e9 1940
00000780: 6c08 82db 26a4 3240 a609 9127 7a81 2ac0
00000790: 1176 5551 4a0a 3540 bdf7 9818 8734 24c0
000007a0: 2c29 6594 54e5 30c0 068e a123 7121 3140
000007b0: 50da 116f 7851 3340 4c26 b76c 2fb4 29c0
000007c0: a630 5595 7a88 08c0 d945 8bf7 2b43 22c0
000007d0: e096 4bb0 a892 4040 0ce8 5622 27fb 27c0
000007e0: cd32 10bb 9e81 2ac0 57d6 b08a b116 11c0
000007f0: 4be6 a2f0 2b94 0940 2ce6 3530 5d7b 2b40

arr_5 f8 [32]
-2.5829564438278716 -4.341558997362532 13.828181807703611 -6.134749518364934 13.024708122700716 30.26414974968273 1.831931709652416 6.863219445970059
-0.8884126917514109 12.696245533403118 -0.43587807576752735 -7.22401167489485 -8.433364611574572 -29.262581127218716 2.7476177975386 -24.106122741542258
-17.389341712526104 -2.3162485403659705 18.94802118058423 -1.2615447512774427 24.007402247410717 25.08500428508693 -24.34943014138541 -10.257585415667002
14.067282283877663 2.2673099224669038 30.84172555714181 0.09861963080584464 11.644797662332628 -12.075847860235283 7.290081756093039 -19.17638612986446
00000000: 88dd 6911 e5a9 04c0 774e 4da4 c15d 11c0
00000010: 5675 2672 07a8 2b40 d81d 1ac7 fb89 18c0
00000020: e8e3 058b a60c 2a40 4822 6851 9f43 3e40
00000030: 6066 d79f 974f fd3f bfd9 66cc ef73 1b40
00000040: 738e 0d74 e06d ecbf aae7 674b 7a64 2940
00000050: 94c1 1d28 6de5 dbbf dc61 0651 63e5 1cc0
00000060: bee9 63f7 e1dd 20c0 82f3 4984 3843 3dc0
00000070: cbaf 320a 1ffb 0540 2e49 28dc 2a1b 38c0
00000080: ac44 02e6 ab63 31c0 943c 9250 ad87 02c0
00000090: 4b86 1e84 b1f2 3240 48d5 928c 492f f4bf
000000a0: c28b 1a1d e501 3840 de77 40d7 c215 3940
000000b0: ac7c f540 7459 38c0 c46e 503c e283 24c0
000000c0: a2b5 d1d2 7222 2c40 1822 7762 7323 0240
000000d0: a721 7c53 7bd7 3e40 9d00 0ed9 223f b93f
000000e0: 0483 50eb 224a 2740 3f5d de87 d526 28c0
000000f0: e957 1e31 0b29 1d40 623c 33a4 272d 33c0

arr_6 f8 [32, 1]
-38.982191754806514 2.5458358238869785 18.38037564193135 -17.505766901180838 16.96823482422315 -20.874754452658635 -12.20374769134002 -17.453766140707526
-44.86743895381452 0.07554946715279187 -17.709174739182238 -9.24651878696083 6.977341833129551 -16.070945069540734 -25.902299890541613 -7.184683312902681
1.731467246268362 7.8027419997539305 10.464969952023923 24.04602351538043 -16.144569930624336 7.262700265420089 9.162720280022448 -6.7291953317451085
22.284322865591058 -17.31414581164912 -11.800765543482973 -19.477772697469934 -7.613911951674657 -0.5858774552717656 -1.2707874331626512 -34.94288931520925
00000000: bda5 9c75 b87d 43c0 68a3 242c df5d 0440
00000010: 484a 4e4c 6061 3240 91f8 8bf0 7981 31c0
00000020: 01e3 c83c def7 3040 0033 66e8 efdf 34c0
00000030: bce1 0d9e 5168 28c0 f75e 8e04 2a74 31c0
00000040: 75f4 583d 086f 46c0 90c6 a6ba 3557 b33f
00000050: e2ef c779 8cb5 31c0 56b1 dfb5 377e 22c0
00000060: 6937 294c cce8 1b40 6a7d c174 2912 30c0
00000070: 840f 2920 fde6 39c0 c422 549f 1dbd 1cc0
00000080: ae15 cdff 16b4 fb3f 6c46 b0ff 0136 1f40
00000090: 8121 a38a 10ee 2440 e967 7532 c80b 3840
000000a0: 3a04 f488 0225 30c0 eb84 624c 010d 1d40
000000b0: 4c2f 9212 5053 2240 e6f6 582e b2ea 1ac0
000000c0: f637 2162 c948 3640 5635 23dc 6b50 31c0
000000d0: cb0b faf0 fd99 27c0 198e be4f 4f7a 33c0
000000e0: c643 ac55 a574 1ec0 d463 bb13 82bf e2bf
000000f0: 399f 1934 2555 f4bf 2949 da98 b078 41c0

arr_7 f8 [1]
6.736469073174085
00000000: 4831 dff2 24f2 1a40
