weights/global_round_16.npz (npz, 129966 bytes, 8 tensors)

arr_0 f8 [43, 128]
1.1425756430301628 -5.111615947652138 2.2797197293724887 25.574414158199794 4.758383586550758 7.473286262273289 6.6513935479164905 -11.836855830946957
-0.4593306413961684 -16.240437510660264 20.96749992242376 7.080767420790837 -15.001866399877017 12.676924791120129 -1.708097211321531 -10.987911943627203
7.643532878896991 -11.648645992855801 -0.05327825983834511 -0.021695712443841247 2.120010367564423 2.1613006034676374 14.238339086194198 2.530664362377434
-11.09833846323139 -0.612320081942912 -1.1537668849469846 9.086085197688877 -12.873093525609338 2.5007032869846264 -6.44835005405795 9.512975090158093
-11.288738697078195 -6.14990043443926 0.18278782212235356 -13.850154826557242 11.218905334349117 6.538850307287703 3.2009381808113857 8.040668204383032
10.162474463002468 -13.833187976165366 -30.524646957648923 11.13478947366417 -15.145871715163764 -4.471805238940336 1.119221404145995 -12.792569387431964
-5.880617934001954 3.8420969636112474 -7.369151538956345 -8.365579805334708 -10.463713009857422 1.517792074859173 -10.713650610260697 -6.104952809856055
-4.181565122778142 0.41541726811980556 7.110592267983104 4.979797496115637 3.566615190912841 6.025010881387072 12.354188619974849 -6.4827644277923895
6.380081085965696 -6.885102565532829 -2.140717157051859 0.9436795831387632 -6.429817237470657 -19.07413608961958 4.17729034520997 0.09992949928575401
11.156846721669593 -9.115842506118529 3.4637507222568926 -16.653008786879745 13.368228787559058 17.049195267105812 7.8236914113829 0.3745699732191572
-20.33864708866895 12.526730082810726 -16.95968497886547 17.59826243499161 6.10379715404693 1.3738552169070468 -7.813647320503618 11.139779456229872
-21.952747951927712 12.921454912592992 6.44415341483531 2.887317542443208 11.045372835159938 -11.159579727367582 -22.67783054069949 0.28542049882008325
11.963232813012812 11.630865225405254 -7.454764405115197 -0.26798849563865557 -14.725947208047465 10.457436541054207 7.4405622217111 -4.346343645821946
22.393620150328 17.0568813252526 3.3261524587839872 5.211467739936307 -12.760527425237068 8.157165204445542 10.923843958770536 23.022076363593417
-10.661333134131986 -3.68093465326466 -3.765048898845045 9.577758080531197 -25.08300305494278 11.284150627635332 5.57267332554545 0.5647907050935221
13.070180295300412 -3.661942246092667 6.39809856925193 -6.874401285971095 -0.032842306222223616 -0.3727702027471168 5.995208561382296 -7.808906439540057
-15.211393695543906 14.91424104156078 -1.202457235205057 1.9560150037472175 -1.5849200410268494 -5.430966693705008 1.7925090902064826 2.2609910613801283
3.8141267510958707 -1.2509811339045398 -23.34743107456507 -13.564316504484758 4.020017485732495 -9.734004750928259 9.844802485420068 -1.4749601347616645
35.62870505156103 1.2975871406123007 14.024599864062083 -19.485061128690436 -1.741562077528136 28.77155299178471 -22.847243876483446 1.960168825821008
-0.8502877152706346 -3.8220312449308977 -12.973838161668297 -3.1736237268466523 43.99103054500179 -4.224240328938057 -6.945026725947997 8.049733073840716
-7.8741067337820985 -9.965966876422527 -4.749310317734171 -11.471266838103322 15.300260659112677 19.484426788814027 8.410025158710429 -5.668629320614008
10.29820739936352 -7.9560467484905315 -1.2285696907331332 0.8820834803806306 -10.430286604109522 1.1405998289974908 -2.3985331966859293 5.363594977195868
4.294666890541571 0.07852779959081246 7.7245801027327055 -10.763402147000534 -13.758581384093608 -39.45073690962475 -12.375996210600785 7.1450028871514
-8.914977196728453 7.893523641602108 2.387216147972555 1.8756122086359819 2.932074185947247 11.096653662689672 -13.476816530621965 -12.105121843207336
-4.363549516510776 -21.428913476057062 10.96078834807643 1.948014992823692 15.441012478017356 12.146191694665522 5.534296061396782 -15.362573676361379
2.3419976172788175 9.414624948097877 15.280786814505124 5.357572856219365 -10.418250954038623 -1.1988310648637481 -1.5890277412457232 21.10399512204463
5.622644107310542 -6.98628739376443 -6.699727300887558 6.4301509453428265 -11.369116367382752 -14.304344276358378 -6.253679008756991 -6.397910956846198
-3.7841022310540193 7.527553870369799 -11.173755063919423 -1.7852678269911402 -4.777479475457447 -12.370599433283639 -19.255365282057035 10.215900253372638
-6.618130830357456 7.939033555898337 -14.45609879895736 13.705568987156905 -28.299472571047616 5.055105629848077 8.911383756537798 6.656636975879081
-5.571058905499941 -6.981707948782476 -6.6748133820122995 -3.5747371433789263 5.439645711126415 5.174296499433208 4.85632449541755 -3.1777149817091974
1.0149689970871598 -2.414919153246944 -15.042398749222347 -6.649259591752922 -14.79149162882526 8.751991535547242 5.895040144547473 -0.24950840296068022
-1.3591668254288949 -13.367979331267719 3.776235542564689 2.6221912601835724 -20.814559970427265 9.44913076582537 5.547970233786893 -4.841461267246688
00000000: de54 c065 fd47 f23f 0d83 7373 4b72 14c0
00000010: 429b 8db2 dd3c 0240 d6d3 67ce 0c93 3940
00000020: 1a3c f8b4 9508 1340 7e70 6827 a5e4 1d40
00000030: c781 04e9 069b 1a40 a7c4 125e 78ac 27c0
00000040: 4c39 b658 ac65 ddbf 7a04 0d50 8d3d 30c0
00000050: 4db1 2d13 aef7 3440 0284 dbb1 b452 1c40
00000060: b8dd fca1 f400 2ec0 d86c dfe2 955a 2940
00000070: 863c d0bd 5d54 fbbf cc69 2298 cff9 25c0
00000080: a00d 7348 fa92 1e40 86fe db53 1b4c 27c0
00000090: f0dc 2fbf 4947 abbf 388d a39d 6637 96bf
000000a0: 0af6 defe c7f5 0040 a0bf 85f8 574a 0140
000000b0: 0e20 a994 077a 2c40 9b82 0cf5 cc3e 0440
000000c0: 1209 476b 5932 26c0 841f d448 2098 e3bf
000000d0: aae1 e043 d475 f2bf a27c e95b 132c 2240
000000e0: d2ae 551d 06bf 29c0 15ca 94b9 7001 0440
000000f0: db5a cd46 1ccb 19c0 88c8 c7ab a406 2340
00000100: bc14 fa8e d593 26c0 904a de7f 7f99 18c0
00000110: 80b0 0f63 9765 c73f 2733 517e 47b3 2bc0
00000120: 18e6 275c 1470 2640 00f6 fc5f c827 1a40
00000130: 33d2 187a 859b 0940 d49f 7f76 d214 2040
00000140: c00f 52da 2f53 2440 f219 4a9d 97aa 2bc0
00000150: 4b0c 5543 4f86 3ec0 2077 3a20 0345 2640
00000160: 6014 8cb2 af4a 2ec0 2252 9de9 20e3 11c0
00000170: daa4 fcb3 54e8 f13f 7ea9 9da7 cb95 29c0
00000180: e83c 2bb5 c085 17c0 702b 3655 9dbc 0e40
00000190: a057 6cdc 027a 1dc0 32fb b746 2dbb 20c0
000001a0: 7c22 a8ca 6bed 24c0 bf5e ba57 e048 f83f
000001b0: 26ae df9c 636d 25c0 fcd1 d7bf 786b 18c0
000001c0: 94b4 2135 ecb9 10c0 a72a 314f 3296 da3f
000001d0: 2bb6 7819 3f71 1c40 d013 ea08 50eb 1340
000001e0: 7f19 938b 6d88 0c40 0c68 d673 9c19 1840
000001f0: 90d0 f635 58b5 2840 7029 54cc 59ee 19c0
00000200: 0c34 e8f9 3385 1940 dc46 b253 588a 1bc0
00000210: ce30 1c51 3020 01c0 1e7c 6f86 9f32 ee3f
00000220: 2fc6 8802 22b8 19c0 925e 3095 fa12 33c0
00000230: 224b aa99 8bb5 1040 2085 56cb fa94 b93f
00000240: 871c a836 4e50 2640 1288 7eb5 4f3b 22c0
00000250: c6b7 4cf0 c2b5 0b40 2ea6 7795 2ba7 30c0
00000260: 1606 d07b 88bc 2a40 6356 9f0f 980c 3140
00000270: e58a e7c2 754b 1f40 548d 4256 f4f8 d73f
00000280: 00b8 5a93 b156 34c0 9efb be90 af0d 2940
00000290: 8db0 2eea adf5 30c0 dcb6 18ba 2799 3140
000002a0: a032 18cd 496a 1840 44e0 a09b 4ffb f53f
000002b0: 0e2a 60c3 2c41 1fc0 e751 422c 9147 2640
000002c0: 4adc 2e4a e7f3 35c0 a0a6 34f0 c8d7 2940
000002d0: 5d7f 1c27 d0c6 1940 74af 8ff0 3919 0740
000002e0: 0847 b61b 3b17 2640 f64b 1c6f b451 26c0
000002f0: c888 644d 86ad 36c0 b093 0257 5444 d23f
00000300: f2a5 ecd9 2ced 2740 3599 4ec4 0043 2740
00000310: 2e6b 9dc2 add1 1dc0 9439 1e38 b926 d1bf
00000320: 6c5f 3a5a af73 2dc0 78a5 4f1f 35ea 2440
00000330: bb68 38be 22c3 1d40 40ee 9fe8 a762 11c0
00000340: 93b4 484a c464 3640 8bb6 47c6 8f0e 3140
00000350: d0e5 ffd1 f59b 0a40 ecbd ccff 8ad8 1440
00000360: 6635 c6d9 6385 29c0 5553 2af5 7750 2040
00000370: a20d 4b13 02d9 2540 f9a5 ebcb a605 3740
00000380: 54b7 ad41 9a52 25c0 e6e0 13de 8d72 0dc0
00000390: d00a 03f5 d11e 0ec0 30c3 39e8 cf27 2340
000003a0: 8472 2eb0 3f15 39c0 cba9 e930 7c91 2640
000003b0: 7e09 52e0 6a4a 1640 44c4 eef4 c312 e23f
000003c0: 1d47 f2ab ee23 2a40 6678 5660 a84b 0dc0
000003d0: f215 be26 a797 1940 064e fb0c 637f 1bc0
000003e0: 40a1 4cee b4d0 a0bf ce37 6e8d 77db d7bf
000003f0: 3d58 fff3 17fb 1740 b564 3df8 513c 1fc0
00000400: 21e2 61cb 3b6c 2ec0 3d54 dc66 17d4 2d40
00000410: 74b5 40cc 433d f3bf 1c46 7963 d64b ff3f
00000420: c6c3 ef1d d55b f9bf 5683 3c55 4fb9 15c0
00000430: 4e83 0303 1eae fc3f 6868 497b 8216 0240
00000440: 420b d6e2 5483 0e40 2687 20cb 0404 f4bf
00000450: 01df 2e3e f158 37c0 ccb5 c617 ee20 2bc0
00000460: e046 ba76 7f14 1040 e5b0 8078 cf77 23c0
00000470: dcea 8cf3 89b0 2340 1948 5bcc 6f99 f7bf
00000480: 6ea4 3968 79d0 4140 613d cabb eac2 f43f
00000490: f043 775a 980c 2c40 4949 54f7 2c7c 33c0
000004a0: 9cfe 6e32 70dd fbbf a6d8 327f 84c5 3c40
000004b0: 903b 85f9 e4d8 36c0 a2a3 98fc d95c ff3f
000004c0: d9e4 2895 8e35 ebbf a025 0a1e 8593 0ec0
000004d0: 98ec 5fea 9af2 29c0 96ed 24d6 9463 09c0
000004e0: 540f c216 dafe 4540 d6ee bc41 9fe5 10c0
000004f0: a02b 0716 b5c7 1bc0 d259 0b9d 7619 2040
00000500: df3a ebd5 157f 1fc0 1082 de35 93ee 23c0
00000510: 00e5 3434 4bff 12c0 aaaf 12e3 49f1 26c0
00000520: 2654 dec3 bb99 2e40 3643 df64 037c 3340
00000530: a265 4ed1 eed1 2040 47bc 242a adac 16c0
00000540: 1062 e7a3 ae98 2440 1bdb 38eb fdd2 1fc0
00000550: e8e3 28b1 38a8 f3bf 0c74 9222 073a ec3f
00000560: 561d 9986 4edc 24c0 efe0 359b e53f f23f
00000570: 5a17 312c 3230 03c0 3a2f e03d 5274 1540
00000580: 385c 4828 bd2d 1140 00c3 11db 651a b43f
00000590: f446 9253 f8e5 1e40 8020 6ea5 dc86 25c0
000005a0: ab12 78c7 6484 2bc0 1ef8 3ebf b1b9 43c0
000005b0: 8ee6 4793 82c0 28c0 3990 08a3 7b94 1c40
000005c0: a511 21e4 77d4 21c0 1889 8bdc f792 1f40
000005d0: a733 a0c7 0419 0340 311e 81f2 8102 fe3f
000005e0: c8b6 904f e374 0740 de94 c096 7c31 2640
000005f0: 536d da4b 21f4 2ac0 6c57 bd87 d235 28c0
00000600: c48f 0f53 4674 11c0 907a 0846 cd6d 35c0
00000610: 76bb 4a73 eceb 2540 17ba e4c4 112b ff3f
00000620: c86c 3463 cce1 2e40 0a12 47a3 d94a 2840
00000630: ba52 b881 1e23 1640 a8b9 c441 a3b9 2ec0
00000640: f82d 2c3f 69bc 0240 465f a0b8 49d4 2240
00000650: 22e5 124a c38f 2e40 1299 2d94 276e 1540
00000660: be3b 32fd 24d6 24c0 674c 907b 692e f3bf
00000670: e464 515a a86c f9bf 0e20 a06c 9f1a 3540
00000680: 98c8 b76a 967d 1640 82b3 9252 f5f1 1bc0
00000690: beb8 4550 85cc 1ac0 1b5d 4a7d 79b8 1940
000006a0: 8ca7 0cd2 fcbc 26c0 385e 5303 d39b 2cc0
000006b0: 012c 196e c403 19c0 7a7f 49f8 7597 19c0
000006c0: fcc7 f863 d745 0ec0 4e77 f014 371c 1e40
000006d0: bc18 7a6c f658 26c0 6a72 38ff 7490 fcbf
000006e0: 989a 6194 231c 13c0 1dbd 7b35 bfbd 28c0
000006f0: 02f8 7e9e 5f41 33c0 00de 5e7a 8a6e 2440
00000700: 6e23 d449 f778 1ac0 44b8 3103 92c1 1f40
00000710: 9288 22c8 85e9 2cc0 4ed2 9956 4069 2b40
00000720: d4b2 023c aa4c 3cc0 8617 389c 6d38 1440
00000730: f6de 48e4 a0d2 2140 e0fa 8271 65a0 1a40
00000740: e2d8 6caa c348 16c0 d5f9 38d9 44ed 1bc0
00000750: 7c95 7a47 02b3 1ac0 22df 94c9 0f99 0cc0
00000760: 5e75 3c7c 32c2 1540 dc7d 13c8 7ab2 1440
00000770: 0d54 1a54 e06c 1340 189a 13d5 f56b 09c0
00000780: a317 8f21 503d f03f e56f 0d22 c151 03c0
00000790: 429a f249 b515 2ec0 bfc5 a481 d798 1ac0
000007a0: 7ab9 0964 3e95 2dc0 a516 d808 0581 2140
000007b0: 09c1 5567 8594 1740 388b 652f e4ef cfbf
000007c0: 6767 90b6 25bf f5bf 30cc 72c9 67bc 2ac0
000007d0: 1a77 eafa ba35 0e40 86c3 5269 3ffa 0440
000007e0: a79d 9100 87d0 34c0 deb1 bd77 f4e5 2240
000007f0: 4a2f e51b 1f31 1640 72b3 be05 a85d 13c0

arr_1 f8 [128]
18.916386100066216 14.148239508284227 -0.29212106498012513 -12.441570165275799 8.921521731397227 0.5374154612029782 9.558914555484282 -6.876428425951749
21.839338991880112 4.315688758388988 8.842730754470843 5.240237415720477 -5.505147501110356 5.9745561367331455 11.708458491235369 11.826984254003605
13.570459362804185 3.2726093653334285 21.746407435114588 19.472461892247694 -11.046900005033983 -11.260102880462966 -2.3151954564974697 -12.693641742390735
-11.264681316842367 8.023425924172589 -0.040220340800332544 9.162066069698177 -4.942634382204 -8.88648643992019 14.348564446244747 6.85718484526371
6.169512373278608 -1.9396286965105345 -30.598396205570808 8.585343150671697 0.25114063829251115 -14.485375462743416 -12.316049955408177 -2.7379462808244277
12.19158340565598 8.56990963956045 -7.534966401971699 -12.306708722226592 13.167894444463126 9.879291597824892 -17.677546738926416 -9.96164752431095
-12.542869725646817 -7.831381989635316 -14.855645453813432 -5.895504932444443 5.1862354264328046 1.601200954753393 -12.939853623629425 -2.2497691889995313
18.86821317517572 -9.718217664875711 4.0236203496652845 -0.5001281094597254 15.246125719846333 10.713564179707433 13.10804219291226 4.145537544942228
2.7744142081710974 -6.698417497359473 -10.318504086496304 -1.6599885837588786 24.074265082626262 -0.5987640652456276 4.677557202849592 12.371357546231113
1.689392913331295 4.620962030575338 16.59904123053528 -1.3857892499152336 12.220182241989148 7.820943844692197 7.791632996866099 -9.571782919426868
0.4739046763168735 -0.36817978562604115 -1.8533199368270117 7.454294614419837 -12.708953468210197 12.461541286734665 -7.789497415960093 4.009203948565955
11.567464678872017 -5.27956410683627 7.097966422413615 18.00356529744007 -8.479704813536527 6.773175060655307 15.063025162244001 -15.855569023749961
0.40984243884235205 9.435259809609338 -16.361715441004527 -16.19400772410564 1.588356988953628 1.2320953597015785 1.655669774973176 6.507825420872296
-16.23367199647968 -3.3370739261569105 1.5096831323295687 4.228044399351848 -14.082056427777932 -2.38647424218015 2.7496318671758275 3.6868975521898943
7.071048206109646 5.615349152774698 -3.981097127779109 18.046602445596005 -3.754960049007944 -7.450986953002305 6.270175290662367 4.474389540894422
0.10511510061534723 5.347566363163274 -1.2599617949560595 1.129980666428227 0.929140227827072 17.761794115838295 6.724034135933932 21.696483759381444
00000000: 1b4b 8a47 98ea 3240 9c1c 800c e64b 2c40
00000010: 30fd 238d 1cb2 d2bf 6c7f 157c 15e2 28c0
00000020: 0ccf 45b2 d1d7 2140 d868 c7e8 8132 e13f
00000030: 7220 720c 2a1e 2340 76fd 0a74 7681 1bc0
00000040: f861 90eb ded6 3540 71fb f3e9 4343 1140
00000050: 4492 cb67 7aaf 2140 162e 0fcc 00f6 1440
00000060: 4eb3 f362 4505 16c0 348a 3d0b f2e5 1740
00000070: dcdb 4412 bb6a 2740 4081 ea7a 6aa7 2740
00000080: c7e1 e53f 1324 2b40 ec85 a5d1 4d2e 0a40
00000090: f34e c38e 14bf 3540 64cf 3743 f378 3340
000000a0: 3c9b 0747 0318 26c0 205e 6a34 2c85 26c0
000000b0: 0f09 0c32 8585 02c0 d66a ad02 2563 29c0
000000c0: 7e66 3f4f 8487 26c0 5266 947b fe0b 2040
000000d0: 8028 beb0 c297 a4bf 344a ea52 fa52 2240
000000e0: fa9a 8ef2 41c5 13c0 009c f78c e1c5 21c0
000000f0: ce56 020a 77b2 2c40 4823 34dd c16d 1b40
00000100: f1fe cda6 94ad 1840 6c55 9e19 b808 ffbf
00000110: 24fa 647e 3099 3ec0 2425 f218 b22b 2140
00000120: f76c 0a2f b012 d03f 1687 f521 83f8 2cc0
00000130: c1c2 bc4c d1a1 28c0 18c4 3261 50e7 05c0
00000140: 5a7f 5b38 1762 2840 b02c 3f32 cb23 2140
00000150: 7eb5 833b ce23 1ec0 eab8 f6ec 089d 28c0
00000160: 664c b842 f655 2a40 6a9c 2082 32c2 2340
00000170: 4e33 fdb3 73ad 31c0 c963 7610 5dec 23c0
00000180: 7c48 4b05 f315 29c0 4ede dfcc 5553 1fc0
00000190: 1533 3229 17b6 2dc0 b505 b93e ff94 17c0
000001a0: c38a e77f b4be 1440 37d6 6fe4 849e f93f
000001b0: ec07 817e 34e1 29c0 5469 12fd 86ff 01c0
000001c0: 0656 f937 43de 3240 f119 cc39 ba6f 23c0
000001d0: 7654 d5ee 2f18 1040 1413 3eaa 0c01 e0bf
000001e0: 90e3 ba30 047e 2e40 88e1 be48 586d 2540
000001f0: e54a 6a4e 5137 2a40 cf77 4fcb 0795 1040
00000200: 8638 8d13 0032 0640 d173 d8f4 2dcb 1ac0
00000210: b849 b6f7 12a3 24c0 d3a4 6f30 508f fabf
00000220: 521d 5509 0313 3840 d8ff c741 1329 e3bf
00000230: 09a2 2d8e d1b5 1240 f25e 8893 22be 2840
00000240: 19a2 0ddd c007 fb3f ec83 7578 dd7b 1240
00000250: c91a 1ec4 5a99 3040 7d8c 3859 312c f6bf
00000260: b701 11ba bb70 2840 d238 d380 a548 1f40
00000270: c0e5 1fd7 a12a 1f40 19b3 16bb c024 23c0
00000280: bcf4 8c47 7454 de3f 10fa 93f2 4190 d7bf
00000290: 1926 5bce 32a7 fdbf 80ba 7e9b 32d1 1d40
000002a0: 78b2 f0f2 fb6a 29c0 ec8e b823 4fec 2840
000002b0: e94c b702 7228 1fc0 e156 88c2 6c09 1040
000002c0: eac7 faba 8a22 2740 2afd 9f0d 461e 15c0
000002d0: 8a7d 514f 5164 1c40 d6e7 c3a7 e900 3240
000002e0: 0fbf 8bde 9bf5 20c0 b263 fe33 bb17 1b40
000002f0: 7f53 85d5 4420 2e40 16f4 a024 0db6 2fc0
00000300: 60cf d5c7 db3a da3f 1212 af5f dade 2240
00000310: 9a92 1562 995c 30c0 8234 7e7d aa31 30c0
00000320: a2dc 9e04 e969 f93f d28b b79f a9b6 f33f
00000330: 7cc4 0797 9f7d fa3f 52e5 1a63 0308 1a40
00000340: 0adf 8eed d13b 30c0 0e6d 89d0 53b2 0ac0
00000350: 79da 0a80 a927 f83f 3402 9578 84e9 1040
00000360: 3277 d34c 032a 2cc0 f147 b7ce 7f17 03c0
00000370: 0d7a 0cfe 3eff 0540 49dd d224 c47e 0d40
00000380: bab8 66dc c048 1c40 9027 9b16 1e76 1640
00000390: 2216 7073 49d9 0fc0 9bbf 4b23 ee0b 3240
000003a0: 9634 827e 280a 0ec0 3645 1886 cfcd 1dc0
000003b0: 2254 d6d4 a814 1940 f1d2 2e5f c6e5 1140
000003c0: 206b 75bf d2e8 ba3f 58e7 cb6f e863 1540
000003d0: 53bb f8b2 cd28 f4bf 8cbe 769b 6614 f23f
000003e0: d649 7d49 84bb ed3f 8bcf 6df0 04c3 3140
000003f0: 6e18 5c34 69e5 1a40 0abd 78c2 4cb2 3540

arr_2 f8 [128, 64]
-6.0608860619715355 3.7704513010852017 18.532694173050885 -7.515255007850886 12.604745909693005 -22.575660955628223 -5.935755332970073 -4.792403197657648
-0.2736954231630775 -14.017792362679241 7.194235773509417 6.167708276108644 2.057834723282828 -17.089257520794618 -1.6055751837739387 20.644793627542832
-2.7210091063603086 10.282638990497201 0.44297859571429704 15.631835619736306 -1.5255035305137281 6.733144046821606 5.262063088860843 6.626563800962318
14.798285622883517 -3.4787869104732723 6.84574514025662 15.000538120354381 13.835385272723409 24.051423317053477 -3.884731271145431 7.440493148937545
3.8195214233418007 8.705845553047778 15.799237650073161 8.04606317996134 14.560505970600374 5.5878450461315765 -9.57344016369064 -7.866371199042102
-11.477814731886266 -25.891507506412434 -12.874956668839223 9.024820549170288 3.578806362819112 2.9039456624885753 -11.469922791464622 0.32582633351451573
17.664028349127875 4.044560622780928 -14.005899544023187 -12.878207245564568 2.308064826290176 -8.713022191551875 13.242761523672915 16.389607730590505
5.135969374430011 0.5435678504861055 3.4048224997554706 21.29202549098862 3.3530065128665534 -1.7431231402505385 -7.048366615224429 -8.492425281248103
12.423852532514875 -15.215409934753662 0.4218788792297918 5.76173347408797 4.051538079269308 -20.448018163847856 -6.929035655028661 13.109200478086375
4.702949601378187 7.750257929520435 -12.150425345686251 8.99369695531754 12.1559963818624 12.934951306262898 6.557288055043935 -2.6625863574044346
-15.296448108926628 2.842115857849289 -19.058494279443266 -4.929038077500673 -7.839435036396711 31.07047931888958 10.406280825698367 15.719173630342857
11.181989757410348 4.906856427898865 5.638870430032306 -8.418772872741313 -1.5520328336765554 -10.817585053379908 -13.641932932345785 -17.147463768168002
4.526357371412637 9.323729889747481 -9.778379987969934 -12.555381006945101 -9.434082530022424 -10.92647939329176 1.101755017263267 -6.0796980304919614
2.1975992803907505 -2.39200266963163 18.514730121249364 32.230850391944784 15.490648201016164 13.140407517169182 -8.836272847326514 -11.494593994043946
8.228119329690013 26.409529320320935 1.7917177476211088 1.1651068997699525 1.1569236704939792 1.6760638319397672 10.1306840047207 -7.298071164650879
-11.280987019968615 -7.179265180418066 5.417372429405272 6.9969373189509625 7.6706697177970735 5.2623812464056865 -0.531643977244993 1.0481725128842019
15.170430726146213 -11.256510591537781 8.38311299996555 -3.057417669845836 -1.2097221341440443 -3.5321239606145522 -12.61203441312025 -8.28700283485908
-12.747685323248765 20.867993327474736 1.6558642576668188 -18.33688384922077 -4.873662888286198 4.419629311855992 1.0970217222324357 1.3444368833798568
5.786093450487047 -18.571779172542225 -21.004374830758465 1.0218297710722402 -2.6594228861907627 11.69839376349083 -15.750351741629286 -12.68232775569717
-23.641049461564364 -18.916141464824047 -3.204442968474533 12.9826700464839 14.704208405757598 -17.59272120505198 -7.331753486851081 -15.549957647581554
13.210945854806312 3.6160912345623415 -4.5213555765953375 -2.3563549268683737 -9.95596621034434 14.79751599517098 -6.342604791808477 -13.467091820577146
-23.68150748797128 3.640697480434836 -0.5397577702406661 -10.887159077229004 -12.777879384507829 -10.977391674981941 -12.158779188812579 -12.911947586461526
-1.5724727671946142 4.286210188731819 -10.073618659745776 0.9691631675812209 -9.303984652081734 -18.05993627530923 5.829726007134897 3.209881934974187
-8.071506691902101 -9.202351752287246 -4.347082511851605 10.715892359701126 -6.490368971495562 -23.84760911127349 2.11255028534175 -3.6677251848948482
9.278074460793308 -2.864658510793863 -13.896293317046343 -3.812995175632412 0.9125577828116902 -13.287127357533532 4.686701160157184 19.974475666404857
-12.944548969466776 -12.719443549623392 -24.347307252670824 -3.2829452310109133 -10.743674338222013 -17.650365387149943 4.041460194851517 -31.38335397953256
4.176155624659119 -8.997535966136567 22.858332080147672 -10.504250746932948 10.861276110111994 -10.298953272279626 9.579989747908547 16.510552571830555
0.08026886992102344 6.357413566088285 22.95531969724045 -6.213173637879973 3.0472562620250288 -18.13105887897868 3.766250161097336 -8.753331393582869
-19.747189651876482 -13.49428255721583 -7.533752173485064 6.067025986559024 3.492449228498567 -4.472717312006722 -16.47040425284653 18.28053692235129
-3.848808775129954 -19.192697618824784 -6.914220178438361 -4.1009232785322896 1.1141251354065203 -4.732090498664632 -12.46808062709699 -1.6416929151884747
-15.866077760880064 -15.705805674023626 9.580335214691116 -17.436297179226788 -0.3985070327024546 14.605733414141657 5.317395726191654 -3.7989207105592655
5.029251828621934 -4.536494868114385 12.526252132967342 9.368027090839913 14.109666612123657 -5.728857027549688 4.48646352410218 13.876576880677188
00000000: c6cc 73ea 583e 18c0 9e92 2a5f e229 0e40
00000010: f805 34a5 5e88 3240 7447 3f02 9f0f 1ec0
00000020: de0a 8141 a135 2940 e001 3284 5e93 36c0
00000030: fea7 60a5 36be 17c0 dfbd 6cbe 6b2b 13c0
00000040: 1838 e3ce 3984 d1bf dea6 9f14 1c09 2cc0
00000050: aebe 1bbe e5c6 1c40 e39e e4b7 bbab 1840
00000060: 6a95 280d 7276 0040 24bc b494 d916 31c0
00000070: 8a40 999a 6fb0 f9bf 36f7 f631 11a5 3440
00000080: 567c 1f6c a0c4 05c0 1685 c90e b690 2440
00000090: 37f0 5ae5 c259 dc3f 3f6e 56f5 7f43 2f40
000000a0: f2d2 d763 7668 f8bf 6f6c 2150 bdee 1a40
000000b0: 9195 3044 5a0c 1540 62f6 e7f0 9981 1a40
000000c0: ab4d a6e4 b898 2d40 7ae2 513b 8ed4 0bc0
000000d0: ca9c 9803 0b62 1b40 92a5 5288 4600 2e40
000000e0: 6dd0 539e b7ab 2b40 1cff 1814 2a0d 3840
000000f0: 8a8b 1afd ed13 0fc0 fc31 d3a2 10c3 1d40
00000100: c8fe 7c3f 618e 0e40 07bc 9c96 6469 2140
00000110: 9d97 61ad 3599 2f40 aaf7 d697 9517 2040
00000120: f8e1 79a3 fa1e 2d40 c000 410d f459 1640
00000130: 4387 faf2 9925 23c0 1b54 f802 2a77 1fc0
00000140: 3eff ed21 a4f4 26c0 0f2e 00d6 39e4 39c0
00000150: c329 0c52 fabf 29c0 09e9 6d47 b50c 2240
00000160: c832 f83a 65a1 0c40 f2fe 0ddd 473b 0740
00000170: 9ef8 59b8 99f0 26c0 30b5 a7b1 56da d43f
00000180: 001f 0bc3 fda9 3140 4822 c64c a12d 1040
00000190: 2448 d943 0503 2cc0 c09e 4d61 a4c1 29c0
000001a0: bdb6 0fb1 ea76 0240 3a13 a43e 116d 21c0
000001b0: facd 093d 4b7c 2a40 ae27 0d55 bd63 3040
000001c0: e7bc 418e 3b8b 1440 bcd5 9f67 e864 e13f
000001d0: e513 2994 133d 0b40 fc64 bd2e c24a 3540
000001e0: 784b 2014 f5d2 0a40 1e6e 0417 d5e3 fbbf
000001f0: b66d 9a04 8731 1cc0 505e 9d2a 1ffc 20c0
00000200: d2f4 fa32 03d9 2840 3e00 0236 4a6e 2ec0
00000210: d390 4a45 1000 db3f bae7 1ddc 030c 1740
00000220: 62d7 f365 c634 1040 92bd 8151 b172 34c0
00000230: 06aa 6c1f 55b7 1bc0 562d 0420 e937 2a40
00000240: 489f 3205 d2cf 1240 766b 5b9d 4300 1f40
00000250: 846c 088d 044d 28c0 7d72 ead8 c5fc 2140
00000260: 63c9 fcc1 de4f 2840 d580 07f0 b1de 2940
00000270: ea75 4bb8 a93a 1a40 5d9f 7e13 fa4c 05c0
00000280: 119a e90b c897 2ec0 d63e 273d a7bc 0640
00000290: 4036 297b f90e 33c0 9a6a fec1 55b7 13c0
000002a0: 04c3 b1db 945b 1fc0 d3ac c1ee 0a12 3f40
000002b0: 94bb 560a 04d0 2440 b3ef ac86 3770 2f40
000002c0: 9f91 f0c2 2d5d 2640 d7f8 aff8 9ea0 1340
000002d0: 187b cd0c 348e 1640 77c0 e165 69d6 20c0
000002e0: 1e58 6f61 20d5 f8bf 24ee 1382 9aa2 25c0
000002f0: 124d ed6e ab48 2bc0 62a0 7d2f c025 31c0
00000300: 38e7 406d fd1a 1240 ff67 92ec bfa5 2240
00000310: 2c62 60d2 878e 23c0 2a4c 3be6 5a1c 29c0
00000320: 296c bc10 40de 22c0 4a36 cd81 5bda 25c0
00000330: 2898 75de c9a0 f13f 0813 4a5c 9c51 18c0
00000340: 67ee 77ee ae94 0140 b019 b04b d222 03c0
00000350: 3a08 6d5a c583 3240 f8d5 7181 8c1d 4040
00000360: 4c69 b23d 36fb 2e40 59b5 7c7e e347 2a40
00000370: b199 63f4 2bac 21c0 fc6e 8a6c 3bfd 26c0
00000380: 4635 890e cc74 2040 1288 dde9 d668 3a40
00000390: 8a20 9b3a e0aa fc3f c0b1 ed21 47a4 f23f
000003a0: b7d6 0b65 c282 f23f 2d09 034f 28d1 fa3f
000003b0: 7dc5 8c03 e942 2440 8139 4091 3931 1dc0
000003c0: 3dbb da87 dd8f 26c0 1bd4 9c4a 91b7 1cc0
000003d0: db30 9aad 63ab 1540 a839 f422 ddfc 1b40
000003e0: 866c e10a c4ae 1e40 a695 61ab ad0c 1540
000003f0: 5e3e ec3a 3a03 e1bf e875 768a 50c5 f03f
00000400: 2310 36b2 4257 2e40 fb76 335b 5583 26c0
00000410: 890c 1b63 27c4 2040 679a 3165 9775 08c0
00000420: ff55 b698 055b f3bf 590f 0235 ca41 0cc0
00000430: 8dc1 1893 5c39 29c0 7828 1b09 f292 20c0
00000440: f31a 569c d07e 29c0 74a6 8acf 34de 3440
00000450: 78b5 1485 6b7e fa3f 2cf4 1a05 3e56 32c0
00000460: 28ac f37b a17e 13c0 3875 6b4e b3ad 1140
00000470: a9d6 3fa6 668d f13f 4271 da3f d082 f53f
00000480: 43c4 75ae f524 1740 519a ae1e 6092 32c0
00000490: 7c08 7bb5 1e01 35c0 dc59 8d2c 6a59 f03f
000004a0: d462 9381 7f46 05c0 d2d8 0bde 9365 2740
000004b0: bf96 7d1a 2e80 2fc0 aebe 4710 5a5d 29c0
000004c0: 9089 48d1 1ba4 37c0 c7ed 3d3f 88ea 32c0
000004d0: 54f6 bbfe b2a2 09c0 76d0 4087 20f7 2940
000004e0: 2898 1001 8e68 2d40 0e58 af93 bc97 31c0
000004f0: fc6f a12f b753 1dc0 8218 7d0c 9419 2fc0
00000500: 603d 5718 016c 2a40 5361 be3d c1ed 0c40
00000510: bd41 7c3c de15 12c0 5858 a59c d0d9 02c0
00000520: 1e05 3367 74e9 23c0 ae97 3a04 5498 2d40
00000530: c914 61ca d35e 19c0 4437 bba8 26ef 2ac0
00000540: d6d0 5446 77ae 37c0 1cc7 2800 2620 0d40
00000550: e341 5e16 b245 e1bf a218 eeb6 39c6 25c0
00000560: 3163 e934 468e 29c0 36dc 7eae 6cf4 25c0
00000570: 8b78 7e81 4b51 28c0 6a09 47cb ead2 29c0
00000580: 4d39 4f34 d928 f9bf 658a a148 1425 1140
00000590: 88f7 4f58 b125 24c0 b8f8 a779 6203 ef3f
000005a0: 9e5a 56e0 a39b 22c0 154c d6fb 570f 32c0
000005b0: e323 c5b1 a351 1740 f6e1 7594 d6ad 0940
000005c0: 5054 6e86 9c24 20c0 5ab9 1ca6 9a67 22c0
000005d0: 2aaa 1599 6963 11c0 c6be 8071 896e 2540
000005e0: b72f 9e48 23f6 19c0 15b6 24e9 fcd8 37c0
000005f0: 1696 95c3 80e6 0040 1fb6 3e4d 8057 0dc0
00000600: 91eb 95c6 5f8e 2240 a98a d014 d2ea 06c0
00000610: c0ac 28f5 e6ca 2bc0 072d 599d 0381 0ec0
00000620: 0c5e 1c61 ac33 ed3f 6ec9 645b 0293 2ac0
00000630: 5f00 c496 2ebf 1240 e8f4 bd3c 77f9 3340
00000640: 1ea9 2aec 9be3 29c0 b8e6 a9e7 5a70 29c0
00000650: 82e2 cb20 e958 38c0 2002 0eca 7843 0ac0
00000660: 7313 03e2 c27c 25c0 6742 9458 7ea6 31c0
00000670: 68e4 938a 742a 1040 41e2 847c 2362 3fc0
00000680: 62ab db23 62b4 1040 d847 be08 bdfe 21c0
00000690: 8757 b5a6 bbdb 3640 051f 6627 2d02 25c0
000006a0: a483 ab2e f9b8 2540 44f2 3e67 1099 24c0
000006b0: a390 8e6a f428 2340 a3e6 c692 b382 3040
000006c0: c09a 322b 808c b43f d2fb 65d2 fd6d 1940
000006d0: 53df e8d4 8ff4 3640 5d41 ac30 4ada 18c0
000006e0: fd6d 1fe4 c760 0840 5910 1f13 8d21 32c0
000006f0: 08be b3c3 4721 0e40 20fa 04a7 b481 21c0
00000700: 18b8 2ed2 47bf 33c0 5273 749a 12fd 2ac0
00000710: 2a26 05ee 8f22 1ec0 3803 d175 a244 1840
00000720: f5bb 9a38 89f0 0b40 a049 cd01 10e4 11c0
00000730: 0be0 c169 6c78 30c0 bcd1 8a44 d147 3240
00000740: 82ed 4d41 5cca 0ec0 99de 92a1 5431 33c0
00000750: b6f1 9e55 29a8 1bc0 1dce 926e 5867 10c0
00000760: ac8f c3e0 74d3 f13f 5fe8 b521 a9ed 12c0
00000770: a58b 9243 a8ef 28c0 4ef3 4cca 5f44 fabf
00000780: aa8b 558b 6ebb 2fc0 8286 7e5c 5f69 2fc0
00000790: 87a1 7fb2 2129 2340 b91d 042c b16f 31c0
000007a0: 02b7 2ba4 2381 d9bf 6aaa a7b0 2236 2d40
000007b0: 8688 9f62 0345 1540 d097 9f8a 3064 0ec0
000007c0: 1c1e fd30 f41d 1440 ac17 24e9 5e25 12c0
000007d0: 0717 69eb 700d 2940 1e66 fe0b 6ebc 2240
000007e0: 8611 e138 2638 2c40 8a24 237f 59ea 16c0
000007f0: f3dc 7a7e 23f2 1140 5ee0 55af cec0 2b40

arr_3 f8 [64]
-3.71324895888383 -6.132125969251754 5.0255871180447045 -0.28938255857485995 25.513850124144145 7.822132662796114 -6.387517716813016 -0.24039634882983155
-30.2305424633389 13.607146219198476 -10.556621614873642 3.9799947314796027 15.33171337546511 2.908984253855725 -1.7489207312345931 -18.4684172137165
6.675872400672326 -3.156750507326703 3.135588486011303 -3.442214432301026 0.5040241791051899 -4.677582884205659 6.2601151448201575 15.69953230061612
-10.11341965530961 1.5786115222142145 -7.454211421516863 19.051049435564153 9.77046625004367 -1.5088477904751414 -11.671150406604378 5.956501559352577
9.246313004209709 19.379279726415618 -3.9078693737656622 9.826447629913751 12.762700127541015 0.28241681879080244 4.521660066438175 -2.990240271609729
4.6806250884510625 -3.076669245724656 11.67346711664701 9.48554526270207 11.048509538761161 18.3308011027701 -16.452271761092955 -7.51761492707711
2.26123270937331 -7.570004007046868 4.525064142790169 8.592890891491281 -3.0577592710961046 14.212395574249621 -4.161527946678251 0.8086623985178003
1.703242314230665 -18.11757336869284 -10.947750426070115 -8.770121083945329 16.997432586932874 -11.256138203569947 7.7920125155563 12.488239549852604
00000000: 2e7f c2de bbb4 0dc0 e98d b307 4c87 18c0
00000010: b8cd 6c82 331a 1440 3028 476c 3e85 d2bf
00000020: a13e 86ae 8b83 3940 17bb 0e25 dd49 1f40
00000030: 7954 c171 d18c 19c0 c9a5 26bc 4ec5 cebf
00000040: 3e61 b4d4 043b 3ec0 ecb1 86de db36 2b40
00000050: 0c42 2082 fd1c 25c0 56a8 4f7a 07d7 0f40
00000060: 6e89 e655 d6a9 2e40 4a1d 5789 9945 0740
00000070: 092f ff4d 94fb fbbf bacb c530 ea77 32c0
00000080: 68a0 04e5 17b4 1a40 facb f468 0641 09c0
00000090: c50f 896a af15 0940 ba6a 64b8 a789 0bc0
000000a0: 1bcd b450 f720 e03f 7cf8 9f49 d8b5 12c0
000000b0: 9bc9 e09f 5b0a 1940 a448 0319 2966 2f40
000000c0: 868e 1c24 123a 24c0 34fb cf27 fe41 f93f
000000d0: d489 83cc 1cd1 1dc0 303a 6893 110d 3340
000000e0: f937 658d 7a8a 2340 b3b8 ab94 3d24 f8bf
000000f0: 3520 ae06 a157 27c0 23f8 0f25 75d3 1740
00000100: 0752 f3bc 1c7e 2240 acfd e479 1861 3340
00000110: 7de8 aa04 5143 0fc0 2cac cc24 24a7 2340
00000120: 2be3 90a1 8086 2940 abff 22fe 1d13 d23f
00000130: b2ec 730e 2e16 1240 b1f7 6d17 03ec 07c0
00000140: 0cf0 7ec8 f5b8 1240 99f8 f7c3 049d 08c0
00000150: 54dc 91ae d058 2740 f510 8063 99f8 2240
00000160: e50b 053e d618 2640 d9e0 8d61 af54 3240
00000170: 6fcc 0615 c873 30c0 d6de bea5 0912 1ec0
00000180: 103b bb2c 0117 0240 c76b 6321 af47 1ec0
00000190: 1e58 266a aa19 1240 491a 1a65 8f2f 2140
000001a0: 4430 237e 4a76 08c0 3d6f da1c bf6c 2c40
000001b0: 137e 0195 67a5 10c0 a271 64f7 8fe0 e93f
000001c0: 848b 4c03 7b40 fb3f 936a cd49 191e 32c0
000001d0: 807b 398b 3fe5 25c0 b102 8b4f 4d8a 21c0
000001e0: 64d7 f4bd 57ff 3040 a02d ef8b 2483 26c0
000001f0: 1659 3154 052b 1f40 1e76 c688 faf9 2840

arr_4 f8 [64, 32]
2.207093352587279 -12.333878757413126 7.062730826828721 25.378318916990462 15.693353048246728 -4.03635738918226 -3.8086706781856448 5.013237542300268
0.530774094320269 -5.784993132580566 -4.901867694193476 -1.7114697070252634 -4.720181767387029 -0.5974219093820976 -8.076690734143591 8.149519860393493
-5.126170285783983 -7.604092875509846 25.524370314760912 5.239133556827076 11.619592564236438 -5.22689427934538 13.692221688698538 -1.2029665405731307
-13.00431503742577 14.859828380994951 6.153051169017482 -9.643913886577131 7.575738805046708 -5.840675417828262 -9.0030119014002 -2.4283162186961706
-10.566664056327461 -2.386457641287909 -0.3283613856409393 15.588442894567645 4.5225824845276055 7.605207956878994 2.1760182479857364 20.622695717914553
6.506795540555235 4.794218049456809 3.739443982808935 -1.6926224050797793 -12.620913582888875 9.534936858933253 -1.096287939342053 9.708429642875265
3.5211608880564302 2.4766748421415063 6.168933566175431 3.7606486840200177 -5.5931461799797715 7.876491876487963 -8.234625502291994 21.005314597853463
-25.862150389967674 -8.07900217913718 0.46964038399088626 4.0514861855798 14.943475178934701 -6.3097549045800285 11.780306043795637 18.683824879255233
18.56427028530492 12.001476405886327 -10.240157850796049 -0.8595132363593927 -7.5967751708133795 8.47411525242485 -11.46692872720571 -7.992248633245819
5.279642658311353 -7.591263298740808 -2.160757787883021 -19.341942610488225 21.428758743893198 -2.347488456802882 -4.024574114246416 2.3125787292521442
5.7546887813273395 5.832904894802805 11.867081703236796 5.143411879663773 -11.706855969642577 11.89435049827426 -3.387710950855619 7.538781560692716
1.1575266161375095 4.384327009719588 22.394681767076086 22.615083598173754 6.234951804033017 2.224678303905316 -10.521922746127998 10.860747031352945
2.3642548580071088 -2.1915377130337017 7.709780601282977 18.560594538574858 9.838485581923983 2.7544084689625095 -9.250598792897488 -26.640546224329775
4.2592330643946665 -11.496318833504063 -1.6502992295641639 6.337806955286704 -12.926393479344519 -1.9579920377140418 -3.526089024960301 7.652519176685653
-8.348051505140578 2.5388738632114496 17.35619626403576 8.211221340334417 -10.392337116688296 -10.853709557887942 -0.9794144123573552 -0.5322909195077582
4.185624123093748 2.270147537745955 -28.187322623438114 11.927231663170295 -12.031600493119194 1.6091607106919075 -0.03751769359119922 11.406649482226097
-2.0149212510807137 -16.8259500617029 16.807304794263224 -16.324774754676948 10.018051969861503 -13.348185347699287 1.3730646432455762 9.003657197500683
-25.701424161076343 -6.507730175382012 -1.0045518648336147 8.177318576487924 3.4631726002507386 -16.43866386324015 8.681221814697551 -5.302447491454988
7.289988898269437 6.4917338581525605 6.274316674848361 6.121195186600318 -4.16682178388427 9.254430467859162 14.115855203402669 -4.856379396286002
1.9480637253703121 -22.545700218498208 -13.342480289343154 -3.9726022631514795 -12.190230414040457 -23.2087760394951 -10.579876489686022 5.814386732715836
-14.114365204313476 4.542029128413421 -16.04008139047616 -7.805586923551678 6.656402761713838 -3.4297262404125206 -4.966094066972 2.5739828296265457
-6.27135295117478 8.44285903863926 -4.3857927027064 -32.94534173848616 10.45269572592882 6.168935083828166 -13.048515274683133 3.377769919938107
-15.419069975837608 8.941719544991605 -11.874855657028366 -0.6587937487729456 14.698281540206988 -17.029692695216337 15.477630082010284 9.906919100747222
-15.1696446251878 -22.03909961590589 -10.953785714520322 -3.809383212966487 -10.83230247127889 6.968994950447884 -9.259682658997942 11.255357131501851
-9.791004416860702 0.43453805268256473 -13.105630041524211 -4.209852105850206 -12.830606354054574 -2.374890559457118 -17.09540569603175 -8.63408766285531
7.644422565547497 11.585103255370525 -3.7688743325179024 3.4654030321579685 -15.611699658773333 15.901696397467749 -2.123519003964573 4.828329705090552
2.0844681514371857 0.779534592144415 6.316684481057921 -3.997693831370772 0.9241074330178624 6.981836707368553 -5.950129910550793 -6.845091116428681
-2.2140214249168806 -2.564888114655061 10.679872576475953 -9.751849661050683 1.0420709935576307 14.45106215614912 -29.00531426837638 12.329373016382288
-0.6653031571250174 -3.9082648016749584 12.929674806873159 4.097950521737987 2.889150595483022 -12.548607256777432 4.846749522504095 -4.036268574839822
-8.066478833800394 2.6775945240292987 0.44380260687606765 -9.593407029004613 3.110221525306992 18.1629506656934 6.245623197532866 -2.1155133922233103
17.5837606189542 -20.091955699983785 -0.6942692484053958 0.9271265565994896 -5.826544666849944 -11.052116643437367 14.778303910040115 -8.214228392776137
7.786041030598966 7.791325730433971 15.986724018579318 -17.621809465942306 -17.52493273051857 -5.930670767060377 -8.99090891519965 24.6176398978523
00000000: a0a6 448f 20a8 0140 45d6 0f28 f2aa 28c0
00000010: bab8 8682 3c40 1c40 a3ee 2f82 d960 3940
00000020: 6c9a b52b ff62 2f40 e405 16df 3a25 10c0
00000030: f654 2055 2878 0ec0 4909 6d24 8e0d 1440
00000040: 286d 15f4 19fc e03f 8f12 603d d523 17c0
00000050: 0785 6f34 839b 13c0 944a 3c0f 2e62 fbbf
00000060: 3c69 4854 77e1 12c0 32b8 568d 141e e3bf
00000070: 1d1b 0602 4427 20c0 2efc fcdd 8d4c 2040
00000080: 3ead 8cc8 3281 14c0 dc3e a052 976a 1ec0
00000090: 2fe4 0822 3d86 3940 36cb 576d dff4 1440
000000a0: 067b 903c 3b3d 2740 68c0 55f9 56e8 14c0
000000b0: 9015 95e1 6a62 2b40 061a dfd7 593f f3bf
000000c0: d83f a194 3502 2ac0 8617 f16c 3bb8 2d40
000000d0: ba2d 1672 b99c 1840 fc93 b814 af49 23c0
000000e0: dcda 2a79 8e4d 1e40 7c7e 4804 da5c 17c0
000000f0: 7806 a4c6 8a01 22c0 e72b bd0d 316d 03c0
00000100: 847d 8bca 2122 25c0 8af7 941a 7717 03c0
00000110: 8836 2679 df03 d5bf 9676 1763 482d 2f40
00000120: b208 e2dc 1f17 1240 0a4c 78a2 bb6b 1e40
00000130: 9dc8 5441 7c68 0140 60cd 8ffc 689f 3440
00000140: 04c6 0169 f506 1a40 583d 117f 472d 1340
00000150: 5e1b 5b9b 61ea 0d40 57b6 243b fb14 fbbf
00000160: c04c 9862 e83d 29c0 2a16 753e e311 2340
00000170: d792 e738 658a f1bf 1b55 474a b76a 2340
00000180: e440 5166 562b 0c40 0197 4ee6 3ad0 0340
00000190: 36ae b7eb fcac 1840 2de4 2cfa ce15 0e40
000001a0: b30a 53b6 615f 16c0 e2e6 2216 8781 1f40
000001b0: aa4d 76d5 2078 20c0 d6f8 274c 5c01 3540
000001c0: 1225 51e3 b5dc 39c0 f269 3ff9 7228 20c0
000001d0: 90ca 878a 960e de3f 4b0b 6dcb b834 1040
000001e0: 7e39 bc2d 0fe3 2d40 8cc9 c363 303d 19c0
000001f0: 62f2 1546 848f 2740 a697 b425 0faf 3240
00000200: 3e7d 7504 7490 3240 abfe f583 c100 2840
00000210: e617 46f8 f57a 24c0 1491 14e7 2181 ebbf
00000220: 47d5 c607 1963 1ec0 2766 ff3b bff2 2040
00000230: a7d2 3948 11ef 26c0 7d2a 9506 10f8 1fc0
00000240: 180e 20a5 5a1e 1540 daaa 4d20 745d 1ec0
00000250: 6f47 0c61 3b49 01c0 e227 098d 8957 33c0
00000260: 34e5 0e22 c36d 3540 a8a5 2d07 a8c7 02c0
00000270: ec10 e4f4 2919 10c0 6e81 dc46 2980 0240
00000280: 09d6 c922 cd04 1740 ec6c 4f05 e554 1740
00000290: 5ab9 0c22 f2bb 2740 200e 5490 da92 1440
000002a0: c931 9106 e969 27c0 9e7f fa4e e8c9 2740
000002b0: bdce f132 081a 0bc0 c573 7b5a b627 1e40
000002c0: 5ff6 08a1 3a85 f23f 44dc 0605 8d89 1140
000002d0: 56eb 41dd 0965 3640 5876 621e 769d 3640
000002e0: 00d5 a934 97f0 1840 1427 7b23 24cc 0140
000002f0: 0851 4b75 390b 25c0 7994 bbd5 b3b8 2540
00000300: b265 7473 fee9 0240 6c71 abec 4488 01c0
00000310: e561 d7b9 d0d6 1e40 c77e a91f 838f 3240
00000320: e40f 71fb 4dad 2340 c027 b04e 0709 0640
00000330: d6d2 277c 4e80 22c0 9a12 5dd6 faa3 3ac0
00000340: c377 7664 7409 1140 e093 8c80 1dfe 26c0
00000350: 2979 392a a067 fabf 5a45 0511 ea59 1940
00000360: 5406 023f 50da 29c0 9df6 7c75 ef53 ffbf
00000370: 84e9 a729 6e35 0cc0 ca82 affc 2d9c 1e40
00000380: 02ce 8fce 33b2 20c0 804c 9919 9d4f 0440
00000390: b0fd a8ad 2f5b 3140 3fe8 1934 256c 2040
000003a0: c85d 1a69 e0c8 24c0 9ad2 4e6b 19b5 25c0
000003b0: ecc9 c9e4 5c57 efbf 7dcb 67f7 8608 e1bf
000003c0: 3325 0840 14be 1040 deb5 bd1c 4329 0240
000003d0: b677 1d60 f42f 3cc0 a343 ca1b beda 2740
000003e0: 05f8 98f0 2d10 28c0 b5e0 264d 1fbf f93f
000003f0: a8b8 fde5 8435 a3bf 5e31 665c 34d0 2640
00000400: ae41 6b08 8f1e 00c0 a524 9776 71d3 30c0
00000410: ba43 e986 abce 3040 67e7 3570 2453 30c0
00000420: f85d 981b 3e09 2440 31a1 9259 45b2 2ac0
00000430: dc89 a0a1 12f8 f53f 2652 2f5b df01 2240
00000440: 7772 a888 90b3 39c0 14d5 496b ea07 1ac0
00000450: fc89 e9f9 a412 f0bf 52fa 1d80 c95a 2040
00000460: 75d7 13d6 93b4 0b40 b08d 6246 4c70 30c0
00000470: 40e5 0e1b c95c 2140 c439 92cb b435 15c0
00000480: ca14 89d9 f228 1d40 9467 9c14 89f7 1940
00000490: 7ce2 6c78 e618 1940 2086 4b97 1a7c 1840
000004a0: 5c2c 6854 d3aa 10c0 461f d5b5 4482 2240
000004b0: 2d5f 8b5f 513b 2c40 0011 70b8 ee6c 13c0
000004c0: a6d4 6fde 442b ff3f afde 6f02 b38b 36c0
000004d0: c681 9493 59af 2ac0 7002 02b2 e3c7 0fc0
000004e0: 4004 7ee1 6561 28c0 e2d1 b558 7235 37c0
000004f0: 6cd7 3d92 e528 25c0 453e 7d98 ee41 1740
00000500: 4aa7 7813 8e3a 2cc0 630f 10af 092b 1240
00000510: f845 25c6 420a 30c0 76f5 4ac7 eb38 1fc0
00000520: 9342 aa0b 28a0 1a40 4070 a64f 1470 0bc0
00000530: 7b04 5ac3 47dd 13c0 43b1 4d4f 8497 0440
00000540: 04e0 4b8c dd15 19c0 2263 7f6b bee2 2040
00000550: 44a3 043e 0d8b 11c0 c12b 45f5 0079 40c0
00000560: 78ce f3bb c7e7 2440 87c1 9051 fdac 1840
00000570: b43d 7cfe d618 2ac0 a85f 5c3c ac05 0b40
00000580: 84ea 0157 90d6 2ec0 637c 6f10 29e2 2140
00000590: 9a50 a714 edbf 27c0 d43f b9a0 d614 e5bf
000005a0: d62d 7528 8565 2d40 5fe2 c2f0 9907 31c0
000005b0: d3a3 1bee 8bf4 2e40 73a7 4bb3 57d0 2340
000005c0: 603f 0aa9 db56 2ec0 1a9a b36e 020a 36c0
000005d0: 7883 e699 56e8 25c0 cffa ece7 9d79 0ec0
000005e0: ae0b ad8c 23aa 25c0 b6a6 5836 40e0 1b40
000005f0: 0e78 1f20 f584 22c0 9f33 812b be82 2640
00000600: 08d1 ea87 fe94 23c0 aee7 48b1 78cf db3f
00000610: aaa4 0b24 1536 2ac0 537e 6e78 e3d6 10c0
00000620: 4407 6d3c 45a9 29c0 6994 239f c6ff 02c0
00000630: f94e f881 6c18 31c0 7185 5d23 a744 21c0
00000640: dc52 4f82 e393 1e40 f732 65a7 922b 2740
00000650: 8e2f 0796 a726 0ec0 279f 9439 25b9 0b40
00000660: c8cf 9ab2 3039 2fc0 0a17 7426 abcd 2f40
00000670: ddb2 1388 f7fc 00c0 4fad 86a9 3550 1340
00000680: 70cf 5fa3 fdac 0040 fe8c 6b87 f2f1 e83f
00000690: 922d c5ef 4844 1940 6a44 49e7 46fb 0fc0
000006a0: ddab 59c0 4992 ed3f 1ba4 109a 66ed 1b40
000006b0: 7911 f3da eecc 17c0 25ce cc90 5f61 1bc0
000006c0: 634a 65dd 50b6 01c0 9dbd 520f e484 04c0
000006d0: add2 2242 185c 2540 5771 5370 f280 23c0
000006e0: 440b 57a2 52ac f03f 583f 729e f1e6 2c40
000006f0: f4e0 a046 5c01 3dc0 f617 7b94 a3a8 2840
00000700: 46e1 b8d8 294a e5bf 3c6a 1a56 2044 0fc0
00000710: e4de 1656 fedb 2940 92f6 3d24 4d64 1040
00000720: 4c8c c6fc fa1c 0740 296a e40c e318 29c0
00000730: 1d3c 8c4e 1263 1340 fe3c db96 2325 10c0
00000740: 0b19 8283 0922 20c0 773c 85ad b66b 0540
00000750: 6462 9a0c 4367 dc3f 2a95 cd0b d32f 23c0
00000760: f411 b4d2 bbe1 0840 bc03 8422 b729 3240
00000770: a12b c2a5 84fb 1840 09cb 0e49 92ec 00c0
00000780: dc19 ff55 7195 3140 741c a468 8a17 34c0
00000790: 2ea1 9024 7437 e6bf 0122 fb4f 05ab ed3f
000007a0: 0437 a3b9 614e 17c0 1548 5e08 af1a 26c0
000007b0: 44f1 9fd9 7d8e 2d40 41b2 0958 af6d 20c0
000007c0: 60f2 9ef0 e724 1f40 f3c9 d24a 512a 1f40
000007d0: a5f3 fbe3 33f9 2f40 c090 b8e7 2e9f 31c0
000007e0: 602d cefd 6186 31c0 6078 efc1 01b9 17c0
000007f0: d631 d069 58fb 21c0 fcfa f9a5 1d9e 3840

arr_5 f8 [32]
-2.927617138213495 -2.3598775087064237 28.629390170338688 -7.181672867836522 15.789962441137238 13.389346730253468 -7.060413189364445 -4.4616183439943695
-0.10704744368964256 -5.308152668555759 5.079608616245093 -14.15194573315324 -15.189438958533898 -4.2229024138318385 -10.264224844434066 -2.4871337649123255
2.7649501010767326 -1.9929200489068042 6.733529148489746 3.3890556205927087 6.520013042638004 3.7128322112118184 -17.210599119661577 10.257091213514308
8.63782406650487 2.0431515847037276 4.161323019631161 0.7735330440238014 5.740280602739525 8.571324244270249 -9.290497509068244 -6.882314493334747
00000000: 47b0 be88 c26b 07c0 2cae 9375 07e1 02c0
00000010: 4e07 d6b6 1fa1 3c40 acb6 c773 08ba 1cc0
00000020: 6a81 03f5 7594 2f40 827c 6274 58c7 2a40
00000030: f644 82f4 dc3d 1cc0 0bc2 aa7a b2d8 11c0
00000040: 6675 c415 7667 bbbf 0b7d 865f 8c3b 15c0
00000050: 8c02 cdeb 8451 1440 e051 c5d4 cb4d 2cc0
00000060: 98fb a624 fe60 2ec0 c76d c687 40e4 10c0
00000070: 1f45 937a 4887 24c0 389b 2863 a6e5 03c0
00000080: 5a92 9928 9e1e 0640 228f 1922 00e3 ffbf
00000090: 6ab4 dd43 22ef 1a40 542a 7631 c91c 0b40
000000a0: a67e 8e4c 7e14 1a40 6085 d55f e1b3 0d40
000000b0: 4b83 ebd2 e935 31c0 0c44 a475 a183 2440
000000c0: f47a 44e0 9046 2140 ad95 a8db 5f58 0040
000000d0: 97a1 95dc 31a5 1040 4ba4 ce5e c8c0 e83f
000000e0: 8984 4a1e 0cf6 1640 f31a 819c 8424 2140
000000f0: ff08 ea16 bc94 22c0 61a3 5673 7d87 1bc0

arr_6 f8 [32, 1]
-12.785009186331436 5.587775034246257 1.9249031010245183 -9.597120608084456 2.9152687060963425 -1.9304304280948368 -7.915855244203122 -17.042140133461366
-5.443892684237471 7.928269006642892 -10.416372238665982 -15.74747349760754 14.074625452355262 -18.16918553794259 -3.000762633714016 -17.30118185079433
14.8195681118857 -3.700647038702529 4.209211043208935 -0.044461072117490286 -8.890825301688672 -1.2855299290681226 0.7773677737516757 -10.433921490110201
-0.05133012127671188 -8.061020237229636 -14.091908938515088 -15.717565865881094 -11.605649024537772 2.3333375933362825 1.0191833139727322 -9.064457000669146
00000000: c8b4 5cb9 ec91 29c0 c9f8 d5b2 e159 1640
00000010: 9de8 ad31 67cc fe3f 12fb d6ca b931 23c0
00000020: 62e3 3d66 7852 0740 feed 3d04 0be3 febf
00000030: d8e3 06f5 d5a9 1fc0 ce10 1fb2 c90a 31c0
00000040: 33ef c6cd 8bc6 15c0 bfaf 8526 8cb6 1f40
00000050: be10 f8bd 2ed5 24c0 c6b3 a5d8 b47e 2fc0
00000060: 4fa1 aa4e 3526 2c40 6a6b 50be 4f2b 32c0
00000070: 5be2 f6d6 8f01 08c0 764f f740 1a4d 31c0
00000080: 7fc9 7a6e 9ea3 2d40 0422 aad5 ec9a 0dc0
00000090: 7c2d 726b 3bd6 1040 c022 6105 9ac3 a6bf
000000a0: 8467 0241 1ac8 21c0 5107 b6d4 8791 f4bf
000000b0: ed49 a761 32e0 e83f 1c1c 22f5 2ade 24c0
000000c0: 40cb 5d10 f147 aabf 4597 660b 3e1f 20c0
000000d0: c743 3ab0 0e2f 2cc0 d55e 0dcb 646f 2fc0
000000e0: f27c 02a1 1736 27c0 e240 6fe6 acaa 0240
000000f0: c044 a229 934e f03f 95be 0b82 0021 22c0

arr_7 f8 [1]
8.298579639916435
00000000: 9562 396e df98 2040
