weights/global_round_29.npz (npz, 129966 bytes, 8 tensors)

arr_0 f8 [43, 128]
00000000: 0eed c0ed 3bda 21c0 b234 6676 2d32 39c0
00000010: beed 8d1e 4a8d 25c0 9808 9e38 2c7d 3340
00000020: e631 9c70 f84e 1240 5b62 b7a7 e3a5 3540
00000030: 87e9 a1ef 0de9 1840 9d23 a358 4927 09c0
00000040: f741 f92a 204e 2ac0 339c 3966 8a9b 36c0
00000050: f4c7 9db7 9f1b 3240 5588 eb45 01bc 36c0
00000060: 24e2 cf70 6616 21c0 6efa db31 dc29 ed3f
00000070: c897 88c1 f412 0ec0 ff29 95d8 8ceb 08c0
00000080: aedc 8e1b 514e 3040 288a 5d53 a33c 2fc0
00000090: a3da 0f18 5388 1740 fcee f577 516b 21c0
000000a0: fe16 375d b1f1 2140 269b c8b1 35a7 1440
000000b0: a63f 6019 4ade 1d40 88e4 75c8 fbd3 3040
000000c0: 08e4 e903 6d4d 3ac0 66ed b74a a6ee 0740
000000d0: 3595 64af 5f9a 1f40 e694 d624 af64 12c0
000000e0: 7800 2f7e c0f6 36c0 8ef3 dab0 7bad 1c40
000000f0: a340 e600 fed7 1c40 63c4 fb77 6596 4040
00000100: 38ca 4bfd e012 2140 29b1 639f 1d79 25c0
00000110: 6d3c 163c cce1 0740 32a0 f729 fef1 2fc0
00000120: 4c80 9415 03a3 05c0 78ee b7cc 6c72 3c40
00000130: 3c8e 94a4 8214 2ac0 1419 4f07 b354 03c0
00000140: bfb5 3653 0734 3040 9046 d7d9 a343 efbf
00000150: cffd aab5 2c02 40c0 310c bc16 7b10 1740
00000160: d6cc ad27 a470 3ec0 d3e2 9722 b56d 11c0
00000170: 2061 1a43 ff7b 1fc0 9a71 f250 9c4d 37c0
00000180: f89f 8f77 ef17 27c0 964b 94e3 89a7 f13f
00000190: f9ab 3f96 2a60 2540 62c8 f0ff 5fd6 00c0
000001a0: a847 3434 ff92 23c0 8728 b6b9 4e68 1ec0
000001b0: 3174 bd89 12eb 2bc0 d6e1 7558 ba13 37c0
000001c0: 8eef e468 3e14 ecbf d857 2ad8 df32 0440
000001d0: a064 a557 d4e2 1c40 ac5c ea62 7c5d 23c0
000001e0: 9746 f8d3 7f16 2040 3abb 00d9 5c11 1b40
000001f0: 9e70 a049 4a1c 2340 0c5f c23c 001b f1bf
00000200: 0a10 ab6b e77b 1440 d2cb 927f 96fc 22c0
00000210: b9f1 91de d49b 29c0 d0a3 7fff f95d f53f
00000220: b496 b4be 8476 0dc0 2911 2a6a c53b 3bc0
00000230: d952 f0b4 25c4 30c0 ebd0 68f1 db9e 1a40
00000240: 52d3 a7ef cb02 08c0 1d63 9298 62d1 1fc0
00000250: 1b41 1a47 7f01 1640 a838 c41e 4f46 35c0
00000260: 05f0 e291 5fbc 2040 16e9 131a 468a 3540
00000270: 730f 4d6e af84 3b40 652d a8f9 84d1 1c40
00000280: ebf8 c8cd 4b0e 40c0 15ac 8606 12f9 2140
00000290: d650 3c9a 33bb 16c0 0edf e8f6 f067 3f40
000002a0: 0cff ea48 8fc3 3540 0067 f2e6 aa64 1cc0
000002b0: 821c 3320 a59e 29c0 86cc 0fcb 3528 3740
000002c0: 65f2 2006 f91c 3ac0 7fc5 e648 92b6 1d40
000002d0: 10e5 9638 de5b 15c0 c5fa 0a06 9bdb 0740
000002e0: b601 8138 7208 2540 b429 eb53 fbea 25c0
000002f0: ca7f 9736 99b0 3ec0 3c8e f0b4 d502 0a40
00000300: b047 36f0 8105 2d40 f57c 9bc0 239d 1340
00000310: 0d0f dd9a 9793 29c0 2109 d48c 638a 0540
00000320: 7262 bc5e ef54 17c0 64be 8bda efb3 2240
00000330: de32 1ae9 b1ca 1d40 1e16 7bfe a08d 0040
00000340: c872 5b99 f69d 3740 da5c d932 b724 1a40
00000350: 36e6 3ae1 148e 09c0 acc8 c682 6ffd 14c0
00000360: d48f 0c16 05d2 1dc0 be0d 5a6f ed96 1a40
00000370: b157 ba44 807b 20c0 7c7a ba68 b3d2 3c40
00000380: 3898 d441 fcae d7bf 6485 ade8 9a3a fbbf
00000390: 5bc1 e8ca 4172 29c0 ac3c 25dc da59 20c0
000003a0: 0ed9 e61f 9826 24c0 3286 cfb1 69ad 3240
000003b0: f2fd 15e8 33e3 2640 07d2 2102 7314 36c0
000003c0: 39ff 3f52 4323 20c0 0550 bd29 9f4d 1ec0
000003d0: bceb d698 7891 1f40 f006 d770 70b5 c9bf
000003e0: b0aa d76d 6b54 1c40 04fe 9563 b8f4 21c0
000003f0: 291b efc9 a7eb 4240 df39 0382 4cac 3ac0
00000400: c653 5153 5e21 28c0 883d fa6b 2615 3340
00000410: d3d7 f7f8 d01c 11c0 26f4 ec26 cd47 2ac0
00000420: 92f7 977d 4f0c 0240 e58e 6b3b 1a01 01c0
00000430: 7dd9 c20d a1db 0940 863c 0dff 2fcd 1cc0
00000440: 2e86 9bc6 ac7a 0fc0 50f8 6e31 d0d5 c2bf
00000450: 3d30 b76c 7003 32c0 9d59 2c40 7a8c e13f
00000460: 6bba e442 db46 0140 7e11 4057 87fb 31c0
00000470: 95c9 df50 d713 2040 803d 2ca7 7bba 1040
00000480: 5642 e588 3255 3840 a26a 6be1 e80b 08c0
00000490: af62 62c1 79f3 2a40 7e6c 2bfa 6246 36c0
000004a0: 32c7 22e1 410a f3bf 3086 a10f 7976 4a40
000004b0: fced 345d 703c 23c0 5d0c 6252 0e14 30c0
000004c0: 655d be53 a46e 00c0 d9e9 cdbe eef8 16c0
000004d0: 849d 7604 d93c 39c0 5f24 b320 d184 36c0
000004e0: fd2b 5b33 e78d 4240 1b71 de0b 4e2f 1340
000004f0: 3d4b 3836 7e74 35c0 df42 3e37 f980 3340
00000500: 6c24 3297 3511 1bc0 6c87 62cf 388c 2340
00000510: 48ef caad ca7d 2ac0 b007 0cb6 6424 1440
00000520: 644a fab3 5933 3d40 c264 1a95 3c7e 35c0
00000530: dc94 680c c773 ffbf fb96 6979 4502 29c0
00000540: 6082 7c6e 7ee4 c4bf 85a8 bea9 9b0e 34c0
00000550: 857c 444f a1ab 23c0 783b 4bb6 ced3 f3bf
00000560: eeb6 99d9 55a7 2ac0 2e79 8bc7 f017 3540
00000570: 0e45 9715 b7ac 2440 95a2 fad0 c471 2940
00000580: 10c7 4586 fe29 2f40 6fbf da36 400b 2540
00000590: e080 e5ef 0e3b 4040 0467 1d19 c809 f4bf
000005a0: 2468 b1ed 4889 19c0 8c90 927a e415 42c0
000005b0: 8eb0 96a5 5d4e 28c0 ca79 27fc ba6a 0fc0
000005c0: 28af ccff 779e 2fc0 7450 102f 9785 e1bf
000005d0: 9cba 9200 4b7a f03f 54b1 9f5b 60ea 0d40
000005e0: 645b b933 bd71 2840 a5bb fd21 79f7 2c40
000005f0: bcdf 73f6 1423 19c0 04e0 057b c39e ddbf
00000600: aab6 e3f6 10d7 1ec0 5894 75a5 0055 3ac0
00000610: 0c4e 2417 2512 2040 d55c e600 d1e1 e03f
00000620: 3254 506f cebc 2740 517c ca30 b9cd 3040
00000630: 0ab5 fefa b1de 2a40 d064 85e6 2713 3bc0
00000640: b76c 558b e030 0c40 8c4c b717 dd30 3c40
00000650: e221 8574 d9ea 10c0 f212 18d4 94ca 2440
00000660: fc69 b96b 8435 f2bf a6a5 2a25 9b84 21c0
00000670: 7e6a 03cd d183 22c0 8adb 46a8 35ef 3540
00000680: c059 9368 4339 b2bf f030 e297 b222 3ac0
00000690: b68e c856 8658 39c0 ba3e e6a9 8da0 13c0
000006a0: 43af 1a23 5842 20c0 2c5c 1d23 1d9a 35c0
000006b0: d60e baf2 9dc8 1ec0 4c02 77fb e8b1 25c0
000006c0: de36 fe85 dfce f5bf ea14 f747 a7fa 2bc0
000006d0: ac42 36fe ffb1 10c0 3409 a4b0 ee81 f43f
000006e0: 8d09 83bb a6f8 32c0 872f 7b1e 6a4a 1cc0
000006f0: 0295 400e e545 3dc0 036b 6b0f 7bd4 3140
00000700: 8274 7564 963b 12c0 56d2 a807 98d4 3840
00000710: 9b7f 4bb5 1ff6 23c0 8f84 c57b 39bc 1e40
00000720: 9629 59ab b08c 41c0 409f 3deb 08ce 2540
00000730: 1958 b033 82f0 1040 38a5 40bc 77da febf
00000740: c4ce 6ca7 2997 27c0 b62b 5a5d 835f 13c0
00000750: 00f5 b210 b5d0 1a40 4eec 0127 ab44 0340
00000760: b0f4 3c79 10c9 0bc0 bce7 7a40 554e 0d40
00000770: edd1 6355 99cc 21c0 77a0 8be9 f570 1dc0
00000780: f7e7 7b3b cc66 04c0 5cdc eec8 3d29 ec3f
00000790: 885d d7af 7fc2 30c0 1722 fa44 612a 1ec0
000007a0: 3ddd 92ba 99b7 22c0 4d1d 2fe5 12ac 0ac0
000007b0: 84ea ff59 2a6a e8bf fe26 1eb9 283f 0640
000007c0: e9e0 a4b1 4c62 2740 19ce b254 9aaa 35c0
000007d0: cc2e 40e7 db8e ffbf abe2 f35e ec38 23c0
000007e0: d6d0 4002 450a 3fc0 e1c8 ba3c 663e fabf
000007f0: fbfe 006f 9312 1fc0 8b74 2283 9db5 04c0
-8.926238469887291 -25.196006202652548 -10.775956110787657 19.488956011373915 4.577119597943669 21.648004991790327 6.22759222436651 -3.144182865599261
-13.152589171339953 -22.6075805559778 18.1079058418472 -22.734394426348747 -8.543750310303103 0.9113598798574694 -3.759255897503838 -3.115014736225248
16.30592510450213 -15.618433575790803 5.883129478423743 -8.709605931063827 8.972056305861312 5.163290765637418 7.4670795407290935 16.828060654432676
-26.30244469127868 2.991528114069001 7.900755634798135 -4.598324370953582 -22.96387470862871 7.16941715561269 7.2109298840079274 33.17497157853429
8.536872783185672 -10.736554127616346 2.9852528280530835 -15.972642241933588 -2.7045957265800435 28.446972651391178 -13.040059226164082 -2.4163570948613913
16.203236771447106 -0.9770068411546209 -32.016989429943 5.76609454653503 -30.440004806453395 -4.357136288185489 -7.871090935216017 -23.303166445913668
-11.54674886348947 1.1034029855552254 10.68782491233104 -2.1046752925258696 -9.787103301412415 -7.601862813704549 -13.959125809075063 -23.077062157420947
-0.877471165534631 2.5248410118028737 7.22151314684848 -9.682589617832797 8.043944000298593 6.766955748242987 9.55525426944251 -1.0690920232208923
5.120999986949764 -9.493335711163954 -12.80435843974634 1.3354434948362162 -3.682870378385667 -27.233481059332153 -16.766200359986076 6.655135890982119
-3.0013655398455876 -7.954477676329387 5.501462088563382 -21.274644778161615 8.367916640236226 21.540132169590912 27.518301862538873 7.204608822717408
-32.11168834984877 8.986465648593404 -5.68281403535021 31.40602057633719 21.763905103084696 -7.098308189911904 -12.809853559722118 23.157070819241675
-26.11317480377547 7.428292407117055 -5.3397148935412275 2.982229277811117 10.51649643492497 -10.958948728996667 -30.68983784865103 3.251384175864386
14.510756975770931 4.9034566969778455 -12.788266028866497 2.692572689266982 -5.832944374321061 9.351439313467559 7.447944299911539 2.069154728061007
23.617044052912007 6.5358550973098435 -3.1943757625674847 -5.247495692618184 -7.455097527043069 6.64739011752266 -8.24121298575105 28.823050065543143
-0.3700552599788156 -1.7018078888871395 -12.723158207809936 -8.175497893853695 -10.075379368714973 18.67739402119168 11.44375539082009 -22.079879887825907
-8.068872995674257 -7.575802471332286 7.892061603658416 -0.20084958562625088 7.082441059387449 -8.977969276485062 37.841058007956526 -26.673042417323696
-12.065172771146432 19.08261751994499 -4.278140916945591 -13.140237060952199 2.2560109912873907 -2.1255383150290634 3.2322407794082992 -7.20037840383805
-3.93489985620615 -0.14715006269210784 -18.013434214328516 0.5483981374152794 2.159597895245772 -17.982533887044603 8.038752105062295 4.182112323832712
24.332802349063364 -3.0058152781396794 13.47553829504008 -22.27494777259971 -1.1900042337769716 52.92556949030802 -9.618044769965302 -16.078343533456394
-2.0540243666143163 -5.743098241155587 -25.237686423262417 -22.51881603597246 37.10861818267583 4.79619616074731 -21.455050839179638 19.503802731228344
-6.766805994449083 9.773870926644769 -13.245686942121793 5.03554043243814 29.200587509733296 -21.493111914581057 -1.9657659992893093 -12.504436296595932
-0.16322307963220606 -20.057062729880744 -9.835215069875867 -1.239210807881788 -13.326826858533845 21.093517753172982 10.337334322658105 12.722204714388946
15.582019992845318 10.521974291041003 32.46139334398481 -1.2523880940484 -6.384067262604763 -36.1710351195953 -12.153058218617186 -3.9271144580409088
-15.809509271369805 -0.5475574416364126 1.0298566839589176 3.7394416006192532 12.222146622063242 14.483346044753327 -6.2842596538757185 -0.46281516088447483
-7.710025651596576 -26.33204111214249 8.035439227277514 0.5275654809546731 11.868762472682736 16.803607034144367 13.434951633064447 -27.0748275828999
3.523865784210638 28.19087360596727 -4.229345150590662 10.395666721285554 -1.1380657394389564 -8.758996163803044 -9.257460028330794 21.93441249589845
-0.07118626883616397 -26.13553761741872 -25.34579985042975 -4.906790404012719 -8.129578682906532 -21.602007097881298 -7.69591502438171 -10.847480638768637
-1.3630061372854736 -13.989557503615703 -4.173828098356051 1.2817217731504345 -18.97129413556245 -7.072670437115341 -29.273026362197022 17.830002750134565
-4.55819088904275 24.83044479247686 -9.980710664239998 7.683813032084017 -35.09914152005801 10.902411795875764 4.2348716808683315 -1.9283368447889426
-11.7952396698305 -4.843274553898416 6.703815709040327 2.408529572244823 -3.473175952122425 3.6632485425479597 -8.899607342181264 -7.360313080927987
-2.5501942298114915 0.8800343441461211 -16.759760847167428 -7.541386678473393 -9.35859473269249 -3.3340204148295585 -0.7629596479230973 2.7808393919302707
11.691991378189828 -21.666417401937085 -1.9723776849013346 -9.61117836691968 -31.0401154907457 -1.6402342197657662 -7.768140539584915 -2.5886793370141894

arr_1 f8 [128]
00000000: dbf9 7402 440e 3540 aef1 8976 d5c9 2640
00000010: 09fc 1be4 4622 30c0 2201 b905 3028 20c0
00000020: 360b c745 a668 3140 7e5b be4f b938 12c0
00000030: 55bb 332f a306 3040 5a21 e648 96c5 23c0
00000040: 26a9 9617 05ad 3340 b58a aeb9 ed8c 12c0
00000050: 3f35 701d 1b68 2040 29a5 661a def5 3540
00000060: c612 8d81 0772 20c0 1a2a 07ac 97d3 2f40
00000070: e9bd a496 79c6 2940 19f1 3060 0e71 2240
00000080: 6e86 669d f499 2a40 4096 bced 6816 03c0
00000090: 6256 a885 c584 2a40 9dea ba0e 5128 3c40
000000a0: c87a a393 8ec0 31c0 fc8f 4464 2abb 24c0
000000b0: a732 82b5 e5cd 16c0 0a07 e1fb cafa 18c0
000000c0: ca74 8610 eeb0 08c0 be7e f342 1a1f 2640
000000d0: 6e34 daf2 e570 15c0 77bf 9a95 8e40 c0bf
000000e0: b1f9 9af7 7a58 29c0 6aac 9110 a46d 24c0
000000f0: 1ab1 c3e9 7a12 1a40 fa70 a309 0604 1c40
00000100: 57bd aca2 726f 3140 16e7 5827 0e8c 0340
00000110: 8b24 b5e7 91a3 31c0 72e0 1580 0773 2f40
00000120: 69a7 e898 a6e7 2840 e462 4ac7 dd9d 30c0
00000130: 2241 28de f11c 32c0 64fe 1c86 c95e 1ec0
00000140: 34e5 836f 3942 2440 5e82 faf9 eff5 f3bf
00000150: e97b a9a7 e115 21c0 c5ca 1f74 9565 0240
00000160: 9197 14ec 2913 1d40 5437 d301 e0a2 3b40
00000170: de95 75c9 ce8a 22c0 435f 4f80 f94b 3bc0
00000180: 74c3 cb3c eaa3 27c0 fce4 b3e0 3b80 e2bf
00000190: a416 01e0 af47 35c0 6fe0 a58e 5e12 2bc0
000001a0: f662 7efc df87 2f40 5cae 4d0e 6bab 15c0
000001b0: 48a8 9e6f eb00 3cc0 7c78 a550 f184 30c0
000001c0: 4258 77f0 8343 3040 b3bd 0d0c d201 0240
000001d0: 2470 73a0 efef 0dc0 b9a5 c0d0 c9f4 d83f
000001e0: b4a2 06bf 3b72 f83f 0f50 b2c3 d9ed 1240
000001f0: 4eb5 2682 4031 3340 dfd5 0697 e417 2340
00000200: e65f 3054 7014 1240 61a7 6237 eb5b 22c0
00000210: 7518 0984 2216 1040 44d7 5714 4e6e 2640
00000220: b2f6 79a4 10a1 3240 a027 62d7 a3be 0540
00000230: 8942 9c1e 9027 3740 14c6 ed00 2eb8 4040
00000240: 3606 0cc6 a098 02c0 604e 1021 94d6 3540
00000250: 986a 5d7d bb9e 0840 7eee 0f00 66c6 0ec0
00000260: 31c3 e9f6 c99a 2840 fcac 45cb a956 3540
00000270: 8805 cee1 1518 2940 2e06 ceb0 8902 34c0
00000280: 6f48 af40 0e17 21c0 1e41 f3b3 da14 e0bf
00000290: 357a e443 daaa f5bf 635d 493c 1c28 d2bf
000002a0: 0bc7 f8aa 3574 25c0 6a6e 58ea 82ac 2340
000002b0: 92c4 0f5f 83d7 27c0 f85e 7ac6 a690 2440
000002c0: 5d97 6480 c7f4 0840 1675 8aa6 f812 f73f
000002d0: 0150 13b9 cd2a 30c0 774f 8ccc cc96 2740
000002e0: 060c b734 20fc 08c0 6ea4 53e9 dcfe 3b40
000002f0: 9aab 19b9 8bc8 2840 0cd5 393d 2b80 32c0
00000300: db4e d17f ff94 11c0 50a7 aa7b d6fc 0dc0
00000310: c4fa 4889 6382 1dc0 99da dfc7 80a2 33c0
00000320: 74d8 431b 28c7 2540 b41f a2ef 6080 2040
00000330: 222e 6be7 5a4c 2c40 43ed 1304 95f7 3540
00000340: 1897 d481 9fe6 28c0 9e82 9587 ea41 29c0
00000350: 9647 2e94 5fbb 2340 aa0f 00a4 0ad5 2440
00000360: 9cbc e43f ee67 3dc0 9010 b5ef bcc3 f53f
00000370: 327b 8355 a451 1040 2aed 06ad 97bd 1140
00000380: 7c89 b098 3da4 3640 bc51 4048 7d00 00c0
00000390: 1871 80c4 f37f 1440 74d2 0b2b babf 3c40
000003a0: 4685 4fda 34e6 10c0 c1b8 fc32 e9bc 22c0
000003b0: 22f0 de38 dfcc 2a40 ac15 3ad3 6969 2d40
000003c0: 3231 5b39 ee50 2bc0 c0a6 f124 d4e4 1e40
000003d0: cf07 6589 a143 2440 d8e6 152d 6efd 0ac0
000003e0: 317a fedb 3309 3340 7acf eedd b6a2 2140
000003f0: 6240 b1c7 2c0b 0fc0 b8e9 971f da23 2c40
21.055725244101136 11.394206718768 -16.133894211609036 -8.078491381486462 17.40878711804836 -4.555394407266133 16.025927496080232 -9.88591220673759
19.67585894993058 -4.637625600126445 8.203331870982423 21.960420274791577 -8.222713516684404 15.913266540407722 12.887646396265113 9.22081280324396
13.300694388165734 -2.3859423230340155 13.25931947402859 28.15748683989897 -17.75217554799272 -10.36555779778427 -5.701071582862517 -6.24491494713744
-3.0863915720970896 11.060747234557649 -5.360252184456028 -0.12697012238413283 -12.672813165347948 -10.21414233949891 6.5180470014277265 7.003929281807581
17.435342948124653 2.443386371040911 -17.638945085262588 15.724666598005772 12.452442911529674 -16.61666532102653 -18.113065609767666 -7.592565627593647
10.129344448900703 -1.2475433125292947 -8.542737235487907 2.2996014663889093 7.268714607960548 27.63623057753223 -9.271108909228982 -27.296775836351355
-11.820146465180848 -0.578153551933752 -21.28002738977979 -13.535877664326305 15.765380754879043 -5.417400573245313 -28.00359246848555 -16.51930717506228
16.26373198426905 2.250888914269774 -3.742156270525827 0.3899406946753419 1.527889009661675 4.73227601791224 19.19239057011628 9.546665877899555
4.519959750607063 -9.179528933327392 4.021616042189739 11.21543944904591 18.62916019418362 2.718085940058657 23.154542840146437 33.43890391931578
-2.3245254013461603 21.8381977715311 3.077506045735685 -3.8468742375242178 12.302322116885621 21.338528351317095 12.547041946791765 -20.009913492487776
-8.54503061427769 -0.5025456919338784 -1.35421206017021 -0.2836981381164689 -10.726971953266476 9.83693630532726 -11.92092415873984 10.282522394597876
3.119521143979837 1.4421316628934782 -16.16720158311364 11.794531242492424 -3.123108302913809 27.995558340950474 12.391691002257904 -18.50065977727813
-4.395505902433537 -3.7484559689955077 -7.3773328257363495 -19.634777538444357 10.888977863342213 8.25073956350375 14.149131042321702 21.967117552628462
-12.450435692978814 -12.628742444039116 9.86596358361184 10.416096806533307 -29.405979150146422 1.3602876056257038 4.079728447103479 4.435148910091167
22.641564887142053 -2.000238956892842 5.124953337039436 28.748934450517893 -4.224810992339661 -9.368966668462578 13.400140549863924 14.705885506477749
-13.65806750524698 7.723465516328076 10.132091802199197 -3.3737453005131606 19.03594756090951 8.817801413919131 -3.88045650491408 14.070023524564803

arr_2 f8 [128, 64]
00000000: ef6a 37f8 e805 2cc0 f022 6a80 5a94 22c0
00000010: 08aa 719d 1003 4340 0e6d 5db1 9ff9 3ac0
00000020: 782f ea81 9a1a 1540 e23e 08e9 bb1a 1fc0
00000030: 8ab1 3f02 e6e0 db3f 968d 7c1a dcdd 3bc0
00000040: 0e42 b87b a962 25c0 71b5 e2a7 3f0f 30c0
00000050: 8828 f481 8b7a 2bc0 6433 d7a3 27b6 15c0
00000060: 96a9 786d e338 16c0 e43c c014 d2b5 33c0
00000070: 1056 4bd5 dd49 37c0 fafc f200 873b 2f40
00000080: 2187 d553 6636 1d40 40a2 2937 025f 3440
00000090: 6a0a 1502 5d02 0240 5835 63e8 629d 1c40
000000a0: 545c 57fe d562 2dc0 0636 99ec 9f17 3140
000000b0: 1b98 0792 cdea 2940 0043 45aa 3f51 75bf
000000c0: 6a9b d1ce d6c6 2840 00da b4a8 a5c5 28c0
000000d0: 14a1 41c7 86b8 2e40 079c 6032 febe 3240
000000e0: 983e 5aad e367 3b40 1445 7e89 6d7b 3240
000000f0: f9e7 1be9 ed05 2f40 6c6f 62e8 dd6b 1140
00000100: 3c6c e15f 4ced 1240 78fe b14a f77e 2c40
00000110: 5007 c62b adcb 2d40 38fb 7683 62e7 29c0
00000120: 9794 c608 e85f 3740 86da 3557 b563 c03f
00000130: 0438 73ea 10c2 3dc0 ae7f 1c03 165f dc3f
00000140: dbef 1661 5d39 43c0 6da5 df2a dc00 24c0
00000150: 28a1 efbf 8643 25c0 59cd c2e9 24a0 1640
00000160: e4ae ed70 2322 0640 2ad2 b799 26f6 2440
00000170: 7e1c 0a0b 99fe 3fc0 156e c8a9 26f6 1840
00000180: 80b2 3269 b2a5 1ac0 94ff eab1 71f9 07c0
00000190: fc23 d702 0071 1cc0 b28b d719 3461 33c0
000001a0: f81a 8fc9 2610 f73f 3273 d9ff 140b 23c0
000001b0: 1471 068b d3e4 1940 0749 7e5c 90cc 3640
000001c0: 6f26 a0fe f9a8 e03f 24e1 409e 9181 fabf
000001d0: 8433 9c51 7137 3140 df7c 7b77 48c4 4140
000001e0: 7422 9a69 dc53 0b40 0c59 202d 8134 3cc0
000001f0: 7890 b9da 42d3 1ec0 a015 d0f1 a324 2dc0
00000200: 1a37 d960 1169 3640 0643 079f 57d6 28c0
00000210: b20a 10bb 54b9 36c0 1201 f435 e8ee 2540
00000220: 8682 e165 275a 01c0 eba7 d064 1123 36c0
00000230: c5d8 6b94 aff4 26c0 12c6 aa64 fb5c 3f40
00000240: 48f9 e703 c75e 3040 0d4f 248c c176 d0bf
00000250: 7ef8 6daf 8be8 0f40 98da 5151 3f7a 1f40
00000260: 0ce4 04b5 f51b 1bc0 283f 4e69 0480 3140
00000270: 64f9 2b35 16b3 2540 fd26 4590 fc8d 14c0
00000280: ffa7 90fb 6119 33c0 32f6 2fc8 623d 2840
00000290: 2a30 7722 a81d 3dc0 23d7 2f6b 227d 3140
000002a0: 70b8 6467 6cd6 37c0 7a61 3798 cca2 4140
000002b0: b6b5 5578 a1db 1440 9222 ad8e 5961 1640
000002c0: 964b b057 3b25 0f40 fa84 386e 446d 2f40
000002d0: a660 8019 6c00 fabf 3087 3d6e 1d32 1dc0
000002e0: ae23 30e4 94d2 0740 2e29 34bc 79bd 2a40
000002f0: 0a38 79c3 9e49 37c0 b278 c123 2120 2ec0
00000300: 28f0 3785 6b23 0940 2f19 b4a6 50bd 22c0
00000310: f676 7051 45f8 26c0 1667 6914 1a80 2ac0
00000320: e81f 5f9f c79b 2140 9187 d185 abb7 36c0
00000330: ec48 309b d792 2740 08d9 38ee d225 20c0
00000340: dedf 4a15 7903 0940 1e4a 184d 5bad 03c0
00000350: 8c17 afc3 062c 3340 5460 c2d3 3783 4640
00000360: 6939 2e0c 079b 2740 6e45 edcd a008 3340
00000370: 8d1d 77c0 7227 31c0 42d6 87b1 3ed5 0dc0
00000380: 4c34 47b7 54f1 f13f 4efb ab96 7711 3640
00000390: 6ed9 2fb8 bc94 3140 79c1 a66c deb9 08c0
000003a0: 0682 b63b 410e 1440 59ad 9bbb c326 3440
000003b0: 436a eb00 8738 1f40 2fb6 a0e8 4205 3340
000003c0: 8add 252f 74e0 35c0 baa3 b5a5 141e 07c0
000003d0: a614 c28c 4f7d 1f40 01c7 97c2 6ad2 3340
000003e0: 2893 3767 a648 1b40 8a03 7e0e fd69 1640
000003f0: c7a7 a2ee 9026 0540 34ce cc09 b854 2ec0
00000400: 2e1d 6d97 cc9f 3640 d4a0 8c00 902d 3340
00000410: 7865 cfec 6b9a 3340 1e73 d711 c8b6 29c0
00000420: 860d a351 5543 1e40 5ad5 80f4 41ae 1640
00000430: 5431 8f24 f29b 2bc0 6220 1b16 4a10 f8bf
00000440: a2a6 91af 7d07 36c0 561a 25df 4fdc 3e40
00000450: f96b f87d bd73 25c0 f7c2 95a5 19df 36c0
00000460: 43c6 e965 c43b 0fc0 fe4e 2002 f4af 2140
00000470: 6752 6abd 0f54 2b40 3c79 eadd 23a7 2940
00000480: d886 d0d0 c31e 1640 ae65 6c90 1042 32c0
00000490: 8281 0c9e 6c21 19c0 1e2b b229 ae7b 1d40
000004a0: d7eb e026 ee95 1640 b9cb 8b11 6331 3040
000004b0: 4d13 75f7 5c8e 34c0 f2b5 361e e2f1 39c0
000004c0: 85bf 26fd 9b65 3ec0 be68 d27e a97d 2bc0
000004d0: 5012 c9a6 97c0 04c0 869d 5684 fc03 3540
000004e0: 11eb c192 6611 1340 2849 e522 2102 21c0
000004f0: 7c6f 00fc e047 2ac0 cf0b 6357 523f 1fc0
00000500: 5781 2995 4d2b 3040 fce2 31fd ad9e 2040
00000510: 2c7b d565 69e4 35c0 b7e5 0811 b93e 0240
00000520: 5f0a 480a eadd 1ac0 76de 36c5 d525 2440
00000530: 3529 0e9f 33d0 2ac0 2b92 be35 ca61 15c0
00000540: b771 978a 3791 3dc0 fce6 f4f4 ca8c 09c0
00000550: 1887 c002 22a9 29c0 f1d2 83eb 8a9d 27c0
00000560: 5116 2045 3a7e 26c0 f6c0 4560 5c33 2cc0
00000570: d4ef ec95 e93e 1dc0 7ddc 1aac 4a2a 01c0
00000580: 9e71 d554 12c1 1a40 caef 1fbe a1b8 20c0
00000590: 52b8 bbc1 142f 0bc0 018f a071 5ad6 2840
000005a0: 236b 5a6d f774 36c0 611b 5845 3e00 2ac0
000005b0: 52bb 2b2d 5849 2540 4cbd c09a 81a5 23c0
000005c0: 69d9 f536 1bca 35c0 17b5 0839 30b8 c6bf
000005d0: 2c9a 132b 1e5c 0ac0 4664 77cd 77e1 1940
000005e0: a26b 348b 654b 1940 22a1 f387 108d 32c0
000005f0: ac16 6cec 75c0 2f40 3794 bee5 a7b4 1ec0
00000600: 5afc 94c1 956f 3d40 1adc c660 1e0f 1e40
00000610: 520c 5a2b 682f 2bc0 84bc e778 fd23 25c0
00000620: 7000 f1f3 b1c5 2ac0 ee4e 5bb4 b941 34c0
00000630: f8a2 e51f 9dc6 d7bf b4a6 3af1 93f7 3840
00000640: f8dc 81f3 fc34 36c0 a1a5 c6fc 4601 34c0
00000650: 3c3c fb23 04a0 46c0 8f0f aae3 e0bf 33c0
00000660: a4ca 922d d4bc 38c0 0e62 c98f 0f06 33c0
00000670: fa43 cfda 002e 2240 b83c 9b1e 61b5 35c0
00000680: 65a7 43c0 6fb4 20c0 f0ce 972d d2c7 20c0
00000690: 1801 4a17 d106 3540 b8e8 f7fb 2a50 23c0
000006a0: c1db ebc7 14f7 1440 a87b 6c89 c893 2ac0
000006b0: 2f17 d8aa 30c3 25c0 9442 dad6 5f92 1640
000006c0: 8764 6c16 0e79 fabf f980 0539 95e5 13c0
000006d0: 7678 6f76 bc14 4140 8726 e58b 26fc 36c0
000006e0: 6428 87a2 b8d6 29c0 7c11 4dad 3626 2540
000006f0: b876 bd91 aca1 3440 8ac5 317e 4383 22c0
00000700: 0cb3 6bf3 aaf0 34c0 f5dd 416e ceca 32c0
00000710: 2a33 502c c481 38c0 5a08 7adb 1500 2540
00000720: a81b 2afe 1c60 24c0 638d 422e fe0d 25c0
00000730: 9727 4fc0 ce35 29c0 72e2 7a5e e081 2440
00000740: 10fd 8a80 e24a f4bf d2a6 7c02 0001 3ac0
00000750: 619a 1350 4521 35c0 787f 526f 2039 1040
00000760: bdf3 bb54 919e 2640 827f b42a 6eb0 2a40
00000770: acff 080e 6206 30c0 2cae a8f5 48c9 1fc0
00000780: b70b 291e 6a9c 3ac0 e6e8 eed5 8852 33c0
00000790: c003 0786 0098 3340 a59f 5e7e 268e 41c0
000007a0: f7a6 852a cd52 0fc0 d845 f647 1cee 2240
000007b0: 86ec 0cd2 e061 1140 0daf 374b 39dc 1340
000007c0: 8f5b 0181 70a1 1bc0 9e2f 3f10 e44d 1f40
000007d0: bae9 10c6 96f2 2d40 ac9b 7bbe 9772 2f40
000007e0: 6417 f9d9 5c5f 3f40 7b92 4938 1dfe 06c0
000007f0: b249 1005 48fe 1a40 524e 7959 86c1 3140
-14.011543041958673 -9.28975297256099 38.02394455003747 -26.975092969235497 5.275980024260086 -7.776107445839189 0.43560171336755416 -27.866639762314286
-10.692699304811892 -16.05956506047136 -13.739345608763202 -5.427885589608966 -5.555555067529346 -19.710236832554884 -23.28854115571272 15.616264371549267
7.303124723346429 20.37112755552721 2.251153961436377 7.153697615676116 -14.693038890995162 17.092283999829327 12.958599627902052 -0.005204437915680371
12.388357604109576 -12.38602950294171 15.360403277169588 18.74606623514776 27.40581782773242 18.482140153243634 15.511580738693725 4.355338698394785
4.731736658223834 14.247980436542306 14.897805564807328 -12.951923473619544 23.374634312135267 0.12804285772627483 -29.758070614938347 0.4433035879501358
-38.448162208747554 -10.001679744530259 -10.63188743400731 5.6563908124110975 2.766669161084666 10.480763248147088 -31.994522752731875 6.2403818634588974
-6.661813396186176 -2.9967988872376257 -7.110351604825151 -19.37970124733301 1.4414432404898303 -9.521644587797343 6.47346322275941 22.7990777786554
0.520627019229506 -1.6566330129408664 17.216572857508723 35.533461509033934 3.415947747246088 -28.205096073529646 -7.706309716773937 -14.57156329789251
22.410421422034325 -12.418637246738864 -22.72394913808484 10.966615377460162 -2.1690204581685206 -22.136984158460034 -11.477902067341697 31.36321095628052
16.37022423184797 -0.25724829374051766 3.988547678512133 7.869382162686314 -6.777304485724937 17.500067311862182 10.849778806322043 -5.138658766003343
-19.099151346985305 12.119894271712017 -29.115846780871074 17.488806437663822 -23.83759161194797 35.27186873153819 5.214483146888076 5.595068196599316
3.893179593150715 15.713412708663316 -1.6251030918265683 -7.29894039392984 2.9778230502310725 13.370069390647213 -23.28757878980108 -15.062752835623858
3.1422949226089436 -9.369755944714226 -11.484903855303383 -13.250198972574747 8.804257374154943 -22.717460979132344 11.786801194805285 -8.073874897422243
3.126695791575897 -2.45964679937721 19.171978216406885 45.02514121047048 11.8027881437708 19.033703680446187 -17.154094723778645 -3.7291234845713754
1.1214186820318615 22.068231026637754 17.58100463073918 -3.09075627216242 5.013920720114134 20.15142414618217 7.805202497833821 19.02055219577431
-21.876772829765777 -2.8896878191048616 7.872373771043533 19.82194153028013 6.8209472778005775 5.60350439685943 2.6438311236752017 -15.165466600657147
22.62421556867519 19.177978548367562 19.603209305414083 -12.856995160627374 7.565755153252558 5.670173473704688 -13.804581778029991 -1.503976904250543
-22.029261563357643 30.86059374481041 -10.726055084776805 -22.871485089362036 -3.904183193394404 8.843658510631482 13.664182585934396 12.826445517418158
5.530043852546179 -18.258065248932034 -6.282640904916095 7.370781566142595 5.646416289785484 16.192917915944893 -20.55610605819975 -25.9448565372058
-30.396911451301566 -13.745433772263251 -2.5940392522918856 21.015571852823562 4.7669928484781545 -8.504159059990869 -13.140388369610939 -7.8118375448420485
16.169152567513574 8.309921181049042 -21.892233242625636 2.2806264239158867 -6.716713104865078 10.073896563480258 -13.406643839338907 -5.34549793220189
-29.567253744100267 -3.1937464844930883 -12.830337606431883 -11.807700500337406 -11.246538314978496 -14.10031414844023 -7.311437933527447 -2.145650238580457
6.688546491172387 -8.360608998678703 -3.3979888091480825 12.418658781861724 -22.456900438856916 -13.000475089078181 10.6432508579143 -9.823254428890003
-21.789477763196746 -0.17749598297943045 -3.29497941640445 6.470183573162165 6.323629546236505 -18.55103349397644 15.875899685091404 -7.6764217279024285
29.435878847955202 7.5147643205046055 -13.592591624014094 -10.570293215072759 -13.386123297852663 -20.256739876071997 -0.37149742236083183 24.96710117036737
-22.206984729008553 -20.004989431855964 -45.25012635962818 -19.749525288599724 -24.73761257966784 -19.02367495218828 9.089850271035164 -21.70851317682238
-8.352415092714816 -8.390275406628888 21.026627975051355 -9.656577943813645 5.241290210505157 -13.288639349453504 -10.881230677488558 5.642943722793138
-1.6545544505991374 -4.9742020520791295 34.16200142329119 -22.984963172383257 -12.919377402304413 10.574635902078391 20.631539448505208 -9.256374305320396
-20.940108503145026 -18.79221238239366 -24.506899613933605 10.500166758200226 -10.187721197738782 -10.527329869865474 -12.60509301153415 10.25366492509895
-1.2682824155052153 -26.00390639823201 -21.129963879381084 4.055787791643404 11.309702537482616 13.34459050610872 -16.02493369788833 -7.946567381306107
-26.61099422933668 -19.32240044672735 19.593757988655625 -35.110549732401786 -3.915430385783903 9.465059517681695 4.345584184683622 4.9650623085724535
-6.90765573092257 7.826065305573051 14.973806562008452 15.723813965405348 31.37251055079777 -2.8740791699840975 6.74832160865701 17.7559562607915

arr_3 f8 [64]
00000000: cab1 10f1 53eb 1dc0 c416 aa43 0004 2cc0
00000010: c9fa 1c53 b822 0340 9348 66ae d216 0440
00000020: 5dae d188 a0b6 3340 da8c c8d8 b6af 01c0
00000030: ed15 3371 9e55 27c0 58c4 965e ad21 1840
00000040: 5c69 d773 4d18 39c0 901b a132 1e7f 2f40
00000050: c404 ec3c c895 2fc0 ed12 e500 e860 0fc0
00000060: a562 69e5 c9f7 1240 b739 4400 8ebb 2840
00000070: d2e3 2a4e 4b0e e3bf f871 ef7c fb19 40c0
00000080: 7027 20ab 385d 3d40 191e 2bf9 b1f8 2fc0
00000090: c861 f47d d14c f0bf f286 286c 9d4d 0040
000000a0: 7c27 c13b 6f7d 2f40 98e0 3881 6f7f e83f
000000b0: 6430 0cf1 92d1 00c0 3ee9 3286 018e 1240
000000c0: 1a0c 5e51 dead 16c0 c32d dc9e b716 3340
000000d0: 851b 0413 0a0f 0fc0 ae75 bbd5 7f4e 4340
000000e0: 7cf9 8faa e627 3f40 4653 62bc 4d30 22c0
000000f0: d882 928c a246 31c0 328c 58eb cc98 4040
00000100: f5f5 e7fa 64ce 2240 d459 3df5 0564 4040
00000110: e9e0 2f8d f8a5 1940 204b 796f 2fa6 3940
00000120: bea5 8a6a 677f 1ac0 8eb7 2943 8dd4 1bc0
00000130: 44de ff74 55bb 15c0 33c7 f46b 9314 1ec0
00000140: 2ff0 8002 0ec5 04c0 9962 7c7d 4c04 f43f
00000150: af80 90ed 20fb 1440 3a9f b345 c23e 2040
00000160: d610 270f 5b07 3540 d9ff da15 2240 3c40
00000170: c978 4777 5d95 2fc0 0ae3 cf99 d311 15c0
00000180: 783d 10a8 fea2 c5bf 1a76 4951 07f5 2ec0
00000190: cbbd 675f c52a 11c0 ee14 51da 8eef 2840
000001a0: a2a5 1f00 f0b4 10c0 dcc1 e4f3 db48 3340
000001b0: bf76 ce61 af79 febf 9d36 3f70 3599 1b40
000001c0: b636 8c99 56a0 2340 5cd4 ceed f8ca 2ec0
000001d0: 75cf cf30 6d43 0cc0 8a60 0bdf da31 2740
000001e0: 64eb 7840 4228 2740 b1be 71f9 cf11 18c0
000001f0: df47 d6cc 28de 2740 3b7c ce5d 0512 3940
-7.479812399524642 -14.007814516556557 2.3919531338900453 2.511144030090756 19.713387061301876 -2.21079797136336 -11.66722444294552 6.032887914611898
-25.094931831446374 15.748277265707458 -15.792543319521776 -3.9223175115497413 4.741981110150538 12.366317756965925 -0.5954948927602521 -32.202987305561635
29.364145942068205 -15.985732828629851 -1.0187544746496418 2.0378979158275508 15.744989268616102 0.7655560993071218 -2.102331050095062 4.638677689416282
-5.669793387761297 19.088739327196674 -3.8823434339169034 38.61327621129327 31.155863437795674 -9.094343077662085 -17.27591780259067 33.19375364135375
9.40311416703751 32.7814318227353 6.412080961272502 25.64916130744234 -6.6244179389117885 -6.957570123120503 -5.4329431801957675 -7.5200936191702565
-2.5962181277846166 1.2510495092193763 5.245242797798865 8.122575929810058 21.028733202970066 28.250520101515438 -15.791728713488185 -5.267408755601318
-0.16903670507643276 -15.478571453301857 -4.2917685420101845 12.467886755368877 -4.176696779185848 19.28460621199507 -1.9047082729879745 6.899617914064632
9.813160704008038 -15.396430427072282 -3.5329231084269233 11.597372980250174 11.578630461464577 -6.0173949218439455 11.93390503040058 25.070394385253376

arr_4 f8 [64, 32]
00000000: 9752 f185 a3a1 26c0 c6fb afcc 0226 1340
00000010: eaec c6d2 8a81 e13f 675d 4f0a d88a 3540
00000020: 4c7a 8414 7e78 3540 e86e 48e9 f474 10c0
00000030: 9c1a 6826 3880 20c0 1a4f c5e2 58f8 1cc0
00000040: bb5a 240a 6ea9 e1bf 3347 38f9 be78 0240
00000050: f2a4 dcd8 946f 23c0 5fbf 7e78 ffa7 1cc0
00000060: 9c3b ad98 dfb9 24c0 3c1f 6e4b f2dc 1740
00000070: 16c7 67ac 1db9 22c0 235e 666a d6d9 f3bf
00000080: a03b 70f7 de8c fa3f aa2f 85ff f3c6 27c0
00000090: 629c 11b8 ab0e 2b40 809b 3012 ec19 3540
000000a0: 731c e8c8 c073 3140 e5d5 1b1a 0f32 2640
000000b0: c334 f135 72fb 4340 c2cd 1360 9f7a f63f
000000c0: 2483 e131 be75 40c0 890d 4305 f995 3a40
000000d0: d41f fde9 37f4 1140 1c0e 3383 ce20 06c0
000000e0: 15b5 f1b0 2501 1140 e033 868e 3095 10c0
000000f0: 862a d3b5 1e7b 25c0 f54d 8e49 9685 1a40
00000100: fb87 fc32 10a5 1340 dcc4 cc3c e366 1bc0
00000110: fcc5 973c e249 02c0 b638 f595 c586 3440
00000120: 8e1f 9409 49cd 1c40 84c6 6fae cba9 0dc0
00000130: a061 e733 4bf8 0540 e421 7c88 07cc 3540
00000140: 9237 d23a 5863 2740 cde1 e927 e448 2d40
00000150: a6f9 5558 fe88 21c0 ca77 65ac e82f 3140
00000160: c4f4 bde8 03ee 2ac0 203d bd9d 2127 1c40
00000170: a40c 377f 1525 02c0 5c6b a19e 02e6 2340
00000180: a2ba a28f 0d14 1140 f707 b153 0c07 2740
00000190: 1ba9 a40c e96b 2240 2b10 1c86 5189 26c0
000001a0: bef5 1e10 9e67 04c0 269d 2665 f4ec 2bc0
000001b0: 44ad 7990 d37f 37c0 b752 b4d5 820c 3240
000001c0: b28d 8d70 c27f 39c0 5908 5c1d 6023 14c0
000001d0: e470 1419 6003 2c40 67a4 5f47 7346 14c0
000001e0: b166 e292 f520 3440 0bb0 1531 d927 2440
000001f0: 0e29 736a ca64 1040 5ddc d684 285e 3e40
00000200: 20b2 fdad 0118 3a40 adad 026c 72ed 3a40
00000210: 4f6a e45a fb37 3cc0 4cc5 1061 ae11 15c0
00000220: 96f9 9877 ba3a 2040 69ff 88f8 9118 0140
00000230: 1a19 cd36 00d9 e9bf de29 a999 9f5b 23c0
00000240: db95 fe8d 52ae 1a40 cf7a 95f5 773d 17c0
00000250: d571 4a06 7fa1 2ec0 fcb6 eb8f 5826 29c0
00000260: f771 55c6 e51a 4140 2f2f f06a 271a 30c0
00000270: 0900 2878 7bb1 13c0 1ec2 b274 1d0b 1840
00000280: 9884 82b5 eb18 1b40 867b 81aa fdb1 2340
00000290: 8e5a cdb6 f865 2340 fd95 6edb 1a56 12c0
000002a0: b851 af0c 1cb9 3ec0 ecf2 46bc 5352 1940
000002b0: a68e 5acc b9d7 36c0 956d 2d52 9c4d 0c40
000002c0: 803f cb93 9ac5 2840 3464 2c96 fd93 0840
000002d0: 8c4d 76af 6402 3340 f727 d5e7 5944 2740
000002e0: e4f8 30e5 ea8b 0040 7303 19c2 eca9 3240
000002f0: c639 76f4 6c69 05c0 eec3 55e4 be62 2540
00000300: 1d95 6a3a 87d7 2140 b3be 5528 6972 0fc0
00000310: 0c88 eb8f ac1e d83f 5dd7 e431 b87f 3040
00000320: a43f 0c34 5738 2740 e8a8 5c3c 5cad 29c0
00000330: 3e88 fcec 3ce2 f5bf f39c 6426 5ba6 43c0
00000340: f5d2 6c1b a738 2640 f27a 47a3 ba09 34c0
00000350: 0fdf a482 d93e fb3f 1eda b30b 0a7e f13f
00000360: d2d0 35bf 515c 1e40 7f10 bddf 07c4 2640
00000370: 3a16 9345 bd00 2ec0 2ee9 0ead 8d31 2140
00000380: 3275 9011 4ef1 f63f 8b01 811a 87ee 2140
00000390: 0fae 97e7 89d6 2d40 185f c436 0ced 0ec0
000003a0: dac3 d3a0 d7b3 0940 78e2 32c3 8cc1 30c0
000003b0: 40db 53d5 267e 2d40 1744 67e4 9a36 30c0
000003c0: 5d64 45ab b16b 1740 1415 e5c2 7406 3040
000003d0: 5a92 4cc6 8d27 43c0 089e a572 b938 10c0
000003e0: 3e78 5763 3417 0c40 9eec 6e87 2f8c 0640
000003f0: d557 bcc8 9088 0c40 ec0a 46b8 ca82 2b40
00000400: 36bf 8165 b588 28c0 8a99 3aa6 c4b7 41c0
00000410: 23bd 5340 fb68 fd3f ca21 e507 0dc6 2fc0
00000420: 6047 e3fe ec0b 3440 dd32 384d 36e8 3540
00000430: 4ad1 0a77 5a55 26c0 166f 6cda 58c3 2540
00000440: ad92 0e4b c12e 36c0 1714 19d5 2412 28c0
00000450: 8e11 61a4 6c97 05c0 b629 c4ad eac4 15c0
00000460: c22b 4fc3 a678 2240 f15b 8f62 b830 2bc0
00000470: d3b5 6dfb 8877 e23f 81f8 301f 33bc 28c0
00000480: 567e a60e 7885 e03f 3c91 6097 6af5 c33f
00000490: d28a dce5 2002 2a40 504e a818 2582 f5bf
000004a0: 8a86 dd08 e964 2a40 02c1 9db6 815f 1240
000004b0: 5a1b 83d2 83f5 1e40 67b5 3b7e 9f14 f7bf
000004c0: 5c9c 4e06 ff87 1840 1ccc c8af 4c8f 3bc0
000004d0: e939 e1bb 9d72 35c0 cef1 8d15 3d7a 12c0
000004e0: 36f6 561b 8de8 16c0 d808 ddd6 d60e 3dc0
000004f0: 6c77 304e 11d4 00c0 be79 3469 7c3a 2c40
00000500: 954c 85ad a4ad 17c0 6cb6 79f5 dbf2 2d40
00000510: c892 96c9 ba17 31c0 e2c5 600a 2e5d 1bc0
00000520: 706a 3b79 3990 2d40 5bd9 de6c 70d8 31c0
00000530: fc28 e216 a308 32c0 5627 3d54 a3e4 0a40
00000540: 5192 61a9 b69b 0f40 e2e6 e773 ab93 1840
00000550: dc50 257c 931d 2040 cacd 0a7c 3944 27c0
00000560: 9df6 1c34 132f 0840 25e6 514a 84d1 09c0
00000570: 812c 2827 9784 27c0 212f 0e07 fbc7 15c0
00000580: 09af 2195 bcaf 33c0 3618 6411 266f 2940
00000590: c63a 0da8 df5d 10c0 d8a2 a731 33e1 c23f
000005a0: 06cf 3368 2d76 1e40 2bf8 dca3 c01a 35c0
000005b0: 88bd eaeb 7724 3640 b70b 589c 08a0 3d40
000005c0: 3b9b a9a8 5639 2ac0 ca86 8eaa f6a4 33c0
000005d0: 1662 44ca 5ef5 15c0 254a 0828 4718 0540
000005e0: d4cc 3a8b 7519 20c0 3950 a062 626f 1940
000005f0: 3356 cc09 2ac6 26c0 2018 3ee3 fe7a bf3f
00000600: 86bb 8703 1aa5 2840 4b4c 9e58 5632 0cc0
00000610: 62ef b00f ef41 2c40 9957 c899 df7c e1bf
00000620: d81e 00b8 980e 27c0 b40a 9a25 540c 32c0
00000630: 4418 05be 21ad 37c0 5622 b68a 5a26 2fc0
00000640: 021e 2bc3 0a41 2140 870a 9135 f27a 1840
00000650: 9451 e068 527a 1640 fb6c a3fe 79a4 fcbf
00000660: aee0 6145 0f0d 37c0 320a aa5b f089 3340
00000670: afe1 5817 5883 34c0 1591 ec3f d6d1 13c0
00000680: 64cc 693f ee35 2140 bfc7 d2aa 2114 2840
00000690: ea55 dbcb f738 3240 bb16 52e6 177d 1bc0
000006a0: 9a65 c267 3b17 2440 9dec a7ce 3577 1940
000006b0: 4245 478b 4eaf 11c0 fae8 ba0b accc 25c0
000006c0: 4c29 9ec9 44f2 f13f 8552 a76e b81c 1a40
000006d0: 5433 8042 a1e4 2440 32d5 3c8c ab0f 2bc0
000006e0: 789e 72e4 96f4 31c0 feb0 3ebc cf6d 2040
000006f0: 2ea9 8144 d41a 35c0 47bc dbdc a842 f53f
00000700: 0aee b345 6b26 22c0 8249 7a97 f56a e8bf
00000710: c0cc 428c 297c 3240 5050 6725 130a 1c40
00000720: 7ebf c5fe 5a4d 29c0 2458 cded ed22 0640
00000730: 5621 4a91 a182 1640 0663 d066 e0c6 33c0
00000740: 40db 8be0 0253 40c0 60cb c761 ce0e 0140
00000750: b8a1 0c24 ed84 1d40 4f33 4680 63d6 2b40
00000760: 51a0 0155 9247 2840 84fa f005 d970 3240
00000770: 0b5a ba86 5d0a f73f 5fe2 9cd7 e394 0f40
00000780: ddef 8a50 8338 3540 bed0 2ca1 7a78 30c0
00000790: 126f b7e4 76db 1a40 5d4e e90d 0103 06c0
000007a0: d670 9b8f 236d 34c0 ea4a 3d22 afd5 e03f
000007b0: 7146 93ba d9cb 3540 3cfe f35d d2f0 30c0
000007c0: a80a 8ca0 b620 e8bf 3c65 afad 2740 f0bf
000007d0: a1b5 8b77 f231 3d40 99da 679a 0cfa 30c0
000007e0: 06e6 df8d c4a5 30c0 86b0 be38 e372 23c0
000007f0: fcf1 940a c6d1 2a40 ebdc 71c8 3eca 1e40
-11.315700708111121 4.787120054475002 0.5470632664431865 21.542359012962518 21.470673830359644 -4.114215512319539 -8.250428390701295 -7.2425265725067
-0.551932353790867 2.308958003072712 -9.71793248837864 -7.164060480819756 -10.36303403010043 5.965768030735315 -9.361554515522169 -1.240682998299129
1.6593923249781497 -11.888580307968216 13.528653862142338 21.101258408419653 17.45216041247154 11.097771469018832 39.96442293431894 1.4049371483823596
-32.91986678611127 26.58583100211175 4.488494545053943 -2.766018891330317 4.251120342972418 -4.145693041745261 -10.74046867563926 6.630456113157824
4.911194607413559 -6.850476217268092 -2.286076043493038 20.52645241963247 7.20047392813275 -3.7079080226765786 2.746237187861155 21.79698994665695
11.694032514725937 14.64236569147115 -8.767565498824137 17.187144064686244 -13.46487357443619 7.038214173007219 -2.2681074083971726 9.949238736347688
4.26958298140258 11.513765921936267 9.210762400722663 -11.268200102735213 -2.5505944499443265 -13.962802086795431 -23.499321965891127 18.048871380352207
-25.49906066375633 -5.0345463359281775 14.006592544312703 -5.0687991287351 20.128747158311572 10.077828916451855 4.098428405073959 30.367805769401787
26.093775629460765 26.92752718987838 -28.21867912365479 -5.267266766213037 8.114703881667804 2.1369971672829036 -0.8077393598876228 -9.678952028179022
6.670236796058329 -5.810027920959967 -15.315422245585902 -12.574894425891664 34.210137168618466 -16.10216396678805 -4.92332256073133 6.010854552660502
6.774336658564742 9.84763844328496 9.699163162772745 -4.584086826920154 -30.723084252169173 6.330397550421122 -22.842678806408593 3.537895814906458
12.38594495636039 3.0722610218331514 19.00934883726363 11.63349842526439 2.0683191209383143 18.66376889334374 -2.6764773462848295 10.692862639874843
8.92095358420425 -3.9308646346251748 0.376872196719092 16.498904341096353 11.610040308470907 -12.838594328223238 -1.367733884552322 -39.299656676413996
11.11064992621821 -20.038004116965517 1.7028441527635925 1.0932712990885487 7.59015558973279 11.382872573689609 -15.00144402904981 8.596784027166532
1.4339123426537523 8.965874508140379 14.919020879045119 -3.8657459524801077 3.212813621962124 -16.756054115221986 14.746390024649031 -16.213300967418117
5.855169941053728 16.025219136169724 -38.309014117611426 -4.055394927366713 3.5113303910320885 2.8184500294424444 3.56668240380075 13.755452879476671
-12.267008945549247 -35.435688761342206 1.8381302368905572 -15.886818167419637 20.046585016715994 21.9070785772518 -11.166705818243504 10.881537271248401
-22.18263692003045 -12.035437259017312 -2.698937687122629 -5.442301478479228 9.235647300161762 -13.595156745910545 0.5770916853631952 -12.36757752869403
0.5162925993099161 0.1559270133158267 13.004157241031326 -1.3442736590558475 13.197090413133328 4.593268254641091 7.73976067471707 -1.4425349169717607
6.132808779285451 -27.55976389553335 -21.44771932839095 -4.619373642719848 -5.727100779707646 -29.057965687716973 -2.103548632482605 14.114230430274684
-5.919573508511481 14.974334403140539 -17.092693900357318 -6.8409959432187595 14.781688488486196 -17.845465473562722 -18.033738546576373 3.361639650455724
3.9510319931889986 6.1442087278644255 8.057765845828207 -11.633251072233993 3.0229858466471584 -3.22730310499607 -11.758965705541643 -5.445293531647423
-19.686471291278426 12.71708731028421 -4.091673494155378 0.14749755787422347 7.61540758911338 -21.104501954505547 22.142454857644708 29.625131389136836
-13.111989279464629 -19.644388828083528 -5.489619408057953 2.6368544700174135 -8.049724913528202 6.3587737474772945 -11.387039476579139 0.12297051475442844
12.322464094466124 -3.524578754740593 14.12877701792576 -0.5464933398786683 -11.528508901610095 -18.04815897951876 -23.676296116107792 -15.574909529431505
8.627035235417683 6.120064579942329 5.61945499295361 -1.790155405694178 -23.051014267345344 19.538823822988157 -20.513062915038685 -4.954918860257995
8.605333310761303 12.039319360952389 18.222531071709376 -6.8721614825823805 10.045375101547325 6.366416195868763 -4.421198059296616 -10.899750105444117
1.1216476321884157 6.5280473031640485 10.446542814397311 -13.530605680871847 -17.955427434905204 8.214475519802814 -21.104801446586116 1.3287743212965937
-9.075037172521679 -0.7630565603779333 18.485008970554873 7.009838661604661 -12.651084863318598 2.7670553758898837 5.627569456243085 -19.776861596942602
-32.64852530316284 2.1322295798394606 7.379810870429019 13.918727882928264 12.139788299988284 18.440811511356983 1.4400305998621004 3.9477001995804097
21.220753702087553 -16.470621179047832 6.714320729919352 -2.751466854746282 -20.426323867272764 0.5260844868410832 21.79629102798066 -16.94070994574416
-0.7539933334049538 -1.0156628403259012 29.195106002434503 -16.976754808764415 -16.647530429041602 -9.724389813687832 13.40971406047992 7.697505123090404

arr_5 f8 [32]
00000000: bab9 ce7f fd55 1140 958c 80ca 7db0 0740
00000010: cd62 1752 d843 3340 c704 94aa 1267 15c0
00000020: 7b1b a33a b64d 0d40 5e3c 7f24 f3f2 2440
00000030: ec1f 74d4 53cf 24c0 0526 aa92 e97a 33c0
00000040: ad90 48d5 ff4b f43f 8f56 31b5 0e56 22c0
00000050: ce5a 5c99 9716 e43f 09e4 6fac 477b 32c0
00000060: f005 4dab 7195 1fc0 2f83 7c56 9f73 31c0
00000070: fec4 e499 ae1a d33f 8a56 da1c 4625 14c0
00000080: 0659 f3dc b501 2ac0 2493 d629 60f5 1040
00000090: a7d4 c049 0a9e 2e40 1bd4 8581 6b78 f7bf
000000a0: 395f e104 e673 3240 1a4f 2520 f459 3b40
000000b0: 643d 49c7 a0e2 40c0 6aba 577b 453b 2440
000000c0: 888f f9ae 8417 3140 eac5 7ccc b5ee 10c0
000000d0: d7b9 79e1 0fde 3040 be24 df6a 3fc3 11c0
000000e0: 68fa 7eae be42 1b40 d8c1 0f89 fda8 20c0
000000f0: cbed 5ed4 96d8 fabf ab1e f1a8 7a8d e9bf
4.333974835388682 2.9611774273376548 19.265019541463335 -5.350657143864004 3.662945230581895 10.474511280566897 -10.404936446357134 -19.480126539745488
1.268554528368479 -9.168080961487503 0.6277578349425654 -18.481562402073937 -7.89594142587292 -17.4516500524507 0.2985035422198762 -5.036400271250054
-13.003340630250488 4.239624646875004 15.308672241963292 -1.4668994006617655 18.452728562376453 27.35138131056656 -33.77053156925356 10.115764479121214
17.091868339469812 -4.233115382304712 16.86742982122254 -4.4406716059394835 6.8151805176736175 -8.330059321568953 -1.6778782172904012 -0.7985204028745633

arr_6 f8 [32, 1]
00000000: 66d4 0ae6 303b 3fc0 85eb 8bde 7423 3140
00000010: 46ac 36d4 0494 07c0 9897 5512 3ed7 36c0
00000020: 8906 7d4a a2ad 2440 4cfc bd6c 3cfb 2bc0
00000030: a9bc 2788 b879 34c0 92bc 74c1 4b42 30c0
00000040: a127 7092 c96d 12c0 4ec0 3f92 e909 f43f
00000050: 9a4e 42c9 9300 21c0 e85a d0ab 85ac 0bc0
00000060: 600c 416b 253c 3040 40c0 5a2e 6e90 44c0
00000070: 7e73 aa4e 925d 30c0 bb30 8d6e d8c5 23c0
00000080: ea3c aa3a 76ee 1d40 a8fe 521e f16f 21c0
00000090: 4a63 50d5 182d 2a40 895b 0564 a49a 0840
000000a0: 1bb1 92fb b9b0 23c0 82a2 57cc ba50 0cc0
000000b0: 4ed6 b96f c913 2540 7875 dac0 9c70 28c0
000000c0: 54e3 cf22 522b 3540 0cc5 804b 72a7 2dc0
000000d0: 8010 8175 6840 11c0 0e4d 751d ee9f 24c0
000000e0: fa12 dc25 9740 12c0 ca26 d45f 827a fabf
000000f0: 093b 7492 0a0e 0d40 74b9 aae7 fa11 38c0
-31.23121488346478 17.138502034340053 -2.94727483550881 -22.84079088773396 10.339128806840806 -13.99069537943992 -20.47547198267117 -16.258968440055988
-4.6072142487481935 1.2524200165608081 -8.501127518982049 -3.4592393324813777 16.23494596803755 -41.128362459480286 -16.365513722051666 -9.886416868910933
7.482872883453846 -8.718636462813564 13.088080087721796 3.0755088628897664 -9.845168935448376 -3.539418789314653 10.538646212992855 -12.219945933024732
21.169222045663744 -14.82704387614151 -4.312898479464025 -10.31236354882142 -4.563076583440074 -1.654909490900922 3.631856102153851 -24.070234755688446

arr_7 f8 [1]
00000000: 0522 c072 7e25 1cc0
-7.036615174271451
