weights/global.npz (npz, 40906 bytes, 6 tensors)

arr_0 f8 [43, 64]
000000 5f 19 eb 84 d2 a7 93 3f cb b6 50 f3 5f 39 c5 3f
       0.01919487892407667 0.16581344013814311
000010 9c be 83 43 df ce 99 3f 30 1d 2d 63 77 b0 ad bf
       0.025203217025533506 -0.057986956459496475
000020 35 92 db a7 af ed ca bf c8 14 d1 91 e1 c1 b5 bf
       -0.2103786058061289 -0.08498964128473852
000030 25 66 12 96 47 61 bf bf c5 c9 97 71 dc 3b ce 3f
       -0.1225781194101719 0.2362018160489027
000040 e8 f8 ac 99 0c 59 b6 3f db 30 07 63 ae 80 ce bf
       0.08729628326270567 -0.23830203852992934
000050 50 30 ab 82 5e e4 c0 3f c5 51 06 39 db de 70 3f
       0.1319692743330756 0.004118782366635936
000060 20 08 f2 e9 06 21 c4 bf a3 0e f6 d6 3d f5 b6 bf
       -0.15725790427319541 -0.08967958925318924
000070 c9 b1 11 91 d3 c8 c6 bf 73 b4 7b 22 27 54 bb bf
       -0.17800373633816793 -0.10675282089114706
000080 3c 9e ba ab 71 d2 bb bf fb df 9b 6a 28 f7 b7 bf
       -0.10867987101175286 -0.09361507990604416
000090 ab ee 70 5b 80 08 d0 be 09 eb 4f 53 43 d5 d8 37
       -3.8226148069660125e-06 1.1402781267438286e-39
0000a0 05 90 cb 52 6f 09 5c be fb be 6e 34 bd 49 ca 3f
       -2.611135589942561e-08 0.20537533817468287
0000b0 d0 b5 cc c3 8c 0e b1 bf 00 48 3f 18 c4 b5 9c 3f
       -0.06662826328530191 0.02803713224404447
0000c0 81 ca fe cd 26 f0 c3 bf d3 be 04 ea 9b 13 b4 39
       -0.155766344627029 9.898526951788719e-31
0000d0 5d 9f f7 b8 3a 48 c2 bf 09 10 f4 e1 2c ab 7b 3f
       -0.14282926589589354 0.006755042383932882
0000e0 3d 84 40 45 e5 3a c7 3f 4d f4 6b f5 00 8f a0 3f
       0.18148485070654088 0.03234103198881453
0000f0 44 df c9 a6 15 5d b0 bf 6a fa 3f c6 8f 5c b4 bf
       -0.06392035791384126 -0.07953737821660814
000100 64 4e a1 7f 96 c1 c1 3f 1b 69 df b1 23 0e b7 bf
       0.1387203334039554 -0.0900595006236568
000110 2b 36 2d a3 24 40 47 bf 9b 1e 64 33 20 87 ce 3f
       -0.0007095507520291136 0.23849871167498268
000120 f9 ed 53 fb ed 10 c0 bf cb a9 2a 82 2a 79 97 3f
       -0.12551665088527367 0.022923149294607186
000130 89 ff 38 a7 12 47 ba 3f 69 42 79 46 47 57 c6 bf
       0.1026469858416005 -0.1745385259732928
000140 37 07 5c f0 7a 7f ca 3f 27 79 4e 1e 6a fe ae bf
       0.20701538788130744 -0.060534778785255754
000150 df 1d fd 01 80 3c a9 3f cf 3e b4 44 c7 e3 53 bf
       0.04928970360066009 -0.0012139745693424025
000160 ab 39 17 ca cd ae b4 bf 6b fd 5b 0c f9 ab be 3f
       -0.08079229530196723 0.11981159736386864
000170 f1 71 5a 59 f5 95 b9 bf 0c 8f ee 84 d3 4b cc 3f
       -0.09994443351246908 0.22106403342069603
000180 3d bb a6 fa f0 f5 c7 bf 6b ea 2c 40 d3 0b c2 3f
       -0.18719303358872166 0.14098587640349378
000190 0f 3c 01 87 c5 2a c3 bf 44 56 b7 a2 ed ed c6 3f
       -0.14974278537781102 0.1791359943878651
0001a0 b0 4e 9e f4 ea 1f a7 bf 05 c1 d9 07 48 63 99 bf
       -0.045165388451235855 -0.024792790869867982
0001b0 f7 f9 39 21 b0 da b1 bf 29 ea 0a 24 f9 94 cb 3f
       -0.06974316416924596 0.2154838014592582
0001c0 1a db 2b 1d 4d da 31 3f 99 46 f9 68 ec 03 bc bf
       0.0002724111811142502 -0.10943486750445643
0001d0 85 9b cd 87 32 56 b4 3f f5 23 89 aa 4e d3 76 bf
       0.07944026771074959 -0.00557261208502612
0001e0 30 90 d3 be 36 57 c1 bf a4 8e 36 09 f3 1c 5f bf
       -0.1354740554589866 -0.0018989919088675889
0001f0 b5 50 80 bf b6 b4 a6 bf 18 8b 06 08 46 88 c7 3f
       -0.044347487331977055 0.1838462390124611
000200 3f a1 be 80 33 28 be 3f bd 64 ce 9a e0 c7 c0 3f
       0.11780092137508279 0.13109977301500023
000210 6d a5 ba 32 34 95 b4 3f 30 74 d5 b7 60 e7 b3 bf
       0.08040167082312673 -0.07774929512147888
000220 24 8a 25 4d eb 39 ca bf 8b 92 a9 fe 26 79 b2 3f
       -0.2048925520603727 0.07216113774627268
000230 5f 42 44 ed 2c bd b1 bf bb e4 63 86 59 54 c3 3f
       -0.0692928389801266 0.1510116487695877
000240 89 38 f7 69 f8 22 c3 bf 31 32 80 d2 b1 d0 82 3f
       -0.14950471090418585 0.009187115894769256
000250 9b 57 9b 7e 6d 39 c6 bf 81 10 73 49 52 8b c6 bf
       -0.17362755472157407 -0.1761267527236932
000260 ec 84 b2 01 a4 20 a2 bf ad 58 1a 99 46 42 ac bf
       -0.03540527840346805 -0.05519314402515483
000270 7b 5e 63 a1 26 93 ae 3f e0 b0 dc 9f 04 68 bb bf
       0.059716422272399115 -0.10705593970186866
000280 75 bd 69 63 a6 46 a7 bf 48 1b 81 8e 3f 98 7b bf
       -0.04546089137590573 -0.006736992138093374
000290 5d 96 c0 87 55 38 56 be 09 98 e7 5a f8 d5 7d bd
       -2.0694038913154598e-08 -1.6959700615204658e-12
0002a0 1f 3d cc bd 77 8a 54 bb 6d e2 58 ae 12 f0 bf 3f
       -6.796410259573143e-23 0.12475697285197791
0002b0 fb f9 3b b6 d0 91 c6 3f 55 db 2a 04 e1 fd a6 3f
       0.17632492921980245 0.04490569282409377
0002c0 5c 49 22 13 d8 2e b0 bf fd 32 69 61 01 0d fe bd
       -0.06321478335511216 -4.3729672783131823e-10
0002d0 48 f2 5d 96 be 64 ce bf ff 80 17 d4 78 e8 96 bf
       -0.23744947759759527 -0.02237118525033654
0002e0 c7 91 73 db af f4 c0 3f 48 20 a7 85 99 4a c2 bf
       0.1324672528782129 -0.14290160203950308
0002f0 75 3e e3 61 ef 3a b4 3f 81 11 65 96 42 ca 82 bf
       0.07902427806697594 -0.009174843039212234
000300 7f 04 c7 93 a9 6e ce bf 88 3f ef d3 c8 3e b7 3f
       -0.23775214877790415 0.09080176519569083
000310 00 fe c3 a0 56 da bc 3f d4 1a 21 48 f0 13 c7 3f
       0.11270657944623252 0.18029597780169715
000320 88 9d d9 18 8f 9c b5 3f a7 32 77 1e 86 f0 b3 bf
       0.08442015034380834 -0.07788885349072903
000330 91 9b a3 3a 90 0b b1 3f dc 59 f1 a5 ad 89 ca bf
       0.06658269340151281 -0.20732660868334463
000340 41 55 4e 18 77 90 c9 3f e1 8e 45 e8 73 86 c7 bf
       0.19972122847381438 -0.18379067269699248
000350 cb 10 6c 54 bc 95 c7 bf 18 58 f7 38 91 cc 8c bd
       -0.18425706979917886 -3.274077575936583e-12
000360 af 65 7d 6c f3 82 d4 3f 58 49 44 5f 02 33 84 3f
       0.3204926070662521 0.009862917454061801
000370 95 86 d8 fd 54 4f d1 bf 0b c2 13 fa 22 26 cd 3f
       -0.27046704091672186 0.2277263375358561
000380 a5 ca 74 57 63 af c2 3f 25 48 47 d2 c2 60 77 bf
       0.14597741861651517 -0.005707512875647002
000390 3b 65 76 91 c3 be b5 bf d5 21 38 e9 c1 5a c9 bf
       -0.08494207669572955 -0.19808219802531704
0003a0 08 e2 7b 88 2b ad aa 3f c9 b1 09 73 0b 13 cb bf
       0.052102432642588126 -0.21151869885524224
0003b0 59 83 3d 7b b3 a7 8d 3f e6 29 6d 52 4b c9 c3 3f
       0.01448002071237091 0.15458051228263442
0003c0 69 56 95 51 aa db 9d bf 2f 07 9e 1d ec 56 b2 3f
       -0.02915826914735079 0.07163882945135634
0003d0 15 92 34 43 cb f7 bf 3f df 47 3d fd 80 23 8a bf
       0.12487478628879274 -0.012763030746700764
0003e0 ed b7 7f 98 e9 2c ab bf 68 99 22 ac ca bb 7c 3f
       -0.05307703005369988 0.007015029610704417
0003f0 99 de c6 8e 19 a6 a5 3f 7f e3 b0 7a 4c ca c9 bf
       0.04228286617165828 -0.2014861678196915
000400 4f e5 db b6 9e e2 c4 3f e0 14 ad 94 d9 bd aa 3f
       0.16316589287434133 0.05222968997854038
000410 c1 73 aa 1a 2f 33 d4 3f 24 75 bb ea 6b e0 c9 bf
       0.3156240234764561 -0.20216130219970652
000420 23 b6 f1 35 9f cf b8 3f f1 31 aa 03 80 4b b8 3f
       0.0969180590343162 0.09490203942750221
000430 58 ba 12 b7 2c 10 c7 3f 6d 91 9c 89 e3 12 c3 3f
       0.18018111170882167 0.14901394099537005
000440 9d c4 30 dc cb 27 ba bf b7 42 5f 60 20 36 ba bf
       -0.10216974378342276 -0.10238840439638862
000450 9f dd e0 15 27 de bc 3f 32 8b 13 c8 92 29 c1 bf
       0.11276478084697893 -0.13408121842720672
000460 1d b7 7f e7 bd 91 bc 3f b1 4d 9d 68 51 6f c2 bf
       0.11159884359196011 -0.14402215583923586
000470 d3 7c 5e 46 ff 92 bb 3f 2f ff 41 f1 ca 01 a5 3f
       0.10771174877162375 0.041029302549758
000480 b7 32 f8 00 48 c8 ca 3f c0 86 fc 7d 17 82 81 3f
       0.20923709914531738 0.008548911602307085
000490 15 ea bd df 21 35 45 bf bd cb c3 35 23 44 10 be
       -0.0006472030067777324 -9.468152573245249e-10
0004a0 88 f6 47 3a 46 f2 d4 37 14 f3 f8 4d 71 d5 d1 3f
       9.618107877672915e-40 0.2786525021981998
0004b0 83 5f db 25 f1 38 c9 3f b3 b8 4f 32 6f f2 cd 3f
       0.1970502314422867 0.23396100956546703
0004c0 46 cf aa a9 8f 5b d1 3f 90 ea 9f 96 6c 2c a0 bd
       0.27121345109047856 -7.354870798348598e-12
0004d0 aa a5 11 0f e5 90 b0 bf 95 c0 be a5 c1 77 8e bf
       -0.06471091859716319 -0.014876854773177942
0004e0 d7 1c 9d f0 82 bb c7 3f e1 eb db e4 03 22 ac 3f
       0.1854098963615118 0.054947015463731715
0004f0 bd 2f 4e e0 50 8a ba 3f 2d 7a 45 d2 4f 14 ce 3f
       0.1036730334873814 0.23499486701162323
000500 95 61 7a da f7 43 ce bf ad 15 77 6a 43 15 8e bf
       -0.23644922416566475 -0.014688994108733444
000510 4b 83 73 fe 33 86 c5 3f ef 0e f0 50 27 ec c3 bf
       0.16815805363060074 -0.15564433528935903
000520 8f 9b 85 ec e3 04 a4 bf 85 06 ec fd 8e 13 bc 3f
       -0.03909981024008068 0.10967343997256236
000530 e4 e9 31 ca d9 16 c0 3f 89 2c c2 27 59 40 d2 bf
       0.12569734928895493 -0.2851775062815212
000540 37 54 83 53 2c c1 c5 3f 4c 95 cc 5e a9 e5 c0 bf
       0.16995767667563808 -0.13200871590485475
000550 d7 b5 ca 3b f5 91 84 3f 32 4e 0e 46 53 30 73 bf
       0.01004401768417555 -0.004684758460729509
000560 95 f0 6d 02 07 d7 b8 3f 31 10 e1 1f 6d 86 af 3f
       0.09703105744660186 0.06157246603154965
000570 c3 e3 27 cc 00 56 c4 bf 41 13 08 9b 6e d9 cb 3f
       -0.15887460678621154 0.21757299966716384
000580 75 2f a5 b7 08 70 c0 bf 1f 2a 83 63 b9 db b3 bf
       -0.12841900794080244 -0.07757147483349812
000590 70 de b3 5a 0a 80 93 bf a4 49 4c b0 75 6e c6 bf
       -0.019043123041198873 -0.17524596317578045
0005a0 81 a7 51 23 6d 35 95 bf f5 76 5d dc 3c 50 b7 3f
       -0.020711617737482427 0.09106808071143375
0005b0 41 5e 72 e8 e1 d7 ae bf cd 7f ed c1 65 79 bd bf
       -0.06024080240711927 -0.11513362869800332
0005c0 81 ea 0d dd 3c 8b 95 3f b5 a1 16 23 a3 b2 c7 bf
       0.021038962356650707 -0.1851390763597586
0005d0 c0 23 f5 99 64 4b cd bf b6 96 61 01 07 fd 94 bf
       -0.22886331098041346 -0.020496472796728248
0005e0 d0 4c fb 79 fe 82 bd bf 99 42 93 f0 5c 83 a5 bf
       -0.1152800605589619 -0.04201784550389682
0005f0 91 9f e3 48 ce f6 a1 bf e0 46 44 c2 d8 de b6 bf
       -0.03508610381851363 -0.08933787100638879
000600 4d 49 cf a1 7c df d4 bf e8 1a 36 05 34 eb be bf
       -0.3261405544445964 -0.12077641608457734
000610 a4 96 f3 ea fb ee d4 bf 13 f7 f0 87 70 5c bb 3f
       -0.32708642906650653 0.10687926596525825
000620 fd 22 9b 0a 48 ff c4 3f 25 87 5e e8 35 de c8 bf
       0.1640405704295275 -0.1942813286414601
000630 d7 c6 e6 c9 d3 4d c4 3f 1a 53 74 34 a8 69 b1 3f
       0.15862510069341937 0.06801844864487486
000640 0d 24 65 34 11 32 b4 bf 04 7b c0 d2 12 3b c6 bf
       -0.0788889649312667 -0.1736777810155773
000650 0b ba 18 89 3b 49 ad bf b5 8b 22 49 f4 4b 5e bf
       -0.05719934509794563 -0.0018491635897042006
000660 20 67 f3 eb 2b 6b ae 3f 0d f2 27 a6 91 c6 c7 bf
       0.05941140418299384 -0.18574734318816902
000670 50 18 e8 dc 37 66 ca 3f 55 7c 6e 9e e7 5b ab 3f
       0.2062444523473368 0.05343555268267922
000680 20 3a 18 15 76 d2 c5 bf 5c 6e 9d 0c a6 d1 9b bf
       -0.17048526792537277 -0.02716693355556142
000690 f0 bc e7 af e4 1a 62 bd 57 8d 46 de 1c 0a f7 3d
       -5.145765268444734e-13 3.3526889448332925e-10
0006a0 c4 6b c6 1c 62 2c 40 3b c5 fa c1 a2 6d a0 cf bf
       2.6756599642502904e-23 -0.24708338210253636
0006b0 fd 9e bc c5 64 c4 cf 3f 83 99 2f ad 53 96 c0 3f
       0.24818095831982837 0.1295876117357687
0006c0 1a b3 2b ef 2b c0 c1 3f d8 01 ac 04 01 89 a6 b8
       0.1386771123719875 -8.476789481833422e-36
0006d0 1b f2 df 56 26 34 af 3f 93 86 a0 e8 cb 4d 8a bf
       0.060944746117432134 -0.012843697582926061
0006e0 fd 04 ac a7 7b b2 b0 bf 15 40 bd 26 b6 d1 a4 bf
       -0.06522343486360067 -0.04066247198954912
0006f0 5a 8b 4e ef bc e0 b1 3f 81 ec 30 7e 97 87 c9 3f
       0.06983548014117727 0.19945043241191132
000700 05 d4 2f 5a f1 70 b1 bf d3 a6 07 f9 52 b8 a8 3f
       -0.0681296200926483 0.0482812813750805
000710 a0 ea a8 c9 ec 6f c3 3f 00 f3 7d 94 6f 6d aa 3f
       0.15185317846938506 0.05161617934843399
000720 7f 9f 1e 61 82 f5 cb bf 59 c0 9a 09 09 47 c7 3f
       -0.21842984907311444 0.18185532540292362
000730 a5 43 61 74 4c ed c3 3f 53 9d 83 ef 0c 98 d0 bf
       0.1556792801152628 -0.2592804278378555
000740 21 53 c7 6f 13 b1 c7 3f db 7f 10 ad e0 04 c8 3f
       0.1850914283555989 0.18764885378277438
000750 09 dd 30 ae d3 10 cf 3f 35 7a c1 dd f9 54 5a bf
       0.24270101552404125 -0.0016071739292084057
000760 a0 ca 3c 6e 23 b9 b0 bf ad ac 71 d6 49 52 cc 3f
       -0.06532498780578999 0.22126124354267543
000770 47 82 49 61 ae d3 c2 bf dd dd c9 b3 90 21 be bf
       -0.1470849967036136 -0.11769966496819202
000780 40 59 33 82 45 b6 60 bf 00 6d 7f df 29 8d c4 3f
       -0.0020400388326421715 0.1605579701707498
000790 18 42 ec cc 68 f3 ca bf f8 3e 9c ff 1c 93 c4 bf
       -0.21055326467514202 -0.16073954087232045
0007a0 a4 0c 6d 7a 4f c9 8a bf 6d ce 24 fd 28 a4 c3 bf
       -0.013079281734127264 -0.15344726906333808
0007b0 b9 33 d4 26 eb 1a cf 3f 1d 51 fb 9a c8 ec d1 bf
       0.24300898929541662 -0.2800771249287822
0007c0 6a 5b f4 94 d4 b8 70 3f ab d4 41 90 af 4b d0 bf
       0.00408251800333557 -0.25461949432003433
0007d0 84 c2 d0 ba 2b 05 b7 3f 83 50 69 6d 2c 2c 81 bf
       0.08992265044140352 -0.008385035599680407
0007e0 8c 52 85 1d 83 e2 95 bf a1 89 1c 4f de 9e 8d bf
       -0.021371887852483826 -0.01446317366532385
0007f0 c3 91 f3 67 63 2f bc bf 5d 45 25 f7 66 6e 8c 3f
       -0.11009808814885162 0.0138824505017136

arr_1 f8 [64]
000000 dd 66 9f 38 ee d7 97 3f 4e 1e cf 77 3f de c4 3f
       0.023284647184346297 0.16303246831943102
000010 dd 81 88 57 4d a4 b4 3f 34 2c 87 b2 1d bb 9a bf
       0.08063205134431635 -0.026104415914044846
000020 ff 1a 6c a0 ce f2 ac 3f 5d b2 95 19 fe b9 aa 3f
       0.056539971430586526 0.05220026075662496
000030 d9 78 ec 93 4d 44 c2 bf a9 20 aa a7 d0 6a c3 bf
       -0.14270944331014482 -0.1516972368883718
000040 7b 81 96 ed ec 0b c3 3f 91 78 82 7c 52 85 a4 bf
       0.1488014373872025 -0.04007966775792327
000050 45 f7 b2 a6 d9 a6 b2 bf 4b 90 9e 1b c6 0b 73 3f
       -0.07285843200494664 0.004649900301874575
000060 ca e8 a8 11 57 67 c2 bf b8 70 cc 1f 90 ea c6 bf
       -0.1437786899785521 -0.17903329422631997
000070 f8 63 fe 2b 00 6e b9 3f d8 93 b4 98 eb c3 bb 3f
       0.09933472703995949 0.10845825651320185
000080 05 41 3e d3 87 18 be bf cc 5c cc 30 c2 cb c1 3f
       -0.11756180674843016 0.13903071768502284
000090 05 3c cb d8 c4 4e 7b bf cb 7e 9d 16 49 05 c7 bf
       -0.006666916783344416 -0.17984880069979278
0000a0 c5 b5 55 da 76 b5 cc bf 5b 54 c7 20 b6 06 86 3f
       -0.22428785000685827 0.010754988551449232
0000b0 50 02 70 1a ec be a5 bf 10 45 69 64 ee 51 b6 3f
       -0.042472246386755175 0.08718767119832571
0000c0 70 89 35 66 5f 95 c8 bf 4d 93 1c 3b f7 97 bb bf
       -0.19205849161796662 -0.10778756325869417
0000d0 74 09 20 04 25 65 ba bf 3b b1 02 45 94 ef b5 3f
       -0.10310584402762918 0.08568693814112731
0000e0 cf e1 93 72 21 16 bb 3f ec aa 8f d7 c4 12 8e 3f
       0.10580643698984392 0.014684236362844293
0000f0 f8 df c1 7a ba b0 c7 bf 67 a3 d1 f9 93 0b cd bf
       -0.18508082384118985 -0.22691583345592933
000100 18 10 07 da 07 fa b8 3f f5 aa 2b 4b 75 a0 b9 bf
       0.09756516526164238 -0.10010464749545263
000110 56 24 2a fb dc 35 b1 3f 21 4a 6a cb 72 18 b2 3f
       0.06722813732098251 0.07068555322829485
000120 bb 82 2e 74 39 c7 b9 bf d5 b1 8e 33 13 98 b2 bf
       -0.10069617353884557 -0.07263298042989359
000130 c3 e2 79 5e c1 11 be 3f 4e 75 6e 0f 2d 0f b3 3f
       0.11745842510743913 0.07445031763787321
000140 49 ee 25 16 f7 24 b2 bf 6f 8e 6d 85 3a 9e b0 3f
       -0.07087654391028154 0.06491437680738853
000150 ed e2 21 87 b4 99 a8 bf 9b 60 9a a8 84 7d c3 3f
       -0.048047677512789246 0.15226801140375276
000160 d3 a7 0b 0e 1b 07 c2 bf 35 bf 64 91 f4 4e b8 bf
       -0.14084184823815224 -0.0949547629322723
000170 11 ea e6 58 54 be 99 3f 25 37 18 b7 1b 1f b0 bf
       0.02514011185278703 -0.06297467441637801
000180 7d 81 ad 1e 54 b4 b4 bf cd 68 fe 33 5a 6f ae 3f
       -0.08087659596413306 0.059443301054857046
000190 f5 db 3c 5f 47 22 ad 3f 25 7a 0d 15 ef 35 bb 3f
       0.05690215146608316 0.10629171623211471
0001a0 33 06 99 1e 4f 9d cb bf 3c d6 38 54 03 62 90 3f
       -0.21573819154768756 0.015998889937881552
0001b0 c8 10 8f 68 bc 41 c8 bf fb 6b 11 89 7b 48 b8 3f
       -0.18950610261356915 0.09485599609745059
0001c0 e9 55 b2 ad d7 6d c4 bf 64 0c 31 78 7e 7e c2 3f
       -0.15960212689667166 0.1444852911828064
0001d0 0c 4d 4a 35 8b d7 9d bf c1 d3 71 87 c8 af 80 bf
       -0.02914254677541543 -0.008147780068819334
0001e0 9a 56 9d eb 53 c3 a1 bf 9f 27 3a 49 ec 8c 51 3f
       -0.03469335795550173 0.00107119631585071
0001f0 40 7f 51 6f 4c 2d c0 3f 4d d8 5d f0 af 05 8d 3f
       0.12638240275827606 0.014171003840356767

arr_2 f8 [64, 32]
000000 8f 9f cc 50 7f 7d c2 3f d7 66 7d e4 b6 b4 c7 3f
       0.1444548744705085 0.18520246655207614
000010 05 04 b1 1b 9d 82 be bf 18 75 44 75 8c 8c c8 3f
       -0.11918050695477696 0.191789204844931
000020 3b 56 28 86 74 44 bf bf c3 1c b2 6d fb bf a5 bf
       -0.12213829303103634 -0.04248033250865426
000030 a3 8e 02 28 ff 09 8a 3f 78 1e f7 3a b3 85 78 bf
       0.012714379700191463 -0.005986881369103629
000040 4b 7d 80 b9 57 d4 86 3a f9 bb 1b 8b b5 a1 b3 3f
       9.220746904915787e-27 0.07668623586845048
000050 51 af a6 66 b1 43 ac 3f fd 3b 4f ac 61 7a b9 bf
       0.05520395639481868 -0.09952364403510212
000060 b1 21 23 6d 20 21 79 bf 83 ea 2d 75 00 85 bf 3f
       -0.006135107674886718 0.12312319622825822
000070 b8 95 e9 72 f5 fd bb bf 37 3b 4c 30 0d 35 c1 bf
       -0.10934385352592002 -0.1344315038517949
000080 94 1e 72 34 3b 81 9f bf 50 18 f3 80 c8 2b ba 3f
       -0.030766415668522187 0.10223057888205855
000090 b5 de ef 6a 0b 62 ca bf fd b4 bc 96 ed 99 cc 3f
       -0.2061170837548524 0.22344751224719764
0000a0 05 26 ad aa d7 80 b5 3f a1 d0 3c 64 73 cc b2 3f
       0.08399722973731379 0.07343217084127442
0000b0 90 7b e9 03 36 80 b5 bf 5d 94 a4 bf e3 df c6 bf
       -0.08398759456166105 -0.17870756967127735
0000c0 7b 03 bb 9d 4c 61 ca bf e3 fc 12 7f bf 20 22 be
       -0.20609433843312872 -2.110367874023711e-09
0000d0 ad aa b4 8c 76 4b bf bf 3c c5 9a b1 7f 2d 6e ba
       -0.12224522528837652 -3.047171989817144e-27
0000e0 64 75 4f 36 43 06 c2 3f 91 9b 49 7b fd 64 c4 bf
       0.1408161177813937 -0.15933197517298628
0000f0 86 b7 6f dd c0 f0 c4 bf 89 7e 0f 83 7b 0a ca 3f
       -0.16359721004795008 0.2034448995536773
000100 45 36 11 cb 92 8e c6 3f 63 93 db d2 9e 32 c8 bf
       0.17622599521057417 -0.18904481216227528
000110 bb 4b 6f 11 18 38 cc 3f 41 6d 58 0d e5 38 c6 3f
       0.22046185351663702 0.17361128951675123
000120 8f 70 c0 21 cb 3c 88 3f 45 b4 c5 4a b6 f4 ae bf
       0.01183470436813419 -0.06046075499293883
000130 9b dc 3e a3 b3 e4 ba bf 89 f3 79 46 a0 92 72 bf
       -0.10505221114623213 -0.004534364772209262
000140 3d a4 da 48 a7 57 dc bc 8d b9 9e 46 f2 50 c6 bf
       -1.5733190478325507e-15 -0.17434528778308014
000150 3e b1 9e ce 84 ad b2 bf 4c a4 7c f5 78 41 b2 bf
       -0.0729601864283653 -0.07131153100330428
000160 7c 4d 93 00 46 b5 cf bf 35 04 29 5c 5c 99 ca bf
       -0.24771952655883556 -0.20780519962321056
000170 91 dc 5f ce 91 55 b5 3f 20 f2 f9 00 6e 1c bb 3f
       0.08333693779410313 0.10590255283199967
000180 dd ec cf 18 1c c1 c6 3f 75 fd 2b e7 4b 3b 9e 3f
       0.17776824199231714 0.029523073181733268
000190 3b 66 63 f4 7c a1 cd 3f 8b 36 41 c6 1e a4 cb 3f
       0.23149072583218974 0.21594605141074327
0001a0 66 93 16 02 c8 68 c3 3f 09 64 15 53 1a 65 c4 3f
       0.15163517095529783 0.15933541352094974
0001b0 45 6c d8 32 bf 7f a3 bf 73 a5 f0 6f 03 fb cd 3f
       -0.038084006268228644 0.2342228218633796
0001c0 5b d8 04 72 1c 62 ce bf 06 28 2d bf ee d5 a4 3f
       -0.23736911361055743 0.04069467624374572
0001d0 47 ec 6e 85 d0 e2 a6 3f d7 41 97 ff e3 dc c3 3f
       0.044699207580798865 0.1551785467149915
0001e0 f8 23 c2 a6 43 b9 a9 3f 39 75 06 fa db 69 c2 bf
       0.05024157915710953 -0.1438555689646053
0001f0 d8 6e f1 30 b7 b1 ac 3f 48 6a d1 4f 0a c3 c2 bf
       0.056043362354754656 -0.14657715699543616
000200 e0 df ad f0 c7 6f cf 3f 89 e9 7c d4 43 f2 b2 bf
       0.24559878589548045 -0.07400916993802843
000210 af 84 06 c7 26 8b c5 3f ab 36 ab 27 70 b1 76 3e
       0.16830906599083081 8.453845083273912e-08
000220 bd 5a 9e 9e c9 3c bd bf f3 75 09 2d 46 c7 bf 3f
       -0.11420879480861408 0.12413443183455523
000230 37 c8 48 87 d4 07 cb 3f 4d c4 33 45 44 f0 6e 3f
       0.2111764584129234 0.003776677456351274
000240 9f 20 36 88 df f5 02 be a7 df f1 ee 4d 0b cd bf
       -5.518214916459736e-10 -0.22690748374202238
000250 bc 5f e4 14 af 90 69 b8 61 5a e4 c8 7a 11 87 bf
       -6.01034294305144e-37 -0.011263808494317464
000260 11 49 e7 c2 50 f1 e7 3c 8d 2d 08 5a 0d a9 bd bf
       2.658166861099922e-15 -0.1158607811741403
000270 d8 32 d9 11 1e 52 c6 3f 57 19 07 ae 96 cb 4b 3e
       0.17438102599626037 1.294318025057224e-08
000280 d3 ff 2a bf a6 a5 c9 3f 74 df 1b d1 53 39 b6 bf
       0.2003677781522116 -0.0868122468490336
000290 1d 62 72 fb ec c2 98 3f d8 9e 15 b4 3e 9e c7 3f
       0.02418108257970363 0.1845167521780613
0002a0 0d 9a 88 20 01 57 bd bf 5d f5 8c d7 9b 5c 97 3f
       -0.11460883182790145 0.022814211875119884
0002b0 9b 76 97 47 bb d6 dd bb b1 a6 05 4d 09 80 93 bf
       -2.5274442607527228e-20 -0.019043107343725555
0002c0 6b c1 17 d4 c0 85 cb bf f5 ff 45 68 b6 1d 40 bb
       -0.21501932483762273 -2.666179231729516e-23
0002d0 65 7e 2f dc f4 ce 77 3f 69 1d c8 16 ce d2 c5 b7
       0.005812603459133568 -5.010420042366338e-40
0002e0 f8 8e 71 8d c6 7e cd 3f 99 da c7 c6 01 49 b6 bf
       0.23043138414788422 -0.08705149748844078
0002f0 b5 ef 85 1c 71 ca d1 3f 34 61 06 74 21 1a cd 3f
       0.2779810694262282 0.2273599449661191
000300 df 32 88 f1 95 33 8c bf c5 ae 79 b7 b9 cb 72 bf
       -0.01377026694628952 -0.004588818984853031
000310 69 75 e2 f2 74 a8 c2 bf e7 6b 90 6a 45 27 c3 3f
       -0.14576589450454527 0.14963596061065162
000320 74 e5 2e 0b a9 ae c5 3f 00 6c d1 bc a4 aa ac bf
       0.16939271017126212 -0.05598940663249863
000330 5d a3 c4 89 85 35 c9 bf 1c 70 14 31 55 e3 61 bf
       -0.1969458506294143 -0.002183596029352598
000340 90 a8 ae de 50 0c c7 bc f9 be 27 41 52 cf c1 bf
       -6.397135314812335e-16 -0.13913944417389937
000350 93 07 8b 0b a0 bf af bf 94 ad ee d0 5f 8f ba bf
       -0.06200885907084266 -0.10375021792304145
000360 cb c1 3d 5f f7 5a c3 3f 71 14 c2 13 c5 13 b1 3f
       0.15121357107592667 0.06670791370750508
000370 15 b4 96 01 6e 0d cc 3f 20 9f b8 67 4d fb b3 3f
       0.21915984227726484 0.07805331976180385
000380 dd d4 10 31 06 0c c4 3f 40 0a a2 3e 04 36 ca 3f
       0.1566169490412567 0.20477345522165713
000390 d8 2f 71 95 94 18 ba bf 5f eb 5c e8 8b 67 cf 3f
       -0.10193756721963554 0.24534748884056065
0003a0 f5 44 da f1 cd 7f c6 3f 65 5c 2d fe be 41 c6 3f
       0.1757752829476328 0.17388141070361765
0003b0 81 44 ed 94 50 fe ba bf 39 27 56 81 84 63 c6 3f
       -0.10544303546818591 0.17491203608761355
0003c0 c3 a0 d1 ee d0 53 b5 bf 3d ee 78 4b da 2b b4 bf
       -0.0833101828626495 -0.07879413931453257
0003d0 51 e6 7b 0f f6 ab c7 bf dc 28 e3 2a 51 f3 a2 3f
       -0.184935338554896 0.0370126118519509
0003e0 88 e5 4c 53 b1 99 c1 3f 10 15 92 f2 3e fb a5 3f
       0.13750282828713645 0.0429324790102702
0003f0 d4 cc e5 60 97 74 bb 3f 43 cb ff ce a9 07 a9 3f
       0.10724779239335486 0.04888659145208021
000400 d8 76 f4 e1 2d 23 ae 3f a9 a9 dc 7d b3 de b6 3f
       0.05886214621771807 0.08933564970781184
000410 6b 71 91 ac 12 20 c6 3f 33 29 27 ca 36 cc b9 3f
       0.17285378862551268 0.10077230868697455
000420 98 1c db 38 d1 e5 cd bf 1d a3 59 d8 fe dc ad 3f
       -0.23357596660773505 0.05832668677323325
000430 a5 69 b8 66 df 96 c8 3f 00 08 b8 4e 90 22 68 bf
       0.19210426822321583 -0.002946168757035572
000440 b0 51 ee 80 7a 99 dc b7 ef f7 7a bb da 75 a7 bf
       -1.3132258074160375e-39 -0.045821032892021545
000450 3b 3a ed 56 25 30 a2 bf fb cd 9e 08 b8 0d af 3f
       -0.03552357374302458 0.06065154175976414
000460 17 b6 c3 22 9b 72 c0 3f 05 ae 8d 1b 53 9d cc 3f
       0.1284974975346109 0.22355116696722646
000470 0b a1 1f 41 38 a9 a3 3f 00 05 96 66 12 66 ad 3f
       0.03840041918721412 0.05741937162657429
000480 39 30 96 19 73 16 c6 3f c3 f0 e7 00 5d 30 95 bf
       0.17256010770177158 -0.020692303829478186
000490 c8 74 8c 42 c9 fe 87 bf 31 1c 20 5c b2 ee ae 3f
       -0.011716434806255185 0.06041486143663411
0004a0 9b 3e b2 9b e4 f7 a9 3f 01 47 cd f4 19 30 d0 bf
       0.050719398504154266 -0.2529358759539804
0004b0 30 95 e5 d7 ee 51 ce bf 20 f8 bb cf d2 8c c0 3f
       -0.23687539617382347 0.1292975916221062
0004c0 00 2a 76 66 5e 1f ca bf b4 18 72 bd 66 69 b7 3f
       -0.20408229830748326 0.0914520466340914
0004d0 9f d4 55 50 a1 51 b2 3f c9 57 71 bb 9c d0 cc bf
       0.07155807696638526 -0.2251163401840002
0004e0 ff 77 27 3e a7 a8 a3 3f 93 49 50 0a 3e c3 b7 3f
       0.038396097504787 0.09282291175649098
0004f0 f0 f1 cb 1c 61 1b cb bf 03 47 7f cd 9a 63 a7 bf
       -0.2117730513199514 -0.045681798539261485
000500 03 cb da b1 d7 61 c5 bf e4 22 7a 14 44 d6 ca 3f
       -0.16704841789540845 0.20966387748582982
000510 1c b2 39 cc 40 b3 cf 3f eb 87 d8 44 9a 72 c3 3f
       0.2476578709787568 0.15193489419567582
000520 ec f2 4c ae 5d 2e 90 3f b1 56 dd 77 7d 6e c7 bf
       0.015801872027838934 -0.18305939057124967
000530 7b 9b 22 ee 4d 8a b7 3f bc 5c 78 99 dd aa 5d bf
       0.09195410789344109 -0.0018107570703074635
000540 39 b8 21 2b 89 25 b2 bd 67 82 c7 2c a0 d0 b2 3f
       -1.6504258633133075e-11 0.07349587529416511
000550 62 73 70 d7 fe ee a2 3f fb de 17 e5 58 da 6f 3f
       0.03697964076875483 0.0038882957676341623
000560 64 f9 87 5e ce ea ae 3f 65 d0 6e 25 e5 fa a4 3f
       0.060385178603598516 0.04097667772239858
000570 4b b9 65 4f d9 ef c6 3f 55 74 20 c5 01 51 bf bf
       0.17919460655998373 -0.1223298174158612
000580 67 9e bb 70 6f 10 c3 3f 98 8a 2f 03 57 49 c9 bf
       0.14893906597648085 -0.19755065589477705
000590 9f ff dc b2 48 95 d0 bf 93 7b 41 87 19 97 c8 3f
       -0.2591115709983515 0.19211119751249991
0005a0 62 67 ae 22 11 73 a4 3f 4e f2 10 db 62 98 c0 3f
       0.03994039104800497 0.1296504563960234
0005b0 93 e3 0f 50 ad 87 b7 3f 7b b0 76 16 93 a3 87 3f
       0.09191401676788606 0.011542462466273875
0005c0 f7 be 2c 46 bc f5 c6 3f 8b e1 18 d1 8f 17 99 3f
       0.17937425066474308 0.024503943574218517
0005d0 ab 51 28 36 f5 5f bf 3f 68 77 28 6d a2 bc 70 3c
       0.12255795070843216 1.4516906279637482e-17
0005e0 68 fb 1f 9b 94 74 c2 bf 23 2d 9f f3 12 b6 be bf
       -0.14418275427302807 -0.11996572921559738
0005f0 b0 4c 21 38 49 29 d4 bf 2a 47 9f b5 4b 29 a2 bf
       -0.3150198982377317 -0.03547131149356482
000600 09 74 aa 84 88 e3 c1 3f a0 16 1a 5f 3a cd 95 3f
       0.1397562644750965 0.021290695242461966
000610 63 1e bc 0c cb 33 ba bf 21 30 4e 5d e1 75 c0 bf
       -0.10235280095013759 -0.1285974221794968
000620 a3 8a 1e aa fc b0 b6 3f 7b 6e 22 cd ae 8d be bf
       0.0886381068544702 -0.11934940822760069
000630 fa 4d fb 2f 3b c9 c4 bf f3 c7 31 ff 41 e5 7c bf
       -0.1623910888944094 -0.00705457477589454
000640 b3 89 15 ba cd bc 41 38 f7 87 6b 14 f9 20 cf bf
       1.042517383650242e-37 -0.24319375512192185
000650 c4 76 2d 92 19 16 96 3f 5b 5d ae be f7 4b cf 3f
       0.02156867937752939 0.24450585184670612
000660 99 0e 1d b7 c4 1d aa 3f 7f 3c 0b d6 11 08 ce 3f
       0.051008365013811736 0.23462126685487658
000670 e4 84 c8 77 28 b3 b1 3f a7 5f 7b 46 9c 33 9b 3f
       0.06913998531719617 0.026564065744281298
000680 0d 55 39 95 f1 35 b8 3f bf 7b 98 ee af 4d c2 3f
       0.09457311528361263 0.14299582624604842
000690 17 37 11 a6 9f 33 d0 bf 50 51 2f 71 3f 87 8f bf
       -0.25315085618500305 -0.015394683496119527
0006a0 48 b9 b8 b3 b8 5e c8 bf d0 ca 61 ab 64 fd c2 3f
       -0.19039067054240832 0.14835794800054325
0006b0 56 7c 0b 53 2c 60 c0 3f c3 d5 e7 e5 3a 30 c9 bf
       0.12793497137951942 -0.19678436494693416
0006c0 13 ab 0e 7a 8f 98 be 3f 40 eb f8 8d ad 74 a4 bf
       0.11951538782038211 -0.03995268209515368
0006d0 51 ff 66 ce e1 33 cf bf 33 8a f3 72 2f cc e4 b7
       -0.24377081468810016 -1.9099578244116667e-39
0006e0 d5 6b b4 79 eb 2c ac 3f f7 41 61 47 d6 34 bb 3f
       0.05503021107343612 0.10627497904466297
0006f0 cb 2f c8 36 62 7b c0 bf e3 70 f2 47 c1 58 cc 3f
       -0.12876537012959796 0.22145858777083224
000700 2b 18 f5 78 ce dd c9 bf 5b 4c be c7 20 5b a4 3f
       -0.20208149820445107 0.03975775182984683
000710 a9 49 99 d2 b2 26 cd 3f 98 76 4d f0 f2 0d ce 3f
       0.22774348528998914 0.2348006890633101
000720 87 bb e0 ec fc 24 93 bf 6d 04 68 e5 cd 4d c3 3f
       -0.018695785482289586 0.15081189824562405
000730 75 8c 28 0b d7 58 cc bf e4 75 fe 61 a6 6a 82 bf
       -0.22146118206828516 -0.00899248110345758
000740 00 6c d8 c0 32 44 a1 be 37 2f 76 37 8f 3d aa 3f
       -5.145788024048378e-07 0.05125091125509445
000750 a1 ef aa c3 15 b9 c5 3f 67 ee a0 1d ef 08 c2 3f
       0.16971084646308746 0.14089764544211222
000760 71 f2 db bb 00 2f b7 3f fb e1 9b ad 5c 57 bf bf
       0.09056095682530853 -0.12242678869723271
000770 cd ac 8e d6 f0 ae cb 3f 17 7a 16 74 57 30 cb 3f
       0.216276268734282 0.2124127690157855
000780 5b d6 f9 e3 db 14 a4 bf 63 46 08 f3 03 49 bf 3f
       -0.03922164113911882 0.12220787700086926
000790 d4 45 6d 57 01 66 c2 3f bd c1 d7 ad 54 d9 7a 3f
       0.14373795288933755 0.006554919030790915
0007a0 4f 89 3f 42 a6 a7 8a 3f 04 a2 49 67 a9 2c b0 3f
       0.013015078446134835 0.06318148395224205
0007b0 e1 c8 29 47 2b 08 c7 bf 7d 66 3d 4d 17 ab c6 3f
       -0.17993679976240798 0.17709628364064037
0007c0 30 86 2f 19 17 11 cb bf cd 1b d3 ff b3 76 a6 3f
       -0.2114590523697628 0.04387438295230304
0007d0 a7 ee d2 c7 bc c3 c8 bf 03 a6 bc 89 35 c9 c5 bf
       -0.19347343213109022 -0.17020291543421714
0007e0 4f 18 45 2a d0 9c c5 bf b9 d2 da 25 71 92 b4 bf
       -0.16884805740318362 -0.08035952734173692
0007f0 0b 81 4f ea d4 5a c6 bf 37 95 17 29 b8 02 93 bf
       -0.17464696350999306 -0.01856506110006714

arr_3 f8 [32]
000000 64 1a 83 e3 39 ac a5 3f b0 4c 0d 61 d0 bf 96 3f
       0.042329606077647935 0.022216087268429774
000010 d0 17 a0 9e a2 19 ac 3f d8 e1 45 57 88 f7 b7 3f
       0.05488308130593078 0.09362079744995044
000020 ff 2d 7e 75 f3 58 a9 3f b9 0d 77 a6 94 09 c2 3f
       0.049506767361062735 0.14091737869430945
000030 a8 e1 ca 31 09 35 c7 bf a4 d6 09 76 f7 9d c8 3f
       -0.18130602771067328 0.19232075942607196
000040 08 b7 81 f2 d0 77 cd bf f8 9a 70 9a 53 ef b6 3f
       -0.23021900025508324 0.08958933372978695
000050 c1 66 20 66 29 fe 92 bf c5 af a8 15 bd 20 cc 3f
       -0.018547674997626332 0.21974910314145127
000060 11 0d 19 8b 16 7d 87 bf bf f8 fc 90 93 39 cf 3f
       -0.011469055290155102 0.24394459323406711
000070 91 57 89 c1 b0 80 b7 bf e7 0d 32 fd d6 b8 b0 bf
       -0.09180741047870657 -0.0653204315331589
000080 d0 a1 f3 52 a3 fd cd 3f 85 c6 f7 5f 31 6c c7 3f
       0.2343029170072115 0.18298928438121123
000090 a0 90 fd 97 d1 31 53 bf 8b 32 73 dd b0 26 ce 3f
       -0.0011715456784822456 0.23555575192439834
0000a0 5b e6 fd a8 03 49 cd 3f 30 ab 14 4a 61 16 ae 3f
       0.228790719523931 0.05876449612909196
0000b0 23 84 d5 d9 de 69 ce bf 5f f4 99 9c d5 f7 c3 3f
       -0.23760591160228825 0.15600080629875188
0000c0 a5 56 65 d7 99 48 a9 bf 27 ae 3f 27 08 88 9b bf
       -0.049382026236952904 -0.026886107821992546
0000d0 57 14 2b 25 dc f8 9f bf 0d 9d cf 5d 62 85 aa 3f
       -0.031222762840816234 0.051798891021286854
0000e0 99 b6 bc bb 3f ec c0 3f b1 93 bd 2e 26 1e ce 3f
       0.13220974604466987 0.23529507906201055
0000f0 bf eb df 57 34 76 c8 bf b9 b4 c5 60 ea 8d bb 3f
       -0.19110731402164835 0.10763420927624424

arr_4 f8 [32, 1]
000000 5d 2f ee 63 11 fe d7 3f 9b 6f 8f 4c 87 37 cd 3f
       0.37488207587079164 0.22825709570213068
000010 b1 5e 75 b3 13 3b d3 3f f9 b9 59 ab 6c 8f d1 bf
       0.30048077130548295 -0.27437893613287617
000020 a9 30 c2 96 0c 29 c0 3f 73 41 b8 ea 51 45 b3 bf
       0.1262527214170224 -0.07527648907148947
000030 a1 a6 8c c6 83 e9 c4 bf 95 d9 04 5b 1b 5e 9a 3f
       -0.16337630457683353 0.025749614172320873
000040 d4 63 3a 1a 9f 5e 08 be 71 e6 21 c9 a3 ff d4 3f
       -7.09249149390283e-10 0.3281030143913091
000050 4d d6 06 42 2e 8c c1 3f e8 f0 99 32 05 f5 c7 3f
       0.13709047531090093 0.18716492625015424
000060 99 62 48 cc 3b 0c 9d bf 55 e6 6a 48 e2 83 b7 bf
       -0.02836697992651924 -0.09185613887793782
000070 60 c0 ba ca ea 31 d7 bf 20 66 f4 7d e1 6e c8 3f
       -0.3624217014103177 0.1908838143361189
000080 e5 3e 86 e1 d8 f3 c4 bf 28 cc b1 c5 df 14 b6 3f
       -0.16369162570889909 0.08625601364637758
000090 c0 72 d1 80 ef a2 ba 3f c0 54 ed dd ab bf d7 3f
       0.10404869933104077 0.3710736911064707
0000a0 71 d8 1d b2 a3 76 d0 bf 90 21 b2 9f 1e c5 95 3f
       -0.25724117654988904 0.02125976419168435
0000b0 ed 90 60 e2 a0 a8 ce 3f 2d 21 38 ee 94 3f c3 3f
       0.2395211320264318 0.15037786132621403
0000c0 17 45 8b 9e 01 fe cb 3f 05 62 09 13 d4 4f 98 bf
       0.21868915788085339 -0.02374202123823645
0000d0 0e c6 d8 0b c1 ff c3 3f 29 3f 0c 14 34 b3 d0 3f
       0.15624249533134144 0.2609377094058681
0000e0 5c cc ca 0a db 24 d7 bf bc 6a 3a 7c 24 95 a8 3f
       -0.36162448934482483 0.04801286713082706
0000f0 9f 2c c3 7d 18 5f bf 3f b1 5f 1b 71 f7 7f d5 bf
       0.12254479475375256 -0.3359354595718243

arr_5 f8 [1]
000000 fd c2 b2 c8 f5 ee cc 3f
       0.226042483327113
