weights/global_round_16.npz (npz, 129966 bytes, 8 tensors)

arr_0 f8 [43, 128]
0	0x404604dc6014e29b	44.037975321004716
1	0xc03402859b458498	-20.00985117385116
2	0x40403bfa454ce9bf	32.46857515578767
3	0x4023d2c21383bd9b	9.911636934119818
4	0x40348ed6ac70b3e2	20.55796315909891
5	0x40349ee7b3f72304	20.620723007045868
6	0x3ff1b0c693ee992e	1.1056581286043854
7	0xc010308578335ada	-4.047384145864919
8	0x403d5a79d0a99c9d	29.353421250733494
9	0xc012fbfeaf96c3b2	-4.746088737084323
10	0xc00ed53574224956	-3.854105860992756
11	0x40247a07588fbcf3	10.238337295099404
12	0x40202c61d1ca744f	8.086683803523696
13	0xc01973d6e332c940	-6.363124418234577
14	0x402a2437f90aef46	13.070739538750455
15	0x4005f5042042283a	2.7446367759885364
16	0xc0396e88875e73b6	-25.431770763930864
17	0xc02147c911879964	-8.640205905726084
18	0xc01644b7e4ae4a6c	-5.567107747209416
19	0xc01ee94a4f0eeeec	-7.727822528158622
20	0xc0261e309db227b2	-11.058964660642093
21	0xc033a1fac4f5af41	-19.6327326869789
22	0xbfc7626711be2480	-0.18269050947518295
23	0xc0355d9ddef9ff1d	-21.365690170320807
24	0xc041b050e87aaa09	-35.377469119925145
25	0xc034997044632dbe	-20.59936931058268
26	0xc034131620becb67	-20.074556395130823
27	0x40148d8cfe0171d4	5.13823315509622
28	0xc031c32023bc8b3c	-17.76220916131136
29	0x401149d531886566	4.322102331113774
30	0xc038a3484d1012ac	-24.63782197611242
31	0xc01be6191fe7de1f	-6.974705217864112
32	0x40012b0308354dce	2.1460018769518916
33	0x400d94346d9f97f8	3.697365623886977
34	0xc03c99382a332f4d	-28.598513257499963
35	0xc0157042ad8c4ea7	-5.359629356087374
36	0x401992b0819aeb23	6.393251442985988
37	0x401913de3442a24e	6.26940232903196
38	0xc02b6af2101dd482	-13.708878043786402
39	0xc0319c26231b027c	-17.60995692643563
40	0xbffbe017286ce5ee	-1.7422095851055661
41	0xbffa659fdc81c928	-1.6498106587938057
42	0x402465e6c150d8d8	10.199026147002243
43	0xc03174db61c6ee3c	-17.45647250277237
44	0x40457f17a2dec438	42.99290881993551
45	0xc03b8e07b2d62014	-27.55480497100514
46	0xc0265ebe873b4251	-11.185047365173121
47	0xbfe67b38d4938294	-0.702541747272408
48	0xc02501d6b4980c0f	-10.50359119754833
49	0x40375d1bf89d62f6	23.363708055901007
50	0xc02fb57b0eb264f7	-15.854454478527698
51	0x40241a965e2dda81	10.051928465936045
52	0xc015da2b23486cd5	-5.463055182738761
53	0x3ffe758fef7f3744	1.9037017207478621
54	0x404635603f2771b8	44.416999716052885
55	0x401045381394a3d2	4.06759672732092
56	0xc0300c15650ad8e6	-16.04720145716501
57	0xc0318ee106ed5de7	-17.558121140433197
58	0x4031bebb521ce05e	17.745045787858878
59	0xc0051dd2ab76b674	-2.639561976967167
60	0xc036db9372cdbcf6	-22.857718634823833
61	0x404105b7b9e3fee7	34.04466937668422
62	0x40109ec393fd704d	4.155042946189565
63	0x3fccd38061c4fdf8	0.22520451330090885
64	0x403200f7a9d5e604	18.00377904388553
65	0x40219608e5263f2a	8.793036614340583
66	0x40394bf7d7fb791e	25.29675054444771
67	0xc0346f93f28a843a	-20.43585124856711
68	0x4013d54bf87fd797	4.95829761772429
69	0xc0312a240317ef2c	-17.164612000792815
70	0x40337ed83dd01992	19.49548708277286
71	0x4030e30ef5b5f0b3	16.886947018546106
72	0xc03b62d77d9e960a	-27.386100627152736
73	0xbfbcbce29b265780	-0.11225715911709067
74	0x402ec350e9a64a8c	15.38147668986246
75	0xc0358ec20a92ce96	-21.557648335305736
76	0xc0379526d028d722	-23.582623491259376
77	0x404702517331b766	46.018110656047426
78	0x4014732a3a24b0a4	5.112465771188145
79	0xc024b56d2609a241	-10.35434836261368
80	0xc010051ae67421c6	-4.004985428655749
81	0xc027ee3aa63811a6	-11.965291208595612
82	0xbff088e4806c2c8a	-1.0334210411554374
83	0xc0309cefb25fdbe2	-16.6130324825316
84	0x40331f5617b99dc6	19.122407419983368
85	0xc00f513385bc0840	-3.914649052429951
86	0x3fd41bd7edb510f8	0.3141994305954223
87	0x402cc36f6629666b	14.381709282449455
88	0xc01311cdf75bb742	-4.767387261364833
89	0xc030600638e20d0d	-16.375094943226078
90	0x402b5e84b392a428	13.684606181765119
91	0x402e96e6e984930b	15.294730470116994
92	0xc01e35c08b6d41dd	-7.552492311996017
93	0x404047a2cb8084eb	32.55965560698845
94	0xc0126e483687e0f8	-4.607697345775016
95	0x4042fd17a5ebd41d	37.977284183645885
96	0x402289bd91fe4955	9.269024431505992
97	0x404351008a5418a8	38.632828990042356
98	0xc027001b3224afe6	-11.500207488039404
99	0x40261045a0f8afec	11.031781225545238
100	0xc01aba273ca520fb	-6.681790301874794
101	0x4039363168b42717	25.211691421492187
102	0xc04658436de1ebd3	-44.68955777674969
103	0xc01f447eb1f5beb8	-7.816889553665241
104	0xc007216f50a2c2a2	-2.8913255977316377
105	0xc021dc32e0015b1c	-8.930075645604624
106	0xc02b9d3f72a7df57	-13.807124693863143
107	0xc020802ea35d1622	-8.250355820763676
108	0x403478b410b35dde	20.471497577467623
109	0xc030d94d0be47676	-16.84883188560203
110	0x404784a66963bacf	47.03632848138442
111	0xc0392ed1b18ad9f9	-25.18288716926506
112	0x4010db389a410d44	4.214083109112213
113	0x4044331d263b5abc	40.39932706735769
114	0x4027fe3df57a73d9	11.996566458890742
115	0xc0206bd9ada7d5c0	-8.210645128953615
116	0x4031b871b5936f94	17.72048506593235
117	0xc00706485c1c6eec	-2.878067702882495
118	0xc012cb3f3fdfebfd	-4.6984834652348555
119	0x4035d596e9f2dfc4	21.834334012790137
120	0xc03a2bcc2a347a0a	-26.171084058582018
121	0x3fcbdc073b499900	0.21765222926041616
122	0x3f6a9d11effe6c00	0.003248724969990402
123	0x402d260c1891af75	14.574311034950123
124	0x402e27f174996c69	15.078014034012272
125	0x402cabac40b55b20	14.33529855932062
126	0xc03fe5735fc88190	-31.896291719867406
127	0xc03936d85fbd6376	-25.214239104974205
128	0xc03d469624373225	-29.27572847697788
129	0xc030b9827fbac742	-16.724647505855735
130	0x403fe9e9d543241c	31.913724259273394
131	0xc01822d280f9b8de	-6.034006133310156
132	0xc0249cd969ffd435	-10.30634623763954
133	0x40336804b92e3f96	19.406322072783574
134	0xc03ab07567da791c	-26.689291468465953
135	0x402e20cf3349f81b	15.064080813197554
136	0xc00514f53691f180	-2.635233331993902
137	0xc034a660078562df	-20.64990279203891
138	0xc0358631aee5969f	-21.52419560532746
139	0x4015c8fd4aefae6f	5.446278735045424
140	0x402cefc1ae5e77ca	14.46827454474614
141	0x4032e9274d220d41	18.91075594025938
142	0xc021e5eec33ef173	-8.949087239678851
143	0xc02f7d599543f513	-15.74482408957059
144	0xc03067eeaa827daa	-16.40598550496876
145	0x40418f010954f1d6	35.117219130017176
146	0xc010d544769f6c78	-4.208268979530764
147	0x402d97bcafee7e6d	14.796361444342631
148	0x40335f122abb9e87	19.371370955281716
149	0x4040cdb50b06a573	33.60708749603773
150	0x4034ab57afec2cb9	20.66930675044998
151	0xc0040bf88384dcb2	-2.5058450961037915
152	0x3fd78c1ab7bf5f80	0.3679262918862989
153	0x4039117509a4aa5a	25.068192103101275
154	0xc039e6733f716486	-25.900196042236097
155	0x402161bae042428a	8.690878875816697
156	0x4046b5cf7ceba98c	45.420394530362586
157	0x4030cbd493c56bbe	16.79621242112966
158	0x3fef8f6c6d9dc7ac	0.9862577572769076
159	0x40129de8c87aa667	4.654208309637034
160	0x40215ccf61dbbb90	8.68126970107349
161	0x3fe3b78eb9236052	0.6161569229107136
162	0xc01c37815aa07298	-7.054204383891054
163	0xc03e465d357f1550	-30.27485975601786
164	0x402ab463d59715d1	13.352324175541897
165	0xc04685e75707df72	-45.04612243542114
166	0xc03072c8c116d114	-16.44837576682137
167	0x4015b41afbebeaf6	5.42588418605259
168	0x40436830747866b8	38.81397872809379
169	0xc03ba9d47710a102	-27.663398210105704
170	0x4031e1c7f6c687c4	17.881957457989998
171	0x3fc1fa96673b20a0	0.1404598239953474
172	0x4026479bf8119170	11.139861824173494
173	0x402109317fdee814	8.517955776176713
174	0x4027823a5363c133	11.754351240088544
175	0x3fe9311584ca06af	0.7872417062319154
176	0x4042203ff976554d	36.251952345638166
177	0x4013a57d4fff6f25	4.911610841718162
178	0xbfec373334353ad8	-0.8817382831274143
179	0x402f9a2be9a4af42	15.801116277077771
180	0xc030ab0bbc613a17	-16.66814782499031
181	0x40403d01c023ff97	32.47661592252478
182	0x4043b808d6a3687b	39.4377697275058
183	0xc01067352bb97cbb	-4.100788768001787
184	0xc00913f7c6fa30e8	-3.1347499413587805
185	0xc01fbab6dad241e0	-7.932338160594071
186	0x40072cbc2cac26c8	2.8968432893787828
187	0xc02abf798de3d288	-13.373974260387754
188	0xc03f40adebefbb53	-31.25265383341623
189	0xc03661709c8e0354	-22.380624565764563
190	0x40475e3f47728dd8	46.73630612462483
191	0xc01f72951f030b29	-7.861896977005736
192	0x403783e5a812d48f	23.515223030659907
193	0xc044ad549ea68cdf	-41.354144889186266
194	0xc03c1f12e5f65de8	-28.121382115028524
195	0x4022372b50773fad	9.107752337033014
196	0x400309932d244d68	2.3796752478316883
197	0x403420a66ccb9bbf	20.12753944369228
198	0xc0227de546667244	-9.245889854436548
199	0xc02c80fee4f59fc0	-14.251944689734842
200	0xc04533a6e89405fa	-42.40353114345267
201	0xc04176d74f9e0205	-34.928445770408906
202	0x4027e4e82b3ddf2c	11.947083808233934
203	0x40402b066fb331d8	32.336133921143926
204	0x4037be8ff5009568	23.74438411010979
205	0xc03f5348a879c807	-31.325327424747254
206	0x4006ef81e79a1e60	2.866946992293194
207	0xc0243f4f3e1bdc4e	-10.123651448155353
208	0xc0225e52380e0ae8	-9.18422103091639
209	0xc033aa8401c7d0af	-19.66607676628399
210	0x400d4a4d4471e7ff	3.661280188299315
211	0xc038319258d382fa	-24.193639327658254
212	0x40376e869eecd11d	23.43174165040647
213	0x403bde736f26ed75	27.868948885921288
214	0x402a48c129127eb4	13.142098697192843
215	0x404327ce972d82f6	38.31099214288945
216	0xc011b1a634534cfe	-4.423485581955218
217	0xc020e00a02f21610	-8.437576381732498
218	0xc0363936ef7b0711	-22.223494498764072
219	0x4024f14511f4c73c	10.471230088358077
220	0xc02f44f411db1444	-15.634674604409277
221	0xc0071406257fe71c	-2.8847773484857395
222	0x4020e233a89bc29d	8.44180037404413
223	0x403160a4a3f17dfa	17.37751221319011
224	0x402232c2b9cf70a5	9.0991418901179
225	0xc00a076ba9798480	-3.253623317738459
226	0xc031be7b1c289eea	-17.7440660094425
227	0xc02ddc768aae0461	-14.930591901533434
228	0xbfed071edbf0ddbe	-0.9071192069740659
229	0x403afc853bed2c64	26.98640799084059
230	0x4032dca1f7f2ca9f	18.86184644391562
231	0xc0270a3d11076f83	-11.519997150571504
232	0x4042bd3b4fa0cc71	37.47837252952093
233	0xc03200a579f34e33	-18.0025249690063
234	0xc0406d8dabeb2d5d	-32.855885972817056
235	0xc01e88fe7b213bb6	-7.633783267882725
236	0x4023722358081280	9.7229259023527
237	0x4011eb5e912601df	4.479852931923658
238	0xbfd10039e55e7d9c	-0.2656388034756334
239	0x402651808b1b6a9c	11.159183833214506
240	0x4006d99a1ab0a2b2	2.856250961795319
241	0xc034eb1295e3c2c1	-20.91825234232488
242	0xc04112cecb65250a	-34.14693586767869
243	0x403e9114040491e9	30.566711665263856
244	0x400c93ec39ddf82c	3.572227909170598
245	0x404d863727cbbf11	59.04855821083596
246	0x40370ce1571d1b66	23.050313419920165
247	0x40400fb72cd1c3da	32.122777559685076
248	0x400ca2ce2de52463	3.5794948182634
249	0x4007c0599dff7c48	2.96892093120508
250	0xc01091c82c86c0e5	-4.142365165447903
251	0x40279cfa64f68bfd	11.80659785756688
252	0x40385d63bcf355b4	24.364803132446198
253	0x4037fd51e3e6e7a0	23.989530795930136
254	0x4046811bd6c74765	45.0086620781938
255	0x403990c03c722d88	25.56543329036279

arr_1 f8 [128]
0	0x402c80b3eb11f1cb	14.25137266725587
1	0xc0411f095bad30d4	-34.242473086896695
2	0xc042c3bf08d43547	-37.529267409913295
3	0x40370d549311ebdd	23.05207175433667
4	0xc00a685625837142	-3.3009455614793817
5	0x402cebffde5ec584	14.460936497753899
6	0x402d941c73b914f0	14.789279571860305
7	0x4029aeedd561ad40	12.841658275769646
8	0xc01d109c482a4758	-7.266221168117987
9	0xc01953ddd9eb2b02	-6.331900982836261
10	0x4027dd4d0548652e	11.932228245818433
11	0x40468408e460e53d	45.03152136546348
12	0x3ff28a6fc87c59fa	1.1587980109667328
13	0xc0322f9ab042f994	-18.185954109526918
14	0xc03a9738537574ec	-26.59070321672054
15	0xc0338c7ae9dfd0d4	-19.54875051225902
16	0xc01683643c83970a	-5.62831205895578
17	0x4022803d87d2ae10	9.2504694409063
18	0x3fc361ee1eb19a80	0.15142609118193562
19	0x40443463a8106b77	40.40929127504108
20	0xc034144099aa0172	-20.079110721593175
21	0x403067fc86619c50	16.406196974592888
22	0x4027a951f06cd5a8	11.830703271184419
23	0x3ffc6dcf82cb4d88	1.7768092259546808
24	0x403a386ee0c383f5	26.220441863759294
25	0x4030c2c00a3b8279	16.76074279740212
26	0x40432675bbe4f8b6	38.30046795540095
27	0xc0138710f1a41642	-4.881900573387215
28	0xc020082bd36dba56	-8.015959365028873
29	0xc00dcf7eeb5f17c3	-3.72631629833174
30	0x40459ad38680c685	43.209580242994925
31	0xc0278fe2db350529	-11.781027651045024
32	0x4023d3e02aef3084	9.913819638917865
33	0xc018aac00b9c683c	-6.166748219891868
34	0xc03c424b28680f4f	-28.25895931759379
35	0x3fa0ef0f14937d00	0.03307387472318091
36	0xc041d290594f52f1	-35.64503017781488
37	0xc03624f965008005	-22.144430458662118
38	0x40208e6a34770503	8.278154029396779
39	0xc01bcfaf63212944	-6.952817486666678
40	0xc017f6727832e869	-5.9906710415908515
41	0xc013aae9f675fc88	-4.91690812201626
42	0xc040233ab9b3fa7a	-32.2752296570588
43	0xc014304424137a6e	-5.047134936989648
44	0x40218fb8cad42b88	8.780706728362716
45	0x4037a64de1766c6c	23.649625865375512
46	0xc03ffc76e75d6ece	-31.986189327536344
47	0xc03444df3e06761b	-20.269031406953314
48	0xc030a8724635b81a	-16.657993686785723
49	0x40385f62beab0d71	24.372600476036897
50	0xc031f53158bfb43e	-17.957784220507385
51	0x4028fb60d5c9a07b	12.490973168242126
52	0x400296a4df51b826	2.3235566565336
53	0xc02285a567e7b169	-9.261027571709478
54	0xc02080003bc7de5a	-8.250001781604784
55	0x4017406798b0e114	5.812895189090586
56	0xc03f0c247134a68d	-31.04743106398978
57	0xc03895a56b91b0c7	-24.584555361813525
58	0xc025d41f78f8451e	-10.914302616411586
59	0xc034f2016fdd6f94	-20.945334426461685
60	0x4028b2adaa1148f0	12.34898120366094
61	0x40188950f0288c0e	6.134097816920088
62	0x401ec07892f815c3	7.687959953681857
63	0x4007c63dccf71210	2.971797562875743
64	0x3ff881f2b30d2d78	1.5317255968282932
65	0x4013f497ae477b55	4.9888598662499435
66	0xc020eca17aa7a5e5	-8.462169487919661
67	0xc024dcc7f86920ee	-10.431213152726254
68	0xc0371cef560a7be1	-23.113026979026362
69	0xbff36126be364894	-1.2112185888441092
70	0xc03457313e5e591f	-20.340595148119174
71	0x403407fa43437771	20.03116245648511
72	0xc0441e39b4681eed	-40.23613600811027
73	0xc03329fceebf531a	-19.16401569529544
74	0xc02b7831b8ae6e17	-13.73475434426568
75	0x4037549c9260ebfc	23.330514095938256
76	0xc038ab62f351fc49	-24.66947861434554
77	0xbfcc7bf6355e51e0	-0.22253301244621948
78	0xc04c995190574ba9	-57.19780163061598
79	0x4030d2b4b4d6f57f	16.823069860916345
80	0x4011ff13ee09cc2c	4.499099463794703
81	0x3fe8ea10ba73be80	0.7785724298136785
82	0x3ff42b47d9a1466c	1.260566568486321
83	0x403014f9a2522127	16.08193411355128
84	0x4004120e68284597	2.508816541413306
85	0x4023d1786d890f31	9.909121916752698
86	0xc0262b337f5e181a	-11.084377269970037
87	0x40384f0762b38fdd	24.308706444586154
88	0xc03c40d6d30e8cce	-28.253277960827113
89	0xc01d7fad0c22c772	-7.3746835609652965
90	0xc0294b1409179c94	-12.646637233860282
91	0x403883a4abdba672	24.5142314349418
92	0x4037a85814116853	23.6575939695834
93	0x4022a1bc030ec896	9.315887542299873
94	0xc03447b72fc49175	-20.28013895558384
95	0x401c387346d9365f	7.055127245910255
96	0xc02177618eb3efd7	-8.73316617914672
97	0x4024378c2c0fff51	10.108491303398894
98	0xc01cb91a10d7e4d6	-7.180763495614164
99	0xc032f25414174ce4	-18.946595435799182
100	0xc0138ab62883712c	-4.885460503599727
101	0x4020e1011ced2fe7	8.439461616471773
102	0xc00cf76827218a7a	-3.620804124556625
103	0x40404f23b30eefa8	32.618276960652395
104	0xc0402eef0a10700d	-32.36666990091917
105	0xc033fb74057b99eb	-19.98223909633263
106	0xc0415da506c43ba4	-34.73159870702446
107	0xc02d4ef1a02bcd94	-14.654187207552958
108	0x4026c8f98fe24cd8	11.39252900731519
109	0x4021d1557cf0f54c	8.908855347074358
110	0x402788ec615db357	11.767428438842826
111	0xc02b4e07f1d86ad1	-13.652404363315698
112	0x402236d09e87ef6c	9.107060388654382
113	0x40384f05f7b78ecc	24.308684809030453
114	0x40308d8fc0cbe1f7	16.55297474839787
115	0x402b4e0a9a83694d	13.652424648801253
116	0xc00a18984bb736e7	-3.262009231117975
117	0xbff5d8677de2c60e	-1.365333072415868
118	0x404150d56dace9fb	34.631513318472535
119	0x3ffa09d7d6049e38	1.6274031028823526
120	0x4048f60579559eab	49.922042052084485
121	0x403f2c1fd58f840a	31.172360751665146
122	0x402eef4fbc30cd0d	15.46740520568576
123	0x403580408779f42a	21.50098463752162
124	0xc01a5fcdd35783cc	-6.593558599678499
125	0xbffa67409f4f3490	-1.6502081130049966
126	0xc0344f0ffd7c062d	-20.308837740687682
127	0xc00babe95790c5cb	-3.4589411583953953

arr_2 f8 [128, 64]
0	0x4026aacb94e10b4e	11.333584454032145
1	0x401952718d141183	6.330511288022879
2	0x400d5820879c67fc	3.66803079553665
3	0xc00edbca3e8e3333	-3.8573193442483897
4	0x4028eaa16a9fc708	12.45826276016625
5	0xc025dcb44c7354ec	-10.931063069418506
6	0xc02f21dbd2060ef2	-15.566130221595333
7	0x4011b3ce53231394	4.4255917539748175
8	0xc01b6ae7daafec26	-6.854400078761534
9	0x4025d377ebebb25b	10.913024303933687
10	0x4035efe55b20d26e	21.937093444359952
11	0x403bfa0cc7f17686	27.976757523013042
12	0xc02a2ae2793d6ca6	-13.083759106395814
13	0x402492037b818e05	10.285182818951407
14	0x400162dcdbca2445	2.1732728167594666
15	0xc01e52d296fb5e13	-7.580881461231473
16	0xc022109a6156679e	-9.032427827641921
17	0xc041b2b9e56fd450	-35.39629810295503
18	0xc00326845a061752	-2.393807128249059
19	0xc034705103afd8f4	-20.438736181670677
20	0xc01c92678d84d8f0	-7.142973147614825
21	0x4013b6ca104fd99a	4.928505186914117
22	0x403f08bae757a719	31.03410192384681
23	0xc029bb24cde8aa1f	-12.865515169764931
24	0x400de31ef99e771b	3.735898924015499
25	0x404447bc8c9bdc1c	40.56044156656591
26	0x401886263759f767	6.131005158296694
27	0x4036df7c17cec39b	22.872987258891595
28	0x402536dafa0ef313	10.607139410328761
29	0xc02243bd54d52ed4	-9.132303858779245
30	0x402bbda0e5c46823	13.870368175721586
31	0xc032aca4622d69ce	-18.674383293235046
32	0x403bc48b0cb2adfc	27.767746728537517
33	0x40311cac4fae6415	17.112004261089243
34	0xc027dee0630167f8	-11.935305684968611
35	0xc02d5df3d314d58b	-14.683500858586532
36	0xc03527c75a399a93	-21.1553856268534
37	0xc015f0d5961be498	-5.48518976731534
38	0xc003f6da0e6259b8	-2.4955330966724567
39	0x4024a89d3b73bd30	10.329324586752222
40	0x4047366bdf26f0de	46.42516698266421
41	0xc03d1a6aa14afbbc	-29.103189545446853
42	0x4020975e6b224d19	8.295642230927614
43	0x40270252b399ff0e	11.5045372128948
44	0xbff34110fec575ca	-1.2033853485112211
45	0x4021722f2a0ecdfa	8.72301608496399
46	0x4030ee99bf0a077d	16.93203348154883
47	0x4035d975172beb06	21.849442909452613
48	0x4032d8a8b8328287	18.846324455577385
49	0xc016ef20d262be46	-5.733523642803965
50	0xc0160e7a6e62467e	-5.514138912914516
51	0xc00b3b3cd8f42667	-3.403924651099078
52	0xc023ce6b760338e2	-9.903163612263999
53	0xc0295113839cd3e6	-12.658352005857477
54	0x4025494cae98e536	10.643163162387832
55	0x403ca8675a221866	28.6578270276299
56	0xc0203f49ae42889e	-8.123609014150414
57	0xbffd9db9970f132e	-1.8510070706117392
58	0x40041789fa411eac	2.5114936400530805
59	0x4001bd3d52b29852	2.217402120662009
60	0x40007be014250408	2.060485989932662
61	0xc001cfa5018d82c4	-2.226388942843501
62	0xc032f2edca0f3812	-18.948940876689512
63	0x40334a6f2309a559	19.290758313994363
64	0xc013ca5f9a98e417	-4.947630324918484
65	0xc04307b7e6c85c6c	-38.06029972823384
66	0x4000ba8e7cc28d5e	2.091092085540068
67	0x402b1414131d6c2f	13.539215657559991
68	0x402a2c4a4e7363b0	13.086504413209553
69	0xc0286482ce65b075	-12.196310472405665
70	0xc037f6f4f48ed228	-23.964675221317663
71	0x402ac1415ce42ff5	13.377451804022693
72	0xc0197f687f3c5dab	-6.374422061976854
73	0xc039fed84062302c	-25.99548723599598
74	0xc00ab24b9d536494	-3.337058285815667
75	0x400dac790c2559cb	3.7092152546785875
76	0xbff45bd943ee028a	-1.2724239972596103
77	0xc043e3d562161eff	-39.77994943695193
78	0x40177c1fa2821a9b	5.871214427176393
79	0xc02c6008eb966e35	-14.187568056214426
80	0x4020f3897777ea33	8.47565816248707
81	0xc022a2a7ead70207	-9.317687357660374
82	0x40337c1acc51c589	19.4847839069021
83	0xc0422de3fd0256bd	-36.35852015127373
84	0xc002ce50a2682346	-2.35073973541549
85	0x4011f442ad0a2507	4.488535598510913
86	0x4032dcb62447d9e4	18.862154262105733
87	0xc04088bf9d982ab3	-33.06834764413852
88	0xc027fc93fcd645a2	-11.99331655612588
89	0x40289ec3d94bcb20	12.310087957861072
90	0xbffec88d387212b3	-1.9239628033548513
91	0xc043da86425bbf83	-39.707222266005395
92	0x40443f2787f24934	40.49339389162415
93	0xc01b3fe8802aa174	-6.81241035709569
94	0x4029ba29cb3427f5	12.863600111118993
95	0xbfebfa4d221f7450	-0.8743043581449772
96	0x40036747c9f98464	2.4254298953315345
97	0xbff48c1dd97c65d0	-1.2842081542533954
98	0xc022565b4f31d176	-9.168665385085415
99	0xc040ff011c2c05f0	-33.99222137593813
100	0xc03092cc99472e75	-16.57343442905263
101	0x3fef8420b3657189	0.9848788741906428
102	0x4009d26b70b0f71a	3.227743988419104
103	0x4017c5a6ecb65444	5.94301957953309
104	0x4003c1e858f42c29	2.46968144889026
105	0x4027a4caf3fec367	11.821860909318003
106	0xc014b8f6db56165e	-5.18062918389259
107	0x4009692457292551	3.1763388451987926
108	0x401e0b27fdc7e571	7.510894742322635
109	0x40248fffb0cd8aa4	10.281247639742396
110	0x40001b48412a73a9	2.013321408374811
111	0xc01fa771f90251a3	-7.91352070881513
112	0xc027550321cb1261	-11.6660395203009
113	0xc033e29f4acac9ae	-19.885243105419868
114	0x4048c5b1d9120624	49.54448998813703
115	0x4016fc640930b4b3	5.746475356672067
116	0x401b7d0484e74350	6.872087551703615
117	0xc03327f7d79204b3	-19.156125519894612
118	0xc04016e45a410662	-32.17884376692815
119	0x401069a8d31a1c66	4.103183077305493
120	0x401659207486b73b	5.587037869188687
121	0x3ffc10ae590e771a	1.7540725210923882
122	0xc02530f553705c8a	-10.595621688333512
123	0xc017820bca2bc32e	-5.876998099251791
124	0x4031f7ce411f6e53	17.967990942166875
125	0xc0298bec86a15acf	-12.773288924404737
126	0x40106683fdeea1a8	4.100112884225759
127	0x40366657f4619e69	22.39977958091041
128	0xc02f6939cd83f2a6	-15.705519125325122
129	0xbfe04910f1ec0700	-0.5089192128218372
130	0x40297494da12e16f	12.727698149494897
131	0x404b526b9d55abc3	54.64390913661148
132	0x403b058415052edc	27.021546663060562
133	0xc00532c7d02d88b8	-2.6497951759239093
134	0xc0131645515f6f54	-4.771748801660426
135	0x403055f564aa5f45	16.335775653452647
136	0x40315a5def325789	17.35299582461406
137	0x4036e53e0dbb8be4	22.895478113448817
138	0x3ff4bc53dd191b44	1.2959784161227654
139	0xc03df50d6ee5a6c6	-29.957236224238635
140	0x3fd85fe1090fa498	0.3808519924628597
141	0xc01caf0c0255cf86	-7.170944248664346
142	0xc014b0122b5a80b5	-5.171944310568667
143	0x403296acd4082c68	18.588574649806475
144	0xc02f72a0d8d52cda	-15.723883415243495
145	0xc0188cb1f0582174	-6.137397532824583
146	0x400926ff351ba41c	3.1440414570865993
147	0x402cc1cf672c602e	14.378535484473186
148	0x40260a6a5ce676ce	11.020342734463522
149	0xc027fd9af3058cf8	-11.995322794368334
150	0xc0324be575d650d5	-18.296470036338025
151	0xc02975b2b4037c92	-12.729879022050486
152	0x40099881e546e25b	3.1994665062195913
153	0xc007484b97bdfa4a	-2.9103004317142096
154	0x401960a9c898d27e	6.344397672965554
155	0x40280f994987a805	12.03046636372529
156	0xc02fb5579b84deac	-15.85418401715227
157	0x4046bc9c8cc17126	45.47352752156648
158	0x401dba8e303f9a0a	7.432183030969563
159	0xc02f5d8e0a46989c	-15.682724305265133
160	0xc042cd7679c9de3d	-37.60517809254495
161	0x4023532c81500c19	9.66244892217769
162	0xc03276c7f957e741	-18.463988861046577
163	0x3fe251d146de7776	0.5724874862823828
164	0x4037e971b1559451	23.911891063111685
165	0x403b18532a8a0005	27.095019015017915
166	0xc04742e3ae7f2127	-46.522573291850044
167	0x403535a692c8e022	21.20957295803249
168	0xc037f1345235417b	-23.9422046070117
169	0xc02ba585f6cb8019	-13.823287689534526
170	0x403effb874de0a8e	30.998908333024296
171	0xc03fbd2af401e5ce	-31.738936663115787
172	0x4022dec2abb3691d	9.435078969622333
173	0xc031f3ab43d5a6bf	-17.95183204618547
174	0xc027d95b53c35d68	-11.924524896238566
175	0x4018e60f75e8a5ea	6.224668352436746
176	0x4022ce8f182fe538	9.403435474249463
177	0xc0053b3652d10270	-2.6539122076067585
178	0xc0336d8134822a8c	-19.42775276353727
179	0xc0069253abc5dc13	-2.8214486522442797
180	0xc0026dd005851178	-2.3036194258913234
181	0x40226b38634cd33e	9.209414580467293
182	0x4031c7795c086249	17.779195549055917
183	0x404339ef52a9519d	38.45261605517883
184	0xc02538b1075ceda2	-10.61072562226656
185	0xc029f0836610276f	-12.969752492401055
186	0xc04739540cd944dc	-46.44787750824773
187	0x40236c3b1884f222	9.711388365010013
188	0xc03b69fe4d594f0a	-27.414036592773336
189	0xc000b1a2f04d706a	-2.086736562121634
190	0x402cc985aa43aac6	14.393597908744947
191	0x4027dd0dd319ea02	11.931746098435728
192	0xc00094c7df976f20	-2.0726468532647147
193	0x4033df44d2495c95	19.872143881712493
194	0x4024a15837c00a5b	10.315126173202932
195	0x40432344b50bb531	38.27553427764577
196	0x4022db4c08f7da2e	9.428314476256755
197	0xbfc599f72ebd05a0	-0.16876115591189222
198	0xc01fce47543af62d	-7.951443973635418
199	0x3ff207eb7a71d7d6	1.1269335539814072
200	0x402d150c6710d3cd	14.541110249332542
201	0x40012735a08dd23f	2.144145254447977
202	0xbfcb9364b8c200b8	-0.215435590947896
203	0x401a34ccc9c4dd8b	6.551562454834662
204	0xc037a465574b52ce	-23.642171340837017
205	0x3ffc35e21fee8ff2	1.7631551024760452
206	0x4025417ce7ea8e5b	10.627906081564268
207	0xc01bfac745d33aa9	-6.994900790231136
208	0xc0151d6d5087d7ba	-5.278737314501933
209	0x40453a7ae2268b7e	42.45687510377955
210	0x40167d68e7e11495	5.622470496285264
211	0x402d75e78a85de9a	14.730282143441674
212	0xc020cadd14802808	-8.39621795715722
213	0xc016cf0037756ce5	-5.702149263898922
214	0xc03b9f9b51f9ced8	-27.623463748443868
215	0x40256a8235a42392	10.708024669920437
216	0xc033b01b13e22eb2	-19.687913172455133
217	0x402ea4fd62b6d29e	15.322245678727366
218	0x4021f0f82ca2c323	8.970643420093955
219	0x4014dfa8c37bb90a	5.218417219568673
220	0xc03a2fc09700715a	-26.186532437904454
221	0x40347510f8e042f1	20.45729022479185
222	0x402da914099c427c	14.83023099930255
223	0xc006f4ca393c17aa	-2.8695263358558423
224	0x4016085945935b40	5.508153044814037
225	0xc02763b9d6fb7d71	-11.694777219962562
226	0xc03bb2a6e973ec3b	-27.697859373856982
227	0x404489adcbc80bca	41.075616333655105
228	0xc040bfb02878a0be	-33.497563418293325
229	0xc034199f68bf513e	-20.100088640888536
230	0x4035d9ba1ecfd47f	21.850496221294176
231	0xc048311af0248287	-48.383634584261976
232	0xc022db055156ce80	-9.427774946066393
233	0xc015b36688b526fa	-5.425195823723465
234	0xbfe139d71fd14858	-0.5383105870662446
235	0x40331e125b19ece4	19.117467588262016
236	0xbfcaa153bc895200	-0.20804831224326392
237	0xc03d48361f17924b	-29.28207582784152
238	0x3ff4106e19c2f0b4	1.254011250143816
239	0xc03856cb01797747	-24.339035122065322
240	0x40249caa642df028	10.305987482650451
241	0xbff154b68a3a3f14	-1.0831818961632438
242	0xc042b570c53fa3c1	-37.41750398261457
243	0xc040a9ad1a5097c4	-33.325595177986116
244	0x403115174960965f	17.08238657577601
245	0x4034216a6580ebf5	20.13052973172667
246	0xc0000f754a102aee	-2.007547930353545
247	0xc04cbe69c5befa9f	-57.48760291886469
248	0x40301b0d80a19d71	16.10567478128127
249	0xc0203ed9c36e0f2e	-8.122755152878735
250	0x4034b3b9d250845b	20.702054161698793
251	0x40425ab0c7f1439a	36.70851992874596
252	0x4047e22d32fa8be2	47.76700436814987
253	0x402a878f8378a996	13.264766796569159
254	0xc02da8797603dbb6	-14.829051673861482
255	0x402748fdc6a6adb2	11.64256115708017

arr_3 f8 [64]
0	0x403223f7529aa3c4	18.140492594484172
1	0xc039fd40733efc8f	-25.98926468169935
2	0xc015c94f009ef4fe	-5.4465904328365
3	0x40101324959fa861	4.018694246167883
4	0xc0482fe5ca7f914c	-48.37420016507039
5	0x40336499627d64ba	19.39296546517719
6	0xc00c918e837118f9	-3.5710726040734895
7	0xc0143f05fc36bc0a	-5.061546269264918
8	0xc033e159cdd76460	-19.88027655132862
9	0x402b3a7baf7d34c8	13.614224895509679
10	0x40274da1e56c3810	11.651625794849707
11	0x402f49a2c1015bc3	15.643819838920427
12	0xc03f2107485c2adb	-31.129017374517257
13	0xc042f09da421450f	-37.87981082558155
14	0xc030acc3548b517d	-16.67485550309492
15	0x4028826584518a04	12.254680762246615
16	0xc031ec657cf029c2	-17.923423584588598
17	0x3ff43ba7e7c8ad65	1.2645644239481382
18	0x40396055e01d3f7b	25.376310355320566
19	0x402af7f1b749dc40	13.484266021505505
20	0x402fed28f9a62244	15.96320324090005
21	0x3ffc79ee429bf728	1.7797682382510605
22	0x4036b81c9866fa6f	22.71918632997625
23	0x4016163b2bb373ea	5.52171009333413
24	0xc03144e3969dc7ec	-17.269097722550143
25	0x403362310e643904	19.38356103846401
26	0xc020f631904e3fed	-8.48084689097592
27	0x403b7814e8bfe878	27.46906904874092
28	0x40129668b104776c	4.64688374128114
29	0x402c1be9a7c2635d	14.054517023543378
30	0x40457bc927f71134	42.96707629741505
31	0xc0425e5de4e8b3d1	-36.737240422844145
32	0xc03cca98c783859a	-28.791393727884135
33	0x402d9e18045c20d0	14.80877698540317
34	0x4011d2fc4852665a	4.456040506390844
35	0x40330b841c6fdeee	19.04498460513326
36	0xc03354267792b6d0	-19.328711961096644
37	0xc026fdb9d4d1b6d6	-11.495558405494574
38	0xc02b48edc91c09a6	-13.642439160034723
39	0x4026bbaa5844a69a	11.366534002666686
40	0xc023e510ad0d65be	-9.94739285267394
41	0xc04135c282b7535e	-34.41999849273155
42	0x404bab9d58741346	55.34073930423487
43	0x401e0e579f381b9f	7.5140061262126485
44	0xbff456fbb1273176	-1.271236125950137
45	0xc01c5bcf71f45fe9	-7.089658527889676
46	0x402c14c229bf7309	14.040543846721919
47	0x40236128b47a9a5a	9.68976367947214
48	0x400e703824be3696	3.8047945852802725
49	0x40271f10ab5cf0f4	11.56067405232941
50	0xc044fe6d4e59c233	-41.98771075613731
51	0xc04279ba1ac6d7a4	-36.95099196156596
52	0x40309e75f59af3c2	16.618987417535898
53	0x40236a3b573bd625	9.707483984045277
54	0x403948c69ea8beee	25.284280697057447
55	0x403422f3782495e1	20.136527546817778
56	0x4032f53e52af645f	18.957982223339396
57	0x403419a9f7f2a36e	20.100249764192476
58	0xc045dd89d8d50dc9	-43.7307692566206
59	0xc035388b3cf975fa	-21.220874606040503
60	0x403aee8304f38b28	26.931686696490175
61	0x4022ac2e50ee4242	9.336290864071206
62	0xc008305abfe0ca53	-3.0236105909801068
63	0x400a8cd406149ae6	3.3187637782133264

arr_4 f8 [64, 32]
0	0xc01db8de77442e6a	-7.430536139999825
1	0x401a3f8cce118d35	6.56206056577803
2	0x3ffd6a2f515a8d27	1.8384240320090812
3	0x4034dc2fac862c40	20.86010244632439
4	0xc0391a6a78b86b9d	-25.10318712713671
5	0xc01767cc3d6eff02	-5.851365051173845
6	0x4022ec16a41a21f6	9.461110237302801
7	0x4042227c7bc0458c	36.26942393196359
8	0xc020324a2c489b1e	-8.09822214494994
9	0xc03432ded59b57ec	-20.198712683129926
10	0x4032edd1907291a9	18.92897894665808
11	0xc035ee498f0f7efa	-21.93080991867371
12	0xc041ae50d187621b	-35.36184138403424
13	0x4031638b3248882a	17.388842718799573
14	0xc029f1a1931f7364	-12.97193584212227
15	0xc02317a1122deb89	-9.546150749307133
16	0x40348dc6c9024f9a	20.553814471306033
17	0xc00a2952a0f65b9b	-3.2701771331007428
18	0x40437acf28594ec6	38.9594469486306
19	0x4003fec3cc662a87	2.4993968933752657
20	0xc0441e6d19f3ddec	-40.23770450980723
21	0xc021d9d9c74aed45	-8.925489642998068
22	0x4012c3f99947ddb8	4.69138183117996
23	0x401a354b3efc85e5	6.5520448533656905
24	0x401e4cc51dc45266	7.5749706889224395
25	0xc027b0825f2698e0	-11.844744657002991
26	0x4035b38a2c68f4e1	21.701327109932098
27	0xc010336d8038be8d	-4.050222400153541
28	0x4036c8a0b7084627	22.783702315826442
29	0x403aba47d93ee042	26.727658822870815
30	0xc018e3b803e725ee	-6.2223816499549525
31	0x40186d3f7a99fd36	6.106687465332746
32	0xc048e8d2e65168b8	-49.81893614745189
33	0xc033105410762288	-19.06378271946099
34	0x4041b72ae3f6b379	35.430996413669114
35	0xc018527e9de5922e	-6.080561129700568
36	0xc019c1448fa824b0	-6.438738102567342
37	0x3ff882b378417830	1.531909436940179
38	0x4025e474bc7a121e	10.946203126813142
39	0x402857f28ba4c134	12.171772350179346
40	0xc01b26e2624d4ffa	-6.787972961396003
41	0x401025bd5e90b1e1	4.0368551994147035
42	0x3ff37585ce6d1028	1.2161920608059607
43	0xbff44427b42479e4	-1.2666394268813912
44	0x40130e334e31434d	4.763867589718598
45	0xc03248d758a2b3cb	-18.284535922739263
46	0x4040405e17a00f3d	32.502871468690934
47	0x404697d5166ceb77	45.18619041746472
48	0xc0318e9314deb364	-17.55693178593664
49	0x4021dd9f9497765c	8.93285812710672
50	0xc035f4edb1948915	-21.95675191761355
51	0x4023052335529d98	9.510034242949402
52	0x402348eca636acc0	9.642430490659876
53	0xbff6ce81057cf848	-1.4254160131818185
54	0x40179955a9d038d0	5.899740842183931
55	0xc039e8b2b2d70849	-25.90897672414602
56	0xc031e435211e33c8	-17.891435689805604
57	0x4040faf3d7d08e67	33.960566498598205
58	0xc0229b1520f32c8f	-9.302895574268659
59	0xc025a37a6f8baaf6	-10.819293485450071
60	0xc030e6a7b0943cf5	-16.900996242705293
61	0x4040085182e57006	32.06498752787597
62	0xc0145cd6cbb4f5eb	-5.09066313068386
63	0xc03b17ba69d2043f	-27.092688192151623
64	0xc0356bf09244b93f	-21.4216395776541
65	0x401c8e2b7bac278e	7.13883774984596
66	0xc03100871350c9ca	-17.002061087821666
67	0xc03270d1e3d264d6	-18.44070266615457
68	0xbfca876f7c509670	-0.20725816316660284
69	0x403b95bec5c9c29d	27.584942209012855
70	0xbfd743f90a6a8e20	-0.3635237313958175
71	0x4033d109f2ab9efb	19.81655804338423
72	0x4015f01d1d7a00cf	5.484486065455896
73	0xc040c10152c2e135	-33.50785288348781
74	0xc0323b822f341602	-18.23245520612364
75	0xbff39fde10386e6d	-1.2265301354990712
76	0x40320dd13e1a464f	18.05397403851958
77	0xc042fc4557639906	-37.97086613047763
78	0xc024844a554a82d9	-10.258379617066952
79	0xc014020a79472b03	-5.001993079155684
80	0xc026aaad831bfac1	-11.333355042615382
81	0xc02822662fac7872	-12.067185869029547
82	0xc02487ebc47bed00	-10.265470638396891
83	0xc042ca4a189cfefc	-37.580386234911174
84	0xc0438b398f5dbd54	-39.087694092532416
85	0x40070731605b83e4	2.878512146752188
86	0x403509690fd16ade	21.036759365680034
87	0x40211ca97d320421	8.555980598788723
88	0xc0335fc86fdb871e	-19.37415217504087
89	0x4023ef38417d05ba	9.967226072799225
90	0x40404be53b26421f	32.59293307655411
91	0x4011558c311090c4	4.3335426012383245
92	0x401e83c8dff88697	7.628695964378173
93	0xc036c3d0f14e5619	-22.764906961083486
94	0xbfe6af2695cbae88	-0.7088807035156188
95	0xc02fe1446edd29ab	-15.939975227830322
96	0x4031f7051f3f2563	17.964921906391634
97	0xc03469fff62ebc1e	-20.414061914834853
98	0x4029c87c4764871e	12.891573172589741
99	0xbff866afde4ca764	-1.525070064885278
100	0xc026b6415c22e1a2	-11.355967406518918
101	0xc0307b8ed451aee6	-16.48264815324992
102	0x401cb9eeba42813f	7.181574735936294
103	0xc0164435c0e16f9a	-5.566611303100126
104	0x4040f2f00b79bbe0	33.89795058673894
105	0xc039952a07876788	-25.582672567899436
106	0xc02654aa740d1790	-11.165362955663824
107	0xc0297ece6cc7514d	-12.747668647127876
108	0x4020d6d1f093f50d	8.419570463238893
109	0x40439f7339d3fd81	39.24570391512953
110	0xc017d0e56ae04f40	-5.95400015825345
111	0xbffeed905d71661a	-1.9329990053287305
112	0xc013496a54fb176c	-4.821694686723145
113	0x402989087ad261d2	12.767642820531282
114	0x3f96f687bfbd5a00	0.022424813344821715
115	0x4023fecb3907cc88	9.997644216730137
116	0x402851973b77e928	12.15935693587069
117	0xc02e38982e79493b	-15.110536052995135
118	0x4028e9685ec757d8	12.45587440665615
119	0xc03165c71337c903	-17.397568894500193
120	0x3fb5e23a6b5f0000	0.08548321839680284
121	0xc044c58a54c65bf4	-41.54328403172977
122	0xc01ea20e5bb19be9	-7.658257897105593
123	0x3ffa6ff870f65680	1.6523365414226703
124	0xc0405432bc02d07b	-32.65779829156323
125	0x401b2c98563e194d	6.793549869098865
126	0xc028dd559e0b4fbe	-12.432293833618925
127	0xc02769b1b7c78ef8	-11.706434004888692
128	0xc0177f0f1a39ad07	-5.874081048746354
129	0x403639b9f8018a34	22.225493908286992
130	0xc000b99e7a39d77f	-2.0906343029882346
131	0xc03631c8345f4fb6	-22.194461129445436
132	0xc020c432f20ca0b4	-8.383201183358644
133	0xc0186a31ab39a71c	-6.103705096620413
134	0x4008c9323f48ef38	3.09824037019089
135	0x3feb6b92f436f530	0.8568815965478844
136	0x403b67fd98ba6bfa	27.406213326943522
137	0x4038e78e75e76208	24.90451752566335
138	0x404a8801b7d42582	53.06255243166653
139	0xbfeae002d7ac7e00	-0.8398451053980693
140	0xc024c5fb8bbf5059	-10.38668476782202
141	0xc02621ecf3f4e939	-11.066260932585111
142	0x403eaad44c96c214	30.667301928335363
143	0x403c744b10b160d2	28.454270404153085
144	0x4033e397a2fa8afc	19.889032541434958
145	0xc004109f142e7afa	-2.508115918796986
146	0x40368e1e5c2f4fd0	22.555150758314824
147	0xc02c9bf278b68fb6	-14.30458428600819
148	0x4035b9ed35ab7c48	21.72627578198106
149	0xc02b10054108b172	-13.531290085135627
150	0x40366a3590fc829e	22.414879857681278
151	0x40426cf98982b7a2	36.85136526949579
152	0xc02c54e482e3519f	-14.16580590271843
153	0xc03453c5d07f13bb	-20.327237158798862
154	0xc0421c026ab99ea3	-36.21882375777684
155	0xc010f409b5cac749	-4.238318291188826
156	0x402387fea69901af	9.765614706208764
157	0xc034d58b032bb8c8	-20.834152410673397
158	0x40320d6a4f212d03	18.05240339813191
159	0x402413b830c9cfb8	10.038514637599164
160	0x4016e6dfed417ef3	5.7254635878778
161	0xbff21c8c3704f0ca	-1.1319696568671582
162	0xc037207bddcab191	-23.12689005087447
163	0xc02a70b27fef2d9d	-13.22011184496551
164	0x402aa11427127e34	13.314606877334064
165	0xc023f24440b7c666	-9.973176977570983
166	0x4020b8572a0ad199	8.360040010281226
167	0x4020481c0e41f492	8.140839047957602
168	0xc04038d333406d85	-32.44394531865968
169	0xc017a794cba2ff49	-5.913653547118721
170	0xc03715da53fba8e1	-23.085362671795227
171	0x403315a79fd95855	19.084588995516544
172	0x400d12022a903ae8	3.633793194319299
173	0xc01ee3b8871d5d05	-7.7223836051628085
174	0x403fe4b1082911b5	31.89332629206338
175	0x4005c0d45ce17777	2.7191550499255146
176	0x4029b794ccf29ae1	12.85855713330733
177	0x403180f238b2a6cc	17.503696006408788
178	0x40225cba685c6994	9.181109677582562
179	0x3ffae6ba5e116e20	1.681330077603782
180	0xc0251a508564405e	-10.55139557694218
181	0x403cd0b70c985710	28.815293109123616
182	0x3fe14f608368629c	0.5409395758207043
183	0x403d2937e049d134	29.161008852025773
184	0x40407a75db695623	32.956721712526154
185	0xc02191ae80c3af6e	-8.784534477126467
186	0xc0455078227efc7f	-42.628666221623455
187	0x4027728f409cd022	11.72374917902204
188	0xc0272d9c483d0f78	-11.589082963422456
189	0x404d53958f5cd0cb	58.65300170928966
190	0xc03dc00d4c1967f2	-29.75020290012612
191	0xc03b7daaa64d7bb5	-27.490885156552128
192	0x401bdc5de379607c	6.965201906474359
193	0x40110072eb4a2ca8	4.250438381578682
194	0xc024de89590c83a2	-10.434641630914317
195	0x402bae676402e79a	13.840632558207108
196	0x40078daa3a3111f0	2.9441723390793797
197	0xbff43938910b4dc8	-1.2639699617183044
198	0xc026855d59a29b89	-11.26047783002811
199	0x40173502e8ec5cdd	5.801768912722051
200	0xc031c4a79c218491	-17.768182523902002
201	0x402416bf38732003	10.044427646687842
202	0xc00d092a625921a7	-3.6294753726435434
203	0x3fe86ef5406e8a8e	0.7635446794923426
204	0x40373f91c761d96b	23.248318158520686
205	0xc030702dcd322e90	-16.438198876143872
206	0xc0272068804fcf44	-11.56329728101958
207	0x4029d42e262d8718	12.914414589936811
208	0xc041e998ab45c7e1	-35.82497158915772
209	0xc0347bc494155c86	-20.48346829911727
210	0x401e4c6e02888718	7.5746384044485
211	0xc000fce95038b8e9	-2.1234918849287294
212	0xc01f259fea95f2be	-7.786742844965088
213	0xc0384e50da5506b0	-24.305921216734248
214	0xc0341cfae55e12f5	-20.1132033686326
215	0x3fc4999a2a20a6a8	0.1609375673008817
216	0x40213af26371c30e	8.61513052715011
217	0x4011cf372baa66aa	4.452358896518186
218	0x4027e5e3a1b1aec0	11.949002316417477
219	0xc03343639d68a70b	-19.26323875241273
220	0x403652fc2b1e12b8	22.32416028484542
221	0x3fb4e7022ecc4a60	0.08164991037873781
222	0x4022cf94f64fe0ab	9.40543336606091
223	0xc036245652629c44	-22.141942166399772
224	0x4027e81b7bf58509	11.953334687920249
225	0xc031ddcab3c722bf	-17.86637424098694
226	0x4011890f19af98f5	4.383846665709133
227	0xc01ea4072a8ea42e	-7.6601835870324475
228	0x4044bcc81642de57	41.47485616936745
229	0x4032c5816788c114	18.771505804908045
230	0x402fd1174141e1d4	15.908380545894865
231	0xc0341dfd5204ec92	-20.117146612360166
232	0xc01d15defb271bee	-7.271358417760878
233	0x4024e90390d98c00	10.455105330043807
234	0x4020cd41bede51ea	8.400892223967237
235	0x3fe89a662a84c3fc	0.7688475447122296
236	0xc031f8c140fc0b72	-17.97169881967006
237	0xc0253fc3378169f3	-10.624536261127082
238	0xc02c0bf57b26faba	-14.02335724688361
239	0xc01ed662cf6412dd	-7.7093613056974535
240	0x4028806887cc4d81	12.250797504128743
241	0x4029cef139672a26	12.904184144824352
242	0x4040bc3177eb6853	33.47025965685375
243	0x40162e1814b9cf05	5.545013736573087
244	0xc0476911d9677651	-46.820857215422286
245	0xc0066c0fc7929749	-2.8027644721613894
246	0xc0346216ccb81aa0	-20.383160395571963
247	0xc01a17d07a4ca14a	-6.523256216933371
248	0x403827138fa446e4	24.15264222870509
249	0xc033990fb0e42d11	-19.597895675379792
250	0xc03c4899ccabfe50	-28.283596794119433
251	0x4043dcf634171c0f	39.726263533863055
252	0x4032292bf62aca44	18.16082705063515
253	0x402aa33f27562915	13.318841199176441
254	0xbfffa890bbd06c98	-1.9786536537638195
255	0x403922b195b41e08	25.135522228692963

arr_5 f8 [32]
0	0xc02ced2da3f671a2	-14.463238834222299
1	0xbfd449302dfbe8e0	-0.31696705332400477
2	0xc0079d52fe90ed65	-2.9518184555033025
3	0xc02e0af07dd64d59	-15.021366054925851
4	0xc03299269c48ef97	-18.598245399290672
5	0xc02bb58705bf4760	-13.854545764541115
6	0x4037bcbc94fdeedd	23.737252532954574
7	0x40306f2444e7e008	16.43414717350973
8	0xc037cb7ce0834fca	-23.79487422185756
9	0xc023a3a63e9ab0a2	-9.819627720244458
10	0x4013aae0b8f948eb	4.916872873511447
11	0xc005e775c7920d06	-2.7380176154562177
12	0x4045b39b3b4e79cf	43.40317479450061
13	0xc024e38aed2d7b5a	-10.444419299890502
14	0x4032ad8949c7c80c	18.67787610175587
15	0x4025d537a5b22462	10.916440179820885
16	0xc03e4509b5b7955c	-30.269679410286116
17	0x400721fc3b23fd0e	2.891594373737127
18	0x4046510d3c867f80	44.63321644370353
19	0x40326801eac3c238	18.406279251854556
20	0xc03af2e75401e566	-26.948842287505066
21	0xbffc2b6481abec5e	-1.7605938973709025
22	0xc006222d1a76b814	-2.7666875903587513
23	0x4032c493e849bc7b	18.767881887437834
24	0x4037faa3cff7c2f1	23.979062078465123
25	0x40135d150dc86056	4.84090062652111
26	0x400b89642913228a	3.442085572143985
27	0x4027529ece8d9aa5	11.661367850099234
28	0xc013f4a423137dd7	-4.9889073830267625
29	0xc03ceb0d97ccd030	-28.91817616224597
30	0x4038fef05127ff70	24.99585444666394
31	0xc0260f5839a87b1c	-11.029969980064884

arr_6 f8 [32, 1]
0	0xc032d98586ffe68c	-18.849693715549208
1	0x401403edb91dc884	5.003836529200388
2	0xc028a77ca322762e	-12.327122781712287
3	0x4026113bee70c1b6	11.033660365356678
4	0xc037da91369918fa	-23.853778278710685
5	0xc03da51e8f1f7047	-29.644997544455943
6	0xc017287df1ee9fbd	-5.789542942227794
7	0x403b533fea66128c	27.32519402496341
8	0xc029086eafe1877a	-12.51646947505991
9	0x402fc5689e14e10e	15.885563793228837
10	0x40082c2e6a5b60d8	3.021572905458111
11	0xc0387fca19922b25	-24.499177549539258
12	0x403f4b659ae8d562	31.294519121021388
13	0x404059bf764ecaa1	32.7011554608082
14	0xc0284cb03111f84c	-12.14978173584327
15	0xc018efe807f10134	-6.234283565602073
16	0x3ffc6a30ae55acc0	1.775925332064432
17	0xc031f5c285807a56	-17.959999412409466
18	0xc018da6e4a56a39e	-6.213311349428208
19	0xc0325c6ff605903d	-18.36108338962389
20	0x402d5cc67aa8c6b0	14.681201775648645
21	0xc021f066c9a64ae9	-8.969534207867996
22	0x402aa62028675cf6	13.324464094750947
23	0x402adf8566547c2f	13.436564634144899
24	0x40337c857ce40d1e	19.48641186301858
25	0x3ff20c770f90cbc6	1.1280432327300658
26	0xc030daa7ea3113b9	-16.854124676686954
27	0xbfe9d543c01b5c60	-0.8072832824790446
28	0xc020bb51a0d30a89	-8.365857148897037
29	0x4023db34d116f6ad	9.928137334874316
30	0xc032dc73da888bbc	-18.861142786346804
31	0xc023e9aef95173af	-9.95641306990896

arr_7 f8 [1]
0	0xc0344a1d911e2158	-20.28951365457155
