weights/global_round_14.npz (npz, 129966 bytes, 8 tensors)

arr_0 f8 [43, 128]
0	0x40477b6ffc393936	46.9643550185596
1	0xbffda20dd0c51578	-1.852063956744443
2	0x403a5082bb1749cf	26.31449479406893
3	0x40117c87382848c8	4.371609570940741
4	0x4038de149409a1ad	24.867501499511196
5	0x4035a72b7d4e9eb6	21.65300734681542
6	0x401042a4a227734d	4.065081151635991
7	0xc01c699436df9a60	-7.103104455373426
8	0x403a3afdd88d73fa	26.230435881170685
9	0xc015c0355455523f	-5.43770343561897
10	0x3ff1d99d3e5ad408	1.1156284747823992
11	0x402e6fae4fdfbb6a	15.218126770077749
12	0x4030914f4fa8b6e3	16.567616442384757
13	0xbfe59f71fd2904c0	-0.675713533834049
14	0x4023beefdf591d9a	9.872923831585286
15	0xc015d633f784d636	-5.459182612879479
16	0xc03cd2af9224e306	-28.822991498952454
17	0xc016b548874bdaef	-5.6770344867752405
18	0xc01c24a5af16c0a2	-7.035788284076405
19	0xc0041f0494d69e20	-2.515145457076656
20	0xc02fb94e639b24c5	-15.86192618626445
21	0xc029d19c69914acd	-12.909396456704963
22	0xc01396abebe8d264	-4.897140203557317
23	0xc025daa40032153a	-10.927032476533544
24	0xc0409446bc1a73ec	-33.15840865413324
25	0xc02e393851f7ea0a	-15.111757813942877
26	0xc02e129e592da117	-15.036364352054575
27	0x4029f498cf42c43d	12.977728344822134
28	0xc036aaea98034239	-22.667642117305352
29	0x4000b1626d71608e	2.0866135168290105
30	0xc039b140a4c3e31a	-25.692392633270266
31	0xc014739903c22ee5	-5.112888392188073
32	0xc00767cd4ef95146	-2.9256845636211066
33	0xc0256c468fbaea90	-10.711475841109205
34	0xc03319910d20ed35	-19.099869556940764
35	0x401470249931bd71	5.1095146118744745
36	0x402526fbb21365aa	10.576139035098851
37	0xc00643226336717c	-2.7827804327955032
38	0xc031eb5e1d1a161b	-17.919404810780275
39	0xc03246fcba699d9b	-18.277293825898237
40	0xc006ea91305d5f22	-2.864534738397098
41	0xc02f13de24d11aeb	-15.538804197812587
42	0x402e4bd55ee3b25c	15.148112263960847
43	0x3fbd9aa75801fe80	0.11564107798221279
44	0x404120465d359565	34.25214734188447
45	0xc03e55d433ab625a	-30.335269193021624
46	0xc0211fa319646d21	-8.561791223057812
47	0x401419dfbcdeda64	5.025267554380296
48	0xc005f0189be5212e	-2.7422344378757293
49	0x4038864e707c9d98	24.52463439028142
50	0xc0412f1f487cff89	-34.36814218619754
51	0x401a8d886dc97dd0	6.638215747283041
52	0xc010e61c5fba9f28	-4.224717612996564
53	0xbfd56619da7ab6f4	-0.33435674987673214
54	0x404608f035aaa30e	44.06983061630136
55	0x400426d77010218c	2.5189656023905567
56	0xc020fb0e7a765aa6	-8.490344836184999
57	0xc02d8ee5a3004bcb	-14.779095739160672
58	0x403545fb58473986	21.27336646784672
59	0xc0138838fb6a25b2	-4.883029869416918
60	0xc037b325b1dd2528	-23.699793926706803
61	0x40389b2f94d4079c	24.60619478394038
62	0x40288ca807ca8db4	12.27471947047784
63	0xbfd36b5af3711168	-0.30342744611359374
64	0x401c6bc4e6b5dd25	7.105243306017006
65	0x4028a322f8d85bce	12.318626190577472
66	0x403c5d57e1bac288	28.364622219176937
67	0xc030edd7ff4a36fc	-16.92907710611233
68	0x402f14da6dcf8fe2	15.540728980624355
69	0xc03734aad2494b10	-23.205731528180934
70	0x40117f8a65badbaf	4.374551381616512
71	0x400770028e86af81	2.929692376599576
72	0xc03fde73cce92ea8	-31.868954474381695
73	0xc009eab1d3f78c42	-3.2395969924851054
74	0x403600749fd91bb0	22.0017795472192
75	0xc03166550932749b	-17.3997350452597
76	0xc037a193c1a6be9e	-23.63116083451188
77	0x40493242699f767d	50.392651751387326
78	0x3fe264e61bbf3aa8	0.5748167554791808
79	0xc03467edb29b699b	-20.40597072881938
80	0xc011186cffee39e3	-4.273853300967377
81	0xbfe963ec3f5acc2c	-0.7934476125141194
82	0xc02cb25036852788	-14.348268226389123
83	0xc02f79a8aa4da0fc	-15.737614938713243
84	0x401058f9a6f65a6f	4.086889847551546
85	0x3fe6cda6f5a75f41	0.7126040265966155
86	0xbff6b90727905152	-1.4201728387316348
87	0xbfea1066f0dc29ee	-0.8145022110268749
88	0x40139c94c96da512	4.90291132671088
89	0xc02e8007e539f01c	-15.250060237238408
90	0x4026b3aa2f22f154	11.350907776847329
91	0x402b7dfa781b8c5a	13.746051553118537
92	0xc028063adcb80eca	-12.012167832820882
93	0x4037a0886e610da9	23.62708177442042
94	0x4019fd9b2a26e68c	6.497662218689253
95	0x4032f830132c26b8	18.969483564643014
96	0x401e7acc30999ade	7.61991954743891
97	0x40400f04eadae8ba	32.11733756722374
98	0x3fe33e07e6d3fb00	0.6013221271858527
99	0x4030677a2291456a	16.404207382647122
100	0xc007f3aaa2b2841f	-2.993977805207137
101	0x403200f00dc39a76	18.00366292977784
102	0xc043fd146d8f1979	-39.97718591201096
103	0x40130f4d365c25e0	4.764942979215874
104	0xc02689f751873487	-11.269465015177287
105	0xc02a6e1e9763065c	-13.215077143514627
106	0xc0262342948296ef	-11.068867340985404
107	0xbff945797eb9f00c	-1.5794615698096122
108	0x402cf15cde71f686	14.471411658679482
109	0xc030701ae0f5e0d2	-16.437910137204035
110	0x4047a27acfcc03b9	47.26937291585586
111	0xc037c9f5fb65b79e	-23.788909637769045
112	0x40168b08822f806f	5.635774644994043
113	0x403ff081bf72954c	31.939479794954693
114	0xc002a059d32b39dc	-2.328296327358869
115	0x4003a70c2ed3f736	2.456566205829314
116	0x4031183ef5d5bba1	17.09471069782342
117	0xc02418d70ae235ca	-10.048515644181766
118	0xc006e6d3f4ea8388	-2.862708962828439
119	0x40313f429ba40c2b	17.247110106993357
120	0xc0292e215289d066	-12.590097979853635
121	0xc009ab7b81f0694b	-3.2087316657536227
122	0x401032ff52a37d15	4.049802104214241
123	0x4028dc788217e37c	12.43060690442666
124	0x4028bb1fa7c1e43b	12.365475885790252
125	0x402641fd6b39ce5e	11.12888655739442
126	0xc03fe270276b0638	-31.88452383387468
127	0xc02888b701576502	-12.267021219175607
128	0xc0401de69e84fb36	-32.23360043996074
129	0xc0312837dc499cb0	-17.15710236355943
130	0x403d8c520ddaed88	29.54812704653662
131	0xc02b6c2a32a6465a	-13.711259444043367
132	0xc02782c3e32a3260	-11.755400751973127
133	0x402ecfed32dd0b0a	15.406106557352832
134	0xc032595e2c3c491d	-18.34909321281258
135	0x402dbef501fec784	14.8729630111227
136	0xc02af916933e31b2	-13.486500359861427
137	0xc0336ceb89818b8b	-19.42546901142809
138	0xc036d55dbd14beb8	-22.833461587490746
139	0x4005e17f6d2cfdda	2.7351063279490804
140	0x40350611e0c0a8d8	21.02371029571154
141	0x402c0b4f9d970e50	14.022091793717806
142	0xc02c9a50615a92e7	-14.301394502931954
143	0xc029d8a1e027acf0	-12.923110012858587
144	0xc025feb7f93f9b58	-10.9974973573823
145	0x4042525266cc6871	36.643139695938665
146	0xbff7a0a4aaa19c30	-1.476719538238978
147	0x402ff20319301e1c	15.972679888843281
148	0x403b4440b39669f5	27.26661226675238
149	0x403cccf5d2f86fbd	28.80062597813934
150	0x4033158f6f4682e8	19.08421988936871
151	0xc009e82d6fbd7a54	-3.238367913217454
152	0xc02741cf33ef9b4e	-11.628533957480297
153	0x403d46d2ebd56ef1	29.276655902488475
154	0xc03c4c1def933720	-28.297331784669154
155	0x402df89f2c41930e	14.985589392666522
156	0x40486dd14dc3f5ec	48.8579499441947
157	0x40273c719f9e93f8	11.6180543786122
158	0xc01a3c4ae50cf33a	-6.558879450717365
159	0x402dddab568a90c5	14.932947830595717
160	0xbfe153cd7a9ab578	-0.541479815923295
161	0xbfaf0d230f3c9730	-0.06064710198397305
162	0xc01e5bd77cf6f92c	-7.589689209531837
163	0xc03ba9e56a1458d2	-27.663656835525053
164	0x40189639cd33f3e0	6.146704870506227
165	0xc043de18a44e217c	-39.735127008580974
166	0xc0308637a078633c	-16.524286298171532
167	0x40351788d61df37a	21.09193170768001
168	0x404497bcc45ee073	41.185448213888684
169	0xc03772a2f146e439	-23.447798805053228
170	0x4022eb226127c714	9.459246669870062
171	0x400dac139867a3ba	3.7090217501285823
172	0x4007ea30f80563eb	2.9893512131352415
173	0x40280d822e805da5	12.026383832139638
174	0x40070fa6286a0672	2.8826411397320095
175	0x4019a51b55e477cd	6.41123708922346
176	0x404496d6b6b2c4af	41.17842754105492
177	0x3fe171d93259b390	0.5451475127607512
178	0x401411851467f6d9	5.017109221311068
179	0x4031feb16e293ce9	17.99489487177644
180	0xc02611380af17dc7	-11.033630697230263
181	0x40409a90c010e9d6	33.20754242730952
182	0x404378de40b8d9d0	38.94428261781616
183	0xc01178f1db483cb6	-4.368110109600073
184	0xc01235d8899e64b7	-4.552583837788169
185	0xc005579954cca7be	-2.667772924895842
186	0x40272268d641ad4f	11.567206092374049
187	0xc026cecb9ef2069e	-11.403897254032298
188	0xc0366b46c38a0d29	-22.419048520282704
189	0xc026fcfb38d058f4	-11.494104171212236
190	0x40419ed0601c6886	35.24073411357044
191	0xc00c407a850a4898	-3.5314836877597138
192	0x4033d7c47d01b121	19.842841923630775
193	0xc0467bd5444e8332	-44.96744588693254
194	0xc0337ad514ae2f88	-19.47981385471897
195	0x4029bbd5ba31a238	12.86686498504524
196	0x3fb71a5a26523940	0.0902458518560012
197	0x402a434def6fce4a	13.131453974149867
198	0xc01a028c800c82c4	-6.502489090694045
199	0x400f52ba300cad80	3.9153941873425424
200	0xc043cb6b0d83b667	-39.589204491913556
201	0xc03edf9ce7ae3035	-30.87348793032307
202	0x400bad87b1e585bd	3.459731473748177
203	0x403cce6ebec03d36	28.806377336438537
204	0x403c1fd12ee8953c	28.12428563288016
205	0xc041c21b8a37992a	-35.51646545138131
206	0x400f52d5bc21672c	3.915446729440097
207	0xc02e57c41b12dd7f	-15.17141804318703
208	0xc020e8f7ecf7a5ba	-8.45501652262725
209	0xc02cfb2b62dfe30a	-14.4905653856563
210	0x40035922619914dc	2.418522608265091
211	0xc03797efa29c8dbe	-23.593500292988885
212	0x40279866a79223e8	11.797658192242992
213	0x40405ba266fa3d71	32.71589362353087
214	0x402a56b575aa7fe8	13.169353177130645
215	0x404836e1d5dce73b	48.42876694952289
216	0x401125f0023c3871	4.287048373151365
217	0xc02e704ebd70ea9e	-15.219350738557576
218	0xc038570869baf7fe	-24.33997212233225
219	0x402357645112592f	9.67068723057727
220	0xc02c43b17b5bbf7a	-14.132213454198553
221	0x4008b9f4ec7d98f8	3.0907991863087965
222	0xbff0c7fc4361d6f4	-1.0488245613209388
223	0x40308c7560184360	16.548666006015424
224	0xc0154fc2e7c6779c	-5.32789194249008
225	0x40185b7d18c4667c	6.089344393718076
226	0xc032c42ab15f7a2e	-18.766276441392783
227	0xc02fa4314ff4f29e	-15.820688723231168
228	0x4011b0ab87f0ed6f	4.422529338913008
229	0x4030e72ea892d1da	16.90305570206133
230	0x4034835878643d2b	20.51306869933357
231	0xc034c29dd1ab9c5f	-20.76022062720983
232	0x4041aed45f2708b0	35.3658560696216
233	0xc037c9b99adf3bd2	-23.787988357067498
234	0xc03d9062a1bae746	-29.564005001192776
235	0xc026bcdb2860c3ac	-11.368859540760091
236	0x4029fcd535b1f28d	12.993814161274054
237	0xc0128403463c347e	-4.628918740677475
238	0x4018bd4736e830ee	6.1848419741838665
239	0x4030b9f48632f12c	16.726387393414527
240	0xbff919551a350da0	-1.5686846755714683
241	0xc03365617c03f80a	-19.396018744439097
242	0xc03b2b27cea2027f	-27.168576159051096
243	0x4035af8dcb18227c	21.68575734462
244	0x4003f141fa23b0e6	2.492801622595027
245	0x404d2d4c07587252	58.35388271158867
246	0x4032c0ca98209915	18.75309134288644
247	0x403ab93cbe730202	26.723583129003607
248	0x3fe93df681176510	0.7888138314548616
249	0x4023f211d09c6ed3	9.972792166801275
250	0x3fd479078f5975c0	0.3198870563408853
251	0x40372183205ec981	23.130907080785168
252	0x403a2dfd470a3303	26.179645957937293
253	0x4041155c0d461edd	34.166871699560694
254	0x4047552f79c46eb7	46.66551134196691
255	0x4031307e39fe5853	17.18942606410594

arr_1 f8 [128]
0	0x402bb5e6a3076874	13.855275244383144
1	0xc033fdfabbe0139d	-19.9921071455061
2	0xc03adbe952cd0dfb	-26.85902898317543
3	0x403062effc8d09bc	16.386474403794395
4	0xbff0624e5a5ce958	-1.0240005044748468
5	0x401cfb7254a53a04	7.245553324303277
6	0x401e2cfc208806ac	7.543930538465855
7	0x4023294244562012	9.580583701623286
8	0xc0178b4df4c3363c	-5.88603956643561
9	0xc01ac38c59eb2cb7	-6.690965085009501
10	0xbfe31bb94a5ac8a0	-0.5971342518080469
11	0x4045b2367f306efa	43.39228811135213
12	0x3ffea04261d78a16	1.9141258069945528
13	0xc035a10cfea95b6c	-21.62910453448005
14	0xc0346ee6660ec288	-20.433203104594696
15	0xc030dbbed195de1a	-16.8583804121864
16	0x3ffe1095dd52922c	1.8790491719638664
17	0x402352a564cc8934	9.661418104141013
18	0x3fe182831b46e13e	0.5471816570998624
19	0x40416aff21ddad61	34.83591101955495
20	0xc031bf4095ad34e8	-17.74707923391989
21	0x4017f288bffbc02b	5.98684978460373
22	0xbffe6c31aa698eb8	-1.9014145523769184
23	0xc021d55519ecd6d4	-8.916664896164924
24	0x4038d534b2133429	24.83283532112924
25	0x4034b06ba55fbd1e	20.689142547486988
26	0x4043443de1f595f3	38.533138508715545
27	0xbfbc0595d730d3e0	-0.1094602251403809
28	0x3fd43d0f2fb6ffa0	0.3162267652478423
29	0x4004660803cc3e28	2.549819974585052
30	0x4042802615a79557	37.00116224940091
31	0xc01e18b03e34d5ce	-7.524109813666156
32	0x402a0fbe76336339	13.030749982617282
33	0x4027f047a4091348	11.969296575649096
34	0xc03f5ea7834b4954	-31.369743543510893
35	0xbff39aa5e1e62cd0	-1.225255854052012
36	0xc03dd9315dbf448d	-29.848409518429026
37	0xc01e36b9d9a971d1	-7.553443337409093
38	0x40243ba1fde52d1f	10.116470274186723
39	0xc008e2408ead3221	-3.1104746958356064
40	0x4000e4c68c1467bd	2.1117068237044507
41	0x40056698c8d5baae	2.675096100828646
42	0xc0416b9e806ae54a	-34.84077458590998
43	0x400df60d3dd55faa	3.7451424437276346
44	0x401653386242cf4a	5.58126977474951
45	0x4037bf53c76035b2	23.747372113217075
46	0xc0425cf2c485c32d	-36.726158681214976
47	0xc0350af391f9b72f	-21.042779086557115
48	0xc03200ec419ec9a2	-18.003604985491286
49	0x40348dfbaa7c80ee	20.55462136783256
50	0xc03059f03274da0b	-16.351321366813902
51	0x3ffc567f665b8aa0	1.7711175916998982
52	0x4006468af728d9a6	2.7844447430936325
53	0xc01468378e02023f	-5.101774424431425
54	0xc03359ee000a8791	-19.35128784424848
55	0xbfc24179ab13e5d0	-0.1426231465664345
56	0xc03bf0258086ffa9	-27.93807223602167
57	0xc035cd97db4f7bfc	-21.803098399072027
58	0xc02898f8b2cf164e	-12.29877241876525
59	0xc03e44d78bd3d821	-30.268913974017895
60	0x40128c3b14900b0c	4.636944123546311
61	0x4028752d5978c56b	12.228861614220213
62	0x400f4fb7971ba652	3.9139243893921867
63	0xc017c4d81cc1e98d	-5.94223065312907
64	0x3fb16695764baa60	0.06797155511927988
65	0x402403bcf380bacd	10.007300958122324
66	0x3ffd40a28c20a634	1.8282800172550084
67	0xc03113d2e8ad2f7e	-17.077436964303608
68	0xc03fbe22ce6736cf	-31.742718601416353
69	0xc024ba758a455020	-10.36417800994974
70	0xc0341675891d86a0	-20.087730951031176
71	0x403a9bc50d7f8997	26.608475536000324
72	0xc034ae1bba891dd1	-20.68011060569353
73	0xc025c649258dd4c0	-10.887276814998017
74	0xc0340b451ecfee52	-20.04402344299735
75	0x403088548275f323	16.532539514347388
76	0xc039826ba8499316	-25.50945522114042
77	0x400098481e5ccb62	2.0743563053196548
78	0xc0432edf2138b54e	-38.366184380235254
79	0x402d5460c31d97c5	14.664800736772927
80	0x401b282239587740	6.789193054222608
81	0x4023483add56a8aa	9.641074101284477
82	0x3fbdd5f0bdd94700	0.11654572138766284
83	0x402d008d4d7f4447	14.501078054223525
84	0x3fd4b2422d449824	0.32338003559778117
85	0x4032009dcbe8be7c	18.002407783815656
86	0xc0268eb50d515689	-11.27872506730934
87	0x4032484ba89bafea	18.282404459008752
88	0xc0352173181af209	-21.13066244752739
89	0xc02647fd95304339	-11.140606557980947
90	0xc0387301b0c16939	-24.449244544238557
91	0x403d9c0720e3d3d5	29.609483771917287
92	0x403ee8dbae860a38	30.90960207722148
93	0x4002221ca7655c84	2.266656215458683
94	0xc03697c9f83e45f4	-22.59292556305259
95	0x4004f28981742b01	2.6184263337685256
96	0x3fe8e86c68be00e6	0.7783720060106389
97	0x4026e702bc05b24e	11.451192737288832
98	0xbfea00365bccb238	-0.8125259201966122
99	0xc039a6d18f958be7	-25.65163514519727
100	0xc0031f108c96faf6	-2.390168283803514
101	0x4021e85409a80036	8.953766156919396
102	0xc01e36adc7d465a2	-7.553397295321163
103	0x4032e851785b55d1	18.907493135737074
104	0xc0416c1fe8c0100e	-34.84472379091322
105	0xc032fab50e25edd3	-18.979325184116373
106	0xc040279ec4d80cc9	-32.309532742970596
107	0xc0236dd3e25ee3dc	-9.714507173617612
108	0x4026f6a34232a747	11.481714314158706
109	0xc00cc43474c2812a	-3.595803177057083
110	0x4020506f1435a4d1	8.157097465084378
111	0xc0162a54fb26dd1e	-5.5413398020239395
112	0x4020d15666d78df4	8.408862317860418
113	0x4037c02cf047f0b6	23.750685708583397
114	0x4022725161fc5d1c	9.223277151161305
115	0x40230c6d8895fd42	9.524273174580802
116	0xc01f529cfa87ed02	-7.8306769509756595
117	0xc00c85716d9fcb44	-3.5651577534094105
118	0x403bc79f798ff099	27.77977714313656
119	0xc0003070d77458aa	-2.0236527283078276
120	0x4041f1da0520049e	35.88946594298726
121	0x403871f32ae94d46	24.445116693457088
122	0x403838dfc604bbb0	24.222164512782626
123	0x4033f25e0b22ba09	19.946747489908407
124	0x4019760649c350a4	6.36525836233719
125	0xc02082a4a4116432	-8.25516236030862
126	0xc0319e6990ad131d	-17.618798296217495
127	0x401118293aba51b4	4.273594777700442

arr_2 f8 [128, 64]
0	0x4025762bc364cd3a	10.730802637152568
1	0x401e97dd626366d8	7.6483054516954425
2	0x400a7047d5413ecc	3.304824510625485
3	0xc01599cf2ed937df	-5.400204402931165
4	0x4021d981b3a6f290	8.924817670945487
5	0xc022da226b8c4780	-9.426043854593217
6	0xc028f542ddbebe9d	-12.479025773557902
7	0x4012885c354eb76a	4.633164246491882
8	0xc02076d771ed5ef0	-8.232112465120252
9	0x3ffa18ab77dc8378	1.6310228998265455
10	0x402dff8a05f83e5a	14.999099909356278
11	0x40403945682db6ea	32.447430631944215
12	0xc02ea79bcbe5aa7d	-15.327360507760426
13	0x40301b8acfa0cb62	16.107586838489972
14	0xbf6bbf534eef7000	-0.0033871295085941
15	0xc01d3fb8234e57c6	-7.312225867897672
16	0xbfe381e4cb302980	-0.6096061676519611
17	0xc03d2abcf76f3298	-29.166945900581226
18	0xc01e4d93e72b46d0	-7.575759517685313
19	0xc0293256d5a2da8a	-12.598318744783018
20	0xbffa7fd326d3e503	-1.656207229300265
21	0x4023942ec923e0b4	9.789419446591957
22	0x4038957d6b2731dc	24.583944985455545
23	0xc0230396c9c9ae8f	-9.507009797925347
24	0x3fb924d5f5139200	0.09821831925689395
25	0x4040e03a8c39a39f	33.751786735672106
26	0x4021bca4e22c8f8c	8.868445461215536
27	0x40286f9c69372189	12.217990196208818
28	0x40180914fa833164	6.008869089372045
29	0xc02bb09d93def14a	-13.844952221836724
30	0x3ff0ed4ced810516	1.0579346921443338
31	0xc03011f159b1844e	-16.070088964308802
32	0x4030da5fa92f3bfe	16.853022169143507
33	0x401bb975585c9e66	6.931111698773384
34	0xc009d973d120b219	-3.231177934465688
35	0xc0240e39c2fb975f	-10.027784436427906
36	0xc038b12437fa9d98	-24.691958903012704
37	0xc00fa62346635b7b	-3.9561219691344696
38	0x40103ef070add54c	4.061464081392227
39	0x4017a8b008dbe372	5.914734018727232
40	0x40410a212b184928	34.07913721738652
41	0xc039b1f0d93c799a	-25.69508130766335
42	0x4027c7f6ba6d0c6e	11.890554261981574
43	0x40253cd18eeef8ef	10.618786303206859
44	0xc00039b8613f9528	-2.028183707955254
45	0x3ffddda342b7e38a	1.8666107755836685
46	0x40354827b08aa939	21.281855615475454
47	0x403550a98a791479	21.31508698898367
48	0x402dec66859fa60f	14.961719680536616
49	0xc02371bfcdef03d0	-9.722166476656554
50	0xc00cb345eb5c890c	-3.587535704385237
51	0x3fd47d29acaf4303	0.3201393305180746
52	0xc026bd8ccb920396	-11.370214807104087
53	0xc00d345bde53f50b	-3.6505658501979545
54	0xc019f60f9ddc4978	-6.490293947763682
55	0x4041a5c14ad38223	35.2949613125568
56	0xc02092963a0e1e10	-8.286302389357871
57	0xbfd44e758bbb83e0	-0.31728876729726885
58	0x4026a0ababd01182	11.31380974688432
59	0x4014439ef623489c	5.0660360774074
60	0xc01e8071764f1b3b	-7.625432823732633
61	0xc00bbf89d3245982	-3.468524598643115
62	0xc0230db651ecbc13	-9.526781616352343
63	0x4018d427231bc5e2	6.207180546350601
64	0xc01c5cd4e92152b7	-7.090655939730531
65	0xc0408aebc537db9b	-33.08532014110025
66	0x40036b8d61d97eca	2.42751575894349
67	0x403659882bcb308f	22.34973405562101
68	0x402ac6ebacced7ce	13.388516807793987
69	0x400d8f0c0c9493d3	3.6948472006647335
70	0xc0358c1be69b94a0	-21.54730073259691
71	0x402f367cf3b1d413	15.606422057588167
72	0xc012d6b195cd0770	-4.709661808623295
73	0xc0324a2e1d69df22	-18.28976615748173
74	0xc01472e3d4fa73ea	-5.112197234903741
75	0x3fa32769f14a8700	0.03741007872055313
76	0xc0042deaaea9fd10	-2.522420277178419
77	0xc045c0a8b095770f	-43.50514800356006
78	0x40264d95b8654328	11.151532900200962
79	0xc01659799d24d640	-5.587377982495639
80	0x401131fb6d931973	4.298810684302555
81	0xc01ff1231317c09b	-7.985485361408929
82	0x40317f4d1c623b6c	17.497270368559313
83	0xc038dd76a8893359	-24.865091832634196
84	0xc009f528e300c55c	-3.244706891499545
85	0x402db906b6bf6688	14.861379347671814
86	0x40334149df972a31	19.255033468633147
87	0xc03c7ed42acf8e7b	-28.49542491500186
88	0xc01787655caab4b0	-5.882222602767044
89	0x3fd2007ee8c92270	0.28128025753952723
90	0xbff08f0a52ed5b38	-1.0349219550459576
91	0xc03aef6d66234aa6	-26.935263045898544
92	0x40436853915679dd	38.8150502845999
93	0xc021f0ca03e69a0b	-8.970291253947854
94	0x401b7be12a2e39cc	6.87097612292423
95	0x3ffa1842e91bdf37	1.6309231859031124
96	0xbfd6d03db126cf30	-0.3564600210186084
97	0x401b2d78b0334840	6.794405701761264
98	0xc01cf338a6116a76	-7.23752078515337
99	0xc03bb8673eb23075	-27.72032539224934
100	0xc02b0a038d48c8ea	-13.519558348784319
101	0x40027b12bf806da0	2.310094352824038
102	0x402443bd8c2fe91b	10.132305508469065
103	0x402e432ca42b4da1	15.131199960981407
104	0x400f5ccfcb6b731f	3.920318211762051
105	0x402907e836a56ec1	12.515443523115552
106	0x40150614a55c856b	5.25593813302235
107	0x400b98ed9fc18432	3.4496719819003596
108	0x401339cf48e8ac8a	4.8064547912609985
109	0x4011213e072dcb14	4.2824631807041165
110	0xbfd3f639b60b2e30	-0.3119034078378915
111	0xbff6ac7460a1fa48	-1.417103173705657
112	0xc016d56d8d286264	-5.708425717916359
113	0xc0226b49c3f9e9a8	-9.209547161347317
114	0x40477ee4a332b118	46.99135246253189
115	0xc0072d6243e3c58e	-2.8971600822339445
116	0x3fd7ecf39a20b3f0	0.37383737613237056
117	0xc036c5057cfcd019	-22.76961499378385
118	0xc03581794cda4fae	-21.505757144259114
119	0xbff67eb91e7cdbbd	-1.4059382620741723
120	0x4014367223b46374	5.053169782528915
121	0x3ffc59f2c10f92e4	1.7719600240172264
122	0xc02b8a80579b41b8	-13.770510423376308
123	0xbffc923d31d6bd98	-1.7857028910474124
124	0x4026a6f6c84b1c50	11.32610155026319
125	0xc02127b4db3a86a2	-8.57755169953754
126	0xc014d29307c38a64	-5.2056390011881355
127	0x4036e91001db5aa9	22.91040050130201
128	0xc029b0597d9ebf47	-12.844432759884183
129	0xc0001af92dabb3ea	-2.013170582582906
130	0x4023d8eb4584a586	9.923669979517182
131	0x40430356432bd316	38.02607001914855
132	0x403ad481a1d7b7b3	26.830103030362533
133	0xc01792f2e64f3dba	-5.893504713617796
134	0x40160a133a9c235a	5.509838977603829
135	0x402aded653e09a87	13.435228940169749
136	0x402fe2ef43bbd691	15.943231693915807
137	0x403b9a90e436c750	27.603773368238137
138	0x4007e0e4b9896a96	2.984811257845034
139	0xc03d54991d41bbb6	-29.330461338565975
140	0x3fff4c8bc36d96fc	1.95618797625633
141	0x4019b077f3b7581b	6.422332580628814
142	0xc0295bd21589ab5d	-12.679337189727159
143	0x40377a65300db8e1	23.478106501913206
144	0xc0301867eded3684	-16.095335836804693
145	0xc0144a3967c4c404	-5.072484609017014
146	0x4027a13beabb4f30	11.814910254826458
147	0x401470c7ecbcea9a	5.110137652426284
148	0x4025dbcdda4d68e9	10.929304906796874
149	0x3ffeb4c222183000	1.9191304523292274
150	0xc035429f9b0ad070	-21.260247888698757
151	0xc02db218c6ae9415	-14.847845276652189
152	0xc003b5ad337f2b32	-2.463709261244184
153	0x3fe17e6705e68d88	0.5466799845930135
154	0x40075aafd0c3b06c	2.91928065392681
155	0x402b0481e728ccd6	13.508803580980764
156	0xc032bad87d908f34	-18.729865882675952
157	0x403aee65f7d89cc0	26.931243410476554
158	0x3feb1ee341bcda5c	0.847520473855933
159	0xc033ef96c40b793d	-19.935894253541154
160	0xc041a585e20cb2d0	-35.29314828510326
161	0x401e5a22294443d4	7.5880209396281835
162	0xc02750df41ede859	-11.657953319827515
163	0xc02f7741ff8f5a1e	-15.732925401925112
164	0x40384d66ce6f2603	24.30234995091997
165	0x404503e2399fe2c7	42.030341342038405
166	0xc046a7ed1eb65ea8	-45.311923827216845
167	0x4019fe0b5e51731f	6.49809024212007
168	0xc03109ab51f2997b	-17.03777038739052
169	0xc01e037e5064ecf4	-7.503411537323007
170	0x403c0bfd66fc973b	28.046835362117445
171	0xc042dd176862a73f	-37.72727684800201
172	0x3fe87e983b5f6f95	0.765453449213498
173	0xbfea4cee5090e6ae	-0.8218909810595585
174	0xc024cd3a49b02fa8	-10.400835325963115
175	0xbfd4a91b99c8d780	-0.32282152193089786
176	0xc0163f82ec4937bb	-5.562022869080404
177	0xc017ce27dcac5978	-5.9513239364808825
178	0xc02bf1c218d217f4	-13.97218396725291
179	0xc012348cc0418841	-4.551318172454615
180	0x40113937687c46a6	4.305875427804187
181	0x4010b516a16d16d1	4.176844141276619
182	0x40210375e99df13a	8.506758976488175
183	0x40343e61d1496223	20.243680076995712
184	0xbff271700ce83e4c	-1.1526947502315066
185	0xc030b8e615b83efe	-16.722260816080045
186	0xc0438b7dd2fdda3c	-39.0897773494257
187	0x402ae0e85153816b	13.439272443240688
188	0xc031955d7d10b166	-17.583457771850043
189	0xbfd13e9b90d1e0a0	-0.26944626944124117
190	0x4022453cde2ea93a	9.135230010219505
191	0x40341719c9e20df7	20.09023725289259
192	0x4014cd6488d40101	5.200578821124737
193	0x4030c24104b7525f	16.758804602390565
194	0x3fe7a1654ab1c570	0.7384516199946756
195	0x4046ad5a64ef39d5	45.35432111435845
196	0x402369ad850c2874	9.706401975378164
197	0x40167e175663385b	5.623135900312344
198	0x401f8b8dd576affa	7.886283240670304
199	0x400e117b3ae82b05	3.75853582402249
200	0x402943d5d9a96123	12.632490922857476
201	0xbfd9ebeb8334a050	-0.4050244122795492
202	0x400b3a6d9b3ab6b8	3.403529370049764
203	0x40128520ea03797c	4.630008369886465
204	0xc034b2bb48fd8fae	-20.69817024412594
205	0xc011eee017c4b750	-4.483276721364589
206	0x402e81f240bdeca2	15.2538013679353
207	0xc01adb8afc6684bb	-6.714397376782638
208	0x40081a8b125b2e4d	3.012960570724124
209	0x40428c8669739870	37.09785192627248
210	0x401fc00642af8611	7.937523881877056
211	0x40388cc93012f6f9	24.549944882040084
212	0xc035b7ad027e89df	-21.717483669179156
213	0x4000f751b63c43f6	2.1207613217488825
214	0xc04631260feed424	-44.38397406732136
215	0xc00436c36884827b	-2.52673989920032
216	0xc0153eb0dae2b4bf	-5.3112215233679185
217	0x401e15bf519f3e7a	7.521237635941015
218	0x402271fede3d1b2a	9.222647614440195
219	0x400f7c2e37a12810	3.9356350275093135
220	0xc03f18a2af2937ba	-31.0962323642377
221	0x40367ef6dc8b7446	22.495954307600435
222	0x400e189aa0d27908	3.7620136799079127
223	0xc01e2f46d91e288a	-7.54616870161602
224	0x402edc0e3e905860	15.42979617607142
225	0xc030194a18d62f04	-16.098786880770618
226	0xc0300e4c9b8aae21	-16.05585643897769
227	0x40434aff1369a4b8	38.58590929659243
228	0xc037bf150a0f0670	-23.746414784115075
229	0xc02089a52837e8bf	-8.268838173699235
230	0x4035db36af5944e4	21.856303176206794
231	0xc04dc10b0103400e	-59.50814831408216
232	0xc0104ca3f84b70ec	-4.074844245533523
233	0xc02af4bbdd99cbf4	-13.477995800994883
234	0xc00a8350e662be24	-3.314119148147954
235	0x40323a5e4a9eb13f	18.228001273864034
236	0xbff550d3911eaf68	-1.3322330158943831
237	0xc03b10ec7ab0a4f1	-27.06610838711362
238	0xc000f44ad7188f24	-2.1192833713884216
239	0xc039199629ce9bcc	-25.09994756025462
240	0x40228ee7c49ddc7a	9.279111999769373
241	0x3ff809ea6bac63f8	1.502420826529713
242	0xc043dab97ffcaa6e	-39.70878600918955
243	0xc042db3b705925e8	-37.71275143006261
244	0x3ffaeb3ee9afd500	1.6824330452339495
245	0x402d5ff7f30139aa	14.687438577556197
246	0x401e957eb51c67da	7.6459911631190725
247	0xc048a8bc4e2c7209	-49.31824662370861
248	0x403b017ee5f9e77f	27.005842565070903
249	0xc017c8e0a11f1bb1	-5.946169393085186
250	0x403283cfe00b22b4	18.514890673369067
251	0x403e5f7fd6a74d49	30.373044410557927
252	0x40475491a721d778	46.66069497253824
253	0x4021cf323f59c26c	8.90468023272225
254	0xc032eedaa233707a	-18.93302358394474
255	0x4030eabd2151544d	16.916948397022043

arr_3 f8 [64]
0	0x403da04445729642	29.62604173705609
1	0xc02da7369af0d3c9	-14.826588479898321
2	0xc021ee4c8c637c08	-8.965427767891029
3	0xc00e03de8defd614	-3.751889332658502
4	0xc0466429e953d49f	-44.78252903550423
5	0x40269d61c1922e3e	11.307386445135418
6	0xc01e7725ea9300f8	-7.616355576727294
7	0xc0338fee5c6cf83e	-19.56223085079568
8	0xc02ee8b4cf5e0f66	-15.454504471046402
9	0x4018b9e7d9db2113	6.181548503875336
10	0xbfc15c71d39e1880	-0.13563368637932527
11	0x403003232498a279	16.012254988922425
12	0xc03d4aea7eecf075	-29.292640621992593
13	0xc04053071ce2dcd3	-32.64865456654811
14	0xc0281116da83f296	-12.03337748394669
15	0x4012f675567c6fd6	4.740681983323119
16	0xc01f6d66823dbae0	-7.856836352365207
17	0xc0154655d4dc85f9	-5.3186867961498985
18	0x403095417affd353	16.583030402619737
19	0x4030f3135b4316f6	16.949514106635398
20	0x402335ec6bc7eeff	9.605319374233202
21	0xbfee210035c4598e	-0.9415284204613259
22	0x403a29cd5a325afd	26.163289677900128
23	0x4024511d7bd1702c	10.158428067508872
24	0xc02ae4eecd6410d1	-13.447134417023706
25	0x40285cb93fd0eb4b	12.181100839855977
26	0xc020db0f58b149e0	-8.427851459161445
27	0x4038ef18ce9d28e4	24.933972276085925
28	0x4023bf167e2c5ede	9.873218481937723
29	0x401e239dbf07e6bc	7.534781441552408
30	0x40476d06ea872dd4	46.85177356339014
31	0xc040a3bf00cef7f3	-33.27926645379912
32	0xc039020ca837679a	-25.008005631948983
33	0x403e4943d2cc3ab7	30.286191153393442
34	0xbff38449257c86b2	-1.2197963203729327
35	0x4020310505f4c1f3	8.095741449477805
36	0xc03701b9b1eb05b3	-23.006739730719072
37	0xc022533e693953b9	-9.162585533378534
38	0xc00a5e7da99c33e3	-3.296138119773319
39	0x4026f9345d45dda6	11.486727633265058
40	0x40051f53516a5d40	2.640295635279159
41	0xc03e57eb8ae015a5	-30.343437843044416
42	0x4042f0fe06851146	37.88275224206386
43	0x40092affc294843b	3.1459956361364028
44	0xc000f66239b6b921	-2.1203045376670535
45	0xbfed7f19920c152c	-0.9217651226505601
46	0x402eb69f2eab6d59	15.356683214594044
47	0x402018faa35535d5	8.048787216331144
48	0x403065862f7bd3a3	16.39657875798333
49	0x4011dc4df8f1d710	4.465141191254375
50	0xc043dbc8a4fc40d8	-39.71706068341308
51	0xc0351dafa2a3c56c	-21.11596123216934
52	0x4031429389cb3ba8	17.2600637551474
53	0x402c7ca69f90bc5c	14.24345873491091
54	0x403f34c744bacc10	31.206165595631376
55	0x403c468b0b4f2bb4	28.27555914576415
56	0x4037377467e0fdd9	23.2166199611946
57	0x403a25b992bc29ec	26.14736287206499
58	0xc0455133756f1a4c	-42.63438289570749
59	0xc03139c6fcd07af0	-17.225692559145443
60	0x40313cd8a4fc6275	17.23768073236211
61	0x40314a164a65faee	17.289402627847203
62	0xc002135ff3a1175c	-2.2594603570495746
63	0x401be2a73b199619	6.97134106010119

arr_4 f8 [64, 32]
0	0xc00946a040ddaf8d	-3.1594853465703125
1	0x40172ee4ec26154a	5.795795144867336
2	0xc00dc8c262567345	-3.723027008307698
3	0x403b165336767b16	27.087207225728967
4	0xc0399e86b75ecac5	-25.619243107454867
5	0x3fdbaed3d2408558	0.43254561932015667
6	0x402840be9540eae9	12.126454033064379
7	0x40393e14e8e965ea	25.242506558401068
8	0x3ffe151c713da1e4	1.8801540778605323
9	0xc027bbe773d581c7	-11.867000217259273
10	0x402d4efcda869849	14.65427286999706
11	0xc033a72c0de6742e	-19.653015965235845
12	0xc041dd0332952acc	-35.72666008266023
13	0x40300378134c13d1	16.013550954888903
14	0xc01cd881a494e076	-7.211432048403472
15	0xc0307f328451a3f6	-16.49686457627464
16	0x4036d6c55f828dfc	22.838949174283684
17	0x3fd9c10e5774c400	0.4024082044662123
18	0x40449041ca3453a5	41.12700774722115
19	0xc013b00a839f543f	-4.921915108298946
20	0xc04329a7150eea0a	-38.32541144588693
21	0xc02d06f8c827abdf	-14.513616804926583
22	0xbfcfd3b60d91a898	-0.24864841139362137
23	0xbfd5ff5f1888ce30	-0.34371163745820166
24	0x401c59f71581e7ad	7.08785661321046
25	0xc02cd65bb224257e	-14.41866833392373
26	0x40365ab83b424c8b	22.35437364929798
27	0x3fecf1798c11e70a	0.9044769035092213
28	0x40374d6e0759ad43	23.302460154908896
29	0x4030f858910f7323	16.97010141970817
30	0xc01af2a8c073c755	-6.736971861902778
31	0x4014ce474ba7b1da	5.201443845854067
32	0xc0477e792483212b	-46.98807197954951
33	0xc025a9939e46f13a	-10.8312043630218
34	0x40337648ab6c37df	19.46204635040328
35	0xbfe9e0a6b436a6c0	-0.8086732406420296
36	0xc0264baf4bf8cda6	-11.147821783181666
37	0xc01f09ce7f7e3aeb	-7.759576789931752
38	0x40102a5a8c2b9268	4.041361036452692
39	0x402e9fe82ff7e662	15.312318324099753
40	0xc0263c01fb6a7085	-11.117202622168643
41	0xbfd2cb75b8ecfe60	-0.2936682039180365
42	0xc022f67f14c25be7	-9.481438301778281
43	0xc0111ff6e87a2fc6	-4.281215317208938
44	0x4028ac58d81a1190	12.33661532705517
45	0xc03214d74d2d5a3f	-18.081410239765543
46	0x403cdefae99615b5	28.871016120092197
47	0x404628e783908c3b	44.31956524427411
48	0xc03103c5814f9723	-17.014732438975567
49	0x401acdab7b33af32	6.700849461583674
50	0xc035777c9f0c275a	-21.466745319812027
51	0x4030a287897c704d	16.63488063133291
52	0x402b498967b4e617	13.643626442749378
53	0xbff36a7b0a254088	-1.21349624598591
54	0x40302d521e7dc912	16.17703428812917
55	0xc03a4aa7b24e1783	-26.29162134558238
56	0xc0310e4227348b2e	-17.055696916893048
57	0x4035f2b5924bf3e8	21.94808306078258
58	0xc020400565c8420f	-8.125041180320322
59	0xc02587b2e436e057	-10.765036708544512
60	0xc03198d526364dd3	-17.59700239969045
61	0x40339c65fc1d71ed	19.6109311649215
62	0xc024970aba2ba966	-10.295003717260169
63	0xc030aa2c521fd7c6	-16.664738781713616
64	0xc036a587ee7d983d	-22.646605401671184
65	0x4024655bb4368258	10.197965270666074
66	0xc033ed3c43f992d0	-19.926700828963305
67	0xc0378dedaffb6cc6	-23.55440807236007
68	0xc0079bb6276dc4f6	-2.9510310249685245
69	0x4040a6d401a7130b	33.30334492357186
70	0xc02483d5d36003ee	-10.257490735502838
71	0x4026d0fb7dd4ad1c	11.408168728076411
72	0x4025dcecfba1cde4	10.93149553632879
73	0xc040b97816567d1c	-33.44897727225381
74	0xc033e53d58b0d25f	-19.895467322511077
75	0xbf9df1e8f33ab880	-0.02924312576822574
76	0x4021bb5114bf48a1	8.865852974271833
77	0xc039a64768515749	-25.64952709184516
78	0xc01a20f8728de692	-6.532197751913957
79	0xc0320af011907560	-18.042725656288326
80	0x3ff8f657dfb88ce4	1.560142396840825
81	0xc00decc91f063cca	-3.7406179832247277
82	0xc0346e5b3f90b16e	-20.431079838586292
83	0xc044b010a9540500	-41.37550846674458
84	0xc03906b3f0e98f0c	-25.026183182736574
85	0xbff313487cbbbf50	-1.1922078010938613
86	0x402ea4851eb217a6	15.32132812427501
87	0x3fcccf6685405080	0.2250793600693477
88	0xc0321d0f8f633e33	-18.113518678406944
89	0x4021d296c7899328	8.91130660585766
90	0x4039d9e2b84bd4e3	25.85111572123868
91	0x4020624b773f4ce3	8.191982008435337
92	0xc01cfa112964a126	-7.244206091658532
93	0xc034d4f9c1e69989	-20.83193599586369
94	0x40192ec61b30efa5	6.295677590238403
95	0xc02f81851c8fd458	-15.752968685681637
96	0x4037aa4380eb2766	23.665092523012753
97	0xc02ddd28458f1e18	-14.93194787380257
98	0x402a790eda5e4409	13.236441444403697
99	0xc02f3d955d0620aa	-15.620280177114484
100	0xc02625ad48556366	-11.073587665961622
101	0xc01e22cb4b094745	-7.533978626672085
102	0x4016f2c4afe0f657	5.737078426461799
103	0xc004c32dc00205cc	-2.595302105008818
104	0x40417c1ff93da5b2	34.96972575674171
105	0xc03720d4b6efc08e	-23.12824576714825
106	0x40133664d041ecae	4.8031189480054035
107	0xc03305a4ba2afe0e	-19.022044787880127
108	0x4022897d7a8819e8	9.268535451044002
109	0x4039632278e58b36	25.387244754830327
110	0xc0226265856b085c	-9.192180795016775
111	0xc00cfe5c7261e456	-3.624199765789437
112	0xc02685a51f59131d	-11.261025409339306
113	0x403ba244060c285a	27.633850458114786
114	0x4018f1a9f45a95fb	6.235999887494013
115	0x40325c1271bef5d0	18.359656437989372
116	0x402b490d8410d69e	13.642681242995703
117	0xc03286ddc3ff28a6	-18.526821374697327
118	0x40306729627ddd34	16.402975230911764
119	0xc03572b13de603d0	-21.44801699510191
120	0x4013614da46f26c2	4.845022744449752
121	0xc04586674e3f3e6a	-43.05002763832165
122	0xc016e3340a1b6d4c	-5.7218782023658825
123	0x40132de567048855	4.79482041325726
124	0xc03494a1a98e3562	-20.580591771334532
125	0x4028fc55ebdf345e	12.492843028065348
126	0xc015a6c715b5aeee	-5.4128688232556055
127	0xc027698a6c46bc58	-11.706134208330852
128	0xc022fff20eb7a6dd	-9.49989362708896
129	0x4038f415ddc5a75a	24.95345865321665
130	0xc0011aa9d0bbe6db	-2.138019209608371
131	0xc02674db9fa0425e	-11.228238094628235
132	0xbfc7e45d8a4ff110	-0.18665665868309889
133	0x3ffe9844d0cd9550	1.9121750027055278
134	0x4022e42cc2f36485	9.445654003344552
135	0x3fe0190ef90bf424	0.5030588974183314
136	0x402a17aa85498937	13.046222844339907
137	0x4034ddd906b4a909	20.866592806917684
138	0x40466917a0be0054	44.821033566259445
139	0xbfc6cfcd3c2549d0	-0.17821660458373723
140	0xc02cf9470e3b9aec	-14.486870236183186
141	0xc016fc84441f55b0	-5.746598305141944
142	0x4039f5aebdd89fba	25.959697595011427
143	0x403debfcf39fdbbe	29.921828485992357
144	0x40358e7642332611	21.556491982924914
145	0x400621631325ff42	2.766302251431541
146	0x403992050ad37968	25.570389439229444
147	0xc01ad2936116f808	-6.705640332247647
148	0x403345ab7e73ab85	19.27214804004645
149	0xc01bbac3cfd85b44	-6.93238758810077
150	0x40384da582b116b2	24.3033067400308
151	0x403d28a6fd88aea7	29.158798070783316
152	0xc014816ebee8c4fa	-5.12639902396881
153	0xc031db4d350ba2b5	-17.856646838513104
154	0xc049c45185ac904f	-51.53373785901987
155	0x40161cd483106ade	5.52815441882805
156	0x4023607fa0de4c00	9.688473727355813
157	0xc033c1429e681b32	-19.75492277185112
158	0x402d2951a8d7d6f7	14.580701137874241
159	0x4017a6c46da78e2e	5.91285868964364
160	0x400e968091e57126	3.823487415136827
161	0x4018d70eb1680d12	6.210016986823819
162	0xc031123598173825	-17.071130281132486
163	0xc024320ebad43639	-10.097768629460107
164	0x4036427ced90be3c	22.25971874984519
165	0xc01b4271f788708d	-6.8148878743196635
166	0xbfffc0b7d476aaa6	-1.9845503138882719
167	0xbff37456371a36f0	-1.21590253376365
168	0xc0373b298e6f4dc8	-23.231102850126064
169	0xc025ec4ea569f863	-10.961537522493193
170	0xc03213706a3ba534	-18.075934066354606
171	0x40305e7a23147361	16.36905116318974
172	0xbff031bf936bd7e2	-1.012145591606434
173	0x3feefefdac9b52d0	0.9686268206811182
174	0x403bdf10058ee5da	27.871338221919224
175	0x401138b23fdc1b81	4.3053674676983755
176	0x4029782c2f260b23	12.734712098497374
177	0x4031c3c7a4601af8	17.76476504656145
178	0x402b6ae500e56b89	13.708778408055666
179	0x3ff4dd8973e5fc46	1.3040861632614607
180	0xc024188b27142cd9	-10.047936650479118
181	0x403550e6b9502936	21.31602056700759
182	0xbfde8dcd552c3c90	-0.4774049121633164
183	0x403dfd6387ff3cf9	29.9897999761715
184	0x403b443d4c994986	27.266560351775773
185	0xc021a1cec54bea23	-8.81603066016857
186	0xc04520d68f4773d9	-42.25654784191983
187	0x400fc299e9926c72	3.9700201270875874
188	0xc0183d9baaaa73d1	-6.060164133695211
189	0x404a9e90626e714e	53.23878126518922
190	0xc03a978f3555b78f	-26.59202893583966
191	0xc03efff20b00181d	-30.99978703262615
192	0x4000791d7e82971e	2.0591382869341848
193	0xc0102bb809d5e5ba	-4.042694238357791
194	0xc0015678f44dca9e	-2.167222889541633
195	0x40207ff5393490a8	8.249917781511911
196	0x40009650a40b6010	2.073395997616906
197	0xc0084647eac727fe	-3.034316858484998
198	0x40111d5564592234	4.278646057071956
199	0x401c847698608e68	7.12935865487416
200	0xc027f2a95504ef1c	-11.97394815144758
201	0x40318bf0a51024ec	17.54664069790026
202	0xc00b86c9c49785c0	-3.4408145292988763
203	0x3ff834b75b0f9946	1.5128701741283108
204	0x4028e731624e6a5d	12.451548645088389
205	0xc0275e7159d41c88	-11.684458548681746
206	0xc01b93a26ee68e20	-6.89417432100484
207	0x4030f4f34b5503df	16.95683737588467
208	0xc036959e5b91e06d	-22.584447596659107
209	0xc0151029124e819e	-5.265781675378461
210	0x40178023b2721104	5.875136173450532
211	0x400dcb6c02ab7692	3.72432710729374
212	0xc018869a15fc065e	-6.13144716597307
213	0xc03232c659d63a15	-18.198339094926343
214	0xc0267b07468e6304	-11.240289883500289
215	0xc0073646ca43b512	-2.9015022088921194
216	0x4024783879fc66e6	10.234805881558213
217	0xc01aa3596eb40250	-6.659520845162277
218	0x4034dafea1012532	20.855447829036343
219	0xc03355c8003e205a	-19.335083022277423
220	0x40341005812cd274	20.062583993380443
221	0xc0027c2c01e70340	-2.3106308125137787
222	0x40309c89e46157f1	16.611479066625126
223	0xc036d7639dd7311b	-22.841363778149667
224	0x401462514acc8896	5.096013230069863
225	0xc03528b4a67fff1a	-21.159006506203788
226	0x40281d939ae2840a	12.057766761923649
227	0xc023e12e35d7db4f	-9.939805681800548
228	0x40400ba1b06755c4	32.090871859032205
229	0x403b5a48d05db3fd	27.35267355239556
230	0x4032d10f17201446	18.816636510211787
231	0xc0309631e40edd59	-16.586698773984015
232	0xc035a11f943c430b	-21.629388107979178
233	0x4025f4a298362d94	10.97780299817422
234	0x402802a8a4f1b029	12.005192903998323
235	0x401c776071f9cf16	7.116578846809508
236	0xc03748024cca4606	-23.281285094626604
237	0xc0144d9b71aed075	-5.075788284582917
238	0xc02a85004897d79c	-13.259767788443973
239	0xc008f9fb9befe9a4	-3.122061937579206
240	0x400f09493fd03092	3.8795342431458915
241	0x402e3d41fc0ea9fb	15.119644047536886
242	0x4043eee52882c63d	39.86636835465877
243	0xbff61330a72519c2	-1.3796850709055524
244	0xc0416be74ea76da1	-34.84299643683631
245	0x40142c35ffe79451	5.0431747422308755
246	0xc036b5ff6324ee6e	-22.710928150669524
247	0x4019ddcbd9052966	6.466597929897352
248	0x403474a786cc0cf7	20.45568125230508
249	0xc030f80b28956752	-16.968920265651214
250	0xc02c23bdd4cbc874	-14.069807672382218
251	0x4040105f1a72d7ef	32.12790232284157
252	0x4009543ec1d77b38	3.1661353248486215
253	0x402a7167d17d9638	13.221495195942325
254	0xc0040cefb17cbf46	-2.506316553706628
255	0x403a3fd2fc070534	26.249313117708155

arr_5 f8 [32]
0	0xc0062afbe2029b07	-2.770988240913883
1	0x400014415cb09a6c	2.0098902932543776
2	0xc02c5a2e9c90cc6a	-14.176136868167493
3	0xc033087068630b30	-19.032965206318465
4	0xc0303f339906e422	-16.246881069357308
5	0xc037102074555da0	-23.06299521526455
6	0x4041347e880f6cd4	34.410111434490005
7	0x402c5d3723050fda	14.182061285369787
8	0xc032e90447a81c8a	-18.910221556227533
9	0xc02161d9d9289752	-8.691115175442665
10	0x402c8f21cd8d1804	14.279554770921102
11	0xbfd46ca502e58960	-0.31913113863824627
12	0x4041d59887d4e5e6	35.668717364267465
13	0xc02d7278bee06917	-14.723577465909825
14	0x4037308194e89c09	23.18947725943511
15	0x402a0a5eb32f94ed	13.020253753240889
16	0xc03aaa27213957b0	-26.664659573077813
17	0x4026cea43837754f	11.403596646089367
18	0x4041ce5d907331e6	35.61223035454513
19	0x402c2084ef8d2b5e	14.063514219267457
20	0xc02c63ca1aab114e	-14.194901307470584
21	0xbff5a9d25312e9a8	-1.3539603467057564
22	0xc0208d24a87f4f6a	-8.275670304814145
23	0x40315716417919f8	17.34018334585741
24	0x40360b54fff09af4	22.04426574348595
25	0x3fdae446087e40ac	0.4201827128354221
26	0x401d0d010aa208cd	7.26269928564052
27	0x4023cfaf0eabc0e0	9.905632456270212
28	0xc01106b5dd165027	-4.256553129660495
29	0xc03c1c23cd719101	-28.10992130301111
30	0x4024d2d464fe39b5	10.411776691468598
31	0xc02a6ed0a99b54f6	-13.216435718737994

arr_6 f8 [32, 1]
0	0xc022f121f497c3a5	-9.470962184453876
1	0x401914909d0ad26e	6.27008290651848
2	0xc01df04d18261707	-7.484669091534449
3	0x401595e7c6cc8d2c	5.396391969904737
4	0xc038de5fd7208112	-24.868649907527534
5	0xc04565cdc5d99cd3	-42.79534218907943
6	0x3fec480c109c8728	0.8837948154871116
7	0x4034d5fc453210d5	20.83588058922108
8	0x3ff4fd0820c04cf2	1.3117753295271624
9	0x401ab939aa154c1b	6.680884034681209
10	0x3fe7fcefea935d88	0.7496261197619996
11	0xc0251c2ca8a274c4	-10.555028219061917
12	0x403638ab2d47c0e0	22.221361951845097
13	0x403c805aa554bd62	28.50138314551203
14	0xc03604416ee9d04d	-22.016623432238976
15	0xbfeb1c258e990c6c	-0.8471858773340393
16	0xc000062b932042be	-2.003012799665469
17	0xc03b47c7acd55739	-27.280390550694595
18	0xc00fa8c24f08a126	-3.957401864481784
19	0xc01345b60a2f8fe7	-4.818077239182435
20	0x4012908b58804f36	4.641156561690698
21	0xc0284aa6b78fd639	-12.145803200061993
22	0x403329b0896afd68	19.162849987621854
23	0x40254c64fbba25a4	10.649207941506411
24	0x401fe3e4044b2d75	7.972549502457118
25	0x4022a11f00db3ba1	9.31468966175254
26	0xc0309b9e5f5ca643	-16.607885322684762
27	0x40219ec91b491d39	8.810128071475093
28	0xc0016cec89169d44	-2.178185530665049
29	0x401ce82340f6e2e4	7.226696982449287
30	0xc03145f72f914d48	-17.273303006147472
31	0x3fd04bd72633ca68	0.25462893229192796

arr_7 f8 [1]
0	0xc0293ef5719caac9	-12.62296633756104
