weights/global_round_23.npz (npz, 129966 bytes, 8 tensors)

arr_0 f8 [43, 128]
000000 c3 f4 e8 aa 5e 33 40 40 4d 32 93 af 58 1e 25 c0
       32.40132652640161 -10.559270369261094
000010 f0 55 75 90 45 31 34 40 38 4f ec 8d 57 69 3a 40
       20.192467716833505 26.41149222392343
000020 90 48 36 87 90 4f 17 40 88 98 0a c2 26 31 34 40
       5.827699768722724 20.191997649752494
000030 ba ad 64 80 2c af 2a c0 fb d8 70 cf cc 09 27 c0
       -13.342136394777175 -11.519140703702297
000040 8a ce 11 40 8a 0a 33 40 53 a4 d4 ab f4 09 20 40
       19.041172031733858 8.019444818217528
000050 18 65 1f f4 5e e5 f6 bf f5 f5 b9 46 3d d2 31 40
       -1.430998757938431 17.821247501755312
000060 ee e7 ac 53 cb e5 31 40 1a ab 1b e7 6d fd 1c c0
       17.897633771623013 -7.2474895582807
000070 80 df c6 50 70 4a cc 3f 14 c3 f9 8d 4d 36 2d 40
       0.22102168983633064 14.60606044458249
000080 03 f0 6a 30 12 75 3e c0 8e 16 03 4f ce 3d 19 c0
       -30.457308794124412 -6.310357317508204
000090 20 5b 39 6a d4 a4 f4 bf 33 39 3a 18 ca 3e 17 c0
       -1.2902416371704888 -5.811317804864575
0000a0 e5 35 07 64 00 2c 30 c0 ab 88 f0 53 89 0e 2b c0
       -16.17188096214331 -13.528391478645366
0000b0 7a fa 1d b4 49 f5 37 c0 8e 19 4c a1 05 5c 3d c0
       -23.958155877417518 -29.359460908011492
0000c0 3e 80 53 9d a3 6c 3c c0 af 38 60 4b 70 8b 30 c0
       -28.424371559987996 -16.544682227126653
0000d0 c3 97 28 8b 6c 05 36 c0 fc cb 5d 79 28 20 29 c0
       -22.021187493715626 -12.562808792781645
0000e0 59 b6 25 71 a4 1b 36 c0 d0 a9 2c 14 26 84 2d 40
       -22.107977935511688 14.758103018238131
0000f0 8b 1b b2 03 81 0f 41 c0 34 4b 76 47 7a 00 02 40
       -34.1211247081438 2.250233228967227
000100 a0 88 69 ee 9d ca 09 40 3c 5b a5 fe f8 42 13 40
       3.2239340425449683 4.815402964441827
000110 21 93 90 c6 eb 14 31 c0 cd c2 10 8d 4a 7c 24 c0
       -17.08172265081078 -10.242756279274
000120 40 3a 69 c9 cc 79 c8 3f 3c 6c 44 c3 40 21 1f 40
       0.1912170394375199 7.782473612834163
000130 f1 ec b1 37 c2 47 30 c0 e1 f2 db d5 86 d8 27 c0
       -16.28030727476011 -11.92290371236726
000140 e3 d6 9a d3 8f f8 25 c0 dd 18 1a 9f 81 75 36 c0
       -10.985472309733671 -22.45900911700379
000150 08 10 ac 44 3a fa 31 40 70 0f f7 d3 4c 7f 1f c0
       17.97745160294292 -7.874316513018002
000160 17 cf 2c ce 9b 25 44 40 68 9f e7 57 bd 07 22 c0
       40.29381730258881 -9.015116450332883
000170 5e c4 87 dc 0b 7a 32 c0 d8 a7 78 bb b9 d9 1f c0
       -18.47674349131227 -7.962622575034366
000180 a5 50 cb 67 c3 71 31 c0 31 b4 c1 4b 1b 52 3e 40
       -17.444387900483566 30.320729002753243
000190 c6 b7 8a c8 42 90 15 40 5e 5d e3 88 fb b6 10 40
       5.3908797583262125 4.1786939038059625
0001a0 b0 21 23 80 ae 1b 13 c0 0b 95 eb 4b 45 ae 21 40
       -4.777032854217779 8.840372440822213
0001b0 bc 72 c0 13 4b 31 4b 40 66 e3 f2 be 2b 16 26 c0
       54.385103672951544 -11.043302504682014
0001c0 8f 89 21 cb e4 1a 15 c0 7c c5 6b dd 7e 05 20 c0
       -5.276263402864415 -8.01073352757043
0001d0 84 f1 ed 00 e6 1b 22 40 01 a9 61 70 39 32 19 40
       9.054489163442447 6.2990472373587645
0001e0 38 29 3f 8e bc 3b 39 c0 d0 98 fd ee bc 79 41 40
       -25.233345880909127 34.95107829458868
0001f0 a5 dd 03 25 2d c0 26 40 64 11 86 80 1c 2b 14 c0
       11.375344425889873 -5.042100914175851
000200 4d 1b e0 63 57 4c 41 40 e5 58 ee fa 11 c1 f8 bf
       34.59641693537433 -1.5471362878793624
000210 a3 de a6 de c1 93 43 40 9a 4c f5 84 5b 95 43 c0
       39.15435393474515 -39.16685544946195
000220 6c 5b 88 38 ab 31 19 40 45 38 42 23 ae c0 2c c0
       6.2985047181344775 -14.37632856543872
000230 0e f6 7a cf 72 eb 38 40 a3 bf 69 08 9b f8 33 40
       24.919720618743717 19.971115613763356
000240 c8 49 d5 da 6a a4 40 c0 b6 f3 9b 84 23 d3 0e 40
       -33.284510950226434 3.8530950889675877
000250 94 3e f3 74 6e 83 2d 40 87 7c 56 21 c8 d1 3c c0
       14.756702093785215 -28.81945999490247
000260 4a 65 93 e6 c2 ea 42 c0 73 89 68 fe 70 fc 43 40
       -37.8340728969293 39.97219829658834
000270 10 29 13 c9 1f b5 2e 40 95 3a 73 dd 87 6d 08 c0
       15.353758128727833 -3.053481798247342
000280 22 c4 6b df 61 37 1a 40 59 90 dd 4d a3 06 2f c0
       6.554084292366527 -15.512964661880845
000290 2e 68 1e 5f ec 59 16 c0 58 68 e4 d4 94 0d 30 c0
       -5.5878157484349185 -16.05305224014623
0002a0 30 82 ba 1a 4f 97 30 40 f1 3d 7e a6 6a f9 21 40
       16.591050787481606 8.987141802702327
0002b0 6d 2c 05 d8 3f 25 1f c0 6a 42 82 e3 61 82 3a 40
       -7.786376357379692 26.509306163121813
0002c0 32 59 0c 6b 3e 4c f3 bf b4 85 4c 1d 17 b4 1e c0
       -1.2061142140933723 -7.675869424624967
0002d0 96 3a 11 d1 61 4e 1a 40 12 1d 69 b4 6b 09 25 40
       6.576545015980306 10.518399846869702
0002e0 6e c2 6d 98 c7 af ff 3f 68 fb e2 99 26 b3 4e 40
       1.980414958405301 61.39961551268681
0002f0 c8 06 7f 34 f1 cd 2b 40 e6 f8 be 1d 7b 2a 46 40
       13.902230873590625 44.33188220810716
000300 cf 5a f8 53 78 a2 32 40 c6 a3 f7 07 4a fe 42 40
       18.634648559697606 37.98663425056252
000310 f6 1e 98 f4 3c 4e 24 40 35 93 23 1e 96 df f7 bf
       10.152808803147746 -1.4920865227988547
000320 13 fc f4 59 3a 66 3c c0 fb d0 8b 82 46 23 42 40
       -28.399327871618947 36.275589292783444
000330 fc a3 6d 96 d9 fb 4c c0 0a 41 5b 8a f7 38 33 c0
       -57.967577746901924 -19.222527167586158
000340 86 f5 91 e8 c2 67 33 40 d0 0a d2 a4 d4 e4 2a c0
       19.40531781733946 -13.446934843673631
000350 70 9a 09 ab b3 04 32 c0 39 d7 14 f9 47 13 2b c0
       -18.01836651787238 -13.537658485216172
000360 2e b2 c7 a9 30 51 0d 40 0a 7a b5 a5 07 83 16 40
       3.664643598944415 5.6279588596357915
000370 02 4c 55 86 29 d8 49 40 84 80 c0 ed c3 4e 32 c0
       51.68876723446739 -18.307677134988367
000380 50 95 9d 43 c5 38 11 c0 5a 7c f9 aa ef 27 45 40
       -4.305440002911681 42.31200158292695
000390 5e ff 83 7d c3 90 2d 40 47 cc b3 2b a3 92 33 c0
       14.782741472590427 -19.572802287479387
0003a0 08 73 02 d4 02 88 30 40 3e e3 1c 11 ff a3 27 c0
       16.5312931543331 -11.820305380607916
0003b0 fb 7d 28 20 9f 17 e6 bf 2f a6 74 0a ea 75 3e 40
       -0.690383494194918 30.46060242984657
0003c0 37 09 25 13 db af 3e c0 a1 e0 42 0f f7 2d 1e 40
       -30.686936565916053 7.544887770134808
0003d0 2f 85 9b a2 35 48 02 c0 8e f7 26 14 50 8f 36 40
       -2.2852585509978307 22.55981565429061
0003e0 1e 6f ae 11 db cc 28 40 c0 1b d0 58 7b 16 d4 bf
       12.40010886434862 -0.31387218163621
0003f0 30 8a 62 42 c8 fa 40 c0 92 aa 17 24 fa 72 36 c0
       -33.95923642932428 -22.449129348543075
000400 1f 36 34 85 b1 dd 29 c0 b0 77 64 19 9b cb 37 c0
       -12.932994997619117 -23.795335375812726
000410 7c aa aa bc 6a 1b 3f 40 44 dc f4 64 b6 81 2b 40
       31.107097427050107 13.75334468354243
000420 f4 12 86 30 cd 1a e6 3f e4 3d 89 25 4f 9f 2a 40
       0.6907716701249158 13.31115071583094
000430 32 d0 dc 6b 5e 47 43 c0 4a 31 d1 9a 57 56 37 40
       -38.55756901056192 23.337274242470166
000440 a6 91 8f 1a 34 08 12 40 8e 4b 7e b8 11 ad 3e c0
       4.508011260044816 -30.67605164607408
000450 c0 5a b3 d7 ad 80 33 c0 26 a5 60 5b 1e cc 07 40
       -19.50265262726566 2.9746672762745616
000460 36 93 f2 12 21 55 32 40 b2 f6 62 0f 21 ca 19 40
       18.332535919401572 6.447391739287626
000470 77 8c 85 0c 20 2c 23 c0 67 0b c9 ed 4e 7a f3 3f
       -9.586182013799982 1.2173604286660635
000480 b8 e9 b1 d5 54 38 f8 bf a2 77 28 9b 81 15 49 40
       -1.513752779718386 50.16801776386207
000490 d2 93 fc fc 4f 05 32 c0 ff c2 64 cc 30 9d 3b 40
       -18.020751773514185 27.614025854682946
0004a0 3e 72 0b de d9 85 2e 40 45 9d 5f da 9c 0d 3e 40
       15.261427821061371 30.053174637168258
0004b0 f0 73 93 e7 d3 da 1e c0 0a 13 b5 fa 7d a4 26 40
       -7.71369897687417 11.321273645976834
0004c0 84 1a 1f 15 c9 3a f4 bf d0 53 0a d9 c3 28 26 40
       -1.2643519234713105 11.079619200239819
0004d0 05 e4 91 9a 23 ae 37 c0 be 1d cd ff 37 5a 37 40
       -23.68023077070031 23.352416980340188
0004e0 ad 98 85 1e 18 8c 44 40 d9 6b c6 28 57 87 3d 40
       41.09448606036435 29.528673695032783
0004f0 0d 0c a1 f0 e4 f4 27 c0 78 fa bf 5c f8 ca 29 40
       -11.978309173258845 12.896426104006636
000500 cf 34 83 e9 bc fe 37 40 03 c7 8c f7 00 5d 03 c0
       23.995070070774826 -2.4204120006405687
000510 28 23 06 de 96 81 cd bf 15 ed 6c 3f 0c 62 26 c0
       -0.23051725235952714 -11.191499692961353
000520 c2 83 b1 93 d1 c9 3c 40 ee be 6c aa bb 1c 4f c0
       28.7883541401277 -62.22447710332732
000530 ab eb aa db e2 3a 3c c0 fe 5e 1b 14 54 9d fa bf
       -28.23002407954088 -1.6634102616716855
000540 82 36 ec 98 fb db 3b 40 98 f1 bd 9a 81 43 2f c0
       27.8593078209583 -15.631848178564539
000550 cc 23 8e a2 5a 1c 32 40 6b 04 25 e0 97 fc 30 40
       18.110757980062587 16.98669243720762
000560 b0 31 26 d2 ec 4a 25 40 aa db 88 b0 b1 3b 1d 40
       10.646338050043454 7.3082950194865735
000570 f8 cc c7 70 45 18 2c 40 91 13 1f c7 d8 53 1c 40
       14.047404789342622 7.081881629249339
000580 f6 c7 14 65 c0 f6 2b 40 54 50 61 12 68 fe eb bf
       13.9819366062038 -0.8748054846751168
000590 40 ff 93 da 70 6e d1 bf 7a 37 91 0f d3 81 28 40
       -0.27236577363509085 12.253563391186379
0005a0 b6 6e a4 5b ba 97 20 c0 99 92 87 94 78 c7 46 40
       -8.296343673536608 45.55836731548079
0005b0 e9 a4 8e a8 cd b1 38 40 98 59 59 6b 2e 38 e0 3f
       24.69454434855007 0.506858071962415
0005c0 40 2a 72 52 54 55 c2 bf af 0e 95 25 05 17 3f c0
       -0.14322904611283782 -31.08992228402229
0005d0 c0 69 51 f4 5a c1 d5 3f ba ee 37 4f 54 8c 3e c0
       0.33992647036725643 -30.548161460070993
0005e0 87 16 43 0b 23 b1 3d c0 90 ee c9 3b 31 75 39 c0
       -29.69194097888842 -25.457782494354035
0005f0 f0 36 4d 72 16 dc 40 40 e3 d5 a2 a1 f1 53 16 c0
       33.71943501253361 -5.581976438106241
000600 7a c2 57 96 4a 7b 4f 40 d6 bb de a1 03 48 3a c0
       62.963213723040965 -26.281305424574235
000610 ba 94 63 8e 01 39 49 c0 f8 42 2d 3e 4c ef 22 40
       -50.44535999166824 9.467378561997506
000620 d0 5d 97 c8 87 ff 15 c0 33 44 3e 3e df ab 2c 40
       -5.499541410673785 14.33568758497322
000630 00 2b b5 4b ac 12 34 40 05 4f b5 c1 cf 9e 0b 40
       20.072941524248563 3.452544701905824
000640 6f 8b 8b 20 40 6f 37 c0 38 e1 75 12 93 9d 4c c0
       -23.434572252338906 -57.23105078464363
000650 92 5e 2c d4 e2 a3 40 40 4a 4c db aa 9d 7b 2f 40
       33.280359765686754 15.74143728186586
000660 04 ea 6f 5b 35 ec 3d 40 aa c5 c3 03 54 57 44 c0
       29.922689165900024 -40.68225142535387
000670 98 e6 81 4c c7 6f 2a 40 a6 91 38 ae ad 38 12 40
       13.218317404610659 4.5553500387217465
000680 ac 5f e8 39 28 68 34 c0 f8 a6 df be 2b 73 34 c0
       -20.406863803130975 -20.449886254885286
000690 be c0 7c fb e0 a2 05 c0 f1 03 de 4b d8 a3 3b c0
       -2.704530682320267 -27.640019170477846
0006a0 ef 68 f6 5e ff 95 27 40 e4 88 c3 0d 82 ab 33 40
       11.79296395070966 19.669953212964984
0006b0 87 41 ce 28 a0 51 32 c0 5d c8 a6 87 81 ea 48 40
       -18.3188500884585 49.83207793849645
0006c0 4e 56 a0 3a a6 11 da bf f4 9c 9c f5 4e a3 26 c0
       -0.40732722974039326 -11.318961787574587
0006d0 82 6e 23 f9 ed 0e 46 c0 b4 54 c8 64 d3 6d 1b c0
       -44.11663736562788 -6.857251715399958
0006e0 65 0c 25 6e dd d3 3b c0 e6 fb 77 c0 fa 56 2d c0
       -27.827597507519744 -14.669881834646684
0006f0 4c 3b ab 06 14 13 2a 40 2c 60 af 9e 64 00 2e 40
       13.037262161638544 15.000767668636477
000700 62 d8 52 e5 f7 27 21 c0 d9 63 67 38 62 74 24 40
       -8.578063169825501 10.2273118616303
000710 8f 9e 4d 95 0d ac 30 c0 a8 09 09 fd 0b 1d ea 3f
       -16.672082263422052 0.816045755586221
000720 16 34 7e e6 b9 31 14 c0 f4 24 4c 0e 72 95 39 40
       -5.0485607161072235 25.58377160414689
000730 93 ae 0f f5 d2 33 35 40 ee 1e 8c 35 9f 2f 13 40
       21.20243770249233 4.796505772282883
000740 26 db 91 f8 da 80 46 40 8a 0c 5f b9 87 5d 2c c0
       45.006682463854574 -14.182676117756518
000750 52 73 d8 32 0a 5d 41 c0 d4 cb d7 8f 86 d7 13 c0
       -34.72687373703833 -4.960474250360637
000760 96 e5 bb eb 08 1f 3b c0 1b 40 04 ca c5 23 03 40
       -27.12122987115216 2.392467096571648
000770 d2 ec e1 b3 68 74 27 c0 26 22 af d3 81 06 32 40
       -11.727361317948098 18.02541850114553
000780 bf 67 1b 8d 0b f4 20 c0 87 0b 19 10 37 8b 43 c0
       -8.476650628657692 -39.08761788580801
000790 dc 7f f4 f5 ff 24 3b c0 e3 a0 e8 a3 a6 a9 43 40
       -27.144530651275872 39.32539795740902
0007a0 fd c6 5c b4 e3 46 2b c0 f1 9e 2b 60 73 f0 48 40
       -13.638455997777323 49.87852098588872
0007b0 f0 79 78 0b 0d fd 3a 40 f2 98 d6 ec 71 ab 41 40
       26.988480297959484 35.33941421965018
0007c0 55 95 1c 08 0b fc 2a c0 75 e8 d3 c7 72 52 2a 40
       -13.49227166508596 13.16103195630806
0007d0 9e 4d 11 e6 1d ba 41 40 8c d9 be 2b 1e e0 2f c0
       35.45403743595965 -15.93773018555364
0007e0 9c c6 c3 bf 84 79 41 40 25 ad 66 6c fb 72 32 40
       34.949363680452024 18.449148917262523
0007f0 99 b9 11 11 79 73 4b 40 a6 db 15 93 d0 b1 3f 40
       54.90213216176489 31.694588845096995

arr_1 f8 [128]
000000 b4 12 ae b9 20 21 2d 40 da d0 d9 c9 4d d8 3d c0
       14.564702799319413 -29.84493695800561
000010 9b cb 4a ee 47 32 48 c0 04 aa 82 19 59 15 41 40
       -48.39282015468708 34.16678160553059
000020 28 bc 87 2f 5e b8 15 c0 7f 33 36 1d dd 12 21 40
       -5.430046789798361 8.5368432167686
000030 30 d7 58 c0 bc d8 f5 bf 64 70 47 6e e5 d2 23 40
       -1.3654143823200222 9.911906667919716
000040 e7 e7 b8 48 1a d3 2c c0 ce 54 bc df 8e 63 11 c0
       -14.4123099065509 -4.347224708432988
000050 c2 b7 67 5c 58 e1 2a c0 e4 f2 9a d3 b2 a4 44 40
       -13.440127265606751 41.28670735422
000060 7a 3b 00 7b 9b 74 32 40 80 6f 77 46 dc cd 34 c0
       18.45549744373009 -20.80414238372714
000070 fe fc 32 dd d3 56 25 c0 ef b3 54 90 56 d0 23 c0
       -10.669585144495155 -9.906910429324823
000080 36 b5 d9 a9 1d 4f 24 c0 f8 2f 49 d0 36 ec 11 40
       -10.15452318937842 4.480677847353938
000090 dc 14 a5 0e e9 c9 02 c0 ba 51 fa 65 52 16 45 40
       -2.348589052594077 42.174389598108476
0000a0 bc b2 a0 61 3d 84 37 c0 a2 41 13 10 fe 7f 2d 40
       -23.516561605198817 14.749985220289833
0000b0 43 1d e2 cd 66 81 30 40 d5 e4 2d c8 04 e5 25 40
       16.505474918082893 10.947302108385353
0000c0 b5 a7 26 93 0f be 38 40 d7 9a 71 5d b4 f4 32 40
       24.742425152718813 18.955877151713903
0000d0 5c 1e 96 3e c8 51 40 40 0a 94 3f 76 2b c2 33 40
       32.63892347650537 19.758475676080742
0000e0 a0 e9 76 80 58 b4 0d 40 d6 65 09 b1 83 f7 f5 3f
       3.713059428814816 1.372928325223588
0000f0 71 40 c8 87 49 99 2e 40 3d c5 35 d7 df 5a 3b c0
       15.299389117426673 -27.354978037478975
000100 c3 06 73 6f 70 b7 08 40 fe 17 d6 04 4f 81 2f c0
       3.0895699221590305 -15.752555991301048
000110 2c 64 67 c0 24 97 30 c0 7e 46 dd 04 e5 e1 26 40
       -16.59040453457071 11.441200401316788
000120 ca 08 6e 44 61 be 40 c0 5b a2 f7 f3 b7 20 3a c0
       -33.48734336254854 -26.12780689998395
000130 28 d3 a9 0d f8 df d9 bf ca 4b d3 dd 44 d3 28 c0
       -0.4042949803763798 -12.41263478473947
000140 d0 60 d4 f6 2c 92 1a c0 80 3d 32 0a b4 c6 24 c0
       -6.642749649727378 -10.388092344887582
000150 66 25 0a d7 28 a7 30 c0 04 9c 55 af f5 cd 23 40
       -16.652966918923447 9.902265052032824
000160 4e a5 ca 87 8d 60 1e c0 d7 fb cf ac ac da 40 40
       -7.594289895766748 33.70839462428528
000170 72 2d 1b 57 83 20 2d c0 8c 3b 6a 83 fd 7a 4c c0
       -14.563502046649521 -56.96086161315097
000180 20 bf 06 1b 71 dd 3c c0 bf c7 6c 10 09 cc 2f 40
       -28.865007104060282 15.898506654051628
000190 f3 26 e1 10 e4 d2 18 40 1a 58 e8 ec 49 e2 36 40
       6.205948127500721 22.883940512394567
0001a0 00 bb 80 ca f2 ed cd 3f a6 03 6e ad da 84 25 c0
       0.23382410896143568 -10.75948087661693
0001b0 df 15 ab 7d dc fb 16 40 06 75 81 2b a4 82 13 40
       5.74595829350207 4.87757938363689
0001c0 c0 59 f2 07 3f 9d 46 c0 25 8d 13 f1 1f 91 34 c0
       -45.22848605474019 -20.56689364173248
0001d0 44 df 61 88 62 86 05 40 28 74 db 82 bd 7b 1c c0
       2.6906176237934307 -7.120840115208047
0001e0 15 af 1b 54 8e f9 36 40 40 07 4b b0 d6 98 d4 3f
       22.9748280112827 0.3218285295116523
0001f0 7f 48 cc ad 3d f2 3f c0 b8 d5 15 51 44 25 df bf
       -31.946253645299745 -0.48664958876119213
000200 98 80 4e fc 4a 0a fa bf 26 3a 6a 18 d6 0d 1e 40
       -1.6275129180649284 7.513512021525946
000210 78 42 5b c5 fd d5 39 c0 7c 57 25 80 68 44 30 40
       -25.835903486995875 16.26721955215133
000220 c1 bd ee 00 59 c1 30 c0 ba 3e 24 62 66 79 19 40
       -16.755264337812836 6.368554624044629
000230 b4 b3 b2 6e bd 55 37 c0 bf 6b 7c 8f df 0b 3d 40
       -23.33492175925103 29.046380012394135
000240 5f 50 d6 de 4d 9f 45 c0 d0 1b 7a 5a 49 fc 12 c0
       -43.244563917775615 -4.7463735711125565
000250 66 91 1a 9e a9 c0 15 40 61 89 9a 33 c3 c4 3d 40
       5.438147039767818 29.768603539684936
000260 7a a8 42 57 c9 7e 40 c0 ad ac 4e ec 3e f7 2e c0
       -32.99051943545142 -15.48290193996794
000270 3a 92 59 a8 01 2a 47 c0 35 76 a2 55 a5 46 42 40
       -46.32817558644861 36.55192060883238
000280 b9 84 ea f0 2c d2 05 40 98 75 31 71 ef 41 38 c0
       2.727624780804572 -24.25755984742645
000290 48 1d 37 3a 5b b2 09 c0 01 67 50 6f a2 27 39 40
       -3.2120880649633 25.154822308663828
0002a0 94 64 bc 7c bd 2f 29 40 15 ad 8e da 66 64 2d 40
       12.5932425479862 14.696097211758152
0002b0 18 a1 4a 5e 9d 70 0c c0 6a a3 9a 13 04 e1 2f 40
       -3.5549876562619254 15.939484226824522
0002c0 84 e5 05 21 2b 5b 44 c0 5d 01 0c a4 0c a2 0d c0
       -40.71225369251172 -3.7041256729282126
0002d0 3b 83 99 80 47 b5 1a 40 75 e5 1c e8 4e cd 41 40
       6.677030572290103 35.60397054110482
0002e0 13 b7 26 44 d5 39 3f 40 10 80 ef d6 d4 fb 22 40
       31.225910434200227 9.491858212219114
0002f0 90 76 b4 01 40 6c 24 40 33 a5 5b 8c f9 cf 12 c0
       10.211425832060996 -4.703100388616167
000300 a0 28 1e a2 18 ca 22 c0 66 bf 9f f8 e3 c6 2e 40
       -9.39471918695591 15.38845803213162
000310 f6 22 1e fd 29 b3 14 40 7e 96 66 e2 23 f2 37 c0
       5.174964861835852 -23.945860052152504
000320 a6 06 b4 16 07 b1 2a 40 a6 cb 66 22 36 61 2b 40
       13.345757207370593 13.68986613755062
000330 68 87 84 fe 9f 67 14 c0 3a c5 12 db 54 09 32 40
       -5.101196266974377 18.036451046068784
000340 3b ee 70 17 04 bd 42 c0 1c f9 92 85 8f c9 1c c0
       -37.47668736471356 -7.196836554618383
000350 49 e2 48 76 c5 c9 42 c0 8a 6f a0 16 a3 e7 36 c0
       -37.576338563526015 -22.90483228127372
000360 ae e3 21 d2 cb 85 36 40 68 be 64 d7 ce 5e 1a c0
       22.522641309045575 -6.592585912250435
000370 e3 b0 df 62 de b3 20 c0 1e 0b b8 96 ae 72 36 c0
       -8.351306047254587 -22.44797651284454
000380 1e cf 96 7b 46 e5 3b 40 6c 74 86 d6 ca c4 41 40
       27.89560673171865 35.5374401241796
000390 33 79 ea 3c a5 91 37 40 50 5e 26 74 83 d1 30 40
       23.5689275810666 16.818412074439323
0003a0 8c bd a5 95 c2 b8 f1 bf e0 77 74 61 24 6d 15 40
       -1.1076074452974778 5.356584093793543
0003b0 80 80 64 65 92 b6 39 40 90 1f 7e 11 80 ac 26 40
       25.71317132667218 11.336914583822164
0003c0 e9 2a 2d 6b 83 db 49 40 b4 e5 db a6 58 e3 4b 40
       51.71494807916117 55.776142938014715
0003d0 24 b4 63 3f 61 f4 2b 40 c8 4e f1 36 e0 79 11 40
       13.977304440422877 4.3690193733961635
0003e0 80 e6 8c 09 de 03 39 c0 12 44 8f c7 65 7e 1d 40
       -25.015106770419607 7.373435133094079
0003f0 54 37 12 1e ae 92 3c c0 f5 2a 9a 60 8e 8b 21 c0
       -28.57296932167749 -8.77257062799388

arr_2 f8 [128, 64]
000000 39 a4 a2 41 46 9d 2e 40 49 3c 1a 83 ff 7f 17 40
       15.307176638702105 5.874998138881957
000010 e4 5c 01 7f 66 56 fe 3f 6b 25 dc 40 da b2 1f c0
       1.8960938416619735 -7.924660695492416
000020 a9 30 d5 c3 14 f5 2b 40 88 0e e5 e0 be b3 0c c0
       13.978674049162082 -3.5877664155867173
000030 82 7a 0b e3 05 65 26 c0 82 76 82 c7 ed c2 2f c0
       -11.197310538436117 -15.880720362353944
000040 36 67 99 c6 81 14 41 c0 12 58 2a dd 80 c4 44 40
       -34.16021044245137 41.535182614970964
000050 6e bd e3 66 2a 8b 20 40 c5 1c 01 ee b2 65 43 40
       8.271807875919617 38.794523001235156
000060 8c 11 02 73 c9 32 22 c0 6d 14 b7 c0 30 4a 2d 40
       -9.099193185808666 14.644903204296691
000070 8b 73 30 c4 03 f7 2d 40 e2 8d bf 22 b1 55 2e c0
       14.98245061007926 -15.16736706341084
000080 98 ed 4a e3 73 59 44 c0 a9 b0 d8 71 ea 51 47 c0
       -40.69884911688422 -46.63996718483515
000090 2c 5a 8f 0f 17 97 1e c0 75 fd ff 4f 86 99 3d c0
       -7.6475489073987255 -29.599705696103644
0000a0 27 5c 7d 0f 9e d0 36 c0 c4 f6 90 2c de ed f9 bf
       -22.81491181192919 -1.6205732098455181
0000b0 10 dd 29 b3 77 d1 2b 40 3f c4 a3 28 ff 39 2b c0
       13.909116362438482 -13.613274831763304
0000c0 dc bb af 40 45 b2 1f c0 13 07 1f 0d d4 22 3e 40
       -7.9240923030146995 30.136048145365816
0000d0 90 e3 28 19 9c 3c 11 c0 10 df 10 ef 79 44 28 40
       -4.3091892176825155 12.133742781457414
0000e0 0b 01 56 09 a1 d5 36 c0 b8 af 0a 77 4b 69 21 c0
       -22.83448847150525 -8.705653877310269
0000f0 80 36 c4 74 2b 7e ba 3f 26 37 70 8c 39 1b 26 c0
       0.10348769760840959 -11.05317343587701
000100 60 42 52 ed e0 c1 36 40 a6 fe d6 db d8 ea 41 40
       22.757338364203292 35.83474300382413
000110 7f 8a d9 b7 22 f8 24 c0 eb 7b 69 ce fa 9a 49 c0
       -10.484639878564165 -51.21077900076474
000120 f2 40 02 88 be 5b 1f c0 94 73 57 56 47 15 f6 bf
       -7.839594006669573 -1.380194985649017
000130 d0 1e c8 23 31 eb 34 40 bf 6e 49 53 ce a5 2a 40
       20.918718563420782 13.323839762414876
000140 c4 f3 9b d1 b8 d9 46 40 2c 1e 28 c7 94 40 44 c0
       45.70095272173742 -40.504540342892454
000150 47 a5 ea e9 21 d2 27 40 cd 21 ae 7e ae 57 2a 40
       11.910414991276992 13.171253165012695
000160 28 da c6 15 82 c5 e5 bf 60 02 8f 5f 04 b9 34 c0
       -0.6803598809554545 -20.722722980894446
000170 dd 3d 61 dc 6b ab 3e 40 ce 30 6f b7 df 46 3c 40
       30.669614576092375 28.27685114349952
000180 cc d4 8a 99 de 80 2b 40 0c 97 92 3a cc 72 29 c0
       13.751698301503346 -12.724214392084399
000190 08 24 cf 81 63 9d d8 3f 09 fc cd 90 8f 5b 2b c0
       0.38460624386476683 -13.678829693932146
0001a0 d3 bb 56 01 3f ca 33 c0 9a 9c ce f9 60 7e 10 c0
       -19.790023883509843 -4.1234168083530225
0001b0 a6 dd d4 d0 17 04 1c c0 1f 26 36 26 ad aa 24 40
       -7.003997099869059 10.33335227404592
0001c0 7f 61 4b 86 37 93 3d c0 d5 d5 63 67 43 17 06 40
       -29.575065987971808 2.761359031423789
0001d0 ea 01 a5 15 29 d1 0c c0 80 a7 5b 62 3e 25 1e 40
       -3.6021291438084875 7.536370789379248
0001e0 93 ca 1c a9 44 a1 30 40 44 03 0e 2e 47 c3 01 40
       16.629953927544715 2.220350608637462
0001f0 eb cc dc 70 d7 3a 22 c0 79 b6 b1 95 87 96 38 40
       -9.114924933388883 24.58800635899249
000200 2a 3f 61 4b 5a 69 30 40 5b 4e 96 4e 3e 7e 47 c0
       16.411534034006003 -46.986276458160056
000210 e8 93 01 8d b0 fa 25 40 c2 aa a5 d5 2c 4b 23 40
       10.989628225748632 9.646826435540223
000220 c6 f1 c7 bf 8c 03 2b 40 c7 88 3e f9 aa 1d 16 c0
       13.506933205754546 -5.528972525064268
000230 82 24 28 38 bc 80 3d c0 38 e0 f6 85 92 47 03 c0
       -29.502871999550287 -2.409947439762643
000240 1a 51 47 3c 57 a5 30 c0 7a 48 c6 eb 5a 6a 26 c0
       -16.64586235753186 -11.207724922136766
000250 8b a2 3d 5c 24 ca 1f 40 0c ef 70 64 15 35 20 40
       7.947404328596018 8.103678835664617
000260 6a 7c c7 44 97 e1 33 c0 40 50 9e dc d7 a6 43 c0
       -19.881214426710734 -39.30346257906103
000270 d3 7d 08 62 70 15 16 40 52 3f ca 16 65 5c 28 c0
       5.520936519401817 -12.180458748043439
000280 46 d2 ec d7 ce 9a 1d 40 d5 6f 90 d4 5f db 25 c0
       7.401179670171194 -10.928465502387477
000290 18 d0 ed 2c 88 29 0a c0 39 da d0 08 67 53 46 c0
       -3.270279265410874 -44.651581861475684
0002a0 94 27 c2 70 f9 92 20 c0 e7 aa d0 b0 f0 0e 15 c0
       -8.28705932970096 -5.264590037094172
0002b0 8c b2 a6 64 60 76 3c 40 7b b5 a0 d9 79 a9 41 c0
       28.462408343026752 -35.324031070204875
0002c0 05 1e aa af ca a5 21 c0 5f ed 57 43 67 06 06 c0
       -8.823811997905986 -2.753126646157099
0002d0 c7 06 54 d6 71 f7 05 c0 53 38 db e0 cb 5b 42 c0
       -2.745822596015248 -36.71715937332251
0002e0 94 c0 09 31 1e ef 4a 40 fa 69 76 9d df 0e 28 40
       53.86810887314019 12.029049797730284
0002f0 d6 9e 43 43 a5 7f 28 40 61 af aa dc 8b 3c 38 40
       12.249307729725313 24.236509124442254
000300 2b 60 a8 93 f4 b4 32 40 6e 1e c6 07 d5 00 23 c0
       18.706856945617044 -9.501625292715485
000310 3d 47 c2 bf 03 72 2c 40 5a d9 b6 4c 77 54 3b c0
       14.222684853044138 -27.329945368424298
000320 9a 6a de bd 40 4f 22 c0 60 c3 83 f3 19 6b 32 40
       -9.15479081478161 18.41836473433375
000330 81 2e a0 88 53 c6 34 40 57 bd 14 b8 f9 86 2d 40
       20.774712123019075 14.763623955280009
000340 14 ae fa f7 eb 27 1a c0 a3 dd 9a b0 bb 74 38 40
       -6.538986086535733 24.455988920029665
000350 c4 92 6e 7d 3b 92 23 c0 82 2b bf 9c 0e fa 23 c0
       -9.785610122440069 -9.988392732940842
000360 8c 34 cb 45 01 6d 32 c0 73 55 71 e3 65 06 30 40
       -18.425800668821964 16.024992194337255
000370 2c a8 83 48 21 dc 31 40 b5 7d 79 2c ad 52 40 c0
       17.859882862227252 -32.64590984279804
000380 21 ee 5a 15 26 6d 29 c0 94 34 4d 97 59 b7 34 c0
       -12.713181178426625 -20.716210800503703
000390 04 dc e1 44 49 09 4a 40 e2 a8 2e 8d e3 44 2f c0
       52.07254849460881 -15.634548580117954
0003a0 0d a8 1d 5e 22 99 2d c0 47 a6 d1 ed d7 32 fb bf
       -14.799090329284832 -1.6999129571726301
0003b0 75 c6 30 4d c0 a0 48 c0 00 39 ac 55 9d f2 02 40
       -49.25586857682803 2.3684641545470413
0003c0 f8 56 c1 7e bd 15 30 40 c4 b5 5c 8b 34 88 f8 bf
       16.084922716333466 -1.533253235228913
0003d0 a8 7a 92 db 8d ff 0f c0 2b 62 20 93 57 7a 3a 40
       -3.999782290847481 26.477898784071083
0003e0 ee d8 9b 6b 3c b3 38 40 11 66 66 b9 a4 01 36 c0
       24.700140691326787 -22.006419742107088
0003f0 c0 88 b5 4a 81 52 31 c0 b4 f9 be df 7b 5e 3d 40
       -17.322285336799496 29.3690776673554
000400 c8 e6 68 95 60 4a 1d c0 48 1e 51 50 14 70 1f c0
       -7.322634062316588 -7.859452490759914
000410 d9 49 d8 75 58 32 17 40 0a 7b 12 a3 36 46 40 40
       5.7991655743848805 32.54854238893866
000420 93 1b 49 0d 13 7e 45 40 74 9d 9d 9e 31 ee 15 c0
       42.98495641774857 -5.482611158723888
000430 40 b0 a5 a2 1a f8 e8 bf 14 48 b4 7f 31 01 34 40
       -0.7802861382201698 20.00466154242902
000440 ec 4f 60 e5 dc 77 10 c0 40 4f 4b 42 77 11 38 40
       -4.1170535888704585 24.06822599733937
000450 e8 5a 1d 68 8a 2d e0 3f 51 b3 48 29 2a cd 32 c0
       0.505559161519014 -18.801424579857954
000460 67 2c a5 8a 87 c4 31 c0 6a bb bf 5c a6 fd 08 40
       -17.767693200421856 3.1238524671566
000470 d1 1e 1b 8d ef f9 1c c0 7e 7e d1 bc cf ea 3c 40
       -7.244077877788826 28.917232323785804
000480 43 a2 e5 7e 5f 17 27 c0 36 90 da 6d 2e bf 1a 40
       -11.545650449305986 6.686700550522849
000490 c0 99 8e 88 0d 22 20 40 82 45 92 fe 96 84 01 c0
       8.066509501845644 -2.189741123999455
0004a0 f4 4c 8d e7 44 27 1f 40 24 94 e1 93 fe 32 20 40
       7.788348787307076 8.099598523413142
0004b0 be 26 ce 6a 06 2a 30 c0 9a c2 b2 ae c3 0f 40 c0
       -16.16416041882507 -32.123159253392444
0004c0 54 63 6c 59 5d 81 22 c0 4b 71 b7 45 d7 2d 33 c0
       -9.252665323716123 -19.179066045079974
0004d0 30 31 40 fc a9 c6 1a 40 e8 9e 21 5b fa a7 0e 40
       6.694007817666986 3.8320204848895294
0004e0 27 81 10 aa 54 ab 3f c0 92 55 fc 84 94 e5 40 40
       -31.669260624913615 33.79359495469102
0004f0 5f 41 33 96 25 16 24 40 43 cf e2 ee 26 59 3c c0
       10.043255513912923 -28.34825032269806
000500 a5 a9 4c 60 49 a3 45 c0 c2 6b ee 1d c6 f3 e0 3f
       -43.27567676299376 0.5297575554462741
000510 6a 00 ca a5 88 ea 34 c0 61 02 7a 90 9d d6 10 c0
       -20.916147577111055 -4.209585435339791
000520 1b ce 9d 2b 7d fd 34 40 d2 d4 7b c3 39 e4 45 40
       20.9901911983744 43.783012805428044
000530 29 c8 7d 08 80 c8 4f c0 39 9b ba 93 5f 52 29 40
       -63.56640726224607 12.660885445145697
000540 e9 ad 52 c3 7e aa 27 c0 5a 04 37 92 9e 52 2c c0
       -11.832998374788945 -14.161366051879828
000550 82 eb 15 ca a2 df 45 40 61 6a 32 29 8f d8 42 c0
       43.74715543814001 -37.69186892472931
000560 bc 56 03 10 db e6 e0 bf 4a a8 64 fb 14 9e 2b c0
       -0.5281806290392619 -13.808753829991605
000570 34 c1 ba 07 27 3a 1c c0 cc 94 59 c7 13 3c 0a c0
       -7.056789513372042 -3.2793345998967194
000580 4e 16 1c 17 27 39 24 40 34 8f f2 3f cb 44 31 c0
       10.111626360109906 -17.268726345747567
000590 ea 6f 7e cc 51 e9 3f c0 99 43 15 cc d8 d0 33 c0
       -31.911404400700043 -19.815808062735957
0005a0 d4 ea 0c cd a8 2c 27 40 27 f5 56 21 cc 45 2d c0
       11.58722534926111 -14.636323015084214
0005b0 2f 3f e0 ea 97 43 2a 40 db e3 eb c9 93 6a 44 40
       13.132018413423422 40.832635154896444
0005c0 5c a5 e7 e0 01 cc 32 c0 2c ce 1d 60 b7 ea ef 3f
       -18.796903664163764 0.997401893355748
0005d0 17 50 07 50 9c 5e 53 c0 33 b4 15 cc f2 b1 15 40
       -77.47829056467195 5.423777760338498
0005e0 41 ee 8b 83 d5 18 32 c0 a8 d9 ac 8d e5 5f 3a c0
       -18.097007962858928 -26.374596457195054
0005f0 c8 03 00 4d d4 0d 42 40 5f be 31 ae df 12 2b 40
       36.10804140568467 13.536862796375486
000600 0b 10 fb 70 d9 8d 12 c0 93 3b ed 17 c9 7d 36 40
       -4.638524785350465 22.491349692743437
000610 43 00 be 58 50 6f 24 c0 3d a9 31 7f 6b d0 48 40
       -10.2174098712859 49.628280543564394
000620 66 96 8c c1 d5 54 2d 40 4a a6 b4 c8 cb 4e 22 c0
       14.665693329249915 -9.153898498584699
000630 3c 7b 7a 04 8e a9 26 c0 d5 ff 8f f6 74 01 37 40
       -11.331161632491437 23.005690965801325
000640 c9 f7 64 3b a6 45 33 40 22 09 81 48 9c 60 19 40
       19.27206774916684 6.344346173167908
000650 98 74 9a e9 63 e2 3d c0 d0 68 b6 0e 60 db 37 40
       -29.88433704396138 23.85693447068553
000660 41 6e 36 64 7b c4 34 c0 d2 b2 f5 42 eb 4c 2c 40
       -20.767507804192295 14.150232403271193
000670 ae ca 6e 0c 5e c1 1b 40 1d c0 70 ea 6e 3d 1b c0
       6.93883532930583 -6.809993422633878
000680 26 e7 ee 09 2b d1 0d c0 49 5b 61 73 3d 01 40 40
       -3.7271328712494265 32.009687826669115
000690 18 da 70 4d 5d b8 ec 3f 37 81 65 bd 45 45 3b 40
       0.8975054276004952 27.27059539535659
0006a0 d0 27 c2 82 2e 9e 0f c0 2e a2 c4 93 6a 5f 42 c0
       -3.9522371497632562 -36.74543997861143
0006b0 a5 1c 2c 1f f4 61 34 c0 15 48 ee 58 5a 03 25 40
       -20.38263125254584 10.506548670851808
0006c0 0f 19 a2 58 6d 18 3c c0 d4 6f f6 07 fd 66 01 40
       -28.095418490957908 2.1752873060304214
0006d0 1d 08 c9 e8 75 7e 2d 40 68 5b 60 68 a7 5a 2a c0
       14.74699332670212 -13.177058469545685
0006e0 02 a7 fd 8d d2 92 42 c0 ec 86 e9 7e 85 85 39 40
       -37.14705061803217 25.521568233502805
0006f0 0b 37 23 31 2f 49 3f 40 12 63 ef 1e 71 f0 30 c0
       31.285876341912665 -16.939226087040034
000700 aa 9d 8c ce 40 87 1f 40 65 27 a0 fa e5 8b 1d 40
       7.882083155949127 7.38661948778631
000710 99 74 17 9f a9 e4 3f c0 f6 76 82 06 f4 ea 42 40
       -31.89321321795123 37.83557206507059
000720 8a ca ad c1 c6 96 24 c0 a0 75 68 c3 e3 a8 33 c0
       -10.294485142197363 -19.659725392344285
000730 d0 ad b8 0e b9 06 41 40 d9 41 3c b5 d1 f8 40 c0
       34.05252250688102 -33.94389977876899
000740 5e 3e 44 5c 6c 88 2c c0 bf 66 09 39 8a 95 14 40
       -14.266451724367638 5.146035090636075
000750 81 b5 05 8e 95 92 27 40 f0 11 e2 0e 9f 6b 38 40
       11.78629726237955 24.420395784562004
000760 36 8d 56 67 b7 41 38 c0 8a d6 5c 53 96 a5 35 c0
       -24.256704767828715 -21.646825037160433
000770 4a d9 ca 6c 72 f6 23 40 da 72 5f d2 d5 fd 29 c0
       9.981341743242087 -12.995771955634542
000780 78 91 c5 0d fb 02 38 40 ba c9 17 9e 72 ab 22 c0
       24.01164327691501 -9.334858837512787
000790 80 b0 a7 51 4d 59 4c c0 0f 4e e7 c2 02 2d 45 c0
       -56.697672087554565 -42.35164676946817
0007a0 20 04 82 88 2d cf 3d 40 d7 68 c7 ca 34 6a 32 40
       29.809288532011237 18.414868043598144
0007b0 98 69 ae 3d 4a c0 1e c0 18 cd 35 18 8b 2b 4b c0
       -7.687783206720631 -54.340182329435436
0007c0 97 88 5e 7f ea 35 39 40 f0 a5 74 e4 dd cf 10 40
       25.21060939844082 4.202994889850274
0007d0 9a 74 3f 65 8d 0e 20 40 5a 25 ed 00 e7 f2 48 40
       8.028422512050657 49.89767467097654
0007e0 9e 98 0a 5d 55 1d 50 40 52 9d ab 42 bd ed 2e 40
       64.45833517107755 15.464334567498245
0007f0 7e e9 d7 54 b7 00 22 c0 0e c8 b6 80 23 75 1f 40
       -9.001398707729773 7.864393244892211

arr_3 f8 [64]
000000 f5 75 eb 97 1c 4d 17 40 d5 79 a7 79 e2 27 33 c0
       5.825304387804398 -19.155799487483666
000010 fc 60 5e 83 8e fb 45 c0 12 73 27 ec e8 7d 1d 40
       -43.965286656459256 7.3729588412359295
000020 be 2e 2a e9 4f 71 47 c0 fb 56 3d 72 bf 5c 33 40
       -46.88525118407914 19.36229623792222
000030 89 2e a7 1a 45 a7 25 40 eb 61 54 d6 0a cf 1b 40
       10.826699097545559 6.952189778232859
000040 7b 8e 63 3a c7 55 3e c0 35 5b 5e 32 8b 30 3a 40
       -30.335071229272653 26.18962397388096
000050 4f 85 60 35 4a dd 26 40 7f e3 45 9a 37 75 25 40
       11.432206790954892 10.728939839392977
000060 78 c8 d9 7b 13 39 49 c0 28 bc 49 4e 48 b5 3b c0
       -50.44590709814014 -27.708134549142557
000070 b8 8a aa 19 4d 01 3a c0 85 32 9b 65 86 18 21 40
       -26.005082706581305 8.547900366969097
000080 bf 5d 04 46 c4 66 31 c0 18 07 9e 74 be 2b 2a c0
       -17.40143239599797 -13.085437435427181
000090 1e 49 f2 68 2c 4b 31 40 5d bf 22 6b e0 68 2f 40
       17.293646392013322 15.704837177268638
0000a0 fe 23 84 9c fc 3c 27 40 dd 68 91 57 02 ff 30 c0
       11.619114771967357 -16.996129487038036
0000b0 e4 dc 4c dc f4 55 3a 40 c3 62 7d 92 30 9f 30 c0
       26.33576752544913 -16.62183490334679
0000c0 58 f4 e8 24 28 d0 22 c0 75 d8 0a a3 7e ec 41 40
       -9.406556275784325 35.84761465100829
0000d0 f8 28 43 05 fc 4a 1e c0 86 bd 05 08 4a 3c 44 40
       -7.573227007125972 40.471009257128614
0000e0 1e d7 8b 87 20 23 41 40 4e f8 cb 22 ae 6e 40 40
       34.274430220872304 32.8646892066905
0000f0 c4 4a 60 7a 2b cc 48 40 30 84 b9 8a b9 31 42 c0
       49.59507684423218 -36.38847478922287
000100 58 06 3d ad 10 81 40 c0 09 4d 80 6a 6d 43 40 40
       -33.00832143287397 32.52677661194509
000110 9c a3 48 24 39 cd 1f 40 20 29 6f 88 5d d4 12 40
       7.950413290914096 4.707388049874027
000120 d3 e5 9b dd 62 09 23 c0 22 16 92 2d 1f 31 2e c0
       -9.518332410126197 -15.095940994341678
000130 d7 3d 64 78 4d f0 2c c0 16 c2 ab 84 18 99 1a c0
       -14.469341051327246 -6.649507592185293
000140 a1 f0 67 89 2d 91 3a c0 3d fe a4 3e 86 fe 3f c0
       -26.567101085544554 -31.994235911637805
000150 56 26 14 96 cc aa 51 40 83 39 eb 2b e5 ba 10 40
       70.66873695342778 4.182514845115636
000160 5f 22 44 0a 91 6d 1c 40 88 70 70 6d 6a 97 1b c0
       7.106998596581064 -6.897866926181571
000170 ef 0c 1a a3 13 95 35 40 79 83 c0 1b a1 e2 31 40
       21.582330888614646 17.88527081918753
000180 54 83 21 dd eb e0 10 c0 3d ed c3 a1 bc 71 25 40
       -4.219649748964759 10.72214227215465
000190 53 0f 75 04 25 e7 49 c0 71 af 0d c7 7e 31 43 c0
       -51.80581718173803 -38.38668144386509
0001a0 a9 45 6d 81 53 57 43 40 64 41 d4 05 57 2d 0b 40
       38.68223588786652 3.397138639011404
0001b0 c6 01 0c a5 64 f5 40 40 ec 2b a5 b2 3f a2 38 40
       33.91713393293644 24.63378445179471
0001c0 75 ea d3 f5 54 28 23 40 42 1e 70 d1 d1 68 3a 40
       9.578773195379862 26.409451570389372
0001d0 d5 e4 98 bf 5c ad 2f c0 d3 27 50 91 ed 03 33 c0
       -15.83859823933964 -19.015343744343976
0001e0 4c 9b 85 ed b6 4a 17 40 68 e7 de 7d 0d 1f 0d 40
       5.822963439254476 3.6401624520921594
0001f0 e8 10 d1 cb ef ab 09 40 24 27 cc 14 3f 52 32 40
       3.208953468625726 18.321275043336883

arr_4 f8 [64, 32]
000000 06 8d 5b 26 1a 89 37 c0 f8 7b 7b d7 00 0b 33 40
       -23.535555264807975 19.042981593749545
000010 3f 4f 77 dc 9a 18 14 c0 2a 48 d3 27 f6 d2 31 40
       -5.024028248579099 17.82406853588342
000020 d7 36 cc 8b b3 52 31 c0 e6 d1 cd 88 5f b2 06 c0
       -17.32305215583514 -2.8370962798892263
000030 97 0e b6 c0 68 09 06 40 fe 28 ef c7 38 78 49 40
       2.754594331317843 50.93923281839123
000040 58 8f b0 1b 40 b3 e7 3f 89 ef 26 82 ff f1 32 c0
       0.7406311550916866 -18.94530499888018
000050 09 60 cd 7b a4 5b 3d 40 af bd ec 1d 06 39 28 c0
       29.357978570595183 -12.11137479319481
000060 c4 49 14 0b ce 9c 32 c0 f4 1e 49 ff 71 cd 31 40
       -18.61251897092167 17.80252070937327
000070 ff 8b eb f0 40 df 2c c0 84 ac 7a 0d 3f 3d 26 c0
       -14.436042336228637 -11.11962167856678
000080 dc 66 19 c1 d1 2e 42 40 26 ca d8 58 f7 02 44 40
       36.36577619304964 40.0231734331649
000090 f0 b6 ce c8 5b 5c 3e 40 04 66 a5 e6 68 cb 3a 40
       30.360775518863136 26.794569411640637
0000a0 f3 9c 2d 44 6f 8b 42 c0 2a 28 d1 a5 d5 f3 34 c0
       -37.08933307864381 -20.952478755534834
0000b0 0c 07 a7 b5 fc 41 1f 40 9e d1 52 01 6c d7 31 40
       7.814440573043395 17.841491778106153
0000c0 00 e7 2c bd 60 19 a2 bf 63 48 10 e2 92 46 3b c0
       -0.035349867909145516 -27.27567875764397
0000d0 6c 69 43 cf 91 12 33 40 9c 11 81 20 87 f3 37 c0
       19.072537378271065 -23.95128062392324
0000e0 0a 9a 53 9e c5 43 42 40 ac e1 a2 85 3d 9b 45 40
       36.529468336888456 43.21281500294876
0000f0 77 04 89 e8 9c 22 2d c0 3b 32 3c a8 05 7f 21 40
       -14.567603365636598 8.748090035770579
000100 ed 85 15 a3 8f f4 45 c0 32 96 54 c0 ab c1 25 c0
       -43.91063345480857 -10.87826348335793
000110 c7 fe 9a dd 0b 77 27 40 49 c3 99 aa 12 4d 31 c0
       11.73251240269691 -17.301066076793436
000120 ba 25 3d 4a 70 d0 23 c0 6c 31 e1 c2 98 e3 26 c0
       -9.907106704677847 -11.444524850835215
000130 06 de 61 3e 29 85 3c 40 72 91 23 c1 38 1c 21 40
       28.52016057862604 8.555120502082648
000140 39 4f f4 0b ea ae 32 40 3c 46 f7 a4 9d a7 28 40
       18.683258769174447 12.327374606308801
000150 10 fd 6f 57 13 86 17 40 8c 9f 11 b9 09 30 20 c0
       5.880933157167661 -8.093824180032037
000160 1d fc 34 49 f8 b4 30 40 92 5d ac fc b9 5f 40 c0
       16.706913543163058 -32.74786337295804
000170 73 d8 00 4b a6 78 39 40 b1 66 a7 7b f4 46 50 40
       25.471287429529593 65.10867205951469
000180 bc 07 ff 6a bc c1 fc bf be 03 c9 b0 29 7c 43 40
       -1.797298829988434 38.97002229514281
000190 6f e2 1c 86 06 e2 29 c0 47 88 0f e5 a2 93 10 40
       -12.941456023240987 4.144176081727045
0001a0 58 22 a7 91 04 66 e0 bf 05 04 70 92 98 17 26 c0
       -0.5124533505232405 -11.046085907148163
0001b0 8d 0b dd ff 9e b6 06 c0 b3 fb d3 bb 04 0b 3f c0
       -2.8391704549152963 -31.043040980581008
0001c0 52 9a f1 6f 5e f4 36 c0 52 6d 2e a9 bf fe 48 40
       -22.954565998539984 49.99022402541108
0001d0 16 28 f1 ed 69 d7 15 40 3c 2e 9b 6c 3d e3 30 c0
       5.460365026325254 -16.887656009565248
0001e0 46 ae c8 80 de 45 0b 40 e9 63 8f c5 be c5 3a 40
       3.4091157971613795 26.772442195422546
0001f0 03 a8 d9 d1 87 d6 0d 40 a7 9b 64 20 67 3b 36 c0
       3.7297512430714064 -22.2320423360467
000200 fd 49 77 cd 78 b7 4b c0 6b c0 1d fe 21 15 22 40
       -55.433374102827635 9.041274968272964
000210 c6 65 19 bc 43 8a 0f c0 dc a8 74 62 b4 bb 22 c0
       -3.9425120063067167 -9.366610600224185
000220 6a dc 03 91 37 77 3a c0 56 36 07 22 05 36 2f 40
       -26.465691626970887 15.605507911091234
000230 48 93 27 6e ea 8c e6 3f a3 4f ec ee a7 72 3d 40
       0.7047016288239343 29.447874958699355
000240 68 2b d5 18 21 13 10 40 0e 3e 87 9a 52 46 49 c0
       4.0186809425457355 -50.54939586261399
000250 78 06 07 12 bf 61 36 c0 d6 59 d7 63 63 ba 38 c0
       -22.38182175323024 -24.728079071117314
000260 46 36 8b 76 44 fa 2f 40 e9 af 94 40 b4 c6 47 c0
       15.988803581708577 -47.55237586269488
000270 20 a6 24 14 e8 1d e5 3f 81 0c 3c b8 d9 21 35 c0
       0.6599007028027621 -21.132228388462412
000280 4e 99 77 dc 1e f6 2b c0 db 09 b5 02 9d a2 37 c0
       -13.980704202270001 -23.635208291243412
000290 44 79 6d 1f a0 08 3b c0 ab 95 02 6c 09 f4 3b c0
       -27.03369327948282 -27.95326876700498
0002a0 41 10 8b 90 55 ae 4b c0 18 96 05 65 48 59 01 40
       -55.361986225034805 2.1685951130227856
0002b0 f0 44 ba 5a 6c 4a 40 40 9a 7c 52 0e 4c d2 0e c0
       32.581431714011956 -3.8526841277049018
0002c0 df 2f 8b 16 c3 c1 25 c0 a4 a5 65 e8 35 93 39 40
       -10.878441528788185 25.575041317764445
0002d0 22 8f b9 6c 38 08 21 40 3e 56 14 82 6d 8d 33 40
       8.516055486346492 19.552452211346683
0002e0 5a c2 92 77 61 4b 10 c0 6b 52 7d dd 8d b1 3e c0
       -4.073613994915457 -30.693570941063097
0002f0 5f 46 67 f4 06 57 32 c0 95 05 eb d4 d9 38 2e c0
       -18.33994987031326 -15.111036924065766
000300 01 85 a0 31 ec 3e 37 40 84 d3 ec d2 79 aa 05 c0
       23.245791532220213 -2.708240173199046
000310 f6 f0 98 66 97 d7 16 c0 1c fa f2 d2 08 9c e9 bf
       -5.710538485607904 -0.8002971763706372
000320 26 72 7e e8 8e 90 1c c0 d6 c2 80 e7 19 93 33 c0
       -7.141170151441235 -19.57461401837903
000330 7c 3e 03 f3 36 16 39 40 9c c4 f8 98 7d 2c 2c 40
       25.086775959293377 14.086895733229817
000340 ee c6 8b b1 89 75 31 40 fc c7 5e 3c 8e 1b 3e c0
       17.459132286668073 -30.107639096393527
000350 46 10 33 ae 1d 08 26 c0 3c 53 41 f1 c5 4d 28 c0
       -11.015851443990083 -12.151900805687198
000360 cc 5c 02 c1 01 3b 25 40 84 95 52 0f 82 d7 51 40
       10.615247756517782 71.36731322350357
000370 53 9b 1e d9 03 2c 2a c0 01 ac dc 5e 8b 17 11 c0
       -13.085966858850645 -4.272992593973869
000380 a0 7f c9 d7 7d 7f 42 c0 d2 2d c6 6f f9 95 39 40
       -36.996027921092946 25.585837350734273
000390 2c 4c f3 fe 74 a2 28 40 43 18 e7 27 59 4a 31 40
       12.317298857879074 17.290422910613653
0003a0 96 be be f9 6a f0 0d 40 c5 2a f6 67 99 8e 2b c0
       3.7423915397010417 -13.778514145660106
0003b0 dc 6b 2d fb b5 6f 1e 40 a2 9e c4 58 e4 90 16 c0
       7.609092640540407 -5.641496073723518
0003c0 a8 99 9a f0 03 94 02 40 f1 62 15 96 8f 4b 35 c0
       2.3222731396847003 -21.295159702512084
0003d0 94 3c 09 d0 64 76 02 40 6d 91 26 69 4f 92 05 c0
       2.307809472352867 -2.6964405264754334
0003e0 16 e4 04 99 08 a6 3e c0 68 2f c4 55 ca 5a d3 bf
       -30.648568690961916 -0.3024164044916149
0003f0 2a 00 bc 59 be 3f 2e c0 de 4a 38 6a c0 88 36 c0
       -15.124499134253785 -22.534186018698954
000400 ee 90 36 f4 a1 d6 0e c0 10 b2 24 b6 63 25 26 40
       -3.854801090159632 11.073026363353193
000410 74 9d 06 e0 e0 9f 35 c0 6f ea 9d 06 c5 b2 38 c0
       -21.624525071730616 -24.69831887584081
000420 12 03 ce d8 a8 1e 1b 40 62 d7 12 51 d4 e9 26 c0
       6.779940974782919 -11.456697972822159
000430 e8 74 02 21 e8 1a 27 c0 68 9e 1a 3d fd fb 11 c0
       -11.552552253293882 -4.4960832164284525
000440 28 45 aa 3e 67 b8 50 40 44 bc a9 5a e9 32 30 40
       66.88130156162208 16.198873201789198
000450 38 f9 e0 da 32 fa 50 40 bd 71 90 e2 13 5d 09 c0
       67.90935394258565 -3.1704480839091205
000460 78 7e 1c 5e 10 29 2c c0 2c d1 21 cf 4c 28 34 c0
       -14.080203000047945 -20.15742201400387
000470 77 84 17 2c 8b 80 42 40 46 2a fe 93 ae 55 42 40
       37.00424719951928 36.669390200714176
000480 63 4c c5 71 a4 f8 30 40 ba 0b fb f3 8a 38 38 c0
       16.97125922266822 -24.220870255270462
000490 ee dd 1b fe c2 dd 3d 40 eb 1b 8c e4 6a e9 40 c0
       29.86625660114617 -33.82357460824263
0004a0 bf d0 60 dc e9 b1 31 40 b1 be 07 2e 7a 53 3b c0
       17.69497468341501 -27.326083065882532
0004b0 a7 36 82 37 0f 0c 3b 40 84 bf ac 1b 60 d3 3b 40
       27.04710719040909 27.825685243296462
0004c0 f0 b6 54 2e 46 48 f4 3f 91 7b 4f f7 3f a7 3a c0
       1.2676450547982618 -26.6533197945642
0004d0 95 77 76 5c b4 58 40 c0 af ab 68 a9 20 73 37 40
       -32.69300418648269 23.4497171288055
0004e0 2d d1 f7 a8 49 c0 23 40 84 66 c7 90 54 58 35 c0
       9.875561981440649 -21.345040367776633
0004f0 44 be 7f fb 20 ba 40 40 ed ea 55 00 df 59 33 40
       33.45413154351675 19.351058979965206
000500 d0 7d bb 01 a5 cb 2b 40 4c f7 9c e1 28 38 1b c0
       13.897743276726857 -6.8048434497885175
000510 42 4d e6 c1 d1 dd 18 c0 3c 4d b6 54 1a bb 1b c0
       -6.216620473557954 -6.932717631937802
000520 bc a0 da d4 da 33 3a 40 7e a7 ca b0 2c 4e 14 c0
       26.202557853103585 -5.076342356080088
000530 95 51 f1 70 9c ec 23 c0 65 39 0b 5d da ee 25 40
       -9.962131051500174 10.966509730930463
000540 2b 3f 32 05 1d b1 44 c0 85 49 c7 d9 25 7d 2f c0
       -41.38369812921004 -15.744429402901696
000550 4b bd f6 8b 58 7b 32 c0 7f 77 ec a6 0a 2b 24 40
       -18.481819865931623 10.084065643659185
000560 92 a3 d4 9e ad 93 0f c0 d8 c7 69 9d 26 7e 39 c0
       -3.9471084984438187 -25.49277671654258
000570 77 cc 36 8b 41 08 45 40 20 ab ec 60 4b d1 34 40
       42.064500238187 20.817556436329255
000580 55 ba 35 08 9e c6 35 40 e6 cb 1a 36 8f d6 3d 40
       21.775848878018525 29.838122731725797
000590 f7 3f b5 7b 26 94 28 40 67 d4 71 cd 51 32 35 40
       12.289356103778102 21.196560707369283
0005a0 78 fd bf 9a 03 d2 ee bf e0 9e 2b 2e fe 73 38 40
       -0.9631364843807395 24.45309723439175
0005b0 9c b8 c2 71 e9 16 21 c0 45 63 c1 6a b4 8e 43 40
       -8.544749789256734 39.11488089030039
0005c0 57 58 fb 15 ed 54 42 40 d2 03 6f 19 70 8f 0b c0
       36.66348528645238 -3.4450380312923494
0005d0 26 a9 81 4e 23 04 47 c0 52 18 2c 7a ac 40 15 40
       -46.032327473936945 5.31315794843802
0005e0 94 54 a2 5c ec 99 1f c0 4c 7b f5 23 da c3 4d 40
       -7.900315711410389 59.530094618667675
0005f0 69 27 39 83 8a 6e 49 c0 54 38 9b 89 5d 7d 35 c0
       -50.86360206881256 -21.489708519359127
000600 9c f5 b1 13 f1 5e 23 c0 b0 7e c4 02 d4 4b 29 c0
       -9.685433021043359 -12.648101889120284
000610 1c 02 52 d6 ec 17 3b c0 e8 3c 84 dc 66 c6 37 40
       -27.093457598706763 23.775007040295264
000620 80 85 e1 67 a4 56 24 c0 5e 2e 1a 5c 76 d1 1b c0
       -10.169223066596487 -6.9545530692081154
000630 81 8b 61 ca c7 fe 3c c0 5a 48 b9 31 3d 6e 09 40
       -28.995236061873133 3.178827656237485
000640 5c e8 39 25 4e f0 2f c0 e0 90 e8 67 fa 27 00 40
       -15.969346202200704 2.0195205800865637
000650 36 02 f7 ae 53 2f 29 c0 12 08 fa 21 d7 d9 26 40
       -12.59243532910578 11.425469457408358
000660 bb bb bf 51 41 05 3a 40 f1 88 1c cc 33 33 1e c0
       26.020527943906682 -7.550002278558382
000670 65 0a 2b 5f d2 14 0f 40 1e 63 a8 1f 44 49 35 40
       3.8851668772706938 21.286195734605933
000680 5d 04 a9 38 00 44 45 c0 04 19 d0 35 b6 28 3c c0
       -42.53125675442491 -28.159030307107074
000690 31 8c c0 b3 db b3 2e 40 60 1f a5 67 de e8 08 40
       15.351285569433545 3.113705453611985
0006a0 63 6b 10 ad d9 cb 00 40 42 26 b7 5e 5d 6a 27 c0
       2.0995362778316333 -11.707743606431112
0006b0 6d cb b9 2a 22 c3 0a 40 f6 d9 f1 b3 87 e8 2e 40
       3.345280011935236 15.454160331032636
0006c0 c0 2a a0 06 db 33 e8 bf 14 e0 2a 26 db fd 12 c0
       -0.7563300256163856 -4.7479062999409685
0006d0 4c 83 f9 9e 03 c5 22 40 74 1b 60 ad 5c 06 3a c0
       9.384793250997653 -26.024851642574006
0006e0 a0 48 c4 b3 9a 41 30 40 1c 71 55 79 59 ea 21 c0
       16.256266818447898 -8.957713882141029
0006f0 29 a6 d6 86 5f e1 25 40 f8 81 09 e6 b1 f1 d5 3f
       10.940181935980108 0.3428768869835319
000700 b0 65 1b 5b 53 e1 39 40 3c fb 49 19 f8 21 1b c0
       25.880178159893774 -6.783172984257188
000710 b6 b3 62 05 4d dc 0a c0 9c 09 ea 6f 9d f1 1b c0
       -3.3575687809702357 -6.985952137622373
000720 74 45 6d c2 87 87 44 40 ee 81 04 7b 3d e5 10 c0
       41.05883055053246 -4.223867342138403
000730 8a e7 7a 60 85 00 26 40 bc cd 11 57 8c 4a 41 c0
       11.001017584803567 -34.58240784043616
000740 17 f4 df 4e cf ab 2b 40 09 f5 ac 80 32 a5 22 40
       13.835566010320731 9.322650929558693
000750 17 93 9a 8a a5 55 37 40 44 4e 8e dd 9b 39 0c 40
       23.334557211625988 3.5281293210080396
000760 5b b2 50 dd 34 ce 36 c0 cb 1c de 99 42 12 33 c0
       -22.80549414844641 -19.071328751303366
000770 34 2e 8d 06 b6 ee 43 c0 04 f7 f6 e4 1e 00 39 c0
       -39.86492998021677 -25.00047141103188
000780 92 2b 4e 22 3e 7a 01 c0 a1 f6 da 55 56 e0 29 40
       -2.184688823710027 12.938158686617784
000790 c2 a7 4c d2 5b 35 3d 40 18 5c 27 1a 78 56 f1 bf
       29.208432334627794 -1.0836106320982761
0007a0 ed 7f a6 7a 4c 94 47 c0 38 46 e9 e3 21 3e ef bf
       -47.158583957003295 -0.9763345195189634
0007b0 78 dc 13 d1 ff a5 31 c0 76 77 6e 51 de 65 1b c0
       -17.648434703205993 -6.84948088871703
0007c0 98 a7 17 be 86 20 38 40 a0 77 98 d4 00 0c 15 c0
       24.127056008124413 -5.261721917920937
0007d0 c7 4d e6 36 f4 cd 32 c0 7a 26 f9 c0 1b d4 40 40
       -18.804507666803854 33.65709697881262
0007e0 c3 21 35 8e fd 30 21 40 3a c3 5e 4e ed ef 39 40
       8.59568447493155 25.937214754233743
0007f0 9e 26 15 ee be 42 2b 40 62 ae 9c 3d e6 09 2b 40
       13.630362930375949 13.519334721923943

arr_5 f8 [32]
000000 0d 17 36 09 95 ff 3a c0 f4 bf 96 d9 27 20 20 40
       -26.998367858605935 8.062804031040265
000010 2d 93 6d 22 57 7a 14 c0 17 14 66 dc e9 16 37 c0
       -5.119473016679689 -23.08950593464041
000020 8d 8f c1 0a 0c c1 34 c0 8b 41 08 f1 cc c7 44 c0
       -20.75408999658207 -41.560941819220794
000030 2c 31 19 68 bd dd 32 40 aa e6 6c bf 5a 74 25 40
       18.866171365881357 10.727254850429137
000040 1a dc af 8d 80 6f 3c c0 72 b1 8c 96 cd 71 20 c0
       -28.435555320200457 -8.222271637606102
000050 ec 18 6d 7e a6 c0 3d 40 c4 7e ce 36 0f 33 3e 40
       29.752540494570823 30.19945089856516
000060 86 7b f4 fe f4 2e 44 40 7b bb a5 14 d6 3c 21 c0
       40.36685168206809 -8.61882080576992
000070 04 0c 08 00 ac 3d 3e 40 2c 6d 43 da af eb 27 40
       30.240905763592323 11.960326023798721
000080 38 8e 9e 95 6c 69 39 c0 cc 18 17 fc 2a 39 f8 bf
       -25.41181311722741 -1.5139570090555479
000090 0b 76 35 fa 98 e1 3f 40 6c c4 ba 4a 7a fb 3f 40
       31.881240499546077 31.982334776494483
0000a0 48 97 a8 46 77 c8 40 c0 d0 68 d7 98 f7 62 36 c0
       -33.56614001495342 -22.386590530958358
0000b0 6d 23 ff e0 c1 91 21 c0 8b 75 06 66 b3 bb 42 40
       -8.784682303566763 37.466412308839686
0000c0 c7 c2 17 01 a3 72 28 40 f1 6f f0 bd 52 f7 22 c0
       12.223899873877043 -9.483053145981076
0000d0 13 f2 c8 23 0c ad 11 c0 a3 90 ea 7b e8 cd 2b 40
       -4.418991622104403 13.902164337523862
0000e0 74 9b 7d 94 98 02 25 c0 54 87 2a af ab 38 34 c0
       -10.50507034333507 -20.22136969364449
0000f0 51 67 99 1f ea b1 40 40 a0 85 ac 88 e4 ca e9 bf
       33.389957380203334 -0.8060171765720732
