weights/global_round_43.npz (npz, 129966 bytes, 8 tensors)

arr_0 f8 [43, 128]
-7.603426424361153 -44.012844437677686 -34.22632877261443 19.61417456933373 20.311509832507323 29.38586649146879 -2.6152033210559598 -13.19988368157681
-12.695674745058811 -29.482091400679778 31.68443971039763 -37.19495548710563 -0.4730207824090855 -20.312611924975727 -2.556949770426786 17.2200177007335
17.015286624459954 -28.26358523868253 0.29874280097332995 8.554215697691525 11.427291856196945 -0.40037599978283245 2.630074516952548 34.79013940624406
-6.129719175032457 21.594360671329177 -4.296571047836285 -17.55206483496608 -15.12349474801308 14.271531924076797 10.95385953632871 19.715868149476236
18.45458737123626 9.92250146659852 -2.171739847833524 -28.645414334447956 -7.588790893006151 24.037624154987718 -25.30171970058639 -3.7921955202670152
26.62981958275875 3.408128891621981 -36.890145711096004 -2.18533491767663 -12.005597852490702 -4.087361222008566 -12.661943054371633 -28.94038299056852
-8.887190993210815 -3.302253726998836 23.570975158850786 -7.244326080472261 -21.820671738487427 -0.6156805966559684 -11.052113839857892 -33.245640260157884
-16.768064886981648 7.429177781323945 18.018078512447577 -19.0697087383652 17.031169444623483 31.53660233776464 13.628574418860325 -8.234020991491874
10.364974014828956 -12.656717095806028 6.123274843990984 12.61241339895341 -10.495363648760609 -40.57542542998164 -3.4332374644524863 -5.2587303720694685
0.36114224538762707 -15.67416780215196 3.7900678565790678 -13.066848844906204 21.912136871014546 2.242691898302197 25.450499811478906 -2.251914719830944
-40.16149380056163 9.868537322280417 -8.434057176676848 18.360496163518636 26.354216151839957 -39.98335002999321 -17.113390728285644 13.01611205115934
-13.882427380238234 9.027064751024932 -6.233713315566728 -2.1499963937346473 2.7733175302580326 -16.60659094453339 -38.046844815060936 2.463394867009858
-1.999337565674316 -7.393625676340535 1.2236449892702872 -3.523552738421743 -10.612516910266667 -3.16391425142729 12.827029502577316 6.272459569017338
23.43301979052413 11.901679388141352 -8.338704114222985 -6.284119419466331 0.4251461375734804 11.202391421100682 -32.08372957656826 25.817999176415807
8.18372223042936 13.808024895609325 -13.943518066262836 -22.487890764206888 -16.22185681269874 5.675988717940999 16.27627148000008 -27.977822942673605
3.8524139829350728 11.637989913138615 3.820102982862159 -16.13411946705012 -8.050878900462841 -4.164778663785469 43.77571655168448 -20.86057080059102
-42.71634406584782 17.699401645200982 -14.213907156443591 -2.922806629527493 -6.608567108457058 -0.6522046980731286 20.76460091728475 -3.6629659519998423
-3.591401112397895 21.44833913094587 -14.778937101109578 -12.269102593632656 -9.787649897592146 -4.8899876862155836 0.8167928096474784 -2.093775467695254
22.96370275563016 3.0346547687264778 10.88502038292576 -18.997918816353398 16.361614329926805 70.6775866128214 -7.378419253642145 -27.732621799295085
-3.8450713033112196 -13.051156897330058 -17.082253344925594 -39.175019228910344 44.79010957991488 7.064177780495904 -37.82399915827718 1.7230485520876357
-18.259399101727283 30.392941627381024 -12.159964638761352 15.900458995264918 31.939788263473254 -20.177699705920745 15.844716789394738 -14.15966955802271
-8.879198196770197 -16.976350537894533 -1.8151000950676397 25.360475597077958 -3.3314857955270885 23.26224146512804 4.792703973765636 16.372844720259486
22.641823166723604 9.715744427496576 35.40319724438554 -17.415720366360517 -14.22005280388898 -23.541462119871092 -16.459313464671038 -14.195919150563899
-7.210682840074428 -1.9338707440327552 9.712396082258278 6.885913674013033 31.249809077308708 28.26747582004634 -20.771911285769406 8.95402421102396
-10.254003098722348 -18.66056344185462 3.606279506194174 8.629734553126667 6.158645618792176 24.256762963386596 5.3717589207610486 -14.262729779281102
5.613298000584338 47.6358096602985 -4.211656594443724 14.353399843435653 0.8588672945413993 5.976713284307967 -8.22655495734166 35.15439368158977
-9.013904050366758 -17.10375889793871 -41.10921940166423 10.654770217681891 0.7862356750878091 -31.399991203944346 9.083471764429513 -5.238506261597535
10.376849222608957 -18.556654723724208 16.22186122119219 -0.31262723851888913 -26.174862708039008 -8.064976028097997 -39.97740347554348 21.685287062921585
-22.237408063101107 18.86919683801782 -10.69137425377681 -5.162787795044154 -34.459130032477745 20.373776269865925 2.449101206136195 20.322421348150392
-12.385086893752428 -11.812656911197386 -12.331242991097863 0.07871216170401663 -3.5999142810078038 -4.711335392131029 -11.728431476292819 -14.451023600501635
-13.269058634272668 0.20214908553558786 -3.927920973348581 -7.1276350707068765 -14.100756584517361 -8.283043808582644 6.817030823544788 8.500415866473698
13.300493089560405 -8.159387411529757 4.12066483339846 -25.771210434627143 -22.834765626452466 -14.003124809957813 -11.28751093351211 -0.46480480720603523
00000000: 88b1 d89d e869 1ec0 6ee1 f3e2 a401 46c0
00000010: eb42 5a57 f81c 41c0 c152 698b 3a9d 3340
00000020: 5b00 bf1b bf4f 3440 107b 7925 c862 3d40
00000030: 849b 02b8 efeb 04c0 c2c0 6627 5766 2ac0
00000040: 895c ed7a 2f64 29c0 3c9a 8f57 6a7b 3dc0
00000050: d53d dc70 37af 3f40 b0a5 284d f498 42c0
00000060: 689f b1f5 f845 debf 401c ca55 0750 34c0
00000070: 66fb cb14 a274 04c0 0631 7d14 5338 3140
00000080: 2a1f 00d3 e903 3140 8ed9 7b52 7a43 3cc0
00000090: 0c23 0620 9a1e d33f a407 f128 c21b 2140
000000a0: 106d 88ff c5da 2640 98ea 4aa8 c29f d9bf
000000b0: 62d5 2282 640a 0540 af8c be49 2365 4140
000000c0: c9b6 791a d584 18c0 2e63 5d05 2898 3540
000000d0: d596 1d52 b02f 11c0 7273 fb1e 548d 31c0
000000e0: 4ce3 1fb4 3a3f 2ec0 a875 7b3b 068b 2c40
000000f0: e204 f346 60e8 2540 9c3f 9222 43b7 3340
00000100: 65a2 84d6 5f74 3240 f91a bb1c 52d8 2340
00000110: 86eb 2e24 b95f 01c0 d6d2 b2df 39a5 3cc0
00000120: 8393 f6ff eb5a 1ec0 3e36 93bc a109 3840
00000130: d493 9680 3d4d 39c0 21ad dc9a 6a56 0ec0
00000140: 4654 2edb 3ba1 3a40 988d 9014 d943 0b40
00000150: 7fea 6e4b f071 42c0 e6d2 91df 907b 01c0
00000160: 34c0 c2b8 dd02 28c0 8edc 5d38 7559 10c0
00000170: 58ae 3433 ea52 29c0 db34 8ef0 bcf0 3cc0
00000180: dc4a dae5 3dc6 21c0 d36e 8400 046b 0ac0
00000190: b017 926d 2b92 3740 bec0 b49d 30fa 1cc0
000001a0: 128e 058b 17d2 35c0 b069 6dcb a7b3 e3bf
000001b0: 9eb7 4baa ae1a 26c0 c2fa d923 719f 40c0
000001c0: c8ca 82e6 9fc4 30c0 22d3 5b61 7ab7 1d40
000001d0: 01b9 1bcb a004 3240 2286 8f6e d811 33c0
000001e0: d74a 81b8 fa07 3140 02a8 53c5 5e89 3f40
000001f0: f036 9881 d441 2b40 f811 7299 d177 20c0
00000200: 0e29 c3df ddba 2440 076c 2239 3d50 29c0
00000210: 7071 bdc2 3b7e 1840 3246 c03f 8e39 2940
00000220: ac1b de4d a0fd 24c0 6987 5d8a a749 44c0
00000230: 9acd 2934 4577 0bc0 c414 5a9d f008 15c0
00000240: 1635 495d f41c d73f 8a84 ac85 2c59 2fc0
00000250: f805 ad18 0f52 0e40 884b 0503 3a22 2ac0
00000260: b67b 4ecd 81e9 3540 5eb2 3173 08f1 0140
00000270: f427 a5f4 5373 3940 7370 58dd eb03 02c0
00000280: a0f5 2fd4 ab14 44c0 8019 85ec b0bc 2340
00000290: a2d7 04be 3cde 20c0 61a5 007a 495c 3240
000002a0: 1ade e3e8 ad5a 3a40 b5ab ed69 defd 43c0
000002b0: 0ea8 bd2c 071d 31c0 089a b9d6 3f08 2a40
000002c0: b46f 8685 cdc3 2bc0 8d0d 596e db0d 2240
000002d0: ccfe 1b8b 52ef 18c0 b2dd 2c4f 3133 01c0
000002e0: ce0d ef19 c12f 0640 17d2 4c8b 499b 30c0
000002f0: 4256 ca02 ff05 43c0 6b88 375e 08b5 0340
00000300: 5cc4 2363 49fd ffbf 71fe fa9b 1293 1dc0
00000310: 5048 adc4 0c94 f33f 6205 0a6b 3c30 0cc0
00000320: 42af 03d1 9b39 25c0 09d4 6946 b24f 09c0
00000330: 1fcb 3469 70a7 2940 9aa5 29a4 ff16 1940
00000340: 69d2 8e62 da6e 3740 bb16 b7eb a8cd 2740
00000350: 7c37 2ba0 6aad 20c0 ca10 7b33 f022 19c0
00000360: 3086 3925 9835 db3f 9e3c 2dd9 9f67 2640
00000370: c888 98a6 b70a 40c0 5fdc de64 68d1 3940
00000380: 0c7c 16d7 105e 2040 e2fd 6970 b59d 2b40
00000390: 6e91 cbcc 14e3 2bc0 fe49 bc68 e67c 36c0
000003a0: 96ef aa9b cb38 30c0 1416 f062 36b4 1640
000003b0: f96a 4bba b946 3040 c60f b89a 52fa 3bc0
000003c0: b9df 1a6c bed1 0e40 6a37 289d a646 2740
000003d0: cef5 1527 928f 0e40 babc 44a7 5522 30c0
000003e0: b416 9bcc 0c1a 20c0 1026 f0bc bba8 10c0
000003f0: b239 12ae 4ae3 4540 546e 345e 4edc 34c0
00000400: 02c0 8f29 b15b 45c0 25e8 78fc 0bb3 3140
00000410: 759c 223d 856d 2cc0 10d2 3271 e861 07c0
00000420: 37fa 5037 2c6f 1ac0 4ab1 1063 dcde e4bf
00000430: c73a bee2 bcc3 3440 4c9b d117 c14d 0dc0
00000440: 2c89 a481 30bb 0cc0 f9ed 705a c672 3540
00000450: 39d0 fdd7 d08e 2dc0 92d7 add0 c789 28c0
00000460: 48b6 edd8 4693 23c0 f88d 98ee 588f 13c0
00000470: 6867 a1ac 2a23 ea3f 8458 375a 0dc0 00c0
00000480: 227f 4a39 b5f6 3640 34a5 5214 f946 0840
00000490: 48eb 4164 21c5 2540 064d 889b 77ff 32c0
000004a0: f3cc b8c1 925c 3040 9f91 3d94 5dab 5140
000004b0: 6a47 3a56 8083 1dc0 1f4f 2c1a 8dbb 3bc0
000004c0: 0a14 54be b4c2 0ec0 affe a13c 311a 2ac0
000004d0: 2971 228e 0e15 31c0 a82b b407 6796 43c0
000004e0: d0fe 8a4f 2265 4640 6970 f1d1 b741 1c40
000004f0: b35d eecd 78e9 42c0 4d2f ca5b 9b91 fb3f
00000500: cc87 c2fa 6742 32c0 a9d6 8ed2 9764 3e40
00000510: 30fe 97e2 e651 28c0 8b1a 20f6 08cd 2f40
00000520: 42c8 b0f6 95f0 3f40 3c70 59ba 7d2d 34c0
00000530: 40aa 11b8 7eb0 2f40 a6bf 5335 c051 2cc0
00000540: 0ca9 1b44 26c2 21c0 64b0 dd1b f2f9 30c0
00000550: 1683 b465 a60a fdbf b674 f420 485c 3940
00000560: e404 5706 e2a6 0ac0 4b61 b441 2243 3740
00000570: 3bee 2a97 ba2b 1340 3200 68c0 725f 3040
00000580: 9ee4 e685 4ea4 3640 b9c8 b80d 766e 2340
00000590: 923c a1f7 9bb3 4140 b0cc 61a6 6c6a 31c0
000005a0: 4a31 d8c2 aa70 2cc0 82de f042 9d8a 37c0
000005b0: e35f 3591 9575 30c0 02aa d083 4f64 2cc0
000005c0: d2ca 0f3e bdd7 1cc0 6cfd 0473 22f1 febf
000005d0: 1732 e62d bf6c 2340 59dc 43f4 2c8b 1b40
000005e0: eb48 d97c f33f 3f40 df91 9b4b 7944 3c40
000005f0: fcca 5ffa 9bc5 34c0 56e1 83dc 75e8 2140
00000600: b730 b4b1 0c82 24c0 e4b2 8baf 1aa9 32c0
00000610: 49b6 da11 a9d9 0c40 30ae 3d91 6c42 2140
00000620: dd76 41ff 73a2 1840 c991 b237 bb41 3840
00000630: eba8 da5e ae7c 1540 3065 8384 8486 2cc0
00000640: 02d9 1c64 0474 1640 41bb 0036 62d1 4740
00000650: 6079 9c81 bcd8 10c0 70ef 03d3 f0b4 2c40
00000660: 1019 b543 d77b eb3f 95af f686 27e8 1740
00000670: e70e e902 ff73 20c0 8c91 122c c393 4140
00000680: de36 836e 1e07 22c0 d650 71f1 8f1a 31c0
00000690: 471e bfe6 fa8d 44c0 53ad be0a 3e4f 2540
000006a0: 7f6b eeb7 d728 e93f eea0 d3d2 6566 3fc0
000006b0: 75ba a4cf bc2a 2240 7fcf 45fc 3af4 14c0
000006c0: ca41 9d61 f2c0 2440 348f 89ec 808e 32c0
000006d0: 6545 a1e5 cb38 3040 41c1 51ad 1502 d4bf
000006e0: 4a51 6ccd c32c 3ac0 e568 b789 4421 20c0
000006f0: 5e3a 9d8e 1bfd 43c0 bf9e 13f9 6eaf 3540
00000700: 72d3 5ac6 c63c 36c0 ba12 19af 83de 3240
00000710: 1e89 62ce fb61 25c0 419c ffd7 b1a6 14c0
00000720: 3a0d ddc5 c43a 41c0 5318 37cd af5f 3440
00000730: c897 875f c297 0340 92d6 9934 8a52 3440
00000740: df91 fd1b 2ac5 28c0 1cec 1091 14a0 27c0
00000750: ce96 6bae 98a9 28c0 78f3 50f0 7a26 b43f
00000760: aca7 cadb 9fcc 0cc0 abc2 164e 68d8 12c0
00000770: fc1b 70f8 f474 27c0 e4c1 bb90 ece6 2cc0
00000780: a8d0 a50d c289 2ac0 0055 a56f 05e0 c93f
00000790: e96f ced4 616c 0fc0 e408 9ac4 b282 1cc0
000007a0: abb7 f65d 9633 2cc0 3e65 3a1e eb90 20c0
000007b0: 95cb 6bba a344 1b40 dece 2982 3600 2140
000007c0: 00ac f03a da99 2a40 2cd4 0f3a 9b51 20c0
000007d0: 0be5 e48f 8f7b 1040 ba0e 0b0c 6ec5 39c0
000007e0: 3470 3933 b3d5 36c0 6926 3993 9901 2cc0
000007f0: 985a 11a2 3493 26c0 ee4d 7ea9 5cbf ddbf

arr_1 f8 [128]
35.117363033111644 15.664114909178835 -23.702209235218614 -15.217980300037897 4.923818730956574 -3.492676352796259 20.523578509893618 -3.527986955058459
11.904991892273149 -8.151680968548277 13.723221985210479 36.004395357666574 -12.97898572223354 32.80354604316317 25.921390684000336 10.084844846164492
13.206972311721369 0.6510478584819956 7.94949511909449 15.41920380156866 -24.878974502111575 -10.012019898918357 -10.03126804494406 14.04630909933127
-17.115609306085506 2.8019418172265964 -0.04960573022597026 16.10854465996721 -10.295417895569734 -11.868796904522382 4.122114356828696 5.4975018487458875
33.64237319983426 12.937280434754722 -15.083831204440552 21.097289512259156 13.384000235390012 -32.3127243158774 -26.880688843678506 -22.584492206689475
8.82323876964733 12.889608922047131 14.159290567107819 -2.275830145826702 17.41628895638057 14.84557018553396 2.2174862144354575 -37.09959684225675
-15.176688894680257 2.1951160356954142 -1.0946646638479007 -3.3206445888765623 14.006238705145655 3.956592649403495 -36.95614347895979 -24.813062715605067
9.65800880442073 4.6095067952202635 -1.289645259994572 13.06586833829193 -4.017603225304903 1.0832054119860497 27.15562264585737 19.20151589632679
-2.815559320295398 -17.51996599347863 -2.26976466700573 5.558819274591137 26.515484480208496 18.113009672059608 33.57175152018672 40.40099122386161
-4.760400732726348 9.530185156589232 18.786203128259146 -10.134027620188775 26.726124885420205 30.025294590010198 7.205638754177842 -17.61612037826732
-19.058271753828073 5.3881403966239425 -6.461207815441232 -16.008321445477478 -3.372401733870629 -17.695187136676623 -17.5980611014824 18.64740388617957
13.305055553797311 -17.73019537498797 -12.51348982380338 14.546097478030244 -1.8195181688316253 34.57169705429813 3.489320795861462 -25.34266898847656
-4.426261233374966 11.741959405804156 -24.13503642938259 -29.193721197783482 -2.701295213574765 2.627221428922627 20.183925287385343 31.717875567314486
-29.565707130962117 -9.089748963478144 13.427643997700642 7.384231359114009 -18.846399204736876 -5.726832400200289 -12.264830117873458 15.046198965673238
34.77473812613084 1.1954643169880885 12.97648674305919 27.26792337114188 4.9705136468557125 -11.343132070570029 22.60805838381106 22.893314572396164
-29.948437812453246 15.607450671767708 6.367126838231225 1.7721268516502564 10.46443256507326 6.691212688119725 -10.51319291697692 16.873878133550328
00000000: a87c 7ac0 058f 4140 106b 8fde 0654 2f40
00000010: 8f36 04fc c3b3 37c0 8aab 271d 9b6f 2ec0
00000020: 1690 9389 fdb1 1340 102e b64c 00f1 0bc0
00000030: aae1 c03d 0986 3440 8f86 8539 5139 0cc0
00000040: aaea e818 5bcf 2740 50ae be20 a94d 20c0
00000050: 5474 ec26 4a72 2b40 51b7 ee06 9000 4240
00000060: ed7c d89d 3df5 29c0 a71b c498 da66 4040
00000070: da9e 8642 e0eb 3940 7305 9fc8 702b 2440
00000080: a60a 5c46 f869 2a40 c6f3 8951 62d5 e43f
00000090: cce3 d072 48cc 1f40 4a31 74e1 a1d6 2e40
000000a0: 4c96 1479 04e1 38c0 da82 e178 2706 24c0
000000b0: a2e3 7c5d 0210 24c0 2145 86d3 b517 2c40
000000c0: 21c0 4c92 981d 31c0 ab43 b278 606a 0640
000000d0: 208c 071a ec65 a9bf f1b6 3495 c91b 3040
000000e0: 1440 b003 4197 24c0 4f94 a7f2 d2bc 27c0
000000f0: 28ce c38b 0b7d 1040 a440 e81f 71fd 1540
00000100: b98e f648 39d2 4040 86e7 9c38 e3df 2940
00000110: b5e9 72ec eb2a 2ec0 9965 29f7 e718 3540
00000120: 1450 c9ad 9bc4 2a40 bfad b259 0728 40c0
00000130: 1e8d f5d2 74e1 3ac0 887f 0048 a195 36c0
00000140: 7fde 508d 7fa5 2140 30d8 14d2 7ac7 2940
00000150: 2994 8088 8e51 2c40 de9c 7c6f e634 02c0
00000160: 2c57 bde9 916a 3140 99ae 4a93 eeb0 2d40
00000170: 29a6 9269 69bd 0140 8923 de96 bf8c 42c0
00000180: aa6f 80f7 765a 2ec0 52e5 01ff 988f 0140
00000190: 5f04 3518 bf83 f1bf e2e9 361c ae90 0ac0
000001a0: d423 35b8 3103 2c40 8c41 060c 1aa7 0f40
000001b0: 3e35 d6e8 627a 42c0 e71e cde0 24d0 38c0
000001c0: 27ef ae87 e650 2340 a9a4 a08c 2270 1240
000001d0: c1e3 7111 63a2 f4bf 859c ad7e b921 2a40
000001e0: 68f4 7394 0612 10c0 de48 b532 cf54 f13f
000001f0: 7279 bee2 d627 3b40 0259 b88b 9633 3340
00000200: 0def 04f7 4386 06c0 da05 c97d 1c85 31c0
00000210: 5e3f b360 7a28 02c0 38f9 b21e 3b3c 1640
00000220: 4f17 78ca f683 3a40 b1a0 ad33 ee1c 3240
00000230: f451 6027 2fc9 4040 fc3b 30ae 5333 4440
00000240: 0aa8 5b7d a60a 13c0 33c0 c86d 740f 2340
00000250: cce2 b39b 44c9 3240 68f1 aa44 9f44 24c0
00000260: 08b1 0b52 e3b9 3a40 0adc ccb4 7906 3e40
00000270: a2ef 2ff7 92d2 1c40 aa0e ab10 ba9d 31c0
00000280: def8 cce5 ea0e 33c0 7406 17ad 748d 1540
00000290: 35eb 8fdc 46d8 19c0 642e b05a 2102 30c0
000002a0: 9a95 9fc2 adfa 0ac0 40a0 c0c8 f7b1 31c0
000002b0: 6ce0 4788 1a99 31c0 cf71 d642 bca5 3240
000002c0: 950b d63d 309c 2a40 8843 8715 eeba 31c0
000002d0: ee20 6023 e806 29c0 ce22 b116 9a17 2d40
000002e0: 13c1 5915 bf1c fdbf 0ab7 7b5e 2d49 4140
000002f0: 45d2 7b05 21ea 0b40 38dc a227 b957 39c0
00000300: a897 23d3 7db4 11c0 e2c6 6d1a e27b 2740
00000310: 83f7 57bf 9122 38c0 a205 61b6 9731 3dc0
00000320: dc28 39aa 409c 05c0 a695 24ab 8c04 0540
00000330: 3a3a 46ba 152f 3440 9236 74b1 c6b7 3f40
00000340: a698 ba2e d290 3dc0 20fa 7d93 f32d 22c0
00000350: f0e8 7027 f4da 2a40 1ef8 05f2 7389 1d40
00000360: 8eb4 479e add8 32c0 3a22 b2c0 46e8 16c0
00000370: 5086 2ed0 9787 28c0 e659 0d64 a717 2e40
00000380: 2059 719e 2a63 4140 28fb 0f31 9f20 f33f
00000390: 64d5 0412 f6f3 2940 71e3 44a0 9644 3b40
000003a0: 9644 5654 cee1 1340 349d ba01 afaf 26c0
000003b0: f186 d8b6 a99b 3640 547b 8943 b0e4 3640
000003c0: c7c6 0ad2 ccf2 3dc0 e059 42c6 0337 2f40
000003d0: 7bbf 0e19 f077 1940 8138 83af a15a fc3f
000003e0: c45f ec1a caed 2440 c637 4842 cdc3 1a40
000003f0: d0e8 d538 c106 25c0 c649 347a b6df 3040

arr_2 f8 [128, 64]
-8.614855990436725 -1.0381491820634476 41.50354121389232 -42.00103856856502 1.241621481428711 -12.334000792522968 16.791494087246992 -9.613810511432131
2.5939549345247404 -18.51610891816102 -11.128088970311138 -13.628118079226052 -5.3180864540843755 -24.783708365600816 -23.978115203975122 23.996734890384143
7.532706320887047 17.131080510368772 16.00958709407895 34.847491076419495 -36.49631416486347 9.935703933141555 13.80513739508129 -11.49267791424297
11.197242854587804 -10.937703585324417 28.366252424758873 13.84011938021496 11.727664997033573 18.53391127069508 17.66879744919802 1.93550979223295
-11.285200624959092 27.69029792326925 25.78555067383649 -10.37447343580438 22.185554214255717 -11.300146045876218 -45.95065268260864 -7.723617516952278
-39.482752556509425 -0.022996878103752505 -12.04675631507084 23.418033261155042 16.477515825874573 0.6430844557506346 -31.351520732333892 -6.87811461727741
-12.972888554522896 -16.036220027799875 -7.128265866891502 -32.94801211998491 9.134543258472096 3.300536692519395 13.680685511947548 32.51885135410485
-9.197541973114136 -4.785979015050393 12.57269625976626 44.07422300976617 17.9416067809817 -54.515800443860115 -21.576086992185566 -21.86680370411085
18.180355702398593 -28.091370387260127 -28.547487418518585 -0.40659719399876115 -17.72355620729367 -23.17973124755165 -24.470815294740106 32.88920156884481
6.309122668451472 -21.341077904136633 -9.51273267613401 16.20920613845437 -10.910651967664492 12.449663491705312 7.742764962909203 10.735051606794315
-27.996020378361266 27.793334129941197 -24.977548097939366 15.005371948386417 -29.227470046731895 53.47551618716695 8.818126229217976 -20.056138265876292
-18.750488631594063 5.897005476150498 -10.792978152665226 -14.47493358064639 0.6734208369241401 18.716443136287843 -32.025051124190774 -9.450115117465199
-17.56443464702789 -1.6969311084969063 -12.600936026865202 6.685145224954674 13.144852845872515 -44.68579599972699 -2.896321634148028 -23.351276669812364
13.067286757670077 -6.639993459373425 28.99553800431265 37.02343334631638 20.858315443012028 27.165088422286324 -32.381387062598606 -12.475230700248542
2.6969618835714813 19.197748828142018 9.798021247577562 3.4999374578474893 3.669983222850867 14.847430329903549 1.7927487791039423 19.97388407346987
-29.81323153960254 4.118942431629445 21.16044801342039 16.803390872354623 7.567927132007476 0.18528955593825613 -5.642174983852717 -4.258637848914199
36.57903469222276 4.841273151322476 16.21477811743497 -12.09983928395398 35.95062011696543 -10.294561791917477 -18.138459552670888 17.607756595807043
-31.950123147035214 30.94852300914692 5.469698937201131 -14.008525442603862 -1.890620486542764 3.047503308291178 21.731540018488822 6.949266392545641
-3.9999938064761347 -15.253934212409668 -9.078005817604701 9.76987715318068 0.43678051595489487 16.710768414669094 -36.44404726363576 -28.013589028533037
-20.313667033300604 -15.328728922552106 2.1039967777373465 31.691411103654616 13.49020609042235 -26.303869378219943 -13.50062402256522 -2.6087574392046617
28.970908583803645 -2.5301757961617457 -34.26241365365302 10.6033031743929 -12.295662732075982 22.569979234750804 -28.5672881148424 1.484441657554084
-30.891200477596044 -1.8952502530442579 -40.245728036462836 5.496060787384728 -5.684105848089713 -9.620309618572396 -4.483640495858941 -2.7174873731683946
9.655468458168988 -2.08163823134291 -6.897254803737809 28.580728137650492 -26.933771715730863 -20.271440004430517 1.563240950606101 11.654939072832034
-18.584743461552424 -8.750047533676607 -7.230177267444234 11.429512446348923 4.565153203088987 -31.395498894136765 9.886809542284318 -6.8617860490174625
44.5372666510488 27.152726129729754 -12.993012044254868 -7.022703860219481 -26.14578830266092 -15.309585049517324 2.2825186590379656 23.063487904061226
-11.125288599852942 -4.351143138241291 -46.880650498937456 -34.100933277864655 -32.360975052205674 -8.176433837111238 13.432743818707243 -5.705976369480005
-9.20320535381544 -22.679274971012756 14.93928810673616 -1.5274661415443072 -13.58560701312867 3.8704853724083783 -7.254568055677972 7.503445475473456
-5.434595971754922 -20.079768179951287 47.7046942773643 -28.614209945971417 -21.257086805034803 -10.249126234546166 14.544700692587451 -5.860873859836305
-16.675018307145145 -14.246790847461199 -43.863986681963524 16.255857629300447 -10.428744232916344 -4.931535934404667 -10.96479323353359 15.10860120913635
-18.222339853031443 -6.1988902535815305 -33.014598925291466 16.50477985033521 16.249493491259493 16.134790544262486 -12.054939798886155 -14.997537080905593
-20.340221778150248 -27.61839327990773 6.0670340116190165 -32.37341040394256 11.076933900882313 -3.7605319078672235 17.794551323035094 9.226179219491527
-4.601665533559726 1.2285727795762393 23.801302442087447 18.528710077199843 53.61228545818064 -3.071007827017837 -0.9863978251987113 28.46384316072183
00000000: d159 8567 ce3a 21c0 784e 1551 429c f0bf
00000010: 86ed da09 74c0 4440 be02 2508 2200 45c0
00000020: 4af5 8b7c aedd f33f ce72 e126 02ab 28c0
00000030: 05b4 435b 9fca 3040 8615 115f 453a 23c0
00000040: 14a7 d871 6bc0 0440 efac ccb6 1f84 32c0
00000050: e7ed a4e0 9441 26c0 be9a 60b1 9841 2bc0
00000060: 3b5f 9674 b845 15c0 6cdb 871c a1c8 38c0
00000070: 24cb 0cc2 65fa 37c0 67fb 8c04 2aff 3740
00000080: 5354 0ac4 7d21 1e40 472d 097e 8e21 3140
00000090: 6388 bf4c 7402 3040 d16f 6c96 7a6c 4140
000000a0: a950 f938 873f 42c0 c129 ff95 14df 2340
000000b0: 5152 f9f7 3a9c 2b40 2545 9247 40fc 26c0
000000c0: 0ba6 f303 fd64 2640 e29e 30af 1ae0 25c0
000000d0: 896b 0ab8 c25d 3c40 a184 9d20 24ae 2b40
000000e0: 0168 a981 9074 2740 e699 b668 ae88 3240
000000f0: 27f4 434f 36ab 3140 04a7 ab1d d9f7 fe3f
00000100: 02ff f9d0 0592 26c0 2af0 5c5d b7b0 3b40
00000110: 7e7a 55d9 19c9 3940 4a00 70fb babf 24c0
00000120: 00dd 217b 802f 3640 c81f 16be ac99 26c0
00000130: 53d4 b2fc aef9 46c0 b57d 88fd fbe4 1ec0
00000140: 5a22 f5d5 cabd 43c0 207e 765d 7e8c 97bf
00000150: b238 9871 f017 28c0 174d 513a 046b 3740
00000160: 2774 277a 3e7a 3040 587a 40da 2594 e43f
00000170: 733d 4143 fd59 3fc0 5662 6d7a 3083 1bc0
00000180: 38a8 d872 1ef2 29c0 55dc 3ab7 4509 30c0
00000190: e7f7 9d20 5883 1cc0 fec5 0d76 5879 40c0
000001a0: e211 9eda e244 2240 52f3 0cc8 7f67 0a40
000001b0: fa59 b9cf 825c 2b40 cdae 9eb8 6942 4040
000001c0: 9d39 b438 2465 22c0 57ef d3ae d724 13c0
000001d0: a879 b471 3825 2940 38c7 bb23 8009 4640
000001e0: 1c02 5a24 0df1 3140 1cd2 babf 0542 4bc0
000001f0: 8816 e76f 7a93 35c0 3035 f9d8 e6dd 35c0
00000200: f672 93ca 2b2e 3240 e81a b90c 6417 3cc0
00000210: 4082 ad22 288c 3cc0 d8ae b73c b005 dabf
00000220: e424 c7fa 3ab9 31c0 ba4d f6dd 022e 37c0
00000230: 885d e559 8778 38c0 c4de 645b d171 4040
00000240: 28ce 1da7 8a3c 1940 b2a7 abe1 5057 35c0
00000250: 1a2c b7e5 8406 23c0 b2c8 9288 8e35 3040
00000260: 6850 86f9 40d2 25c0 b228 0e4b 3ae6 2840
00000270: 1d3d e160 97f8 1e40 901b 28af 5878 2540
00000280: 1036 0731 fbfe 3bc0 e7e5 0ef2 17cb 3b40
00000290: a5ea 9697 40fa 38c0 5b45 ad1c c002 2e40
000002a0: 7888 1b7a 3b3a 3dc0 e34c e4b6 ddbc 4a40
000002b0: 65fb ec70 e1a2 2140 2afe cf13 5f0e 34c0
000002c0: 5fb7 e005 20c0 32c0 e198 819a 8896 1740
000002d0: 7f47 803b 0196 25c0 fe4b 897e 2af3 2cc0
000002e0: 9a17 e1da a98c e53f cacc 3fd1 68b7 3240
000002f0: 4f90 0fe0 3403 40c0 7ee5 197d 75e6 22c0
00000300: cfb6 fdc9 7e90 31c0 a6f2 e83b a126 fbbf
00000310: 9abf 0ce3 ad33 29c0 78c3 b8b5 96bd 1a40
00000320: 8d82 f726 2a4a 2a40 0c47 cf29 c857 46c0
00000330: 8ae7 4aad aa2b 07c0 20b1 9044 ed59 37c0
00000340: 314b ef68 7322 2a40 aca6 0672 5a8f 1ac0
00000350: ac72 2294 dbfe 3c40 4808 28dd ff82 4240
00000360: 6f63 958f badb 3440 02ab 1e3c 432a 3b40
00000370: 407d 904a d130 40c0 ce3e 3770 51f3 28c0
00000380: 0dfc 83c0 6093 0540 3ab1 cdaa 9f32 3340
00000390: aeb7 af3d 9698 2340 b500 bc35 dfff 0b40
000003a0: f01a f829 205c 0d40 0226 6163 e2b1 2d40
000003b0: 3220 0358 19af fc3f faa5 7577 50f9 3340
000003c0: 2cab 32f1 2fd0 3dc0 1bd2 770b cc79 1040
000003d0: 4759 fa1e 1329 3540 03ab 3206 abcd 3040
000003e0: c8ee a9b0 8e45 1e40 38c8 8573 91b7 c73f
000003f0: b6d3 a751 9691 16c0 8960 3a5c d808 11c0
00000400: 502c 0dcf 1d4a 4240 48bb 7fb5 765d 1340
00000410: 9747 deb2 fb36 3040 76e0 7622 1e33 28c0
00000420: a3a4 84eb adf9 4140 9adf 9dcd d096 24c0
00000430: 4e8a d215 7223 32c0 67eb aeef 959b 3140
00000440: 58b0 4345 3bf3 3fc0 1fca 6767 d2f2 3e40
00000450: b1fa 18c2 f8e0 1540 c455 6272 5d04 2cc0
00000460: 9a94 6d44 fb3f febf d47f 1c6a 4961 0840
00000470: ee1f e734 46bb 3540 a3b3 3c7d 0ccc 1b40
00000480: f223 b8c0 fcff 0fc0 2445 43aa 0382 2ec0
00000490: 1605 e760 f027 22c0 7cb2 9556 2d8a 2340
000004a0: 169a e343 36f4 db3f 9508 38eb f4b5 3040
000004b0: d198 6d8a d638 42c0 4122 1192 7a03 3cc0
000004c0: 04dc 917b 4c50 34c0 a238 4728 4fa8 2ec0
000004d0: 972b 3a43 fcd4 0040 b049 6e51 00b1 3f40
000004e0: f953 ed4a fcfa 2a40 e4b5 3162 ca4d 3ac0
000004f0: e804 b9ca 5100 2bc0 56a5 6438 bcde 04c0
00000500: a3d7 0677 8df8 3c40 e729 cdce cc3d 04c0
00000510: 573b 46c5 9621 41c0 552e 5727 e434 2540
00000520: 20d3 091b 6197 28c0 60a7 bc28 ea91 3640
00000530: 58a8 3ccb 3991 3cc0 b63c 40e5 45c0 f73f
00000540: 6074 e9b6 25e4 3ec0 16f9 e8ed f152 febf
00000550: ba28 2c04 741f 44c0 e894 ea5b f7fb 1540
00000560: ce30 523e 86bc 16c0 4a53 ea38 993d 23c0
00000570: 06f1 4274 3fef 11c0 dd68 1805 6abd 05c0
00000580: 6bca ce8f 994f 2340 c6c4 edf1 31a7 00c0
00000590: 60ee 98f6 c996 1bc0 6b13 6799 aa94 3c40
000005a0: 6efe c4a9 0bef 3ac0 ecda 9517 7d45 34c0
000005b0: 40f0 69f1 0803 f93f 4f5f 952c 544f 2740
000005c0: e1ea 5bbf b195 32c0 482c f73a 0680 21c0
000005d0: 91d2 ef96 b3eb 1cc0 5096 2c0e e9db 2640
000005e0: c5fc 7185 b742 1240 eceb 5f6a 3f65 3fc0
000005f0: a4c8 7be6 0bc6 2340 5ab7 c20a 7872 1bc0
00000600: 37be 5327 c544 4640 176f 440f 1927 3b40
00000610: b037 1d13 6cfc 29c0 e28a 44ae 3f17 1cc0
00000620: 6911 d861 5225 3ac0 d003 7eee 819e 2ec0
00000630: 699f 8824 9942 0240 72a2 47be 4010 3740
00000640: 2bdc cdd3 2540 26c0 38d8 1b11 9267 11c0
00000650: 3c12 d227 b970 47c0 dec0 b361 eb0c 41c0
00000660: 98f2 356e 342e 40c0 e399 3089 555a 20c0
00000670: 9bc9 0999 90dd 2a40 68a9 2a78 ebd2 16c0
00000680: d304 3a88 0a68 22c0 bb7d e9f6 e4ad 36c0
00000690: 3ae8 e75e eae0 2d40 b7e1 3a56 8070 f8bf
000006a0: 4a64 b3ae d42b 2bc0 781f f108 c1f6 0e40
000006b0: 09f9 067d ad04 1dc0 21e9 f135 8703 1e40
000006c0: 96a4 f6b9 06bd 15c0 f826 fcaf 6b14 34c0
000006d0: a07a 0d6c 33da 4740 3ed3 eedc 3c9d 3cc0
000006e0: 8cdb db70 d041 35c0 1fe7 4b79 8d7f 24c0
000006f0: 168b 5902 e316 2d40 b2e9 c7ea 8871 17c0
00000700: c263 f1ff cdac 30c0 9098 b55e 5b7e 2cc0
00000710: 409b 971d 97ee 45c0 0b47 b6e2 7f41 3040
00000720: d872 355d 84db 24c0 7344 558e e4b9 13c0
00000730: 93db f260 f9ed 25c0 e617 e393 9a37 2e40
00000740: 145e bd43 eb38 32c0 d780 fae2 a9cb 18c0
00000750: 8057 a960 de81 40c0 98de 9440 3981 3040
00000760: 3e86 31ce de3f 3040 dc6a 13a2 8122 3040
00000770: 01ee be11 211c 28c0 db12 262e bdfe 2dc0
00000780: d38a 42c6 1857 34c0 1645 a105 4f9e 3bc0
00000790: 527e 5e90 a444 1840 b075 80e9 cb2f 40c0
000007a0: 8a7c 58e1 6327 2640 6cd5 bec0 9115 0ec0
000007b0: e46d 2bb7 67cb 3140 7880 3dc3 cd73 2240
000007c0: e113 7702 1b68 12c0 7e92 50ee 3ba8 f33f
000007d0: 74f8 2628 22cd 3740 93a3 2a8b 5987 3240
000007e0: e259 b15e 5fce 4a40 c069 368d 6c91 08c0
000007f0: 205e 022c 9290 efbf 06c6 e56c be76 3c40

arr_3 f8 [64]
-11.846724759520743 -23.663234849476883 8.344893034436886 1.22164693257353 23.35658969617556 4.538285546442611 -14.192940207533724 5.00130253057716
-11.80367989753882 11.992392997697209 -15.479858559068747 -26.917988263418508 11.582904219807475 -1.1586540943004335 -7.647177670984526 -21.420124562048965
36.401096165259375 -8.450741545228098 -21.39198464487535 -0.680966865908553 10.249281228569378 -12.322561385208214 11.759370442062853 12.07975272680397
15.222440376044798 8.475628876009683 -8.182596239953973 32.08112699412288 43.250977750715776 -6.686261276072812 -26.630130956436926 21.63384351451574
-0.5586025354954711 41.055297885511195 19.28738700611812 20.296012259660912 12.03463303337578 -15.590955286067517 9.162314531033116 18.45938848501078
-11.39396468187299 -16.889237460956444 3.556351247085847 19.137260619616935 33.03137309531273 18.312681928873417 -3.8941439804912594 -10.455657170518359
-6.06188990389163 -15.197373549272648 1.3671287216570591 -4.028986747665886 -13.827876115133137 4.844046656108745 1.592574126288266 18.629842890699813
20.282962160376247 -19.387708728422954 5.890138749156001 23.09282966085717 27.88961312315476 -4.985641035569693 19.539321105722983 23.06363425623838
00000000: cab5 5de8 85b1 27c0 1912 54c2 c9a9 37c0
00000010: 9c0c dfd1 95b0 2040 ab97 6aa7 dd8b f33f
00000020: 242a 5b76 495b 3740 a385 8753 3427 1240
00000030: b0e1 120f c962 2cc0 7cec 5873 5501 1440
00000040: 84c3 78ee 7b9b 27c0 20c7 5bef 1afc 2740
00000050: d9cf 6305 b0f5 2ec0 8c7e 6147 01eb 3ac0
00000060: 088c 016c 722a 2740 8c59 26e0 d889 f2bf
00000070: e851 4ebe b596 1ec0 233f 8648 8d6b 35c0
00000080: 862b 801e 5733 4240 0868 8798 c7e6 20c0
00000090: 1846 0e1b 5964 35c0 4c94 5706 7bca e5bf
000000a0: a36c 08ca a17f 2440 eed7 10c4 26a5 28c0
000000b0: 046b dc33 cc84 2740 9ec7 7259 d528 2840
000000c0: 3ed8 78b4 e371 2e40 5afd c6a0 85f3 2040
000000d0: 24f3 1d41 7d5d 20c0 504a 8d5e 620a 4040
000000e0: 88ac f709 20a0 4540 cff9 a446 bbbe 1ac0
000000f0: 0318 2a43 50a1 3ac0 76a0 8d91 43a2 3540
00000100: a44d ad6c 12e0 e1bf 7ee7 4800 1487 4440
00000110: 9b92 e031 9249 3340 6c75 9e75 c74b 3440
00000120: a66b c36b bb11 2840 db1d f6b0 912e 2fc0
00000130: d7e7 e4e3 1a53 2240 c147 d77b 9a75 3240
00000140: dad8 20bd b5c9 26c0 9e2f f510 a5e3 30c0
00000150: 8a94 5a48 6873 0c40 8f48 1083 2323 3340
00000160: d62b 9908 0484 4040 c08f 42ec 0b50 3240
00000170: 7400 91f5 3427 0fc0 e520 8be5 4be9 24c0
00000180: 25ab 2411 603f 18c0 6471 5625 0e65 2ec0
00000190: 9a07 cf5d c2df f53f 34f8 b4b3 ae1d 10c0
000001a0: d045 cf60 dfa7 2bc0 1024 41c4 4d60 1340
000001b0: 70d2 cd01 2f7b f93f 7e2c 3962 3da1 3240
000001c0: 4dd2 4835 7048 3440 49f3 14e1 4063 33c0
000001d0: 071c 4288 808f 1740 f67a 45af c317 3740
000001e0: c80a 86af bde3 3b40 3978 35e2 4bf1 13c0
000001f0: 6e1f aff2 108a 3340 fa72 a955 4a10 3740

arr_4 f8 [64, 32]
-0.937788816148518 8.379715350236733 10.235367910492721 22.596569583553787 31.837835067076746 -10.343158882127582 -17.873041370344296 -13.871706361130766
17.233356517458944 11.90459555554908 5.604410905833087 -3.055381628284671 -7.610413020655864 -2.622044130422063 -1.7299258093069745 9.938625984779861
14.169457073303601 11.207029800978944 10.727139885909589 27.81561195347821 23.07230242020362 19.227965131483785 37.15159589567817 -10.517803476391983
-35.2535481671792 20.523880089392495 9.102442103394122 -8.44777778638555 -16.110398185494198 10.070028124874833 -6.49492776504741 6.073729214366608
14.854892241288418 4.4533164089743416 -6.138049388339958 29.579806494324263 6.678462438197961 10.692460750405335 7.147502285582775 14.976800337948987
9.632943717393866 38.19961295322894 7.058130648155163 8.816315510222308 -3.1868005678285414 2.8568764538675206 5.077323418725328 15.42462772356686
17.70051265861687 -11.092015350021493 15.707606065254215 1.0586896469459002 11.855934071958806 -33.97318295075989 -15.3737086159489 17.952404303306956
-22.169622427467882 -8.805524566272158 12.743109565939125 11.0163112930351 17.77903110869971 -3.3180079367257074 4.897847538456542 18.8161172678411
31.49885139182687 0.17031037933694337 -34.27137129345524 -3.46592609620955 1.019671645596143 -13.048032088198873 7.589954592163263 -15.715689797574129
18.28703291915283 1.0542788951889368 -8.891665543848669 -12.10684384431287 45.389625051304016 -25.982960649601708 -5.782436369875346 18.23850123605731
-1.4047736868511094 18.45748527663653 19.78538652928211 -10.22083647449227 -24.812487251873296 6.399865106467645 -8.403757875916837 1.2950220019495833
-8.788749415251125 0.5685510139728536 25.714784236596863 7.886855369745574 -11.054889032593962 32.683603022382 -6.571036634821819 6.29615105939752
18.254967809535255 -12.84540447592391 -8.128516164297137 23.370132385031756 12.789986055629322 -24.412998526254995 -10.87682594309931 -46.59534051951763
7.299241590494523 -34.457039242895085 -6.542273231490947 7.526207241706909 5.538062291346211 23.69065144802744 -9.27581044539668 0.06664085412038312
3.1108806165181537 -4.997980635275894 8.746240498733297 -12.57702317700333 5.919579884334459 -3.4123063485320513 17.64518032328933 -9.854128777985729
5.997898236794929 16.335336994725033 -26.329732147751834 -13.865204739492444 -8.91071198310189 3.557395974456143 13.1558901624245 21.43174561064524
-5.05594514156542 -27.696787132320978 -14.832578335291343 -26.515199637983045 20.604787462835112 21.849623415624954 -15.194676638125177 14.637021385542702
-24.3669987990395 7.692337349533895 5.800408200930968 -22.310671715594935 16.35949471391818 -6.591101045338732 5.604335959198553 -12.8754624071528
-17.632977733781118 -7.422750277949163 3.6583376546685527 -4.5988969420955055 8.117648737073262 4.6438877641483325 6.757632943386758 -25.073236776252095
21.881086052078654 -21.86262095520719 -7.372881368392232 -6.131274144232356 -18.277418444377233 -37.72181036218497 -3.9327628326669064 -7.457468319765415
-6.376807992782117 17.79865110072682 -18.56995512569461 -23.557936274146662 11.6195834369606 -17.255425505347088 -15.389895997555525 -10.233524812856169
-1.7554276538774405 21.353441322517256 12.90326893186408 2.829437228898906 -12.47103399738199 -8.335647994344887 -4.934258941757708 -11.655558653400044
-25.5615666634676 16.49587244450371 -3.809948983491335 -1.4840023421794815 -1.3445527190510815 -19.25540978867663 30.703757534069098 25.670134968481896
-5.572562436097617 -12.148547347059813 -16.58198371431699 -4.12240293425974 -24.005316730144095 29.24734097871515 12.231434793126724 -8.274302729286157
11.940872158541083 -6.127860250685236 -5.1073838298083185 -12.230652725327126 -13.36243437490451 -13.054744309201336 -13.691906336935533 -33.824152475306164
9.274983798932112 12.81821127735988 21.41233651747327 -4.083918373895118 -23.665602253334807 8.631366556004116 -4.446583440366649 -23.481452368190475
11.211139396552458 -5.10292305701567 20.957394439114907 7.69280572886432 7.536686973903107 -9.615848647475291 -5.859086601562572 -19.615207841539334
2.159510427699435 -1.2388032434087657 22.697785562129965 -33.24433498211605 -5.785712256304774 1.567268554721363 -29.522042599627532 2.7036195687315447
-10.6109680338905 8.129660674876046 6.522889937610338 14.529920092610386 -29.816373474269106 0.9829818349109335 23.708101355544144 -26.431596982049243
-38.69472113834316 -0.8223318335575808 6.175443977278373 6.033641438791451 4.241624897367443 14.62218802879608 0.2748899952455339 -0.17621886853105884
15.366200160805526 -17.0423481426871 18.051024333132887 -9.856693786849338 -17.686932234236277 14.929755103785963 11.264977726916046 -12.78042559932888
-2.051772019137313 -12.685828676760835 34.832293008786635 -11.506713732655465 -10.97070630213127 -10.587857989529684 0.10186362468345733 9.718687913497511
00000000: b832 fdb0 5d02 eebf a61c e60c 6ac2 2040
00000010: 2d30 8c24 8278 2440 e026 c3c8 b898 3640
00000020: 5e89 e45b 7cd6 3f40 c823 6085 b2af 24c0
00000030: 0caf a5a3 7fdf 31c0 2a8b d14b 50be 2bc0
00000040: 6ccb b240 bd3b 3140 6861 0e26 27cf 2740
00000050: 6b98 47b1 ea6a 1640 5041 52ec 6b71 08c0
00000060: fa13 631c 1071 1ec0 f4a6 e645 f2f9 04c0
00000070: 36ad 77af c6ad fbbf 509c c795 93e0 2340
00000080: 66d4 d713 c356 2c40 0001 61cf ff69 2640
00000090: 9d32 dbad 4b74 2540 646a eaf1 cbd0 3b40
000000a0: 3a32 5269 8212 3740 e859 40ec 5b3a 3340
000000b0: a212 8b7e 6793 4240 a4b7 8989 1d09 25c0
000000c0: 69ff 2e44 74a0 41c0 61f7 6a01 1d86 3440
000000d0: 569f 974a 7334 2240 6ccd 4821 43e5 20c0
000000e0: 3e3c 340e 431c 30c0 7546 f4b9 da23 2440
000000f0: 430b 1358 cefa 19c0 80db d1ab 7f4b 1840
00000100: 34e0 936f b4b5 2d40 cc23 3d2d 32d0 1140
00000110: 989c a0d1 5c8d 18c0 9121 cb32 6e94 3d40
00000120: a87f 7edb beb6 1a40 5282 2937 8a62 2540
00000130: 30a7 d2d6 0a97 1c40 e06c 842c 1ff4 2d40
00000140: a5d4 ec32 1144 2340 f7fc d0ea 8c19 4340
00000150: 07e3 c299 863b 1c40 a73e 471b f4a1 2140
00000160: 2095 cd4b 917e 09c0 6f96 d00a e2da 0640
00000170: 908f cade 2d4f 1440 a263 13ce 68d9 2e40
00000180: 8731 2fcc 54b3 3140 0525 cea2 1c2f 26c0
00000190: aa6f 9957 4b6a 2f40 5ef1 238e 64f0 f03f
000001a0: bc30 9dfd 3cb6 2740 ee44 4942 91fc 40c0
000001b0: c877 57bc 56bf 2ec0 e645 b7c4 d0f3 3140
000001c0: 87a4 1a60 6c2b 36c0 ea86 48b7 6d9c 21c0
000001d0: 4a1b 66db 787c 2940 4f48 2cf4 5908 2640
000001e0: 8f6e 2e95 6ec7 3140 c2d7 c0be 478b 0ac0
000001f0: 1cdc 5958 6597 1340 1214 af0f edd0 3240
00000200: e375 8db9 b47f 3f40 90f4 b502 bbcc c53f
00000210: 533b 674b bc22 41c0 7095 0c76 37ba 0bc0
00000220: 2ae7 2737 9350 f03f 0cf2 6fa9 9718 2ac0
00000230: 6cdd 7d0e 1d5c 1e40 d052 a5e4 6e6e 2fc0
00000240: 06a3 48fd 7a49 3240 2231 fb8b 53de f03f
00000250: a599 db62 88c8 21c0 9434 823c b436 28c0
00000260: cb86 d23b dfb1 4640 544b 234f a3fb 39c0
00000270: 2543 efff 3621 17c0 f6eb c06a 0e3d 3240
00000280: e6e8 34f9 f379 f6bf 2f8e 4dc1 1d75 3240
00000290: 51fc 7117 0fc9 3340 9e6a 777a 1171 24c0
000002a0: 7536 1f2a ffcf 38c0 415c 0c3d 7699 1940
000002b0: 6721 315a b9ce 20c0 2195 9ffd 68b8 f43f
000002c0: 447c 9ef6 d693 21c0 9adf 63e5 9131 e23f
000002d0: 3ee1 8719 fcb6 3940 5f5b 65d0 238c 1f40
000002e0: e0cc 4f6a 1a1c 26c0 ea49 c84d 8057 4040
000002f0: ac82 ddd3 bd48 1ac0 0427 2b39 422f 1940
00000300: 977c 0392 4541 3240 6ef8 ffda d8b0 29c0
00000310: bf53 e5de cc41 20c0 e1e6 f8fe c05e 3740
00000320: ad72 620d 7994 2940 b88f 7b45 ba69 38c0
00000330: b3ca 7b54 efc0 25c0 eba7 3e1e 344c 47c0
00000340: a61b 3363 6c32 1d40 8b9c 0c43 803a 41c0
00000350: daff 8aac 492b 1ac0 bb32 3812 d61a 1e40
00000360: d42b 22cd f926 1640 8136 8688 ceb0 3740
00000370: 74bf d506 378d 22c0 1049 0601 600f b13f
00000380: 74a5 6d60 15e3 0840 8034 baa2 eefd 13c0
00000390: 3e05 123c 137e 2140 d286 f494 6f27 29c0
000003a0: 961a 6559 a6ad 1740 d606 5745 674c 0bc0
000003b0: e68c a489 2aa5 3140 d40a 005e 50b5 23c0
000003c0: c514 0f09 d9fd 1740 a27b 31a5 d855 3040
000003d0: b208 7753 6954 3ac0 b2ed 981d fcba 2bc0
000003e0: f0fe 4ed7 48d2 21c0 82b0 4905 8c75 0c40
000003f0: 41c3 dad5 d04f 2a40 b1e9 5de1 866e 3540
00000400: 0493 e5ae 4939 14c0 9c97 39a4 60b2 3bc0
00000410: 6fde 22b5 47aa 2dc0 580c 9c1f e483 3ac0
00000420: 5ae8 e559 d39a 3440 6606 90eb 80d9 3540
00000430: f215 04a8 ac63 2ec0 5c84 c3aa 2746 2d40
00000440: c28b 1fa2 f35d 38c0 8a30 0815 f4c4 1e40
00000450: 79cb 1935 9e33 1740 c045 7a2e 884f 36c0
00000460: 0c5d 77d8 075c 3040 f071 a997 495d 1ac0
00000470: e337 b20b d76a 1640 8a32 cf9b 3cc0 29c0
00000480: a4af 29d4 0aa2 31c0 90aa e872 e5b0 1dc0
00000490: d636 4488 4644 0d40 fee5 6f3d 4565 12c0
000004a0: 6d4a 8c74 3c3c 2040 213f 6550 5793 1240
000004b0: 96df 28ee d007 1b40 02de 36a5 bf12 39c0
000004c0: bba3 02db 8ee1 3540 8c75 17ba d4dc 35c0
000004d0: 2421 0a9d d47d 1dc0 4727 b1ba 6c86 18c0
000004e0: 4ce8 29e5 0447 32c0 cabf 2d48 64dc 42c0
000004f0: 58d4 295c 4c76 0fc0 e464 4193 72d4 1dc0
00000500: 7e7b 57f4 d981 19c0 3d89 0666 74cc 3140
00000510: c10b 4194 e891 32c0 46b6 62e9 d48e 37c0
00000520: 32c7 4d0a 3a3d 2740 af07 e090 6341 31c0
00000530: 3faf bc72 a0c7 2ec0 250b 7490 9077 24c0
00000540: a15c be4e 3b16 fcbf 4044 6921 7b5a 3540
00000550: bab2 f343 79ce 2940 35a5 61fc afa2 0640
00000560: 9e1e 3c5e 2bf1 28c0 cb5b cd0d daab 20c0
00000570: 3461 4360 aebc 13c0 0ded 4162 a54f 27c0
00000580: 001e 36d5 c28f 39c0 8a21 1c7f f17e 3040
00000590: 9830 5c88 c67a 0ec0 8892 6d3d 79be f7bf
000005a0: 0628 41b6 4983 f5bf c471 3189 6241 33c0
000005b0: f023 2974 29b4 3e40 2689 1df7 8dab 3940
000005c0: 55d4 a7ce 4d4a 16c0 150f db65 0e4c 28c0
000005d0: cccb 7be2 fc94 30c0 f151 de31 577d 10c0
000005e0: 2e17 ee6f 5c01 38c0 ce8a 06bd 513f 3d40
000005f0: 8845 079f 7e76 2840 a5f9 4668 718c 20c0
00000600: 404d ddfe b9e1 2740 169b 2ccc ed82 18c0
00000610: 7695 d406 f66d 14c0 cc06 301d 1876 28c0
00000620: 7852 96ff 90b9 2ac0 de52 3372 071c 2ac0
00000630: 0911 228c 4162 2bc0 c02d 0cd4 7de9 40c0
00000640: c0af 2ead ca8c 2240 49f5 aa96 eca2 2940
00000650: 867e d1e2 8e69 3540 f2a6 bdb2 ee55 10c0
00000660: 8737 c6e8 64aa 37c0 d3a6 2b7a 4243 2140
00000670: 5d3d 5d2b 4dc9 11c0 b8f5 5f76 407b 37c0
00000680: 122e 8676 1a6c 2640 ed8b 6fa9 6469 14c0
00000690: ec5e 4dcd 17f5 3440 96d0 6fdd 6ec5 1e40
000006a0: 8669 2445 9125 1e40 6962 9083 503b 23c0
000006b0: 7692 e865 b46f 17c0 79a7 d742 7e9d 33c0
000006c0: 6ab8 3267 ad46 0140 f7e8 8959 23d2 f3bf
000006d0: 1cf8 1813 a2b2 3640 85ba 625e 469f 40c0
000006e0: dd94 f3c0 9124 17c0 323d 2931 8813 f93f
000006f0: e284 7495 a485 3dc0 8b38 e44b 03a1 0540
00000700: 18ec 58cd d038 25c0 fe56 4ce2 6242 2040
00000710: 89c6 b575 7017 1a40 8282 b6af 510f 2d40
00000720: c64e 1dda fdd0 3dc0 1d25 3052 9674 ef3f
00000730: bc50 6421 46b5 3740 2cf4 ca23 7d6e 3ac0
00000740: 0b83 4c9f ec58 43c0 63dd 72d9 8a50 eabf
00000750: 5cc3 0296 a7b3 1840 4399 bde6 7222 1840
00000760: bf5e 6084 6cf7 1040 a348 e76d 8f3e 2d40
00000770: 40f0 e434 cc97 d13f f8b6 a302 578e c6bf
00000780: 3ce6 6496 7ebb 2e40 2fe3 ef53 d70a 31c0
00000790: 201b 42ee 0f0d 3240 9a68 6a91 a0b6 23c0
000007a0: ef9c 78ca daaf 31c0 7f19 68dc 08dc 2d40
000007b0: b18b 1e29 ab87 2640 5028 b4f1 938f 29c0
000007c0: 5757 c872 076a 00c0 88b1 b2ef 245f 29c0
000007d0: cab6 ca93 886a 4140 ed60 7cfb 6f03 27c0
000007e0: 8c59 9b6a 00f1 25c0 d271 efb8 fb2c 25c0
000007f0: 28df aa08 bc13 ba3f 2c01 b9dc f76f 2340

arr_5 f8 [32]
2.859668208418386 -8.582844207248879 14.031906344993718 -3.8354682752307525 16.17848585833137 27.269947719592704 -2.570609584731802 1.8074837456978268
2.878643461986405 14.313454796553149 -2.1494436105280372 -6.286914345573177 -8.79679031894031 -22.229581723925925 -0.6586549902183854 -23.39219764689773
-21.731326239719 7.868454148252596 18.94695041331273 -3.5789126720663558 24.93294403785144 27.72571425780063 -28.375425566573462 -17.379175683837367
19.671017918722 1.9055111620962084 22.259632938146265 3.4096919448970873 14.370960372091591 -8.48614433357913 11.841471754391046 -13.789215455291824
00000000: 058b c4b9 99e0 0640 0e98 518e 6a2a 21c0
00000010: da90 4807 5610 2c40 60b1 b7fd 09af 0ec0
00000020: ec54 cc3f b12d 3040 cb47 334b 1b45 3b40
00000030: 68a8 09c2 9b90 04c0 112e 7d13 74eb fc3f
00000040: 4c9b 3039 7607 0740 b2f0 a725 7da0 2c40
00000050: 3d83 de7d 0f32 01c0 ccf5 cbdf cc25 19c0
00000060: 703c 93e6 f497 21c0 6a05 2cde c53a 36c0
00000070: acb9 4aa1 b313 e5bf 71fe a210 6764 37c0
00000080: bd4c 4a32 38bb 35c0 2048 530b 4c79 1f40
00000090: a31c a057 6bf2 3240 a91e 8ef7 9ca1 0cc0
000000a0: f391 a36b d5ee 3840 9f7e db68 c8b9 3b40
000000b0: ea83 d2e3 1b60 3cc0 1a85 59a8 1161 31c0
000000c0: e4f0 8fd4 c7ab 3340 d5db b545 f97c fe3f
000000d0: 774d e24d 7742 3640 1824 0692 0c47 0b40
000000e0: a27d 9484 eebd 2c40 56b7 fbe8 e7f8 20c0
000000f0: 0d3c c362 d5ae 2740 c8f3 530c 1494 2bc0

arr_6 f8 [32, 1]
-40.12610580980662 -2.257563634307302 18.508271991130485 -19.387413871366736 22.399269605842097 -24.227533265010866 -15.293616366760123 -22.789242832149714
-40.4917041425892 -4.971562213256947 -9.047699964599829 -6.280523394509999 13.036391652758294 -19.324969758685484 -19.61818895616758 -12.6127529226651
2.287424643030317 7.30282992078095 12.868887028124721 23.935702033488642 -9.357757597323115 1.1081216607716537 7.865895842796347 -10.114712635263754
23.753439248296928 -20.42386943704444 -12.52174377716871 -21.474951453118905 -7.726113359775718 0.5070917087972917 0.5919483876212638 -26.92651658938251
00000000: 3e7a 343c 2410 44c0 fee8 cf85 7d0f 02c0
00000010: d460 fb1c 1e82 3240 7189 338e 2d63 33c0
00000020: ed60 6b88 3666 3640 49f9 bb9e 3f3a 38c0
00000030: 329c 69e2 5496 2ec0 79af 78d1 0bca 36c0
00000040: 3add 4d29 f03e 44c0 32df 6f34 e1e2 13c0
00000050: 08f4 3721 6c18 22c0 c1bb 5486 411f 19c0
00000060: 76e3 3ced a112 2a40 40be d537 3153 33c0
00000070: f67c a5a1 419e 33c0 03c0 46c0 ba39 29c0
00000080: 9909 8f4a a54c 0240 8f04 f80b 1936 1d40
00000090: ba6d b3c2 debc 2940 69a2 202b 8aef 3740
000000a0: f0cb f800 2cb7 22c0 2b0e 50c7 ddba f13f
000000b0: ee35 5a66 ad76 1f40 a6ca 519d bb3a 24c0
000000c0: 48f5 0265 e1c0 3740 3be1 19b5 826c 34c0
000000d0: 89a9 1700 220b 29c0 5855 1e6b 9679 35c0
000000e0: 9ab3 b542 8ae7 1ec0 8e6d 2b64 183a e03f
000000f0: b31a b8be 3df1 e23f 6e99 f230 30ed 3ac0

arr_7 f8 [1]
1.1650550191146456
00000000: 7c35 52bb 10a4 f23f
