weights/global_round_36.npz (npz, 129966 bytes, 8 tensors)

arr_0 f8 [43, 128]
0	0xc02491d3ac62e77f	-10.284818064759518
1	0xc03d7e0536e6c051	-29.49226706632209
2	0xc033cc1b8e39caa9	-19.79729546461991
3	0x40378177026e21d9	23.505722190749882
4	0x4017a84cd9c9ccb3	5.91435566229045
5	0x403121ce10272ce7	17.132050523342425
6	0x4011e2f1bf59a78c	4.471625318381381
7	0xc01298152725410f	-4.648518191956341
8	0xc02d51771ed49b32	-14.659111941769513
9	0xc034eedc3c84efbb	-20.933048040824115
10	0x40314a481cc2412a	17.290162846970965
11	0xc03ecade3da4d302	-30.792453625431342
12	0xc01260c8fa5f4554	-4.594516670288915
13	0xc01da37e72247bf9	-7.409662040211509
14	0x400b9ebd510eeca5	3.452509530322987
15	0x4030da83c638d068	16.853573216314913
16	0x402b546db6d6dda4	13.66489955304025
17	0xc038b487de5469b9	-24.705198188408506
18	0x401bc044381af59c	6.937760235448334
19	0xc023034482528a56	-9.506382057739
20	0x4017b83e41677903	5.92992498582885
21	0x400a12dc02949d76	3.259208698425648
22	0x401e028f76b5291e	7.502500395590941
23	0x4033c06e4038e208	19.75168229473823
24	0xc02bcfa8ab27c56e	-13.905583714108356
25	0x4023bd5599ed2f22	9.869793710902346
26	0x401c79f43a6e5f56	7.119095719324681
27	0xc027ab8e3f14a1e4	-11.835069628971674
28	0xc030cd77074e2739	-16.802597481327414
29	0x4021e017dd406d84	8.937682069887849
30	0x4024bc4d0d819702	10.367775365895344
31	0x4039113475b777f7	25.067206723491804
32	0x40232f5006d5ecaa	9.59240743028052
33	0xbfe49b8d6e0d7ad2	-0.6439883374658513
34	0xc00a73bfa2fe48e4	-3.3065178617335835
35	0xc0312fcbefcae980	-17.186705576933946
36	0xc02a404e38a0728e	-13.125596780382036
37	0x40357e50a574e0f0	21.493418065104322
38	0xc02cc40a87e5bb8b	-14.382892844003228
39	0xc009134d1730fb27	-3.134424382383617
40	0x40351393d3f0534a	21.07647442452734
41	0x400ba9d31d92c116	3.4579222021494713
42	0xc039e29de7307b81	-25.885221909843953
43	0xc01a3c13e91c7c7a	-6.558669702876722
44	0xc034a932877aba68	-20.660927264655044
45	0x3ffeaeff0a75e22e	1.9177236946690175
46	0xc02af38b24f265b2	-13.475670961942203
47	0xc034847d10f3c5af	-20.517533359064767
48	0xc02f1edd7c597bf3	-15.560283552096712
49	0x401a67083d35b834	6.600617367175847
50	0x4035dd7394240f94	21.865044840625686
51	0xc0304b90d93b0473	-16.29517896357397
52	0xc031b5b4a053d135	-17.70978738828963
53	0xc02c12b3c4a93fa8	-14.036527772579419
54	0xc025594ecf840705	-10.674429402224186
55	0xc03b4442d38377e6	-27.266644687268034
56	0xc004b601dab78f74	-2.5888707244175126
57	0x401889bbc83f9873	6.134505394822656
58	0x4028db96d4535d94	12.42888511197706
59	0xc023de96b2b02dff	-9.934743484503086
60	0x402109a77624672a	8.518855754798626
61	0x402cdfcc5665deca	14.43710584634336
62	0x4032dc9325399950	18.861620260774828
63	0xc0227a0996fa16d8	-9.238354414013358
64	0x4020cddc211b93da	8.402070078483963
65	0xc02dbe2b819de226	-14.871425676844478
66	0xbfff7d5dc54a211c	-1.9681070047973384
67	0x4026d3cb775b6a61	11.413661699208378
68	0xc02386fa9b550a28	-9.763630727892703
69	0xc03ebb86e261f5f1	-30.73252692119235
70	0xc022204163b2630d	-9.062998881841418
71	0x3fd463488ffca098	0.3185597807046263
72	0xc033755e50ec07c4	-19.45847039949855
73	0xc030068689950437	-16.02549037826631
74	0x3ff1b7857696b248	1.1073050148362586
75	0xc014945559c4c00c	-5.144856836923292
76	0x4024c8f025566d74	10.39245716743492
77	0x401ed58cc682823a	7.70854482814371
78	0x4034bf644f5ce2ac	20.747624359299763
79	0xbfd4513c9bd9804c	-0.31745829791725977
80	0xc044392321cc255a	-40.446384644203775
81	0x3fd7acf21201670c	0.3699307609400513
82	0xc024259df60070fa	-10.07347077136409
83	0x40405f99a4e9abe2	32.746876348588344
84	0x402ac059613520c3	13.375681913123463
85	0xc03e546f90418dc4	-30.329827323917712
86	0xc02cd178104264ec	-14.409119136910213
87	0x403543b495b25d82	21.26447425465222
88	0xc02544d7049177b1	-10.63445295596816
89	0x4016ef2ee6571bc6	5.733577345911675
90	0xc015f8c360137a50	-5.492932797612028
91	0x3ff2beffe241886c	1.1716307485699202
92	0x400a592212a9d143	3.293522020156304
93	0xc031f1bab9ab10d0	-17.94425545145424
94	0xc03e2ef7c1e39df5	-30.183467977591096
95	0xc010c4f4c73fb233	-4.1923400051714905
96	0x402b5b175338d962	13.67791233128509
97	0x402150dedb2c8262	8.657950257476106
98	0xc000cffeb0ff434c	-2.101560004034047
99	0x3ff7d2e965c8671f	1.4889921165362876
100	0xc023992b73e56fd6	-9.799159642941884
101	0x401b514a6cbe7e0e	6.829385470511182
102	0x4014e7213dc8087d	5.225712743124061
103	0x4021a9fbc658d79f	8.831999014229778
104	0x402f0740e865bfb4	15.514167082233918
105	0x4028a992eb3d629e	12.331199027293504
106	0xc025eb3a92e52358	-10.959431257697062
107	0xc0029749450faf87	-2.323870219746769
108	0xc00e85e67e43aa17	-3.8153810371779957
109	0x4020456db37373c2	8.135602577060016
110	0xc03a4ca5c661e981	-26.29940452471192
111	0x40389f603c864442	24.622562201290073
112	0x4026a2aa5748c3fc	11.317705848343387
113	0x401a75b612c79b43	6.614952367241872
114	0xc0271a56d8e42676	-11.551443841791507
115	0xc011da07571469ee	-4.462918625470122
116	0xc03380ce2b44ff44	-19.503145889611247
117	0x401f3f8ccfabca59	7.812060589657073
118	0x40255e9516e8f20a	10.68473121255467
119	0xc030501e134c1143	-16.312958913870954
120	0x401f6b0e24935e57	7.854546138281498
121	0x4007917e6fce2f83	2.946041940192971
122	0x4022907da29d3256	9.282208520592729
123	0xc01702662b16861d	-5.7523428661820875
124	0xc005b2b8d5549f56	-2.712266604084941
125	0xc021614c257608d1	-8.69003407541132
126	0x4049dfa61b4f01c4	51.74725667341002
127	0xc038a738cd41353a	-24.65321047632208
128	0xc03cc90107cb59d8	-28.78517197336791
129	0x4031c013ad89ed84	17.75030026070955
130	0xc02cf163bdf3a6ba	-14.471464096062267
131	0xc02baae43d1d090a	-13.833772573274945
132	0x3ffe0ef5ac74b8c6	1.8786522614059762
133	0x3fdf0630c25bcfd6	0.48475283603988595
134	0x4029436900f1ae0f	12.631660489561026
135	0xc02b0fc8546ea4f0	-13.53082527018202
136	0x3ff9ab8f2b2ffe4d	1.6043845831881243
137	0x401c784fd8801b0c	7.117492087191533
138	0xc037fda0d6ae8630	-23.990735452278557
139	0xc0242cd96fd82c8a	-10.08759641183703
140	0xc0003f5aa8e79645	-2.030934638564562
141	0xc02ab9077de855a8	-13.361385283099324
142	0x4015ab858958bf53	5.417501588861188
143	0x40217a98c33212a7	8.739446735250864
144	0x403d9e6e78ba6c5e	29.618873162759307
145	0x3ffd8f7112411d9f	1.8475199425755375
146	0x401b79cd20ca4f84	6.868946564052639
147	0xc038eb67f1d696c6	-24.919554819955714
148	0x403290e0a06dab03	18.56592753102724
149	0x40528659081ef378	74.0991840650803
150	0xc0245e775b779612	-10.184504373882223
151	0xc0372ca6cf5c2429	-23.17442031859915
152	0xc01f5c3710f08403	-7.840053810768043
153	0xc02b9f900b2b4dca	-13.81164584067928
154	0xc032da44d9192d5a	-18.85261303772618
155	0xc034deade3fa0b81	-20.8698408589803
156	0x40423acc01d0c396	36.459350802360106
157	0x40311eaad277d6a3	17.119794039018085
158	0xc03976b7baa62205	-25.463740983543193
159	0x4026e7055a08c067	11.451212705200488
160	0xc032c7d373bc54be	-18.78057025287557
161	0x40358967dcb6a559	21.536741060820848
162	0xc02edff0ff84762c	-15.43738554470027
163	0x4021f4b8b7035efa	8.977971762811183
164	0x40380a897b0eb379	24.04116028889573
165	0xc03860f9b151aff2	-24.37881000751799
166	0x4013a2aa6b4c15ba	4.908853222388126
167	0xc02bacbe6bbe478f	-13.837390295960885
168	0xc0327d240d1f1d40	-18.488831348510985
169	0xc0330238631b4269	-19.00867289939416
170	0xc01e50b687f80b25	-7.578821300997139
171	0x4025137311d28475	10.537987286518026
172	0xc010adb74a445a16	-4.169644508764142
173	0x4039ea8288b981ce	25.91605429200154
174	0x3fd7c34ab4d0eb30	0.37129466684170875
175	0x4032d7825e8e7956	18.84183302858704
176	0x403178af3b89847b	17.471423836778268
177	0x402bde56a9e54aa7	13.934254941215228
178	0x403d2bcb1b0e4013	29.171067896823
179	0xc02be2f8c99b7cd6	-13.943304348211694
180	0xc0309d43b9acae0a	-16.61431465593163
181	0xc041f524c5a7c8d0	-35.91518469517325
182	0xc031a74fcaa9733f	-17.653561273927377
183	0xc017bde442f4d795	-5.935441061204888
184	0xc034692e9086fde0	-20.410866768795927
185	0x4018235ff61aa974	6.034545750977816
186	0x402956ec1d65b55a	12.669770163217141
187	0x401772065a8c8562	5.8613523624675015
188	0x40354526ec3941f7	21.270125164011883
189	0x40302acfe31a670e	16.167234605737626
190	0xc02a3d1432d419ac	-13.119294727698467
191	0xc007b4b52d8340bc	-2.963236194198627
192	0xc02bc038a6b4580a	-13.87543221427406
193	0xc0377a556711167c	-23.477865640327295
194	0x4001e98bd89dea14	2.239036266631283
195	0xbff79acb0538b51d	-1.4752912715878843
196	0xbfdb1afe5f8bb4c2	-0.42352256136548416
197	0x40374e11159a3c3e	23.304948187022312
198	0x40206e9619be5067	8.215988926393221
199	0xc03093aa1417190c	-16.576813941611405
200	0x400af09ff9a05e8f	3.3674926282945488
201	0x40423f5cb0a522ef	36.49501617492012
202	0xbff5bf1c4b74949e	-1.3591578433491018
203	0x402a0a23f52ffaae	13.019805585963095
204	0xc014c01df611445b	-5.187614292911429
205	0xc026752f92ff1246	-11.228878587376254
206	0xc026b992ac8e7554	-11.362447159185344
207	0x4037a389c1c7a9a6	23.638820754285597
208	0xbfeb2bbd3dcdbc97	-0.8490892607786859
209	0xc03bcbe0bd84c1a6	-27.79639801493763
210	0xc041c8b10a85be34	-35.56790286569995
211	0xbff3e040990f5a0c	-1.242249105349063
212	0xc011c29f50dd09d4	-4.440060866824258
213	0xc039145c30a59daa	-25.07953170817715
214	0xc0143708aea19358	-5.053744057285108
215	0xc028b177cdb332ca	-12.346617153286747
216	0x401532a26fa74e03	5.299447769724341
217	0xc033002ea7beb70c	-19.000711902676855
218	0x4008f2d16e739bd0	3.118563521292778
219	0xc0125773e614ec73	-4.585403056170537
220	0xc036b483ed9b53c7	-22.705138063832944
221	0xc024c525ea6e419d	-10.385054899176618
222	0xc0441cfe5454e9c8	-40.226511517964866
223	0x403d080aa303db99	29.03141230434594
224	0xc02d69ce62b87cba	-14.70665272237817
225	0x4035fae480f294c4	21.9800491897811
226	0xc01e5fddf2038200	-7.593620091880894
227	0x4014e590378ed63f	5.224182956784317
228	0xc0404fc8ab91f3b4	-32.62331146837769
229	0x402aa7a1b3fdff8a	13.32740557170452
230	0x40207b6fd232f7fc	8.241087502214206
231	0x40097497568cf2d4	3.1819292794956286
232	0xc03039dfb5e038bf	-16.226069800607316
233	0xc01b8f3520bdfd2e	-6.889851104351051
234	0xc01e92472474039d	-7.642849511700573
235	0x401d4fe0eaf9205f	7.328006431060287
236	0xbff8419e259c96ce	-1.5160199612814043
237	0xc01fb7c9f821387d	-7.9294813890720635
238	0xc022a3df3f37500c	-9.320062613966023
239	0xc03043d366d7cb78	-16.264944484409597
240	0xc02ac8f5c3e7747c	-13.392500040057932
241	0x4006464d24b5800f	2.78432682684798
242	0xc02c31e3150a9f92	-14.097435624644081
243	0xc027b933a05ae513	-11.861722003074226
244	0xc01b6568326df51f	-6.849030292474054
245	0x3fd45f35e325fef0	0.3183111875768949
246	0x4016cd9f01da9d8f	5.70080187699149
247	0x401a79caf82d431a	6.618938329470234
248	0x402be5525b20b4b2	13.94789395117036
249	0xc02330eea3e2b50e	-9.595570680069184
250	0x401fe71d7dc60c8c	7.975698437893822
251	0xc032b68d631fa8de	-18.71309489748898
252	0xc03c4f10910feee0	-28.308846537008208
253	0xc0276c413dda5176	-11.711435254001781
254	0xc02ee2e3cf593f89	-15.443144302029184
255	0xc021065438287c4c	-8.512361292783815

arr_1 f8 [128]
0	0x4038584334a5c808	24.3447754769077
1	0x402d548a271ba132	14.665116521952402
2	0xc029d050d072d1f6	-12.906866563812383
3	0xc01a7be64ba4cfb2	-6.620995695051464
4	0x403671e5afd8d98b	22.44491099399742
5	0xc0208cb2e491a94a	-8.274802344113272
6	0x403009175ce5fa8d	16.03551273932185
7	0xc0110978e23dc34a	-4.259250197429376
8	0x402f732582cadf66	15.724895560517052
9	0xc01c72c535f05475	-7.112080424111913
10	0x402559205a8e90ec	10.674074964430893
11	0x403928031fbf9f62	25.156297668726786
12	0xc013845045919df4	-4.879212462437398
13	0x4040e5e6bba50749	33.79610391195326
14	0x4034c9fde421f144	20.789030321394662
15	0x401e4bac3e999375	7.5738992482409815
16	0x402d399925f64399	14.612496553718119
17	0xc01acdda358c1b86	-6.70102771442078
18	0x402e00a9105e22d4	15.001289855471818
19	0x4039929da53bba73	25.572717978555783
20	0xc0320cd70f97772e	-18.05015656898393
21	0xc01ef7740b3af397	-7.741653609727016
22	0xc02355426e008857	-9.666522443356525
23	0x4032b2a7cb35a36f	18.697872830004993
24	0xc01e901d5034e434	-7.640736821392284
25	0x4016662c4636956c	5.599778267938159
26	0x3ffbf4b4934d75da	1.7472425226218236
27	0x4031b98c2399267b	17.724794602289403
28	0xc021d4464ebf6554	-8.914598904479739
29	0xc02af1deda4b635e	-13.472403356268554
30	0x402124247034a245	8.57059050219062
31	0x4004b9c3d281be36	2.5907055326313424
32	0x402d34fff5fbf23c	14.603515326504855
33	0x40252aeee2a741ce	10.58385380069458
34	0xc036fde4c4c4d823	-22.991771982248007
35	0x403295a5d73203cc	18.584561776838925
36	0x40346000e991bb6c	20.375013921813135
37	0xc0371df96a05edee	-23.117087007949458
38	0xc03b0c8f47389fdf	-27.049061251949635
39	0xc0376d4e461e0d8e	-23.426975614869257
40	0x4029adf627c686ea	12.839768641456846
41	0xc00261a3d0cac398	-2.297675734699123
42	0x401e02700c3daa80	7.502380553497119
43	0x401dd56e062b0288	7.458427521109691
44	0x4023127908f9888a	9.536079674206366
45	0x403ebe3ed9d39830	30.74314652839547
46	0xc00b048c7184b063	-3.3772209995859597
47	0xc03ede2d570dba18	-30.867879334307958
48	0xc025fcc82eb88ed8	-10.993714771298457
49	0xc01825175a474fda	-6.036221895792517
50	0xc02ac472adbaebca	-13.38368742853881
51	0xc016ae6c23acfba7	-5.670334393914266
52	0x401a52c06dc15ca0	6.580812182356709
53	0xc0108efc3f9de120	-4.139634126673883
54	0xc043aec6e47cbb33	-39.36544471826928
55	0xc033ce3ceeea7d0a	-19.8056172678453
56	0x402ee207eee89b5e	15.441466775793455
57	0xbfe0fc4b65077276	-0.5307976697182102
58	0xc01968e61c37f868	-6.35244030086151
59	0x4023f6e4fe3bafbf	9.982215828691436
60	0xc014749b4b00a37c	-5.1138736457004335
61	0x400fe6dcac483ba1	3.9877255878013362
62	0x404094122fb07244	33.15680500140709
63	0x4026a202a3555254	11.316426376500353
64	0x4014431dba615af1	5.065543091003506
65	0xc00ef498ac13ca1e	-3.869431824068001
66	0x400e6b1c69c2011e	3.8023002874689515
67	0x40172f2cb39e267e	5.796068960693104
68	0x402e851a061ad5bc	15.25996417119574
69	0x401ba7e0177f097e	6.913940779808739
70	0x404134a9937be72b	34.41142505216552
71	0x4040a6c2dfde700e	33.30282209740845
72	0xbfc19d89ceecb3ce	-0.13762018779507773
73	0x40233750e1795021	9.60803894620773
74	0x4023e95b44ae0fe6	9.955774446723762
75	0x3fefa8002e5e20a7	0.9892578988665449
76	0x402a230c1b04c097	13.06845173295032
77	0x403c9cf458439310	28.613103405473396
78	0x401b7886eba56758	6.867702180834236
79	0xc03b21aabfdda83a	-27.13151168023635
80	0xc0309274f3aa9b5c	-16.57209704318244
81	0x401116438f16f314	4.271742091918686
82	0x3fe726407efd7916	0.7234194259906725
83	0xc02a0df52b409d74	-13.027261115682201
84	0xc01704621c64bd81	-5.754280513428399
85	0xc0306d4a6d371369	-16.426916910120244
86	0xc02628834287e0c3	-11.07912643345515
87	0x4025bc8737ea204a	10.868219134645319
88	0x3fd8c5ee65ea47ed	0.3870807643189654
89	0xc000c56bdd089bce	-2.0963971393825664
90	0xc02d38322699ba9d	-14.60975762011122
91	0x4024125d46a274fc	10.035867888766454
92	0x3fdf1c9bd12ce975	0.48612113406456753
93	0x403d8c1204fc4526	29.547149955357916
94	0x4021192f893521c0	8.549190795646496
95	0xc0369ca0cb3fdfc6	-22.61182852086474
96	0x3ffa046f4b7ec0a6	1.6260827015903856
97	0x40260967f8566139	11.0183713536686
98	0xc018d45e20968b74	-6.207390317142984
99	0xc035d154775229af	-21.817695100364002
100	0x4022d55cb0d54011	9.416722799331213
101	0xbff0275b7fa8fb68	-1.0096087443086734
102	0x40174fba848c5d27	5.827859946314937
103	0x403e26e9b4687a29	30.152003551013113
104	0xc03360305545016a	-19.375737504336406
105	0xc0306e8aa7e27988	-16.43180321959656
106	0x402e5a3ca77d189e	15.176244005222824
107	0x4025f9af5d501c70	10.987666049985108
108	0xc0324a5f8f8109ba	-18.29052063846914
109	0xc02f517023bb212a	-15.65905868205353
110	0xc02298b9d4484a69	-9.298292764496368
111	0x40121d4bb2f2ff88	4.528609081345969
112	0x40401334e22b7c66	32.15005137561165
113	0x40025ce6e1d050ff	2.295362247628986
114	0x402239c4ba3b67e9	9.112829036475846
115	0x4039059b2ad4ff8b	25.02189891529228
116	0x401800cd3082b7de	6.000782735803993
117	0xc02cabaf960b73bc	-14.335323990724525
118	0x401ff1506ea9e6fd	7.985658387298597
119	0x403517bc4c98501a	21.092716967759863
120	0xc033d1fb85571cdf	-19.820244153754967
121	0x401dd0ebadb19fe2	7.4540240420974175
122	0x4022a11abb4508b2	9.31465707032871
123	0x4007cc984808f552	2.974899828694711
124	0x403839c3696f757e	24.22563799830595
125	0x4013db1a0e564670	4.963966583267037
126	0x3fdee8f9f6f4c7f8	0.4829697524720582
127	0x403333dc2fb869d1	19.202578527949132

arr_2 f8 [128, 64]
0	0xc02ccc49ea4ee75c	-14.399001428729825
1	0x4016544f8aebefd1	5.582334681177557
2	0x4042fbc5335ec334	37.966955586691626
3	0xc045f9ceace40180	-43.951619731265055
4	0x40220a2ce32a7b57	9.019873713432089
5	0xc02a879b480dc492	-13.264856578522345
6	0x400fd46877f12b28	3.978714882895833
7	0xc03560aa4780ee92	-21.377598256089705
8	0xbffa9568d0df3a83	-1.6614769133626914
9	0xc0324bb498d0e752	-18.295724440576414
10	0xc020592093974c84	-8.1740766641799
11	0xc01e958dfdd6b4eb	-7.646049467305811
12	0xbfdd0b38645dbdf8	-0.4538098316324688
13	0xc02f147a9095d6ca	-15.539997595110794
14	0xc0406c8f0fbbfb4f	-32.84811588934701
15	0x4021d90f68753a69	8.923945679006652
16	0x4023f8bb04ad98d8	9.98580183619599
17	0x40353db483f35170	21.24103569689163
18	0x401f0c313776f6ee	7.761906496654531
19	0x4039698d501a4312	25.41231251374399
20	0xc03841c8a0d885b8	-24.2569675949687
21	0x4037c93fdb47f4d8	23.786130623881803
22	0xbffe42c5310e1094	-1.8913013378342258
23	0x3ff861645114322a	1.5237773100990446
24	0x400f9c0c52a40290	3.951195378904522
25	0xc01fa18f31d59af5	-7.907772806799348
26	0x402c1e4339c9c04b	14.059106641652894
27	0x403d4f26fa41fcc1	29.30918850050944
28	0x4032993c1254c923	18.598572869968063
29	0x4035af1c622073ca	21.684026844904828
30	0x40341e96a5267cee	20.11948616208695
31	0x4024a3944297b111	10.319490510003137
32	0x4007def28b7f3100	2.9838610552016007
33	0x403387f0701acbe6	19.531012541334256
34	0x40256ab0773ecfe1	10.708377577226146
35	0xc035fd58b11a892c	-21.98963457963798
36	0x4036b80e14503f33	22.7189648338237
37	0x3fea1fca10180722	0.8163805307706051
38	0xc03f87f47a02f6c4	-31.531074166988006
39	0x40181e25b8fad500	6.029440775212834
40	0xc042cfa358c7dcec	-37.622172448720306
41	0xc005028bd69916d2	-2.626243282839689
42	0xc02d6d8a44a3871a	-14.71394552704037
43	0x40336855b9b021eb	19.407558064938637
44	0x401cf3487ed9bd15	7.23758123592349
45	0x4018c741f1c8c659	6.194587495688745
46	0xc0361cef4fb95a69	-22.11302660250877
47	0x4023d966448fd5d6	9.924608366544742
48	0xc02a15522d777f1c	-13.041642590367296
49	0xc020644217171597	-8.195816728179848
50	0xc026e65cfa8b5ed2	-11.449928121102321
51	0xc03ae481071e63bc	-26.892593808097203
52	0xc00824e32f55715d	-3.01801144580365
53	0x40110019c138b8f5	4.250098246657434
54	0x402114b552d3b41c	8.54044588884613
55	0x4038389e32eac585	24.221163923566127
56	0x40070ccc8f36ede5	2.8812495411527714
57	0xc0042f75c58ab067	-2.5231738503408
58	0x40204c7a52e90543	8.149370757050411
59	0x4045d60e51878cd3	43.672311965166635
60	0x40289bc3dc4738cc	12.304228671735835
61	0xc047b71cdd863265	-47.43056839993077
62	0xc0296fb9fe107228	-12.718215884692725
63	0xc033c05c4e090822	-19.751408459858915
64	0x403b64ec0f3ab0bf	27.39422698195335
65	0xc034b4f7ff62decc	-20.70690914310289
66	0xc039041110644e04	-25.015885376442398
67	0x3ff527b0fd332ee8	1.322190274297947
68	0xbff8e1c7af000210	-1.5551220737398843
69	0xc03a02e96d567532	-26.011374314887867
70	0xc02329263144bf8d	-9.580369510309334
71	0x403ca833bae3baf8	28.65703933772872
72	0x3ff167bc12a37e4c	1.087825844580851
73	0xc0036ab21dc13c77	-2.4270975422473913
74	0xc01bf00fbf24eda6	-6.984435068730283
75	0x403079a6d00871ca	16.475201608716624
76	0xc026ad38e9140a55	-11.338324817367871
77	0x4031bbaccc7abe26	17.73310544964456
78	0x402966a3f13ff71b	12.700469531114825
79	0x40138b04ac54f25a	4.885760014233336
80	0xc039bbbaf6ec7acf	-25.733321602567965
81	0x40348c7221537156	20.548616488334424
82	0xc038832fccd59c04	-24.512448122168294
83	0x402daff311309d3f	14.843651330170017
84	0xc0384a4c651c649b	-24.29022819464863
85	0x4047c4f371e6850e	47.538679349478215
86	0x40188ad4d8978f06	6.135577568293007
87	0xbffca6b749f6aa6a	-1.7907021416855522
88	0xc0130755a74eabc3	-4.757162679840749
89	0x40271701468e4354	11.544931607118691
90	0xbff03771da558908	-1.013536312930741
91	0xc01966cdd0104fa8	-6.350394488330416
92	0x40226fca0a8c05eb	9.218338327019373
93	0x40318d5a57f906ff	17.552159784600914
94	0xc038be693ed9e78e	-24.743793419074386
95	0xc024e14519eb9d24	-10.439980325709776
96	0xc01ed57f79e5e575	-7.708494095474966
97	0xc02ec366fb8edc3a	-15.38164507025623
98	0xc030f59b4558c66b	-16.959400495694734
99	0xc024effac37d13c4	-10.468710049646582
100	0x402ee3b663d40294	15.444750899915825
101	0xc040b625dd92b62e	-33.42303056396155
102	0x402b6dded2c82c24	13.714590632376776
103	0xc02ad46650647aa3	-13.41484309412528
104	0x4030afe485bebd7c	16.687080725734162
105	0xc011b4408cd293a6	-4.426027489044747
106	0x403418d931b0c5c5	20.09706411901222
107	0x4046297436881350	44.3238590397292
108	0x403ac33e3e7beaa8	26.76266851926144
109	0x4037d2b12280aa71	23.823015362179323
110	0xc0355d970f3acb86	-21.36558623490739
111	0xc02377f48faebbe4	-9.734287729339435
112	0xbfdf59821dc249d4	-0.4898381510367049
113	0x40397019f01d99e2	25.437895781733353
114	0x403eb514664c5ab4	30.70734252323264
115	0x3f71196137d0a500	0.004174594648284513
116	0x4022a144d23bf026	9.314978189293537
117	0x402e0680a2d2190c	15.012700164934834
118	0x4017dcc9d76ba80f	5.965613714166479
119	0x402ed8db5fdfa8e0	15.423548694660383
120	0xc03ddaef9a45f868	-29.85521854599247
121	0x401508ea91b7652a	5.258707310503533
122	0x402e504c2b98a171	15.156831133252782
123	0x4031383e4aa850f7	17.219700494854774
124	0x401eb68f108f7d09	7.678280123479689
125	0xbfcd9da9bd7506b0	-0.23137399435841166
126	0xbfe28241321102a7	-0.5784002282963073
127	0xc01314bee30d78d1	-4.77025942582823
128	0x4037291c883d1f85	23.160591616556776
129	0x401a4ae8453ccfaa	6.573151666485424
130	0x4031f89444c35758	17.97101239937851
131	0xc030ee0d3140a1b8	-16.92988879993365
132	0x4032746c98c7e238	18.4547820556638
133	0x400e9025b0f8c12c	3.82038439044131
134	0xc02d9b0ca466a690	-14.802830827265353
135	0x400ab6f1a00b14b4	3.339328050935899
136	0xc0368a5ddcfb64f6	-22.540494738936978
137	0x404158cc9719f85a	34.6937435986335
138	0xc00ec9dc004fc45c	-3.848564150270745
139	0xc0255f26dfb3c9ad	-10.685843458840134
140	0x401dba856dffec7e	7.432149618859624
141	0xbfcd2d51b0648b90	-0.22794552910735577
142	0x402d71164d463f9e	14.720873274636514
143	0xc001bb07a2431137	-2.2163231541364
144	0xc01df6107b58cda4	-7.490297248168108
145	0xc0326e6398dbc398	-18.431207231190996
146	0xc02020d0f3af4745	-8.064094176431931
147	0x4028eec0223969ac	12.466309613712689
148	0xc025016f385030e0	-10.502801666058474
149	0x4034729036676431	20.447513008348498
150	0xc03af1169e6dd8c8	-26.94175138646895
151	0xc041b3bce1edae3a	-35.40420173745629
152	0xc040539841cfc1c6	-32.65308401722318
153	0xc01e2eefd70da8d2	-7.545836792191226
154	0xc01e4b1c4a28ccc2	-7.573350104084229
155	0x403617ffbbd40554	22.093745936644453
156	0xc00ed49920435c36	-3.8538076897198392
157	0xc036110acd092b81	-22.066571058977846
158	0xc03ac855a38962c4	-26.782556744615036
159	0xc02ad51a09a05e62	-13.416214276148086
160	0x403001fcece05660	16.00776558377254
161	0xc02524dd3d162592	-10.572000416711294
162	0xc038d18465118489	-24.818426434304033
163	0x4004de5c66e0e5a8	2.6085746800788066
164	0x3ffd033d56f9c288	1.8132909200177512
165	0x4028bf4fb31cd0ac	12.373654935138198
166	0xc0308ceab5c23c77	-16.550456390305467
167	0xc01574383fa07bc4	-5.363495821161397
168	0xc0383d84036e04a7	-24.240295614585786
169	0x400daf0914479423	3.7104665359825204
170	0xc039d53643ff6490	-25.83285927758385
171	0xc012456fa2c51e40	-4.567808669358385
172	0xc01efd9f4a6753a3	-7.747677958065569
173	0xc02e8d8464086c54	-15.276400686290948
174	0xc0234b4bf75396de	-9.647063950494552
175	0xc0131c9bbc12cd37	-4.777937830588875
176	0x401bba12e4a3ec4a	6.931712696557108
177	0xc012a106f70523ae	-4.65725313156956
178	0xc022028a65c8176e	-9.004962139773593
179	0x403e76ce5b1e13bc	30.464086241572417
180	0xc035fc18937300de	-21.984749999596595
181	0xc036e5f87328ed62	-22.898322293750773
182	0x40154fb5a0612cba	5.327841287547182
183	0x402105c12d989dd9	8.511239457015948
184	0xc0336211bce4b53d	-19.383083158337502
185	0xc010f3c5842b7d08	-4.238058152345964
186	0xc00873c95f07e1ee	-3.056536428859764
187	0x402cc97ef40f8496	14.393546702284123
188	0x4021d7286dc63f46	8.920230322313397
189	0xc03bcbb8f07c606e	-27.795790701260948
190	0x40161ee750f5be35	5.53017927646538
191	0xc01931f1cf87be81	-6.2987739969827325
192	0x4045a74b7727d994	43.306990522821394
193	0x4033e53eeedc3a52	19.895491532103115
194	0xc02b732a1c477454	-13.724930652353727
195	0xc02519860fcc2c86	-10.549850934670996
196	0xc02d38bf88885fe0	-14.610836283347396
197	0xc031f2895cefe1dd	-17.947408493580827
198	0xbfd1e5e1cbadad93	-0.27965588465186747
199	0x403aa6afa785c09e	26.651117773203275
200	0xc030be0fe59b44d8	-16.742430067450954
201	0xc022a6820bae25ac	-9.325210919388006
202	0xc04375c12d7cc540	-38.91995781509695
203	0xc0385e06af42f850	-24.367289499139872
204	0xc033cd5da5ceef7b	-19.80221020033012
205	0xc02c48355b7fe1b4	-14.141032084808877
206	0x402dc69f73c8722f	14.887935274332532
207	0xc033d8c5155e2cdc	-19.846757255069733
208	0xc027081fbacc363d	-11.515867078235823
209	0xc0265d81885f92ea	-11.18262888113664
210	0x402073455baf3663	8.225138535631407
211	0xbffbaf255b305e55	-1.7302602350299783
212	0xc000795b091d2cb6	-2.0592556678799054
213	0x402275fc2495c6ce	9.23043932274177
214	0xc00f7d3bfaf95480	-3.9361495597209455
215	0x402d5cc4b844ff86	14.681188352987885
216	0xc002b7950780cfea	-2.3396397195992806
217	0xc01f2c22ea12c0e6	-7.7931019376703485
218	0x40439250b8ea3e28	39.14308844983708
219	0xc040c3f6e90b78d2	-33.53097260532526
220	0xc0262d829cd7b12c	-11.088887120561218
221	0x40125d23bfcac8b6	4.590956684829669
222	0x403614d60fcbb272	22.081391322355962
223	0xbffaf22b2525f3d4	-1.6841231776336274
224	0xc03a5c08552ea24a	-26.359502147565117
225	0xc0339f7d0519db88	-19.623001402676465
226	0xc03cf08d5e81b46a	-28.93965712229366
227	0x401ecc7e40261d9a	7.699700357748407
228	0xc02380e384da49e2	-9.751735831877287
229	0xbff9e9d5fca0ce3e	-1.6195888393675797
230	0xc034d7a46f9d323e	-20.842352844121926
231	0x40307cc30c8bfec4	16.487351211718092
232	0xc02b2501529dab00	-13.572275716539934
233	0xc02d1a55e8684d51	-14.551436674816303
234	0xc037b04bb4dc084d	-23.688655189246038
235	0x4020b246c3bbbd9d	8.348196140925944
236	0x403449fbd8ffd745	20.28899914022556
237	0x4029ec225bcf5966	12.961199635564025
238	0xc03103ce23f82792	-17.01486420448743
239	0xc0169c610dee3dd6	-5.652713983217344
240	0xc0300d470a2cea89	-16.051865230527742
241	0xc03a7cf3c849a738	-26.488094823819864
242	0x4025196d1aa2967e	10.549660522792006
243	0xc0393525349b5198	-25.2075989607998
244	0x40247fa20c168936	10.249283197165465
245	0x4020ae7a0973dd52	8.34077481784212
246	0x400a1a9292cb5e40	3.2629748791039503
247	0x401d6c128fa1fee6	7.355539554846223
248	0xc02e3332482b44fe	-15.099992995531007
249	0x4025f1a6a23f5080	10.971974439839187
250	0x402558a96c25414c	10.67316759066366
251	0x4031c99b437bed2a	17.787525384669756
252	0x4045c403f87e4f89	43.53137117545618
253	0xc01c80eccd7180ea	-7.12590332989951
254	0xc00e77edb60d95e0	-3.808558866777034
255	0x403b09d4ab009bec	27.038401305817317

arr_3 f8 [64]
0	0xc028b6024effb01a	-12.355486363136198
1	0xc033a7034daa0dbc	-19.652394155518536
2	0x4017a4d1823b3e8f	5.910955462327947
3	0x401bf4ec7cf146a0	6.98918338034278
4	0x402f33e98dcdb690	15.601391250001399
5	0x401866da1a85babc	6.100441374218175
6	0xc036ad4fef7e9f39	-22.677000969327512
7	0x40215a30049d6225	8.676147598468626
8	0xc0338c3f671e9886	-19.547842450112988
9	0x40269856417a6b7c	11.29753307933219
10	0xc02bb55f301ee7be	-13.854241851589787
11	0xc023710ab586ff31	-9.720784828881365
12	0x3ff97e97b963e6dd	1.5934064142042452
13	0xbfa590d3bad99760	-0.042120567854722735
14	0xc005c61bada37df9	-2.721732479621775
15	0xc041066dece03803	-34.05022965381797
16	0x40442fc1b718adf5	40.37309921937041
17	0xc014cca85555d415	-5.1998608907351995
18	0xc00e8089ea038750	-3.8127630503012497
19	0x4011eb7a0b5b6bf0	4.479957749800619
20	0x40120df6b51a506c	4.513636426669205
21	0xc01607c23a491ed7	-5.507576857293052
22	0x4008a7ddaeb1c5fc	3.0819657943727616
23	0x40119eecc539a46a	4.405200082438663
24	0x4020fe5d8b4a9886	8.496807434898312
25	0x4025ef79c8ba47fe	10.967726013888747
26	0xc0211994b7f79ce4	-8.549962758041552
27	0x4043d4b8e100de86	39.66189205686992
28	0x40390b6974354d0e	25.04457784940046
29	0xc0163b06dd547e55	-5.557643373758386
30	0xc03588b86cbf75ec	-21.534064099067038
31	0x40402da13fe976bc	32.35648344897842
32	0x4030bc12bb5e07ec	16.734660826164983
33	0x404119bb22bbf768	34.20102342775391
34	0x403191a8b55cc449	17.568980536602144
35	0x40373a3de11dfd9b	23.22750670416063
36	0x3fe66380c9a18c89	0.6996463716608484
37	0xc0221929b4196388	-9.049146297549456
38	0x3fe3b3730b3761af	0.615655443102744
39	0xbff71202f7fc4d3a	-1.441897362416809
40	0xc00956c2ab2b42de	-3.1673634884431143
41	0xc021f32f6cf6aba4	-8.974971203910009
42	0x402bee9ade5edbd1	13.966025303916384
43	0x40226c4f6eaee9c8	9.211543520786009
44	0x403b32b8a0419d96	27.19812966920798
45	0x4039ac9ff21660d8	25.674315576995326
46	0xc01fce7ade75928e	-7.95164058296781
47	0xc011cb1cefd6c353	-4.448352572901814
48	0xc0208abe0b4dcbae	-8.270981171843086
49	0xc0072bfe6ef33380	-2.8964813869446857
50	0xc0042313ae952a7d	-2.5171273841163484
51	0x3ff06bd0f545386e	1.0263223248362254
52	0xc006127317f45cb8	-2.7590085860680027
53	0x402f76fd67ca88f0	15.73240208003378
54	0xc016dc59fad37a69	-5.715186995656588
55	0x4030a846495b674c	16.65732248765498
56	0x402ef8edd2192802	15.486189427920184
57	0xc03703db4b7031e6	-23.01506492127546
58	0xbfcaca5c8c391bc8	-0.2093005833323487
59	0x4037fe58b5e040f5	23.993541114091347
60	0x402ba3521b8cc97e	13.81898580640404
61	0xc00f9be380ebc684	-3.9511175224259336
62	0x402cff66ad7d767e	14.49883024364976
63	0x4036940762468228	22.578237669195147

arr_4 f8 [64, 32]
0	0xc0204dbd50ee91f1	-8.15183499252541
1	0x40103c8c6fce52c8	4.05912947365568
2	0x3ffed55dc2461220	1.927091368562408
3	0x403da6f280e9f102	29.65213781081639
4	0x403b9a26b67c2fd0	27.60215321094421
5	0xc01ca8dc513a8226	-7.164902943798131
6	0xc020d59db0aeab9b	-8.41721870548445
7	0xc0277da1a6e1c49b	-11.7453739309879
8	0x4024fc6c10d87a68	10.493011976647907
9	0x401acf4e6da43520	6.7024476176714245
10	0x4009a68838a48898	3.206314508935133
11	0x3fdd04d1e244e342	0.4534191808375462
12	0xc020eab9247f247a	-8.45844377567322
13	0x40174511c5ab10eb	5.8174506078396275
14	0xc019c6bd48001e40	-6.444081425673687
15	0x401add212db14440	6.715946878380294
16	0x40191a2b6aaf3ad4	6.275556246705225
17	0xbfe8c6b3496853b0	-0.7742554124584924
18	0x402a1f3fb87ac7d4	13.061033024776329
19	0x4031ae199b2a1b32	17.680078218250124
20	0x40245892d8b633d1	10.17299535011435
21	0x403058af2c3a73eb	16.34642292429991
22	0x4048dea18ae93c33	49.739304889568665
23	0xc0169c3d5d787394	-5.652577839352393
24	0xc03c5f208d5e7366	-28.371590457495948
25	0x402a43b425ea2a72	13.13223379596204
26	0x4022449c0e7be80e	9.134003117204
27	0x4008917cdb0feedc	3.071038924621332
28	0x4012dea3ca4c17b7	4.717421685118032
29	0x40233470d0914ff0	9.60242320798713
30	0xc02900868fcd76d0	-12.50102662451846
31	0x401f56b81576e66f	7.834686599142159
32	0x402a33c409e37377	13.101105031027812
33	0xbfeb1b544c21476e	-0.8470860945619572
34	0xc01a665314c926d8	-6.599926304604843
35	0x403abc6e8d44c0c2	26.736061887059584
36	0x40216786ae5a4a1f	8.702199409982368
37	0x4005ab2dbf6c2718	2.7085833506470287
38	0x4000f86d1aae5ce2	2.121301849790698
39	0x4031e4cd8167c488	17.89376076491729
40	0x40264bfbbb27b371	11.148404930683428
41	0x403583718b79467e	21.513451306446306
42	0xbfec5eb5e86b62cc	-0.8865613498156448
43	0x4025447bd8557f39	10.633757362782136
44	0xc0248567fe269997	-10.260559026920232
45	0x3ffca8c53593196d	1.7912036984212947
46	0xc0172993874bc682	-5.790601839065518
47	0x4025ad6ce5585f6a	10.83872143462914
48	0x4035bef703e69711	21.745956653400814
49	0xc012ba6eab2f52f1	-4.682062792552402
50	0x4023bde56138fa72	9.870890653806075
51	0xc0179fcf3f0cffd6	-5.906064019363802
52	0x40269740942cc65c	11.295414572206191
53	0xc03920fe7ca53ff1	-25.128883161873038
54	0xc03228fa21d2fbfc	-18.160066713342516
55	0x40375a690dba2b46	23.3531654910578
56	0xc03ec57094fad62c	-30.771249114264876
57	0xc0228c2f92e7af39	-9.273800459653659
58	0x403166e2aa1b0dba	17.40189612541665
59	0x3fda30c6b3ab9c5c	0.40922706170971934
60	0x4036eade3e5752ad	22.91745366699131
61	0x400f6029457b47b8	3.921953718971931
62	0x3ffcaade0b579e28	1.7917156642014422
63	0x4039dec28bd5881e	25.870156039840474
64	0x403832b9148985e7	24.19813660008904
65	0x40306954b1cb6304	16.41144858565805
66	0xc03f590ff0672813	-31.347899460968687
67	0xbfff880ad9f1da92	-1.9707134736505947
68	0x3ff86c403c0282c4	1.526428446210205
69	0xc020b36c4b5ec3fe	-8.350435595815721
70	0x40106411ad959c66	4.0977236864629045
71	0xc029a6bab12276d0	-12.825643096406026
72	0x4031b8c3170d1b3d	17.72172683782559
73	0x3fd0cb17f2486dc2	0.2623958459896266
74	0xc02b5ffb0349101b	-13.687461950939953
75	0xc0262a96060922d3	-11.083175839057196
76	0x4048178341cd4dd6	48.18369314694034
77	0xc02e68d2f2489b20	-15.204734393466026
78	0xbfdf0832a0ffec9c	-0.48487535212161403
79	0x4032eae643420f99	18.917576030376583
80	0x3ff9d7f8e4430bb2	1.6152275959473
81	0x401d58741342e862	7.3363802918994185
82	0x4031ebba626b5ef9	17.92081275102007
83	0xbfe1c7dc95b36050	-0.5556471752015657
84	0xc03e18c6d51aa602	-30.096783942228292
85	0x402185bf5660921a	8.761225413597504
86	0xc0296de6782f174e	-12.714648967502992
87	0x40000b78f55ce69a	2.0056018036819525
88	0x4025321d13a1b8fa	10.597878087512516
89	0xbfe4a12e12f4a558	-0.644675290129423
90	0x40337c5b2df453b5	19.48576628890051
91	0x4018e4a061d59e44	6.223268059409353
92	0xc01197f6b14e55df	-4.398401995092597
93	0x403f49823c0c2c2d	31.287143471690957
94	0xc00d1028a54af4ac	-3.6328900254726104
95	0x400d79a8bb21b6e0	3.684403860060101
96	0x402debeaf2795e06	14.960776879611341
97	0xc0203a0674eb400c	-8.11333051082331
98	0xc013e5bad88e9e49	-4.974345573143702
99	0x403af7d4a1c58056	26.968088255613416
100	0x40203365ae63aa9e	8.100385141054456
101	0xc035d21c41c271c9	-21.820743665668292
102	0xc022bc3169854e84	-9.367564485094825
103	0xc04526d578e112df	-42.30338965406349
104	0x400cff06dcb3f45e	3.624524807206895
105	0xc03b3e150be1ad2a	-27.24250864276579
106	0x3ffeee962f55b467	1.9332486962332724
107	0x3fd8f205f6ef7071	0.3897719298818237
108	0x40252cfcb85a61a2	10.587865601570972
109	0x4031380b1cd668e9	17.218919565530914
110	0xc0206a3036fe1f21	-8.207399099846556
111	0xc002c9565496be70	-2.348309193468417
112	0xc010288cc80863db	-4.039599538337792
113	0x402aa80afd0db6e0	13.328208835529438
114	0x4028ccaeb90f9e89	12.399770529896402
115	0xc0299cbebc54ab0d	-12.806142697654218
116	0x4015b0b0a987ebca	5.422548912926638
117	0xc027a3be96f69f36	-11.819813459019866
118	0x402f69c61bf30628	15.706589578071615
119	0xc025a70592ed1968	-10.82621440071371
120	0x4023dffcce074578	9.937475622546785
121	0x4031e77e519abe7a	17.90427122142726
122	0xc03af9bb770dda0e	-26.975516739732534
123	0xc01631f858ee7b8d	-5.5487989326055756
124	0xc030e5d823adeda4	-16.8978292750959
125	0x40156be5fbab8dbe	5.355369503351026
126	0x401114b5f7eb0f18	4.270225404474125
127	0x4033b5f8d28aa0de	19.71082797893984
128	0x401462194a0a4739	5.09579959571584
129	0xc03f075f118a7db6	-31.02879438048486
130	0xc00aa146298c4f38	-3.3287471052116437
131	0xc034f2afd405637a	-20.947995425525257
132	0x4036ae339d174f8b	22.680475061598866
133	0x403bc81d00c39980	27.781692550424395
134	0xc02c562b276cfab8	-14.168297988942285
135	0x4020c05446175497	8.375642958019212
136	0xc039f7847e2ada08	-25.966865430318677
137	0xc007999c4877e4e0	-2.9500051175678976
138	0xbfe93b35aed96a24	-0.7884777464890402
139	0xc0249334fb30fbdc	-10.287513589601012
140	0x402e7f47f8969037	15.24859597051555
141	0xc01db61dc9bc63f6	-7.427848007319872
142	0x4003375f9b718ad9	2.4020378250146277
143	0xc0295378f450588a	-12.663032183463901
144	0xc011005afa5774b9	-4.250347053134811
145	0xc006278a1ccd22e5	-2.769306397447837
146	0x402b0bc05af44201	13.522951929394369
147	0xbffe12d8f69eff4a	-1.8796014436374713
148	0x402947535105ee14	12.63930752942455
149	0x4026f2ff8d6eafb0	11.474605960618504
150	0x4016beaad85fb957	5.686198597757843
151	0xc02e01e8427f94a4	-15.003725126336867
152	0x4026155620bdd754	11.04167272870442
153	0xc0311eadbc1d849e	-17.119838483053734
154	0xc02dfcc47c764bca	-14.993686570587574
155	0xc0266e730c3a30b2	-11.215721494773195
156	0xc021ccf98660788b	-8.900341223980169
157	0xc03ff3bb7a9c59ae	-31.952079451724494
158	0xbff9ff2d8b0559b6	-1.6247992926124488
159	0x402b89de2cdb7578	13.769273187436497
160	0x3ff0a16fb73ac83c	1.0394131810576388
161	0x4032e45288cd0720	18.891884374671577
162	0xc031cc4dc3d16492	-17.798061598416616
163	0xc0297912762f5c86	-12.7364689762892
164	0x40386d88490c9881	24.427860799384238
165	0xc031419a70094e75	-17.256262781402672
166	0xc02c0306237a5f6e	-14.005906208694537
167	0x401701cabef58572	5.751749976859502
168	0xbffa103c74b7eb76	-1.6289639052690439
169	0x401fab2587a8f14a	7.917135352789339
170	0x40242b793bcd6b3e	10.084909313989211
171	0xc018766ad6efa584	-6.115641935707917
172	0x400eb95fd307e0db	3.840514801671913
173	0xc01e00c352910a60	-7.500745096304485
174	0xc0047a8d030f8542	-2.5598392714606755
175	0x3fea75ca066323f5	0.8268785595656697
176	0xc037263ff1997722	-23.149413204161768
177	0x402a2709c0724b60	13.076246274902303
178	0xc01868e98b73794a	-6.1024534024457555
179	0x4010e13454cd8be9	4.219926190419735
180	0x4014655da3e9e869	5.098990021850207
181	0xc03826f09472d272	-24.15210845759652
182	0x403a327977a4a08b	26.19716594475953
183	0x403de793f734650f	29.904601526538553
184	0xc027ba40d175d1ed	-11.863775773651435
185	0xc020e954d5c57977	-8.455725365024348
186	0xc02ff9f24d26996f	-15.988176737748942
187	0x401a1b51f4c5d230	6.526679825376547
188	0xc028ff681dad8136	-12.498841216497208
189	0x4029ab83c9483494	12.834989824356207
190	0x400e23db3c71583f	3.767508003434187
191	0xc0240b6e2c1c30b3	-10.022324922982397
192	0x4026dd245647a61b	11.431917854543874
193	0xc024a98192b2acd2	-10.331066688834117
194	0x3fde274acadb64c8	0.47114820299391313
195	0xc0278606bf653a9d	-11.761770230395365
196	0xc0287c7511d5e070	-12.243080670698163
197	0xc03071a009910e52	-16.44384822646527
198	0xc034310628dc7ed6	-20.191500238258264
199	0xc03cadeed6533424	-28.679425616563222
200	0x400b105f31badfa6	3.382994068637305
201	0x4011c781d93d13b8	4.4448312705543955
202	0x403089d9022be004	16.53846753665131
203	0xc0057b848cbb8ee8	-2.6853114123094777
204	0xc039da717e22c1f8	-25.85329426144196
205	0x402faff6e89286bc	15.843680637251389
206	0xc0213620589b6b1c	-8.605715531322453
207	0xc032f78285fe9b9c	-18.96683537927639
208	0x4022d5e9231b52c5	9.417794320187918
209	0x401de04890c841ca	7.469026815626828
210	0x40332e13ccf5037e	19.179989633386406
211	0x3ff90f3300c773ae	1.5662107496675435
212	0x3fe3e517281d99c6	0.6217151435383179
213	0xc0026db3823acce4	-2.3035650419420666
214	0xc01932e6db9c2006	-6.299708777813072
215	0xc0350666a562c1e2	-21.0250037542445
216	0x4016f7d663813c85	5.742028765452351
217	0x402779bb18aa6404	11.737755556869168
218	0x401fe059dc52795a	7.969092791112724
219	0xc03b48488f5a561b	-27.282357177309773
220	0xc0382faa37cbd1f3	-24.186191069851656
221	0x402cf23078b60c10	14.47302605840926
222	0xc03ad5cd2ff99414	-26.835162161285623
223	0xc02fc9541bf065ca	-15.893219826789295
224	0xc014fe9b530d3984	-5.248639390642328
225	0xc005e30472645c03	-2.735848325431563
226	0x4033d8a4a803b686	19.84626245585107
227	0x40200185f375a90c	8.002975090134463
228	0xc038b4584df81ae2	-24.704472420761597
229	0x4012c6bfa8e4a863	4.694090498882448
230	0x40269c64f6fa08cc	11.305457799932263
231	0xc02d2ffe1144a2ee	-14.593735255840752
232	0xc043222b731bc76a	-38.26695097786326
233	0xbffa03ce6f0b1a50	-1.6259292924529696
234	0x400646db781c30f7	2.7845982917407315
235	0x4022899f631111b0	9.268794151147489
236	0xbf9e56a7d64a15e0	-0.02962743993204764
237	0x40303698556a70bc	16.213261927114885
238	0x40259b37cd12414a	10.803160103300474
239	0x400b6b53a9469024	3.4274056648882993
240	0x402ba10fa71869c3	13.81457254574787
241	0xc034fb631540756c	-20.981980636822684
242	0x401ff89c3c168d38	7.992783488155787
243	0xc03042bff579b06e	-16.260741560181877
244	0xc032c74c9d911c38	-18.778512809684088
245	0x402f5b2d7d1ad36a	15.678081426167143
246	0x403028515da16b86	16.157491542729552
247	0xc023c00329aabbf8	-9.875024129954895
248	0x3ffdf272d6df9372	1.8716915505876526
249	0xc002c64cbbd7906f	-2.346826045528409
250	0x403a544393252382	26.329156109396997
251	0xc030fe2b9dd466f8	-16.992853035312663
252	0xc029008b8ccefce5	-12.501064682261537
253	0xc02efe27da20221c	-15.4963977970338
254	0x4020e95e94cf032c	8.455799722929065
255	0xc01263fe061fce8b	-4.597648711863836

arr_5 f8 [32]
0	0x4020f7b4a36a2d14	8.483800036154697
1	0x400e8c9649bfd278	3.8186460267700646
2	0x4028c4918d3a63c3	12.383922971131943
3	0xc01f5af7fe178327	-7.838836641488149
4	0x402209498b4754fc	9.018139221627727
5	0x4030c4958fdd4bd4	16.767907134559053
6	0xc012578cd9af3ffd	-4.5854982388700565
7	0xc00ac7a47cd32235	-3.3474817039425724
8	0x3ffc7397216cdbda	1.7782203012154612
9	0x40092ed8f8e7b53e	3.1478747792922652
10	0x4010932723cfd59b	4.143703994331555
11	0xc0350cb79f0ad1cf	-21.049676838056083
12	0xc019adb8a64b5637	-6.419649694774811
13	0xc01f44ec71198b45	-7.81730820387276
14	0x400327cea7840a43	2.3944371306581913
15	0xc0291bed0a72be58	-12.554542852885035
16	0xc02ba232bb223916	-13.81679329674493
17	0x401122c367868bc2	4.283948533618004
18	0x403541bf67fbbead	21.25682687660326
19	0xc0091b9df876e723	-3.138484898689869
20	0x403b75e2615cc780	27.46048553958053
21	0x4037667ef2dee3a8	23.400374583641366
22	0xc041ed10fae9cd1c	-35.85208069244456
23	0x40012b5af309b9e6	2.146169565901107
24	0x402a38023727f710	13.109391902569342
25	0x3fff88ae97834718	1.9708696287602319
26	0x403e35b815cc64b2	30.209840166474073
27	0x401ecd85fc9f14a4	7.70070643158866
28	0x4037032bb8fc9d26	23.012385904000574
29	0x401aa9337806be5e	6.665235400592421
30	0x400aa27e33e02577	3.329342274930862
31	0xc012a0f2cfeb685a	-4.6571762549811755

arr_6 f8 [32, 1]
0	0xc0468668b728b880	-45.05007066238704
1	0x401d0fc110480f26	7.265384916685241
2	0x4025078b6e1d6cd6	10.514735642520844
3	0xc03c5ad7a28d22bc	-28.354852828461603
4	0x402c27b01afe6bb2	14.077515452916348
5	0xc02c99347e079a73	-14.299228609493388
6	0xc02b8dfda3871ccb	-13.777325735324117
7	0xc0285472bcb63778	-12.164937875025984
8	0xc0339444f019a92c	-19.579176908745623
9	0xc00ef4d207cabfec	-3.8695412262677475
10	0xc01e94a5d0cc81bd	-7.645163786394218
11	0xc008adda667a22a7	-3.084889221765781
12	0x4036fe8905f31d86	22.994278308729484
13	0xc03d3f235c9770ee	-29.246633326504643
14	0xc0325753275611d8	-18.341112574112998
15	0xc026de77f1335aca	-11.434508836287382
16	0x4021477bd78f6601	8.639616714720434
17	0xbff9c6ba18462e98	-1.6110173176011013
18	0x4030af35609b123b	16.68440822397154
19	0x40213379b1fe6064	8.600537836362669
20	0xc031c4a51488c6e2	-17.76814392413406
21	0xc020a1e55961f65a	-8.316202920158663
22	0x4003715416f457e2	2.430336169559255
23	0xc01d1ea581fda92b	-7.279928237063625
24	0x4041b786312148c2	35.433782712223106
25	0xc02d5a2398e014da	-14.676052834848111
26	0xc0296d699f165c64	-12.713696452598192
27	0xc01a0179803ab04a	-6.501440051633901
28	0xc0213e7f1779dda2	-8.622063382745925
29	0xc00241df88ecd388	-2.2821646401666307
30	0x400401e697c55b79	2.500928102217071
31	0xc04104213dc0af50	-34.032264441570646

arr_7 f8 [1]
0	0xc003f14606778f9a	-2.492809343837462
