weights/global_round_2.npz (npz, 129966 bytes, 8 tensors)

arr_0 f8 [43, 128]
00000000: 9add 170a be42 03c0 2beb f6f2 def5 1b40
00000010: c2ab bc67 ccd5 08c0 10da d9ed 0ea8 0e40
00000020: a5fd 2c82 53f3 f73f 9484 83e9 0319 0640
00000030: a5f4 1b55 3288 06c0 f236 3604 1d72 e33f
00000040: 2259 4f67 0b8b 1440 b852 c5b1 5ba9 f53f
00000050: 18e0 8958 be69 ca3f d06c d5e3 5a5f fabf
00000060: b223 d283 860e 1740 6455 b9af 8946 0940
00000070: 8bb4 6f40 37de f4bf 18d6 7aad 57ce fabf
00000080: b1aa 5803 8a5e 10c0 457e f600 0803 12c0
00000090: c92b e6df d817 f53f b1ae 0820 ff47 12c0
000000a0: 60dc cad2 5cc4 f9bf 2c95 0076 b512 13c0
000000b0: 1885 898d e28f f1bf 6e00 f88a a2ed 1240
000000c0: 570c 6fb6 9895 0ac0 e3a4 7c1c c64a f53f
000000d0: 0b72 236e 683a 17c0 b01c 828e 0343 bebf
000000e0: 25c9 756a 0468 0fc0 1e31 0fd2 d2b8 ccbf
000000f0: 371b 6516 7f9b 20c0 c4ec 805b 04ec e93f
00000100: 06bd a4b6 22ae 1040 2655 78e4 28e1 0840
00000110: 66c4 2518 145c f2bf 91b0 8a77 eca5 0140
00000120: a8f5 df29 b7e3 1340 00af 74d1 b7aa 0f40
00000130: 1c11 0e7a 8486 f33f c83b 87bb d9fd 03c0
00000140: e5bb 2b70 f80a f33f 07c3 2c2a f57f e2bf
00000150: 7ce4 4057 dfd1 f4bf bec0 deff 5d45 0d40
00000160: d49d 4083 2709 01c0 b6fa 24b9 4c4c 0ac0
00000170: 8d95 fb5d c425 d73f a270 5c22 7681 efbf
00000180: eb49 dd51 52eb 12c0 b226 63ec 7f3d 15c0
00000190: baa7 9754 abef ee3f 383a 69aa 540f f7bf
000001a0: c109 a13d b4e8 1cc0 44f1 a2f0 9666 0d40
000001b0: 46dc 8579 791c 1ac0 9c16 6ebe 78e4 0dc0
000001c0: d6e4 6dbe 35a9 13c0 8357 107b 635e da3f
000001d0: 3cb0 d9b6 c917 da3f 3248 c48e f0e7 ff3f
000001e0: 0ac8 94be dc8c 0240 e49b a08c 8f86 2040
000001f0: 674e 90a4 7985 0240 0a4d 77e8 e234 fb3f
00000200: 8dd8 3e9b 02e8 07c0 8eb3 8edf e339 1040
00000210: 1346 3f98 966f 02c0 8a83 6cbb 54bb 0040
00000220: 17c7 882d d34d f83f 6882 6a71 66de 1bc0
00000230: 0bd2 e547 6b89 12c0 1cb6 de04 9f8b da3f
00000240: 7685 0095 664d 1840 2656 c090 3616 1140
00000250: 4623 a95e f3bc f83f 184a c2da bd31 0dc0
00000260: f676 af96 972a 1740 7a74 5352 6c40 07c0
00000270: 044c 0c4e 2fd3 12c0 4329 c518 4f0c 0840
00000280: 1ca0 f3b5 248c 05c0 c00d 9c90 c2a6 b8bf
00000290: 5c95 8065 abbe 1ec0 2eeb 4ebd 9e6e 0ec0
000002a0: a63e c80d 1825 f23f 78f7 1bd1 9f97 d53f
000002b0: 8bc3 2662 db8c 16c0 02aa 58c8 4d68 f33f
000002c0: 75aa 2ca5 b16f ed3f 64f7 ecdb a095 d23f
000002d0: dbb4 1d29 0c53 0dc0 7001 5579 facc 03c0
000002e0: 100d ed54 0e82 fe3f 008b 6481 0e84 11c0
000002f0: 2b12 4b42 399e f33f 5986 4e92 9901 1140
00000300: 7300 55d7 8beb 0a40 535e d3a1 2bc0 e6bf
00000310: 77bc ec39 7b40 f2bf 66b1 a7cb da6c c5bf
00000320: 7480 2f64 c801 f8bf 70f4 29e3 b7d1 c43f
00000330: 9338 6473 a94c eabf e8b6 d71d 354d 15c0
00000340: c61a 29e3 8e3b 0440 7915 e04c 2961 fe3f
00000350: f6a0 e280 c4a8 12c0 4003 a7a6 a01d 0540
00000360: dd34 7096 27fe fcbf 3afb 0108 34b8 0a40
00000370: d2a0 5c21 5909 06c0 bd19 90b7 9ca3 0140
00000380: 9956 9ada f60a f53f cba5 343c 56fc f03f
00000390: dc14 8a40 dd4a eebf 752c 8ce6 0ada 19c0
000003a0: c851 31bf 35b2 13c0 b081 8247 9c38 e53f
000003b0: 01cd eae3 3a46 f43f 8b4a a520 0a62 02c0
000003c0: c6de 8e68 5e0e 2640 5cd5 30c5 d53e eebf
000003d0: 5e45 12e1 20c3 e83f 7181 aeef 4ea3 f5bf
000003e0: c2e7 bc4b 70aa 1340 1d70 13d0 ad13 04c0
000003f0: 08f5 bcf0 9f69 0240 256a bdfb f3c4 0840
00000400: 76fd 93ac 185b f0bf 046c 498e aae6 c83f
00000410: 6fd4 ef44 24ba 03c0 249b 9efe 52e4 e93f
00000420: 00d6 9efc 6fa2 77bf 576c 8e3f 80d7 f8bf
00000430: ef5b aa2d 9d62 1540 3800 9dcf fa88 d63f
00000440: 0a30 ada3 cbf7 16c0 34fa e36c 8224 c93f
00000450: e874 3c22 3c29 20c0 c0bc 5d9d 9c9b 1740
00000460: c1b2 afa1 0515 ed3f 0298 dfed dcfa d93f
00000470: 75ab 6ac3 4ed7 04c0 df95 f2b9 16f1 0b40
00000480: ab91 3f1a f975 1d40 a8e0 35d2 02da 0fc0
00000490: 18f2 ea97 f993 08c0 01a6 2479 54fb f93f
000004a0: 8887 8b29 d750 f0bf 3e8e b0f2 73d4 1340
000004b0: 15bd 4bbe 6abe 1bc0 b2e2 c09f db39 08c0
000004c0: 4099 10fd 1113 cc3f 39cd d3eb 45e4 fdbf
000004d0: 50b7 71e6 4136 e33f c6d6 2734 500d 0b40
000004e0: 21d8 6807 bfc8 2640 f8fe c61a 89e3 1240
000004f0: 35a2 5486 084c 1cc0 10d2 169f 031d 09c0
00000500: 9180 2fc5 a99d f7bf 9925 929f 272b f63f
00000510: 4d26 66a8 615f 1140 9253 b475 01c4 20c0
00000520: 8c52 7ec2 c0d6 1040 0b8a c384 b7bf ff3f
00000530: 90fd 14db ed81 b7bf 60ec ca2b c823 c4bf
00000540: 321b 8025 2d72 eabf 2415 e4fc 55c7 0ec0
00000550: 2033 25ef dc48 1240 c629 8068 21d7 0bc0
00000560: 65a7 0a47 b846 f5bf fbb1 4059 6fef f3bf
00000570: 9cac 8149 ef91 11c0 cee7 269a 7d26 ffbf
00000580: 4ff4 9533 94a3 0a40 b1a4 ac04 1329 0d40
00000590: 54bb 5707 8296 1640 7bb2 1a43 59dd 0940
000005a0: 32e0 5185 ebd6 0140 5412 708f 8377 10c0
000005b0: 40f7 78b6 28f9 c5bf c44b d4ed 71c6 1a40
000005c0: a181 a91f 0af8 1ac0 b018 f004 3901 0b40
000005d0: 3fcf b4e7 7c3d f2bf d6fc e08e ea67 f3bf
000005e0: d919 0b50 75da 0d40 6e23 90fe 0aec fabf
000005f0: de7e 90a7 5b0f f3bf 506f 8b24 8dfb fbbf
00000600: 7e0f 4dc2 1694 d4bf 59a9 543e 0bf1 15c0
00000610: 6c80 f2d1 98df ff3f 9259 32ed 3091 14c0
00000620: d03b 65b3 90ef 1340 669f 55f7 b196 1cc0
00000630: ae2b f157 65f6 20c0 4ffa 62b9 e035 18c0
00000640: fa6f 2009 284e f9bf 33f1 3cdc 07f4 0f40
00000650: 887f aaf4 3111 0040 10a1 1d25 66b4 01c0
00000660: a42c b8ca 15df 0a40 4e10 96ec a06d 1040
00000670: 01bd 2ef0 070a 1140 b567 1813 2774 0a40
00000680: f4ce 9b60 2f15 1bc0 969f 7c9b 9166 0440
00000690: 7037 ac02 cef4 e33f 22db b1a2 f3c9 e93f
000006a0: f8a0 6323 d262 0e40 ef4c 4eeb e902 e13f
000006b0: e3a6 7587 98fb 14c0 bcfd 0c79 6d92 f2bf
000006c0: f2a8 2485 a75d f03f 3029 832b 20bb 0c40
000006d0: 7187 4297 7e1f 1840 b4e0 14e3 765a 05c0
000006e0: 27a1 2c6a b77f 0540 4028 65d1 6142 d7bf
000006f0: abdc 6a51 54c2 f93f c06c cb23 ab7f f03f
00000700: 42fe 9f7d 7913 01c0 b2ab bce6 a37d e4bf
00000710: 172c c38a ac58 0fc0 184b fd5d f7e6 1240
00000720: 330a 2212 765c 12c0 f751 53c6 c056 ebbf
00000730: 5aa6 0da4 2648 13c0 bcf9 4a53 aca7 1c40
00000740: 45d6 a863 a97c 0640 b29c 4bc8 2268 fdbf
00000750: 2e3d ef7a c2d2 ed3f 3872 a08c d6a9 f43f
00000760: 1059 a868 a8aa c53f be11 0d6d 7498 1d40
00000770: 01ae 0fa9 3612 12c0 df9d 928c f059 f63f
00000780: 6e6a 4208 6143 debf e3bf da37 7ba8 ffbf
00000790: e4b2 1304 f130 c6bf 74da 9fe4 744a f43f
000007a0: 96e7 b00f 0415 1dc0 4805 6c23 3df9 f73f
000007b0: 35ee e9bd 41d2 fd3f 89fb 087c 98ac f5bf
000007c0: 1246 7be6 d803 12c0 a6de 8f7b 41b6 fc3f
000007d0: fa94 b1e5 9fc8 f23f 7725 b410 decf f63f
000007e0: a29f 8223 f834 0dc0 f31d a3d7 ae96 1740
000007f0: d2ce 6069 8a84 1540 1ada 45b5 edd9 1c40
-2.4075890339406216 6.990108295746533 -3.104393778271942 3.832059725008783 1.4969058117857028 2.7622144931088517 -2.8165022515446076 0.6076798517476318
5.1357856886081965 1.3538472122356051 0.20635203669712676 -1.6482800388101175 5.764185008717435 3.159442303508216 -1.3042519108815067 -1.6753765846782525
-4.092323353087225 -4.50296021942592 1.3183220621165097 -4.570309162645274 -1.6104400858000858 -4.768270343576017 -1.0976281670376178 4.732065364252874
-3.323045182479784 1.330755339886587 -5.807038994706555 -0.11821005086140945 -3.92578967258409 -0.22439036614230984 -8.303703975526885 0.8100606715373933
4.170054296307404 3.1099412774298285 -1.14748010094288 2.2060174311828367 4.9723784010833825 3.958358417867089 1.2203411834498814 -2.4989504480977054
1.190178335349395 -0.5781198333480412 -1.301238385042125 3.6588706960538664 -2.129469895753326 -3.2872557129297446 0.36168011835101127 -0.9845534010996924
-4.729806212550538 -5.310058301498133 0.966756501407182 -1.4412428528481893 -7.2272500638522965 3.6750925826765144 -6.527807139201348 -3.7365584256502427
-4.915244079072371 0.412011022738959 0.40770190102080384 1.994125898058439 2.318780411639641 8.262813944440445 2.315173421529653 1.7004117088989141
-2.9882862213663146 4.056533330044557 -2.3044864553746804 2.091470207451896 1.5190002230342026 -6.967187664151972 -4.634198306467179 0.41477179980833667
6.075586631924457 4.2716925256150144 1.5461305329974535 -3.6492879000227383 5.791593889674678 -2.9064566070288125 -4.706235141277833 3.006010240094072
-2.6934293951963024 -0.09629455595500414 -7.686200700734243 -3.804013709040553 1.1340561426513118 0.3373794118959874 -5.637555631271321 1.2129648042706553
0.9198845125259384 0.2903825900756287 -3.66555053827197 -2.4750871161524444 1.9067519490643612 -4.378961583863884 1.2261288251476212 4.25156239132192
3.365012819558666 -0.7109583054215797 -1.14074251772743 -0.16738448089689512 -1.5004352487085528 0.1626500949095404 -0.8218581441631322 -5.325397936144988
2.5290811297339557 1.898721027654885 -4.664812101204225 2.6394665736883383 -1.812049472474704 3.339942991791216 -2.7545645338433156 2.2048887577868457
1.3151768244910385 1.0616056777747527 -0.9466387043509275 -6.462932207398912 -4.924033152947636 0.6631604572940457 1.2671460059180506 -2.297870879215514
11.028064029159747 -0.9451702929861017 0.7738193889546598 -1.3523702013554522 4.916443999676575 -2.5096088653499593 2.3015745933213374 3.0961684863261945
-1.0222403279620642 0.19453937480543015 -2.4658894906702282 0.8091216061628512 -0.005770146797592357 -1.5526125414533192 5.3463027129391625 0.3521105792497141
-5.741987760015045 0.19642668072624903 -8.080536908988918 5.901964625211974 0.9088161619125331 0.40593646268678196 -2.605130697911074 3.4927191283374976
7.365208063249535 -3.9814506933872345 -3.0722534054350596 1.6238598568110094 -1.0197364447453499 4.957473556543446 -6.93595406853935 -3.0282509308566086
0.2193319783847958 -1.8682307445531718 0.6003732205260608 3.3815006327302823 11.392082435177203 4.722202700038672 -7.07425126926005 -3.139167063602379
-1.4759919836579096 1.385535834621214 4.343145972475736 -8.382823637259012 4.209719695053206 1.984305876358692 -0.09182631109887596 -0.15734197748483592
-0.8264375431470852 -3.8473319775681762 4.571155296941271 -3.4800441898453043 -1.3297655844748644 -1.2459557997163972 -4.392514370479287 -1.946897127300406
3.329872515691512 3.645055805700928 5.64698039505932 3.233080410244211 2.2299414077388287 -4.116712800231273 -0.17166623029509687 6.69379397972347
-6.742226118775222 3.3755970369121187 -1.1400116969134186 -1.2128701764302625 3.7316690686595675 -1.6826276725643896 -1.1912495179639602 -1.7489139010931076
-0.32153862929066424 -5.485394452969865 1.9920890999856296 -5.141788202474702 4.983950427106677 -7.147163261986725 -8.48124193972566 -6.052615067163585
-1.5815811497222954 3.994155617341812 2.0083960642368233 -2.2130854510943507 3.3589282834487495 4.107059189471398 4.259795906880073 3.306715153867993
-6.770688542852202 2.550082411518768 0.6236333896829205 0.8059023072845302 3.7982523693827908 0.5316056819741827 -5.245699039989378 -1.1607489326996605
1.022864837732922 3.5913699530985 6.0307563433033105 -2.6691720715280898 2.6873615546102374 -0.3634266419290988 1.6099436931961388 1.0311690710284864
-2.1345090689135597 -0.6403369433004313 -3.9182978478252255 4.725553005776213 -4.590294154479625 -0.8543399690193486 -4.820459903081053 7.1637433065902165
2.8108699594402276 -1.8379237960851182 0.9319775010170923 1.2914643758041517 0.16927056417689146 7.398881629870116 -4.517786637861264 1.3969579211351328
-0.4728624897631225 -1.9786331350151094 -0.17336857508725878 1.2681778841630633 -7.270523305103685 1.4983493217153683 1.8638322275645696 -1.3546376080628042
-4.503757096551924 1.794496042884853 1.1739806148919443 1.4257488872993613 -3.6508639120329045 5.897151345568534 5.3794342484795425 7.212820846928048

arr_1 f8 [128]
00000000: 8daa 3a0c 35d8 0240 074d 0644 5c52 1040
00000010: 104b f9ff af3f eb3f a4d8 4a80 e07f e8bf
00000020: 7073 076f df42 c3bf 083e 09b3 0122 0e40
00000030: dee1 64c1 295e f43f d7c8 06a1 0d3a 0440
00000040: 95af 9a9a 8c96 18c0 8472 7919 bb18 0140
00000050: b9f6 f92d 6ed5 0740 3e25 c516 b0d9 febf
00000060: 412c 5809 df8c 02c0 6cef 7109 b0f4 fdbf
00000070: 15c6 1985 dff9 04c0 c753 7ab5 3d16 1440
00000080: 913a 7e95 f564 1040 f5fd 6fbf 1b82 1040
00000090: 4ee0 67c4 a1f9 02c0 01c8 a826 b9f0 1440
000000a0: 01ea d96c 9476 fdbf baf0 aa62 7b47 15c0
000000b0: 08b9 90aa c259 b6bf da2f c386 9ed0 f63f
000000c0: 36b9 c358 a7c5 17c0 c2ff 7364 a3f2 0d40
000000d0: d3dc 35fd 479f 0ac0 066f 58ee b0d7 efbf
000000e0: 0d8f 319e 9e72 fd3f 5a98 0c59 e590 f2bf
000000f0: 855f 0b60 1d73 f23f c0ef c17c 9bce 01c0
00000100: e52d 9943 768d 0f40 f6ba f961 1d34 15c0
00000110: 941f 2afe 8399 e73f d3de e4cd f550 f13f
00000120: 7957 88fe 43fc 1c40 e855 13bd 986c f3bf
00000130: b6a0 7b8e 1561 e5bf d9d3 ebd0 1a66 16c0
00000140: 9298 38c8 6a95 08c0 35d3 505c e918 0bc0
00000150: bf8a b907 b6eb f9bf ea7d bc37 27ef 01c0
00000160: deca dc63 433b ea3f 7f49 b29a a8c8 01c0
00000170: 1ad5 ae84 b664 04c0 785e 238c 965f c93f
00000180: 2a3d 228c dd86 1040 80b6 1abe 6b6f 73bf
00000190: b4ca e5b1 aee0 f53f 5a95 25ea 2760 04c0
000001a0: 4483 6731 ac57 0040 fa1c 1e19 b796 0540
000001b0: b1d2 ee4a ff05 19c0 8095 50d2 108b 1bc0
000001c0: 6005 4085 d2a8 c8bf a786 d9e2 aa76 02c0
000001d0: ab54 2e98 7a5a 02c0 da3f b46a 24af f1bf
000001e0: 95e5 9511 e7f8 e8bf 54a0 c523 8d6c 0440
000001f0: 779c 51d7 e84e 2240 f91b 2634 2396 06c0
00000200: 8c00 e462 3bed 01c0 6b85 57ec 164f 0740
00000210: aed7 832b 327f 09c0 3378 a259 8f63 f5bf
00000220: 73f7 f427 6fed 1540 78d6 f750 e529 e9bf
00000230: d012 c757 7043 bebf 140c 329f d20b 0fc0
00000240: 949f a438 1b60 1d40 d057 9c5b c7bc 9dbf
00000250: 6487 d325 995a 2140 44b1 e456 c121 17c0
00000260: 394d b443 bc68 0e40 54f6 6b96 15bb ddbf
00000270: d108 8fff 08c2 16c0 ecfe c64f a6c0 14c0
00000280: fd6c 0658 cbe8 10c0 f2f2 2d44 b3be eabf
00000290: 55e6 9041 b74c 1ec0 182c 5ec9 c445 b83f
000002a0: 1221 2b26 60a2 e4bf c657 4aa5 5296 f5bf
000002b0: 6837 ea76 68c1 e83f b816 8326 d4cb 0dc0
000002c0: 1aed 4d08 119b f33f d879 fcd2 9d08 1740
000002d0: 4464 66c6 01c9 f1bf 9462 8fdb 852a 0340
000002e0: d658 7dd6 9ba7 f43f a4e7 bc70 35d5 1040
000002f0: f3dc 9fa8 1d2c 1240 466d f9c5 3a4a 0cc0
00000300: 736d 9961 b79e ff3f 148c 3a01 83f0 d4bf
00000310: 3c31 ed9e 6ec1 df3f 1592 49b9 d473 d7bf
00000320: c0f1 866c eef4 0140 32cd 8298 4bcb 0dc0
00000330: c7b5 aee7 b653 e53f b184 ee58 5bc9 e23f
00000340: ecf8 6f74 7da6 11c0 d887 5adf d24b 0bc0
00000350: 3be0 6469 c6ff 0a40 582d fef2 58c2 1cc0
00000360: aa4d e40c aaf8 10c0 01cc 7a9c 85c0 f73f
00000370: 565e b836 c61f 01c0 1fca bd44 cd71 1040
00000380: 0a42 a12d 8422 0e40 61fc 53a6 72c2 05c0
00000390: ccb4 8d68 4f4e e4bf 427a 90d1 c164 e73f
000003a0: a287 7a20 7dfc 0ec0 ee76 f161 7fe6 16c0
000003b0: d8a6 b0ef 4553 dcbf e5ee ce88 aeaf 22c0
000003c0: 0655 912e 5643 ecbf bb34 691e 6e5e 02c0
000003d0: 3063 6aa2 23fe d5bf b4f3 c0cd 54a5 0940
000003e0: 2a38 a18d e8f0 f3bf 131c 579e 59ec e93f
000003f0: 7255 afb1 a1d8 f83f 76bd 8ea4 fdb1 bfbf
2.3555699305919178 4.080430090794159 0.8515243529785455 -0.7656099801740948 -0.15047829552977587 3.7666048037715463 1.2729890398460308 2.5283463077731585
-6.147020736399914 2.1370756139934333 2.979214057150639 -1.9281464471299183 -2.3187847833665107 -1.8722381943652762 -2.6220083616724517 5.021719775763763
4.098593078450578 4.127058974466753 -2.371890577716875 5.235081295062629 -1.8414501430512475 -5.319806615527506 -0.08730713524048295 1.4259324325712357
-5.94302118963815 3.743475708761225 -3.3277740270674285 -0.995079484480329 1.8404833011090347 -1.1603749731525768 1.1531041862235452 -2.2258825060543757
3.9440732270356755 -5.3008933361695565 0.7374896968985802 1.0822656672225335 7.246353127547871 -1.2140128503573298 -0.6681010992879439 -5.5997116702974035
-3.0729575769683573 -3.387163850037178 -1.6200466443776091 -2.2417740206144474 0.8197342825354459 -2.222977837148562 -2.549176251016104 0.1982296165722237
4.131704511251238 -0.004744931096565375 1.3673541020513484 -2.5469511311263604 2.0428089008059107 2.698591419440729 -6.255856676889992 -6.885806356590706
-0.1926520491252104 -2.3079431269296324 -2.2941791428698557 -1.1052593391541365 -0.7803836196391553 2.5530035776792293 9.154120186531356 -2.823309333241465
-2.24083592661197 2.913617941304144 -3.187107410393728 -1.3368066312173255 5.481869339300704 -0.7863642293365976 -0.11821653502472462 -3.88077282306177
7.343853840873539 -0.029040446249460505 8.676949674674411 -5.7829640938837805 3.8011403359793374 -0.4645437211000616 -5.68948745069993 -5.1881344285209074
-4.227338195221134 -0.8357788402205115 -7.574917816609362 0.094814585840297 -0.6448212380865093 -1.3491999107986756 0.7736093828732296 -3.7245257385974035
1.2253580402746764 5.7584145514105884 -1.1115739583967903 2.3957631257183696 1.290920102930206 4.208211671380841 4.54308188892104 -3.5362449137443575
1.9762491047357258 -0.3271796714781783 0.4961811592118186 -0.36644476026984424 2.244595382564711 -3.7242652811925376 0.6664690518425055 0.5870796906421188
-4.41258794721055 -3.412023301077152 3.3748901590261347 -7.18979243923544 -4.242836190638096 1.4845024216162985 -2.1405147814764787 4.111134599765619
3.7668536724888826 -2.71994523948483 -0.6345593492566421 0.7310494511655821 -3.8732855355637676 -5.725095301020458 -0.4425825920794586 -9.343128466854475
-0.8832198056722127 -2.2961084724289242 -0.34363642559906094 3.20572815651982 -1.2463155300533892 0.8101013271888199 1.5528885784927664 -0.12380967395323758

arr_2 f8 [128, 64]
00000000: 7cfa 05f4 49d1 efbf a07d 3846 ae09 b5bf
00000010: 60a7 8593 9dbc 2440 dc6a 8ed3 3e80 c5bf
00000020: 5990 a824 8992 1040 57f7 80d8 8d07 fcbf
00000030: 505e 8b83 e691 fb3f 18f0 79aa b1a6 1cc0
00000040: e028 7568 afea 11c0 cbcf 924c b98c 0a40
00000050: 4e2e c480 3125 12c0 441b 4fec 706c 0040
00000060: 8810 9ccb 8531 f4bf 8764 b405 1023 f43f
00000070: 3069 847b 6bd2 02c0 f7e8 3008 bde9 1840
00000080: 33d3 dc5d 8c16 12c0 cca8 0604 243e fb3f
00000090: 8402 2ba5 c40e eb3f 2039 478f 36c5 1240
000000a0: 003a d839 dbfb 6cbf b83c 7bf2 ecd7 c2bf
000000b0: d62b 529c b354 1540 137c 035d d023 00c0
000000c0: b810 846c 70f1 f9bf 002c 7beb 7981 0ac0
000000d0: d815 0125 1185 1b40 6cff 56dd a63c 0d40
000000e0: ecbe e32b 6cb5 1440 fec4 91a2 dde3 01c0
000000f0: 8819 abc6 ffab c3bf 7380 e414 c433 1e40
00000100: fc12 ee59 bb4b c43f 274b 7e98 3261 e23f
00000110: bc94 2c21 3473 dbbf 2486 919b 3502 f0bf
00000120: f01d a682 6b0e d93f 3e3f 721d b08f eb3f
00000130: c071 26c5 e720 1840 33d4 9cc3 00d5 05c0
00000140: f48e 4b66 ae9e fe3f e4c8 68ee a9a3 10c0
00000150: 2c95 63e9 f185 f5bf 805c 04e7 028c 1340
00000160: 766c e066 51ef 15c0 efe0 5488 8d2a 0040
00000170: 3268 b468 eda3 f8bf 515b dece 4732 1040
00000180: f601 dacd 4be9 2340 fa5d 62d1 311b 0fc0
00000190: 0d60 46fd 8c4a 0f40 6cc9 e271 6051 27c0
000001a0: 8020 fcc3 7215 a63f 4ac8 24cd a420 ee3f
000001b0: 3dd5 3e75 cc47 15c0 96e1 f64b f2be e6bf
000001c0: 5ab4 b107 c0ae 11c0 79e2 39d2 44ce fcbf
000001d0: 8495 6cb7 267d ee3f bb3f c16e c769 f93f
000001e0: 70e7 9dbe 5305 1840 b9d9 f70a f6af 10c0
000001f0: ff80 f419 52a2 09c0 b223 f4e4 536c da3f
00000200: 3430 f9bb dc26 1c40 2ca0 5b1c 6045 17c0
00000210: ceac 0b29 ca07 e2bf 9ceb 3411 bd5a d33f
00000220: 6ee6 7e24 05a9 f2bf 29d7 3d44 3a4d f8bf
00000230: 3cc6 1be1 5c60 0cc0 e0a2 9e04 b017 d03f
00000240: d015 f994 51eb debf 152e da98 6c9f fe3f
00000250: d382 7068 2913 19c0 c238 e3cd 7b08 0b40
00000260: ab6a 0de3 0c7a 0d40 984f bc5b 8873 e73f
00000270: a861 3d72 b001 ebbf 65a0 a20f 77b5 0940
00000280: f1b3 0750 0c30 e23f 2232 da90 8d07 0440
00000290: 43f6 e686 6fe7 df3f 3cde d4cf 7e46 0b40
000002a0: fb22 d51e e618 12c0 aae8 aa3f 4453 1b40
000002b0: c64d 5b90 e689 d4bf ca7f efce e4ad f83f
000002c0: 0b8b 5240 8cb9 0940 6eef 2257 d872 f63f
000002d0: 489f 786f 3b64 ddbf b0d9 2c66 ec3b abbf
000002e0: 2191 8aaf 6798 0f40 9e35 76e4 5751 03c0
000002f0: 32aa 7460 fb3b 03c0 b1c8 68ad 38f9 0bc0
00000300: 1266 f075 632f 1440 7ddb c247 59f5 fdbf
00000310: 67a9 5ab1 ff8d 05c0 b05d 4088 37e2 01c0
00000320: d669 a879 0dfc f4bf eed2 0887 3bb1 0ec0
00000330: bc16 5e07 0b75 cebf 0f82 8cbf 8dc4 d4bf
00000340: 0d79 a8c2 4f4d f53f 6217 47d6 cd05 ea3f
00000350: e851 97ad 9564 0640 fa01 1966 25d6 ff3f
00000360: 4639 ff00 4f04 ffbf 1b93 5577 d364 24c0
00000370: ec33 ff4f 8b16 e23f 4a0f 5c5d f0c0 f33f
00000380: 0a26 cac0 4e3f 0240 8cb0 9d8d 60ee c1bf
00000390: 1e23 a24c 8ba8 fa3f 31dc a5d3 33c9 fb3f
000003a0: 6c78 4294 7449 fabf d378 6fd1 b9f1 e5bf
000003b0: 9d12 2a9e 954e 0140 e28d f712 1bc2 08c0
000003c0: 4ac5 13d7 0a18 1840 56ca 275d eb24 f13f
000003d0: 1419 d991 f2ce fb3f 7486 7c91 9715 0140
000003e0: 2e5c 810a bf5f f8bf 9769 3c5f 5062 f5bf
000003f0: d912 fd78 4d46 0040 24c5 015f 0def 00c0
00000400: c626 c2db 3232 1cc0 b2ef 64e9 66c7 16c0
00000410: 9ca4 0409 8153 f93f d634 9291 a72c e1bf
00000420: 783d 1ffe bef6 ef3f d63d 6a69 6fc0 0940
00000430: 6023 9fcb 41fb e93f 0e04 5f3c 3894 11c0
00000440: c60d 10ab 5be9 1040 3b16 e45e 0b5f fbbf
00000450: b5e3 d89e d647 0e40 444a e4ab 259b e8bf
00000460: 8c67 2089 6a68 ffbf 39f8 aa0b 3c1b fcbf
00000470: cc32 8da1 a542 fbbf d259 07e0 2233 0fc0
00000480: fa8e 8403 271e 08c0 5cf6 f173 db9d 08c0
00000490: 6af7 2bb1 1fcd 21c0 6c4c 7781 87c0 e53f
000004a0: ec99 3f5e a8eb e33f 6129 5eac cd75 f13f
000004b0: 9f25 2e61 ea52 0dc0 6d6d c375 736f 04c0
000004c0: 5296 30e3 bf77 d8bf aca5 01cd 5f09 ef3f
000004d0: d248 5919 5064 da3f 7919 3544 2326 0040
000004e0: 0644 c62d 1de7 1840 302d 5f22 f7d3 1bc0
000004f0: 5caa a38a 6c4b 10c0 43ca 0766 0f4b 1ac0
00000500: 3146 b47f 7440 00c0 7304 e725 7d6d 0dc0
00000510: 8728 0b09 f024 1dc0 a91a ad4b 21e5 1740
00000520: 60f6 d5d8 7ed3 aa3f 9ed9 86a0 9611 1140
00000530: ad2e 3f56 b7a0 f03f 5ee7 80c8 1537 10c0
00000540: 8ebe b3e5 ffaa 1ac0 792f 1c8b a7f9 03c0
00000550: 1ee2 0c68 6f97 0640 a63d 2890 0530 1dc0
00000560: ea76 bc80 2846 f5bf ea19 d3c6 aa36 f4bf
00000570: 6643 6f8d 1dbc f4bf 761c 2162 ad66 1dc0
00000580: ac69 f7a6 f6d1 09c0 68cf 48c5 3996 e73f
00000590: b9f3 e43f e5cb 0640 7488 3bf4 5983 f2bf
000005a0: 48b8 acef 6b53 08c0 6ca4 3499 2641 d4bf
000005b0: 3c5d fcb8 c0ab 0640 ba99 2281 f78e f43f
000005c0: c89e c634 634a f5bf e56b e83b 95a2 fcbf
000005d0: 1809 385c dcf1 22c0 a713 b886 c52a 08c0
000005e0: 9025 3f93 e0d8 c33f 4edb 76cd b745 16c0
000005f0: 926e a161 a4b2 f33f 7ad7 63e4 2a97 0cc0
00000600: fa2c 19e4 d78a fa3f fcd5 ad2d 79fc e33f
00000610: 5ff9 e791 5ec4 2040 a89a f7d5 380d 13c0
00000620: c2ef 0eab 8f27 19c0 e3d9 b98b 7822 f73f
00000630: 28e3 d421 c9f1 ee3f dacd 6f57 313d f63f
00000640: 4edf bdd8 1125 0ac0 6b74 6960 7d25 0940
00000650: e780 ba90 d885 febf f525 8100 2d31 fa3f
00000660: 5e88 3d55 a908 1540 041a f53d 3cac 08c0
00000670: 7aee 3816 c0bf 1140 2d22 be54 0997 22c0
00000680: 8829 117b 67c2 f03f 0d56 fa4c 6136 07c0
00000690: fed7 dcf1 2363 f23f 6958 9111 5d2b f0bf
000006a0: 923c 7b6b e67a 02c0 a842 bd3d 3de4 f7bf
000006b0: 09df 8fcc 41b8 fbbf 33bb 2b05 c36e 1040
000006c0: 5a57 a03c 4266 0540 6938 d86b 8e6e 15c0
000006d0: 38cd 391f bda7 1340 20ba 2f5b 70f7 0640
000006e0: 7854 6c56 c3f5 0a40 e4aa b6c8 fcda 0440
000006f0: 9272 208a 6c23 0bc0 ab6f 4b92 df04 02c0
00000700: 8027 4fab e365 19c0 9ad2 4703 c2bc f73f
00000710: 4c9b ab4d a465 05c0 8c7d 0121 e428 00c0
00000720: 6332 8879 2709 1540 84dc a873 5819 e3bf
00000730: 05ca 2257 2231 1340 bcb5 2184 103f 1840
00000740: b849 0a6b 2424 0940 d1a6 fd7d 9645 e2bf
00000750: 6679 91f6 6002 1ac0 3b49 2823 e04a 06c0
00000760: a6d8 9a11 4c23 e83f f26a 2599 8d92 0ac0
00000770: 3ddb 50e9 be34 f13f 6586 4273 f770 1ac0
00000780: 0a88 e5cb 57cd 02c0 a7c0 6a17 4062 20c0
00000790: 5af9 856e 6bbe 0640 bf30 dfe6 f4c2 da3f
000007a0: 1019 077a 766d d4bf eb48 b69c 46e6 0840
000007b0: 39a4 a886 f5de 07c0 44f5 b911 5252 19c0
000007c0: 3e35 68fd f3f6 13c0 c0eb 4bc4 abb0 1740
000007d0: aa9e 4f48 ed03 01c0 9d03 341c 59b5 01c0
000007e0: 2887 7fed a77e 10c0 b481 2920 0673 dd3f
000007f0: 9a60 ab26 da4f ca3f faf4 10d4 983a 04c0
-0.9942979589539642 -0.08217896665927649 10.368389711442148 -0.16797623948953955 4.1431012847789015 -1.7518442589930225 1.7231202257588798 -7.1627871167111365
-4.479184753561839 3.3187128050139783 -4.536321651433878 2.0529497586861982 -1.262090487814051 1.258560201915573 -2.3527440690787884 6.2282601623394305
-4.522019831278885 1.7026710660234583 0.8455527521073951 4.692590941164127 -0.0035380632168717785 -0.14721452560340764 5.3327164101746884 -2.0174872652710376
-1.621445106401593 -3.313220824905784 6.879948213759654 3.6546151439833263 5.1771704538111685 -2.236262579034359 -0.15368649674037393 7.550552679487839
0.15856115237342994 0.5743649462113795 -0.42890647163069295 -1.0005394055264185 0.3915051246517285 0.8612900328753097 6.032134132834869 -2.729005363677538
1.9137405391601847 -4.159827923913529 -1.3452014080770125 4.88672982181663 -5.483708960960135 2.0207777644064815 -1.5400213327434469 4.049102051087929
9.955656464445365 -3.888278613867212 3.9114017283536726 -11.658938940938889 0.04313238756555027 0.9414848334038279 -5.320115882835407 -0.7108088954619685
-4.4206544115268915 -1.800358601756811 0.9527772505286269 1.58832495940804 6.005202272784899 -4.171837016465752 -3.2042581584684053 0.41286179884678653
7.037951409420248 -5.817749446003329 -0.5634508897468551 0.3024132411989571 -1.1662646699536725 -1.5188543954549891 -3.547052153263193 0.2514457745660774
-0.48311271236556497 1.9139219256202342 -6.268712646357659 3.3791423878638804 3.684594892355866 0.7328531066618664 -0.8439562064404997 3.213605997229069
0.5683652461135563 2.503687984141167 0.49850071119349 3.409421561893195 -4.524315339812115 6.831315035635422 -0.3209167871220554 1.5424545367641138
3.2155995392980734 1.4030383495109748 -0.45924268613679375 -0.05319155452018565 3.949416514793612 -2.4147184227537783 -2.4042880569079665 -3.496690134773495
5.046277849958203 -1.8723995974703194 -2.6943353515427364 -2.235457481827062 -1.3115362884769772 -3.836539320904527 -0.2379468713735856 -0.32449668603843035
1.3313748935539167 0.8132085023032511 2.7991136133007224 1.9897817600432277 -1.93855190648499 -10.196925858684656 0.5652519762458019 1.2346042296275805
2.2809119283381323 -0.14008719363062416 1.6661484712114496 1.7366216914649721 -1.642933444155939 -0.6857575502906691 2.1633713108625003 -3.094778202228313
6.023478851873117 1.0715135229953794 1.7380243012608547 2.1355429998519018 -1.5233755503047735 -1.3365024299770079 2.03432745477981 -2.1167247221388994
-7.049022134518685 -5.694728514466918 1.5828867294569937 -0.5367009967027581 0.9988703692742282 3.218962501101241 0.8119210221276312 -4.394745772647196
4.22788874898419 -1.7107042032888689 3.785077324861471 -0.7689388615857031 -1.9629922253138572 -1.756649060800113 -1.7037712393386526 -3.8999688627475075
-3.0147228503063817 -3.0770787294593855 -8.900632416359901 0.6797521141655927 0.6225168076314822 1.0912605984800268 -3.6654861061294493 -2.5544194412483905
-0.382308933129342 0.9698943141967695 0.41237261271920744 2.018621952887028 6.2256972458135404 -6.956997429904092 -4.073656240691516 -6.573300928330869
-2.0314722039118114 -3.6784613572240743 -7.2860719121037 5.973759825172842 0.05239483258172295 4.267176159124942 1.0392373436942919 -4.053794033878004
-6.666991795631146 -2.496901594922687 2.823942959683577 -7.296896221595864 -1.329628470302334 -1.2633464590631953 -1.2959266209402016 -7.350270779868074
-3.2275212330107106 0.7370880940638758 2.849558352636873 -1.1570682087263124 -3.040733215769283 -0.31647648774612125 2.8338636829390946 1.2849040073721043
-1.3306610166127246 -1.7896931018974496 -9.472384340133928 -3.020884563915803 0.15505606832293184 -5.568083963756022 1.2311137975401931 -3.5738122790307303
1.65889729596057 0.6245695011299968 8.383534011428024 -4.762912123906666 -6.28863398817697 1.44591574268781 0.9670148525975479 1.3899396338937238
-3.2681004460281775 3.1433055431539763 -1.9076772359331302 1.637005807848593 5.258458454018266 -3.0840992775367813 4.437256190514399 -9.294993065080314
1.04746196816504 -2.9015527738472486 1.1492042014847352 -1.010586804031414 -2.310009803484328 -1.49322246663011 -1.7324846258833893 4.108165818018096
2.674931024211145 -5.357965169021647 4.913807380583698 2.8708197711887493 3.3700014831361464 2.6069274597879133 -3.392296866526814 -2.252379553725367
-6.3495013014852475 1.483583462538411 -2.6746297901148974 -2.019966371400818 5.258939646661562 -0.5968439349152423 4.7979825606330495 6.061586441571702
3.1426475870623243 -0.5709946118124326 -6.502323010090867 -2.7865603205365495 0.754308733353146 -3.321559139685058 1.0753773797893722 -6.61031894773041
-2.350265114729159 -8.191895229131047 2.842978347266734 0.41814920946195494 -0.3191810790707601 3.112439369500057 -2.9838667412009525 -6.330391194319706
-4.9911651224950315 5.922530238279194 -2.12691742413502 -2.213548870408387 -4.123687468441666 0.4601455034335473 0.20556189430385957 -2.528611809508786

arr_3 f8 [64]
00000000: a72b 03b8 692e f43f b04e 893e 7f11 eabf
00000010: c71a a13a 3de0 ec3f c6d5 89d3 f2a5 febf
00000020: 84a0 60f0 c10e e2bf c260 4b5c 3323 03c0
00000030: 3d7f e8de 48cd 10c0 ded0 2427 991f 1ac0
00000040: 18a9 0b9e fcfe 21c0 10f4 6aaa c8aa ff3f
00000050: 06bf d38e cc67 0bc0 f04b 40cc fbb7 01c0
00000060: d43e 1759 6ce9 0fc0 ed97 61f9 65ea 0040
00000070: 69af aa2e 8697 21c0 e965 0eda a18c eabf
00000080: 2730 c57b 4d5a fc3f d062 ec4b 5250 f4bf
00000090: 5218 6dde 832a 10c0 0038 edff 12ff 12c0
000000a0: 04da 6fc5 fccc 1240 6796 574f abd9 11c0
000000b0: 2c90 30b5 191d 1140 c46f dc75 c649 e2bf
000000c0: 2776 cb02 a660 f13f e281 299e 2dd7 fa3f
000000d0: a302 6cfb b673 20c0 b2ba 7b05 0a2c fc3f
000000e0: 2769 fc65 dd86 02c0 8e73 fc94 c264 ecbf
000000f0: abec a3c2 12f4 fabf 78f6 eee1 b654 0640
00000100: b484 a3d6 6517 10c0 9e10 ad71 f7bc 01c0
00000110: 2669 0fe8 da37 1640 fc18 ac04 e25f e3bf
00000120: 80ba 619b ad2d f43f 12a8 61c1 126a 06c0
00000130: 4107 ca37 1a33 0640 78ad b203 5a8d 17c0
00000140: 2610 e2c2 7a00 22c0 6af8 c7ac ae5c 0cc0
00000150: 3872 9c90 2e48 0bc0 d894 2103 a458 0f40
00000160: 580d 5bf5 979c 07c0 c44e e61d 3a93 ff3f
00000170: c013 ce11 3015 02c0 2ed1 68d3 524f e33f
00000180: 90db bdd4 b0d0 07c0 f0b1 6db4 99a7 fcbf
00000190: ecc5 fd0a 1adf 0040 208d d537 ac4d b3bf
000001a0: 446d ef46 5167 febf ca69 1ce6 59d2 02c0
000001b0: 9b91 b762 2b93 f53f 8c3d 98a0 a8ae d43f
000001c0: 785e e731 fde2 05c0 1d8f f057 eaf5 f4bf
000001d0: fb89 3997 0b83 0340 5c32 5ecf efbf 11c0
000001e0: 7e34 f8cd 1d53 1a40 526c 79e0 ccd3 d53f
000001f0: ac0f e220 fb39 0640 ef48 95bf 0a16 0a40
1.2613312900527747 -0.8146358701146337 0.9023729462722593 -1.9155147803515873 -0.5643014616844231 -2.3921878061774757 -4.200473292294018 -6.530857669469894
-8.998021067546276 1.9791952759690083 -3.4256831320161636 -2.214835735046556 -3.9889761886805477 2.114452312746826 -8.79594560464439 -0.8296670206938731
1.7720465502525344 -1.2696097341305865 -4.041518664749747 -4.749095915654834 4.700182995750314 -4.46256755802242 4.278418379868565 -0.5715057661031939
1.086095820347859 1.677533738919117 -8.22600541776166 1.7607517446701135 -2.3158519714026116 -0.8872998151669991 -1.6845882037294284 2.791364445786538
-4.0228494202903455 -2.217268837064764 5.554545999470326 -0.6054544535880093 1.2611518926238716 -2.8017935855796248 2.7749523504761844 -5.888038690357796
-9.000936594100562 -3.5452550409818757 -3.410245065473898 3.918281578504871 -2.9514617126857665 1.973444096370188 -2.2603455916418795 0.603433049115244
-2.976899778408047 -1.7909180686939372 2.1089363917060293 -0.07540394175662302 -1.9002239962490686 -2.3527105309887917 1.348430047620332 0.3231603210742484
-2.7358344935162755 -1.3100379405158897 2.438986951297236 -4.437438240169822 6.581168382906183 0.3410522644168782 2.7783110207546624 3.2607626883919845

arr_4 f8 [64, 32]
00000000: 66c9 4585 8500 e53f 41ad c96c 7423 f5bf
00000010: ccaf 912a 5401 fd3f b6b0 8e22 1fff 1b40
00000020: 62da 1362 1908 f53f 061a f334 6df6 ea3f
00000030: 0e78 5101 85e5 fcbf b441 937f f272 0c40
00000040: 18ca f974 56c2 e53f 4206 e0c6 6f52 23c0
00000050: 9f83 e540 92d8 20c0 46b2 cf49 dc0f 0140
00000060: 9f3b 7253 333e ecbf e67a 8262 cc6c e1bf
00000070: b398 c6be d44d 0f40 8406 5234 71ed 0c40
00000080: 78f3 a592 309f 0b40 0719 f37e 00bd 21c0
00000090: 241b 10bb 4e68 e63f d8c0 ba0d dfc4 b6bf
000000a0: 0a55 ad7f 6894 0140 8ab9 9c6d 30ab fd3f
000000b0: 23c9 25b3 ef81 1240 182a db68 478c 21c0
000000c0: 081c 4575 4ddf 0740 f4fd 7443 7703 cc3f
000000d0: 6d6d e62f 04c6 10c0 58fe ae0e d7bf d6bf
000000e0: 295b 247b aa93 09c0 18c8 f189 d6af 08c0
000000f0: 5235 7f1b a96d 21c0 0807 b68e 31f0 1ac0
00000100: 0797 f151 932a 07c0 eab5 fcf5 3fc7 eebf
00000110: 8d58 a486 3b63 02c0 a6d6 40de ae40 2140
00000120: faa3 bac1 d51a f83f 9b00 13a0 d1d0 0040
00000130: 647b 8681 f408 17c0 a696 134c 3e30 1140
00000140: dc09 2c4b e2c9 06c0 a6dc a923 4c7f 0240
00000150: eb60 0248 6cef f9bf b862 3592 ae43 10c0
00000160: a05e 5279 83a8 a03f bc95 612c 549e fabf
00000170: 8a53 dc62 be20 e4bf 002e 24a2 7361 79bf
00000180: ec4d 04a9 ad2a 1640 909b cd3b 27f4 0bc0
00000190: 6296 f5f3 0457 00c0 18a7 a1c6 df05 0840
000001a0: 376d ce4a c9ab 1fc0 5681 8a71 6afa ffbf
000001b0: 0513 8d14 87de 01c0 40d3 a039 4429 0f40
000001c0: db0c 0bbf 00fa e83f 5e60 b4a7 8bcd 0940
000001d0: ba9f c348 0da8 de3f 3901 e5e1 627a f0bf
000001e0: d1dc 6f2a 3242 1240 70ca bb34 d378 c3bf
000001f0: 40ea 95e7 2dac de3f 4aa1 e266 57ce fb3f
00000200: 6c17 a4b1 8896 fcbf 6c89 8cad d029 f03f
00000210: 35ad 3757 ef81 e1bf ed37 e557 b4f4 fe3f
00000220: e826 db00 fa36 0dc0 9c67 20b8 641d 1540
00000230: 144f 0e2f 190b 0dc0 ec54 6048 64d8 0940
00000240: 0f3e b24a 1251 0340 2c98 105a 06b7 f7bf
00000250: 886a 26b2 9281 1840 0008 dc86 b1af 7bbf
00000260: 2459 d1bb 871a d83f d05d beeb f21b f93f
00000270: a025 6a85 5455 c13f 5020 29a1 fa89 9dbf
00000280: f856 d6af a77f 0740 0e4a d989 31d4 e93f
00000290: 2a3d f7bb f008 08c0 090b ba59 2d5b 1f40
000002a0: 0dae 2810 3d6f e2bf 706a 98cf 9ca0 d73f
000002b0: a21e 5233 99ea 22c0 1029 9dfd 302f f13f
000002c0: cd8a 4ea6 480e fcbf 3c6a 431a 75db 11c0
000002d0: b5e6 9bc9 3a24 fc3f 39dc d29e 79c9 0840
000002e0: 250f e4f4 b9ce 01c0 500f 7b6c b9b0 d5bf
000002f0: fb10 bd4c 7f10 04c0 12d2 91cc c94d 0f40
00000300: 70e4 8888 510c 0940 c8f8 3448 b402 0cc0
00000310: cbf0 6c71 4bab 16c0 5a20 09fc 8827 1740
00000320: f63c 5cc7 bd5d 06c0 981a 9cba 7a96 f13f
00000330: a51f adb6 c849 0bc0 6817 12d8 01e1 1dc0
00000340: c291 d7c9 d763 f73f c213 5146 aaef 1840
00000350: cd57 6996 d396 e0bf 5f79 d485 9b2d 03c0
00000360: 22d9 7707 3379 d4bf 8b2e c408 7509 16c0
00000370: da87 25c5 810a 0240 346f 7ee0 2d65 1340
00000380: 52bd 234f 1211 10c0 aea4 61f6 245c 1940
00000390: d055 2eaa 0798 bbbf cc08 d853 d757 0e40
000003a0: 5a27 1267 8c9e 0dc0 12e2 2bca e1d7 d03f
000003b0: 98bd ecb2 6059 f6bf 46ba 0996 98db 04c0
000003c0: 2aa7 cfa4 d46b 08c0 2d84 415c a4d1 0940
000003d0: 68c3 c6b5 2a2f 1dc0 6c10 360e 997a 05c0
000003e0: a783 cd43 fed3 15c0 1ae1 987e d6c5 0340
000003f0: 8206 0bd0 6b1a 0bc0 f552 1632 8ed1 0140
00000400: 1ae2 005e 2c9b 0940 7a6d 2da5 7a75 0040
00000410: d095 b8a7 14cb 07c0 f8b2 c083 a551 f83f
00000420: fac1 aad8 1434 d4bf e2ee 0784 3a26 edbf
00000430: ae3b 902c 7d91 f0bf 8d5d bf68 4373 05c0
00000440: 501d c690 ae72 f9bf b162 27d9 3521 1dc0
00000450: a671 4147 59b3 1340 3a6d df34 2874 1440
00000460: f2ce 5f73 c632 0e40 2bcf fc7f 9255 13c0
00000470: 048b 775e 2e66 0040 5c3b 0fe0 6495 0ac0
00000480: e1cc 67e5 fd62 07c0 406b b125 f3f2 bb3f
00000490: 87e9 efd4 9567 05c0 41a7 b59f b9ac 0a40
000004a0: 94d5 e5fc c062 fcbf 8018 76a1 3cc8 fcbf
000004b0: 4a0b d2db fc6c 1b40 344c a10a 3f7a 0840
000004c0: 4ef0 9a01 ea71 0040 b046 1b4b aef1 0dc0
000004d0: 5fd9 aa44 4570 e2bf a5c4 06e1 4673 f23f
000004e0: c5bd dd97 087c f5bf b84f 728f 96ae d0bf
000004f0: bbd2 4fe7 7721 f7bf f40f 003a 4b0f 0dc0
00000500: 081d 9eaa f0dc 22c0 2041 d064 6e6c 0240
00000510: aee5 e43c 48fb 18c0 de9a 9d48 830b 0e40
00000520: 68b1 2758 be7a 1d40 06e6 260b 319b e7bf
00000530: 8084 4912 5f96 fb3f 6adc abc5 061d 0340
00000540: 4e69 4c6e f500 e2bf d024 5925 d90d c03f
00000550: c0dc c1ed 48e3 0fc0 9a81 269b 30e2 1fc0
00000560: 4774 0460 0978 f13f f3a4 0e8c b53f 11c0
00000570: 16da 2dde 1df1 f83f 42ef d0b7 33d8 d63f
00000580: 1db5 a08d c57e 04c0 9633 8de3 702f 09c0
00000590: aa13 0b42 3d8a 25c0 60c3 f9bd 5191 0c40
000005a0: 2089 c3b0 2637 e0bf 5059 40cb da49 f13f
000005b0: d869 c9a6 5fdc f53f 8b2a 6960 5a7b 0040
000005c0: 30b0 b40c 40c9 bd3f 0a27 c273 6a50 edbf
000005d0: bfe8 cfc4 2648 10c0 822b d4ba 1f34 11c0
000005e0: 04d2 7301 a1d8 18c0 c847 19f9 3c70 0d40
000005f0: f9e2 f80c 426c 2340 a9e1 46fc 5e65 dd3f
00000600: 19a4 7bb8 2e72 f6bf b488 8097 ad36 f5bf
00000610: e3ca 7aa0 9763 f1bf bef0 c2fa 8087 1640
00000620: 42c5 3a01 479b f43f e476 9688 8eb4 e3bf
00000630: d47e b930 8c46 f4bf 4e67 a774 5b5e 0fc0
00000640: 40d8 1ef8 9d2d f8bf 86b2 80f5 559c f73f
00000650: 1c29 0ed2 92f3 1040 7397 f539 4638 0e40
00000660: 1e9c 4de2 b631 15c0 145d a01f a47d 0c40
00000670: 02f4 59c4 4094 18c0 82b6 1979 2c5b 0040
00000680: 835e 5894 8296 ef3f 09b1 3fae 386d 1d40
00000690: 5941 78a7 7801 04c0 4d16 cc36 b4ce e23f
000006a0: f1dc dbb9 8469 e03f 07ac c15b c65c 02c0
000006b0: 285e bb61 1b9f 0140 7ead 65aa b841 df3f
000006c0: 7dbb 9fba 1867 13c0 4827 15d1 f4fe 03c0
000006d0: 08ed 04ed bf31 1540 0ecf d44c 5639 21c0
000006e0: 13b8 4b10 426d 05c0 8422 53ae ea24 0e40
000006f0: 2c20 e2d5 5203 29c0 9080 4b13 a395 1b40
00000700: 095d f919 d8f5 16c0 5a54 65fc da17 17c0
00000710: 0c65 3ecf 6499 0ec0 10ad 0554 3d79 cc3f
00000720: df10 9440 3245 13c0 3ab7 9ecb 4388 03c0
00000730: 0e95 6568 e418 0840 9aac 1c77 3283 ed3f
00000740: 7d06 836a aba8 dabf d226 2f00 ff28 0cc0
00000750: 64b5 0321 02db 11c0 7ea9 3bd0 225f f7bf
00000760: ab7c 0d79 f9ad fbbf 5ece a0dc 7ea0 1840
00000770: 131e 60dc 49a7 0940 2d06 8fea be4d 02c0
00000780: 7e3a e7f8 79bc ee3f b1e6 e3b3 0f0d 1bc0
00000790: 63f8 2ade 3973 19c0 c27f fbbc 296e 2340
000007a0: ef62 ab78 3466 13c0 c294 0009 ba46 eebf
000007b0: 0427 70a0 f861 00c0 439f 6ab5 2914 f4bf
000007c0: 7086 f952 bd86 b5bf 9dbc 9939 6b6c 0440
000007d0: f852 7efd 20cb 0e40 a9ae f09f 9b71 eebf
000007e0: fdf1 4910 8b0d 1540 9cfc 256d 166f 05c0
000007f0: 1aa8 b07d 01b9 08c0 9f8d b6b5 8a52 1640
0.656313667581611 -1.3211559533618387 1.8128244078497913 6.999142208060382 1.3144773322252594 0.8425813707515892 -1.8060350467199018 3.556126591378609
0.6799728665049001 -9.66100903973268 -8.422990825669158 2.1327443853863626 -0.8825928335007694 -0.5445310520188655 3.913003435550388 3.6159385764629537
3.4527293640989534 -8.869144408392925 0.7002328542301695 -0.08894151768868441 2.197464940526179 1.8542942315794755 4.626890944653755 -8.773982311967345
2.9840344583240075 0.218855770051945 -4.193375347556281 -0.35545898851339564 -3.197102510497093 -3.085858419123735 -8.714180812147479 -6.734564046726298
-2.8957888032772447 -0.96182249111524 -2.298453380480231 8.626334138312199 1.5065515105763994 2.101962328510195 -5.758745216210489 4.2971126448589185
-2.84857615211625 2.312156942960047 -1.6209528744566863 -4.066095623501205 0.0325356565091941 -1.6636544927253984 -0.6289970332023682 -0.0061964528015425735
5.541678086173743 -3.4942154571649056 -2.0424899157831513 3.0028682249147884 -7.91776005635193 -1.998636668700859 -2.233656082682844 3.8951496603207545
0.7805179339706244 3.225364027206566 0.4790070734584294 -1.029879457855783 4.56464449222331 -0.15212478709107158 0.47925899139196204 1.7378763216930389
-1.7867514552212596 1.0102087764031138 -0.547111196848539 1.9347423013127767 -3.651844031036365 5.278704525926425 -3.630419128059552 3.2306600241087065
2.414585670055892 -1.482183791938506 6.126536162943587 -0.006759351219217891 0.3766192754896045 1.569323464272987 0.1354165698469787 -0.028846660696473514
2.937331556061391 0.807152528034125 -3.0043654141260463 7.839040185909433 -0.5760789218524579 0.36917801163659814 -9.45820007684171 1.0740213305276178
-1.75348725284191 -4.464313898434337 1.7588451266623626 3.0983765037631454 -2.225940621576131 -0.33891139596766084 -2.508055305023047 3.9129825574875747
3.1310148875023103 -3.5013204232373916 -5.667279979967314 5.788608491951971 -2.795772130491623 1.0992381371922075 -3.4110273620207914 -7.469733596901143
1.4618757137733245 6.234047983835753 -0.5184114396786242 -2.3972692923991157 -0.3198974202090473 -5.509235512708652 2.2551303293302967 4.8488078190965105
-4.01667140632283 6.339984750470803 -0.10778854279336447 3.7928911733916717 -3.702416234246738 0.26317639106085366 -1.3968207349060773 -2.6072246286123884
-3.0526516795988714 3.227364273785972 -7.296061363464879 -2.6848622427224225 -5.4570246309457735 2.4716005220799504 -3.387900948845357 2.2273219979346046
3.2007682174701246 2.05736283345112 -2.9741604903417524 1.519933237704377 -0.3156787982834711 -0.9109165743570566 -1.035519765926192 -2.6812809165382476
-1.590498509905803 -7.282431977299596 4.925145257348424 5.113434625756151 3.7747925771344564 -4.833566665463688 2.0498931293708456 -3.322946310486641
-2.923335830908045 0.10917586965790083 -2.67557875020174 3.334338424426193 -1.7741098288364343 -1.798885946949241 6.856433329291415 3.059690554664053
2.055622112789968 -3.743008219499494 -0.576204904666877 1.153143767365955 -1.3427816326401267 -0.26065601356935586 -1.4456709895722912 -3.632467702032949
-9.431523639489129 2.3029449344686697 -6.245392753096366 3.755621497449609 7.36986673109309 -0.7376942842303726 1.7242117609351055 2.3891730731079877
-0.5626170305506919 0.12542261432307678 -3.9859789442812996 -7.970888542390094 1.0918058157615336 -4.312215984720058 1.558866374861855 0.356945924289665
-2.5619002403897313 -3.1481645371881752 -10.769998611309195 3.570956691918056 -0.506732316247767 1.0805309237963066 1.3663021578891996 2.060230973443429
0.11635208425713084 -0.916066385355607 -4.070460391225594 -4.300902289581133 -6.21155168790256 3.6798037968482937 9.711441426641146 0.4593121970788397
-1.402876587521183 -1.3258491437959892 -1.0868145245300915 5.632327955387323 1.287909512331979 -0.6157906215409779 -1.2672235396675449 -3.9210728753650193
-1.5111369793135196 1.4756679143858107 4.237864763368886 3.777477696235047 -5.29854920958226 3.5613481970609744 -6.144778316488557 2.0445184193584405
0.987122812020019 7.3566615320562585 -2.500718410832786 0.5877324171312438 0.5128806715064497 -2.2953002136687277 2.2026889453225245 0.4883863128695437
-4.850680271148005 -2.499490388353397 5.298583701539663 -8.611986542680395 -2.6783486626727693 3.768025743400644 -12.506491359570724 6.896129895671166
-5.740082174153266 -5.77329630249468 -3.82489931019939 0.22244993784566036 -4.8175745096561675 -2.4415355594454953 3.0121544033050958 0.9222652746588154
-0.4165447750238867 -3.5200176252736606 -4.463875308848717 -1.4607265600303374 -1.7299742439861727 6.15673393947108 3.2066838471253134 -2.287961800088644
0.9605073796645482 -6.76275521353243 -6.362525435803124 9.715162187290733 -4.849809537373161 -0.9461336303544601 -2.0478374990678976 -1.2549225889760727
-0.08408721233129213 2.552938890461134 3.849184017579656 -0.9513681529837942 5.263225798142682 -2.679241993638767 -3.0903348750625925 5.5806072609588275

arr_5 f8 [32]
00000000: 840e 606b 3eb7 07c0 c0e5 c600 c573 c13f
00000010: 4436 1deb 425a 1f40 d8cf d91d 581e ef3f
00000020: 7258 d998 7536 0840 c487 5bf8 b033 f9bf
00000030: b7e4 140e 3ddf 0b40 208f 215a 17e3 1e40
00000040: 507e 8321 66df d9bf fc50 26bf e7af 0a40
00000050: 85c9 49a6 8c75 01c0 5b3d fcfb 11cc ecbf
00000060: 7bea 6462 a161 10c0 8493 b44b 7154 0940
00000070: 0020 6d4e 6a6d cfbf d8ab 4cd0 6461 d1bf
00000080: 8e94 1036 4912 f23f c555 7572 2eb5 f43f
00000090: 9874 7457 c1db fb3f be2e 0b5a 5c4c 0340
000000a0: a6d3 e99e 95d4 03c0 4873 f78b b2d7 edbf
000000b0: 348c 2bb6 bb8d 1140 f0bf 668b 10a5 0540
000000c0: eae4 8035 846c f13f bdcc 768c 798c 0ac0
000000d0: 7fd3 fa15 969f 0140 7034 b290 7700 f8bf
000000e0: 1242 b6b4 d73a 1240 e05c e17b d28e 2240
000000f0: c66a dab3 f052 05c0 ff8e 57b0 3db7 da3f
-2.964474524372976 0.13634550607620888 7.8381458984927725 0.9724541266464213 3.026591486103876 -1.5751199437586232 3.4840031719328084 7.7217687685950125
-0.40426018975083355 3.335891240460226 -2.1823971740024626 -0.8999109193409071 -4.095342194947643 3.1662317194445126 -0.245526588720395 -0.2715694460081841
1.1294643508820488 1.2942337485340982 1.7411511818129721 2.4122855219519286 -2.4788010039432775 -0.9325802549097739 4.388411375434817 2.7055979624492394
1.0889932718258089 -3.318591210723382 2.2029229848071163 -1.500114026278677 4.557463477729941 9.278949614772898 -2.6654981661825756 0.4174341413583846

arr_6 f8 [32, 1]
00000000: 6509 50bb 2c44 1140 046a ca20 282f 0240
00000010: 51b2 6672 66d1 f03f df06 add1 09e6 14c0
00000020: a7ea a8d4 f5a1 16c0 f220 352e a91e fdbf
00000030: 3f54 aa4d f576 f63f 3c27 44ed bf2e 02c0
00000040: 66a6 8484 1f10 1240 bd2d b532 01b4 1b40
00000050: b29d 5cc8 a05f 15c0 f6ec 5a32 ecf6 fc3f
00000060: 6858 c5f3 e64c 0e40 1451 3785 df00 0040
00000070: 4a89 ebdd 7b7a 10c0 61d4 d231 8709 c0bf
00000080: 948c ef3e 63f8 2240 20dd b527 f85c e0bf
00000090: 2eee c4d7 66c8 1f40 52b3 55ad b7d1 0440
000000a0: d01f d9c7 6d0a 09c0 f063 9a0e b6a8 fa3f
000000b0: e537 2b6b aa18 f43f fa83 51df 44e3 f0bf
000000c0: 10de 592b bb12 ea3f 9902 b18a d09e 1140
000000d0: 746c 1863 b045 d53f 4014 258a 2e7a cdbf
000000e0: a854 bbc8 52f0 f5bf d2de 0f64 f398 ec3f
000000f0: b480 6c43 c059 09c0 e07c 0c55 8454 1440
4.31657688785558 2.273025757004918 1.051123091582799 -5.224646831689568 -5.658164332208492 -1.8199855618459506 1.404042533283487 -2.2728270088599896
4.515745230289758 6.925785820301312 -5.343386774685699 1.8102838484763288 3.787549881420137 2.0004263312822648 -4.119613139630312 -0.12529077465811425
9.485132185689771 -0.5113487983316283 7.945704814333608 2.60240111749446 -3.130092202485663 1.6661892481263259 1.2560218988687606 -1.0554856036544593
0.814786514921197 4.405092398694841 0.33237847974095946 -0.23029119248727348 -1.3711726990780253 0.8936707453094306 -3.1688237445342455 5.082536057364649

arr_7 f8 [1]
00000000: 88cf 9212 5056 16c0
-5.584289827547657
