weights/global_round_30.npz (npz, 129966 bytes, 8 tensors)

arr_0 f8 [43, 128]
-9.62527789938279 -24.81412937655927 -15.837383873186578 17.025350712641306 5.430335408998118 17.840471041851785 4.760415362192627 -1.7967574678478173
-7.064143747069485 -21.325607795893077 16.151003852605832 -22.099301620538213 -1.137387164418523 1.6930829484572731 -5.935672694012231 -2.2476912843484347
12.011729071005542 -15.895315343678252 6.107891006077386 -8.28708068080265 8.190807564021869 5.230565528770122 8.160726671955377 17.28909016987576
-23.340504915243756 -0.07120747775853467 9.780185780792127 -11.21910092927606 -23.906234459934822 10.614672554984022 6.424442774549204 28.958063703591993
4.117749412830994 -9.555080258526992 4.330336783846211 -17.07703706462577 -5.862255246627383 25.575995692594702 -9.3702326009983 -8.445809897770138
16.164857954780437 3.505277609370876 -28.886828126477212 1.292022718101283 -30.047450635842807 1.4131680151704917 -7.728038198695795 -22.17090620609266
-12.63000939760348 -1.5705723091980681 16.097948157854045 -1.1167229654243385 -9.403954531583182 -5.407805485135711 -14.44649454967956 -26.971277935301124
-0.16619942525269837 3.2051548315202605 7.0195010176250685 -13.51724813670786 11.140633661177059 8.12968454683048 11.307896562474506 1.9273021976900284
9.305797100654068 -9.220759079324086 -13.34660744051048 0.5105828319292569 -6.832156018858779 -26.58141652453014 -15.59424079257332 7.826251290439857
-3.1313996414552463 -8.868151542851354 6.182671886294678 -18.27666094962247 5.7787109019804355 20.044906953494674 30.565411106936686 5.05148428124693
-37.370008484483826 8.100143338019723 -6.187834229760706 34.753788827718246 20.49936378627921 -8.660904664173298 -7.012920562473008 22.03242071379964
-24.03711995813972 5.055925967247719 -3.3248900053456096 6.023714683304366 12.489433313157273 -7.397172852440652 -27.809180875879157 2.0019971443313054
18.432338443435754 6.151937851714807 -10.907187820584632 1.6700185125874045 -10.014017750532656 11.763891042285662 4.2282910666794224 3.0227912161282813
23.89440947972604 10.837306385693106 -5.728020195284968 -9.495323072210816 -9.765602239711658 8.597942742955473 -7.278023934986211 27.37887337013816
3.447741200095013 -0.023398073929379093 -8.541449659362387 -7.142685860273996 -14.270007846116176 13.651193335281366 9.441781585479742 -18.276791714362016
-8.683630044015183 -9.4788097354256 10.393120803505457 -6.252383815560893 3.0406118675492406 -9.957748460833768 41.21440089917297 -26.05182504031186
-11.21719588314193 18.410542679083328 -6.768561862695956 -14.455746968232006 2.2598590834419254 -1.2381890766128996 6.424958702625968 -6.641132300092373
-1.4896143481532738 2.6789621030388164 -17.28798341791474 -0.6382472305167166 -1.3201945661224774 -20.74511424824105 10.99533086373855 6.008392758140227
22.847432981212926 -1.4533760895740182 14.522408777089165 -25.59003698663037 3.1344250193927294 61.60665459525828 -11.527532934948411 -13.681951774911422
-4.94573976846319 -5.516734973695413 -25.85140683807113 -25.51591034626735 34.719672505075394 9.017737975159072 -21.357224575070262 16.541738382232325
-6.018391498426196 11.982635648336732 -14.355709210846936 3.579331353123173 31.851580763697868 -24.296195687672494 -3.424950791682202 -11.240521186888948
0.3790536976832586 -20.921217991958585 -8.506518539509559 -1.1155488552127557 -11.573990864963864 21.54175810058586 10.658419015858472 14.100728976469004
15.195832823040952 12.684907504360345 29.110687981189077 -2.854740157061826 -4.545716770857883 -32.31527473769938 -11.35785988548508 -9.141725245227327
-16.005626561074756 1.565378264472137 0.3808870466876657 1.4345946124852744 14.66818853070312 11.171157371831818 -6.766149876830013 -2.7224264376088185
-8.0498812520987 -25.613854116225347 4.378502344958692 3.9562691541994557 9.052362381834827 16.27567622438274 11.153938470384883 -24.80846830373968
5.4616311161357896 33.657203829831396 -2.61747872271675 8.42575912335795 -4.717619178544821 -8.58084385963272 -9.567751436165006 25.050233261955995
-0.6521955709998255 -23.958691992951625 -27.432946386536507 -4.346866733842585 -7.031935534681218 -20.379382661424735 -11.213149491865675 -10.338260194156536
-0.5454329829763005 -11.103728581802045 -4.184847144649126 5.0312222251805725 -19.08714493386396 -8.101763548672952 -31.87063173720169 17.879333041392638
-4.236164306725764 21.76766667719336 -7.837047139115774 1.7272825996998076 -33.78503922504531 9.021003328456475 6.234479067618091 -5.752292281818113
-13.660887366682683 -2.0451784884474837 5.824298737771779 2.2733693012214644 -0.27460156390390433 3.0206131078935723 -11.73857374082456 -6.804746652205729
-3.9664694325788243 4.589788012362046 -16.098600437808717 -9.46600453429145 -6.883498542941461 0.748432422019766 3.019054951044731 1.6950409762941376
10.433432335272165 -22.147151512063797 -2.355119457678178 -6.998928294902062 -30.868212902617884 -1.6405495527956608 -9.69802828783168 1.3665267839226338
00000000: 7585 c16c 2440 23c0 f108 67c8 6ad0 38c0
00000010: 7e11 3b94 bdac 2fc0 86b9 6162 7d06 3140
00000020: b0d4 6fd8 a9b8 1540 0cfd 351c 29d7 3140
00000030: 2bf9 1f53 aa0a 1340 9a00 34c2 84bf fcbf
00000040: 16a0 ffe5 ae41 1cc0 f4ae 5208 5b53 35c0
00000050: 1683 4030 a826 3040 c4a6 bcd4 6b19 36c0
00000060: 6d15 21e2 bc32 f2bf bca0 5025 de16 fb3f
00000070: c62b 92fb 20be 17c0 013f 6e91 45fb 01c0
00000080: 35c3 505a 0106 2840 0269 d1c5 66ca 2fc0
00000090: 268a dafa 7a6e 1840 bab8 2e3d fc92 20c0
000000a0: 519b 6e87 b161 2040 499c b65e 19ec 1440
000000b0: 5a49 2fc4 4a52 2040 2336 39d0 014a 3140
000000c0: 6419 8354 2b57 37c0 1a1c 343c a73a b2bf
000000d0: e29c ba82 748f 2340 1c87 3bff 2d70 26c0
000000e0: a4ed 47fb fee7 37c0 6ecf 725c b63a 2540
000000f0: 6ed9 6e20 a1b2 1940 8969 b2a9 43f5 3c40
00000100: e6ed 544d 9378 1040 ac0e ca7a 331c 23c0
00000110: 2524 4dce 4352 1140 c425 79b3 b813 31c0
00000120: ae46 140a f372 17c0 c454 2674 7493 3940
00000130: c466 a220 8fbd 22c0 cb4f e631 41e4 20c0
00000140: 7644 8421 342a 3040 1a31 bdfc ce0a 0c40
00000150: 8064 082b 07e3 3cc0 d2f1 7e03 20ac f43f
00000160: 881e 91b9 250c 3ec0 6291 8e10 569c f63f
00000170: 7b8c 76d8 82e9 1ec0 f6d9 5582 c02b 36c0
00000180: 5cc2 7d97 9042 29c0 7724 006e 1021 f9bf
00000190: c3af 6621 1319 3040 e608 73e6 18de f1bf
000001a0: 0871 dc20 d3ce 22c0 3026 d7c2 97a1 15c0
000001b0: 926e 01ef 9ae4 2cc0 da71 b7ab a5f8 3ac0
000001c0: d883 09d4 0546 c5bf 9ff7 5f37 28a4 0940
000001d0: e9c0 2313 f813 1c40 8627 6ebf d408 2bc0
000001e0: c6f1 9e22 0148 2640 f3dd 4e03 6642 2040
000001f0: f5c1 449e a49d 2640 ce66 49d4 3ad6 fe3f
00000200: ac0a 0570 919c 2240 eafb 8355 0771 22c0
00000210: e715 cb87 76b1 2ac0 8c20 a1ce b156 e03f
00000220: 0cac 18b5 2054 1bc0 0036 9eb6 d794 3ac0
00000230: 621a 4454 4030 2fc0 31de 7ad1 144e 1f40
00000240: 200d 5641 1b0d 09c0 7a09 e95b 7ebc 21c0
00000250: 1823 c656 0ebb 1840 75b5 8240 d346 32c0
00000260: b42d 0464 661d 1740 649f a805 7f0b 3440
00000270: 9616 45c8 be90 3e40 c2da a04b b834 1440
00000280: df0c 2270 5caf 42c0 fa69 d3fc 4533 2040
00000290: fb90 c79d 57c0 18c0 ed91 fd26 7c60 4140
000002a0: 3ee0 1a4e d67f 3440 decb 9c18 6252 21c0
000002b0: ea11 450c 3b0d 1cc0 817b 51b9 4c08 3640
000002c0: 2e3d 8eb1 8009 38c0 f24d 21a8 4439 1440
000002d0: a30d 5eee 5f99 0ac0 b4e8 74a9 4818 1840
000002e0: b52a d300 97fa 2840 d55d f07a b496 1dc0
000002f0: 1a73 567a 26cf 3bc0 f0b4 2c14 1704 0040
00000300: 305c 73bb ad6e 3240 f28e a098 959b 1840
00000310: 247b 09ec 7ad0 25c0 8170 f454 65b8 fa3f
00000320: d633 a855 2d07 24c0 07a6 08ba 1c87 2740
00000330: a56d 2522 c5e9 1040 9c41 3f29 ad2e 0840
00000340: dda7 0805 f8e4 3740 5591 2e6c b3ac 2540
00000350: 4e4e 4620 7ee9 16c0 0c33 58fc 9afd 22c0
00000360: a29c 4a04 fd87 23c0 a3bf 1b8d 2532 2140
00000370: 8315 714e b21c 1dc0 9611 5ed8 fd60 3b40
00000380: c8d6 9b56 f994 0b40 c0a8 4329 aaf5 97bf
00000390: 99c8 c6e3 3815 21c0 ece9 fd3d 1c92 1cc0
000003a0: fa76 e977 3e8a 2cc0 32d0 7c36 694d 2b40
000003b0: 9638 2b32 31e2 2240 17fd 60d2 db46 32c0
000003c0: 6d37 d3c1 045e 21c0 9851 b58c 26f5 22c0
000003d0: cadd 4421 47c9 2440 b37e 27e7 7002 19c0
000003e0: b6a0 9750 2c53 0840 9726 9a01 5eea 23c0
000003f0: 2817 197d 719b 4440 da40 e567 440d 3ac0
00000400: 42d7 7d4c 346f 26c0 6e46 3453 1969 3240
00000410: 8aed 84e1 0113 1bc0 809d a7aa 57e9 2cc0
00000420: e39c c7ff 3014 0240 c911 6559 9fcf f3bf
00000430: 6cb7 c75f 28b3 1940 5839 55fc 8490 1ac0
00000440: dc87 cfda 75d5 f7bf 6733 deae 836e 0540
00000450: efbb 0148 b949 31c0 b09e ba74 856c e4bf
00000460: afa5 5d56 841f f5bf 9cfa afce bfbe 34c0
00000470: bbe9 c801 9cfd 2540 2af1 761c 9808 1840
00000480: 7edc 2b5e f1d8 3640 f123 5849 0741 f7bf
00000490: 8e7b c929 790b 2d40 0102 f9a9 0c97 39c0
000004a0: 9072 b06c 4d13 0940 1c4d 97db a6cd 4e40
000004b0: 2855 fecb 180e 27c0 2e63 75c8 285d 2bc0
000004c0: d64d 8001 70c8 13c0 87e2 12f9 2211 16c0
000004d0: 351b 6dcc f5d9 39c0 e5e2 50b3 1284 39c0
000004e0: 8a90 883a 1e5c 4140 3469 aef3 1409 2240
000004f0: 1841 db11 735b 35c0 00ad da5d af8a 3040
00000500: 4e0f 9138 d512 18c0 e4fa 0a05 1cf7 2740
00000510: 76f2 8684 1fb6 2cc0 10b1 f979 78a2 0c40
00000520: 2cfc 6932 01da 3f40 04c5 077b d34b 38c0
00000530: 9579 c599 4c66 0bc0 c45d cf97 257b 26c0
00000540: d08e be70 6a42 d83f ecf2 3bf1 d4eb 34c0
00000550: c105 e465 5603 21c0 16aa a3c1 49d9 f1bf
00000560: f271 7221 e225 27c0 fe5b aca8 b08a 3540
00000570: 715a 184c 1c51 2540 4a63 97bf 9233 2c40
00000580: 74e3 2433 4464 2e40 7b06 4832 ac5e 2940
00000590: 7144 2b0c 561c 3d40 7f44 e901 82d6 06c0
000005a0: 74da 8e60 d02e 12c0 40d6 2fec 5a28 40c0
000005b0: de6a 3169 39b7 26c0 b489 1a36 9048 22c0
000005c0: 16ce 07be 7001 30c0 de6e 3c14 ca0b f93f
000005d0: 5096 3f10 7460 d83f d345 fa7a 19f4 f63f
000005e0: 48dd 9dce 1c56 2d40 54f9 64f0 a157 2640
000005f0: ff46 e397 8910 1bc0 835d 1a83 87c7 05c0
00000600: 18e5 1409 8a19 20c0 eeb3 198b 259d 39c0
00000610: 423a 641e 9683 1140 94ae 3b71 70a6 0f40
00000620: e10a fb3d cf1a 2240 3502 90b7 9246 3040
00000630: 76cc ef05 d14e 2640 1e6a 5cc7 f7ce 38c0
00000640: 0e7a cad3 b5d8 1540 45f7 4d41 1fd4 4040
00000650: b75a 40af 98f0 04c0 9197 8d19 fdd9 2040
00000660: 5e54 db8f d7de 12c0 ef68 ca5d 6429 21c0
00000670: e52b f550 b022 23c0 bc45 4916 dc0c 3940
00000680: 1c4a 013f c9de e4bf 0faa a4d6 6cf5 37c0
00000690: 7e18 0b93 d56e 3bc0 6cb2 7708 3163 11c0
000006a0: f924 74b5 b320 1cc0 1a7d db38 1f61 34c0
000006b0: b671 21ee 216d 26c0 c2e1 ae70 30ad 24c0
000006c0: ba5f 01df 2f74 e1bf 2000 a5e9 1b35 26c0
000006d0: a01b e491 48bd 10c0 523c 10b8 f81f 1440
000006e0: 32f5 6021 4f16 33c0 52f3 125a 1a34 20c0
000006f0: 1424 b6b8 e1de 3fc0 d712 5ff8 1be1 3140
00000700: 8b7a 570e d5f1 10c0 44c6 a8cd 85c4 3540
00000710: b7d9 9ee2 2259 1fc0 8b91 4a14 f3a2 fb3f
00000720: cad2 522a 7ce4 40c0 c9a7 c1f2 c00a 2240
00000730: aa10 dc47 1bf0 1840 9ec4 6de8 5802 17c0
00000740: be7b 34d4 5f52 2bc0 d1ea 128a 865c 00c0
00000750: 9b74 e3f7 144c 1740 00d0 833e dc2f 0240
00000760: 4c74 1970 1293 d1bf ac2c 8234 372a 0840
00000770: 3e0d 5d56 267a 27c0 0828 a381 0f38 1bc0
00000780: ec13 6c53 54bb 0fc0 dcab 8263 f15b 1240
00000790: 7dc2 d7e0 3d19 30c0 9423 7525 98ee 22c0
000007a0: 29fd 8fd7 b388 1bc0 30e9 fa8c 28f3 e73f
000007b0: 1383 3c48 0627 0840 0003 6949 e31e fb3f
000007c0: b40b d2d7 eadd 2440 f7de b3b8 ab25 36c0
000007d0: 5035 c7de 48d7 02c0 159d 160f e7fe 1bc0
000007e0: 84b5 6633 43de 3ec0 bc98 4be3 b03f fabf
000007f0: 02d7 b7f6 6365 23c0 70e4 6030 4bdd f53f

arr_1 f8 [128]
20.61578928576238 7.85927585884636 -15.488283390324078 -6.029948643226538 21.817149720717026 -2.5016851356096677 16.145652586092353 -10.22428218684321
19.130766811770325 -4.197467828333532 11.777132793877385 21.23404661386521 -7.411082136835859 19.383872595215568 11.293613736383314 9.423551730913779
14.144201104137348 1.06390061877341 8.658546463107614 28.751198474129968 -19.8675203426458 -6.201796654449528 -7.6257508194109 -3.131536146939985
-4.900342108921476 14.278429755080769 -2.8280355870661804 -0.4953152774138547 -11.238921302966542 -15.816109222697442 8.944821264469217 9.272247140991396
13.631263775625314 6.0519872801089525 -16.746734038556617 19.196679281165345 10.46823103722805 -16.47221811484207 -16.933349993238416 -10.132038233302298
7.1783412055323526 -4.9243460181988885 -7.549714928288562 4.3182482352040665 5.567019811528747 25.271663993806413 -8.065371087147106 -28.15540838605191
-8.733435530949595 0.08841669227016835 -16.790209130116352 -11.563341299462873 12.84374303887358 -6.414034735953431 -27.602907491980567 -21.90869199758616
9.724683211562906 3.2465559016421013 -7.469035585972281 0.8323868041474021 3.2805203686274966 3.233216169560281 21.56689206960503 15.230533449983575
6.253788299346696 -12.58389213968964 4.3866287427258515 9.962452095486372 21.892301171346748 0.4811167873528712 20.985666420470434 36.72308667736199
-3.0209897876835576 20.809633966455387 -0.6543921645062905 -7.939637112454053 16.250768717390923 18.904882240541077 9.867782271096507 -24.84281375352492
-10.979674245204913 -3.1635727129975857 -6.998770884894105 -1.4874845791612221 -10.439831233372738 10.70727167570304 -9.938930557209112 8.635243057229525
2.529717438409066 1.1959059544660413 -15.144485838459794 11.255023199618936 -4.834085882039394 31.169306110663555 9.467305831255967 -17.48259633698194
-5.022647827189822 -0.41929847818564137 -5.423297872673641 -20.18980897319964 11.150855862043624 5.359840613002255 12.168078922635775 27.230517069026583
-9.446035278974128 -7.824596897949361 5.651764851893407 11.432023198294642 -32.107445938128265 -1.2161468696146525 1.796099232197591 5.862280282753724
26.04754940735808 -2.9121132535015506 4.056571991174172 31.508121435096413 -7.805969736172885 -9.331529772057143 16.325555010725736 16.632595013283677
-18.414822309838545 8.737290698009348 10.31633939559566 -1.1027873303060052 21.494316469256784 7.281410737432093 -7.396686088662753 12.663601168330512
00000000: 9d93 db5d a49d 3440 20f3 bf02 e66f 1f40
00000010: 6c3e d147 00fa 2ec0 c6de 6cdb aa1e 18c0
00000020: 486a 5eb9 30d1 3540 aca9 127f 7303 04c0
00000030: 30d8 e57c 4925 3040 4722 631d d572 24c0
00000040: abf4 0bef 7921 3340 93d1 a201 35ca 10c0
00000050: 78b4 7c59 e48d 2740 664a 987a ea3b 3540
00000060: 20b8 36b7 f2a4 1dc0 1148 7279 4562 3340
00000070: 6cd8 268a 5496 2640 b4e0 c0c5 dbd8 2240
00000080: 4ea2 24ba d449 2c40 2137 bda7 bc05 f13f
00000090: 29e3 8300 2d51 2140 7d31 0f8b 4ec0 3c40
000000a0: 4747 2cd0 15de 33c0 3536 3dc8 a3ce 18c0
000000b0: 9442 a3d2 c480 1ec0 eeca cad2 620d 09c0
000000c0: 1d1e 2448 f399 13c0 429c 4858 8e8e 2c40
000000d0: bcfc 321f d19f 06c0 38e8 6cd9 3eb3 dfbf
000000e0: 361e 9de4 537a 26c0 24e6 6a11 d9a1 2fc0
000000f0: dbeb de9c bfe3 2140 a0f9 2dfa 638b 2240
00000100: a0eb 6e01 3543 2b40 f780 4f27 3c35 1840
00000110: 2269 42f6 29bf 30c0 ec67 c892 5932 3340
00000120: b7bb 7ffa bbef 2440 52d3 4f49 e378 30c0
00000130: 4aae 7006 f0ee 30c0 c1b5 eb83 9a43 24c0
00000140: a529 b513 9fb6 1c40 7f68 39c3 87b2 13c0
00000150: 4c7d 5c78 e832 1ec0 40d8 88dd e245 1140
00000160: dacc 6ad7 a044 1640 38e6 80c5 8b45 3940
00000170: 34cd b251 7821 20c0 fa9d 0fd8 c827 3cc0
00000180: 4a4e a6dc 8477 21c0 e08a b8f1 79a2 b63f
00000190: b0d9 4225 4bca 30c0 be5b 5345 6e20 27c0
000001a0: 1e61 6c16 ffaf 2940 da4f c9b8 f8a7 19c0
000001b0: e691 3825 589a 3bc0 fcc4 eb09 a0e8 35c0
000001c0: f13e 8bad 0973 2340 4a82 f14c f2f8 0940
000001d0: 03a5 59dd 4ae0 1dc0 eceb ada6 e9a2 ea3f
000001e0: 8aef 8876 813e 0a40 4447 6970 a0dd 0940
000001f0: bb50 b3d6 1f91 3540 84a0 f87a 0876 2e40
00000200: c134 7714 e103 1940 89b7 18e9 f32a 29c0
00000210: f5cd b667 e88b 1140 4929 6485 c6ec 2340
00000220: e51d 7dd9 6de4 3540 c42d cf10 9eca de3f
00000230: 97af 70a2 54fc 3440 b6b8 af1a 8e5c 4240
00000240: f834 9db1 fc2a 08c0 1aa8 ef2b 44cf 3440
00000250: 7c05 2ad6 c7f0 e4bf 6264 303b 30c2 1fc0
00000260: cb0d f060 3240 3040 eada cd5c a6e7 3240
00000270: f3d0 34f5 4dbc 2340 2f02 64a4 c2d7 38c0
00000280: f5c6 d7dc 97f5 25c0 b2bd e635 ff4e 09c0
00000290: c644 7bcb bdfe 1bc0 0fd4 4ca1 bccc f7bf
000002a0: c530 368f 31e1 24c0 3810 5983 1f6a 2540
000002b0: 3cdb 8881 bbe0 23c0 ad9f f793 3e45 2140
000002c0: e2b3 107f dc3c 0440 7d5f 3848 6e22 f33f
000002d0: 04d7 3d0c fa49 2ec0 522b 9c66 9282 2640
000002e0: 76a8 059c 1a56 13c0 1c50 30a5 572b 3f40
000002f0: eef2 bcb5 42ef 2240 bf81 fc6e 8b7b 31c0
00000300: 486c f4fd 3017 14c0 3a79 c448 c9d5 dabf
00000310: 0d66 5eff 74b1 15c0 3a61 2452 9730 34c0
00000320: 46c6 c3fa 3c4d 2640 1878 c20e 7a70 1540
00000330: 32bc c770 0e56 2840 92a3 a82a 033b 3b40
00000340: bb1c 70bc 5ee4 22c0 5e4d 1421 634c 1fc0
00000350: 0442 ce3e 689b 1640 df93 0725 32dd 2640
00000360: aa2c dbc9 c00d 40c0 180b 826b 5675 f3bf
00000370: c18c 6a8c d2bc fc3f c9a6 399a f972 1740
00000380: 118c ad32 2c0c 3a40 6d4c 9008 024c 07c0
00000390: c6d9 0f02 ee39 1040 bc22 123f 1482 3f40
000003a0: 91b6 6921 5039 1fc0 8345 3145 bea9 22c0
000003b0: b01d bc92 5753 3040 84aa 2dbf f1a1 3040
000003c0: 6168 7ecb 316a 32c0 b930 972a 7e79 2140
000003d0: 1f0a bd3c f7a1 2440 15b8 e153 04a5 f1bf
000003e0: 0355 2d86 8b7e 3540 6c0e e822 2a20 1d40
000003f0: b656 c6e0 3496 1dc0 4622 4788 c353 2940

arr_2 f8 [128, 64]
-15.152388305563104 -11.170791770015832 35.255942104431 -29.82438653160924 5.954590104865947 -14.24698031970302 -1.8402285192277448 -31.720650411832395
-7.918534971062087 -15.003384584937093 -13.488433667511654 -7.626497464999343 -5.802216210598974 -19.23695504200638 -28.180014130390973 11.85221031416286
5.0095576812390945 17.929521074347832 1.3369978790773351 7.190711384543436 -16.057170585929686 17.068153453357898 9.818629144577336 0.39657779058612075
11.033436116350572 -10.077148179259952 15.669513178401495 21.683988553117945 21.910349667574593 22.139318407524573 12.739147438151075 3.809556550862344
1.2078111521936323 17.792195181705964 13.752984901733779 -12.242499677552258 23.83847850346185 -0.0993962570978788 -23.98490276857197 0.39624501444901394
-38.25236570027672 -8.053256888543203 -8.912324630310026 6.3538202390627685 1.2525566405628359 12.413504919434905 -31.440200146471845 11.48321051346884
-10.605061623459747 -0.5808753294477506 -4.8829790387106415 -17.00035867945295 -2.0859143811627643 -4.162449267968132 7.410505270346408 17.124751715161636
3.8920955679400144 -3.032270451757876 16.598531832546794 39.92517076454922 7.648350274146933 -30.246301353145604 -10.18182230448819 -13.188841653933347
24.23832898505703 -13.117651937834527 -18.546805567618264 11.635190710021693 -4.445036027244816 -25.66694689507734 -4.782724978354948 29.846368789927936
10.766220252075684 -1.9161029974853139 -3.7103925527954686 7.395649435622636 -5.229711299416134 10.881395829639159 9.471190758451641 -1.7188723401656403
-17.866717690551628 16.455386580229906 -31.062357291336184 18.459573152521934 -21.458815977952028 36.1552737810298 7.395388707904904 4.96476590757832
7.6616970408661995 15.402969615760473 -0.7657254857162592 -5.507088287887957 2.7479240708767216 10.8726267158056 -27.41617882235022 -15.657217970375166
4.026773881310134 -10.199051210395819 -12.515050504312764 -19.15485176696947 9.62767873450058 -23.860124618869992 11.272817848598995 -8.562883968719872
5.962663419946852 0.6427363302613902 19.936789788095414 44.08330475999424 13.330877644066833 19.703556757009576 -15.862129926157376 -5.651173620846726
1.8770504986024656 25.168933233248307 16.59114620754939 0.057392305488840556 4.619036120125686 16.61949784230592 3.9290759051716573 20.315382049047187
-19.645183535708814 2.745841968177202 7.61074240706853 15.303724853679892 5.118333519421832 10.048829928158133 -0.8141833670011842 -10.738419212351557
19.387893045891527 20.958742974455326 18.575714213680463 -14.532818584700042 8.20113941828004 5.345171762274894 -11.434424386393015 0.19478424909242398
-23.284615191687998 33.74200679094765 -9.924055192771808 -20.290387592969374 -0.8137762888933001 7.247510634486112 9.462039710453983 8.741418872799285
2.3360929217672464 -10.870965678987663 -6.331274709801402 9.891287539162862 5.9458524036195755 16.25915495231876 -20.76617099891417 -25.80096404564217
-26.36934620822015 -14.965807822835696 -5.6248202988784435 23.015503321665044 2.059407124968683 -11.195310383308032 -14.495269294573683 -10.436286160869562
14.345360544936039 6.804405355143447 -25.183115111130356 -3.384903669153372 -2.3856741311212364 9.125638867047288 -12.061143000162167 -5.521660347697813
-33.53442300572884 -4.923539150672555 -12.809317657265016 -8.141760750481607 -11.440079725002093 -14.324318873018777 -3.6032056155657175 1.2021361866744256
3.252970231399048 -6.376772846515278 -1.721983062123297 13.306345298618034 -23.517945280777184 -12.605342267154027 12.996539472940384 -3.8051393390019026
-23.33567283938774 1.5028673143372842 -5.95276495282314 4.757959674153508 7.019704928505176 -21.252546123724777 15.216103107299169 -11.575658480329306
29.986179571628554 12.217254898083855 -7.868533025996426 -8.734253228144919 -15.081523615747422 -18.550225537110375 -2.5130624815443885 25.026619942876245
-18.05606393634566 -19.637971833304036 -43.164412192073804 -22.395493884010037 -24.940665223525464 -22.61541018552699 7.238804691659332 -21.701863897909
-6.405738985486109 -8.521542760924014 20.173472149297844 -9.517559635794418 1.4563296124628828 -6.6447599422508405 -7.212736272193509 7.447904748345671
-0.7699443907407038 -5.8961984648697365 32.772193315354464 -21.28334298726601 -12.63022085397372 10.016952635153599 18.252752052097144 -9.705029787661223
-23.900948338093247 -17.1202783045485 -25.224176488981605 7.833926343503815 -12.66510610138236 -12.509391905611741 -12.422934172210258 14.346926034374505
-2.848634864006217 -19.716247456808542 -22.19003445992535 2.5313659500054837 10.603741612323745 12.495695970974822 -17.761706494653346 -8.535564765784338
-26.537135435390145 -19.6121610460038 19.768333468358556 -34.47982134309038 -2.378650859326769 9.223269689145582 6.64290662982103 9.710968544769361
-7.981595948303729 5.832114584022871 16.76415792296456 18.33207684602891 28.987575053679496 -5.290179071516314 3.811835240440031 20.805548319413987
00000000: 6e5f 09d7 054e 2ec0 b449 d504 7257 26c0
00000010: ac19 fcb5 c2a0 4140 4986 e8fe 0ad3 3dc0
00000020: 14f0 8511 80d1 1740 9cc2 5734 747e 2cc0
00000030: a7fe b375 9371 fdbf 48ab 9e8b 7cb8 3fc0
00000040: a0c6 736e 94ac 1fc0 0f3b d39f bb01 2ec0
00000050: ae74 48fa 13fa 2ac0 dccb 2c8d 8881 1ec0
00000060: e45f 932a 7835 17c0 2a0a ec15 a93c 33c0
00000070: dcd8 f267 152e 3cc0 6849 09e9 54b4 2740
00000080: d863 217d c909 1440 4844 d717 f5ed 3140
00000090: 1656 57e3 5764 f53f 125b 5ed8 49c3 1c40
000000a0: 75dc 44bb a20e 30c0 1948 3581 7211 3140
000000b0: 3406 f75b 23a3 2340 f0c9 38d0 8761 d93f
000000c0: 4076 e489 1e11 2640 21bc 55f7 7f27 24c0
000000d0: 6cf3 6a6e ca56 2f40 dd7a b2df 19af 3540
000000e0: 4828 02ad 0ce9 3540 810c 045f aa23 3640
000000f0: e68f 7388 717a 2940 0abb f1c8 f879 0e40
00000100: d4a6 66c9 3153 f33f d479 ad4d cdca 3140
00000110: 1ea8 ae3c 8781 2b40 47c1 f0ea 287c 28c0
00000120: 86c4 f686 a6d6 3740 d087 9479 0872 b9bf
00000130: a8c1 7c96 22fc 37c0 70bd 900c 145c d93f
00000140: 0ba9 ee84 4d20 43c0 d828 a57c 441b 20c0
00000150: a108 c536 1cd3 21c0 febf 4dda 4f6a 1940
00000160: 1cae f9d4 780a f43f 836a b3ea b6d3 2840
00000170: 7eca f0f4 b070 3fc0 34dd 505e 67f7 2640
00000180: 08a6 19a3 ca35 25c0 8700 e1db 8796 e2bf
00000190: 4d43 39a8 2b88 13c0 2a85 a481 1700 31c0
000001a0: 1ccd 0ae1 f3af 00c0 a4ba d419 59a6 10c0
000001b0: d3e4 5b7e 5ba4 1d40 38bd 78ba ef1f 3140
000001c0: d8ab 4900 0323 0f40 f46a b702 1742 08c0
000001d0: 4767 d661 3999 3040 247a e0fe 6bf6 4340
000001e0: 3e41 5f22 e997 1e40 8eb8 009b 0d3f 3ec0
000001f0: 96eb 26d0 175d 24c0 5588 6fda af60 2ac0
00000200: 4282 dc20 033d 3840 e29e f2df 3c3c 2ac0
00000210: f030 1e73 fb8b 32c0 4a88 7cb7 3745 2740
00000220: a63b 3a86 b7c7 11c0 a386 1e08 bdaa 39c0
00000230: ef2f 1fa8 8221 13c0 7818 01a0 abd8 3d40
00000240: 5865 5805 4e88 2540 ce78 df9d 5ba8 febf
00000250: c0a0 6c4a e2ae 0dc0 67b8 2a20 2595 1d40
00000260: 4b0e 5a70 39eb 14c0 0f43 6e50 46c3 2540
00000270: 5874 43ea 3ff1 2240 a62a 7048 8080 fbbf
00000280: adc8 e735 e1dd 31c0 ee1f 0537 9474 3040
00000290: c0f4 bea5 f60f 3fc0 8a33 0c96 a675 3240
000002a0: ac2f c4f6 7475 35c0 81b9 e102 e013 4240
000002b0: 15a3 06c7 e094 1d40 ea60 1598 ebdb 1340
000002c0: 6e85 b9e8 93a5 1e40 22f2 9108 52ce 2e40
000002d0: 7aae dbbb d280 e8bf 54a7 f226 4207 16c0
000002e0: 2274 829d bffb 0540 7b00 cced c8be 2540
000002f0: 3048 ffb1 8a6a 3bc0 ad35 b2df 7e50 2fc0
00000300: bf74 c29c 6a1b 1040 2ec2 4d0a ea65 24c0
00000310: 8e9f 1fb3 b407 29c0 97dc 8a5d a427 33c0
00000320: 3a26 6a1b 5f41 2340 f587 8420 31dc 37c0
00000330: dbfe f2c7 ae8b 2640 6730 da53 3220 21c0
00000340: b2e8 8670 c4d9 1740 2a8f cdc7 4b91 e43f
00000350: b918 9f74 d1ef 3340 61e3 f9ba a90a 4640
00000360: 397d 68cb 68a9 2a40 673c ae4b 1cb4 3340
00000370: 667f fb17 69b9 2fc0 e737 f641 cd9a 16c0
00000380: 6402 871a 6608 fe3f 4f02 5835 3f2b 3940
00000390: 3d94 9c5b 5597 3040 80b4 3b36 8662 ad3f
000003a0: 21ee cb9a e479 1240 80a5 1c69 979e 3040
000003b0: ffb5 2159 bf6e 0f40 3467 c2e0 bc50 3440
000003c0: 79c9 89bf 2aa5 33c0 5e71 6afe 7bf7 0540
000003d0: 028f 2275 6671 1e40 3613 f3d2 819b 2e40
000003e0: d8bf 0f6c 2c79 1440 ab02 813c 0019 2440
000003f0: baf3 c646 ca0d eabf 7793 3f15 127a 25c0
00000400: 2f73 6af5 4c63 3340 2e8e f82d 70f5 3440
00000410: 9699 b701 6293 3240 b2f9 f798 cd10 2dc0
00000420: 02e6 eebe fb66 2040 b8e4 d9b4 7461 1540
00000430: 2649 88df 6cde 26c0 545e d0b5 b0ee c83f
00000440: a63e 8c8a dc48 37c0 d943 1a14 fade 4040
00000450: cb4e 21c3 1dd9 23c0 b6f7 5ed7 564a 34c0
00000460: b7d2 6192 740a eabf c81e 826d 73fd 1c40
00000470: d2b4 0b78 90ec 2240 c79e 2641 9b7b 2140
00000480: 6042 5b7c 51b0 0240 8261 a636 efbd 25c0
00000490: 0c5b 72ad 3953 19c0 d912 20d7 56c8 2340
000004a0: 688e 5188 8dc8 1740 36ce 9cfa 5742 3040
000004b0: e27a 57c8 23c4 34c0 134e cdfa 0bcd 39c0
000004c0: 0835 1d79 8d5e 3ac0 be99 ea5c 7eee 2dc0
000004d0: 4c3d 76e4 d07f 16c0 de87 9306 f803 3740
000004e0: 791e 5771 aa79 0040 23c1 f9b8 ff63 26c0
000004f0: 5dd0 ddef 93fd 2cc0 ab43 51e6 60df 24c0
00000500: 76a8 eb18 d3b0 2c40 0346 9409 b637 1b40
00000510: 52b5 c5a1 e02e 39c0 3bfe f85f 4814 0bc0
00000520: a4a1 a051 dc15 03c0 3126 d2bc 5340 2240
00000530: d326 a422 4e1f 28c0 abed 5321 2e16 16c0
00000540: eeea 19f9 67c4 40c0 62db 423f b4b1 13c0
00000550: a20e 4ce2 5e9e 29c0 8f59 76dd 9448 20c0
00000560: 8808 3521 52e1 26c0 b52e 921f 0da6 2cc0
00000570: 4af2 3c77 5dd3 0cc0 4cad 7127 f33b f33f
00000580: 82c3 b541 1506 0a40 3e37 b7bd d081 19c0
00000590: 325e 811c 3e8d fbbf 14b2 7d4a d99c 2a40
000005a0: 380e da0f 9884 37c0 47a0 f06b ef35 29c0
000005b0: 70e7 fa6b 3afe 2940 cce3 cde4 ec70 0ec0
000005c0: 6853 bba7 ee55 37c0 53e5 d498 be0b f83f
000005d0: fa99 a49d a1cf 17c0 5cb4 b094 2608 1340
000005e0: beff 5d87 2d14 1c40 2621 dedc a640 35c0
000005f0: ecd3 0411 a56e 2e40 de5b 55b5 bc26 27c0
00000600: c020 b043 76fc 3d40 fa54 b408 3c6f 2840
00000610: 2e9a b8b8 6079 1fc0 ceba 030a f077 21c0
00000620: 44f9 9e76 bd29 2ec0 2750 af94 db8c 32c0
00000630: 514d 9880 c01a 04c0 2a13 8890 d006 3940
00000640: f216 c534 5a0e 32c0 5ccf 3f1f 52a3 33c0
00000650: a502 6e75 0b95 45c0 5497 5116 3f65 36c0
00000660: c286 a36f cff0 38c0 b676 9c85 8b9d 36c0
00000670: 973b 9337 89f4 1c40 22c3 375a adb3 35c0
00000680: 0f80 650a 7a9f 19c0 b444 1ba7 070b 21c0
00000690: 4600 b8ab 682c 3440 f3ee 9a93 fd08 23c0
000006a0: 4a97 9b47 204d f73f edf3 46f3 3b94 1ac0
000006b0: eff9 8e89 d7d9 1cc0 9878 d78a a7ca 1d40
000006c0: fa09 3f6b 62a3 e8bf 1b5d e50c b595 17c0
000006d0: 91d1 053b d762 4040 c4db 7f2a 8948 35c0
000006e0: 0d26 ca4e ac42 29c0 a721 0b04 ae08 2440
000006f0: 0ec1 c55b b440 3240 eb6b 11aa f968 23c0
00000700: fd7e df8c a4e6 37c0 4274 188f ca1e 31c0
00000710: 46b5 60a1 6339 39c0 ab7c 92c9 f055 1f40
00000720: 569d 73c9 8854 29c0 2be6 0e04 cf04 29c0
00000730: fe01 ecd3 8ad8 28c0 f889 074a a0b1 2c40
00000740: 8537 5913 01ca 06c0 fbd5 4afe 5bb7 33c0
00000750: 0e7e 2e19 a630 36c0 29da 8bca 3c40 0440
00000760: 6054 e09e 1d35 2540 1031 c0dc cbfd 2840
00000770: daaf 6332 ffc2 31c0 05de 838b 3512 21c0
00000780: fd85 38b5 8189 3ac0 b278 1896 b69c 33c0
00000790: b205 8f80 b1c4 3340 7c3f 28c9 6a3d 41c0
000007a0: 4149 0b1a 7a07 03c0 0023 9a67 5072 2240
000007b0: 03da 951d 5692 1a40 ca89 b011 046c 2340
000007c0: 0a67 ff7c 27ed 1fc0 8b9c 73d8 1554 1740
000007d0: b11c 88da 9fc3 3040 f873 f9fc 0255 3240
000007e0: 1de6 fdb7 d1fc 3c40 b995 d8b3 2429 15c0
000007f0: 1c71 7b79 a37e 0e40 183b 276a 38ce 3440

arr_3 f8 [64]
-6.396801475944706 -15.82222955707177 -2.8359619997586814 6.495574733077056 18.310456983666295 -0.5213066954593654 -11.009772112083377 5.656931436636967
-24.372044390878166 13.924166189090196 -15.194855904107431 -6.507688887784388 7.476843357750681 9.238607450573149 -1.1000668975377494 -30.940004963185494
31.31163854797437 -15.03965366689207 -3.0003057155019635 5.01563518443276 11.051471615281269 2.557655824416952 -0.3086942599287013 4.466592348338775
-1.9261380718583907 20.019577305282603 -1.9144621798216064 35.87292712111111 30.94070542673287 -9.90838107619784 -17.27151113050754 38.02168768239841
9.603198890893953 30.726494096087954 6.165282005832364 25.25539998326622 -5.380215336889354 -9.221435929556248 -4.846113866018939 -8.251596563427709
-1.8362994037599474 -3.0263291744856313 11.470738736961206 11.354650116874645 22.87216619703665 25.841518276849087 -11.764940048355161 -3.112743006987769
1.8428829405268787 -14.966254030872259 -4.6264157840440125 8.78164407893187 -3.145873677577666 17.09817816635507 1.2984663112747379 8.4181430759269
8.675298647185711 -19.053383301862553 -6.659603952031148 14.840311482711584 11.052387001903849 -5.978810082759345 14.541078260652082 24.616941264438555
00000000: 88bf 4820 5396 19c0 0bdb c245 fba4 2fc0
00000010: 624c 4dd8 0cb0 06c0 d828 5df1 77fb 1940
00000020: 5ba9 df1b 7a4f 3240 bde1 0561 8bae e0bf
00000030: 359f abd9 0005 26c0 c047 70a2 b2a0 1640
00000040: 627b 1b4d 3e5f 38c0 356c 8c4f 2cd9 2b40
00000050: da25 2f27 c463 2ec0 664e 8698 df07 1ac0
00000060: 806a 0ba0 49e8 1d40 5496 79c1 2a7a 2240
00000070: 9a63 45bf df99 f1bf 9af5 4e2a a4f0 3ec0
00000080: 0cb9 3b8b c74f 3f40 93ef 447c 4d14 2ec0
00000090: 9aa9 7048 a000 08c0 f838 77ab 0210 1440
000000a0: 569c d07c 5a1a 2640 9a5b c241 1476 0440
000000b0: 19d4 b691 a5c1 d3bf 2cb7 7262 cadd 1140
000000c0: 8665 a327 76d1 febf beee ad04 0305 3440
000000d0: e633 3c18 a3a1 febf 597b 6e13 bcef 4140
000000e0: c6fc 2212 d2f0 3e40 6726 0d53 17d1 23c0
000000f0: a607 e2c0 8145 31c0 4850 77a9 c602 4340
00000100: fabe 2a7c d634 2340 526f 5f84 fbb9 3e40
00000110: 4dab a6af 3fa9 1840 0187 afe4 6141 3940
00000120: 7582 552b 5785 15c0 f734 d70c 6071 22c0
00000130: 50f9 5cac 6b62 13c0 7f6a c743 d180 20c0
00000140: 2b03 cd7b 7b61 fdbf 8fc5 fa11 ec35 08c0
00000150: de6a f0aa 04f1 2640 94ff 3ab3 94b5 2640
00000160: f8f2 ac48 46df 3640 980d e6bd 6dd7 3940
00000170: 122c d638 a687 27c0 ddeb 3ece e5e6 08c0
00000180: 47b5 7ed2 727c fd3f f572 2cd9 b8ee 2dc0
00000190: 3fab a823 7381 12c0 b53f 18a7 3390 2140
000001a0: ba58 94d1 bf2a 09c0 20ad 4d34 2219 3140
000001b0: c41f 5e9c 84c6 f43f 4c4f 68d9 16d6 2040
000001c0: 2f64 89be c059 2140 f4a6 2f87 aa0d 33c0
000001d0: 0025 e937 6fa3 1ac0 2866 814e 3dae 2d40
000001e0: 36d3 1778 d21a 2640 28c9 b930 4dea 17c0
000001f0: 8e27 b435 0815 2d40 0551 dadc ef9d 3840

arr_4 f8 [64, 32]
-8.111657172388202 6.80818137837927 -0.7810262630618148 26.86814887567033 22.593425117913725 -5.87662657818948 -6.68747031122586 -11.382720550009772
-2.806832822337099 3.486607677859146 -4.4413581870637024 -8.530491491649281 -8.929443708140411 5.782514961027994 -10.75348854525475 -4.757211976333455
5.256870531777603 -12.416806145376015 13.930354624533262 18.62813181254072 18.54726647690231 15.598222805470197 39.532494292704165 2.484506184796129
-34.29254228491485 24.394919576315985 6.388171972930201 1.3277652220285892 5.383399860736015 -6.695338445485195 -10.78677791785996 5.598454432593307
7.143604480759493 -8.367794612076958 -3.114507855803775 21.802208499854927 5.917887047238271 -7.039660454634085 5.005266629863896 19.68887825367302
11.6008946915317 15.40039989460529 -7.549805971432846 17.060899770570813 -16.683004768353737 4.893290263673126 -5.557371018563966 13.399480695279415
9.365332538149904 5.613451053013183 9.640579178597388 -10.585368175168249 -4.4254729227956435 -15.490814585059164 -15.947565260429418 16.27305392437765
-24.638452094088116 -9.354565894272763 16.275063252697457 -5.706514146320242 20.13567746635807 14.54047636969695 7.657966185986806 31.414501470400594
24.161807915148213 23.671001413096477 -26.479598413916605 -4.127156358075454 5.959546840008049 0.12531957364297774 1.4386929511094302 -11.44559623025655
12.375054187155621 -7.5643472072685976 -19.896342279793362 -13.841674122611165 39.60667894439789 -14.743179464507008 -2.4055900497905887 7.568090295842799
2.936305704149423 9.96652698256803 15.480274366994195 -2.425671416638075 -28.860649421829965 3.7219376506255895 -18.26665971207762 1.9680487794075319
15.876608234944594 0.7841475088786787 20.645770888390388 8.544447423857264 -1.3117259295069992 25.305203336412795 -3.7116738835317062 5.733279976417514
7.935644319599993 -3.2724646083470974 -2.3428755210817664 23.209350420519314 5.215544434168917 -16.514764899991555 -1.5029759158355462 -42.57402885620469
17.667733812187688 -23.897397608664406 1.2697735254139562 0.21169664578011427 9.256586456192004 11.39104002743531 -16.84683501423509 5.727661680098428
1.023233951175031 9.145285794170704 15.715084104106554 0.9207618687452391 4.179639764534742 -19.375293756459076 14.326152076678163 -18.072689990195236
10.511929216691623 14.315977553141948 -35.983832367549304 -4.9885133759456215 -0.6533446171569659 2.4322660127562576 3.779574274771247 13.158128050945239
-10.090788560644473 -37.82122788369034 5.805783916580617 -13.657864546638928 20.35829567733768 28.78958646258259 -12.692680097149923 9.658048839613464
-19.49149891197711 -9.423794301074029 -2.3454028724299434 -5.159325127791852 9.983011677211525 -9.953184590023122 -1.7140964389642013 -12.636792816883787
-1.0995607823826026 -0.8292890876791024 7.827786974564571 -0.48559383538610024 14.011499293016932 7.598402889620303 2.372217734691894 -2.4605827894172765
10.764913225564277 -26.08733884074325 -16.065436160775107 -10.58040711909884 -4.846940897302711 -26.944391749556424 3.8775122284983308 17.808677429854164
-1.4248888455870734 17.533595565006053 -15.597386628582926 -8.89480869389271 16.205730793492044 -18.68988823465189 -20.164262376793065 4.137687999314437
2.9073471108343103 7.246764837877968 7.0170533994302 -14.624269616231583 11.318483937703157 -1.8445972221610143 -7.88780906535741 -3.900014209987363
-20.06059049164785 13.316548285668745 -4.738832163598564 1.1621167741297846 6.42699635124659 -19.878174473459786 23.67256309639936 31.39063551662324
-14.136813908417633 -21.363315581154154 -5.366665032919935 2.393601913787437 -10.345269510329233 8.279836342741874 -10.380056605636419 0.9912734626883737
10.678687272685888 -4.110988450266346 9.643388465299548 -3.7821623959887836 -11.607734805191749 -20.16858211168006 -25.572928653246368 -18.911682574591865
11.532425093446966 10.50002646022943 8.165794448596767 -3.902588319712203 -24.207836200197978 17.33587564325748 -16.836832796797104 -6.4356104260694424
9.772880741965277 14.479872217138 17.12359698531722 -7.168073258758867 8.526980809181406 6.374296859278795 -5.775396492782651 -13.927516651650365
2.3352398881608174 6.146050565557447 13.102676237247664 -13.445772543805099 -14.232198728759705 7.969114048475602 -22.167096997385954 -1.0250996710551374
-8.420853077070038 -1.6625971140576907 19.75866211761945 11.153197848190239 -17.369986168511595 1.2458608784414351 9.027465274569504 -22.36854309055445
-33.705247607330854 -1.9012890761901577 5.200552927008609 6.507577310850479 14.265405789538047 17.208929862957945 2.2412120410190615 7.593131143774583
21.407668044449164 -16.370982889539675 5.672269026907545 -5.250877889975886 -18.429254042970854 2.3531322510315076 22.909515011214925 -10.549199172551754
-0.17328716994170032 2.8005271353738252 27.011735115064557 -17.785299355915747 -15.802818634825561 -7.868283461143624 15.126843733187588 3.6865107244859616
00000000: d68a ff20 2b39 20c0 2c80 35e6 933b 1b40
00000010: e05c 25ca 2afe e8bf 3010 3501 3fde 3a40
00000020: 7c10 62b5 ea97 3640 4883 d065 aa81 17c0
00000030: 7abe 9e37 f8bf 1ac0 2499 abf2 f3c3 26c0
00000040: be37 4ac4 6474 06c0 ac19 f390 92e4 0b40
00000050: b40a 8d66 f3c3 11c0 3de1 ae94 9c0f 21c0
00000060: 40df b30b e0db 21c0 dafb 189a 4b21 1740
00000070: 3e8f 2740 c981 25c0 84f7 8993 6207 13c0
00000080: eb29 9511 0907 1540 d852 769d 67d5 28c0
00000090: fe1a fc70 57dc 2b40 8970 183f cda0 3240
000000a0: 187e e4a7 198c 3240 866e 7242 4a32 2f40
000000b0: 4b3c e2c5 28c4 4340 da45 53c7 44e0 0340
000000c0: 0534 8d06 7225 41c0 ccd3 0873 1965 3840
000000d0: 07d6 23f4 7c8d 1940 4210 d6be 863e f53f
000000e0: ca9b 1cf9 9988 1540 a40a 2ccd 06c8 1ac0
000000f0: d5d8 248e d492 25c0 b889 203d d164 1640
00000100: 31af 910d 0d93 1c40 f507 4d93 4fbc 20c0
00000110: 967f 3e18 83ea 08c0 3c73 4789 5dcd 3540
00000120: d53d 0595 eaab 1740 3c64 0ec0 9c28 1cc0
00000130: 2f1a 8c9d 6405 1440 8373 4253 5ab0 3340
00000140: f4ef 1078 a833 2740 9a4d 0937 01cd 2e40
00000150: 60cc 2956 0033 1ec0 80ef 9a20 970f 3140
00000160: 6317 8766 d9ae 30c0 c43e d1ae ba92 1340
00000170: bce1 e177 bf3a 16c0 8437 d3bb 88cc 2a40
00000180: 7a09 cfdd 0cbb 2240 b48d 4983 2c74 1640
00000190: 0e26 7dfe f947 2340 04ef a060 b52b 25c0
000001a0: 9af6 822c afb3 11c0 3575 9e0c 4cfb 2ec0
000001b0: 7abd 1846 27e5 2fc0 183f abdc e645 3040
000001c0: d22b b098 71a3 38c0 665b 30a9 89b5 22c0
000001d0: beaa 9a8b 6a46 3040 5c6d c271 78d3 16c0
000001e0: e3cf 28c2 bb22 3440 ea37 9851 b914 2d40
000001f0: adbf 4ae3 c1a1 1e40 b483 b3c4 1c6a 3f40
00000200: a7cb 573e 6c29 3840 b4d1 a4bf c6ab 3740
00000210: 3cfc 2ef6 c67a 3ac0 71a6 bd46 3582 10c0
00000220: 4542 6372 93d6 1740 4031 2cc7 780a c03f
00000230: fd02 60e6 e204 f73f 7558 6830 25e4 26c0
00000240: 5d1f 381a 07c0 2840 f13a fb3b e441 1ec0
00000250: 0dbc 09b0 76e5 33c0 4702 1de9 efae 2bc0
00000260: 2dae d8a7 a7cd 4340 983b ce04 827c 2dc0
00000270: fe77 fbfe a53e 03c0 7647 6776 b945 1e40
00000280: 4a0a 53d8 8d7d 0740 9aa9 e99f dcee 2340
00000290: c0b1 9685 e6f5 2e40 916b 6a6a c667 03c0
000002a0: bd14 4085 53dc 3cc0 fc80 393f 87c6 0d40
000002b0: be88 96cf 4344 32c0 20cf 87b7 207d ff3f
000002c0: 8efb 68cb d2c0 2f40 20f6 3b84 bc17 e93f
000002d0: 7858 ae3d 51a5 3440 80b7 0fd0 c116 2140
000002e0: a3c3 0854 d4fc f4bf e685 4cce 214e 3940
000002f0: e97c b913 82b1 0dc0 7919 36f2 e0ee 1640
00000300: 067b 658b 19be 1f40 8a58 b1ec 012e 0ac0
00000310: 4229 6d85 35be 02c0 c888 39fd 9735 3740
00000320: 7e5c 1eae b7dc 1440 aa97 eaa1 c783 30c0
00000330: 7407 5379 300c f8bf 022e 0ec7 7949 45c0
00000340: 8fc7 659a f0aa 3140 e4b8 84d9 bbe5 37c0
00000350: 4eac 4f0b fe50 f43f d434 262d e018 cb3f
00000360: e4e1 cb4c 5f83 2240 f085 0266 36c8 2640
00000370: 563f f32d cad8 30c0 f74c ba24 20e9 1640
00000380: 0642 4790 2a5f f03f b812 4de6 624a 2240
00000390: e10d f280 1f6e 2f40 c944 3598 e176 ed3f
000003a0: 91f3 867c f3b7 1040 7d62 6a40 1360 33c0
000003b0: dcb5 ad67 fda6 2c40 96a2 aacf 9b12 32c0
000003c0: 661d 1796 1b06 2540 9007 52cf c7a1 2c40
000003d0: 6daf 1138 eefd 41c0 4761 b5d9 3cf4 13c0
000003e0: 2e9e 76f8 32e8 e4bf feae 1fe2 4775 0340
000003f0: 3a90 f76f 913c 0e40 b1c7 ee28 f650 2a40
00000400: 4aa3 95d6 7b2e 24c0 b481 cbfe 1de9 42c0
00000410: 196d 456b 1f39 1740 2d06 329f d350 2bc0
00000420: a876 f843 b95b 3440 1428 a256 22ca 3c40
00000430: b3b2 37f7 a662 29c0 049f 0ac7 eb50 2340
00000440: 16f6 68df d27d 33c0 32b0 0e91 fbd8 22c0
00000450: a03f c894 62c3 02c0 2730 5520 26a3 14c0
00000460: 526b 7a4e 4df7 2340 a566 82cf 07e8 23c0
00000470: 2fa9 3863 f06c fbbf eaaf 45b5 0946 29c0
00000480: 5cc2 040c cd97 f1bf 905d d044 8989 eabf
00000490: 0c3d 7f63 a74f 1f40 2cd7 872a f813 dfbf
000004a0: a4de 3e3c e305 2c40 2001 23ba c364 1e40
000004b0: 70f1 ab4a 4dfa 0240 672e 8d07 46af 03c0
000004c0: 2327 d0b4 a287 2540 aea9 98d6 5b16 3ac0
000004d0: 4081 9a6c c010 30c0 4aca 351f 2b29 25c0
000004e0: 7b3d 7e79 4463 13c0 02f5 5ea8 c3f1 3ac0
000004f0: 5cec 9921 2505 0f40 aa3c ea7b 05cf 3140
00000500: f0b4 033f 58cc f6bf dcfd 0cb8 9988 3140
00000510: a9a9 01a9 dc31 2fc0 2ee4 785d 24ca 21c0
00000520: 16d4 f5c5 aa34 3040 9cb9 ed83 9cb0 32c0
00000530: 194a 6019 0d2a 34c0 c06d 3815 fe8c 1040
00000540: 443a b933 3f42 0740 57f4 f1eb affc 1c40
00000550: 745a 4372 7611 1c40 c633 6344 a03f 2dc0
00000560: 0479 a153 10a3 2640 8495 7760 7883 fdbf
00000570: a935 d3d1 1d8d 1fc0 e4a5 6ea6 3a33 0fc0
00000580: 7a13 c4db 820f 34c0 b01a ed9d 12a2 2a40
00000590: 168e 2f6b 90f4 12c0 bd53 30c2 0798 f23f
000005a0: 3476 1088 3eb5 1940 1ab1 d30a d0e0 33c0
000005b0: 2188 5718 2dac 3740 8a8d 70b0 0064 3f40
000005c0: 5695 fc78 0c46 2cc0 302f fb3f 025d 35c0
000005d0: 5ae9 d309 7777 15c0 64e1 9ac2 1826 0340
000005e0: 0957 4e2a c7b0 24c0 009e 88b5 468f 2040
000005f0: a4ac 87c7 96c2 24c0 aa74 f41f 83b8 ef3f
00000600: 6ecb f0e5 7c5b 2540 be82 d0f4 a671 10c0
00000610: 9e2b 8236 6a49 2340 6e76 b75b de41 0ec0
00000620: 05e1 3104 2937 27c0 425b 8032 282b 34c0
00000630: 6da2 c473 ab92 39c0 8434 7a07 64e9 32c0
00000640: 53d9 9705 9a10 2740 dda3 db77 0300 2540
00000650: b629 8d02 e354 2040 f452 9739 8038 0fc0
00000660: 75c6 d2c0 3435 38c0 5850 37f2 fb55 3140
00000670: ba76 96ac 3ad6 30c0 3d0f d7a8 10be 19c0
00000680: eee5 4c06 b78b 2340 c3bb adcf b1f5 2c40
00000690: 58d2 510d a41f 3140 51ce 7665 1bac 1cc0
000006a0: 861b ba6d d00d 2140 4a64 06ad 477f 1940
000006b0: 04bd c789 011a 17c0 e0aa 6a76 e3da 2bc0
000006c0: 28b9 1f40 92ae 0240 b286 8a47 8e95 1840
000006d0: 301c d2fa 9134 2a40 fc31 824c 3ce4 2ac0
000006e0: 3464 74c0 e276 2cc0 fe2f e16e 5fe0 1f40
000006f0: 5008 6bde c62a 36c0 9f27 a5e9 ce66 f0bf
00000700: a2df f40d 7ad7 20c0 06d4 746e ff99 fabf
00000710: c0e3 37ae 37c2 3340 dc96 c7f2 6f4e 2640
00000720: caba dd69 b75e 31c0 4659 04d1 0bef f33f
00000730: 761a b0ed 0f0e 2240 1f19 09d7 585e 36c0
00000740: bd88 b88d 45da 40c0 15a9 2718 ae6b febf
00000750: e879 1abf 5dcd 1440 802d b958 c207 1a40
00000760: 4e78 8444 e387 2c40 e88f 706d 7c35 3140
00000770: 51a0 1c94 00ee 0140 ee00 43c5 5d5f 1e40
00000780: 8f88 d6ee 5c68 3540 d0f2 11bc f85e 30c0
00000790: 02ba b24a 67b0 1640 94f1 3222 e600 15c0
000007a0: 503c cc97 e36d 32c0 d9be 6a00 37d3 0240
000007b0: a163 ccf9 d5e8 3640 3933 4aa2 3019 25c0
000007c0: cba5 db23 462e c6bf dded 4fc5 7a67 0640
000007d0: c56a 8f12 0103 3b40 5e3a eb60 09c9 31c0
000007e0: eb63 4a0b 0b9b 2fc0 0514 b54c 1f79 1fc0
000007f0: 8a7c 6ba9 f140 2e40 ed29 b055 f97d 0d40

arr_5 f8 [32]
8.480579178857615 6.192795313605194 17.96201717827725 -4.468991033083444 6.40773738379415 8.388523355874783 -9.52241303306895 -18.225266431304867
6.99700320993502 -7.786779461616371 0.5375088963365495 -16.04507150081566 -6.775913758338354 -15.882956674798558 3.6073812111816785 -7.848120581622023
-16.077889842045355 2.86575124507097 17.22331422652684 -0.002028562045500726 18.928190261533402 30.18078595910626 -37.72699509814703 9.302071384779094
16.879955857079604 -4.089071840645543 19.381460997137722 -5.658786702765425 7.854093761876827 -6.588994032529797 -3.92443934170731 -1.826434322030899
00000000: fba9 6079 0ef6 2040 8606 7b22 6cc5 1840
00000010: 18e4 fec1 46f6 3140 b4d7 742f 3fe0 11c0
00000020: 8902 a3e8 85a1 1940 c16d 8688 ecc6 2040
00000030: 1412 98b8 790b 23c0 4e57 930f ab39 32c0
00000040: 34b6 d268 eefc 1b40 2a3a e383 a925 1fc0
00000050: 9662 62db 4533 e13f 22fc 4dce 890b 30c0
00000060: 9751 e222 891a 1bc0 e516 b4e5 12c4 2fc0
00000070: 68d7 31ae eadb 0c40 3c86 c4b8 7964 1fc0
00000080: 8146 b496 f013 30c0 a668 20fd 0eed 0640
00000090: 10aa 031f 2b39 3140 002e 96f4 339e 60bf
000000a0: 6cc0 81e0 9ded 3240 f8ef 15fd 472e 3e40
000000b0: 6872 e52c 0edd 42c0 065e bd19 a99a 2240
000000c0: 9f14 7cc9 44e1 3040 be44 0aa6 355b 10c0
000000d0: f467 8b6d a761 3340 2fab 3dfb 98a2 16c0
000000e0: 12ea 1b8e 976a 1f40 c004 6d40 215b 1ac0
000000f0: 3a26 1e74 4065 0fc0 61a2 1632 1339 fdbf

arr_6 f8 [32, 1]
-32.34291615184807 17.212384349930034 -4.8078913848085465 -25.023557585619482 10.941304742169095 -11.753735271083057 -19.91376685499383 -12.337827774327968
-3.637052330301719 -2.3356881680642627 -3.0086121248717337 -3.7256732683091327 14.835809315993007 -37.210867096645714 -13.072863390389726 -8.544970522996783
8.791942242327067 -6.738395362026196 14.608719350968354 7.410343461644644 -10.866635441601254 -2.2159508433724584 10.699352257759164 -10.464068255245635
23.56969907451588 -12.625955915768545 -4.155473845868255 -6.0402539926829295 -2.279167240370442 -3.4828908638657103 1.8315229807528663 -25.94517534912101
00000000: 94ba 2cad e42b 40c0 b821 1dd2 5e36 3140
00000010: 35e4 11e1 473b 13c0 f3ce b3de 0706 39c0
00000020: 385f f6b1 f2e1 2540 6f49 e696 e981 27c0
00000030: 065e e69f ece9 33c0 93d6 14c3 f7ac 28c0
00000040: 4ce4 63e4 ae18 0dc0 d9eb 3b47 7daf 02c0
00000050: a462 d53b a311 08c0 d6c0 57c9 2dce 0dc0
00000060: a2c3 db32 efab 2d40 aaf2 69b1 fd9a 42c0
00000070: 5f99 ad59 4e25 2ac0 431c 5b60 0617 21c0
00000080: 383b 1e74 7995 2140 b0ae ede9 1df4 1ac0
00000090: eeb3 1110 aa37 2d40 9190 8f13 31a4 1d40
000000a0: bc76 fea3 b7bb 25c0 6aa0 8e6f 44ba 01c0
000000b0: 33eb c67f 1166 2540 98c8 b65a 9aed 24c0
000000c0: 709b 6dcc d791 3740 61ed 354b 7d40 29c0
000000d0: cd8c 2d89 349f 10c0 2a6d b857 3829 18c0
000000e0: 820b bc08 bc3b 02c0 2bb9 9ee2 f5dc 0bc0
000000f0: c54b 830a eb4d fd3f ca75 fd02 f7f1 39c0

arr_7 f8 [1]
-11.414795239255309
00000000: ae46 a60a 60d4 26c0
