weights/global_round_4.npz (npz, 129966 bytes, 8 tensors)

arr_0 f8 [43, 128]
00000000: 1df8 19d9 9575 4040 2623 6db7 0227 18c0
00000010: eaee 6db3 1fc7 2640 844c 40b2 be29 0b40
00000020: 071f 1654 5221 3440 c98f 871a 7384 0d40
00000030: 2413 d7c6 d259 0640 d4ba 41f1 10a0 01c0
00000040: d490 38ca d0cd 1d40 a0d0 718e 71aa 2240
00000050: 9aea 3cfd c732 2040 dcd4 2d00 2318 1240
00000060: d2b4 a3f9 81c7 3740 19ba 25f2 1c9a 00c0
00000070: 068f c423 3e53 2340 28e3 b8d6 2861 19c0
00000080: 4d12 0fc6 c181 1040 46d6 af60 fca8 2a40
00000090: 3cf6 ad59 324d 0740 a581 0e70 199d 2e40
000000a0: b8fb 0384 e50a 0540 f503 81f3 bff5 1d40
000000b0: 7a00 2e0d 4c04 27c0 10c3 da97 9be0 1ac0
000000c0: c405 edd1 c221 19c0 60f8 c2ce d692 33c0
000000d0: d7cf b933 473f d23f 9c9a e5f2 9544 3140
000000e0: 8e0a 9d9c e8d8 1cc0 8ab9 b62b 98a9 fdbf
000000f0: bb68 0bee 4700 2bc0 041e 7bcc 0561 f43f
00000100: d094 235a 0fba ddbf 318e f7f5 e76b 0640
00000110: 0e9d 7896 033b 24c0 938a cf35 dcf0 1440
00000120: c813 5582 abb2 10c0 0887 aba9 39ee 06c0
00000130: 1449 1d80 b88f 0140 0b51 9efa 8026 24c0
00000140: 0215 206d c4e3 1540 b533 b750 8188 0fc0
00000150: 6592 de68 4ddf 18c0 4062 a171 c2e5 f8bf
00000160: e0af 7526 0cea 2340 1cc7 ce7a 8d9b 23c0
00000170: 1df8 f1d3 4272 13c0 aa15 d285 2902 22c0
00000180: cd4d 42e5 1c06 0140 3043 18be 06f5 1ac0
00000190: 3adb 8393 e80a 31c0 6931 e3e0 4748 1140
000001a0: 2492 db20 eb7b 2ac0 7c39 7179 bd1c 0c40
000001b0: 875d e974 2019 2140 a053 0f15 1fab 1440
000001c0: c996 8d8e fd68 30c0 82f2 ae42 75ad 11c0
000001d0: 58bb 1ff1 68ed debf 6252 e34e 5bd3 0540
000001e0: bcc3 beb8 3682 2ac0 2898 bcf2 62e3 29c0
000001f0: 58b7 9f2d 2714 1b40 32d4 7c25 dc09 05c0
00000200: eabf 34ea d2a2 11c0 8807 4aa1 399c 2440
00000210: 90ea 9429 1c79 1e40 654e bdb8 2fcd 29c0
00000220: 3ec6 8e3e 0c28 2f40 9238 0643 2baf 0640
00000230: e581 636b 056a 1440 90d1 d5d9 b369 d43f
00000240: 189c c1c2 6a76 fcbf 14b2 9774 c926 0bc0
00000250: 5a00 0a9c 8ebd 2440 1ebb b698 fcca 34c0
00000260: 4cf2 5939 59bb 1dc0 3673 e2a2 7175 3940
00000270: 433e 81b9 6b1f 0b40 4c3a 882b 215b 2ac0
00000280: ca2a 5776 064c 2cc0 8cb5 448d 366d 1240
00000290: 8dc2 1543 5e16 07c0 777d 0ed8 6d87 2bc0
000002a0: ddd5 24af dd13 05c0 49ca 1a46 80de eb3f
000002b0: 8260 0666 96bb e0bf 4f89 d3df 00b8 14c0
000002c0: fa84 d60e 3d7a 0640 7ed1 aab8 f3a7 2040
000002d0: 9c35 3339 ba43 3440 14f9 2f92 95f0 ed3f
000002e0: 2da0 1fb2 379c 0ac0 fb91 be84 5052 1740
000002f0: 528a fe5d 9fae 1ac0 ef8e e109 ffe3 2740
00000300: 88b1 3c1e 76c3 00c0 c65e 7595 eafd 3940
00000310: ad8f 1de3 1952 2a40 74f2 a263 0cbe 0940
00000320: e064 680e d79b 06c0 9c49 8d1a ae9a 2040
00000330: d631 8e32 0e67 0ec0 1c5c 360e 00f5 2240
00000340: 80ee c69c 9be1 acbf f30d bda0 84ac 19c0
00000350: 5f59 1b84 f8ea 23c0 5590 6253 7a72 1440
00000360: 8d41 de96 593f 1240 f5d0 f632 1631 0640
00000370: 898e fe18 f089 3140 8ad0 7849 9a39 00c0
00000380: 7ced d469 6304 1d40 ade8 7513 203e 0840
00000390: c415 f007 f04b 09c0 300e 621a 9df4 e53f
000003a0: dd3e 8b35 5871 1ac0 aaab 282b 8665 0ec0
000003b0: 0ebe b8b5 3d3c 0ec0 96d6 ba55 4d6d 2240
000003c0: f2b1 0a33 bd2e 0340 9ffc e2be ebb2 12c0
000003d0: 5689 5806 bc39 1540 765f 6deb cc29 2c40
000003e0: a000 aadc d4a4 1940 86d1 30c3 1034 3540
000003f0: d807 3a05 6d77 29c0 8880 dc44 a567 1dc0
00000400: 0e75 5612 5732 1cc0 c9ce d8c1 789c 2040
00000410: fea7 4ef4 36af 1040 ec48 7156 322c 1040
00000420: fc82 cbd2 3f8b 26c0 58ed 890b ef9f 1e40
00000430: 085c 67aa 949c 11c0 d31e 74e2 6659 3940
00000440: e44a 466a 9acc 0640 4dfe 3d80 259f 0740
00000450: cf23 af94 225b 0b40 705d f6b7 2bc0 23c0
00000460: ee57 fd12 8e8f e93f 0a7a 2181 155f 2540
00000470: 323f 9a43 fc25 0dc0 b28f 45b0 96ed 1dc0
00000480: 9314 8367 2c6d 26c0 2c02 f979 253d 0040
00000490: e23e d5a0 f744 1940 3551 887c bc6a 17c0
000004a0: 8db4 8214 79b9 2d40 365d 1ff7 6bb1 fabf
000004b0: 1dd6 bd08 022c 14c0 c686 1e88 97f0 2940
000004c0: 4692 cc57 7f5c 1240 ba19 8ece f9a0 2d40
000004d0: 8897 93ac 17e9 f73f 10b4 251b a4c4 d03f
000004e0: 03d4 26eb 28cc 3040 7e18 78ad c1e4 0640
000004f0: e8fa ba84 07be febf 01af 65d5 d4dd 1cc0
00000500: eec3 4df6 9a11 2dc0 2fc3 5aee 5ceb 22c0
00000510: f27e 4857 0206 0cc0 ea13 7193 50fc 2dc0
00000520: d0f1 48f1 ea51 dfbf b21d 4ec6 38cb e13f
00000530: 308d d226 1c44 24c0 ea3e f07a f7bd 2f40
00000540: 9447 ac12 67f0 3240 b424 7339 a928 fabf
00000550: 5008 33cf e0e2 c03f d442 4f7d 421d 2240
00000560: 3965 02ba 331b 2140 14cf fd30 dabe 24c0
00000570: c67b 69f7 0b23 0b40 e2e9 ddaf 1a72 0340
00000580: f663 3fc5 7c97 2740 0ef6 0120 61c5 1dc0
00000590: eab3 f85d 9f61 0940 44c6 2425 d861 0b40
000005a0: 78bc d015 662c 25c0 dad2 39df d7a0 0940
000005b0: 358f 2963 78a6 1440 e0b7 ddf4 40bf 2140
000005c0: 6732 ccab 9f5c 33c0 6012 4f09 6219 21c0
000005d0: b6fb ee47 ba14 1140 baae 9c87 2fa0 04c0
000005e0: 4e66 078b e448 24c0 9536 61c3 6bcc 22c0
000005f0: ccc0 9a8c 84eb 0340 7645 e7bd b274 3d40
00000600: 1ab9 1ab1 9815 0640 123c e673 3775 2bc0
00000610: 4ac0 5f44 b41f 2dc0 0281 9f80 ecce 14c0
00000620: 0f12 ead5 5d82 1140 2e9b 0b6b 1fca 2240
00000630: 80eb a3d1 77ef c4bf 9c57 0713 c156 2240
00000640: befd e91e c365 39c0 469f 52c6 5db7 2940
00000650: 593d 0a3c be8d 27c0 0233 ecd9 328a 27c0
00000660: 5003 ef3f 18d9 fb3f 8057 7037 71d9 03c0
00000670: 2188 5322 f1e3 e43f ea15 6ecb 339f 18c0
00000680: 32c3 01c5 cb8e 32c0 9d4c 0c80 d336 02c0
00000690: e61a 4194 078c 3240 67d0 c04d dd01 32c0
000006a0: be70 29ea c448 1940 629c 46a6 969d 2140
000006b0: c7d5 c04b 046f 3540 5a72 25cf 7337 0740
000006c0: e68a 6087 fb71 04c0 9aa0 b979 639a 2ac0
000006d0: f234 8852 6655 31c0 909a 8a80 81e5 fa3f
000006e0: 9776 1529 bbae 24c0 0020 fc37 ea30 2040
000006f0: 1aa8 1743 5edc 2140 9cd0 fb79 1c15 0740
00000700: 5060 f2c3 c603 ed3f 08a6 1339 f0ee d5bf
00000710: 320f 4c91 57e4 26c0 0087 d693 bb68 953f
00000720: d2d6 cff9 db9e 1740 3b2b 7245 f74d 1c40
00000730: 8743 e28b 162e f4bf 21c2 5af8 bf7a ff3f
00000740: fc07 aedd 5391 3140 b0c7 80c3 8b61 25c0
00000750: c401 d834 e501 16c0 78a5 d7f2 1602 fabf
00000760: 2451 3907 5a9f 2440 22dd 9eb5 ed27 1ac0
00000770: 3d8c 849e 7273 1c40 a867 fcf3 a0fa 0bc0
00000780: d074 27fe 131e d8bf d6b9 7940 584d 1ac0
00000790: 469b 4150 3825 07c0 d2f9 a9aa fa82 2440
000007a0: 5dc0 15d8 3d28 17c0 0613 b7d6 f374 2d40
000007b0: 074b eed0 70f1 2040 fef3 0a84 0476 3440
000007c0: 3e16 b500 7705 fabf caae 9206 cce8 f2bf
000007d0: 890f 5087 87e8 30c0 907e 1aef 6b15 2140
000007e0: 4df6 507e a04f 1d40 2218 ed4c bcad 2240
000007f0: c6b4 a3ea 3fef 3140 7ab1 1211 e7c4 1740
32.918635499649305 -6.038096300159657 11.388913733644092 3.3953832555649246 20.13016248264378 3.6896726677532325 2.7938590559373484 -2.2031573150810377
7.45099178285837 9.332897616761613 8.099182046590887 4.52357101707204 23.77932701346146 -2.075250522400222 9.662583463424664 -6.344882350000979
4.126715750379458 13.330050488914946 2.91269369184627 15.306834699412159 2.6303205789294815 7.4899900481695925 -11.508392726769888 -6.719343540885134
-6.282969741908747 -19.57359020481124 0.2851121907362972 17.267913037353182 -7.211824843487774 -1.8539048869675718 -13.500548781292641 1.2736871707473947
-0.46448119928966225 2.8026885238812373 -10.11526174757321 5.235215035240475 -4.174482380335526 -2.8663209205122975 2.195176125425073 -10.075202781511072
5.472428994258054 -3.94165289935196 -6.218068731865604 -1.5560936392486298 9.957123948923197 -9.803813779584338 -4.861583053249004 -9.004223043341728
2.127984801374373 -6.739283533316481 -17.04261133164548 4.32058669459034 -13.242028261950573 3.514033268707122 8.549075749861698 5.1671107569317485
-16.41011897045863 -4.41939262573999 -0.4832403521276567 2.728201500236808 -13.254323743139928 -12.944114289781353 6.769680703042319 -2.6298144272536996
-4.409007701367935 10.305127182280344 7.618271493639114 -12.900754712208434 15.578218417099489 2.835531734111165 5.103536298702669 0.3189515712067754
-1.7789104087512495 -3.393938933257468 10.370228649350043 -20.792916817295115 -7.432957550158402 25.458765201841025 3.390342187172594 -13.177987442378388
-14.14848680318882 4.606653411215472 -2.8859219780936827 -13.764509917992411 -2.6347001727215074 0.8709107751113346 -0.5228988640474344 -5.179690835271983
2.8096867713180673 8.328031321384284 20.264560294153497 0.9356181960318133 -3.3262781062985796 5.830385278827175 -6.670529812489422 11.945305165084816
-2.0954401361725026 25.991860715060078 13.160353753431844 3.217797068033457 -2.8260937810524496 8.302109555956854 -3.800320048298299 9.478516048560827
-0.056408751380755184 -6.418474685229273 -9.95892727693416 5.111794760599953 4.561865193667825 2.7739681226322497 17.538819849155093 -2.0281263103480045
7.254285482045244 3.0303346176488817 -3.162078916563333 0.6861100688260588 -6.610688053726077 -3.7995723125254317 -3.779414577198401 9.213480643327141
2.3978218066824804 -4.6747274232904195 5.306381320146405 14.081641537762817 6.41096825397122 21.203380774897163 -12.733253634771174 -7.351216388662699
-7.049160276915485 8.305608804431715 4.17110807161407 4.04316077295719 -11.271971309035045 7.656185322087673 -4.40291086440903 25.349226144170483
2.8499038984967786 2.952708246127975 3.4194995513866853 -9.8753335464705 0.7987738009348939 10.685710940681947 -3.643547561783543 -7.482020143743215
-11.213229403258344 2.029856636916767 6.31735087682293 -5.854234643764632 14.862251893000826 -1.668315854379967 -5.042976509653752 12.969906095243811
4.59032952486138 14.814405875059368 1.4944073430319538 0.26200201655484623 16.79749936769441 2.86169753573182 -1.9213938889294528 -7.216632208186412
-14.534385392182198 -9.459693382815741 -3.5029341525076854 -14.992802245667878 -0.4893748623178711 0.5560573456904676 -10.133027280046548 15.871028749300837
18.939072768269014 -1.6349270099765763 0.13192377202182337 9.057147899556561 8.55312901763192 -10.372758418066532 3.392112667948342 2.4307149638745935
11.795873798359008 -7.442753315086078 3.1726672498248165 3.4227755452964477 -10.58671634839105 3.203536743118417 5.162568616305909 8.873542453828065
-19.361811387398486 -8.54957608309013 4.270241855584507 -2.5782156557741844 -10.142368645337367 -9.399259667984817 2.489998911354723 29.45585238357804
2.7605451427726964 -13.728938695769134 -14.561922203720446 -5.202074060187671 4.377311079417736 9.3947709514301 -0.1635579846987092 9.169441790243404
-25.397508556486848 12.858137319169725 -11.776841999292332 -11.769919214327732 1.7405016419799786 -2.4811729746970173 0.6528249426303355 -6.155471018404095
-18.557796776705068 -2.2767705920937957 18.54699064816932 -18.007283076833485 6.321063669947931 8.807789989585391 21.43365930040252 2.902076357202799
-2.555655534394975 -13.30154018774947 -17.333592565778368 1.6810317059659248 -10.341271671171212 8.095536946799257 8.930406662595534 2.8853082208607486
0.9067109896741474 -0.34270864080335217 -11.44598058751544 0.020907336138072274 5.905136016188139 7.076138577550235 -1.2612519706928838 1.967468233237135
17.567685942638477 -10.690519437284678 -5.501850915607466 -1.6255101667432807 10.311233735796641 -6.538992727109219 7.112741925087048 -3.4973773061182847
-0.37683582133997806 -6.575531966619073 -2.893173815729287 10.255818684815413 -5.78929841645012 14.72842284188074 8.471563843811522 20.461006405519576
-1.6263341930038133 -1.181835199046804 -16.908318001791063 8.541839096054247 7.327760671321426 9.339327243749782 17.934569039313622 5.942287699476191

arr_1 f8 [128]
00000000: d8cc 1455 7e55 10c0 b078 5e94 aee4 31c0
00000010: 310e cd94 cd88 24c0 89d9 af14 9cba 2340
00000020: 3086 494c 6505 e0bf c879 b0ba b306 0840
00000030: d848 9d5e 605c 28c0 fa25 c7cc 07c8 d5bf
00000040: 74b6 11c2 b750 2840 de1a 0762 52c4 0940
00000050: 63db d744 222a 3140 0963 ed5e c9eb 1e40
00000060: 2ff5 56de 5804 26c0 740c 9a29 5d29 12c0
00000070: 22db 3a2b 726c 0b40 4a32 8898 4132 09c0
00000080: 0645 b863 5a0c 1640 61fa 7f02 1cdc 2440
00000090: 9206 fd41 97c0 2240 f2c5 a170 5248 03c0
000000a0: 194e 9afd 1de7 24c0 35fb d496 7af1 1440
000000b0: 5c5e d4a7 94f0 2fc0 54d6 bd83 9a90 31c0
000000c0: 04da 83b1 309e 0bc0 4ec0 1f11 2e64 24c0
000000d0: d87e 8a79 3723 2240 1eb0 d89b 4ce0 1f40
000000e0: a0c0 6416 9eba 3040 ba5f 93ed 8063 f03f
000000f0: c2d3 dab6 91b2 2540 56ab 30b3 d806 04c0
00000100: 5eed eece 980e 1840 e634 7e57 033a 2840
00000110: 3674 d7d1 8f6a 2dc0 ee49 b518 4543 11c0
00000120: ebff e96e 5025 22c0 78a6 6a2f 3e60 0a40
00000130: c8aa 71d5 f940 f0bf 7df9 f790 c8e1 0940
00000140: 7d61 fb1a 0d06 0f40 cb0a 37e3 fb5a 21c0
00000150: 9588 2606 6729 33c0 40a5 3de5 d689 2d40
00000160: 4b0d 7b4a 2d4f 1540 ea58 2742 5790 2740
00000170: 0409 1e32 ca9e 32c0 a06d 570a 81c7 11c0
00000180: 9514 6a97 d2fd 25c0 1319 931d 0a7a 1f40
00000190: e097 1540 4f5a e63f a8b0 3b57 0377 d3bf
000001a0: 2f02 77f8 87bd 2840 100e b3da 1289 0040
000001b0: b300 df43 c0bf 24c0 412b fd59 673c 21c0
000001c0: 3f5b 2918 1736 38c0 bc95 7233 c76c 2ac0
000001d0: e411 9cb6 5ccd 0240 42a7 5528 5323 23c0
000001e0: 1293 b915 0980 0ec0 8c22 7382 cf5b fdbf
000001f0: e2de c89f c1cf 1c40 4f90 91ec d19b f03f
00000200: cc91 bab2 2e22 fe3f 4274 67c4 9069 2c40
00000210: 440c 15cf f90d 0e40 7588 5c12 c111 1340
00000220: d01b aec3 e2a7 12c0 0e6c 32ae 9dd0 32c0
00000230: 88e4 7da9 58c8 1440 26bb b648 8f62 2440
00000240: 322b e946 26c7 1dc0 e228 2582 aa13 0640
00000250: 33c7 911d 5dff 2ac0 479c ff44 35d2 2340
00000260: 50f2 a24d a56c 2cc0 e69f 6124 fc79 1a40
00000270: 2b32 c41a 0076 2bc0 d4fa 2cbf dd98 0f40
00000280: b07a 58c4 b2ff e53f 6e60 4c79 81bf 2d40
00000290: bf91 0c1c 52ae 3140 9964 77ea ad86 f83f
000002a0: 1c05 6582 1878 1c40 9d54 5ab7 4241 23c0
000002b0: ea88 7bec 5113 2540 4e44 8b20 5bcf 1540
000002c0: b228 ddee 6ce2 25c0 8c1c afea cc0c e6bf
000002d0: 874a 56d0 3ee7 07c0 4863 7867 3821 f03f
000002e0: d49a 3dc9 77d3 e8bf 0c40 d0a1 6e27 f23f
000002f0: bbe0 f607 761d 22c0 79f5 ea19 6d06 31c0
00000300: 3df6 5d9d 398c 1ec0 7036 0a63 a23e fabf
00000310: bbb6 05ec ff78 1cc0 ad0b fcdd d3c0 0dc0
00000320: f5e7 ea77 68e8 20c0 9b16 cafc 8f20 1c40
00000330: 3873 759b 0d6f fbbf 7028 da3d eafa 2e40
00000340: 1799 a204 de43 2fc0 fc02 bc20 512a 0e40
00000350: 341e 08d5 3cef 30c0 46c4 fe47 282d 1ec0
00000360: ba05 0013 a2bf 3440 236a de8e 7d73 23c0
00000370: 1616 2b53 b1c6 1c40 8a8b 302e 6cae 1240
00000380: 3552 2c5e d5eb 05c0 80e6 4a80 469f a73f
00000390: 51d1 65e0 578b 1740 e064 e9d0 0b53 2240
000003a0: 7a37 6d35 7e3d 06c0 20d0 a6a5 eaf2 f7bf
000003b0: d368 2eda 327a 1f40 ece7 c024 696e 23c0
000003c0: 8e7a 077d 5376 2840 f8cd b6d3 1b49 f53f
000003d0: 2187 315d 4205 1840 5368 f844 d57d 2740
000003e0: b09c d186 3580 1640 2e63 b63d 8b51 2040
000003f0: 2afa d0d0 1385 22c0 5ed0 ba8a ae84 2440
-4.0834897321648995 -17.893288872780147 -10.267193460494214 9.864472052064928 -0.5006586542114686 3.0032724938493836 -12.180422741603635 -0.3403338908943564
12.157651962911793 3.2208602579515704 17.16458540220209 7.7302603561772765 -11.008490512957534 -4.540394449260123 3.427952134832041 -3.1495391766132217
5.512063558694768 10.429901197550125 9.376154005181238 -2.410313491761138 -10.451400685392445 5.235819203137727 -15.969884152101422 -17.564857705924013
-3.452241312824528 -10.195663962484243 9.068782613903224 7.969042239285072 16.728974723432316 1.0242928772258737 10.848767961704542 -2.503343009875077
6.014254792530975 12.113306745678027 -14.708128507185489 -4.315693269791593 -9.07287928205911 3.2969936088964538 -1.015863260045693 3.235245831077178
3.8779546840634667 -8.677702999562277 -19.16172827187309 14.769217647337996 5.327321208725446 11.781915728858127 -18.620272762615983 -4.44482818754787
-10.995747310351627 7.869179212668558 0.6985241176268993 -0.3041389800917025 12.370177998092087 2.066930492963145 -10.374513741466535 -8.617976009516157
-24.211289892288956 -13.212457282769599 2.350274492872119 -9.568993816810352 -3.8125173280008164 -1.834914693421669 7.202887055049105 1.03804199609387
1.8833453160851716 14.206182611111334 3.7568241289423288 4.767338072679299 -4.663950974942921 -18.81490601283081 5.195650718983536 10.192499420457874
-7.444481952649584 2.7596025626745453 -13.498757289929562 9.910562664225052 -14.212198663845953 6.61912590833524 -13.730469547700599 3.94964169841783
0.6874631724238807 14.874034681866956 17.6809403925597 1.5328807028620643 7.117280995765466 -9.627462129379916 10.53773440368646 5.452496059894726
-10.942237343308395 -0.6890625556633423 -2.9879127765974007 1.0081104318434928 -0.7758139543992351 1.1346269913519818 -9.057541130911309 -17.02510225282956
-7.636938532695749 -1.640291582941611 -7.1181637648093625 -3.719154104475328 -8.453922030854281 7.031799268564693 -1.714612586270233 15.490068371658907
-15.632553238724126 3.7706625516296963 -16.934521975023202 -7.544098973202443 20.748566806321584 -9.725567307138652 7.194035815720346 4.670334550583798
-2.7401530606532796 0.04613704982825784 5.886077409948784 9.162199524393543 -2.7800258802371305 -1.4968058081403868 7.869334611017808 -9.715645931766595
12.23110571590703 1.3303488035279525 6.005135971210422 11.74576774151152 5.625204187911706 8.1592654500142 -9.259916806707299 10.259144149116931

arr_2 f8 [128, 64]
00000000: b25c 4d05 281b 13c0 203e 1b13 e430 15c0
00000010: 8897 2e0b 0f37 dabf 985a 05db b793 dbbf
00000020: f964 8907 2af8 fb3f 7f3a 0ba9 1e6d 1e40
00000030: 9636 2029 d07b 1040 8054 b301 0b11 acbf
00000040: 322d 58eb 5896 19c0 6c4f 48e0 8028 09c0
00000050: 07cd 38ee 0d32 05c0 e86f b042 4857 1540
00000060: ca7f 504a 2c36 1940 3657 5f0d 1c5d 2540
00000070: 78e3 9cd9 c433 2740 e897 1ef0 2e41 f3bf
00000080: c8fd 85d1 f9ae 0040 c2d9 9120 470b 20c0
00000090: eaf9 f11f ba63 20c0 50aa 7117 ed83 1ec0
000000a0: b870 88a4 21a8 04c0 eaca 1711 ae4b 01c0
000000b0: 2c8b 34f9 d7dc 1c40 39fa 9be7 80f9 30c0
000000c0: ff77 044e 2164 03c0 d8cc e834 9c56 3940
000000d0: 7649 675c c03e 10c0 7484 ac54 1593 03c0
000000e0: 3358 9714 0934 2bc0 f472 08e0 12af 15c0
000000f0: a9dc a6f1 83f6 21c0 d7f6 5d14 4b22 1a40
00000100: fe23 c790 c482 0040 be23 138d 23a0 25c0
00000110: 4639 5261 4aaf 2dc0 a073 a122 8b97 ebbf
00000120: 0ded dad4 c8f9 29c0 1f67 8f93 fa2f 1cc0
00000130: 2a4e 5038 affd 1740 50a2 2ca0 e388 11c0
00000140: cd63 38d6 b6b8 0d40 bfd4 439f ce3a f93f
00000150: 612c bd1e 11a1 2d40 79a9 1239 2174 1bc0
00000160: f60d d374 f37a 2640 09a6 874c c232 0740
00000170: 96f9 476f aa7c 1cc0 147c 1e4c eaa7 0640
00000180: 20dc d042 74d6 d9bf 1051 7059 f35e d43f
00000190: df89 61a1 2047 2bc0 6ac8 6606 c047 2ec0
000001a0: e49c 7d0e 7248 2cc0 e49e 98d4 ac0b 0940
000001b0: 80ac c07e b81a c73f dde2 7191 30d0 2540
000001c0: 5ce6 55d2 a4db 09c0 1fb0 7d00 66c8 00c0
000001d0: ccb6 7579 41d1 e3bf 4446 88fa 46f7 0940
000001e0: eb0f dc8c df5c 2140 7e6d b3b9 cd32 1740
000001f0: c682 755b 3a00 21c0 3414 fd1d 9ec0 c8bf
00000200: 000e 617d 303d a03f d677 765b 50a7 1ec0
00000210: 29dd dd6d 875a 03c0 4c3d 12eb 0647 2640
00000220: bc53 7071 ff8b 1740 54ed 310b e1ae 2040
00000230: 72aa d26f e966 27c0 e83f 4c83 37ee fa3f
00000240: 6ad9 f118 a1c2 2540 c26b fb98 5e53 18c0
00000250: be4b 24a8 a715 1ec0 804e 3219 536e 2ac0
00000260: ac6b 7fca 35d1 1b40 4288 f574 4c26 3dc0
00000270: b629 9323 5f75 eebf ba83 bf3f bbf7 1dc0
00000280: 302c 4657 b43b fb3f 458b 57b7 8b3e 1fc0
00000290: ca50 5b7c 4bfb 2040 d1f7 c4ef eeaa 2040
000002a0: d0bf c699 3906 fabf fa92 a398 dd59 2740
000002b0: ccf6 47aa 1479 2440 1810 3972 8aff 25c0
000002c0: fc2b f62f 0520 1a40 48f9 2678 8d27 fd3f
000002d0: 0996 af49 1a69 08c0 0248 f79a b4ee 0dc0
000002e0: 2a24 7e75 bb46 0940 b317 b46f ed59 0dc0
000002f0: c46f cdc8 71f1 17c0 1d33 ddd4 83ea 30c0
00000300: 5283 c7b0 4401 1640 0861 96cf ad2c fb3f
00000310: a775 763e 1fa3 2bc0 40d6 27cd a49f 2440
00000320: 4278 67d7 3921 21c0 64ae 14b0 d5b4 2040
00000330: 34ae 71de 15f6 f13f 2fc0 dee9 8b68 2240
00000340: 0c8f 6af0 6435 1f40 5c66 544c 506a 2640
00000350: 047c 1087 60d5 fa3f 60d0 248c 4fa4 e1bf
00000360: abd9 56a0 266a 1d40 8e6b 53d6 7253 fcbf
00000370: 7a5c 6b76 d8ce 21c0 d607 9aff b92d 12c0
00000380: 6210 d8e1 854e 14c0 d434 c45b 46e0 f43f
00000390: 8b08 832a 22c3 2640 d3a5 1112 9210 fc3f
000003a0: 9b08 d3d1 f554 13c0 3ffb 2d6a 3a20 1fc0
000003b0: 4ae2 1825 3691 05c0 35c2 a9dc 0cba 0240
000003c0: 3af5 ba27 639b 2240 9ea3 db9c 1ffe 12c0
000003d0: 7adf ead0 9e06 f9bf d3b9 fc07 d7ee 1140
000003e0: 124f c1da f8d6 1fc0 c20c 3f92 91d3 2340
000003f0: 35f6 bfd6 ec06 0940 0043 63a9 4a23 0040
00000400: 4044 4200 88d0 16c0 ff05 1b39 a010 03c0
00000410: df1f 2243 97b8 1640 6a9f 48db 14f9 0940
00000420: 00ea 7a3d ca38 c53f 656a a3d5 860e 11c0
00000430: 4444 04ab c433 18c0 fae6 4c96 bf6e 1740
00000440: 5999 b4cf 9ae3 10c0 ea85 c6e5 b119 2240
00000450: 2014 70f5 fa02 b73f 0075 6cc6 5dc5 de3f
00000460: d62d 3296 5a7c 22c0 6492 4d88 0fb1 16c0
00000470: 2826 3d4d 2e16 0a40 9aa7 ddc9 53b7 2d40
00000480: 4155 a316 049c 1c40 6cd4 ad4c 4818 2040
00000490: 7f72 3c72 dde9 1440 011c b84b 5e5b 0340
000004a0: e277 51ea a43e 05c0 6ef2 9be0 317e 1440
000004b0: b07b bbc9 8d15 1ec0 e442 a8b3 6195 2ac0
000004c0: 5858 0107 e356 1ec0 68d1 3cdc 6d4b 1640
000004d0: ef94 42e4 9e7c 2040 9864 86aa fd28 2c40
000004e0: da2c b86c 7ed6 12c0 54c3 8736 024e 3340
000004f0: 2b0b ff52 ecb3 0ac0 1a62 a3f9 2447 15c0
00000500: 6a97 c986 bfc5 34c0 a8fc 2175 2fe5 1440
00000510: b8fe eb49 077b f03f dbd2 43fc 3447 30c0
00000520: 1ce1 78f3 de6a 1b40 f26d 7e47 7802 0940
00000530: b28f 9b6f d175 24c0 f087 8b8e dfcd 0dc0
00000540: 3164 e936 89f9 36c0 40c5 21f6 cc9f c8bf
00000550: dbd4 d0b1 6a46 3240 ae85 f7f9 c2e1 2dc0
00000560: a1dc 98f9 2256 0f40 f73c 4c88 dee3 29c0
00000570: d26d 3b37 6c57 f13f 1bf9 425d f743 20c0
00000580: b319 dc5d 301f 1e40 1c60 8513 e40f 28c0
00000590: 40bf 4e3e db5c afbf 5a17 5487 5621 1840
000005a0: ca8b 5cf7 3056 11c0 70a9 a6d1 a762 1840
000005b0: ba14 0341 9a31 0240 c259 391e 4733 0240
000005c0: 613f 3994 35ad 0240 0154 71dd dbcc 1640
000005d0: 708e 21c7 7241 36c0 e8a0 152d 9f67 f3bf
000005e0: 7f0e 09de 156d 31c0 4199 48e3 4d40 1ec0
000005f0: acc8 cc2e 545e 2840 d835 9e6f 579b 2540
00000600: e2cd 6952 2041 0ac0 f7c0 7d61 1f61 1740
00000610: 3602 25fe 0599 10c0 706c 0913 2268 3040
00000620: 0a64 3ea6 3814 12c0 360c 8fc5 2d6d e53f
00000630: 2e4a 18b6 d0a5 1c40 754d 488e 9a25 31c0
00000640: f4ba e177 3db4 1b40 c84a 7ada c4b4 2840
00000650: 8211 b848 4dc7 1840 d113 5d19 41fb 1340
00000660: d8df 35ca ecf3 1c40 2dc9 4394 cf7d 1940
00000670: 47a5 907d d4cd 0ac0 d61b a0ac d866 08c0
00000680: 32ac 0640 9410 2440 04e5 d887 10e9 3940
00000690: 518d 477a ffc4 2540 b247 d8f3 c35a f83f
000006a0: 3288 9c4d 8124 1440 65e8 d952 3da4 25c0
000006b0: bfa7 ec52 00b9 30c0 bd09 91cc 2216 23c0
000006c0: 638d a9fb a78d 07c0 6ac1 52af df0c 27c0
000006d0: 618f c2f7 7605 2b40 58b0 1fec bb73 ea3f
000006e0: be60 893d 734a 2ec0 ec15 0da9 b57b 1040
000006f0: 57b5 ee8d 0e87 18c0 78d4 41e3 1fdd ecbf
00000700: df78 5e75 f9fd 2540 843f 8caf d87d 23c0
00000710: 8e79 abab cec0 35c0 5b29 442e 5db6 2440
00000720: 78ee cc8b 1055 36c0 5014 aadb 7b7e fa3f
00000730: 08e6 0cb9 a6b6 0140 87bc e5f4 b2cf 3bc0
00000740: 5e51 e75c cf94 2ac0 a4fe 9369 1092 19c0
00000750: 52d2 29fe bd30 2cc0 b437 5a14 cf12 2640
00000760: da7a 4fcf 7604 fcbf 2efe 7b12 ea86 1cc0
00000770: 4a79 6ad8 da49 1240 7e82 eccd b399 0640
00000780: 999e 1006 31be 23c0 0d9a 2f71 8e81 1940
00000790: cac5 db0d 67b5 19c0 0c90 6a0d dd0f 35c0
000007a0: 2083 34f9 f491 11c0 7500 7ac6 7897 1d40
000007b0: 1400 1488 b08c f63f 7e8b 748a 7df4 3ac0
000007c0: 6b45 8714 a442 1d40 602f 86f4 c9e8 e5bf
000007d0: 21f2 b0ab 2302 0740 9504 5833 448d 2a40
000007e0: c8fb f5a0 bc7f 1740 5277 6b3b eb80 1a40
000007f0: 001b df85 c4d7 f0bf a11c ec44 435a 1e40
-4.776519854399497 -5.297745035684358 -0.40961052028648526 -0.43089100254784674 1.7480869573976732 7.606562272367795 4.1209112573539155 -0.054817527730542714
-6.396823575264806 -3.1447770616595587 -2.649440632923532 5.335236589449757 6.302903329051285 10.68185464657618 11.601111221696314 -1.2034139041584186
2.085437428380576 -8.022027032665282 -8.194779394424547 -7.628834120094851 -2.5820954183710363 -2.1619530997644363 7.215667623359689 -16.97462317998927
-2.4238916487802267 25.338321024738292 -4.061280673793922 -2.446818028940976 -13.601631778216051 -5.420970440402687 -8.981475402468577 6.533489530787583
2.0638514815113913 -10.812771233164195 -14.842364350592685 -0.8622489620571407 -12.987860347484935 -7.046854310634244 5.9977387236608966 -4.383680823063131
3.71519248351658 1.5768572064674087 14.81458374079938 -6.863407985462225 11.240138674510472 2.899784658326784 -7.121743906753542 2.8319898554614245
-0.40371424221979346 0.3182953236985364 -13.638920825153887 -15.140136909529435 -14.141495182832337 3.1307007416797763 0.1805029505643212 10.906620545532343
-3.232247966047721 -2.0978508032185483 -0.6192939159643287 3.2457408497655553 8.681393052924212 5.799612905098341 -8.500445230574211 -0.19337822403227423
0.03171683817393145 -7.66339247618267 -2.4192036231358043 11.138724657036299 5.886716625672246 8.341560697407353 -11.700999731508293 1.6831584099600096
10.88013532593023 -6.081415548654094 -7.5211473724511375 -13.215477740660617 6.954306758906494 -29.149604139274977 -0.9518275923558608 -7.4919252358094415
1.702076283373355 -7.811079849928153 8.490810285708353 8.333854191583585 -1.6265197760476333 11.675518770186944 10.236485787663149 -10.999103135553057
6.53126978816999 1.8221564000555919 -3.051319671317064 -3.7415554148401506 3.15953723708346 -3.6689099051318066 -5.985785615481237 -16.91607408905394
5.501238596131616 1.698407946480133 -13.818597747764967 10.311804209816842 -8.56489442003306 8.353192808651507 1.1225794495793595 9.204192455712557
7.802142864707786 11.207643876364436 1.6770940090134454 -0.5513074624236758 7.353662972737236 -1.770373189173117 -8.903995228391285 -4.5446548402560065
-5.0766825950741765 1.304754599058744 11.381120041365895 1.7540455537622293 -4.832968977456541 -7.781472834640964 -2.695904054471872 2.340844844751951
9.303490869113933 -4.748167467981061 -1.5641163025702256 4.48324215393082 -7.959933679627072 9.913219995686067 3.1283814217884136 2.0172322495858452
-5.703643802685349 -2.383118101250829 5.6802645196512165 3.246621812013406 0.16579559328040716 -4.264186227892968 -6.050554916510979 5.858152721828214
-4.22227024593152 9.050185375674989 0.08988922588476145 0.4807962835055406 -9.24287862169778 -5.672910814032182 3.260830501011487 14.858061130816896
7.152359346121842 8.0474266016192 5.228383812846572 2.4196134486733176 -2.6555879884826803 5.123237142103433 -7.521048690860809 -13.291761030473431
-7.58485041566572 5.573661271297489 8.24339974701658 14.08006031885661 -4.709466646901285 19.30472126783873 -3.337853096397699 -5.319476986500854
-20.772453712670007 5.223813848685644 1.0300362479755858 -16.27815224319316 6.854366115811242 3.126205977006742 -10.230113494624536 -3.7255240570384487
-22.974749977093044 -0.19237672823104823 18.275065530285115 -14.940940677132712 3.917058896996949 -12.94505716257707 1.0838434369569439 -8.132746614861892
7.53045794158827 -12.031036958724194 -0.06125531325903788 6.032556643016358 -4.334171166442454 6.096343303487046 2.2742199973168598 2.27503799068947
2.334574850079591 5.700057468454362 -22.255657621090393 -1.2127982865441087 -17.426114918910113 -7.562797118478842 12.184236013887435 10.80340145880011
-3.2817999304331673 5.844846270847703 -4.1494369230354575 16.406769933510475 -4.519747350271254 0.6695774897165225 7.161928982956438 -17.146889584209436
6.926015732910617 12.353064372471081 6.1946307527872495 4.995365520769114 7.238207969225151 6.372862164151496 -3.3505029496924723 -3.0502179609643276
10.032381058516055 25.910408487751752 10.884761639818551 1.5221595311345308 5.03564950244804 -10.820780362224648 -16.722661192681468 -9.54323424597248
-2.9441680585020307 -11.525144080020898 13.51067327737809 0.8266276943009059 -15.145410464305652 4.120810166763004 -6.131891458220102 -0.9019927443138291
10.996043842108007 -9.745793805952196 -21.753153542865725 10.356179662533284 -22.33228372338496 1.6558798390044736 2.214185186105855 -27.811324411476132
-13.29064455341057 -6.3926407333926 -14.095199530224964 11.036736141217126 -1.7510898683610123 -7.131752289598394 4.572123891352314 2.825049980907635
-9.871467771080733 6.376519936113721 -6.427150932825905 -21.061966742054253 -4.3925360620785625 7.39792165870323 1.4093480411102108 -26.955040601209014
7.315079041248604 -0.68466661223054 2.8760445989012315 13.275910953993199 5.874742999089854 6.625897339281282 -1.0526776532512372 7.5881472367392755

arr_3 f8 [64]
00000000: d2c6 9db3 2d8c 2a40 5ca9 5f6e b556 e13f
00000010: 1295 c437 234e 2ac0 b066 9db9 8e04 2040
00000020: d752 cf7e 2a09 33c0 19da e970 7ba2 ea3f
00000030: efff 1cce 56d6 13c0 5a22 6562 a281 1cc0
00000040: 064b 6721 eab7 1a40 9b95 f93f 294e 11c0
00000050: e614 141a 774d e7bf 8af0 3024 24ed 2940
00000060: 96b3 6392 3f63 35c0 bdce d7ca 7471 0e40
00000070: 1971 c803 c817 24c0 c0d7 8313 a2e9 18c0
00000080: 6c2d b08e 0dd9 0ec0 08b3 7f02 a94a efbf
00000090: 350c 9826 2f7f 2440 9c9f a502 160e 2140
000000a0: 1bfc f680 3723 2940 d667 1859 174a 23c0
000000b0: 3025 b9c5 999c cdbf 5863 db2c c0b3 0b40
000000c0: c733 014c d272 1940 2c3f db34 4e82 0e40
000000d0: 012c 1242 cf4f 22c0 c392 a9d4 f36b 3140
000000e0: f685 6638 6f93 10c0 7c93 2dca 4a92 0740
000000f0: c972 bd00 6434 3140 a063 dc99 e23f 26c0
00000100: e6c5 9279 a2df 26c0 90fc 5042 573d 0540
00000110: 0457 ba19 f1d8 2ac0 d92e f533 2aa8 24c0
00000120: b009 7872 2a27 d73f 52d1 de4c 7c06 03c0
00000130: 7a46 d686 3d66 f6bf 486e 2997 7e90 fcbf
00000140: 03d3 af71 0ad5 3140 ca5d c26b 0a92 0b40
00000150: 396c 5dc8 46d2 2940 5539 dae8 6ec5 2640
00000160: 1b6f 1194 a3c6 20c0 725a cc36 6417 0c40
00000170: 6ad8 81ff 0494 1040 d558 fd86 6106 1140
00000180: 7cde 8ca7 f6f9 08c0 5800 1317 1f08 18c0
00000190: 3665 533b 3f7d f63f c051 668b 51c0 26c0
000001a0: 9d70 9391 4a86 2140 acb2 f1b0 36b0 02c0
000001b0: d7f0 8ee9 315f 2a40 b0a8 f161 7e8a 3140
000001c0: e224 6d80 86e1 2140 f80a 6a14 e292 2140
000001d0: c923 6d19 bdc5 2ec0 c8fb 33d6 559a 1dc0
000001e0: d3cf 1c47 4e0b 3440 8651 ab52 8193 0f40
000001f0: 82e2 f4d4 e9ce 0e40 36ad 665b 6eb3 2140
13.273786175737232 0.5418345599876306 -13.152612440821517 8.008901405776982 -19.035804677597152 0.8323342519132125 -4.959315510292057 -7.126596009657613
6.679604074410923 -4.32632923088877 -0.7282062062592132 12.963166361784051 -21.38768877920264 3.805398544989514 -10.046447866647712 -6.228157334253353
-3.8559828898921094 -0.9778637932591616 10.2484066067319 8.527511675565442 12.568782835149298 -9.644709381322098 -0.23134157328085214 3.462768888898079
6.3621303439840124 3.813625729504471 -9.155878128736733 17.421689311408738 -4.143978959329152 2.946431712642548 17.204650923015638 -11.124775703576063
-11.436786460081702 2.6549515896763936 -13.423714450832911 -10.328446983031812 0.3617654912815409 -2.3781667714594414 -1.3999610201903168 -1.7852769760855995
17.83219061415276 3.4463089388552577 12.910696278957504 11.385611797941843 -8.387966754081893 3.5114216118920973 4.144550316143162 4.256231412137102
-3.1220524873604614 -6.0079310994479656 1.4055778806126233 -11.375622135391382 8.762287663696322 -2.3360418151626927 13.185927675913645 17.540990945338024
8.940479291270496 8.786881101555522 -15.38620833833001 -7.400718066141913 20.044163174184927 3.947024007657265 3.8510319363816174 8.850451332362905

arr_4 f8 [64, 32]
00000000: 2bc7 5c10 abdf fdbf 0a8a 26b9 351f 2840
00000010: 583f 3fe0 f153 1640 99d2 907f 2193 2840
00000020: 0af1 f63e 10f8 2ac0 84b4 e806 dbe0 2240
00000030: 7d55 a20f c64a fd3f 8a24 ccf7 a429 3540
00000040: f37a b587 e5fc 0cc0 091c 1ea5 87a3 11c0
00000050: d004 45ad ba90 e8bf d034 842e 5118 1dc0
00000060: be41 a15e 48f9 1ac0 37a4 b3f9 88ee 2240
00000070: b436 25dc 57d4 1ec0 7484 434c 0f6b 08c0
00000080: e335 0af3 cc81 06c0 7cb7 cedb f2ff 1b40
00000090: e017 07a3 65ce 2d40 70ac 2166 f9d7 dc3f
000000a0: 3b61 b64e c027 32c0 d091 7376 6781 35c0
000000b0: 62e8 ae83 0b14 1a40 a97d de74 6f5a 20c0
000000c0: f01b 0091 8bc9 1840 c642 b833 7c0d 0d40
000000d0: dac7 39b9 3286 0740 e2ee 3d6e 57b0 22c0
000000e0: d2d0 80cf 2f0a 2940 5d10 a53c 3d55 2040
000000f0: 8a45 fbae f4f2 2340 4e11 ca18 2ea7 0840
00000100: b2ef c9ff a6d8 2ec0 e2f3 b028 c2f5 2ac0
00000110: 66d5 8722 9853 2640 1457 3881 1d8f 0fc0
00000120: 2674 6766 2c5c 1ac0 3018 87c4 52a7 0340
00000130: 63f7 46e3 7e95 2240 f520 9dcd fc4e 07c0
00000140: 3689 9acf a5d6 0cc0 cc37 b849 2b14 f2bf
00000150: 48d7 482a 20c1 1cc0 4b3c b5f8 cef7 26c0
00000160: 5edc 3c34 88c8 1fc0 2e01 70bf e860 0340
00000170: 9e0a d1e9 a4ef 3d40 8d6b 12f2 2be7 2b40
00000180: 4234 bb30 5a40 0840 2f68 c613 ef5c 1040
00000190: 557a 0c28 118e 3bc0 5869 dcef d9c0 eb3f
000001a0: 2e55 41c7 f293 f53f afc2 930e 2058 27c0
000001b0: 5fed 8430 724c 2040 48dc 8b35 33a5 26c0
000001c0: 1f23 ba82 1841 29c0 f480 bc09 2d2f 1840
000001d0: 8c8d 0148 b6e2 3640 6852 9649 b65a 1440
000001e0: a4c9 34aa fb0f 0fc0 2851 3cfb 4df2 26c0
000001f0: d212 1df6 f02f f93f 7a71 04c4 c0c3 2bc0
00000200: e4f5 8f5c eb83 1b40 00ba 3a28 976e 26c0
00000210: 9273 9426 bfd8 1dc0 ce38 0bff 6b3d 2740
00000220: d462 6d0e db29 ff3f 4444 69ee 88a4 1d40
00000230: 409b 2d70 c7b7 e43f a957 92bf e495 2540
00000240: 81bb 37f0 252b 2d40 d53e 3e02 8133 32c0
00000250: 08af 658d bb24 e2bf c819 d449 4af1 10c0
00000260: c46e ab5b acec 1240 cced e58a b2e3 f33f
00000270: 8cb0 b191 fb6b 31c0 5636 06f6 8061 24c0
00000280: 8cf0 2bd2 9df0 0ec0 aff9 0594 cc2b 1140
00000290: f813 4914 c8d6 33c0 004e 1c71 61a9 23c0
000002a0: e2d4 e921 c1e1 2cc0 5456 d269 e3b1 27c0
000002b0: 829d d281 7da7 2d40 7cc0 b636 bcfe 26c0
000002c0: 7696 8bbd fceb 1cc0 9e56 10fe 23c0 2340
000002d0: 65d3 8dfc bd23 3140 cc4d df43 a8aa 3240
000002e0: 9ace 5f2b 1f0e 32c0 4ab7 6158 219a 07c0
000002f0: 09f8 b9ab 515b fa3f 64ad a098 8fd2 0540
00000300: 0ac6 2c35 aa6f 2340 d12a 3ad4 d389 32c0
00000310: 2f5a c954 15a1 0140 9cbc 6829 2c71 1cc0
00000320: 2ce7 8879 2756 0d40 4eb3 32f7 e32e 0b40
00000330: d676 5e34 7b89 0a40 40ad cee3 a433 e93f
00000340: 9c3e 532f 27b8 1840 946d 4ace de14 0640
00000350: 02de cfd7 c14b 18c0 0c34 ea70 0bfa 1440
00000360: c81f bb34 7119 b3bf f651 52a2 c1ba 1a40
00000370: 2901 e3b3 b1be 1ec0 5a07 33e8 c291 08c0
00000380: 680a 3cd4 1242 f7bf 4c6e 9d30 3eb5 2840
00000390: e3a7 9d13 6d0c 10c0 d29a 03f4 e7b0 3540
000003a0: b095 4d15 b9ba 2140 40fa 0f13 93c7 f7bf
000003b0: 9c2d 981e 1a19 32c0 7016 5ca5 801a 00c0
000003c0: f2f0 efe6 6c5f 1e40 e1ee f614 03dd 32c0
000003d0: 8e48 a94b 5e0f 1140 7876 2d54 4e99 26c0
000003e0: 5eb9 cf66 ec88 33c0 e6e2 00b8 e310 20c0
000003f0: ca5f 297b c2f3 1d40 612f c075 f1fa 1740
00000400: 0162 1cc2 7825 05c0 780b d3cf 91e6 16c0
00000410: 40fb a332 e9f8 1a40 6e85 aa62 498c ebbf
00000420: fd83 f43c 7f96 1440 1237 cf08 1219 02c0
00000430: c097 13ac e186 17c0 9a40 a609 2133 0140
00000440: ce45 abd7 6b09 f93f 6d38 38c1 114f 21c0
00000450: 1c9c 8028 de5b 3540 e0ee 6ce0 dfe9 ce3f
00000460: 7e02 896d 03a9 24c0 600e 23c3 54c8 1340
00000470: 9c60 f4cd e2ed 2440 dfd8 ee57 6004 1640
00000480: a3cb fc4f d984 0340 b0da 905b 8d91 e93f
00000490: b4e9 8b19 b934 1940 43a2 0557 054b 1ac0
000004a0: f84d 1fca 13f9 2e40 e8d8 595f 8023 30c0
000004b0: 8637 d10d 513e 08c0 348a 6965 c33f 3640
000004c0: 388c 006e e999 11c0 10e1 e0b7 444f f93f
000004d0: 7e8e 3d26 3497 2dc0 3d4b 5a35 8931 2640
000004e0: 8c81 7ab2 e5dc 2d40 6bcb a208 b9d5 2fc0
000004f0: 529b ef37 2282 3840 3004 9e7a dda9 1bc0
00000500: 06db c8c2 4831 21c0 9793 c08b 6804 2340
00000510: 4243 dd94 16ec f2bf 3cf9 cd98 5bab 18c0
00000520: 507f b209 ff4d c93f 98e9 a2c3 7e67 02c0
00000530: f8d4 24a9 250b 24c0 4e0d c98e b48e 15c0
00000540: 1444 6811 d173 33c0 ba8d 4f7c fa72 08c0
00000550: ea43 93ea 30bc 01c0 4e04 133e 3067 1040
00000560: 3052 6029 407b 1840 838f cd50 1ff7 1140
00000570: 92dd 7b07 48f1 2540 d342 bdeb 558d 1840
00000580: 61fa c2c5 49bd 2740 304a 217a e0be f2bf
00000590: a5b0 8bad 1bf4 28c0 32cf b9fe 3c61 15c0
000005a0: cbbc 2054 0259 06c0 3b3c f887 1ffa 1a40
000005b0: c059 f9bd 7ca2 31c0 b27d 1126 a927 2640
000005c0: 74ae 9a39 48e8 0a40 3e1f c45c fa95 1a40
000005d0: e959 67ab 414b 32c0 4882 0462 b49a 15c0
000005e0: 5004 3870 d7ee 1ec0 8eaf 9775 449c 3940
000005f0: 3844 8798 4d09 eabf c875 ec8b 5ca3 2bc0
00000600: bbed 9cbc 62d6 0a40 764c fa6e 77ee 2cc0
00000610: 1a3c 2d37 0eb7 0cc0 be5e eb35 238d 1540
00000620: 6476 c6eb 7f23 1ac0 54bb 2bf1 0dff 08c0
00000630: 641e f82e a915 0b40 99b1 7286 5710 3040
00000640: 7f1a 60f2 cc49 26c0 abb5 7932 e254 3040
00000650: e481 9238 8f2b 1140 4df3 9f40 08e7 0dc0
00000660: b43e 0c82 8755 1240 6a4d 119a 2491 1c40
00000670: 00ef 7850 03d1 2dc0 8330 35b7 10f5 0340
00000680: 3015 ed31 9057 2ac0 584c fd14 caed f7bf
00000690: 40b3 4072 2f59 1dc0 391e 4600 5fb6 1f40
000006a0: f4d8 51b2 9142 f0bf aa74 c581 56aa 29c0
000006b0: c545 9ea6 d2ad 29c0 1a3b ed8f be52 0d40
000006c0: 620a 0ae1 378f 2540 d586 4f29 9f37 2540
000006d0: bc54 6612 90ff 1240 300c a81c 4ca2 e23f
000006e0: 784e 304d 6215 19c0 ca77 8bbf 7794 1bc0
000006f0: 7d94 0f7f ac6f 1940 c899 f8f1 0e37 fcbf
00000700: dd8d b409 81a0 3140 f3f4 1b06 c057 2fc0
00000710: 217c 6819 020e 1b40 240c a6f5 1b15 30c0
00000720: f45f 0d55 b707 2440 b681 7347 f699 19c0
00000730: d221 b2f2 4830 2840 f1df 4aad b840 2040
00000740: 2c76 6e83 4cf9 1840 2719 5f8a 4aee 14c0
00000750: e2cc 86ba 6347 f23f 9e61 7109 b06b 1ac0
00000760: 8c11 d16a 6c02 1e40 e9a4 4ca5 524e 25c0
00000770: f099 9952 fbba 2140 b65f 6f3c 968a 0440
00000780: 7f3b 9ff0 f953 3240 1d56 2856 c892 16c0
00000790: a1a7 cef1 3a10 1f40 33e2 7910 5518 2740
000007a0: 7ce1 2b30 db66 0cc0 0e49 b3a4 1769 0fc0
000007b0: 2ad2 9bdd aea7 2ac0 0aec e073 37fb 3340
000007c0: 10b5 1c69 7f5a 0a40 1278 370a 1523 1640
000007d0: d67c 9f15 edb2 16c0 005c e814 54ad 2940
000007e0: a272 780c 501c 13c0 3fbb 8837 8405 2640
000007f0: 1e35 2531 6c94 0ac0 1813 2ca0 bae8 1840
-1.8671064986378478 12.060956750826353 5.581977371082608 12.28736494677405 -13.484498946804269 9.439171043306722 1.8307552920062726 21.162673461284193
-3.6234846689470657 -4.409697132075061 -0.7676671394512145 -7.27374718362735 -6.743440130798659 9.465888789347543 -7.7073664090836935 -3.0522752721886324
-2.8133791911593433 6.99994986962508 14.90311917745197 0.4506820199373527 -18.1552781291259 -21.50548496552966 6.519575173903009 -8.17663159576371
6.196821466094647 3.6315845528227753 2.94052643497069 -9.344417042789647 12.519896015619825 8.166482825421719 9.974523037121589 3.0816308914819848
-15.423149102592877 -13.47999694023196 11.163270072060822 -3.9448804946249627 -6.590013122619927 2.4567008355834545 9.29198370209969 -2.9135681212975393
-3.6048084467921866 -1.1299240951225213 -7.188599262901171 -11.484000942347981 -7.945832077231072 2.4223189312034696 29.936110127959743 13.951507153271246
3.031422024453179 4.0907557573173525 -27.55494928650508 0.8672914204392255 1.348620203343056 -11.672119575059098 8.149308696962803 -11.322656319926082
-12.627140126439881 6.046070243959765 22.885593891505366 5.088585996436997 -3.8828042313918605 -11.47325120078365 1.5742044080554263 -13.882330060522452
6.878827520643856 -11.215996987503786 -7.461666682062871 11.619964571113453 1.9477186740461336 7.410678601431815 0.6474339667300697 10.792760836233201
14.584273821643139 -18.201187267490997 -0.5669839631713964 -4.2356349502283095 4.731126243914051 1.2430901933392873 -17.421807390099772 -10.190437019594508
-3.8674885196360886 4.292772591461854 -19.838990466920194 -9.83082154722706 -14.440926608842748 -11.84743815128892 14.827129418334838 -11.497529706772404
-7.230456315655479 9.875274600500514 17.13961771452468 18.66663002206569 -18.055163107767477 -2.9502589134998845 1.6472946842254734 2.727812950519068
9.718095456805731 -18.53838850422 2.203653967280182 -7.110520026223778 3.667067479601334 3.397895747408632 3.317129525311297 0.7875542115556655
6.179836978393407 2.7601905933822284 -6.073981639921387 5.244184269232402 -0.07460696732880401 6.682379280352043 -7.686224756937272 -3.0711725369045952
-1.453631238022945 12.353990096299775 -4.012134844300792 21.691039324646063 8.864693322869101 -1.4862242455125312 -18.098054802086708 -2.0129406851509017
7.593188866038178 -18.86332827595368 4.26500814648365 -11.299425726461081 -19.53485720225705 -8.032987356289095 7.488046574020652 5.995061721663519
-2.6432967343246223 -5.725165602928307 6.743077079065927 -0.8608748366424785 5.146969749855086 -2.262241429160789 -5.8817202460249405 2.1499653581486884
1.564800112206615 -8.65443233310017 21.35885861530197 0.24151228388097135 -10.330104277586766 4.945635842337282 10.464621006089423 5.504273771241258
2.4398676156065036 0.7990175999064686 6.301487349667173 -6.573262557715284 15.486479107209547 -16.138677558360456 -3.0304280356858184 22.249075258509222
-4.400304526122504 1.5818526442290626 -14.795319743170008 11.096749942085461 14.931439950422622 -15.917427320358646 24.508334632871374 -6.915883937735131
-8.596258246439458 9.50861012197292 -1.1826387228977215 -6.167341601916913 0.19769275640009676 -2.300534752282328 -10.021771703477938 -5.389360648175467
-19.452408874469327 -3.056141825845512 -2.2168901754562187 4.100769967947668 6.120361944679232 4.491330397173331 10.97125266444235 6.138023074556901
11.869703464556723 -1.1716007967667217 -12.476773665716175 -5.344959240046409 -2.7934614727488216 6.74426090672119 -17.63471591317807 11.077462377200252
3.3634190082864794 6.646462869139041 -18.293970787746648 -5.401078731084063 -7.733243707102773 25.610419606716782 -0.8136356333799375 -13.819065449347264
3.3546805129423922 -14.465754955343282 -3.5893825827292973 5.387829630366182 -6.534667667377651 -3.124538311144912 3.3855765981168577 16.063835528375055
-11.144141744834313 16.331576494898098 4.292538532201863 -3.73780870903139 4.5835247344945635 7.1417411873875185 -14.908228411447908 2.4946607888323924
-13.171021995726363 -1.4955540485286942 -7.3370950557699075 7.9280967753216425 -1.0162522283185895 -12.832691245416147 -12.839497763462427 3.6654025310775866
10.77972319839063 10.608636179883812 4.749573028083599 0.5823116836257949 -6.270882803033253 -6.894988053214499 6.359056458784036 -1.763441987228008
17.626968962269405 -15.671386900818538 6.7636798830053815 -16.082457879103586 10.015070588953655 -6.400353542733162 12.094306549305575 8.126408973112094
6.243455937974016 -5.232706224493348 1.1424290929979226 -6.605163714928862 7.502366703997165 -10.652974286657313 8.865198689699326 2.567669365071164
18.328032530665492 -5.643342348300874 7.7658498556501465 11.547523989561432 -3.550222755755554 -3.9263146273816636 -13.327505994101632 19.981314890301327
3.2941883289228215 5.534259948382912 -5.674732530459741 12.838532117237264 -4.777649111606168 11.01077436012349 -3.3224719848136735 6.227274420442676

arr_5 f8 [32]
00000000: 0a04 399e f724 fe3f a762 b181 6aba 14c0
00000010: 0eef f419 4712 29c0 78b0 4fe6 b995 df3f
00000020: 49dd d39b 5dfc 26c0 ba05 ee1d 2ba2 28c0
00000030: 56f5 cd60 6805 2640 adba 4c87 9917 10c0
00000040: c098 5c09 2b6b d1bf ba83 04cb 6000 3640
00000050: 487a dc3f c77b 0840 fda3 4ead 4872 17c0
00000060: ce25 79cb 13c3 0f40 ae80 ca03 5598 18c0
00000070: fed1 6af6 0758 3540 90b1 3e46 ed20 0c40
00000080: eb41 cb4a 1589 26c0 8ed8 a264 6558 2c40
00000090: 9717 c69b 17f9 2840 c1b9 eebe bd00 3040
000000a0: f94e 29d3 4a3e 2bc0 2f9a bc2e 8f02 3040
000000b0: 14d8 51f7 bb1e 03c0 93de 2655 7d95 2840
000000c0: 585e e13a ff66 1840 8edf 58a0 1e73 0fc0
000000d0: 831b 0ee7 1f18 13c0 2c12 2e33 e6c4 1040
000000e0: 875b e94f 9fc2 1fc0 1612 4188 3c7d 10c0
000000f0: 7897 8f5c 667a 1940 1884 75dd 0fe6 17c0
1.8840252094817083 -5.182046915485137 -12.535698710583826 0.49351356021248405 -11.492901677715638 -12.316735205941644 11.010561967030906 -4.023046602304629
-0.2721660224364193 22.001476944544017 3.0604386319312518 -5.861605365681496 3.970252599367746 -6.148761805758268 21.343871499137087 3.5160775649912424
-11.2677405713193 14.172648568037655 12.48650824349515 16.002895291597955 -13.621664618294277 16.009997292561987 -2.390006954369719 12.291971837038806
6.100583000188259 -3.931210758888432 -4.773559198604633 4.192284393011999 -7.940060852640165 -4.12230122468147 6.369531103386059 -5.974669895455939

arr_6 f8 [32, 1]
00000000: ed86 2949 d89f 1040 492e a8e4 c7d4 3040
00000010: bcca bac4 116d 29c0 376b 502f 427f 0cc0
00000020: 167b 91cf fb1b 2bc0 4aa8 8331 fa8e 37c0
00000030: c258 6979 95bb 0440 e237 565c d989 2b40
00000040: 6d42 3528 d054 24c0 8879 da03 d20d 0f40
00000050: 58ab aa01 d730 e2bf b476 c078 c430 1ec0
00000060: c5d3 8ebb 2f54 01c0 902f 4659 2f6e e33f
00000070: c1b2 5dfa cf1a 21c0 55a3 a888 d51d 0640
00000080: 9900 785a ca25 2a40 a5ea a0ca 419d 22c0
00000090: f1ed fa07 7eef 0040 bc77 5211 8e32 1e40
000000a0: dfd8 3975 9cb7 0cc0 3e03 9a6f a0a3 e03f
000000b0: 3091 aa91 996b 3040 4e0a 664f e56d 2140
000000c0: 1c9f 244d 1c89 2540 70c7 8443 985f 1fc0
000000d0: 9480 2bed 231c f33f 981b 5834 7d8d ef3f
000000e0: 5d81 a330 29b2 23c0 1892 86c1 b27e 2e40
000000f0: a472 5923 b078 f53f 189c 6fd5 148f f1bf
4.156098502311335 16.83117512804009 -12.713026187707662 -3.562137956277549 -13.554655539044273 -23.55850514854709 2.591593693282534 13.769236455464071
-10.165650612355615 3.881748228173084 -0.5684618980934415 -7.547624480006267 -2.166106667801133 0.6072003120075227 -8.552367996156478 2.7645674396957625
13.073809458874438 -9.307142574446809 2.116939604134807 7.549370070131712 -3.5896538885382223 0.5199739627570137 16.42031202711331 8.714640122610174
10.767794047089005 -7.843354277590933 1.1943701996279161 0.9860216162058917 -9.847970504721781 15.247457549740872 1.341964853366485 -1.0974319779722972

arr_7 f8 [1]
00000000: 747b 9987 fa5a 1dc0
-7.3388463199070095
