weights/global_round_5.npz (npz, 129966 bytes, 8 tensors)

arr_0 f8 [43, 128]
00000000: 3661 4ba8 551d 4040 e039 d11e a62c 20c0
00000010: 02c4 32c2 816e 2940 1655 e987 5c40 1c40
00000020: 523c 2c96 0dc3 2e40 290a 052f 3d93 2a40
00000030: 81d8 2baf cca4 1e40 945a 853b 94ee 03c0
00000040: fe8a 2ff1 cd4b 2640 b8a7 e2e7 ed8c ff3f
00000050: 4261 8ebb f966 1240 acad 0a24 79db 2b40
00000060: bc67 c859 f6f3 3140 049f 9fbb d367 24c0
00000070: a75d 607f b187 2340 f216 44be d14e 2ac0
00000080: 796b e991 cc5f 1940 0afb 35fa 2368 2240
00000090: 5048 1e44 6cfa 05c0 8f4d bba4 0cd4 3640
000000a0: d605 f05f b72e 19c0 fd66 7dbd bafb 2040
000000b0: bf96 b464 94b3 22c0 d37f 4450 0d6c 25c0
000000c0: 60fd f29a 404e 1ec0 104f c2b6 2615 35c0
000000d0: fec4 4259 72c3 12c0 b1e8 8978 a1d5 3c40
000000e0: ea61 4d06 f7c8 2ec0 3266 c3e6 773d f03f
000000f0: 5aa0 dcfb e801 2fc0 44eb 5802 d902 d9bf
00000100: 968b b707 3686 0dc0 ccee 7ea2 715b 1c40
00000110: e47e e46b 903b 31c0 6686 1b18 baa6 1940
00000120: 7af1 97e7 5fef 1240 265b 5985 6d5e 1140
00000130: 9acd 238b 6b03 09c0 7e15 249d 129d 35c0
00000140: de3d d515 5113 1a40 b444 f2be d85d 24c0
00000150: cfec 07d2 ee12 1740 e02b b8ae a5cd 1340
00000160: 5be1 b21f e5b5 2640 0656 2116 5dac 38c0
00000170: 2f55 81c3 1b84 0cc0 c856 a1d5 e3fe f03f
00000180: 0e1e a574 abd1 1840 2088 da03 68ae fabf
00000190: aca0 3f05 8073 32c0 cda7 d4f2 12af 0440
000001a0: 75d5 8682 53a0 30c0 189b cf94 1a7c eabf
000001b0: 648c 4145 88c5 1e40 1e1e 11d5 1f69 1dc0
000001c0: e7c1 a053 5fa2 27c0 6047 852a c9f8 fe3f
000001d0: 42bd 3e0c fa97 ebbf c475 2b04 87d1 e53f
000001e0: 027b cc35 a61e 31c0 e0d3 3760 5da1 ecbf
000001f0: b0b3 18eb 5065 1c40 b47e 2bfd e192 12c0
00000200: 98b7 f405 d8b6 1340 73cd 5351 3e6d 3040
00000210: 73bc 9c32 0628 0e40 2c43 0b95 d553 29c0
00000220: aa3a 2551 8a10 2e40 907f 2938 3420 ffbf
00000230: d3bc 711b a488 1a40 2765 ae67 03e5 ff3f
00000240: d879 d027 6a48 e73f 489a 4aef 5984 ddbf
00000250: 679b 9cda ca58 1940 1aec 0ace 02d2 3bc0
00000260: e861 a242 faba febf 3cb9 cff0 e8aa 3c40
00000270: c41e d574 4219 e13f e79f b6a1 af51 2ac0
00000280: 9392 ae68 5afa 28c0 0a8a 8798 78ca fa3f
00000290: 74bf df95 65f4 03c0 fc86 a151 923e 28c0
000002a0: a03d a262 d151 25c0 99f5 0a23 9aad 21c0
000002b0: 7c78 646e 5e72 09c0 40ac 28c8 5e48 bdbf
000002c0: 1e20 0467 0f0a 0e40 a4ec 8e75 e197 0440
000002d0: 6218 94ea 2be7 3640 246f ef01 e673 ed3f
000002e0: 00ce b892 f6f9 eebf 5c90 ba3e ce5a 2940
000002f0: 08d2 6f67 dd79 0ac0 9d13 7cdc 2a3d 3340
00000300: a8b2 c2c4 a0c8 0dc0 7f06 9644 bbfd 3540
00000310: edbd cdc8 eb8b 2d40 72fb 387e 0ce9 2940
00000320: ede4 57cb d311 0dc0 9561 e61d ae3e 1f40
00000330: 12bd 5c67 bffe f2bf a62a f3de 7821 1c40
00000340: 9344 73dc 73af 18c0 a680 ea54 72df 15c0
00000350: e90f a4f2 3fd8 21c0 ae64 d0e8 c295 1040
00000360: a681 f06a d470 0d40 b022 a644 37f5 fe3f
00000370: 0a10 7039 d312 2b40 230f e7df 2195 21c0
00000380: 74f0 c4dd 13f8 fe3f e31d f0ec ab29 1940
00000390: 28f8 846b b821 26c0 9e19 658d c686 19c0
000003a0: 50c1 caa0 4ee9 2ec0 084c 2cad 4dc4 14c0
000003b0: 9def cdf7 141a 11c0 90b6 f954 13be 1c40
000003c0: e0a4 88a3 1f06 2740 be6c 01f5 2d74 f3bf
000003d0: 0a10 2d75 1f13 2040 a860 bb98 ea5e 2940
000003e0: d3c4 9702 5e8d 1c40 5b51 10d2 1822 3340
000003f0: dea5 113e d9f7 34c0 fa3e 957f 620c 1fc0
00000400: b618 7d64 9566 15c0 fb72 1865 1f9c 1440
00000410: 94d0 6a72 7c44 1140 dd8f 894b 32d5 1d40
00000420: 5ff8 4732 07b1 28c0 8ae1 52d2 fa2d 2440
00000430: ee47 6ac0 4025 2ac0 b543 bbad 16ac 3540
00000440: 049e c29c facc e4bf 63d4 e4c5 748f 0fc0
00000450: dae3 0a62 b8fd 12c0 3da2 17c8 86d0 1dc0
00000460: 8850 7fee 0788 13c0 bf96 d526 270b 2440
00000470: 1a58 b413 4fac 1cc0 3c35 cb88 86e2 1ec0
00000480: c698 2cd7 f998 31c0 00db 3ecb 7d72 1e40
00000490: 757a 02f7 a774 2140 2333 8401 1eca 18c0
000004a0: d3b7 ee53 e99f 3640 d3c1 2dfa 6a6d 0640
000004b0: f8ce d3f9 aaf5 f0bf af6f c2a7 b796 2f40
000004c0: 46d3 e92c 5666 0b40 46e8 48a8 3010 3040
000004d0: 8966 9f51 f62d 10c0 5249 890c d7e1 ea3f
000004e0: a12e 5c99 1638 3440 d66d ed5a d434 f73f
000004f0: eca9 c254 7026 11c0 534a 2d6b 51db 19c0
00000500: 0741 39a7 19f0 30c0 8a7e 21ce 6b3d 2cc0
00000510: c867 bcad d22d 1fc0 0ab1 1eb7 16d2 3bc0
00000520: 771e 0428 9219 1440 9a65 33f5 bfd1 0b40
00000530: cbdb 6d42 cdb6 20c0 3ece 2275 e1e1 2440
00000540: 9a8e 58ec 2676 3340 a6a0 7c86 28ed f3bf
00000550: 0e0c 5d8e b4cb 0840 81ff aa86 a13d 2840
00000560: d27e e025 50df 2240 c4b8 45db c53c 00c0
00000570: c51a be36 cb0f 1740 2274 7cc4 9e37 02c0
00000580: e0ba 5dfe 1d53 2c40 3ff3 736b 103b 0ec0
00000590: 965e 8dab 395f 2340 60d2 8b71 3f31 07c0
000005a0: 8c32 3a4a fd8f 19c0 2d17 f6dc 1ea6 0040
000005b0: 9636 ef80 0f0b 1e40 beb7 9a10 ad6a 2940
000005c0: 6654 ecc3 d70d 31c0 386d 5e8b aba9 14c0
000005d0: b53a f086 daf7 1640 bec9 08e2 3956 11c0
000005e0: e899 147e e3dc 37c0 0169 b667 2a3d 25c0
000005f0: 3d92 41ba 786d f43f 289b ea69 1662 3140
00000600: 4b8d 192e b658 1940 1e74 75c1 593e 38c0
00000610: e2ee 1355 82b8 2ac0 2e7b 49f6 a43b 09c0
00000620: 0056 4c0a c5d4 c4bf 82de fb69 fd30 2b40
00000630: 58b7 8e63 7e79 12c0 fcce 6490 e0df 3440
00000640: 467a 2115 52e2 3bc0 5856 f274 62f9 0a40
00000650: d613 96cd 052d 33c0 44da d42b 888d 29c0
00000660: 78b2 b9ad 7cf5 0c40 ceb1 2286 fc5b 23c0
00000670: bdc8 f3af 1ad6 2240 4893 018c 5f6c 28c0
00000680: d0ff be8e 276b 38c0 13e3 9e2c 0777 21c0
00000690: 7af0 a10e c8f3 3540 67a2 9799 521f 37c0
000006a0: 201e dddf c8da e63f 2fc3 c535 c5e8 1140
000006b0: 3ed3 b78b bb05 2c40 30bb 6efe 2ff7 2840
000006c0: c2a8 5d97 56bb 09c0 d4ce bcd1 5547 24c0
000006d0: 96c9 2f9e 6025 36c0 4962 a64b 2c29 1940
000006e0: 96d3 5d7d 64a7 23c0 e8e6 8d34 417e 2c40
000006f0: b262 be56 0052 1540 f821 8d19 824e f8bf
00000700: b1ca 0c3b 9326 2240 d21e fb17 dbf5 03c0
00000710: 40e9 0406 6697 24c0 9c28 bfec 152e f2bf
00000720: b910 0c23 7eb5 3140 3e7b a18a 8f81 1940
00000730: 00d8 4d51 fb1b e03f d83e ac33 ee89 1bc0
00000740: f622 40d5 0b6c 3340 2e3e cfd8 7178 2cc0
00000750: 9652 a277 1c7e 21c0 20c0 c11e 68fb 0bc0
00000760: 3f64 12bb 081c 2940 a1a4 d3a3 540f 0ac0
00000770: e4cd 698d 5fbc 2040 7b48 4b1d 5c87 1ec0
00000780: a633 ca16 8678 2040 dd90 1b92 e924 29c0
00000790: 875d f145 0d26 12c0 7658 f0a3 4bb0 2a40
000007a0: 00bb fa91 5bcc 1cc0 2391 6a93 b044 3240
000007b0: e461 91b3 1810 1340 6b31 205f e27a 3440
000007c0: 9ca3 8402 75a2 e13f 1579 7ec8 506d 13c0
000007d0: 3a1f 7961 69d3 29c0 0d43 c0a7 9f51 2840
000007e0: 1241 3b68 252c 2f40 89ad bc61 aa67 2d40
000007f0: 2995 b9f8 9f14 3640 88c2 d69d ab25 e03f
32.22917655640269 -8.08720489791898 12.715833729454975 7.06285297738693 15.380963032626969 13.287576169362255 7.660937058497553 -2.4914936685630185
11.148055588773328 1.9719065721533138 4.600562029423886 13.928658605865017 17.952977763583235 -10.202787268862728 9.765026073945434 -13.153943963824961
6.343553809997382 9.203399485673362 -2.7472768136731602 22.828317924240363 -6.295621394181088 8.491659089620493 -9.350741526646173 -10.711039074289067
-7.576418324547689 -21.082621977270776 -4.690865893078124 28.834495099705865 -15.392509648271659 1.0150069250288536 -15.50373065059846 -0.39079880933029565
-3.690532741822106 7.08930066966759 -17.232672446522784 6.41281926792144 4.733764284752732 4.3422146640575985 -3.126669966726422 -21.613565274533805
6.518864003315199 -10.183294264863754 5.768489152654367 4.9508273410710615 11.355263701044057 -24.673295386446647 -3.5645060800403807 1.062228998654449
6.204755613878218 -1.6675796652348325 -18.451172187837685 2.585485360254984 -16.626274259489453 -0.8276493936981266 7.6929026433236665 -7.352660493058947
-11.817133534787855 1.9357387219392521 -0.862301849285281 0.6818270760956513 -17.119723665639874 -0.8946978453883467 7.098941491491971 -4.643440204410286
4.928558438359595 16.4267321424099 3.7695430711824485 -12.663738877892307 15.03230527476747 -1.9453623002845895 6.633438519303314 1.993411450390633
0.7275896813987925 -0.4612030827360383 6.336711326416526 -27.82035529867799 -1.9206488230612369 28.66761689254166 0.5343334466824321 -13.159543088477177
-12.488971015272261 1.6744314153844493 -2.494334383860343 -12.122210074393927 -10.659800607971931 -8.839066596114934 -3.1808441757594306 -0.11438553225222936
3.7549121902593603 2.5741604980699595 22.903013859897676 0.9203977620886445 -0.9680130830442408 12.677354774736322 -3.309504325962056 19.238935261051314
-3.722962891761501 21.991138731601037 14.77328326713083 12.955173439460598 -3.6337047468374437 7.811211077867843 -1.187194255598858 7.032687648383819
-6.1713404126504825 -5.4682095783356655 -8.922362883116834 4.146251332969014 3.680092654671358 1.9348671609497323 13.53676776402428 -8.791274067836246
1.9355658209670112 6.290694906383098 -11.065860137921916 -6.3816167920071205 -15.455678009748823 -5.191702562168764 -4.27547061151918 7.185620620480805
11.511960134916478 -1.2158641405610946 8.037349378348171 12.685383580086935 7.138053932679401 19.133191231712185 -20.968158606823515 -7.762094491466764
-5.350179262290274 5.152463512055642 4.316880977410751 7.458199672957531 -12.345758029256272 10.089804241769134 -13.072759640668632 21.67222104856383
-0.6500218450282209 -3.9450469456156028 -4.747773677744556 -7.453639151041497 -4.882842756767907 10.021783078739984 -7.168270404703458 -7.721216332819775
-17.597562263858684 7.611807990752595 8.727843970348866 -6.197380088514168 22.62465405061796 2.803426699181935 -1.0599775084382923 15.794369928822418
3.4249690541131796 16.06324245243038 -4.044884944299732 0.8400683636521455 20.219094834332854 1.4503978301862523 -4.287537884122212 -6.4641777750390075
-16.93789143703273 -14.119963113392505 -7.794748987793305 -27.820659108155304 5.0249716045869866 3.4774169117269595 -8.357034755621404 10.44117322969316
19.461531421299334 -1.2453999761001255 3.0994654771943777 12.120372970937526 9.436158355383132 -2.0296742563869845 5.765423636773169 -2.277158293769859
14.162338208142899 -3.7788399119148433 9.685986863142983 -2.899046790198824 -6.390614661981669 2.0811135542488928 7.5108013292316596 12.70835163010258
-17.05407356757896 -5.165693452490181 5.742044552242693 -4.334205180918103 -23.86284626009902 -10.619464150444857 1.2767264629011514 17.38315450647056
6.3366324618430765 -24.243557063269797 -13.360369356806988 -3.1541232339071916 -0.16274321558800864 13.595683395381688 -4.618646197877602 20.874520325290163
-27.884064980195284 3.371769822736308 -19.17586979784013 -12.776429528935417 3.61986671183541 -9.679660979972052 9.418172358044439 -12.211666464988994
-24.418572351103478 -8.732476610560786 21.952271379981973 -23.122354125518907 0.7142071125353517 4.47731479663416 14.011196485700221 12.482788039223664
-3.216473753495934 -10.13932662420067 -22.146005522410256 6.290208036451596 -9.826938550666267 14.24659122688486 5.330079417581759 -1.5191670415971412
9.075342030822272 -2.495046794272505 -10.295700252627853 -1.1362513778608792 17.70895594639362 6.376524129968685 0.5034157360048539 -6.884697730434446
19.422055557401983 -14.235243583009915 -8.746310938420077 -3.4977571871641118 12.554754110331599 -3.257485656639418 8.367916506925162 -7.632187326164167
8.235398018057662 -12.57209450327394 -4.537160008293887 13.344327090348298 -7.199568062713979 18.26831933356983 4.765719228504597 20.480016656264905
0.5510811852628765 -4.856753475875185 -12.912913366351507 12.15942119810054 15.586222893937279 14.70247178486058 22.08056597262217 0.504598434714425

arr_1 f8 [128]
00000000: aedb 5bb7 724b 0e40 e2a3 eec3 7e43 39c0
00000010: a6d1 1bd9 cb38 23c0 0941 b724 79a2 2440
00000020: 34cc 8051 4314 12c0 8bbc 5ac3 ca49 1440
00000030: f42c 2c67 9424 2cc0 9a88 3ce6 a83f f73f
00000040: ccef c24b e95e 3140 94b6 c76c 27b2 0fc0
00000050: e09a be1c 5e4f 1d40 b6a6 022c f701 3040
00000060: 826d e389 0410 2ac0 c833 972f de1a 25c0
00000070: 8825 d00b c731 04c0 5a0f 2213 56a3 2bc0
00000080: a77c 030d 9b0a 2840 7cb4 4c49 7909 2040
00000090: 0e46 5261 4364 1d40 3cc3 d375 c7f1 2140
000000a0: 9470 732f 95e3 1ac0 f6ad b42f 4765 2840
000000b0: 824e 2d6b c74f 35c0 da06 8494 f68a 34c0
000000c0: c7fe 4fb3 a2fe 2040 0b63 e9e0 8c33 24c0
000000d0: 37b0 7b40 c558 2940 d944 1fab ec09 2140
000000e0: b000 4bc0 ff4b 3640 8056 de42 0873 0440
000000f0: 7561 c481 7d68 1740 1cd7 265c 25e3 19c0
00000100: 4c60 9b1e a2f9 2740 a80f daef f80a 0a40
00000110: 9a8d b7f2 7c6c 35c0 ca78 4068 fe42 14c0
00000120: f455 105f 7178 1ac0 7a3f ba80 199d 2040
00000130: fb4a a81d 0ee7 1340 67bb b857 eab6 2140
00000140: eb05 b244 6720 1b40 ab36 9eb9 2fd5 1fc0
00000150: bc3e a37e 4be1 2cc0 387d 70cb 5692 3540
00000160: 0cb3 ab7f 6467 1e40 9efa 6429 0f4d 2a40
00000170: 2a71 5adf 7e07 34c0 0605 3079 225b 1ec0
00000180: 09de dc79 78ee 17c0 fece 65d6 751f 1d40
00000190: d620 d1df 59f1 20c0 9b85 696e befd 01c0
000001a0: 009b ed6b 0188 1f40 6063 0de5 920f 1540
000001b0: e4bc 5ab2 5cd4 23c0 2cce 9e93 e2c4 29c0
000001c0: 4299 717a 4662 3dc0 8468 5f57 6a05 36c0
000001d0: 8e76 111f 88fa 0cc0 8dc7 bb68 cdf5 22c0
000001e0: 5e50 aca3 dcd5 17c0 0fb0 0775 ebee 1140
000001f0: 6334 9316 aa1b 2240 a0d2 b390 096b 08c0
00000200: d208 ddc5 6c0b 24c0 04f9 8722 ae2a 3440
00000210: b09d 4627 d532 0b40 58ee 47ca c442 0440
00000220: c297 93c3 0b0e 0ec0 cbcf 302a 4161 2ec0
00000230: 4936 40ab a7a6 0a40 34e2 644f 2c1c 2940
00000240: e8e0 6e33 9d6f 2cc0 0d64 1d6d c6f9 1dc0
00000250: ccca 905b bd14 25c0 3ab5 21d8 fc3e 2e40
00000260: 34ea 0d13 d2de 23c0 e400 2c43 4aa8 fa3f
00000270: bacc c2a7 ea03 25c0 be12 74d4 21bc 1840
00000280: ec16 33f0 0565 1c40 6e12 fba3 2767 2f40
00000290: 9ad6 ab8a f241 2940 5dc5 b528 7a4c f7bf
000002a0: 046a d04e b76d 2340 3e4d e113 a614 1cc0
000002b0: 6176 7339 48d7 2240 9087 cea7 4259 3040
000002c0: 53e7 5c9c 7b45 2ec0 6699 fa6a d8f6 fbbf
000002d0: 844d 8073 191d 1bc0 a636 1de9 32e1 de3f
000002e0: 2815 7568 0538 f1bf 0088 d684 5547 f1bf
000002f0: 85d3 6367 054d 20c0 105c 002f 3006 31c0
00000300: ac38 a724 93ce 14c0 b65b 1d0c 89fa 2240
00000310: 68f5 90fb b920 20c0 d6d2 1812 39d1 07c0
00000320: 2b95 b1ac 0876 27c0 7e43 9ca9 b677 2d40
00000330: d495 f0df e297 19c0 94b5 337f e00d 2f40
00000340: ea3e 39b5 fdf6 31c0 80d3 1284 1bbe 0cc0
00000350: 63f3 0d76 86fd 32c0 f267 39d3 e330 1fc0
00000360: 73b3 6b9a f62f 2d40 d0b9 6f21 7d29 e43f
00000370: e070 32bb 0360 1040 5434 4a18 572b e83f
00000380: 8ab2 a5a4 1d9f 16c0 312f b6e8 0976 1940
00000390: 6c22 ba5f ac5c 1740 3628 fe95 1c34 1e40
000003a0: 9084 ff73 7832 1ac0 58c7 cd1a d830 0e40
000003b0: 7125 0003 1647 3140 bac9 9a16 436f 0bc0
000003c0: 249a df4a 919c 3140 54ef 6e94 1b9b 1440
000003d0: a24b 1b42 35ec 2540 9c2b 9752 94bc 2b40
000003e0: a1f0 5f81 7bbf 0640 9eed 7f10 3fcd 13c0
000003f0: 3584 9593 cbdd 24c0 4a17 52c8 4ab9 2e40
3.786839897623813 -25.26365303589035 -9.610930237432353 10.317330500955466 -4.519788049207865 5.072062542355648 -14.071444725172547 1.4530419343578047
17.37074731358716 -3.961989259571803 7.327507447370152 16.00767779412009 -13.031284626972369 -10.55247639389735 -2.52430543164218 -13.819016073138915
12.020714193988466 8.018503466237455 7.3479132849183895 8.972224886035853 -6.7222487844666325 12.197808733754737 -21.31163663726921 -20.542825014336678
8.49733505584244 -10.1006841931244 12.673379912470507 8.519383761946687 22.296871202765658 2.556168100748266 5.852041270838858 -6.471822204466459
11.9875649990719 3.255357621996115 -21.42378155690458 -5.0654236115789875 -6.617619977352195 8.306835196242663 4.975639785191329 8.857256642628
6.78164393745963 -7.958189869195546 -14.44002910368669 21.571636881793182 7.600969309668255 13.150506299568686 -20.02927967031534 -7.588998693042646
-5.98288145456855 7.280722951854612 -8.471388811376908 -2.2488983751251914 7.882817922951972 5.2652087964459895 -9.914769719673536 -12.88454114259283
-29.383887913450287 -22.021153889458688 -3.6223299433903042 -9.480082772180845 -5.958849484817703 4.483320072740766 9.05403204485828 -3.052264338004832
-10.022314246398683 20.166719587513413 3.3998206203866275 2.5326019099427803 -3.7568583754936933 -15.1899502930245 3.3313744906397784 12.555025559487241
-14.217996222767809 -7.493920998495935 -10.540507184433771 15.123022798647629 -9.93519649071559 1.666086447134199 -10.507649652985823 6.183722800812289
7.098655465238817 15.701474308393895 12.628803571201662 -1.456171187423329 9.714289153042962 -7.020164785982443 9.42047290358022 16.34867333214021
-15.13570870050504 -1.7477649859298139 -6.7784174010333835 0.48249504818964295 -1.0761770325055497 -1.0799155415520545 -8.150431853233167 -17.024172723377035
-5.201733181673415 9.4893268380964 -8.063918935246605 -2.9771596349549823 -11.730534931829046 14.733815479588653 -6.398326396044883 15.527103400289697
-17.964808775402084 -3.5928259199376384 -18.990332964330616 -7.79774408376578 14.593678308150379 0.6300645497374777 4.093764233544988 0.7552905535136554
-5.655386517155998 6.365272174949312 5.8405013043744525 7.550890296590344 -6.549287617178507 3.773849687008731 17.277679622207362 -3.429327179526095
17.6115919872192 5.151472396155288 10.961343828041041 13.868319111779606 2.843497286548953 -4.950435884292714 -10.433193790437238 15.361898670216437

arr_2 f8 [128, 64]
00000000: fe60 3598 e47c fdbf d2e6 f7b2 5ee0 11c0
00000010: 2a24 cdd6 3d4e f83f c1c8 2c38 e5c6 0840
00000020: 3073 d875 90c9 b0bf 059c 88d5 d393 2440
00000030: 78ad 1edb 4f18 fe3f 8328 ad1a b8ed 1440
00000040: b1a6 fcd9 222d 12c0 ea9d 75aa a93e 27c0
00000050: 2204 bfbe 07f8 f53f e29f 4c41 f5d6 2140
00000060: e576 f1d1 e8bb 0540 42bd aadd f3ac 3240
00000070: a8c3 c1dd 7d9b 1d40 89e4 31c1 7051 1ac0
00000080: ce53 6d66 fa16 1340 dc17 b047 c381 2ec0
00000090: 90f4 3cad 60e2 16c0 5e9f 599c ec88 12c0
000000a0: 0d08 2b6e 96cf f8bf 1740 8534 c199 1cc0
000000b0: 0d86 3f25 af50 2240 3abb d5b6 e503 38c0
000000c0: 3269 99d7 f07c 1140 3eee 46ff fb50 3c40
000000d0: c02e 668c aa77 edbf b0ba a716 636e 0f40
000000e0: 8630 0dde 8012 22c0 cca1 3b39 4f1a febf
000000f0: e158 3e4f bfb2 27c0 902e 38bd 1de8 2a40
00000100: 9903 16d5 e35f 1d40 d48d 0586 c549 1840
00000110: 2ba2 89d1 c325 31c0 b098 9233 a252 c0bf
00000120: 5a1e fe98 494b 37c0 648f d645 4635 18c0
00000130: 5cfe 548c 60b2 f73f 720b d712 e467 fabf
00000140: c4bd 35fc 5bae 2940 e885 1c70 78e4 c63f
00000150: 26b7 5d09 2409 3040 7343 f42b ebc3 1740
00000160: 3eac 4120 388a 2740 50b7 5937 b710 13c0
00000170: 14b1 fe98 bb6d 0340 3b1c d316 ea35 0b40
00000180: 12f7 fe69 232b fc3f 37fd 3463 0a22 0cc0
00000190: 84b8 f4da 6f37 20c0 32d6 f063 b639 2fc0
000001a0: bdce 5464 03eb 27c0 9f46 eb25 98d2 2140
000001b0: 907b 601b 1134 1c40 97bc 4b39 411d 3140
000001c0: b0a3 d4f6 c5c1 e23f c4ac c1d3 911f 18c0
000001d0: e2c6 3b23 09c8 14c0 905a 68d2 3e0f f6bf
000001e0: 407e e87b e1f3 2a40 fe0e 5265 ee6a 1540
000001f0: 4bb4 6970 b1e1 24c0 9426 0f97 98b2 0640
00000200: 0ecd 7a2f 9097 f6bf 922b 0d6f ba61 2bc0
00000210: f4ee ae66 1fb3 2cc0 06a3 3db4 2a06 2240
00000220: 48b8 bef1 2c47 2540 3453 6701 a652 1e40
00000230: 7aa4 5a05 8bf0 2ac0 1c60 a217 d9e6 fcbf
00000240: f564 0c63 6ed1 2540 8e36 800e 184a 28c0
00000250: dccd c340 8822 23c0 802c 7983 796e 30c0
00000260: 403e 1d10 c581 b3bf d056 8f54 700a 38c0
00000270: 358c 4bdc 2d9b 1040 d02e 1bcc 16a7 d33f
00000280: ee4a 582c c907 1640 93ff 4ee5 24f8 22c0
00000290: 5000 8748 9d6e 2a40 8a24 a4c7 823a 1640
000002a0: 7da8 209d 7287 15c0 23c5 e607 f134 2840
000002b0: 516c 3d59 ee7b 2240 1ff6 7d8b 7f94 2dc0
000002c0: fae5 63eb f451 3240 0fe1 64dc bd12 1240
000002d0: 6ed3 94d4 a9e0 14c0 109d 38cc 2442 1fc0
000002e0: f81c 02cb 7d88 2a40 18ce 7854 0a64 dd3f
000002f0: bfcd a481 06a3 08c0 7604 edb4 9ff4 38c0
00000300: e8df 42ea 88f9 2540 e81e 5fde dc2e cc3f
00000310: 6c77 6f63 f232 2dc0 b04e bfe5 916d 0540
00000320: 9563 1339 d8b1 27c0 807b 15ae 8bdc bc3f
00000330: 9aee 3bbc 4514 1240 830a aaa5 4aa3 2b40
00000340: 08c0 e90d d6a1 2140 bacb 1fbc 91b3 1240
00000350: 57e9 4385 3fca 1f40 8068 8e68 113c df3f
00000360: 19b4 baa2 c594 2e40 dee0 bb5e 1608 1bc0
00000370: dec1 6d81 ee8a 27c0 6e83 b9ad e227 24c0
00000380: 7275 451b 8162 21c0 56b8 c196 d72f 1940
00000390: f126 d4dc ea88 3140 2aaf c735 2925 1e40
000003a0: 6fce 92a8 df11 0fc0 0ae7 7ea8 df7e 1bc0
000003b0: 2841 5ace 620a 20c0 4e56 416e 432d 1540
000003c0: 76b0 addf 67f0 1840 e234 8777 482a 16c0
000003d0: 48d0 5d32 e457 11c0 608b f5fd 4c00 0c40
000003e0: 0ff6 4214 42d3 12c0 f6f8 3c05 5851 2e40
000003f0: 52a3 9a49 57f3 f1bf 38ed 001f 72d5 1440
00000400: f9f7 ada3 7e11 28c0 f934 bfa6 6006 0440
00000410: 8812 3350 1676 2240 a6d4 d21a 92f6 2840
00000420: 2189 5ed7 6b9d 1040 f42c ac4c ef95 24c0
00000430: b80c 0e3d 4cce f13f 5c94 e5c1 03b9 f43f
00000440: e4f3 91a7 413f 16c0 d972 23d9 ad33 3440
00000450: b437 73fc b6c2 0d40 73f6 a15a 1c52 1bc0
00000460: 2037 2d54 ead4 d73f d0e0 d007 43e0 d13f
00000470: 0483 81f7 5a2a 0b40 04d1 88ea fd31 3440
00000480: 623d 6dfc b8c8 0bc0 74a0 2483 6553 f83f
00000490: 435b acf4 ced4 1240 8357 66a9 df50 0440
000004a0: adb0 6785 d398 21c0 fce4 5cbf 4843 fe3f
000004b0: a994 8853 29ad 12c0 8af2 eb76 557a 24c0
000004c0: 8288 f73f 0b52 30c0 9983 08cd 36ad 2f40
000004d0: bb6f 3d9c 7642 1640 f4ec 1108 e8b6 2440
000004e0: 60eb 7182 9150 d73f 82eb 7a5d 6e1b 3340
000004f0: fa6a cd0b 7faa 17c0 6c7c 06da 2f3f 27c0
00000500: e597 5cdf f2c0 3dc0 4811 d87f 287e 2f40
00000510: 762e 6df6 1589 1f40 d22c d548 2174 2bc0
00000520: 9415 9c64 6fab 1d40 0ec4 8b22 6c94 2340
00000530: 30b3 ccd8 4baf 26c0 f4d0 435d 0a35 e9bf
00000540: 2f98 1e56 7327 31c0 8ea1 65c6 cda2 dabf
00000550: 9a14 0612 447c 3940 e770 75ce a0fa 38c0
00000560: d4c1 2d50 e47e 1340 55c5 0587 5704 25c0
00000570: ccf6 2fb4 72ad 15c0 84d1 0c71 f070 0ec0
00000580: 7550 d560 dde4 1d40 bdb5 84e6 13e6 28c0
00000590: 7c26 ceac e40b 0d40 08d3 9f61 e581 2140
000005a0: 14a7 1f33 b6c4 f3bf 28c4 bbe6 dcd9 17c0
000005b0: d8cf f76d 9fc9 3340 0443 e0e8 f52e ee3f
000005c0: 60e0 c750 f33e 0940 0061 7237 da96 0340
000005d0: 10f1 932b b758 3cc0 71b6 f6d4 a4ea fdbf
000005e0: e1d3 cbb9 8478 32c0 9e01 7441 5c41 25c0
000005f0: 05a7 5bf3 3185 2b40 2e05 bc7c 4442 2f40
00000600: 3807 963b 49ad 15c0 8856 842b b9f4 2440
00000610: 7600 5b93 ad62 0140 3051 d0a7 3564 2940
00000620: ba67 9985 a9d4 08c0 fb0a de7b 70dc 1540
00000630: 6646 efcc 94dc 2740 5051 e0ec 13d2 18c0
00000640: e799 1b99 4ace 1340 4e96 c068 7727 2b40
00000650: 605e 3c16 8c12 2c40 904b f9b5 3ebf 1e40
00000660: 9ce9 2bdb 20e5 0340 ec6c c362 d035 2640
00000670: 0070 bb18 c373 a3bf c835 bd48 fa8e fd3f
00000680: 64d7 429f 0caf 0740 6ea5 df3a 69ed 3340
00000690: 8a67 8315 8d19 2640 ec57 856a dfa4 2540
000006a0: 8f17 0c34 0be0 1040 14b9 27ab 3cb9 2dc0
000006b0: 153d 4899 ae96 34c0 430e ec0f 4a98 2cc0
000006c0: 8ab4 6b42 572b f03f 12b4 e0cc 6333 1ec0
000006d0: e3ac 90fd 41e6 3040 b806 fc24 ff64 1040
000006e0: 2617 1ed3 2c1d 34c0 a031 8155 5fc4 2440
000006f0: 6df6 ca1c 8e2e 22c0 66d4 1d98 0a27 f6bf
00000700: 6c6a c2a6 8b52 2840 3269 98ec a1fc 04c0
00000710: f259 e783 c7f3 34c0 5c7d 272a bb51 2640
00000720: a5e1 db0a bb7a 38c0 22b6 8ce9 fb8e e43f
00000730: 0a5a 64e1 32ff 1740 7e4c ba3f 0ce9 3ec0
00000740: 85a2 f5c1 e6ee 24c0 c541 935c cec4 24c0
00000750: 1fad fb37 978b 2ac0 3390 b5d8 c41c 2340
00000760: 0a9d 6238 5b7c 1bc0 91e7 d24b 75f8 26c0
00000770: 206b f297 3dfd d7bf 30d8 fa63 7b75 1340
00000780: 6e33 5cc6 c8be 26c0 06d4 aa5a 719d 2840
00000790: f927 12d7 681b 2dc0 cbfb 9585 c63b 33c0
000007a0: ca9e 382e 1087 04c0 0428 2ca3 e425 2840
000007b0: ffc4 668b 14c7 01c0 384a b750 aa5a 38c0
000007c0: e275 30bf fcff 2540 0c00 110d f168 fd3f
000007d0: 19b6 ae7a 9274 fb3f c263 b839 550c 2b40
000007e0: 4e02 5ba3 7713 2240 80e2 7e63 a09b ef3f
000007f0: 0496 8beb 7e53 19c0 3996 bba6 801b 1f40
-1.8429914422650309 -4.469111248379436 1.519101943080623 3.097116888872819 -0.06557562710845555 10.288725541044196 1.8809355315559895 5.232147614306203
-4.544078260465242 -11.62238819776299 1.3730542613050223 8.919839897731382 2.716752662831697 18.67559609812202 7.401847329093393 -6.579531687421999
4.772439575598538 -15.25344299339843 -5.721071917386453 -4.6337150983525515 -1.5506805709305838 -7.150151081688839 9.157586254124022 -24.01522391050387
4.372012490023097 28.31634517175393 -0.9208576910181918 3.928899933808985 -9.036139430151035 -1.8814232097303032 -11.849115825997105 13.45335189162077
7.343642549008018 6.072042554940214 -17.147519203283235 -0.12752177732654024 -23.294091760674156 -6.052025881977759 1.4810491067618363 -1.6503639923036784
12.840545541343893 0.17884736513319344 16.035706124667875 5.941326796325359 11.769959457413389 -4.766323914385637 2.428580470345091 3.401325395886969
1.7605318203417863 -3.5166213751359936 -8.108275263188496 -15.612719653271686 -11.959010253288733 8.911317048044394 7.050846507800898 17.114276486387634
0.586153966990528 -6.030829724021888 -5.195347357295505 -1.378722021012127 13.476329681520951 5.354425032742936 -10.440806877997735 2.837205104970801
-1.4120027403521962 -13.69087550197381 -14.349848946432282 9.012044556163811 10.639014772921783 7.580711385661562 -13.46981064540363 -1.8063593791212105
10.909045310271248 -12.144714787627233 -9.567445777799485 -16.43154164989801 -0.07619887965597005 -24.0407765245389 4.15154213152987 0.30707330639118613
5.507603352440794 -9.484656492131569 13.216043726424829 5.557139510529973 -5.382273154371544 12.10340141956346 9.242052830455721 -14.790035590292119
18.32014342488217 4.518302386910604 -5.219397851546871 -7.814593497233787 13.266584724433855 0.4592309784813735 -3.0796022537631127 -24.955561931481917
10.98737270418492 0.22018013818728055 -14.599505526882886 2.678500933552492 -11.847352775208302 0.11274025917144392 4.519797269018136 13.818928887373891
8.816086230071974 4.67536062187258 7.947507936735142 0.4880412598664705 15.290570340434032 -6.757897834984957 -11.771350903175456 -10.077901295562437
-8.6923912546433 6.29672084386228 17.53483371905799 7.536290016472586 -3.8837273759652855 -6.873900063272012 -8.020285080449483 5.29420254014765
6.2347712468873535 -5.5412920643113655 -4.335831438995292 3.5001468506392683 -4.706306759440408 15.158874667828496 -1.1219094157369978 5.208443149978216
-12.034169306742102 2.503114035329983 9.230638986811087 12.481583441005863 4.153731694359778 -10.292841335313348 1.1128656754452049 1.2951695989697987
-5.56177388981175 20.201871462969255 3.7200755808507555 -6.830186287055414 0.37237032146809845 0.2793128563239522 3.3956813179396494 20.195280702974756
-3.473009082874044 1.5203604815269758 4.707820723552518 2.5394891008717777 -8.798488778026092 1.8914267993080207 -4.669102959834313 -10.238933292677093
-16.32048415940563 15.838308722771943 5.564905587434562 10.357239010036643 0.3642925046803409 19.10715278864837 -5.916500267422402 -11.623411954204322
-29.753705940347476 15.746402735829761 7.883872843183431 -13.726816440603589 7.417417118097905 9.789887504159221 -11.34237554072169 -0.7877246686535089
-17.154103643864968 -0.4161867558928173 25.485413671955577 -24.979016212150693 4.873917820732874 -10.508480281309554 -5.419382872989171 -3.8051461059605476
7.473500741023703 -12.44937057847971 3.630807256737908 8.75370316577893 -1.2355253216759978 -5.962756734094945 19.78758895206542 0.9432324932441536
3.155737525081392 2.4486584026127503 -28.346544955843513 -1.8697861021895756 -18.470775234472857 -10.627656979952743 13.760146717966117 15.629428766204537
-5.4192246733016916 10.477975234894316 2.1731826316973253 12.695721859149302 -3.103838962310843 5.465272841861174 11.930822757919668 -6.205154133979093
4.951456444081919 13.57708289481084 14.036225027913304 7.686762660351533 2.4868790743614237 11.105105482440614 -0.03799256970316378 1.8474066583033721
2.9604732935212486 19.92738693199265 11.049904510775168 10.822017029549862 4.2187927372341525 -14.861790989493365 -20.588601665626886 -14.29744004971065
1.0105812639770044 -7.55018539544564 16.899444434949043 4.098629548914396 -20.11396522030477 10.383539840718015 -9.09092798211642 -1.3845315877963684
12.161221705658328 -2.6233557209026452 -20.952263111097587 11.159631078072088 -24.47941654079627 0.6424541055218393 5.9992175309657885 -30.91034315393744
-10.466604291186067 -10.384386914230058 -13.272638082000922 9.556189319766508 -6.871441727656256 -11.485269898886857 -0.37483157957619717 4.864728510079701
-11.37262554049968 12.307505448678068 -14.553534241644217 -19.2334979525729 -2.565948830702699 12.074009989872145 -2.222207154344346 -24.354161305187716
10.999975180306993 1.838120509186413 1.715960005977996 13.524087718733316 9.03802214132261 0.9877473777078905 -6.331538849253324 7.7768579532617474

arr_3 f8 [64]
00000000: 0c67 d8d2 1475 2240 8a55 b85b e54f 2340
00000010: 0e7c 78d3 8084 1dc0 25db 4a5a 9789 2640
00000020: 8ac0 e420 98e7 3cc0 3a4a 5921 0937 0140
00000030: 64eb cd14 a5fa f3bf 932b 9cac e2ae 15c0
00000040: 80ab 8112 1e5b 1f40 fd37 6d42 3e70 0cc0
00000050: acb5 4729 dcb4 05c0 7673 2400 c016 2140
00000060: d395 c50d 9784 31c0 3c25 b830 27d1 2040
00000070: 9989 ba04 104c 23c0 8d41 4631 4712 19c0
00000080: 324f 1d95 fc3b 22c0 bf2c c017 801a ebbf
00000090: 9bad 7934 808e 2540 9048 c543 fd02 1240
000000a0: 3630 1227 f7d1 2240 4c11 1a31 aa95 25c0
000000b0: 1182 9bb7 61af e2bf baf6 dd96 edd2 1740
000000c0: f4c6 dfac 639b 1d40 9346 5386 b5b8 2240
000000d0: e163 e870 0ae6 1dc0 a7b2 226c 012a 3040
000000e0: c035 cfb6 58e8 d63f ffc8 6700 e45c 2540
000000f0: 8491 1d0e 5162 3740 e4e4 9795 a8b5 0ac0
00000100: 6fb0 2c7e 0672 31c0 6a95 b7a3 ca22 2240
00000110: afbc 9b69 e2f4 30c0 de8a aa2e e786 13c0
00000120: 3142 b0b9 965a 1d40 64a8 0ed4 0bde 22c0
00000130: b1e2 e9e1 490b 10c0 776c 9887 27c3 1040
00000140: 1c1c 0249 9e0e 2440 aa52 7dd2 6866 0440
00000150: 9cef ab15 54ce 2840 081d 43f6 7a36 1b40
00000160: e4fa fb1d 4323 17c0 ce15 c4a2 69d8 02c0
00000170: b021 37e0 36c1 2040 e13b 3ad0 97d2 1140
00000180: e458 af84 0ff5 04c0 c5dd f892 50a4 20c0
00000190: d89d 521d b6d6 22c0 7ac0 a4ee f03d 34c0
000001a0: 294e 5900 3fb6 2e40 7cc8 3b46 5726 e2bf
000001b0: b5f3 636f 400e 3040 6a95 020d b597 2d40
000001c0: f7a3 8ca8 3703 1d40 d7b3 78a1 aaf9 2940
000001d0: 0768 3338 d9b0 2bc0 7010 1eb8 4a5e e5bf
000001e0: acf3 44a0 ef91 3340 d2bc 1c02 9808 07c0
000001f0: f9f4 6116 30d6 1640 46c7 706d ade2 0140
9.228674496570896 9.656046739818311 -7.379397682408138 11.268732854497623 -28.904665046546633 2.1518728833555345 -1.248692590014536 -5.420786568672059
7.838981904186653 -3.5548062505322364 -2.713310549260049 8.544433597993457 -17.51792989801272 8.408502123335545 -9.648559711237612 -6.267849702752199
-9.117161426379969 -0.846984907520344 10.778321876385965 4.502919253269411 9.410088749857191 -10.792314085418774 -0.5839088998873782 5.955984456346124
7.401747418554567 9.360759923615921 -7.474649204429597 16.164084204169423 0.35793130733949496 10.681427014035306 23.384049303263524 -3.3387004553775217
-17.44541157332463 9.067952266845811 -16.956579781076183 -4.881741265448651 7.338465596564263 -9.43368399313858 -4.011024026775588 4.190580481222347
10.028551370151085 2.5500046200271145 12.402985265005377 6.803203437658574 -5.78443571901764 -2.3556702343073317 8.377371794443064 4.455657247118297
-2.619658505059407 -8.320927231673418 -9.419358173689872 -20.24195758363974 15.355949412251976 -0.5671802875279037 16.055670701887454 14.796303183141124
7.253142007431044 12.987629934295837 -13.845407253527823 -0.6677602382701604 19.570062653383204 -2.8791961827297223 5.70916781399614 2.2356823492090454

arr_4 f8 [64, 32]
00000000: 94cb 1f36 9f4d 1dc0 4e54 0a4a b18c 2240
00000010: 7aa7 15dd a30f 2c40 7c8d 2209 f88c 2240
00000020: cc0a 63e9 4e05 3fc0 9465 1c20 22a4 2740
00000030: 5c37 4aa9 6d2f 02c0 dfe9 e8ac 8afc 3640
00000040: 4e50 945a b05c 0ec0 6224 e800 de8c 08c0
00000050: 6811 68ae db78 10c0 c42a dd80 ad05 fabf
00000060: fede ff1b 8577 26c0 9468 1b8e b70d 1d40
00000070: 689d b0e2 6da1 2ac0 9df0 00b1 af08 1040
00000080: ad94 9cd1 20b6 0840 668a 625c 8c2b 3040
00000090: a33d 6a5a b293 3340 a92a 10b8 196d 1240
000000a0: a4db 4f2c 36db 3ac0 d45b 5801 3598 39c0
000000b0: e250 ffc0 82c1 2b40 51ec 3361 92d3 2ec0
000000c0: 8be5 81a8 33c5 2040 b000 95fb f801 fbbf
000000d0: 12c1 e3fc 4481 0a40 c26b 02ae cb6d 0ec0
000000e0: 2068 c9c1 b3ed 2540 5037 a33e 533d 1540
000000f0: 364d 2667 2955 2940 f03d f6f1 40b6 ccbf
00000100: ace2 ce12 1110 34c0 af08 b954 c360 2ec0
00000110: a977 ddec c683 2340 7e38 811e 7f28 25c0
00000120: 8017 ce90 b77b de3f 845d 4a8a 7ff1 e4bf
00000130: 827a c5fe f45f 2740 bcb2 b4b9 6462 06c0
00000140: 40b7 0e5d 9122 f03f e06e c32c 2e86 0440
00000150: 1126 4810 c2a5 19c0 bd4f fdf6 46f6 27c0
00000160: 5be3 eaa7 e11b 21c0 26fe 2d51 7d6e 20c0
00000170: c022 1cf6 392b 3d40 1571 ca54 f997 3040
00000180: e4b2 4cfd 3a6b 0b40 e676 f3d5 6154 1740
00000190: d34d 70a6 13a8 3dc0 5c37 8d7d 7441 d43f
000001a0: 9372 64d1 e3f4 1340 e71b eb03 c70d 21c0
000001b0: 2812 526d e224 3040 1da7 55bf acf0 32c0
000001c0: 1e6d 30ab f689 30c0 5426 d059 7620 0c40
000001d0: 364a 7795 9ea8 3940 20ad 8272 3409 2440
000001e0: b56d 942d 7d3d 15c0 4c85 dc0a f833 15c0
000001f0: 89f9 8f43 2764 1140 54c1 b74a 886c 3ac0
00000200: 1462 9f69 8431 1840 7fb3 8e2b 0b28 27c0
00000210: 8d06 6682 1dbf 23c0 2f41 a327 eec0 2d40
00000220: 8a05 de27 c710 0b40 72fe bc60 a70d 2840
00000230: 18c9 04a8 6d67 ffbf 5898 0cfe 6aeb 1c40
00000240: 1e54 80fa d1f1 3440 acc0 1d7a 5f7f 35c0
00000250: ffb6 db5c 7bf2 1040 243b d400 4156 f63f
00000260: 0431 8b22 a209 1b40 9a53 91be 7731 1140
00000270: 742b 59da d621 39c0 88a5 9b1a 517a 01c0
00000280: 5800 3056 7b8b 19c0 b4a0 0498 bdb0 0f40
00000290: 2e88 de4a 40ac 30c0 44f4 dae3 57fc 2ac0
000002a0: dd02 3458 89d8 2ec0 185c e038 c77c 01c0
000002b0: bb5e 58a6 0348 3340 349f a6e6 9527 24c0
000002c0: 505f f660 a9c0 e13f 8444 87f0 fef7 2a40
000002d0: 1c55 cdb3 ed4a 3240 66e5 10a8 23e9 2240
000002e0: bcac 08ec b255 28c0 d404 0143 fe1d e5bf
000002f0: d790 db3e f7d9 f1bf 5db7 9a8e eaab 13c0
00000300: 6cb6 e456 cc7a 2040 f27f c764 3abd 30c0
00000310: 8345 6f2b d37d 2440 03fe 247e 6676 18c0
00000320: 469e 74b6 7d50 2440 1672 75b8 2b43 0b40
00000330: b8b4 0476 7fed 0fc0 76f1 24c3 c0e6 f7bf
00000340: b072 8743 6670 0440 63a5 5cb5 96bf 0840
00000350: c064 b5f1 6f7a ce3f c0c5 b2e8 0e23 c73f
00000360: ec4b 03e6 f6f2 fbbf 7d22 82c6 d91c 1c40
00000370: 1088 ff7b 8979 25c0 4a17 d65c fc39 0a40
00000380: fb29 e654 f5d7 1ec0 a6c5 a472 a60a 2b40
00000390: 265b 1973 2eba 12c0 a097 dfe7 c521 3340
000003a0: aa2e 9563 72c5 2440 9ac7 762d 3acc 0240
000003b0: 37e8 1b32 7c0e 2bc0 fcd6 ee54 0ba6 21c0
000003c0: 0f80 ae7a bf31 1a40 411b 577c 3c4d 25c0
000003d0: a3bd 12e6 b2a8 0340 de78 7226 3bef 14c0
000003e0: ed49 9c5d e564 2fc0 d5a1 14aa cd48 17c0
000003f0: 5c04 bf5d 391b 3040 c00e 2238 fe59 bebf
00000400: 24c4 13ca d051 f7bf ea29 12e1 fdae 14c0
00000410: a93a d063 1eec 1f40 e796 5b5e 5d71 11c0
00000420: 7f8c 185e 27bc 2740 2e01 9767 3762 fa3f
00000430: f0c3 95af 51e5 26c0 f0ca 5370 4565 2640
00000440: 8037 06da 42a1 1d40 d83a 431b 3aef f73f
00000450: c55d e008 6726 3540 1afc e648 095c 1040
00000460: 8412 5995 489c 34c0 f687 39e3 c99f 0940
00000470: 0796 440c 0202 2340 ac59 f780 86ea 00c0
00000480: 7208 9583 ea3c 0740 0cb4 64b9 34fe c2bf
00000490: 5814 8ea0 a40a 2940 2482 11b6 14f7 25c0
000004a0: cf51 7eb0 09b8 2e40 9604 9e7b 871b 2ac0
000004b0: 622a c99a eb9b 0a40 38f9 7db3 ec16 2e40
000004c0: fcb4 c488 0204 29c0 0075 8dc9 e4f5 c53f
000004d0: 1412 14de 33f7 2dc0 0962 267c a7c4 2540
000004e0: b0fe ba06 e572 3140 0b3e 37ae b83e 39c0
000004f0: b88a 907d e809 3240 e41c cf35 67f4 21c0
00000500: 6b78 b661 d272 21c0 5459 b3ba 5543 2640
00000510: 0c8a 02e1 4a42 11c0 f819 0b40 ffab 1ac0
00000520: 8852 004d fd9a eabf 1f7f 0d0c 5254 05c0
00000530: edb2 0f4a 8c55 33c0 efff 4ed1 a555 08c0
00000540: e642 b538 76a3 30c0 f4a6 fd6c 1c4f e43f
00000550: 7c63 2e90 7482 1ec0 edba d057 eb1a 0340
00000560: 84a7 25b2 eb72 1a40 658c 4afe 274f 16c0
00000570: 86f5 6c90 eb03 3240 d263 f104 c239 2e40
00000580: 4826 59d7 64c6 1f40 24e1 6871 dfb1 02c0
00000590: 4d01 640e a583 24c0 55ba 3d9d 39de 00c0
000005a0: 762b 65bf 469f 15c0 f8b3 c210 56f4 1440
000005b0: 4c98 707f d2b0 33c0 0887 4251 e1df 1e40
000005c0: 1e35 f74e 1e28 1a40 00f8 da1a 1bed 1840
000005d0: 45bf 752a 12b8 33c0 da0d cf78 9fe6 07c0
000005e0: e1b9 263e f018 18c0 6bbf 9a5e 65fe 3b40
000005f0: d481 2811 a7b0 1240 d722 6ad4 42f8 29c0
00000600: 951f 813f 3e34 2140 261b 47b9 176a 23c0
00000610: 5050 ac73 5950 08c0 d9ba 0074 3c24 1c40
00000620: 2071 ecfc 4f0c d2bf 8941 eafa 6b76 f3bf
00000630: d550 a5da 2604 1840 8a84 b471 6d79 2740
00000640: df2f 17f3 5d04 24c0 6ffa c1f4 d03a 3340
00000650: bca3 684b b7d1 fb3f f199 8c90 c84d 13c0
00000660: 9854 7a02 cd48 1740 e425 917e 07dd 3040
00000670: 87fd 330f cac5 2dc0 6eea 89ae ac1c fb3f
00000680: 4d29 bf54 164f 24c0 1456 7585 f766 d0bf
00000690: 5a05 1426 7257 1bc0 57b7 19b3 444f 2140
000006a0: 02df 43c8 621a 09c0 1acd ea07 c208 31c0
000006b0: 41e2 ef0d 8730 30c0 5879 9858 d877 d33f
000006c0: 863e 20fc 6c5c 3040 1a7d 9675 c242 2340
000006d0: 9e50 0921 7dd6 2640 9d4a 7b87 c196 f43f
000006e0: caaa 1b01 6184 20c0 22af 1848 6cbe 20c0
000006f0: e67a dd70 eaeb 1b40 8941 c8a0 5293 23c0
00000700: f099 e989 8c11 2b40 9301 7c1e a6ec 2fc0
00000710: 640a 80a0 c45c fe3f 7d71 15d0 482e 31c0
00000720: a391 baf9 6fd7 2c40 d8ce b889 8d95 febf
00000730: 1c6b 95db 8a46 2640 9893 1e77 3314 fe3f
00000740: 9432 e268 0afd 05c0 0084 ddb9 f174 bebf
00000750: f99d 71e4 e1de 07c0 1a7c 650c bfc5 09c0
00000760: 993f f3a1 1714 0e40 a7bb 6c64 5dd9 27c0
00000770: 24b2 d782 47ab 2340 1a55 6df6 ffe6 1140
00000780: 5056 f567 2cc6 2140 1ab9 6682 042a 2ec0
00000790: d3fe 9c33 d0e8 1b40 12e7 5c37 560c 2640
000007a0: 8cee 9cf1 721e e8bf ac4a 2180 b1ab 21c0
000007b0: 3fb0 927a fb4d 28c0 b3d8 77ed ea11 3740
000007c0: 00b0 8ea9 348f b43f 422c e011 519f 1f40
000007d0: d118 0d24 8fdf 19c0 b659 f7a2 04fd 2840
000007e0: 9799 41e4 9972 1ac0 f3b0 49a7 a744 2c40
000007f0: dc77 9020 3f6d 20c0 d4a0 4c96 38dd 2e40
-7.325802655878665 9.274790109406378 14.030547055142723 9.275329862087112 -31.02073534648916 11.8205728563942 -2.2731583810590745 22.98649101911894
-3.795258243228125 -3.0687828131527093 -4.118025517560774 -1.6263861688373007 -11.233437418922673 7.263395519659884 -13.315291484889443 4.008482709581725
3.088929784384695 16.170110487039345 19.57694020360726 4.606543422686323 -26.856295365807128 -25.59455879599757 13.87795069805765 -15.41322616347148
8.385159746033215 -1.6879815890716081 3.3131198651318607 -3.803611144493943 10.964262061916145 5.309887865745466 12.66633150427388 -0.22431194128556298
-20.062760520466938 -15.188990256869458 9.757377054247472 -10.579094842218407 0.4763010896789339 -0.6544797612177011 11.68741604004504 -2.798043680979701
1.00843941069202 2.5655177590505076 -6.411873106387717 -11.981010168477832 -8.554455993101945 -8.215799843658782 29.16885317027004 16.59364824240136
3.4273586071998228 5.832404463753596 -29.656549837511033 0.3164950586404893 4.989150306468804 -8.526908991288975 16.14408000234303 -18.940135916148495
-16.538920115778744 3.515850736298299 25.658669797538288 10.017978266193097 -5.310047828850135 -5.3007508942694805 4.347806029951593 -26.423954648840052
6.048356676438306 -11.578210221452307 -9.873272013620658 14.87681697719435 3.383192359412253 12.026667616911457 -1.962751060793897 7.22990033103823
20.944610267954083 -21.497550613654923 4.236798716459588 1.3960580856689342 6.759407558198522 4.298308351154356 -25.132184645433384 -2.1847250059842658
-6.38621267955758 3.9612991215145374 -16.67285602505597 -13.49285804794102 -15.42292285571005 -2.185926861140171 19.281305691313474 -10.077315528716646
0.5547682660862652 13.484366909515536 18.292689550046916 9.455350162565718 -12.167380691584519 -0.6599112805053218 -1.1157143073442535 -4.9178869516307175
8.23984023610975 -16.739172266679766 10.245751721699667 -6.1156253538206355 10.157209111915233 3.407798234066159 -3.9909657688318383 -1.4938361761879526
2.5548825526915024 3.0935491722963646 0.23811148931671333 0.18075739252303258 -1.746817491996576 7.028174497311395 -10.737377047484216 3.278313374789751
-7.710896803424926 13.520801146138933 -4.681817816183672 19.13192605217739 10.385638343773582 2.349720339953774 -13.528291288286807 -8.824305204539534
6.54858199777665 -10.650852094300378 2.457372472235606 -5.233624077545953 -15.697062421158046 -5.821097047337806 16.106344088683144 -0.11856068487582672
-1.4574745076790885 -5.17089034722674 7.980584678253458 -4.360707735386064 11.867487850662881 1.6489786192397093 -11.447888838798434 11.19779540083752
7.407481581334537 1.4959050240465128 21.150009684349943 4.08987916860408 -20.61048253464334 3.203021788781366 9.503921874401398 -2.114514358089954
2.904744174943567 -0.14838275005732304 12.520787255614934 -10.982579888951541 15.359448924465054 -13.053768027343079 3.326132973922811 15.04477463639033
-12.507831834804612 0.17156658021387017 -14.982817592573191 10.884090308843058 17.448807163861318 -25.245005501257804 18.038703773296874 -8.977349931270915
-8.724261334919182 11.131513437646085 -4.314738765506728 -6.66796588962324 -0.8314196113520476 -2.6661721173876596 -19.334171894867655 -3.041820178244954
-16.638522667172673 0.6346571091391682 -7.627397778350197 2.3881441937040706 6.6122272334558865 -5.5773009999275915 18.015313173867547 15.112808374849838
7.943744053665405 -2.3368519649631185 -10.257118653972293 -2.108508327909741 -5.405543318319237 5.238609563716629 -19.690711941708557 7.7186329552512305
6.539178117597912 6.231548709502022 -19.71902718901335 -2.9876088560283565 -6.024353953469899 27.993734276561934 4.672512310120926 -12.984884870487276
8.602037415039186 -9.707212247781694 -3.0392331158600783 7.03538686041312 -0.28200149249620843 -1.2164115716333035 6.004054466571877 11.737163117681366
-10.008529278355068 19.229750916822407 1.7387001939443811 -4.825960405904412 5.8210945498623445 16.863395605503584 -14.88630721578262 1.694500619689872
-10.154467247328876 -0.2562845996193073 -6.835396380397777 8.654821011437589 -3.1378837247574447 -17.034210676979548 -16.18956076723612 0.3041897645179197
16.36103797709668 9.63038985692997 11.418923408877443 1.2868056576013835 -8.258552584292733 -8.371919873250196 6.980386508482047 -9.78773977703601
13.534275350347315 -15.962204887998075 1.8976484555756992 -17.180798535571274 14.420776180290721 -1.9115119342576943 11.137778150548506 1.8799318936446294
-2.748555011179926 -0.11897192752577723 -2.983829292981451 -3.22155580219943 3.759810700641492 -11.924540651581834 9.834529961423932 4.475585794852373
8.887057541559585 -15.082065653838573 6.977356726128806 11.024095277872707 -0.7537169188503454 -8.83533859640496 -12.15230925598746 23.06999096084537
0.08031014575561812 7.905582694346835 -6.4683194764131295 12.494175999349732 -6.611915174964813 14.134091594453343 -8.213372247348097 15.432072350362809

arr_5 f8 [32]
00000000: 396f 454f cac0 01c0 24cf 7073 a136 1ec0
00000010: 6074 265d 4f31 24c0 ab15 0b3d ac5e d93f
00000020: a3e5 3fa8 89fe 24c0 a4ba 1d01 0bde 22c0
00000030: e9d6 49bb efee 3240 5878 4ba0 af3e f03f
00000040: 3b9e 825d cd7d 0dc0 0246 e584 43f5 3840
00000050: 0eb4 9a99 158e 0ac0 1c67 8dfa e234 f3bf
00000060: 46a6 0905 4040 2540 6e42 a40f 83dc 17c0
00000070: 157a 8cc5 918a 3a40 c29d 611c ebec 0140
00000080: 2d14 38cb e53b 2cc0 fabf 4a8f 56cb 2440
00000090: 7a24 c666 053e 3540 3584 3a82 fabe 3540
000000a0: 387a 045c f458 11c0 4c2c bb3a 0a85 3440
000000b0: d6fa 6291 1ac8 02c0 6429 ab62 eb51 3040
000000c0: dcb9 5e36 41bb 2340 5b2e 4f3a 31ee 11c0
000000d0: f659 6a54 822a 2dc0 9b29 7590 2d27 0840
000000e0: 921e 903b b457 23c0 5e35 d8f2 f817 10c0
000000f0: cb03 9985 7621 1640 a698 4925 3bbc 11c0
-2.219135875040504 -7.553350261459659 -10.096308623260654 0.3964033695341082 -10.497143991279534 -9.433677706603085 18.933345513846607 1.0153042089000532
-3.6864268594252088 24.958061510062187 -3.31937713626258 -1.2004117762757636 10.625488431384962 -5.9653437084203755 26.541286799236406 2.240682813385974
-14.116987562747534 10.397144773363824 21.242269919752722 21.746009959493865 -4.336869657300262 20.51968733853964 -2.347706924279332 16.31999794653656
9.8657319059975 -4.48260966404231 -14.583025587065077 3.0191298757319607 -9.671296941130354 -4.023410601087873 5.532678687538417 -4.4338193727655035

arr_6 f8 [32, 1]
00000000: ff0e f59c de06 1d40 fc31 4e5e 080b 1f40
00000010: 5cab 3823 5793 30c0 7080 c87c 0cc7 04c0
00000020: 8a45 49ce b20b 24c0 f27f dc54 bbdf 3dc0
00000030: 8cf1 f0a5 e919 2440 4720 b68d 9dd1 1d40
00000040: 9a35 8c90 a762 0cc0 cec2 844c 2a16 2a40
00000050: b0d6 f2dd 4903 ffbf fa55 cf5b 01ce 06c0
00000060: 073a 61a8 e766 2840 0015 c4c2 a5ef ae3f
00000070: fff9 f035 a6ea 30c0 3671 7601 d1e3 0e40
00000080: e082 3f26 9d9b 2240 705f bf17 2391 26c0
00000090: 10f8 1857 20b2 e5bf c903 1c0c 8b0e 2340
000000a0: bd7f 5776 a6ed 28c0 e8ec dfbb f635 21c0
000000b0: e285 aaec 18b8 3540 b352 815c 58ef 2140
000000c0: b898 99a4 8d22 3040 9cc8 6b5f 0265 24c0
000000d0: f25f e675 2e49 f23f d3d9 89a6 cc2a 01c0
000000e0: 97ac 52bc e0d4 2ec0 aa4d c761 c54e 2240
000000f0: 8f30 be2b a7d8 1bc0 5c77 2bc4 1ae2 05c0
7.256708576638402 7.76077411033884 -16.57554836400537 -2.5971917866409555 -10.022848555034916 -29.873952201683956 10.050610719358495 7.454702581635565
-3.5481711666859157 13.043291465002223 -1.9383028669230207 -2.8505885288857344 12.200986158245554 0.06042211534990294 -16.916598674137273 3.861238490511961
9.303933329823337 -11.283470861540735 -0.6779939366458638 9.528404596729063 -12.464160631352451 -8.605398055157323 21.719130317336642 8.967471018587593
16.13497380018154 -10.197283727557355 1.142866573854914 -2.1458981524294614 -15.41577709683615 9.153849654749894 -6.961575206263787 -2.7354026151432844

arr_7 f8 [1]
00000000: 76f7 fb34 6b62 20c0
-8.192224174268386
