weights/hospital2_weights.npz (npz, 134546 bytes, 10 tensors)

arr_0 f8 [43, 128]
00000000: f466 2101 7ab3 a43f 182a 3cdc 10ef c33f
00000010: 5d26 11ad 5b51 e0be fd68 681e d17b b2bf
00000020: 1b13 9420 8696 c3bf 59b1 a6ec 9389 b2bf
00000030: d8db 2023 5134 b8bf b41e 281e 2a7e 57b6
00000040: 893a e324 66b5 a8bf 2f97 5234 f3b4 c4bf
00000050: bfd5 ca3d 30f4 b43f 8a6f 7221 5fd7 803f
00000060: 7ecb 4f95 6224 c1bf 6e3a a192 67fc 9abf
00000070: 8be0 a574 3167 b9bf 9651 afa1 7d0d 85bf
00000080: becf dc09 8e00 cbbf e819 464e 928d c4bf
00000090: b633 490b aac7 a9bf 2045 566c 6b1f bb3f
000000a0: 65fb fc7c 0b7d c2bf bbdf 6ff1 f593 d03f
000000b0: 8a1e eb0b 2c07 b5bf 881c c639 0164 91bf
000000c0: 9f81 42aa a919 cabf 0577 d3d3 d872 c1bf
000000d0: a999 ddcc da67 c7bf 92cb 4225 4ad8 c63f
000000e0: 3a7d 27a8 3719 c13f ff98 5eb6 c7d4 9f3f
000000f0: db28 d9c3 f973 0631 177b d22c 94de 7cbf
00000100: 7813 eef2 2dc0 aa3f fb86 f773 7bd3 c1bf
00000110: 6561 376b 89bb a2bf cc76 9ed1 f571 c63f
00000120: d01c 9a05 fb1a c1bf bf58 8ecc b754 d83f
00000130: 72a2 1280 8035 afbf eb5c cbad 6fc1 bdbf
00000140: 7598 6aaf 4ec5 c53f 4ea9 4022 a8e4 b3bf
00000150: 93b9 b67c f372 a13f a860 63ab d6c4 963f
00000160: 1023 bfee 47db c4bf 6f20 35d0 249b c0bf
00000170: cfc1 0ed2 70f2 babf bd84 2dfc a04d c23f
00000180: e46b 06dc 1cbd c4bf fc40 e82b f56d c63f
00000190: 5763 de29 0a00 acbf 7c16 30ab d9e0 c63f
000001a0: fb12 4edf df83 6cbf dce5 1476 df7b f6be
000001b0: d9a8 28ad a351 97bf d44a ae86 9283 c23f
000001c0: 22cb 0f70 a27e ab3f a486 c50e dc96 c5bf
000001d0: 1e89 344c 5da2 f03c ab2a cefd b99a a8bf
000001e0: 5aef 6806 52d2 c0bf d37d 0275 db15 cabf
000001f0: ae4e b30b eb69 963f 3d88 860e 8ef8 b53f
00000200: a11e a623 e7d3 a4bf 25b2 c29c 6163 69b7
00000210: ddfb edc3 925b 7035 d97d fa65 f9a0 b0bf
00000220: ed2a 4abc 1055 ef36 d518 e0e3 8678 b33f
00000230: 79a3 1f24 0a28 a9bf 2d64 7eef d5c2 be3f
00000240: 814e e938 b96a b0bf 89d0 c8bf 2afc b4bf
00000250: 86c9 a501 8033 bfbf e19c f59e e5cf bcbf
00000260: 3808 e281 2725 cabf 38b9 aff1 ddeb bcbf
00000270: 3b1e 5db9 d993 77bf cf08 db71 d038 c2bf
00000280: 18db c449 7746 aebf 242b 6d09 3ccf ae3f
00000290: 2a97 dfeb 6ba7 ba3f ec46 6e4e 460b c4bf
000002a0: ff09 2566 089b c1bf a429 2376 9614 b6bf
000002b0: 6478 80d8 22e7 bc3f 594d bf16 cddc b83f
000002c0: 3492 449e 2346 acbf 4830 2be0 6861 c9bf
000002d0: 9f29 43e6 fb39 b1bf 54eb b33c 92d9 cabf
000002e0: cfcb f935 fad2 a33f 304e fd7d bd0e bcbf
000002f0: 1d44 5e3c 6a00 b63f 0866 06e9 36e4 a4bf
00000300: 47c8 adba eee8 e636 a2f1 63b6 cd09 d03f
00000310: 21e5 9c10 dc80 ca3f 4862 a503 9430 d03f
00000320: 0c05 8c76 7e84 b63f f234 5c51 8c28 90bf
00000330: 88fa 3f3c 6d2b c73f 7f72 0a82 2f37 2a31
00000340: 8346 d890 312b bc3f a45f 8e96 d4ab bcbe
00000350: 0f49 6c91 db61 cabf 5b47 dbbd 58da b63f
00000360: 5e98 8958 c4dc b33f 9610 dde8 b991 bcbf
00000370: add4 0af9 a8c6 cbbf 15e1 5549 1e8a bd3f
00000380: c5b4 6cf0 8c4f c03f 786b 2df5 b8a3 c33f
00000390: eeae bf14 1b63 d13f 1ba5 f871 8bcf b2bf
000003a0: e393 b295 6d25 a7bf 5fd2 c74e 86d5 dfb3
000003b0: 84b9 9c1e 80ad bcbf 07c1 c9a7 264e 98bf
000003c0: 260b 6ea8 ad5f bbbf 820a c8dc 8d34 b23f
000003d0: ff5a 1564 507f af3f 1c02 3c0c 7e5a a7bd
000003e0: 0603 56ca 33e7 c13f 7d87 5324 ddd4 c3bf
000003f0: 9ec3 e5ed 5335 b43f e845 165a b607 c2bf
00000400: d3dd a597 3f49 3dbf bf2a 9e99 9a5b a53f
00000410: a8dd ddd4 49a6 efba c321 de27 baf3 c4bf
00000420: d1d8 a66e e7b9 c23f 0ee6 a251 4683 cc3f
00000430: b167 ce68 7808 b83f aad5 30d3 361a dfb4
00000440: 6d88 26af 7880 c2bf 36bb d597 6a84 ad3f
00000450: 1ea5 e84a db83 b03f 5e75 961c 9d2f a1bf
00000460: 2cc7 8689 5a57 c43f a337 d7cd 300e cabf
00000470: 0707 1059 d667 77bf 465e 789a c132 c0bf
00000480: 062d 5fbd 442a cf3f ef0b b8f9 1304 733f
00000490: 126c 1f5c 692a b43f 3cc7 580a 528b a83f
000004a0: 8b66 5fab 48ea b63f e8fb 5169 6710 d33f
000004b0: 5551 0a4d 545d d13f 5905 0c73 2779 cd3f
000004c0: 1cda d9eb 91d6 b83f 3b76 4d73 af9d ccbf
000004d0: fe1f c23a b31d ccbf e810 1033 0782 c9bf
000004e0: aa6e 69ce 8fb6 c33f 8c08 af47 ee84 cf3f
000004f0: 9226 ea62 d4c1 a9b3 a722 e24a c0a3 d13f
00000500: bee5 f818 4b30 d1bf 068b 0975 1c49 6c3f
00000510: e9d1 1637 6089 c43f 312e 6564 d7e7 b4bf
00000520: 7780 f0e2 d523 b43f 542e 77af d740 cd3f
00000530: 1741 c3a3 6927 a43f 04d6 1809 8ce5 c1bf
00000540: 8da1 008d 3894 903f 0d06 d3f1 20c4 993f
00000550: 8b56 6c26 6dd2 843f c1a8 eeb2 e2df c73f
00000560: 1d50 87a8 d58d a13f f502 9c02 7c0e b93f
00000570: dbdd 6e4c bb07 c5bf 4473 9aaa 6e7f 81bf
00000580: bb58 2a2c a5d5 a6bf 8828 bb34 0da1 c33f
00000590: 2168 7a06 9a6a a23f 1a0a e4b1 23a7 cabf
000005a0: 07e3 06f8 460b c5bf 2136 abbd ba81 acbf
000005b0: 39d2 8172 3903 adbf 33a8 3fb8 d41f 99bf
000005c0: 26bd 4a7e 9048 c33f 1821 f0bc a900 b7bf
000005d0: 9b63 66b1 277d 2ab7 befa 0a85 3e5f cebf
000005e0: 5a86 2c0a 7afa b5bf 387b 2850 60a0 b5bf
000005f0: d266 443c 8408 ab3f bf8e f530 9e84 b13f
00000600: 1dca 2797 0221 d8bf be0f 0baf 7238 08b6
00000610: c0c4 21ca 919e 3137 c40d 81c0 32ac c83f
00000620: 42b8 c183 bccb fcb0 02bc e0bb 5abd c4bf
00000630: 7f7e e7d3 e2d7 ca3f e750 03cd d5b6 a7bf
00000640: 920e 0abf d961 c7bf 9cc6 80b9 772d afbf
00000650: 2217 1972 6091 c23f 3e7b 7a7e ad99 c4bf
00000660: b0ad ee24 88d4 c03f 3900 0d0b 005b 9abf
00000670: 6113 52fb cfc7 8d3f 7808 8f8a d200 c63f
00000680: 2bcf e99a 64b1 a0bf 547f b42c 0896 c1bf
00000690: b846 5bc7 ef1b b5bf 0a5c c493 152b c73f
000006a0: 0eed 9d11 b42c c8bf 0b68 c5ab dcf5 d1bf
000006b0: 7021 d870 bfd9 a9bf dbf9 62b1 7832 b33f
000006c0: dcf2 19a3 b658 b6bf 264e 486f 87e2 c6bf
000006d0: b9ba 3a30 790a b7bf 05d6 b54b 764f cdbf
000006e0: d174 4baf de4c b13f f381 ee29 2dd6 d03f
000006f0: 0e06 cd6a 0f15 c5bf 3358 073b f19a b43f
00000700: 93d1 9679 bad5 cab3 8df8 3ae8 2dff b93f
00000710: 195c 225b 4a16 c33f 01ea 457f 879c d03f
00000720: 1963 f374 e1bf d7bf 81d1 3869 1a9c d13f
00000730: 0250 d1bf cb89 8fbf 0c85 7a8e cc42 e636
00000740: 5ed2 5c0b de28 b83f 41f5 f842 f198 50b6
00000750: 356a 5ff5 1d26 b43f bf51 5839 423e cc3f
00000760: 097d e73f 866b c4bf e75f a6f9 e03e 61bf
00000770: 52d7 62ef 8c6b b0bf b2b9 c61f 3bd5 99bf
00000780: 86d7 f931 45b7 d4bf e74f ffd8 7dbe bb3f
00000790: b839 fae9 190d ba3f 245f 6520 d0cb a4bf
000007a0: 6b02 a62f 3141 b43f 2849 b5fd 5adc dfb4
000007b0: 7b2e e775 4059 c43f 09b7 2192 bf93 cdbf
000007c0: d642 7392 b352 973f e105 07f2 ef90 c3bf
000007d0: b573 fe49 18b5 b63f 9b90 53cc 3fae 0336
000007e0: 59c8 822a 1212 b43f b676 33d3 d410 bd3f
000007f0: e6ae a8c7 2365 c0bf 2e91 1b68 0f59 a9bf
0.040431797636029915 0.15573321107542948 -7.780935819340346e-06 -0.07220179550532531 -0.15303112593405718 -0.07241177108398257 -0.0945482931864342 -6.42977867873631e-47
-0.04825896454132301 -0.16177215628447913 0.08185101994134579 0.008223288734647633 -0.13392288485155385 -0.026353472065518017 -0.09923085306025052 -0.01027963781044931
-0.21095443231172156 -0.16057041952099316 -0.05035144222038161 0.10594817538210011 -0.14444106676998128 0.2590308053763654 -0.08214068690278445 -0.016983050490605694
-0.20390816510645224 -0.13631735175197704 -0.18285689356998816 0.17847563571339414 0.13358207426697694 0.031085129266693375 1.5884955685708984e-72 -0.007048205193455079
0.05224746313527978 -0.13926642572828726 -0.03658704217713441 0.17535279021551842 -0.13363588117156278 0.38017077423263496 -0.06095506251705708 -0.11623285286929146
0.1700838428998314 -0.0777077754616233 0.03408013245949628 0.02223525448866384 -0.1629419246439956 -0.12973461309798348 -0.10526185158119648 0.1429940444313952
-0.16202126258289617 0.17523064273746758 -0.05468780289738245 0.1787368856313839 -0.0034808514123504364 -2.144229745690793e-05 -0.022772366946960474 0.14464027000629776
0.0537005197328624 -0.16866636964100679 3.693542385178653e-15 -0.048055469734284394 -0.13141846955283648 -0.20379203046193925 0.02188842066682522 0.08582389692904342
-0.04067919073264404 -9.107573032265351e-42 2.732519077858296e-51 -0.06495627155026486 4.3905885115376077e-44 0.07605784476627105 -0.049133603009813016 0.12016045662893822
-0.06412847175061566 -0.08197276289212331 -0.12187957802033197 -0.11254725581021631 -0.20425886003437355 -0.11297404432818758 -0.005756235584903953 -0.1423588329253733
-0.0591313626813898 0.060174823904694 0.10411715038898409 -0.15659407453181673 -0.13754372584851635 -0.08625164398396251 0.11290185723962193 0.0971191578421914
-0.05522261912327445 -0.19828520723092624 -0.06729101535453318 -0.20976474727634786 0.03871900471576561 -0.10959991765894794 0.0859438321479193 -0.04080363840621365
3.2103597484592366e-44 0.2505983620792681 0.20705748377967217 0.2529649768453379 0.08795919794285484 -0.015779678788978076 0.18101277772798974 7.418743021601142e-72
0.11003408228159554 -1.7089374415354074e-06 -0.20611137963039325 0.08926920542878973 0.07758738671836471 -0.11159860549111253 -0.21700012359875612 0.11538876810471195
0.12742768992885636 0.15343391391328587 0.2716739370941771 -0.07347938091756527 -0.04520742847788719 -7.924158803048563e-59 -0.11202240702980332 -0.02373562239739704
-0.1069286857801158 0.0711144126908412 0.061518203942503284 -1.0619935818180861e-11 0.1398682344406767 -0.1549335887312359 0.07893871839566066 -0.14086036108760358
-0.00044687082813462986 0.04171450734346171 -8.181220563209472e-25 -0.1636879629770772 0.14629834082524565 0.22275618539951875 0.09387924727198428 -5.073815589209835e-54
-0.14454563667556233 0.05765088180020543 0.06451197222545033 -0.03356638883563322 0.1589158221736907 -0.20355806399169038 -0.005714261337745225 -0.12654895822992013
0.24347743269604666 0.0046425609866700265 0.07877214907732391 0.04793793083480444 0.0895123880758552 0.2978762177007739 0.27132136844126836 0.2302598296883314
0.09702407844620392 -0.2235621750832467 -0.21965637558992052 -0.19928064339922646 0.15400884226516115 0.24624422550374836 -8.014355967572888e-60 0.27561957657648367
-0.268572592150658 0.0034528308681712775 0.16044237794780195 -0.08166261864715164 0.07867180624498525 0.22854133670476762 0.03936319469505827 -0.1398177189272901
0.01619041786776303 0.025162234077248203 0.010166981444437858 0.18651994454314116 0.0342852371428821 0.09787726463038011 -0.16429845077594404 -0.008543839055442988
-0.044598733559881386 0.1533524043537151 0.03596955613211628 -0.2082256907088585 -0.16440665350616987 -0.055677257206849136 -0.056665225246352376 -0.02453548788609101
0.1506519905719667 -0.08985386717552435 -5.939013849272671e-43 -0.23728162285074988 -0.08585322140108911 -0.08447839695916748 0.05279935107882995 0.06842983908932875
-0.37701477776787035 -2.071542319615067e-48 7.900817625401858e-43 0.19275507354369215 -1.0186169274952207e-72 -0.1620286385891348 0.20971331927193046 -0.04631679656600501
-0.18267366245355682 -0.060893765825665386 0.14506154605094773 -0.16093987155633188 0.13148595622383885 -0.0257377630944122 0.014541268212505622 0.17190009847223897
-0.03260340109855372 -0.13739111121048586 -0.08245752923110217 0.1810023280638407 -0.18886423931312674 -0.28063122534297297 -0.05048940899365817 0.07498888331154012
-0.08729115945784421 -0.17878811773026476 -0.09000356128192778 -0.22898749062339632 0.0675791910138799 0.2630722913254708 -0.16470520701300057 0.08048923197870365
-3.3398769452144314e-59 0.10154997749029544 0.14911775064385394 0.2595537894154916 -0.3710864679429036 0.275152781253631 -0.015399543563184185 3.119421232785391e-44
0.0943735864391981 -4.542569350889561e-47 0.0787066196493605 0.22064998436020564 -0.15953138466191089 -0.0021051782652641185 -0.06414109081637534 -0.02522747403571097
-0.32368593101943366 0.10837542102609597 0.10176240885105059 -0.040617469744289175 0.07911975301068146 -5.1975295463498875e-54 0.15897374875054368 -0.23107142100655434
0.022776418508160777 -0.15286063497300886 0.08870078855984682 1.683256836651338e-48 0.07840074098456408 0.11353807598376417 -0.1280865406891884 -0.049507600267846605

arr_1 f8 [128]
00000000: d6f1 09e3 d070 9cbf 1abd 1a59 3896 ac3f
00000010: c8a8 7df8 b9df 86bf e7ec 3b4f 898d c2bf
00000020: d32b 0f01 9636 bdbf 6076 0908 b74e cabf
00000030: 5a46 8a21 3e51 a23f 4f29 0609 a4ef 99bf
00000040: a095 8a7d 684e c0bf 06ce fbae 5456 95bf
00000050: 95ca 3ad6 6329 9ebf 9277 80d6 8862 c8bf
00000060: 0134 096d cc61 783f eab6 6be3 8d5d c13f
00000070: dcb2 85ce 0a4e b7bf ca0d 07ab c0cc 4dbf
00000080: 220b 0bb0 5826 c9bf 28b4 4fc9 b84e b6bf
00000090: dd65 ca66 ff2e 9a3f da02 80aa e9fc c13f
000000a0: 587e 3db8 c316 abbf 1488 2a8e ed98 c13f
000000b0: 7b2c 5c2e 9456 b73f 62bd eecd 895c c0bf
000000c0: ea00 87b9 cbf1 c4bf d9d2 c950 da9c ba3f
000000d0: 412f 2c55 8f79 d0bf c986 6810 8f38 ba3f
000000e0: 70e7 5aee af12 b73f 72a8 9e28 acac bebf
000000f0: 1873 5db4 e001 bebf 4b98 38b4 55d9 8dbf
00000100: e29f 8ce2 2f0f c4bf c8dc ce8f e3e0 b63f
00000110: e1e4 80c0 0af8 b5bf 978f 26c8 2c42 c43f
00000120: fa10 1af2 9929 a3bf 9409 3c94 4934 d23f
00000130: 15e7 1cad 5e42 c7bf 02f0 0046 0c82 cb3f
00000140: 2e38 6843 bddc c93f d6ad ed43 b632 b1bf
00000150: 15c2 1056 8386 76bf 5a08 3d1c 0c61 c93f
00000160: 5219 e864 4f1c b9bf 74b4 de35 f89e bcbf
00000170: 3c70 ba79 2aad c6bf 3bfd 3d2c f553 bfbf
00000180: 9067 ecb7 49fd c33f c28e 59eb d0ba c43f
00000190: 68df 6574 c89a 9e3f 35c9 3097 8276 cbbf
000001a0: 137f 0932 d612 c5bf acb7 4cda 9e34 c9bf
000001b0: 804d 9937 51a1 b53f 4037 66b3 b558 b9bf
000001c0: 0cbb 248e 697f be3f 2051 c224 5dea be3f
000001d0: 4c00 d390 33bb a73f 1d18 71bb 07f9 cabf
000001e0: b05c e119 3d3f b73f 99f3 3f00 279b b43f
000001f0: 74b6 d6d3 ec02 7bbf 0711 49c1 4399 b43f
00000200: 39fc 98a1 bfac b03f 247f e0d9 a974 c2bf
00000210: 30f3 b3b0 1ae1 b13f d07a 6c20 136d c4bf
00000220: 28a7 b193 3066 97bf f6c9 dbfd 9ed2 93bf
00000230: b164 cfe4 c4cf b03f a5c1 aea3 9d4d d03f
00000240: dad4 a570 ab0f a13f 6c23 77bd 23ec c8bf
00000250: 1fba f03b e072 c03f 5951 b65a 54f1 c3bf
00000260: 5627 fb2c bf9b c83f a852 ed58 91d6 b43f
00000270: 919f ed0a 757e c23f c61a edf8 bbd9 993f
00000280: b27c cd98 2ac7 c4bf 699b d439 bbeb 5a3f
00000290: 733d 4850 c048 c03f ed02 d6e6 6415 b3bf
000002a0: 3eec 6787 b665 bc3f 90a7 beb8 e5f5 cfbf
000002b0: 0ffa 4be0 bc3e 803f 61cb 241e d845 b43f
000002c0: 93e1 4a59 8d5f adbf a0b8 bf47 9a3a c83f
000002d0: 97fc fcd1 ec6d b0bf b9ad edf4 9a54 bc3f
000002e0: 021e 9612 eb06 96bf 834e af56 a96c a53f
000002f0: fe5a 2bc8 9afa a63f d827 fa9b 47e0 91bf
00000300: 225a a881 d385 c5bf 0c60 ae88 1f0f a3bf
00000310: 42ac f7d1 8e01 b5bf 9324 b8ee 3f3d 5e3f
00000320: d7e4 9a50 0611 babf 51f2 a3d9 cdec b2bf
00000330: d821 630d 0686 c9bf 7898 ce2c 9854 abbf
00000340: 20f9 3fbd 0f40 a23f 1fbf 52e0 d29b bb3f
00000350: 604e 21b7 f6d8 b73f 54ee d303 f643 b6bf
00000360: c620 dddd d23c 583f 3124 00f1 0c30 793f
00000370: 7abb 3ac4 144e a73f f1ae 2139 3984 b6bf
00000380: c509 b8cf 7434 cabf 9cdd 59ac 6307 c73f
00000390: 0c92 48a6 4ee8 9fbf 7665 66fe 8aa5 ba3f
000003a0: 09d0 3429 84e7 513f 8c58 de1e 1a60 c4bf
000003b0: 6db7 8d52 87f0 b43f db90 2ea5 a708 c03f
000003c0: b0c7 ad63 c59a c43f b2c2 d4b0 6b46 b7bf
000003d0: 04f6 6a9b 0b41 c63f d750 d0d7 4fb4 b63f
000003e0: 85f0 550c 2afc c93f 7d47 39e8 e233 b53f
000003f0: a4a7 989a 55fa c13f 607c 1a8d 66c8 853f
-0.027774108750678504 0.055833588482864197 -0.01116891183456338 -0.14494434708453882 -0.11411416555272007 -0.2055271901362401 0.03577608260560501 -0.025328219462190046
-0.12739282731960788 -0.02083713834777081 -0.029454765272655854 -0.19050703500482463 0.00595264295459419 0.13566754917649543 -0.09103457967803358 -0.0009094181787578312
-0.19648274036270502 -0.08713869967296317 0.02556990685352455 0.14053078484723508 -0.05290805458093634 0.13747949067789078 0.0911648381408429 -0.12782404475499748
-0.16362902220681202 0.10395588371632004 -0.25741942708622295 0.10242551947205948 0.09012889451233064 -0.11982227317517571 -0.11721615222399995 -0.014574689447794628
-0.15671347200372937 0.08936903248728634 -0.0858160705546598 0.15826949856738956 -0.03742676811546804 0.2844413707354303 -0.18171294644144412 0.21490624826572008
0.20204892913210543 -0.06718005331429508 -0.005499375373844835 0.19827414873913335 -0.09808822835484435 -0.11180068316635233 -0.1771596044899314 -0.12237484293108462
0.15616723518979514 0.1619511746567835 0.02988732538639685 -0.21455414182998714 -0.16463735049455205 -0.19691835078395792 0.08449275596040273 -0.0990098536478543
0.11913165779399665 0.12076360843122247 0.046350108555544084 -0.21072479870252972 0.09080869562000049 0.08049243694399734 -0.006594586474802367 0.08046363324053028
0.065135933830775 -0.14418528688929044 0.06984106840168347 -0.15957869609061115 -0.022850760473750814 -0.0193581430857623 0.06567030512032336 0.2547372911895088
0.033322675229024504 -0.194706408989329 0.12850573469900525 -0.1558022921495972 0.19225301452962168 0.08139904423780797 0.1444841674194746 0.02524465281319512
-0.16232807599133064 0.0016431167962964405 0.1272201911929006 -0.07454519878048034 0.11092701726731577 -0.24969169159640758 0.00793216285228218 0.07919073806696765
-0.05736963000294106 0.18928841117253103 -0.06417732359567406 0.11066597442338989 -0.021510766038344904 0.04184464629329645 0.04488071149324034 -0.017457121749011012
-0.16814655142725693 -0.03722475570174319 -0.0820550215354823 0.0018456577626031797 -0.10182227580925783 -0.07392584384428715 -0.19940257695840446 -0.05337977930985088
0.03564500031642326 0.10784643150941207 0.0931543538184143 -0.08697450250104427 0.0014793452496224976 0.006149340202690688 0.045517586663996704 -0.08795507092298373
-0.20472583906673783 0.17991300502374663 -0.031159619235170452 0.10408848486840391 0.001092795432509954 -0.15918280131581175 0.08179517522304787 0.12526412549517016
0.16097323767786298 -0.09091828410306382 0.17386002625237051 0.08868884104623774 0.20300794222191967 0.08282297296071124 0.1404520993103776 0.010636140042434572

arr_2 f8 [128, 64]
00000000: e669 1945 388b f2be eeea e26c 0ccd 70bf
00000010: d9de 58b8 b314 b3bf 6e3e a25c 58b1 c33f
00000020: 9e3f b736 4005 c23f 8052 72a4 8436 aabf
00000030: 4547 392a 069d a6bf f3b2 c057 c744 c33f
00000040: 8bcf d951 a412 b53f 6b79 aef3 68c5 c33f
00000050: 39b1 e9e6 5973 ea36 7196 c612 9f25 9abf
00000060: 73ce bf7f 2a37 a6bf 1c68 d8d9 780b 93bf
00000070: 00db 1668 c555 68bf 457a 81c7 3b6c 96bf
00000080: 85c8 4a17 4381 b83f f906 da6d 58fc c03f
00000090: 7215 170e c4b8 923f dcce bf44 13e5 c1bf
000000a0: e7bd dff1 0a0d 9cbf 8d4f bf95 04f4 c4bf
000000b0: 6c34 f7a0 02eb 623f a9fa cefd 1478 c6bf
000000c0: d520 d162 6e3e af3f 6210 c2be 2ff7 6fbf
000000d0: f638 90db e9b0 c03f 52ae 12bb c596 bebf
000000e0: 28b5 1e73 41e4 c0bf 43d7 b7a4 7d9a b13f
000000f0: fe3c e1bf 0bb9 c2bf 56e9 3be3 41e2 c1bf
00000100: f221 da0c f2ec bc3f 7731 0569 6208 903f
00000110: 2b9e a2c5 7738 a2be c916 228e 1a67 8e3f
00000120: 4df2 59b1 f920 c23f 15ff 26b6 449c b73f
00000130: e425 3550 9e73 c53f b623 944d 8410 c13f
00000140: 4976 fe68 2616 6b33 ec83 d705 a282 afbf
00000150: 2070 5d16 60da c13f 7b80 2eae 882e c53f
00000160: a4b5 36dd e54e b3bf 24e4 849d 03df ab3f
00000170: 52bb 01e5 4240 633f 0752 f33c 02ad 9e3f
00000180: f142 b9d0 91d8 c3bf 0f05 965d e2f7 b3bf
00000190: ab88 c572 65bc b73f b753 6bde db96 b43f
000001a0: 77fd 6941 3c51 5f32 fb4f 5425 dfd7 c5bf
000001b0: 2b48 b03b b66b 9abf c71d 8fec 8163 b33f
000001c0: fe32 3d8b fcec 70bf 83d0 ee72 8ec0 a7bf
000001d0: 7906 ba62 0574 95bf 4961 b4cb 2216 b5bf
000001e0: ef8f 70b8 78e3 aa3f f8c1 2ff0 4bcf bc3f
000001f0: 1bbe ab9e e09d c43f 8443 664c 18a4 b9bf
00000200: 2c14 58a3 993f 43b5 316f 3643 1c95 70bf
00000210: 9301 e68e 7ac9 b3bf 143f 9ce7 2af7 eb31
00000220: 711a 2b4a e0d7 a5bf 3cc3 ab79 7aeb b7bf
00000230: 1e47 b37e 2df4 87bf 0f7b 1bb5 833f c23f
00000240: c7b2 4811 e006 c4bf 103f 63da 214e ab3f
00000250: 98f0 29a0 0bf8 2934 8f77 a261 1580 74ba
00000260: d817 802d 7b78 91bf 9b67 d015 bf90 5fb5
00000270: 6b27 a781 ae27 b1bf f326 f1ef 6947 7bbf
00000280: 574f 1a85 12b4 c2bf c0e7 8240 f035 c6bf
00000290: aafe 56b0 2b98 acbf 1a5c 0ca3 205f b13f
000002a0: 8d0d 918a f767 c4b4 c99d 60ad d68d 6cbf
000002b0: ebac c06c 6f45 c73f 55ed 4dff 4c84 bdbf
000002c0: 7a18 5846 e94f bb3f 184b 657e b59a bd3f
000002d0: 013f 7de2 2261 95bf 87a7 db2c e77b c2bf
000002e0: 33f7 8054 8dd7 a83f f823 338f f266 a3bf
000002f0: 203c 9bae 8b0f dfb6 04d8 1e64 dea2 c13f
00000300: ed94 089e 2b9d c2bf 0880 82fa 05d0 b03f
00000310: 0946 f8e2 c79d 84b2 fe01 e29f d24e af3f
00000320: e894 bf44 b0d2 9ebf e7d6 df69 52df a43f
00000330: 979d 6f7f c1bb 813f fd5c c3d8 b557 d73e
00000340: 5939 c4b2 2d3b a132 d967 3653 4aaf 6d33
00000350: c098 d868 78a0 b0bf 67f9 30be 519f b1bf
00000360: f662 e03b aee0 c23f eb24 854b 710f 96bf
00000370: 63e1 7e0d 8bfc 9f3f 670b 62b4 cc48 4bb1
00000380: 66d0 f186 ab55 b8bf 407d 92cd b4b7 b23f
00000390: 0f31 27f0 b130 923f 50ad a4f4 5ae5 c13f
000003a0: 97e7 f2e7 3c1c e033 4dd7 d188 5cf0 a43f
000003b0: cdb4 6bc3 fa56 0c34 666a 50e8 9c66 b73f
000003c0: 22ce 6e62 dba6 aabf e36f 122b e7e8 c33f
000003d0: 00fa b8c8 7e9a 933e 2bcd d3bb 847c b5bf
000003e0: f7c7 5189 fad8 7d36 f514 c6a5 5828 7f36
000003f0: 1ca6 9ca0 a461 8cbf 384e 5831 dc11 c2bf
00000400: 98d7 3d47 cd8b 10b4 6c08 0af0 c0f9 48b2
00000410: 71d8 4b31 eba0 f7b1 ccba dec6 b144 ce35
00000420: e060 28a0 d8be c73d f587 a913 0623 6b3f
00000430: 3e2c 0bec 1205 d23b 26f4 f04a 2d3f b23d
00000440: 816f ad50 e1c5 2a3f 0abc cf69 916f a1b2
00000450: 33fb 2490 b745 bcb0 c091 ed34 a935 86bf
00000460: 74ad 237f a459 59bf 4cf7 00e2 b9e6 5abf
00000470: 1702 fa94 5439 463f 7b13 087a ae78 6c31
00000480: 61e2 552e 29f8 563f ab13 4452 c37d e0b0
00000490: 8e50 050a b006 5a34 57d9 f92c 6c12 2731
000004a0: c1bf 7302 fd51 6e33 fe24 3ce4 4da0 1d32
000004b0: a222 4387 cb91 14bf 913b a99e 4b7f 6bbf
000004c0: 7e85 9e3d 477d c83c 9e10 20f3 e3ae 713f
000004d0: 1588 0da4 d26e 7abf 1f34 11c4 2a1d 723f
000004e0: 765c 1413 17f2 d937 aa16 d445 f769 473f
000004f0: b06e 7785 e444 023a 23b9 2784 64ae 103f
00000500: e697 28b3 7d4d 1abf 27ff 8680 0ef4 0634
00000510: 9c5a e931 67a1 5633 04f1 449f 1da8 33b1
00000520: 7b15 20f1 6ea9 9531 17a3 3700 d284 783f
00000530: 343e 9c40 f96c 2e33 5b1a 7130 ac59 c1b5
00000540: 2667 8d97 b58b 1732 a873 16c1 a61b 5033
00000550: 9330 19d3 4284 79bf 9ca5 2092 a2ad 3733
00000560: c314 a681 c321 1634 570e 9561 29e4 18b4
00000570: d4a8 6d35 d0ac 2a35 d62b 97fc e204 53b3
00000580: e089 942d 56e5 e2b2 d40d b80f bbd1 47b4
00000590: 2bfd f92a 6ec6 ddba db7b 41cf 0908 7b3f
000005a0: 67de 4282 e15b 91b1 9960 ff0c 6076 50ba
000005b0: 762d 7c63 6724 7331 5759 cdba 702b 843d
000005c0: 7ed2 d3c0 a892 673f ba07 0820 4cd1 3e31
000005d0: 696f 15ac 28d3 8bb5 7754 058f 7650 85bf
000005e0: 35a7 7e16 faf6 6f3f 35d9 1329 c8ee b8b5
000005f0: e93d 4244 69f7 773f 492e 1231 d027 29b4
00000600: c642 b330 b33e 3fbf d088 1ff1 3a6b 8bbf
00000610: 37f6 33fe 0b7a c13f f7a4 37aa 7ff8 b2bf
00000620: 5947 88ac a9f9 b23f 61b7 5a4d 11cb 6c3f
00000630: 5bfa 3e4b 6ceb 933f f0ba f8b0 ecb8 c23f
00000640: 3604 d261 9188 b0bf a383 744d 5e51 c4bf
00000650: dcd4 168c 6ff4 e0b0 bd84 1c6f 668f bcbf
00000660: cc81 ac5b 14ec c2bf 0eb3 3cbb 17cf aabf
00000670: a87b 3cfe 8eba babf ac28 0650 ce3f bc3f
00000680: d14c ffab b6b3 91bf ad33 ecd0 a66d b2bf
00000690: aed5 91ef a723 c5bf 4be3 3f39 5b94 b3bf
000006a0: b48e 1d9b ff0e e130 7691 2a2a 145f c6bf
000006b0: bf25 f7ce eca8 c43f 22fc 7ea4 e2bb c53f
000006c0: 78f7 344a c267 a93f d7d0 c6ba e014 bd3f
000006d0: 18ea 6bf0 d85a c2bf 9fdd bfe7 c086 c23f
000006e0: 3148 0302 3883 c0bf 5b01 dab2 2c4a bf3f
000006f0: 5daf 14ff 036b 773f c495 911f 8acf b4bf
00000700: 95e1 7d8b 417c c13f 77b4 d485 9b0b a3bf
00000710: 9dd0 1db9 d4d3 99be 5fa4 1265 22f9 b5bf
00000720: 530e 110b 20fb c5bf b0b6 ff44 36b1 a93f
00000730: 458a 95a1 c4c5 ae3f 2a52 3f6b 318f 9b3f
00000740: a470 a9e8 2d02 1136 1069 edc7 1e95 a3b0
00000750: 5f5b 0210 b205 a3bf bc17 e93e 5d36 c4bf
00000760: a266 24ac ac5a c43f 560b 2095 208c c2bf
00000770: 9c42 8636 f2ab a33f 2828 e0e8 d069 1136
00000780: 297e 92b8 9e61 c1bf b1c8 67d7 7241 b83f
00000790: 8202 c338 deff c2bf 0e02 1d43 cad7 b0bf
000007a0: abfc c407 a8e3 27b3 e81d 9eb0 0a70 82bf
000007b0: b1f4 ee13 ed9e 2c32 f322 f060 73fd b4bf
000007c0: a9a9 76b5 4402 80bf a8ad fe2c f58a b03f
000007d0: 3325 41b0 ff65 92bf f46a 18db c0b8 be3f
000007e0: 224b 272d 1ba0 b7bf b215 464a 0bb6 a4bf
000007f0: 5ae7 18cd 09f4 bbbf 9d97 a623 6fd4 b93f
-1.7684771881890363e-05 -0.004101799522852485 -0.07453463793433047 0.15384964488156377 0.14078524276419285 -0.0511971903553432 -0.04416674867083129 0.15053645882417008
0.08231570242224799 0.15446197412979798 3.706517191218176e-44 -0.02553413917634945 -0.04338963326872838 -0.018598449989532737 -0.0029705863568908475 -0.02189725308596226
0.09572238272338225 0.13270097125865002 0.01828295074462489 -0.1398033223809908 -0.02739350415498434 -0.16369683563118223 0.0023093272536472333 -0.17553961174958957
0.0610231872202022 -0.003902047397845763 0.13039897175662646 -0.11948810403071633 -0.13196581002322572 0.06876359244764978 -0.14627215260632193 -0.13971732707416135
0.11299050153514381 0.015656984004907195 -5.430155270062648e-07 0.014845092260894604 0.1416313281987577 0.0922282166202389 0.16759089390170268 0.133316553001604
5.267495316808489e-61 -0.06154352494537094 0.1394767865375579 0.16548260216677932 -0.07542263651585884 0.05443583772507335 0.0023499781164483613 0.029956850977059826
-0.1550466794165213 -0.07800116333784878 0.09271844913522169 0.08042692356259705 4.646496680867995e-66 -0.17065038035127586 -0.025801513093093014 0.07573711419455896
-0.004132257938022075 -0.046390964059726 -0.02095039763526649 -0.0823690173459727 0.05251672030888687 0.1125380956070855 0.16106803653336574 -0.10016013970586185
-4.019261408338532e-52 -0.0040484527593454426 -0.07729307163936587 3.241556211314196e-68 -0.042662629178768514 -0.09343686552507519 -0.011696200779997275 0.14256330817348625
-0.15645981639808879 0.05333047667374846 2.0685444085436664e-57 -4.140007917080193e-27 -0.017061161663171592 -1.318233269057456e-51 -0.0670117441688071 -0.006659902398561834
-0.1461203718105206 -0.17352107191055488 -0.05584846999726996 0.06785778027220637 -1.6644519009972405e-54 -0.003485602656855245 0.1818064957636588 -0.11529999955194133
0.10668809859643771 0.1156419213851162 -0.02087835795765525 -0.1444062203439069 0.04851953178920922 -0.03789480207485235 -2.1762673212063416e-44 0.13778285874076357
-0.14542145935516917 0.06567418447457396 -2.447047128929089e-65 0.06114824487395153 -0.030100588031832937 0.040766311096303735 0.008658897115266835 5.565313937881024e-06
8.180985228700616e-65 5.7727660935451636e-61 -0.06494858321875352 -0.0688372697195284 0.14748170779855457 -0.021543283686047337 0.031236813257892303 -3.088481633587779e-71
-0.09505722088380394 0.07311563509801022 0.017763881953031076 0.1398118681475844 8.020373609364041e-59 0.040896312429068084 5.643481068158698e-58 0.09140949889880687
-0.05205426765988032 0.1555451355278584 2.921148698243356e-07 -0.083931251388823 3.2676060971539212e-46 3.4110234962145505e-46 -0.013858114387022495 -0.1411700478498561
-6.589864935121636e-58 -1.852793000913629e-66 -5.477706671084289e-68 1.6180028945755338e-49 4.319280004816755e-11 0.0033125990569695626 1.526338122453431e-20 1.659535415670046e-11
0.00020426154545815855 -8.278146978390412e-65 -6.250614433932666e-74 -0.010844537666067633 -0.001547251359222593 -0.0016419234525666014 0.000678221034789375 1.2891398636820927e-70
0.001401939597910261 -2.9167885314692846e-73 1.658480282225702e-56 6.529134181992581e-72 5.896358873735712e-61 2.7472410179800493e-67 -7.846646059584764e-05 -0.0033565976093891743
6.797165135412459e-16 0.004317179134890518 -0.006453345123050643 0.004422347120521613 1.1913664903571481e-39 0.0007145364176330455 2.882357639532901e-29 6.363380911242728e-05
-0.0001003368350117325 4.570848787282481e-58 2.200466066609911e-61 -1.1125299065167566e-71 7.846510144153419e-70 0.005986042323890903 3.6980363444369147e-62 -9.274645169467745e-50
2.1834000558997698e-67 1.5662564429848818e-61 -0.006229649575811308 5.755866619355808e-62 8.814533511846837e-58 -9.913514817827613e-58 1.392502688660685e-52 -1.8493137276126874e-61
-1.4354143033652665e-63 -7.589254271983044e-57 -3.8483438723685106e-25 0.006599462813112712 -6.287868631170495e-70 -8.31138958473333e-28 1.733456434720602e-70 2.2930281453057505e-12
0.002877549739986939 1.7442125264561313e-71 -9.296156087690326e-51 -0.010407377471589136 0.003901947453376043 -6.66393521582401e-50 0.00585118407992933 -2.0037528116816492e-57
-0.00047675966989139636 -0.013388119204993748 0.13653707420591996 -0.07410428910920418 0.074122051832345 0.0035147989209098206 0.019452755062724907 0.1462684501761582
-0.06458386076157371 -0.1587331655692 -2.998778766273469e-73 -0.11156311237984347 -0.1478295753122566 -0.052361241918651755 -0.10440915781917559 0.11034860089981419
-0.017287115333442685 -0.07198565102244343 -0.1651506347440494 -0.07648248813337692 3.0171307828629917e-73 -0.1747765737428712 0.16140518289311775 0.16979630500824877
0.04961974292608223 0.1135998207090013 -0.14339744319279712 0.1447373515691028 -0.12900447939188234 0.12222556463712435 0.005717292414640554 -0.08129180212707526
0.13660449324721627 -0.037197933279778654 -3.8485921393457584e-07 -0.08583273856733474 -0.17172623195993938 0.05018014518996716 0.060102600788714024 0.02691342560850011
2.909424214586986e-48 -2.1647075681808378e-74 -0.03715282864975821 -0.1579090649776712 0.15901716618900702 -0.14490134507658564 0.03842121997434342 2.978673357902398e-48
-0.13579162609401976 0.09474866637154623 -0.14843347331590812 -0.0657926954127179 -2.903581467869053e-62 -0.009002765192930931 5.3080233011004684e-67 -0.08199235073710635
-0.00781682661802992 0.0646203265047719 -0.017967219479293205 0.12000661229141568 -0.09228677608852512 -0.04045138627683843 -0.10919247872598473 0.10089773769740736

arr_3 f8 [64]
00000000: a873 5cec 6553 b33f eeaa 55d2 3419 9ebf
00000010: 933c ca59 1796 c23f 213b cf7a 0ab3 c1bf
00000020: ba72 c7eb 4313 c63f de7f fa5e 6ebc c63f
00000030: 94c4 c67b 05b3 c23f 6678 ca82 1bd0 b13f
00000040: 55c0 8d23 9360 b3bf 70ea 2cee 8c87 c5bf
00000050: 15ee b883 2575 bbbf 4c70 f441 b2c2 b33f
00000060: 8de4 ef15 1fc6 a73f 03c5 023b 2d3f b8bf
00000070: df95 a8c2 d4d6 b93f 3b67 f79a 25fb 5e3f
00000080: 1ef2 9e87 eaaa 913f 9034 4521 b02f 973f
00000090: 7924 ee71 584a c03f 7e84 1df5 bf04 a63f
000000a0: 2bcf 1a27 8ad6 b6bf 27cf 8b96 876f c33f
000000b0: d8d8 464f ef09 c2bf 3a0d 26c1 683f bfbf
000000c0: 363c 8974 3a29 b9bf 496b 4e8e ef1e a03f
000000d0: 9e7b 3994 771c bdbf 0ef6 f46b 7ef4 833f
000000e0: b44c bc98 4f53 b5bf 8c3b 119b ccbb b13f
000000f0: 6af2 d193 644a 9ebf 649a fbf2 05c6 bbbf
00000100: 895a 7677 47e5 be3f 5acf 3323 af07 b93f
00000110: ed4b 12c2 2ad1 60bf 70fd 5bd2 9fb5 ad3f
00000120: 9abe b4b4 8898 bcbf 0f67 829d 53f3 be3f
00000130: 8c3d 082e 778a ca3f 3007 4368 c66c b4bf
00000140: 09a2 a180 4408 c3bf 4606 7d4b 2bfd a0bf
00000150: 8fa4 a1fc 4e20 a0bf d573 d478 1502 abbf
00000160: d769 2a4c abbd b1bf ac49 07b0 f3ca c63f
00000170: c5a5 c0db cac5 b73f 2844 14f1 fad5 c13f
00000180: 62e8 06af 509b c4bf 0865 96cf a0e6 603f
00000190: c4a0 5d3a a69c 24bf 3572 f29e db3e 77bf
000001a0: 880e f2e0 8fa8 9dbf f098 03db 598b b4bf
000001b0: ad6e 4c22 e3b4 b23f 2527 440f 4770 afbf
000001c0: a9df 3150 1a74 babf a701 f1fd 7b4d b63f
000001d0: c933 4594 6b88 b13f a0f0 d79c 9a38 b5bf
000001e0: 722b e180 f83e c1bf b8a5 d1d0 4082 c0bf
000001f0: 6957 43cf 0b9e c53f 0f8d c7fc d69b b83f
0.07549130459342612 -0.029393029535110075 0.1452054203441305 -0.1382763957648985 0.1724629307999715 0.1776254619371675 0.14608830016871777 0.06958171790253828
-0.07569236391077656 -0.1681991732564998 -0.10725626436117637 0.07718958006120252 0.04643342154299388 -0.09471399965947928 0.10093431236653981 0.0018909327735543008
0.017253555801049918 0.02264285281244277 0.12726884425163457 0.043004988356877924 -0.08921111540513198 0.15184111452946888 -0.14092818613943936 -0.12206129756491615
-0.09828534455412882 0.03148602115762473 -0.1137156235576939 0.00974367873152018 -0.0833024738206401 0.06927183900664441 -0.029580661318038194 -0.10849034483144632
0.12068602243958017 0.09777350053246661 -0.002052863609216518 0.05802630846846568 -0.11170248424309151 0.12090036960071536 0.207350633122115 -0.07978477521376415
-0.14868980675534285 -0.03318152710427262 -0.03149649461631398 -0.05275027370428346 -0.0693003712607728 0.1780686006082538 0.09286182274868 0.139342658724247
-0.16098984285582946 0.002063097080008295 -0.0001572564044025668 -0.005675180334176623 -0.0289633256002291 -0.0802513274862553 0.0730726202713707 -0.06140348492961171
-0.1033340879238255 0.08711981725446681 0.06848785753136534 -0.08289495782077205 -0.13473421376178468 -0.1289750117896753 0.1688856851603149 0.09612792655348222

arr_4 f8 [64, 32]
00000000: 1e38 9b8e d89a c934 2528 75a4 e051 ab31
00000010: 6264 20f3 4e8b 4ab2 0a1e 9f51 7416 403a
00000020: 598e f467 de38 09b9 5eaf fc2a 7299 65b3
00000030: bb89 bf1a c277 f230 0616 3941 c123 feb3
00000040: e3f9 39d3 c036 0f36 5f70 035e 2a18 c4b9
00000050: 24c5 a6d0 9a9b f1b6 90c8 4452 438b 8a30
00000060: 5377 870f 102d 4638 1943 4e4c bbe0 0cb4
00000070: 5a00 794a d8be ef37 fe8e 2886 ce62 96b3
00000080: 6731 3258 bd64 60ba 3c91 ccfe c588 d2ba
00000090: 1ec4 51e1 8ae5 f6b7 9dce 58c5 a891 9932
000000a0: b067 12e1 4ceb 74b1 8e44 859d dd54 21b8
000000b0: 2d1f b250 5f02 60b7 1aef 7d4f 2d00 8bb2
000000c0: b889 8a71 63cb de35 ba32 1674 a5ff 3d34
000000d0: 80ad 965a 2e14 d337 8f44 dca7 d80d 79b6
000000e0: 2b43 fb49 5562 75b1 c41e bd3b 8374 feb9
000000f0: a85f dcba c41d f0b0 ca0d 0573 78a0 283a
00000100: 25fd f2c5 a338 983f 1d19 9183 ae40 4abf
00000110: b3bc c1d6 1f9d 383f b277 de33 36a7 29b3
00000120: 7ba4 dc69 37aa a6b2 bbf4 b00d 637e 50ba
00000130: 3e67 aa8b b2d9 29b1 8e19 ec4b 501d 7cb3
00000140: 48f4 f07d 19d8 b2b1 625b 1f6c 2150 f63c
00000150: e8fb 1eb0 3484 e8b1 f490 103a b579 fbb5
00000160: 5ac7 c448 61b8 1831 1ef6 d05f b48d 8430
00000170: 3eab b782 a94c 5f3f 863d 258f 796e 0dbf
00000180: b8be 998b eb12 06b4 8844 324d 761e c330
00000190: d30f 5bf9 7fd8 00b3 50c7 f3b4 3056 5d35
000001a0: f6ae f7fc c0e0 f137 2d2d 7def a952 493f
000001b0: 00a0 46bd d364 7f3f 0ba9 eb9e f421 a4b5
000001c0: 14ed 91ec 9a84 4a31 d170 a78f 7c3b d0b0
000001d0: bd90 2ac9 371c 4438 f33a 90a3 3896 6dba
000001e0: d7be ccb4 d5e8 34bf c836 c3ae 6b91 e2b8
000001f0: 1e91 1922 8147 5d35 c2b7 4f5a 1e8f 323f
00000200: 5cef 2962 692a b7bf 38c9 3c98 e021 afbf
00000210: be2f 40f9 4eb2 c0bf 526a 993c ed22 6034
00000220: cbcf 2614 37e5 bb3f 0208 1551 700a cb3f
00000230: f365 34c7 9c43 aabf 3c42 6ff3 8f8b af3f
00000240: f8e0 64a2 af80 b23f 3bab 8386 0a11 a93f
00000250: 4e37 b7d1 3cdb 13b1 f372 41a0 338d dcb6
00000260: dfb4 54b1 4c63 9c3f 9ef4 81a3 ff67 f9b8
00000270: 29c3 95cd 76f0 cc3f 0828 4fb1 23cb c83f
00000280: 95b4 66d6 43de bf3f 126b 74bb fa89 d03f
00000290: 4299 e37a 849d 2138 6a99 be17 28ed d3b0
000002a0: 1122 b7ac 46ed ab39 7e84 240a ed1c bdbf
000002b0: 6edf a428 552a c33f ba74 0d1c 0c1a d33f
000002c0: f188 8583 73f4 4a3e d47e 10fe aca7 cf3f
000002d0: 8de2 e385 30da 1632 08e7 0a80 be7f d03f
000002e0: 4154 c2d2 e681 c23f 5557 6d84 b030 783f
000002f0: 527f 8be3 d6fc e7b5 9274 9e38 c2c5 c03f
00000300: 9c5c 8428 3c56 a63f 59dd f3e1 9737 9e3f
00000310: a953 a555 2106 cbbf 9c73 3016 723c 04b1
00000320: 7dac 61a4 abc4 eab0 19f6 82de 9de8 ad3f
00000330: 52b1 bd27 6c6f 4739 f05c ba3d 5a03 5d3f
00000340: eb57 45c6 6488 c43c b03a d979 a229 c3bf
00000350: 3e4f 8f60 e732 f932 3071 24a3 3caa d739
00000360: 2493 50ee e2df 853f e4f4 cb20 ef0e b9b9
00000370: 9684 44f1 7d7c c3bf e82b 2ef1 f59c c93f
00000380: 541d f017 b096 613e 630a 6786 a786 52bf
00000390: 2455 1ef4 1215 b035 6a6d a3a6 ca39 aab4
000003a0: 5335 a4db c056 6037 e6ab 6a1d 15a5 c4bf
000003b0: 22f5 18e0 e811 80bf 4ee0 04fe 3089 54bf
000003c0: bc84 c7eb fc1f 14b7 5514 8fbb 42a9 523f
000003d0: 3e11 521f 246d 1438 55cd 964d 9ccf b8bf
000003e0: 9527 f047 4291 bfbf 7b84 c0a0 b31d cb3c
000003f0: 7e72 6c26 706a af30 5d09 a817 ac98 a4bf
00000400: fb81 146f c49e afbf 3d54 f9aa 8c58 c0bf
00000410: e2b1 0479 a717 cdbf 128d d2cd 888b 9b3f
00000420: 563b dc5f b63f c63f 8cd5 0269 e433 c5bf
00000430: fe76 15e7 8f72 c83f bf2d fdf2 7f6a ba3f
00000440: 2672 7986 0c1d b1bf 7b52 f50e e78c c23f
00000450: e912 699a e1df 5abf 7a46 6486 4675 ccbf
00000460: 8689 59db e460 bc3f d8fe 33cd f31c 98bf
00000470: 4dc6 2dcc b4cc bc3f a42c 07e3 864d 90bf
00000480: 99d5 b727 26d3 cabf e251 7e34 98e6 a8bf
00000490: 9aaf 4091 e076 7cbf a45e a041 a249 00b5
000004a0: bfd9 0389 feab f1be 2193 45e2 7dea c4bf
000004b0: b19c 59ff 217b 9e3f 5756 cbf1 8b47 c6bf
000004c0: a3fc 417f 634a 8dbf f49e 95d3 35aa c6bf
000004d0: 9022 001f d936 ccbf 1753 70fd 7629 cabf
000004e0: 287c f3cf 7f68 a13f 0784 c458 c122 a0bf
000004f0: 5abe f54e 680e 8637 5587 96ad 7f7e cb3f
00000500: f2ae 37e6 481e b83f f480 6f06 8527 a73f
00000510: cbf0 6013 cc68 be3f 48ee 1728 8415 bd3f
00000520: a3c7 012e f1bd babf af00 f12a 967c b8bf
00000530: 2a50 1df6 1122 723f 72e2 bdbf 231c c0bf
00000540: 21f5 748e 4423 b43f 0a97 2c11 20d8 c23f
00000550: 1ba1 1ad1 2453 82bf b5ef c8ba 6e16 c8bf
00000560: 868b 5c4e 1316 afbf c253 0d44 46d9 99bf
00000570: ed4f b008 d58e cf3f 2534 d40a d7e5 cb3f
00000580: 1169 b841 3017 bcbf 7aba 4a9d e0c6 0d3f
00000590: abde bcc2 81b9 82bf 30fb 477a 7c62 4d3a
000005a0: 1974 c84b d60e 33bf 8163 55a7 99be af3f
000005b0: 03e2 251f cdc5 cd3f 906e 5c7f 2fcc 9a3f
000005c0: 6813 aa25 6345 8abf 5e40 1656 7e9f c1bf
000005d0: cf9c 6ec2 84a2 b93f f16f c02b 27a0 bdbf
000005e0: 57af aca3 fafe c93f 55bf d97c 7eee bebf
000005f0: 42ad 1d74 be90 7d35 f119 3332 6426 bc3f
00000600: 8b8f c3bc 06c9 cbbf 8ba6 a769 8efc c9bf
00000610: 350a ca4d e6f5 cdbf d82d 141a e794 ccbf
00000620: dff5 b979 82e8 c7bf f1bf 8f96 32fb 9cbf
00000630: 4c96 a611 b12f 97bf 20e8 985b 1a5f 93bf
00000640: 948b 03e1 32da c93f 6060 80eb 29e9 87bf
00000650: 5289 be62 2fcc 20b5 9ee7 21db 443a cabf
00000660: 166f f523 4fcf c4bf 067b 7678 93a7 95bf
00000670: c0f6 3e99 5ee4 c3bf b6b0 e794 1e8c cd3f
00000680: 8e5a 5a06 8bf8 a73f 7bf5 e2db b7ac c53f
00000690: 525b 8e14 8284 fb30 1202 a7ed 05c3 3b38
000006a0: e80f a769 59fd 62b8 c29f 47f3 163a c93f
000006b0: fa3e 84ad cc8d abbf 1236 2f3c 7ea4 6cbf
000006c0: 0ea8 7d37 5a8d 74bf 90bd fb7d 8462 c83f
000006d0: 3f1c 1407 a130 b5bf 47de e3b3 5aa6 c5bf
000006e0: 23e3 aa8a 39fe c0bf 298f 08be 0d01 c13f
000006f0: bfaa 2b46 1934 a3b3 d7bb 170e 4290 b83f
00000700: f520 55d6 9638 cabf a639 4bd1 ef96 c73f
00000710: 0adb fdfb cdd1 9abf 4bc4 35d8 4056 bf3f
00000720: 69d0 9a9c 06ef bd3f 5604 f45a 07bd cf3f
00000730: c64d cf95 4217 c53f 1e48 9019 7595 a9bf
00000740: dfa0 57e7 6914 b43f 3892 e86a 891d cc3f
00000750: 82ed a457 e141 7fbf c80a 71ba 8720 cebf
00000760: 6c9f 3a4f 6f4a 823f 753d 3f55 03c4 97bf
00000770: da67 a688 60ad c2bf eba1 4f50 4534 cabf
00000780: e569 7a03 98f4 acbf 31e6 3840 308d c3bf
00000790: 8485 a10d 6f51 91bf 2662 a23f e42f 44b8
000007a0: 2b2f 19e3 8fac f2be 264e 926f 1b34 be3f
000007b0: 2e27 4f64 27c9 9abf 1afb b3a0 220b c93f
000007c0: a445 1274 6f68 89bf bc8d 9bef e4bd 7ebf
000007d0: 3053 d8fb 8167 97bf b9bb efea a72f a53f
000007e0: d985 c2b8 80be a03f 7f90 6589 0f38 cbbf
000007f0: 68b2 0a48 53ef 9838 4f4b abfa da23 c33f
2.0884944046859684e-54 1.9791971950616277e-69 -1.9691562268081335e-66 4.061109553476876e-28 -6.07201021401819e-34 -4.200418303179897e-61 6.532754700995876e-73 -3.000953789506497e-58
2.669675402706326e-48 -1.9814604739231877e-30 -4.934765319319657e-44 7.335629552533168e-75 1.3033896829210508e-37 -5.750635237225165e-58 2.9153626263208838e-39 -3.482704869517142e-60
-1.65532191057204e-27 -2.395498402892446e-25 -4.205450498389544e-39 6.069799898056106e-65 -1.8943703504681515e-70 -2.546636009700686e-38 -5.743042845351936e-42 -3.2048361776911136e-65
3.292256632570494e-49 4.7790556269603853e-57 8.760570153671677e-40 -2.7428323323076185e-46 -1.936476729242498e-70 -2.402485941835315e-29 -5.700933116858145e-73 1.5541719717382374e-28
0.023653563458308064 -0.0008011676901638374 0.00037557627979984825 -3.1179701936536137e-62 -1.076080848880885e-64 -8.327189934871352e-28 -7.315398472933556e-72 -1.0934812709055437e-60
-2.7303436013946746e-69 4.954483486728014e-15 -2.8417652834851965e-68 -1.1749653938946479e-48 3.4977892162656225e-72 5.680120962598914e-75 0.001910367524824166 -5.613621205446521e-05
-4.395720263667207e-58 8.453879963063337e-74 -5.118704367611529e-63 1.2251569516588882e-51 3.283659855656831e-39 0.0007727937472536188 0.007664515597220145 -2.6904903342285954e-50
3.0017299723124603e-71 -1.435499296837247e-73 1.1819728659942578e-37 -2.987503514144883e-27 -0.00031905381620143724 -1.1175238208024741e-34 1.2227612131154442e-51 0.00028318873438492817
-0.09049090048386915 -0.06080533846251729 -0.13044154329725005 2.056545600213982e-56 0.10896629564268705 0.21125606497849964 -0.051297091786363234 0.061611650911463006
0.07227609362314869 0.04895813838978432 -2.809580576214643e-72 -2.0004634897038894e-44 0.027722547839563624 -3.0581654394991163e-34 0.226088381179147 0.19369932325054173
0.12448524460224271 0.25842159563187395 2.5883361066146005e-38 -1.762177933194699e-73 6.884502434770936e-31 -0.11372262475608072 0.14972938999721513 0.2984648012114338
1.2551847659070825e-08 0.2473045578526497 2.1190975620693417e-67 0.2577968836227318 0.14458928385707462 0.005905808945348164 -5.12906839506714e-49 0.13103511585805855
0.04362667078583479 0.02950894657712175 -0.2111245792572423 -1.4316544586638108e-72 -4.7344653833604477e-73 0.05841534939962063 9.026927660903873e-33 0.0017708188305841054
5.698993415173878e-16 -0.1497080893481857 3.828437138562011e-63 4.667095914900569e-30 0.010680935762204032 -1.2354713663267299e-30 -0.15223669319769745 0.20010256077179567
3.2761366057559583e-08 -0.001130736921923025 4.298425857867117e-50 -5.347843549636554e-55 5.861285848053718e-42 -0.1612879174839172 -0.007846659983551666 -0.0012534120979364074
-2.2560852607422405e-43 0.0011389877019934065 1.5006898989570555e-38 -0.09691788572563571 -0.12331022507001273 7.526208033128791e-16 3.472792545359012e-74 -0.04022729672216727
-0.06175817352255205 -0.12770231579148286 -0.22728436860178564 0.026899468958288493 0.1738193481509948 -0.16564612510198307 0.1909961584414574 0.10318755800579192
-0.06684950144831045 0.14492500524888272 -0.0016402915149608627 -0.22232896387190576 0.11085348468035336 -0.023547944450000496 0.11249856934389264 -0.015920741659823393
-0.2095687574325609 -0.048634296806230784 -0.006949307648067471 -2.1256351684085416e-53 -1.6853191994814625e-05 -0.16340611980845046 0.029766589365320232 -0.17405843073236113
-0.014302041359995526 -0.17706940490028666 -0.220423832070328 -0.20439040541591488 0.03400039113488901 -0.031515161596196654 3.1649208381638753e-41 0.21479793525673566
0.09421210880799061 0.04522338584479427 0.11878657792198337 0.11360956171841352 -0.10446078656403172 -0.095651040538544 0.004427023088130292 -0.12585875379933814
0.07866314390135588 0.14722061956961624 -0.008947646743152895 -0.18818458671910113 -0.06071529704629257 -0.025242898849075386 0.24654639171842466 0.21795166043048755
-0.10972882847309885 5.6794862449795335e-05 -0.009142888789582434 7.4177441318494245e-28 -0.00029080135189635394 0.06200103919645184 0.23259891529939133 0.026169531010153124
-0.012827658259320265 -0.13767985537970423 0.10013608691098173 -0.1157249910178846 0.20309384338303957 -0.12082663105115661 4.9388358774681476e-51 0.10996080613686111
-0.2170723363589072 -0.20301990660600597 -0.2340667610006492 -0.22329415105228523 -0.18678313201591742 -0.028301992835565618 -0.022642866804423442 -0.018917476502089525
0.2019713972759659 -0.011675193309244658 -8.768755327908037e-53 -0.20490322780443376 -0.16257657295033628 -0.02114706442591354 -0.15540678484642534 0.2308386065554992
0.04681810810614194 0.16933344113014556 9.734009530441293e-73 8.158462473484831e-38 -4.464444220590136e-37 0.19708525542159633 -0.053816219502662535 -0.003496405175133396
-0.005017616662238223 0.19050651694804488 -0.08277326987091359 -0.16913923057266997 -0.13275832434535415 0.13284465579010288 -5.97518700886631e-60 0.0959512028127699
-0.20485196557479637 0.1842937251989955 -0.02619096613440334 0.12240987089696025 0.11692849467618917 0.24795619908403194 0.16477234187060058 -0.04996839463287038
0.07843648813252767 0.2196513912214344 -0.007631187671275243 -0.2353677425727112 0.008931035619141624 -0.023208667829576386 -0.1459160487400471 -0.20472017690123265
-0.05655360262354118 -0.15274623046734484 -0.01691220780083348 -1.1864897220194184e-37 -1.7808981459573714e-05 0.11798259233392425 -0.026157966134440595 0.19565232130840898
-0.012406225900380381 -0.007505316048738771 -0.02285578822746287 0.04137921088101088 0.03270342116708109 -0.21264833649468426 4.689726781746162e-36 0.14953171958640118

arr_5 f8 [32]
00000000: e254 01aa 4be4 b73f 4556 68cd 3198 c13f
00000010: 83a1 f9d7 30bd cbbf 6a34 d466 f19b c93f
00000020: d35e 8bc9 98f6 cbbf 45e9 e484 660d c83f
00000030: b5d7 6503 ee87 cdbf 5323 cfde b34d cf3f
00000040: b0fe 7a83 790b cc3f 02dc c33a 5f94 c83f
00000050: 5057 f046 a01e c4bf 40fc fca0 556f b7bf
00000060: c5a4 ecd3 8681 bfbf 077c 8d96 c0d5 9e3f
00000070: dbee 8696 3bd3 bb3f 1c6f d651 72cc a83f
00000080: 1a2f a336 3a06 c33f bd29 932a b22e b6bf
00000090: e4d3 e0c0 ab5c c33f 00df 490d b765 97bf
000000a0: 5dd0 4113 ff26 c1bf 8b3c ddb3 10d5 b2bf
000000b0: cfbc 81c4 3819 c2bf 36d6 af32 2656 bfbf
000000c0: 97a0 748e 41c5 b93f 94ce 8565 2ac1 ba3f
000000d0: b4e1 9b0c 1de2 babf 10b2 e990 7d45 d03f
000000e0: 94e6 60c0 273b acbf 1e5e 70de 959c ccbf
000000f0: 809f a192 962c 65bf 64a1 c5d1 b2c0 ca3f
0.09332726383702863 0.13745710878053977 -0.21671114488277618 0.20007150193160622 -0.21846303788219376 0.18790894974683617 -0.23071074644002257 0.24455879573204217
0.21910017890876565 0.19202795380962817 -0.15718463386354609 -0.09154257946373523 -0.12307017015395434 0.030112275303846327 0.10869190621354667 0.04843480347628157
0.1486275450500834 -0.08665002383637606 0.15126559179193955 -0.022848949609822533 -0.13400257530486473 -0.07356361762252754 -0.14139470667894335 -0.12240828263733125
0.10066613891524621 0.10450997332173478 -0.10501271779856475 0.2542413630642679 -0.055138818963723996 -0.2235286079528444 -0.002584737861116737 0.20900569193623675
