weights/hospital1_weights.npz (npz, 134546 bytes, 10 tensors)

arr_0 f8 [43, 128]
00000000: 5c69 f1a3 a5ff c13f 6885 6b87 acd0 bbbf
00000010: e759 4eaa 963c 2a94 7c0d 7dc8 2cf9 c8bf
00000020: 6072 f4ad 7d49 c2bf c17a 9818 e73e c3bf
00000030: 35a5 8cd2 ca16 99bf 1427 f75c 65fb bda5
00000040: 23e4 0405 2f18 babf f155 ac53 193e ccbf
00000050: 242e dca9 af1d bf3f c893 ff8f b6b3 b1bf
00000060: 354f e5c2 fe48 c9bf 7857 21a9 7db4 963f
00000070: 52e4 5ddd 61f7 adbf 6cb2 5c92 58d8 c53f
00000080: 2bf0 4f36 bb8c c7bf eafc 7925 e86d b7bf
00000090: f73f cac4 f1e3 b1bf 18c6 2012 398b b0bf
000000a0: b763 9a0a 55f3 8d3f 40c4 e5c0 fb8c cc3f
000000b0: 9d18 c1b2 8c06 b2bf e048 6531 91c6 af3f
000000c0: 0e51 e855 8c90 d4bf 87e2 a446 c8ac 96bf
000000d0: 2b6d 5c99 428f c4bf 10e0 d4a8 38b6 c23f
000000e0: a924 61dd a13c b83f 175d 8de1 0df1 c3bf
000000f0: 8e04 6cbc a72f 4f13 230f 134e f6de bbbf
00000100: 3513 dc96 1e0e 963f 275e 9251 031c c1bf
00000110: a9de bbb5 0201 b6bf 0e5c b239 19ac be3f
00000120: bdd3 6349 8053 c9bf 3423 d215 084b bf3f
00000130: 09ec a083 fe46 e1bf 63fa 4ef5 1c8b 1cbe
00000140: bdde c70d 3a2c c93f b0dd 903a 83e4 c7bf
00000150: e3b1 fbcc 13e9 b7bf 94ee 453c 7a42 d2bf
00000160: 85da 2104 2b7e b53f 6d73 78a8 697b c0bf
00000170: 2db0 16c9 520c bcbf 717b a1bb 896e c43f
00000180: be61 c53a 5334 c1bf 8181 8337 bec9 c53f
00000190: 38a7 d913 f483 9b3f ef23 b4ed c276 c53f
000001a0: 48c0 c252 b37a 9abf 5d2a 6a77 9a41 a0bf
000001b0: 1674 fa92 7a20 b23f 9564 b34d 3ca7 bc3f
000001c0: 88af 3849 6efa a6bf 3ffe b03b 96bc a73f
000001d0: 0419 19ff d071 11bf fa73 e8e3 d687 b2bf
000001e0: ef21 0b07 d9e9 c03f 1874 ae62 477b c3bf
000001f0: d73a 16c8 4762 b63f 11ad fbe6 4b0d b53f
00000200: 535d e33a 9517 a23f 5be3 c7aa 142b bd19
00000210: 1840 fce9 bad1 3d2f 28a1 64ea 724d b8bf
00000220: 2baa 5c3b 8a99 4699 975f fb84 1057 be3f
00000230: 702a 468b 9bdb cbbf e027 128c 3fdb a63f
00000240: c72f 3ae2 2f3f bebf 5ed9 a1f3 556d bbbf
00000250: 108e e17d d403 dcbf 8dea 457e 18c6 b8bf
00000260: a50d d858 7bef d2bf e49a 06fc b513 d0bf
00000270: 31ea 2c2a acfd 5bbf a775 ba87 10be c5bf
00000280: 6a5c f792 f0f8 c9bf 574f bd2d e784 b53f
00000290: 6554 64c9 d62d c33f f65d a182 272b cabf
000002a0: b865 9e8a cea1 a9bf 75db 6eb3 eb84 a1bf
000002b0: 4f36 7f5a aaaf d698 7e4c 3326 7f80 a53f
000002c0: b1ad 8a46 1075 b1bf ea0a c4fc 45b7 ccbf
000002d0: bdbe 7a25 d554 7abf 0512 a321 a588 a3bf
000002e0: fb60 d249 83bb b5bf d415 aa16 4335 bbbf
000002f0: f605 64fa ab64 98bf 39b3 d59d 8b7c a0bf
00000300: a22a b905 7552 3019 b0f9 29fd 8e58 d43f
00000310: 1e2f 250a 31c4 cd3f 81ff 5a5f 729c 963f
00000320: cf6c 4f99 8074 af3f 5318 b646 186f b6bf
00000330: 0900 a762 1c46 be3f 4243 3efd 5776 5093
00000340: 6ade 6e0a 0d75 c13f 7d5d b57e 10e4 4dbf
00000350: 7a7f fc37 3ef9 d0bf eb9f f5a0 4386 d03f
00000360: 87c3 a05f d6ac 54bf 26f8 78b3 227a b3bf
00000370: de6e 357d 65dd c9bf 0b06 e999 6f1b af3f
00000380: 44f6 9c20 b8a8 ba3f d1cf 9291 832e ba3f
00000390: de76 b251 d92b c53f 9400 2a3c fc56 a2bf
000003a0: bad7 418b 3c8b b0bf 8891 c03f 8f4c 54bc
000003b0: d79e a148 93e9 c0bf fa88 94fa f8fb b73f
000003c0: 6e8e ceaf 213c b1bf df27 fbb7 82b6 c73f
000003d0: e98e 8d61 0f4b b23f e56d 3e9f 8c19 91bf
000003e0: ea43 168e d4f8 ab3f e8a2 49fa ed07 cebf
000003f0: 7249 39ca eb51 a03f e743 ea2f 1a9e 9cbf
00000400: 84da 0af5 45af aebf 8a8d 109a 9f52 d1bf
00000410: 18b8 1c60 b894 1316 5efb 5579 e93f a43f
00000420: 4d9e be95 ce59 d53f accc ac5c 38ca d03f
00000430: 0416 6699 0196 aa3f 0abe 2079 aaaf 09a1
00000440: 3ac7 9def 44b9 b03f fa31 a0f4 35d4 b43f
00000450: 38d5 59b0 a752 b83f 6cf1 1881 4370 d63f
00000460: ae27 61b4 6bc1 c63f f5f1 f70e 2c0c d1bf
00000470: 3791 df75 611d b0bf bd14 fb76 66cf cd3f
00000480: 1b56 ba37 07a5 dfbf 87b6 db63 9a5e da3f
00000490: cfc1 89e7 ee6a bcbf 8a0f 8403 2014 d7bf
000004a0: bc70 b02e e263 a73f f3da 18a3 5bbd b33f
000004b0: c0da 9439 bccc d63f 33e5 96ca 2db1 a23f
000004c0: 2c63 a207 9909 d8bf 892d 61e1 19e4 d7bf
000004d0: a3bc 0de0 0228 b2bf f47e 1b94 b717 b8bf
000004e0: 12c0 12d5 5b53 cc3f 3ea7 6518 3d07 d1bf
000004f0: 6208 1eb8 2072 2296 07ab 3cbe 2d6d ca3f
00000500: a9ea c491 bb37 a53f 74f5 7f5e 61c7 c7bf
00000510: cf96 bd2f 83b6 d23f 52ef 5453 2d7f abbf
00000520: 573c aa41 42f8 b43f 9031 912f c5dc 8abf
00000530: 1cd3 c0f3 bad5 bebf 43e4 3aba 3c7a f0b9
00000540: 7905 18e4 28f5 cd3f 7422 8b09 c71b abbf
00000550: f65a 585d 4870 d6bf 90db 98d3 e0a2 84bf
00000560: 85ed dbea a341 c93f f528 0123 92de c9bf
00000570: c403 133e ebc2 cfbf 76bf e98d 5082 a4bf
00000580: db33 fd17 d2ca d0bf 74bd 18ef 04b7 ba3f
00000590: cfe7 280f e811 abbf d95f 77d2 4d24 d8bf
000005a0: 66b4 e3be a013 c83f ec8b 5ee5 b554 c2bf
000005b0: 1ff0 3a8d 14fb d6bf 391e b390 0057 b4bf
000005c0: 80af 2af7 1d50 d43f 32a6 22a0 3b82 b6bf
000005d0: 7912 6d1b 4954 b4bc a059 4468 5d91 c53f
000005e0: b643 f506 82d6 cabf 8163 1ed0 42ee c9bf
000005f0: f340 e094 b364 c53f 3363 8187 d882 afbf
00000600: e1d5 7a57 aada a9bf c44b 4236 ec44 8018
00000610: 6908 d1ba 1aa8 08a1 4d33 0ed5 c290 c53f
00000620: 964d c17b 2f2c 5093 2797 3d44 3243 a13f
00000630: 6161 0def a4d2 79bf d218 2eff f1ad cabf
00000640: b638 7d50 f2da dcbf ced6 e69e 3cec aabf
00000650: 7d5c a316 32b1 c1bf 5c8a bacc 820a ccbf
00000660: d9fc b468 7edd d43f 24a0 f44e 46af d1bf
00000670: a7ad 9e65 1131 97be e39c ab10 a5b6 cd3f
00000680: 2eca 0f1e baa2 cdbf 37d2 61b4 0219 913f
00000690: 3bb1 cb89 c4b0 cfbf 5e16 a41f 7d25 ca3f
000006a0: 3fb3 5d45 cb12 dabf 62e4 c730 4420 b2bf
000006b0: 8ebc 95a2 5f0e 7018 c77b 0735 eb98 cfbf
000006c0: c9b2 0fe2 d857 cd3f 0908 04f9 edc1 c23f
000006d0: ee48 ec2e 6bdb 943f 6ee0 54c0 ad53 c2bf
000006e0: 820d c64e 88d8 a0bf b521 6b29 7b16 a13f
000006f0: c7d9 c3a4 0cad b1bf b10e 8047 54a4 aabf
00000700: 572d 4bb7 db98 3596 c333 9e67 7426 d63f
00000710: 54b2 c840 90e3 c23f a718 a35c 1922 c7bf
00000720: 2b1e 1d12 d70d 96bf 4914 27e2 f640 aebf
00000730: 26c3 b6cc 4d26 cc3f 8719 8800 178e 3319
00000740: 4cf9 95dc c9ee 8bbf 13db a134 4ba9 e6be
00000750: 87b8 d837 3953 db3f 6e73 bcb1 6c09 2bbf
00000760: dad5 b599 a2d1 c4bf 2b1c 4428 dc80 b3bf
00000770: fa4d 69a8 848a d53f 82d4 f54b 5938 ddbf
00000780: 2088 4167 ec9d ccbf dec3 f328 d56f 4ebf
00000790: b1b8 f8e7 225c bb3f ad58 bee0 851d b3bf
000007a0: 63b2 c37b dcb8 963f 3de6 4a96 e2cb c12e
000007b0: a4e0 743d e602 d13f 5a29 ae2b 952f dabf
000007c0: 22a1 11b9 fe46 b2bf 7031 b905 bec7 c43f
000007d0: 9225 e913 7a2f d7bf 2bd5 eb41 ebc6 59bf
000007e0: c9a3 c089 c5e7 bd3f bf08 0b3f 6a10 d1bf
000007f0: 2a4c 4e3b a446 d3bf 7bbb a9ee a801 c6bf
0.14061422829656578 -0.10865286165382815 -1.558697487838938e-211 -0.19510421552159218 -0.14286776536836765 -0.15035713864286573 -0.024501008129992747 -6.920582684321355e-127
-0.10193151352440614 -0.22064510903935244 0.12154672524427973 -0.06914845481476484 -0.197540135539947 0.022172892997637444 -0.05852800204497356 0.1706648554476432
-0.18398227836576217 -0.0915207950110816 -0.0698844056553297 -0.06462437336519888 0.014624275575714536 0.22305247229408742 -0.07041243900411805 0.06206182220434342
-0.321322521108656 -0.022143487273953013 -0.16062195289928502 0.14618595355727892 0.09467517523548231 -0.15579389107981775 1.1308237615783814e-215 -0.10887088209261413
0.02153823657774297 -0.13366738780017437 -0.08595292031156511 0.11981351526843317 -0.19786075194829592 0.12223864109740817 -0.5399162836905599 -1.661445166544304e-09
0.19666219399345222 -0.18666115150129547 -0.09340022806617969 -0.2853074635129158 0.08395642138371258 -0.12876625753497298 -0.10956303986921574 0.15962335263881358
-0.1344093358009228 0.17021920881871824 0.02687054988056234 0.16768681151032136 -0.025858690191569417 -0.031750514103880724 0.07080808723772267 0.11192681214324048
-0.0448793854123713 0.04636067846922431 -6.654584992657828e-05 -0.07238524498139035 0.13213646739883653 -0.1521996719210683 0.08743713984425071 0.08223413838611672
0.03533617347573661 1.0725895278300713e-184 3.929506548121604e-81 -0.09493177626120952 -6.492569902880641e-187 0.11851599928502164 -0.2176393919038051 0.044641481255055515
-0.11815165780188784 -0.1071370811276657 -0.4377337674434054 -0.09677270014609914 -0.2958668105713634 -0.2512030564488852 -0.001708429460178917 -0.1698628103958246
-0.20290953804098716 0.08405918947874845 0.14983639558400622 -0.20444196585115976 -0.0500626129352883 -0.03421722951264076 -5.091718165879584e-189 0.04199597684205346
-0.0681924984189013 -0.22434305994109788 -0.00642855892480981 -0.03815189395530542 -0.0848924689511285 -0.10628146460847826 -0.023821532399784538 -0.032200205819071966
2.3445456324956055e-187 0.3179051849655492 0.23254979129193826 0.02208117205623195 0.06143571731055319 -0.08763267256117162 0.11825730713371753 -1.1938591719603365e-215
0.13638461121967121 -0.0009121971647045171 -0.2652125879994781 0.2581948348874891 -0.0012619107715290138 -0.07608239061025354 -0.20206898320872474 0.06075619462763989
0.10413695141047535 0.10227224639930844 0.1654006623183965 -0.035819895118948925 -0.06462458038171706 -4.401657165221864e-18 -0.13212815329028757 0.09368854634934456
-0.06732378523025215 0.18525728209925682 0.07145782596267804 -0.016699025363420623 0.05463279947719697 -0.2346169921977641 0.03187500804473843 -0.027946862387185602
-0.059930978929902984 -0.2706679348504727 2.4981379816858555e-202 0.03955010992193907 0.3336063825940741 0.26234253931324747 0.051925706839977465 -1.569393820704763e-149
0.06532698488242952 0.08136307928379685 0.09501121573869831 0.35060203177615423 0.17777773196786256 -0.2663679262330157 -0.06294831397787425 0.23289185342415478
-0.494447521611933 0.41202411414892776 -0.11100667145524955 -0.360603335793933 0.04568392581879396 0.07710812312948771 0.35624604819478733 0.03650801752105295
-0.37558580155887245 -0.37329718599058787 -0.07092302293834733 -0.09411189428237404 0.22129390624968487 -0.2660668123486295 -4.706636846036164e-202 0.20645686901965396
0.041440831703274235 -0.18577210535287814 0.2923896757332444 -0.053704658911071804 0.08191312888287548 -0.013116398347982977 -0.12044876528746012 -1.299844698890438e-29
0.23404418122667517 -0.05294630042550788 -0.3506031905721295 -0.010076290566855467 0.19731568305710936 -0.20210482320027948 -0.2481359532448818 -0.04005672199571013
-0.2623791918056761 0.10435515248604138 -0.05287099061065669 -0.37721581986761304 0.18809899636054012 -0.1432101602523227 -0.35907472412123015 -0.07945254833895711
0.317389956830759 -0.087924696536583 -2.8212488631832334e-16 0.1684986838451552 -0.20967126216649284 -0.2025836483196848 0.16713566560111523 -0.06154514936560531
-0.05049640958661051 1.1410895647713622e-190 -1.5064904142005843e-149 0.1684802570638574 -1.1728512798135464e-215 0.03371579249396311 -0.006304401657722587 -0.20843338928188487
-0.4508634363200018 -0.05258359374731257 -0.1382200823343033 -0.21907076832310934 0.3260189077881939 -0.2763229151773905 -3.4558283845228497e-07 0.2321363765142684
-0.23152853458266648 0.016696970233583932 -0.24758202293686246 0.20426906628579194 -0.40739709638619453 -0.07080484572351645 5.630722017951741e-191 -0.24685421075170508
0.2292433837714241 0.14654326113674213 0.02036826585669698 -0.14317867175282423 -0.0329020115050538 0.033374642187087224 -0.06904677412590053 -0.052034982421927174
-1.1021441638023152e-201 0.3460970889944372 0.14756968653945768 -0.18072812102599764 -0.02153717086846833 -0.059089388948941286 0.2199189424113907 2.8089330020576274e-187
-0.013639046711202106 -1.0805751703408335e-05 0.4269545598389261 -0.00020627452692503371 -0.16264755730996577 -0.07618499739702204 0.33657947966022983 -0.45656425874705786
-0.22356944124027311 -0.0009288588352359647 0.10687463916176189 -0.07466923462775084 0.022189564756376245 1.832162574454386e-83 0.2658019638215683 -0.4091542173925028
-0.0713957979038509 0.1623456504770604 -0.3622727579537123 -0.0015733048855371505 0.1168178044614613 -0.266626893582849 -0.30118661681734926 -0.17192565587489725

arr_1 f8 [128]
00000000: 756c a3d2 798b a1bf aafe 8ab2 08f9 ab3f
00000010: 005c 0cd1 59c9 43bf 56b3 6a00 2dc4 b9bf
00000020: 3f1d 5fa5 f6f5 afbf 9827 435f eadd cbbf
00000030: 9b90 e2dd a952 7a3f 74c3 f806 a5bf 9cbf
00000040: a818 4d1e c889 c6bf 5161 c724 57b1 a4bf
00000050: 0fa3 cd17 9778 91bf 06fd d8c5 d11f d1bf
00000060: 5a39 2ae4 f607 85bf d803 cd52 682e c03f
00000070: 8341 28e0 8047 b5bf a268 f1c2 8373 a1bf
00000080: 89d2 618a f61c 983f 5eb2 9c98 a1b3 b8bf
00000090: 165d 844f 0a4e 8abf f7fc 4a9e bec2 cd3f
000000a0: 5289 d8ab 4220 b33f 4bc9 0618 7334 cb3f
000000b0: c33e 0161 6b8d bd3f ee6d a9b6 71fb a3bf
000000c0: 6892 a76d 1cc6 c5bf e09f dbdd 9ede ba3f
000000d0: 389e f7c2 f5f6 d0bf a462 5169 4790 a53f
000000e0: 9e6f 6a77 923b 9e3f 5eb1 367d 715b cebf
000000f0: 1873 5db4 e001 bebf 5d57 d685 7bb9 5bbf
00000100: 2671 3df7 a6ed ccbf 5e54 ff49 5d55 a93f
00000110: a89e 297f 23dd b8bf a50f 998b 8dec a93f
00000120: 15ab 6e3b 773d a3bf 01a1 670e 48c2 dd3f
00000130: 2fae df00 a7a7 d5bf f271 74b3 e577 c23f
00000140: 693c 7d6b 4e21 bf3f 6821 94ae 675f c1bf
00000150: 0b03 e4d7 23c6 bbbf e5e6 4ab2 0e63 c43f
00000160: 645c 1b3a e3ad b7bf 0ff8 b1a4 5873 b8bf
00000170: 1889 a634 70a5 cdbf b742 753f 806a ccbf
00000180: 73e7 c05d 9ad3 b83f 7d34 f030 1719 c63f
00000190: 1658 0d22 fe2c 9e3f 01f4 74ba 25a4 cabf
000001a0: c3f1 4bac 824e bcbf d3ef 0a28 6d54 c9bf
000001b0: 13d8 7a0c 0e97 c03f 4f15 37ef c543 bdbf
000001c0: 7ec9 f1a4 3279 b03f e162 4d2c de7e c03f
000001d0: 081d 8c9e 1509 a03f 8033 5e89 f10e c8bf
000001e0: 7575 727b cdff b2bf 8d20 d4c8 71d7 8d3f
000001f0: 5929 ed0e 84ee 963f 2a3e b926 260e c23f
00000200: f071 4931 710f 943f 247f e0d9 a974 c2bf
00000210: 78d0 ac6b b108 b33f 69b9 6c81 f67f ccbf
00000220: 28a7 b193 3066 97bf 6062 e086 a89e a7bf
00000230: e28a 22ef 0473 96bf ecf4 f7f0 b960 d53f
00000240: 35b2 e785 180a a73f df6e 16ba fbb6 cabf
00000250: b4bc d60f 08d1 d83f 6bc6 5e80 325b c3bf
00000260: 3ef4 6eff 465f d43f 1176 e9fc 9087 a33f
00000270: 9438 72c9 0c72 b93f 36ac f855 9603 c23f
00000280: 0c43 dd3d f23f c5bf 46e6 e319 2c41 b13f
00000290: 02cb 84e4 1546 c23f 1951 3e04 978a abbf
000002a0: 8208 cb3a 2ebc c83f 9d86 220e ddab c6bf
000002b0: 387f 8b1f a6eb aebf b2cf 074a 9465 c23f
000002c0: 9194 9ccd c658 c1bf d1bf 8b47 31ac cb3f
000002d0: 1f17 0053 035e b5bf 6881 e99b f5cc d03f
000002e0: 9f09 1183 ec29 a9bf ee39 5ac1 a9a2 9b3f
000002f0: aa88 8339 21ef a1bf 2b10 fea8 9cfa 92bf
00000300: 225a a881 d385 c5bf 5eeb 9dd8 595b 973f
00000310: 4f91 5268 5fb4 a2bf fced 624f da5d cdbf
00000320: 6bab 43a4 3209 b8bf ea80 2a0b 6b83 b8bf
00000330: e454 1e10 7482 cfbf 7898 ce2c 9854 abbf
00000340: e16a 7028 5937 b03f 7bfa 1af7 818b b23f
00000350: a7e6 6a8b e005 c73f 0170 59be fcb2 a23f
00000360: 54db 167d 5e51 9dbf fc89 b554 a613 933f
00000370: a9ba e571 11b1 463f 8d9e 1544 3c88 c3bf
00000380: eb58 977a 201c cfbf 3969 c1e8 299c c83f
00000390: 77ce 4a69 9c28 a53f e0c2 7655 b3fc bb3f
000003a0: e071 1c1c fd52 bcbf 03b6 432a d64d c4bf
000003b0: a41a 581a 6390 a63f 4710 89d7 cd8c b33f
000003c0: a7a8 d918 7513 c73f d917 e212 142e 803f
000003d0: b124 1b2b 4a16 c53f ffa2 3d5e 91b7 b23f
000003e0: 1f83 a92d 09e1 d93f 7b7a 01a5 a279 a03f
000003f0: 68d3 1ddc 69a0 c23f 29a2 af77 f907 ac3f
-0.03426724144238672 0.054634353441995145 -0.0006038368756858814 -0.10064965496230846 -0.062423427283244674 -0.2177098240993558 0.0064264903468577396 -0.028074816275139594
-0.17607976417111115 -0.04041549991569816 -0.0170615776327479 -0.2675671035867285 -0.010269097173730191 0.12641624491700898 -0.08312230560864546 -0.03408443216967895
0.023547985263990632 -0.09649095512276903 -0.012844162513415951 0.23250563363215068 0.07471100516753396 0.21253813431901344 0.11543913954050837 -0.03902774195440971
-0.17010836939074925 0.10495942036106909 -0.26507324256678855 0.042116386038008075 0.02952412465911857 -0.23716562856624085 -0.11721615222399995 -0.0016921716954576207
-0.22600256988779072 0.04947940376556724 -0.09712430815272433 0.050632880488165534 -0.037578321461600485 0.4649829998657112 -0.33835768781020453 0.14428397428936496
0.12160196422813531 -0.13572402977321052 -0.10849212666290613 0.15927299218838367 -0.09249706429123844 -0.09551004429701514 -0.23161127634836798 -0.2220001516202694
0.09697880543617803 0.17264070405545687 0.029468508556725302 -0.20813438038194934 -0.11057297426663752 -0.19788898902140648 0.12960982903831617 -0.11431538667883
0.0643493321129309 0.12887169993589168 0.03131930885688844 -0.18795603949947903 -0.07421573890538531 0.014571083966544296 0.022394240771327876 0.1410567940788366
0.01959015715907414 -0.14418528688929044 0.07435139540467783 -0.22265511817517883 -0.022850760473750814 -0.04613234182778991 -0.021923138709676666 0.334028706856613
0.044998899789650805 -0.20870920740423224 0.38775826975593053 -0.15122061985089216 0.3183152670351922 0.03814366423896954 0.09939651411170508 0.14073447416135004
-0.16601398487775787 0.0674006999214721 0.14276384027615313 -0.05379173208999272 0.1932428156924893 -0.17711985769442587 -0.06039160857267095 0.14372495283862247
-0.13552174605971293 0.21619239800884185 -0.08346577431083489 0.262509729631367 -0.0491479787820197 0.02698769800786665 -0.035027540465095555 -0.018534133734206797
-0.16814655142725693 0.0228094137632796 -0.036532384380992704 -0.2294266593579407 -0.09389034757957197 -0.09575528166397232 -0.24616862093959135 -0.05337977930985088
0.06334454762729137 0.07244121821256926 0.17986685569285507 0.03652181457138682 -0.028630710968822484 0.01862964527152576 0.0006924948864204988 -0.15259507488666593
-0.24304586397074188 0.19226573815360284 0.04132546220116933 0.10932465397378222 -0.11064130722338161 -0.1586253839845285 0.04407033630927984 0.07636724960417594
0.18028129304304238 0.007900387598294078 0.16474272827898553 0.07311352301406869 0.40436009844965953 0.032178003923708474 0.14552043197513886 0.054748340473285424

arr_2 f8 [128, 64]
00000000: 3aad 3ffb e7d7 63bf ee6a 0b69 f60a 37bf
00000010: 0a49 a554 8ca2 60bf e72f ea22 3ef4 9d3f
00000020: 9149 a1ff c49f c13f 266d 159b ebb9 adbf
00000030: d64b 0939 ec2c a0bf 71ad 8c6d cfd3 c13f
00000040: b27e 0556 6f8a b43f ac86 6bb7 f25f c23f
00000050: 8784 cf4d 2a66 1619 73b9 00e3 520f 9ebf
00000060: 650f 7301 0eb6 a4bf 8ec3 bcae d0e7 a5bf
00000070: b9f3 5fe6 7b80 75bf 2d10 5ad3 e37d 60bf
00000080: 786c a6c1 d850 b43f 063a b76d a562 bf3f
00000090: dd59 77d7 e815 963f 39a0 3e94 ba6f c2bf
000000a0: 3d6b d950 d3f6 91bf 1382 60a4 6d9b c7bf
000000b0: 4423 1cfb 2edc 7a3f 8d60 53cd fc11 c7bf
000000c0: 20f2 56a3 97e3 a63f b7be ae89 ad6f 9abf
000000d0: 49f1 8fe7 fe13 c03f 5483 6cdc 44b6 bebf
000000e0: cea9 85fb c4fe c1bf e7c3 6b8d 14b3 af3f
000000f0: 77c4 0e10 cb4d c4bf 0f20 895a d93e c4bf
00000100: 48b5 fef2 dedb bb3f 5278 8cc5 7ec0 843f
00000110: c093 8b88 0df6 72bf df99 547a 1671 863f
00000120: 8a63 a7eb 0cc2 c13f 5ab8 1627 442f b33f
00000130: ab49 00ee 38f3 c33f 9dc4 66d7 970f c13f
00000140: da4e aa9e 8e66 c715 0e9c fc5c 405e a2bf
00000150: 1f52 6d80 77b4 c03f c67f b001 373b c53f
00000160: 6872 509e b16a b1bf 8205 7aa2 6416 a43f
00000170: 1be5 33d9 d062 52bf 18a2 de63 a8a6 8c3f
00000180: 43d3 d4d5 c210 c7bf 43a7 13c4 cdec b5bf
00000190: 4700 c2a2 5591 b83f 1f36 8faa e7e3 b03f
000001a0: 9795 6b26 b59f c494 3567 2d23 8f8d c6bf
000001b0: c319 90df 79ba 89bf 827a f67e 2f2f b43f
000001c0: bb3d a3da 2eb6 a2bf b38d f9f2 25b8 b0bf
000001d0: c06b d8fe 28cc 7cbf 3bf0 a3bf 73dc b6bf
000001e0: 92a7 013c e4bd a83f 8d82 aa6d 233b bd3f
000001f0: 689a 6374 6824 c23f bf23 8615 9ac7 c1bf
00000200: 3bec b8b3 85a5 7c38 4e2d caa1 0093 9abe
00000210: 607f 1bd3 7b16 88be e678 f995 12b4 3b14
00000220: a49d 7fa6 7828 973f d237 f137 389a cabf
00000230: 411d b47c b91d c43f 12cc 4bdc efb4 b03f
00000240: a3b9 51fc ac5f c2bf 7824 981c 616c b03f
00000250: 3180 0831 9383 9216 5139 54f7 9268 8b14
00000260: 860a a5c1 efa6 b7bf 438e bf12 61f8 f897
00000270: dcdf 576f 44dc a1bf fc6c 212e b52c f393
00000280: 48b2 5117 0dde aabf ae6d 160e 4366 c9bf
00000290: 6b97 2219 aaa7 45bf 1ede 80d9 3855 693e
000002a0: 79f2 f571 05d3 4217 d818 0aef e55d 94be
000002b0: 74de 9d6e 143f c93f 11d8 90f6 bf8b afbf
000002c0: 0150 b5fe 8668 b53f bddc dbe0 a723 aebf
000002d0: 068d 0be1 cb24 b4bf cbec af3c 9fee c2bf
000002e0: 48ae 91fd 9861 b23f a2f0 e26c 7ecd c1bf
000002f0: 5fd0 3c5f e7fe 2799 15d2 47c9 52a6 b73f
00000300: 2d30 0331 1bd5 b4bf ed0d 670a 40f4 a33f
00000310: e970 f16d 1fc9 262e e6cb c1c4 70c8 a93f
00000320: d11d 2c66 9b19 a1bf f282 f07a e820 1d3b
00000330: a0d0 0981 3956 923f 8321 e4c1 8e5a 4e3b
00000340: 5500 8964 6048 e714 a99a 1e8e c324 c095
00000350: e8d6 83a3 592b 55bf 6569 260e c998 c4bf
00000360: e733 08a0 4d10 b63f 48e0 b351 fed4 83bf
00000370: c826 e601 4815 c4bf 6a44 1895 1bd6 9b13
00000380: 9b45 c6d7 9fa7 a4be 05d2 df64 2355 b53f
00000390: f5c7 3b49 28c6 91bf 2632 ae80 ec5c 30bf
000003a0: 04b2 0185 4cb0 f795 78dc c1a7 f18b 6e3f
000003b0: 60d1 0623 e525 7016 24a5 3cee 8faf bb3f
000003c0: 59df d7ba c1f6 523f 0925 bb9c 0440 c83f
000003d0: 51fd ba89 9526 b198 0874 ea06 7b47 bdbf
000003e0: 8583 af45 d147 aa98 e3dd 6485 d7a3 d218
000003f0: 9969 0f4b 723a afbf a8fd 909e 0f52 bcbf
00000400: 7c68 440c a612 6016 8e85 0ba6 b558 9a94
00000410: eb2f 0ae9 9fb7 7114 0adc cfe6 b8b6 2398
00000420: 93ca 260e 210d 2113 8eba 9d33 8427 5393
00000430: ed15 b48d fb95 2293 2971 d307 c057 d313
00000440: 7fd4 4453 5166 3993 f8b6 18dd 25b3 b094
00000450: dfbd 99ed a20f 1413 6ad0 dcca b0ab 5c95
00000460: 6193 9b84 dd34 e416 7b42 b897 1368 6993
00000470: 7e8b f14f a80f 5a93 9d92 d3b3 36e4 d593
00000480: 3df6 03c4 7df2 2613 d454 1b3d 29ef 1513
00000490: 2491 8e35 61e1 7e16 efdf 50c8 419f 5f13
000004a0: 4cd8 64ac 79d6 cc95 5ec4 794e ada0 4013
000004b0: 09ea 5153 34f9 a293 eea7 7100 e6cb 2616
000004c0: 34b6 7776 deb3 8414 97a7 c302 47a1 0e97
000004d0: bebb 4c88 76b0 d717 4892 3fbc ffd7 5698
000004e0: e6c0 e345 5abf f817 0e15 bee1 5475 9d94
000004f0: 2875 b241 7112 6118 d986 62dc 4de6 8a17
00000500: 2c12 7f10 16cb 6895 5db6 d62b e3ad 6916
00000510: d030 53f8 0b47 a995 a425 7471 b014 7c93
00000520: 9f77 292b 5342 fa93 e616 a5c0 ecd3 7298
00000530: 0fc0 e9a8 f79b 8895 8e58 fcea 9a19 0f18
00000540: d650 6824 f9da 3694 449f df2a 6856 bd95
00000550: 07d1 eb7e 6346 c096 ac48 0854 9ee0 b215
00000560: f5f8 9d73 f2eb 8d95 5e8d aaf7 89ec 5115
00000570: d4c3 1dab 7d6e 5397 6bed 109a 7731 ae95
00000580: 4a40 7d97 b570 4715 a7ce b7fd fa2d db96
00000590: 2f4b e3b4 3c75 6696 7cad 8fcb a1ce 2e93
000005a0: c766 2e5e 7254 d693 00b2 a729 82c6 b896
000005b0: c8b8 c5e9 76dc d713 fc71 f07a 909f 6218
000005c0: e20a 2170 3047 d495 6fbb 2b40 92f5 8013
000005d0: c1ff 8eae 7eac e297 e4d6 cff8 539f 3c98
000005e0: f62d 3674 5c80 6417 9a50 d11f 3a55 0098
000005f0: 8439 d001 16da d212 d589 9551 09f0 9816
00000600: a16a da15 a7e1 4ebf b47d d96d 3f75 35bf
00000610: 79b8 9578 8aa5 5dbf 95b6 9804 54f5 68bf
00000620: 7296 cb1c 4407 a73f 86a8 25ff ec54 98bf
00000630: d4b8 76b6 a460 5e3f cd07 cc4a ba89 c13f
00000640: 0de7 b1d2 b58b b4bf cb9d e447 1355 c4bf
00000650: 7625 d11c d380 1d93 2071 f240 d4c1 b8bf
00000660: f722 2005 ff9b c5bf aaef ffc0 93ae 5213
00000670: 3f51 5ab7 3918 c1bf 518d 9159 4153 ab3f
00000680: bf53 97e1 8bb9 8ebf dd53 e8f4 806d 96bf
00000690: 528f e238 0b0e c0bf 5ea9 6acc 43ec b9bf
000006a0: f9b4 da94 4b49 2813 509d d7fe c7fd c1bf
000006b0: 2122 876a 029a c13f de35 61cb c6b8 c33f
000006c0: 7ac3 f136 f222 ae3f e9b5 c3b6 2791 bd3f
000006d0: c834 b62b 3538 c4bf 0508 e5b8 f537 c23f
000006e0: 4b15 713c 9814 c0bf 9b09 216b 6d36 c43f
000006f0: f6c7 e1ca ae82 a3bf 119b 6457 6d55 b5bf
00000700: ee75 8531 a0f4 c23f 5cba bcf4 bcd9 a5bf
00000710: 33d7 0875 3dde f3be 49d1 aea2 1e95 b6bf
00000720: cb59 1740 f268 c7bf 06ff 4eb5 9356 a93f
00000730: e436 8988 4f2c b03f 94eb 975a db8b 9a3f
00000740: a52d 8d42 2c40 6618 bb5c 5f30 820f 1093
00000750: 814c 83c9 9752 a2bf 2bd3 3b77 3a58 c7bf
00000760: 5702 6ec4 adce bf3f 5b83 2b22 a50b c0bf
00000770: 7a10 6945 f9ac b13f 8335 26ac f9df 5998
00000780: 0b32 5382 9bd5 b5bf e4d2 79c3 46af b53f
00000790: bef3 834f dace c7bf 5a10 3b0f 051f 84bf
000007a0: 16bc cfe0 8796 8f95 002f f70b cc24 aebf
000007b0: 35ff f138 766f b094 32f0 8061 d34b bbbf
000007c0: 5655 c0ec 147c 753f 024c ce9a cab1 b13f
000007d0: ba24 2545 98c4 74bf 43ef 1f04 8613 c23f
000007e0: 93b3 81a0 2987 bcbf 5a7f 598a 62ad 9cbf
000007f0: e623 859e 62a3 b9bf 6c62 bfcd a040 b43f
-0.002422288025618305 -0.00035160556676110024 -0.002030634005827929 0.029252024537114975 0.13768827897963523 -0.05805908458816082 -0.03159273334735928 0.13927643632028322
0.08023734903462801 0.14355310398155063 8.043646082087351e-188 -0.02935533056750601 -0.04045146720593954 -0.042784234361881265 -0.005249485000601455 -0.0020131540030110724
0.07935862281594719 0.12259897163969677 0.021567953253759476 -0.14403469313151776 -0.01754312687840386 -0.18443079496593437 0.006557639617093273 -0.18023643518131785
0.04470514172451012 -0.025816642311552864 0.12561022097350819 -0.11996870404665333 -0.1405874469886172 0.06191314913110784 -0.15862406047884622 -0.15816800041852772
0.1088237136124991 0.010132780460079403 -0.004629185547604331 0.010957885368566287 0.13873445040260562 0.07493997530284116 0.15586005803249967 0.13328836457870788
9.329539151015585e-204 -0.03587533125965346 0.13050740977145467 0.1658695944070116 -0.06803426852315797 0.039233345826697366 -0.0011221923385263458 0.013989749477176835
-0.1801990074251539 -0.08564458882360974 0.09596762870387564 0.06597755350159006 -1.254650953015866e-208 -0.17619504182476367 -0.01256270612249189 0.07884499406507398
-0.036546196164290966 -0.06530987913134005 -0.007030639780647385 -0.08930133274765321 0.048323757481582366 0.1141836302508727 0.14173608477649968 -0.13890386630035143
1.3469553131626448e-36 -3.959868608924866e-07 -1.7946829582778371e-07 3.2916697776317443e-211 0.022615323221456443 -0.20783140880160872 0.15715712155381747 0.06526087883303003
-0.1435447914149793 0.06415373752692399 6.046754263143214e-200 1.042121079688923e-209 -0.09239099958089456 -3.4206241396842045e-193 -0.03488363131685876 -1.4239353754722693e-212
-0.05247536573083217 -0.198433286551205 -0.0006608563001193451 4.7186200891434686e-08 1.2591333237875893e-196 -3.0348881722325557e-07 0.19723754311756958 -0.0616130817874564
0.08362621038878616 -0.058865781973446364 -0.07868646854653968 -0.14790716613047147 0.07180172148371711 -0.13908367459032883 -1.7234014684461577e-187 0.09238164342952644
-0.08137674280732261 0.038972855825274745 2.2908275903287056e-86 0.050357364671888935 -0.03339849111767602 6.023642413418086e-24 0.017907045842051716 5.02160518244785e-23
5.665610780408091e-208 -6.436259898718148e-204 -0.0012920737627246052 -0.1609126395313282 0.08618626744301104 -0.00968359648548768 -0.15689945309377706 3.2299478845990137e-214
-6.155604946203034e-07 0.08333035671950746 -0.017357472867793395 -0.0002496793173854282 -7.555506177884779e-203 0.0037288398580659875 1.3185068168752534e-200 0.10814761701898995
0.0011574642079476753 0.1894536748207332 -9.623323349987586e-190 -0.11437195700496272 -7.373046614110468e-190 4.18358705711156e-189 -0.060992786085722624 -0.11062715169190673
6.561840799596811e-201 -2.0034860110833705e-209 3.368217878648306e-210 -2.1604400502779667e-192 1.545717969532247e-216 -1.3890912677620366e-215 -1.6848297142092146e-216 3.5910531579665614e-213
-4.6050180855383764e-216 -5.079654766687043e-209 9.092795774185743e-217 -8.93019128972868e-206 2.1118548765714873e-198 -3.685010983039207e-215 -1.8899786098488932e-215 -4.064225526996631e-213
2.080192009708039e-216 9.941808310384095e-217 2.5214227477188548e-200 2.2932625918127737e-215 -1.1497276625769041e-203 6.029257703301936e-216 -4.4031097000577416e-214 5.816753750889019e-202
7.871512694680948e-210 -1.2805003734416111e-197 8.112882530496737e-194 -2.0027654386078117e-191 3.3901086722063652e-193 -2.2401190383626357e-209 2.9934926658466945e-191 2.8788501363864494e-195
-1.5444981791826494e-205 1.0483714748724167e-200 -2.5194603349039035e-204 -8.145783227733759e-215 -1.9500358780251183e-212 -6.602722668749489e-191 -6.132129245337574e-205 8.520664353864168e-193
-2.715633746958417e-211 -5.8482570137665e-204 -4.252386096183751e-199 3.763097688444846e-204 -7.455877522297455e-205 5.582868909814648e-206 -2.599510108053687e-196 -3.009418218625612e-204
3.650527335478966e-206 -1.4203196917943656e-198 -9.168602775348527e-201 -2.792702914243243e-216 -4.145617944650486e-213 -3.2367113308801797e-199 4.429912701673913e-213 3.265497553470507e-191
-1.6169248404253594e-203 9.839206417872173e-215 -1.2790445931913879e-193 -6.273478924697235e-192 5.485251918651762e-196 -4.47483033893073e-193 5.340454707969924e-218 8.144759729269396e-200
-0.0009424272390846264 -0.00032742308198937674 -0.0018094875580021692 -0.003046669099396502 0.04497731067185108 -0.023761466095870286 0.0018540962717952707 0.13701561596104597
-0.08025680917662843 -0.15884629259492863 -1.3372498806480862e-216 -0.0967075975954157 -0.168823125364973 1.3548310266512052e-215 -0.1335518021848063 0.05336956232420199
-0.015002339193339041 -0.02190209860608038 -0.1254285838850771 -0.10126136532440941 2.2015809167355155e-216 -0.14055728858441308 0.13751249505573163 0.1540764325203971
0.05886036797244905 0.11549614154838363 -0.15796532282221265 0.14233275917109736 -0.12562849951988606 0.15791099291716368 -0.038106405511726324 -0.08333476432435939
0.14809038560899473 -0.042676834941052205 -1.8947720777449244e-05 -0.08821288558721564 -0.18289020661786845 0.04948865497817505 0.06317612727545058 0.02592413654745547
3.90153906092346e-191 -7.279547145876405e-217 -0.03578638396143053 -0.18238001653630795 0.12424741788528003 -0.12535537880378453 0.06904561943616896 -2.2685142114009065e-191
-0.08529064113390221 0.08470575592384538 -0.18600014574613327 -0.009824790503792414 -7.871096553077308e-205 -0.058874489269866714 -4.999231347304423e-209 -0.10662575846157621
0.005245286691225223 0.0691191318458522 -0.005070299916334503 0.14122080994990868 -0.11143741768473907 -0.028005160993756696 -0.10014931078070752 0.07911114714750916

arr_3 f8 [64]
00000000: 2697 38eb 21a6 b33f 12bd 18af 2b58 9ebf
00000010: 94d8 9c97 3def b33f db2f 6e09 b3b8 c3bf
00000020: cbef cd60 6542 c93f 3341 2047 b323 d73f
00000030: 65a1 b84f 5b10 86bf 2179 bd1b 0429 b03f
00000040: a1f1 21ab 0201 c3bf 7065 add2 27a7 bcbf
00000050: 15ee b883 2575 bbbf 80fa 0798 4210 893f
00000060: 6bef 3c4d ccbb a13f 55fe 01ad c82d c0bf
00000070: 98c7 ba15 f789 bf3f e26a 85de eebf 99bf
00000080: 35c3 c654 d4d6 afbf 994e 0953 1115 c13f
00000090: 90ec 493f 3067 c03f 3271 a6e6 8611 a03f
000000a0: ba65 4967 1ab2 b6bf 166f a9bb c5b7 c23f
000000b0: 3a6d 0fb2 5969 c0bf 0508 5c38 0c12 c1bf
000000c0: 1321 e94f 3fc7 adbf 54df 9ccc e534 a33f
000000d0: ee6f 2fa2 4a56 c0bf e7ae 2b55 0558 73bf
000000e0: c3d7 cca2 b2fc bdbf d49f 8f05 cabb 993f
000000f0: 718a 4f84 4df2 a1bf cbfa 71d4 0b38 b4bf
00000100: 94ba 660d 7951 bd3f 25b0 ff0a 23f9 b63f
00000110: 93a5 87f1 73a0 5abf 324d c487 9bb2 9d3f
00000120: c521 820e 7fac bfbf bd65 49ba f20d b43f
00000130: b8b9 b27e 77a4 c13f a325 6c34 a43b b1bf
00000140: 09a2 a180 4408 c3bf 5c51 d82b f890 a2bf
00000150: 1833 09c9 1b19 b3bf cdc5 8ee5 7be0 913f
00000160: 44a7 8759 c93a 9ebf 25ba 95dc 028d cc3f
00000170: 8adb 25dc 86f7 bc3f ce40 3358 6dc8 c03f
00000180: e8eb 51b2 4332 c2bf 583a a8ec 7cc6 a2bf
00000190: 1419 bf45 7a0a 783f 92f5 f03d 4b30 96bf
000001a0: 880e f2e0 8fa8 9dbf 79aa 5bef ea41 c1bf
000001b0: 70bf 39c9 8f20 b33f b645 3bad 206a 93bf
000001c0: cf0e f3f5 5fbb c4bf 71dc 9b0a f7a7 a73f
000001d0: 73cc a2db 566b b73f 9b2e 7b09 c66f b4bf
000001e0: 7993 40f7 f66e d0bf b462 579b 1a8f bfbf
000001f0: 395f 0658 8cea c43f 21a5 1b82 15a7 a13f
0.07675373070432254 -0.02963321930127189 0.0778692717693466 -0.15407407722921004 0.19733874537257487 0.36155397363565384 -0.010773385401151978 0.06312585522889382
-0.14846833568652776 -0.11192559140672187 -0.10725626436117637 0.012238044991133679 0.03463591044280075 -0.126397213436564 0.12319893150814065 -0.025146229106534863
-0.06218589339130746 0.13345543436536358 0.12814906206390164 0.03138372006944436 -0.08865513822219998 0.14623328841377575 -0.1282150382456651 -0.1333632731621607
-0.058160761360854484 0.03751295206751473 -0.1276334087295931 -0.00472261508069114 -0.11713711237538775 0.02513042124692773 -0.035051748658379796 -0.07898019730235288
0.11452442719631001 0.08973902719998302 -0.0016251690159328799 0.029001646195934323 -0.12372583488661977 0.07833783195510242 0.13783162771637847 -0.06731630592198327
-0.14868980675534285 -0.03626227889268094 -0.07460187585929778 0.017457900892343937 -0.029521127786132043 0.22305331965203937 0.11315195917801027 0.13111655050898324
-0.1421589489653734 -0.03667059315568072 0.005869367243525287 -0.021668601661294647 -0.0289633256002291 -0.13482414901166687 0.07471560156568358 -0.018959532330716754
-0.16196822652101736 0.04620334629537915 0.09148161756711364 -0.07983052951311224 -0.25677274842956127 -0.12327734272492813 0.16340784357157093 0.034477874882052235

arr_4 f8 [64, 32]
00000000: f09b 88b4 67f1 853f 55b4 0892 d75e f33e
00000010: 7672 2be8 5ae7 60bf b05f 6958 89d3 139c
00000020: aa6d 3d1a ad06 103f dfe9 ec0a dcbc 7cbf
00000030: 4278 873c 1c26 46bf 28bc 4174 6511 7ebe
00000040: db5c a28f 6203 75bf 38d9 8bc6 edd3 343f
00000050: e030 df2b 0fef 1219 cd4f b31e 6c87 fe92
00000060: 6dbc 16da df31 bd18 d857 f719 f248 4c16
00000070: 335c 00e9 4a6a 88bf 67f5 7598 870d 713f
00000080: 236c af4e 36a0 cf9c 9a14 5f9b ebca 721c
00000090: 8793 bbb2 56f6 411a a2c2 9538 2651 1395
000000a0: b803 9d7a aae7 eb2e 4f20 80d6 25b7 623f
000000b0: 521e fbf4 614c cabc 61db fd68 64da 1cbc
000000c0: 0c82 69be d715 3a98 8f9c 50d7 2978 7215
000000d0: 9449 325d 87e5 259a 66e6 57c2 209e c718
000000e0: 64de 5ad6 fcf9 7dbf 1a3d 02e6 5e49 9a3d
000000f0: 5dea 8069 323b 3f13 331f 4f65 56e4 5abf
00000100: 1e43 22cc 2e45 de39 d194 9f2a abb6 7532
00000110: 66d8 89ea dd35 7faf 9cf3 c466 ad76 3095
00000120: 176e c4c4 68da d994 2c37 651d 8f6a 401a
00000130: b340 ede7 6a78 8913 a039 4848 a48b e515
00000140: 41dd aaf3 a538 e922 cd22 b795 0aeb df9d
00000150: 6ed7 0e59 95f5 6d14 a6da 7151 38be 4d18
00000160: 25f5 8815 387f a193 7301 6f70 c7bd e192
00000170: 3000 1138 b50a d62c 5425 1a5b 498f 57a8
00000180: 25d2 8edd 1c9a 5196 cc98 87cd ded9 e592
00000190: ed77 b3e1 36b3 6495 05e0 05eb 19cb 9d97
000001a0: e2fd 83c1 b11e 3e1a f12a 79dc b2e5 d132
000001b0: 5d43 2be0 7289 6f99 4402 b751 8b33 0f98
000001c0: ffb0 8283 d473 d113 4aeb 43e5 4719 1493
000001d0: 5a86 5de6 f626 9e9a 20fa 9823 af8f 9d9c
000001e0: b2da f061 ba7b 8e2a 62d7 e205 b74d 151b
000001f0: bf05 bd3d 1dad 9e97 3e4d 02e2 af84 eda9
00000200: de7a ef26 61df 673f 99bc cfe5 5c84 57bf
00000210: 353a 5663 2de6 633f 850e 4dce 7ca4 b9bb
00000220: e8dc 4bdb 96ef 7b3f 29a5 3c7b de63 8e3f
00000230: 4e33 2c11 6b14 87bf ffc2 b481 7c82 7b3f
00000240: 741f 08e1 3fd7 753f 619a 7f84 e5ee 663f
00000250: 2758 a6ed 2732 6413 8d63 a52f 378d 2099
00000260: 88db f917 1b43 183e 4634 9d38 8eec 2a36
00000270: 4bc1 a1a9 0b07 813f 2420 62c9 22cb 713f
00000280: c804 14b6 fc2c d69c 1ff3 16e8 134a 39bf
00000290: 9e99 5108 f022 739a c537 5c3b 8deb 3b93
000002a0: 8b6b b412 8fd5 573f 4a5e 3435 2408 42bf
000002b0: 9dc5 0e70 48d7 8c3f aba4 e1e2 2603 47bf
000002c0: e4ef 66e5 c502 091d 90a2 9179 eb7b f33a
000002d0: f95a 20cd 70a4 5d94 f2c7 3b7f 7caa 613f
000002e0: 5bfd 54e2 e661 5ebf d0af 0f88 376d 7d3f
000002f0: 2b1e c56a 1930 2d98 8257 0aeb a009 8d3f
00000300: 8771 aaa1 9e01 4e3f 7766 c5ba 2ba0 843e
00000310: f96c cd93 90c7 a7be 2a57 0bc5 f3e8 5d93
00000320: dc83 9622 b21b 5d13 25a2 ff9d a2a1 88be
00000330: d3f3 a90a 17be 1121 f780 fc9d ad29 109c
00000340: 9141 e95e f93e 3d16 7939 991c f341 86be
00000350: a6ac 7ce0 603f 5f95 cdd7 3196 63bd 3639
00000360: 0c9d d66d 403f 51bd 14ed 74c1 5b11 fb9b
00000370: 97d3 3105 d521 c13e 334f c414 489e ca32
00000380: 4de1 fa3c 5cbc f299 b533 47f9 5ce4 0b22
00000390: 60c7 1890 5235 0118 7844 4cde 6beb 1117
000003a0: 0140 f062 0b17 d299 d338 3508 ae3b ac3e
000003b0: e4b3 a5f6 b592 fe92 cf24 0c01 d1f0 febb
000003c0: 86b2 435c 3f44 6799 177a e58f 9be5 5515
000003d0: 9710 0cff e4eb 6b1a 1870 2694 a918 1f3f
000003e0: ba05 e625 4733 b33e 3b8a 6e56 4c59 8513
000003f0: 57f6 c9c8 50ed 5193 cf49 df55 a8b2 123f
00000400: a469 d652 90b8 b1bf 4882 9589 b784 c0bf
00000410: 5e3a 2c11 6e1c d0bf 5159 22c6 e7b9 84bf
00000420: 1910 0d6e 4f77 c23f 9180 f399 b3d4 c3bf
00000430: e900 ebdf fc9a cc3f db6c d137 4907 ac3f
00000440: c7c3 c236 c281 b7bf c32e 628d 0e77 c23f
00000450: 4d44 9325 d538 bcbf 7ee8 14e2 e092 cabf
00000460: 086f fbdb 3a0b bb3f a108 56a1 f655 7cbf
00000470: 7488 4122 67fe be3f 2a7f 95f9 465d 98bf
00000480: 87b2 0c64 adc5 cebf 718f 5e9d 06ef 943f
00000490: 7685 e159 ca82 483f 96b7 fa16 de23 5397
000004a0: 9010 9c3b f814 90bf d9bd eae9 7eac c2bf
000004b0: fd9a 8f6f 5790 953f 5306 20b2 271d cebf
000004c0: ad59 6262 0b49 92bf 1559 59d6 aa17 c8bf
000004d0: 0792 64c0 9cba 95bf f944 fc4e 725b cdbf
000004e0: 39a2 ff53 8b22 ac3f fcb7 cdc1 9991 abbf
000004f0: d0a3 2fae b340 ce19 3ceb 18d2 943f ca3f
00000500: 5630 025b a128 b83f 4af3 6012 7b2f 983f
00000510: 1fd4 e3aa a125 bc3f 3ee3 84db 438c b83f
00000520: 48d4 edef ca3a bdbf 9166 fd5b f6e2 b5bf
00000530: 8484 c119 74f3 973f 85c2 f1c6 1f33 bebf
00000540: 5e30 0e2c cad3 b33f 97b6 533d eb55 c23f
00000550: edea c7af 1d50 c0bf fb31 cd65 afbb c8bf
00000560: 553a 88b6 72cf b3bf 76bd ec30 f218 7fbf
00000570: 39d0 e8d8 96c9 cf3f 3273 3200 0606 c83f
00000580: 39f3 0af9 532a c0bf c58f cb01 9804 9fbf
00000590: a3b6 d805 44ea 9bbf b6e6 f88e 9b67 8a1c
000005a0: da60 4b74 4e5a 7cbf 8beb 042b 0f00 b13f
000005b0: 3c2b a7c0 ee52 cb3f 01b3 303e f261 413f
000005c0: fb08 5d2f 6fab 96bf 0645 e7e8 973e c3bf
000005d0: 127f a5ed 0258 7ebf d2d3 f14a 2a59 c2bf
000005e0: c459 05d3 faa0 cb3f ed08 b0be 4cf1 bebf
000005f0: dfd7 a060 9311 fa17 22c3 0d78 02c6 bb3f
00000600: 25d6 a741 d313 cbbf 478b 1779 9a6c c7bf
00000610: 1f0c 611e ebbd cabf ff91 db8d 7882 cbbf
00000620: b89b a49c 0a5d cfbf 2569 4920 f853 a0bf
00000630: 63fe 7bfe dd17 68bf cd03 821d abab c0bf
00000640: 1fc9 95c8 57a2 cc3f ef76 75c6 0167 7abf
00000650: 3f3b dbce 85c2 b03f afb9 b0ac 0d17 cabf
00000660: ef47 354c 275f cbbf 56ca 835f 6a37 80bf
00000670: cf61 7233 7eac c3bf 34bf 8116 c5c6 c23f
00000680: 843e 82b1 1c49 743f bb38 b642 a0df b93f
00000690: f659 8ef5 ad37 96bf 17ec 125d 43bc a09a
000006a0: 25ec 14f3 a022 a1bf b805 f99d b687 ca3f
000006b0: d887 926c e87c b2bf 07a7 4f4d b2f9 9cbf
000006c0: 6d11 6acf 9c3b 94bf 2f36 1375 340b c73f
000006d0: 6509 22e6 7e22 75bf 3430 109e 2e15 c7bf
000006e0: 12a9 991e 25a7 bfbf a732 22a5 e0d4 bb3f
000006f0: bb47 27a3 56a7 0816 daf0 8b59 3ee0 b73f
00000700: f00b 9243 d869 c9bf 1c6e bd97 152f c43f
00000710: f123 fbe0 cf76 a9bf fcf2 4b87 5c1e bb3f
00000720: 2f00 d05e fe24 bc3f 29e2 8480 19e3 cf3f
00000730: 8cbf f21d b095 c43f 2b84 5dd8 43f3 b6bf
00000740: 8930 20b0 069d b43f 5419 8cc8 00fa ca3f
00000750: 04d8 a5a2 46bb bdbf 0e68 8c6b 528d cdbf
00000760: add9 11ca 2400 81bf 9a4d 3a30 1f47 80bf
00000770: fe7b 5763 0cc1 c3bf 23f2 4a4f b13f c7bf
00000780: 666f 3191 9264 abbf 3148 42d2 2677 c3bf
00000790: 8443 2153 edd2 9cbf a37b 98df 7cb3 9d1a
000007a0: 80d1 2f8c 80fa 3dbf eae4 beb4 0a31 ba3f
000007b0: 588d 0834 e66a 92bf f852 877a fb7d c73f
000007c0: 00a3 aff2 448f 94bf e668 2a8e dc2e 8abf
000007d0: ea00 253d bc94 7cbf 8eac 849f bfc0 9a3f
000007e0: a1fd 3129 6b3c a73f c230 c2bb a85a cebf
000007f0: 8d88 8d69 26e0 e01a a821 d8b8 b221 c33f
0.010714349934529438 1.8473126262620192e-05 -0.0020634437108653604 -2.0040312832307154e-173 6.113463910877603e-05 -0.007016047994336166 -0.000675929820370909 -1.1201185851223478e-07
-0.005130181316551598 0.00031780772273694606 6.799251077272458e-188 -3.4593589380780163e-217 1.6381307830404912e-189 2.8868767003620437e-201 -0.011921487079275738 0.004163293523899859
-6.546879873982612e-170 1.2157119360568925e-171 3.3818443892331954e-182 -3.7604726520186994e-207 1.1491384935080396e-82 0.0022845973035181886 -7.299263889021372e-16 -3.9103234860314247e-19
-5.7174055347357734e-192 2.301099940626037e-205 -1.0306453801836098e-182 2.6503919599924057e-189 -0.007318484922215516 5.976881831375387e-12 5.662292778477652e-216 -0.0016413539608368221
5.969753281419147e-30 1.2886404894820996e-65 -6.580527967063963e-80 -1.2819980101715873e-206 -3.1455505030215113e-208 3.0907685913931626e-182 1.4777077330094804e-214 3.4359672739227714e-203
1.6546235278729253e-140 -8.660437415310732e-165 2.8477695898522733e-210 1.3038217629306315e-191 -4.060461813884165e-214 -1.0051692213988657e-217 1.0566932835943382e-92 -2.391727259193989e-114
-3.593064344619274e-201 -1.2380140478733576e-217 -1.2895093463701128e-205 -6.377087329467828e-195 2.8354119124823216e-182 6.797785964819176e-64 -3.624030292343483e-186 -8.54842484737017e-193
3.240110085677146e-213 -9.109871476015266e-217 -1.8166099387045023e-180 -7.649367093422898e-171 1.0632947414039821e-103 3.2857539892514824e-178 -6.5660587972510635e-195 -1.0055021859355133e-106
0.002914132833651591 -0.001435366363917534 0.0024290930256889672 -5.430016810292012e-21 0.0068202870213476055 0.014838922630206657 -0.011269413434570243 0.0067162383596019995
0.005332231070958805 0.0027994616284446193 2.929252359567161e-215 -1.18875759382783e-187 1.4122419621787273e-09 9.211089620015589e-48 0.008314219583753021 0.004344116101613369
-9.18122013222891e-170 -0.0003858851051424128 -2.882335719005948e-181 -5.061980423272876e-216 0.001454724998274345 -0.000550286941151287 0.01408249465916605 -0.0007022800325674668
8.28400939764873e-169 1.0073023865161014e-24 -1.4088203596667045e-210 0.002156489523138732 -0.0018543963172559994 0.007184235496406857 -3.1987142715871466e-192 0.014178521321166707
0.000915720421591313 1.5367319628860387e-07 -7.086858101289622e-07 -2.1690975575517038e-215 2.1109515602192954e-215 -1.8351813846287607e-07 2.1680931136010586e-149 -1.633726115043044e-173
1.4924826098632902e-201 -1.6583216071387828e-07 -9.732832550484e-206 4.3795263333298004e-33 -2.4509570351049876e-13 -6.839991709851665e-174 2.0423122264974925e-06 5.0551150200750184e-64
-1.1023372631425388e-183 1.1168437823053121e-144 4.714661653095026e-193 1.498274956096153e-197 -2.66085769766491e-184 8.414126714624685e-07 -3.4643555720812172e-217 -1.0483113248099929e-19
-2.6736555948033946e-186 6.820335011082474e-206 2.1027652575049075e-181 0.00011862311388316537 1.1444273223252029e-06 1.2385883693225446e-214 -1.3000829686819203e-215 7.132675588587062e-05
-0.06922246954346761 -0.12905019968003928 -0.25173522641208546 -0.01012021134765165 0.14426606057725236 -0.1549286367144345 0.22347985204215284 0.054743087829331315
-0.0918237098401412 0.14425832656376344 -0.11024219672550935 -0.20760737456459205 0.10564010496767307 -0.006917918586056755 0.12106937967613068 -0.023793324454685884
-0.2404076326869424 0.02044306121355483 0.0007480133097141201 -2.560514325855266e-196 -0.015704992903025572 -0.1458891527340558 0.02105843180097632 -0.23526474187387922
-0.017856767539876795 -0.18822226969013714 -0.02121968197129045 -0.2293532262488396 0.05495105171559484 -0.05384521952406371 2.224935400696202e-184 0.20506534823092604
0.09436996909988812 0.02361862468409307 0.10994921133153966 0.09589027509072154 -0.11417835576669788 -0.08549442048879487 0.0233896389694377 -0.11796759230652228
0.07745040488788521 0.14324703688128146 -0.1274449451737704 -0.19322769614008437 -0.07738415676451756 -0.007592149790795024 0.24833951560288073 0.1876838208162553
-0.12629174862186135 -0.030290961370056175 -0.027260840279430664 3.4162842548233884e-171 -0.006922060453426771 0.0664071540858641 0.21346840292820868 0.0005304749323663261
-0.022138345018228183 -0.15034769890056782 -0.0074081529986356354 -0.1433461061421029 0.2158502130866521 -0.1208694425149905 3.5710951161203154e-193 0.10849013739585847
-0.2115425177177467 -0.18300181305593297 -0.20892085059503615 -0.21491915632863365 -0.24502689980110204 -0.03189063448071953 -0.0029410682508339988 -0.13023890438856114
0.22370431226915685 -0.006445891317836446 0.06546818065838254 -0.20382853443284207 -0.21384135457134287 -0.007918196716194686 -0.15370156776476881 0.14669097517934804
0.004952537616318534 0.10106851223665363 -0.021696775543739798 -2.0165489933344063e-180 -0.03346732108408216 0.20726664269936435 -0.07221844340031625 -0.02829626652593389
-0.01975865379292101 0.18002944675974805 -0.0051598507872106835 -0.18033392637187406 -0.12364418026996685 0.10871700316983866 1.5726585126125168e-202 0.0932654350871788
-0.1985426263746315 0.15768690022638132 -0.04973458882665927 0.10593202880040659 0.109939478061279 0.2491180303129721 0.16081811392131973 -0.08964942962985904
0.0805210285181507 0.21075448791834595 -0.11613885374922012 -0.23087530375852378 -0.008301055351904585 -0.007948154124540353 -0.15432886934920015 -0.1816312443896929
-0.05350168249489577 -0.15207371965931452 -0.028148372839783345 1.7894332286594959e-180 -0.00045743597382787854 0.10231081879364337 -0.01798591320597373 0.1835321758541324
-0.020077779114134664 -0.012784693802406055 -0.006977782543174474 0.026125902281972695 0.045382832316131834 -0.23714169662378565 3.2535048191133806e-179 0.14946588540648276

arr_5 f8 [32]
00000000: fcd2 5c86 aa8f be3f 570b 4c31 b0ca b93f
00000010: 95e7 ec68 9761 a9bf 471e c35f 275c cd3f
00000020: 67d0 352c 43de cebf 1c4d 2fb6 05fb c63f
00000030: 0f8f 0077 9c04 bcbf 9c2f cb4e 6e77 ba3f
00000040: 0e3d bb74 d5c4 bd3f 6973 cfc7 3ad0 cb3f
00000050: 9de5 ac4a 8750 d0bf b294 c1d5 5ee4 bcbf
00000060: e545 1b56 4fbb a7bf 69d5 e5bf b0d1 ae3f
00000070: 32b6 7c5b de4d b33f 2a02 d8e7 b841 bd3f
00000080: 978a b272 1788 c23f 7aad bb6b cd2e ccbf
00000090: 6945 c59a c933 c23f 00df 490d b765 97bf
000000a0: a354 7220 341e c2bf 6886 8c35 73df b3bf
000000b0: c7d7 6cb5 e6f7 abbf daed 3aaf d338 a7bf
000000c0: 082f b305 4536 a43f 6fcb 6e96 27a8 a53f
000000d0: ff5d 0296 2b17 c0bf 54be 46c0 8ed2 c53f
000000e0: 7a19 3ad5 a148 b0bf c9e1 1f36 b381 d6bf
000000f0: 809f a192 962c 65bf d5ed 6783 2959 cd3f
0.11937967090927865 0.10074902728596889 -0.04957268863513701 0.22937481094253284 -0.24115790995313377 0.17953559299221744 -0.1094453611881898 0.10338487075494956
0.11628469562423424 0.21729216343274096 -0.2549150685550446 -0.11285965651184673 -0.04635093618493239 0.06019356100561419 0.07540693028996584 0.1142840925240384
0.14477818584881127 -0.2201782966652493 0.14220542962224705 -0.022848949609822533 -0.141546741335934 -0.07762832696291755 -0.05462571110403718 -0.04535542978325298
0.03947654432849218 0.04229854308450497 -0.12570710014982464 0.170488208661015 -0.06360827880607714 -0.35166626248931415 -0.002584737861116737 0.22928351322467103
